maddpg_v7_over/model/simple_tag/agent_3/396_critic_params.pth (torch, 57783 bytes, 7 tensors)

fc1.weight f4 [64, 82]
00000000: d017 2cbf f836 c9be a72d c73e ad94 153f
00000010: a698 553e 5661 6c3e 5f4a 83be c784 153f
00000020: 4d3e 45be 44da 7bbd 4d7d ddbe fa07 6f3e
00000030: 7990 27be ffad 50be fe7a 4fbe 4a00 1bbe
00000040: 894d f4bd 2b29 7cbe cd54 d93d 66f4 053f
00000050: a944 8d3e e502 7f3e 43fb 013e 7c12 353f
00000060: ea5a af3e bb19 4b3e 2983 c63d 6700 d93d
00000070: f199 c2bd 8cf4 c33e 489c 27be d66b 34be
00000080: 898a 8abd 2844 b6be b640 25bd bd08 ef3e
00000090: 78a0 ff3e aec0 553c 9b71 7bbe ae6e 433f
000000a0: 0f34 033e 8d45 4a3d 8fe3 1c3d 7ddb 31be
000000b0: ee20 0f3c aebf 8abe dd1b 8d3c fa7f 01be
000000c0: bbcd 403e 00c7 913d c7cb d2be 853e c43e
000000d0: 339d 663f 95e7 37bd 3337 013e cf8b 103f
000000e0: 3592 eb3e abc0 383e a88b 36bd d383 413b
000000f0: 8046 bd3d 6a8f 3d3e 8af0 ff3d e1af 6abd
00000100: 4782 2f3d 3bce 0b3e e65e e3bc 3af6 5dbd
00000110: ca73 6f3e f60e 57b9 eb20 04bd 9724 913d
00000120: 035b 963c d905 9bbd 3e52 143e daec a5bd
00000130: c3e6 433e cd48 e7bd 3957 143e 4f44 a33d
00000140: 52eb a43b f068 e33d 4d76 61be d095 92be
00000150: b7c5 153f 9795 6bbe c091 173d 1f9f f9be
00000160: 49dc c93d aefd 5d3f 7275 31be 78a6 0f3e
00000170: e9bf 12bd 247e 723e 3007 9a3c 7baf 063f
00000180: 9c5e fa3d 3ac0 af3e 65ca b93e 67e9 21be
00000190: 3149 033f d80a cb3d 8d48 e83d 4f66 0dbf
000001a0: 695c e8bd 27f8 233f baa4 ee3d 5889 12bf
000001b0: 7dc2 a1bd c7a7 0dbe aac6 ddbd 13d1 03bf
000001c0: 3790 c63d e902 b33e 170f ad3d 76fb 0cbe
000001d0: 63d9 e33e 0bb8 a9bd 1661 b73d 5b2e babe
000001e0: 4038 04bd 7061 753f 4b95 93bd d896 cfbe
000001f0: bceb 733e b2ff e13d 16e7 c2be da2f 44bd
00000200: c6ae 133e b17c 913d bc13 3f3d 4d0c 28bc
00000210: f63b ea3e a5d8 47be 572c 5bbd 91e9 94be
00000220: d217 cb3e 8315 9b3f 01f4 393e 4e7a 48be
00000230: 6ccc 6d3e 1e4d cf3e 15f4 023e da1d ccbd
00000240: f48a c23b b122 033e 5bce b43c 7bcb 75be
00000250: 8236 773e bf3d 2bbe a5c0 14be 2d13 7ebe
00000260: 42bc 9d3c 0da5 38bc e074 80bd 0348 c43d
00000270: 159e 9ebe c9ea 39be 0ddb 563e 7a00 573d
00000280: 9371 043e f6f1 d6bd e968 ec3d e0f6 a9bd
00000290: 3baf 85bd 05df 333d c77c 0fbe 8aae 4bbf
000002a0: d14b 603e 3a3b a0bc d3a8 883d 167c b4be
000002b0: 9b4d e1bc e573 823e e7b9 13be 5913 dcbc
000002c0: 6c06 e93c 05b6 08bf 9d34 a33d abde e0bd
000002d0: 1545 7fbd 5082 dfbb 048c 7a3e 4580 b8bf
000002e0: 1de9 aebe 62cf 35bc fd35 0cbe eda2 a63e
000002f0: 0fa8 a13d 58a3 58be 53a2 c33e 9711 e0bd
00000300: 520f 263c b29b 2bbf 99fc bb3c 15e0 54be
00000310: 523a 12be 6653 00bd 448b ea3d 1af6 1bbf
00000320: 5bab 23be c1b4 aebe 5102 883e e099 71be
00000330: 6910 563d 6913 613e 9276 19be 56d1 363e
00000340: 6fcd d23d a95a e5be 0a28 e3bd 2255 09bc
00000350: 4fae 533d bd0c b6be e8e7 1ebe 31cc fbbf
00000360: c95e 1d3d 27ea 303f 3039 e2be eb3d 0e3f
00000370: 7c32 633e f928 2a3e 5631 27bd 1fe6 123f
00000380: ac22 80be 50bb 983e d32f b6bb 5b2b 9c3c
00000390: f3be 88bb f271 8bbc a2b6 673d e762 203c
000003a0: f4c2 8ebd 0d51 bcbb df13 823d 2307 693d
000003b0: ea8e 22bc 3c75 aebc 08fc 233c be1a a2bd
000003c0: 9d7c 99b9 8637 f9bb a90c c13d ea11 07bc
000003d0: 15c8 cbbe b398 d33e c23a 013e b14b 973e
000003e0: 38f7 193f 6eda 84be 06d8 96bd 683a 91bc
000003f0: 0ae8 87be ef48 9dbe 789d 533d fe6d 903e
-0.67223835 -0.3929975 0.38902017 0.58429986 0.20859012 0.23084006 -0.25642678 0.5840573
-0.19262047 -0.06148745 -0.4325966 0.23342887 -0.16363706 -0.20378874 -0.20261762 -0.15136829
-0.11928851 -0.2462508 0.106118776 0.5232605 0.27591446 0.24903448 0.12693505 0.7073133
0.3424905 0.19834034 0.096929856 0.1059578 -0.09502018 0.38272512 -0.1636821 -0.17619261
-0.06764705 -0.35598874 -0.040344916 0.46686354 0.49927115 0.013046427 -0.24555056 0.7634076
0.12812828 0.049382735 0.038302954 -0.17368884 0.008735878 -0.27099365 0.0172252 -0.12646475
0.1882848 0.07118034 -0.41171095 0.3832895 0.90083617 -0.04489859 0.12618713 0.5646333
0.46009985 0.18042247 -0.04456678 0.0029528036 0.092419624 0.1851174 0.12497051 -0.057296637
0.04284885 0.1365289 -0.027755212 -0.054189898 0.23384014 -0.00020509571 -0.032257956 0.07087057
0.018353945 -0.07569475 0.14484498 -0.081018165 0.19130997 -0.112931825 0.14486398 0.07972013
0.005032935 0.111039996 -0.22017784 -0.28629923 0.58504814 -0.23006283 0.037004232 -0.48754212
0.09856469 0.8671521 -0.17329958 0.14028347 -0.03582755 0.23680931 0.018802255 0.5261151
0.122250766 0.34326345 0.36287227 -0.15811692 0.51283556 0.09914178 0.11341963 -0.55234236
-0.11345751 0.64050525 0.11652513 -0.5724082 -0.07898424 -0.13833533 -0.10828908 -0.51490897
0.096954755 0.34963158 0.08450144 -0.137678 0.4450179 -0.082870565 0.089540645 -0.3636349
-0.032280207 0.958518 -0.0720621 -0.40544772 0.23820394 0.11035098 -0.3806693 -0.047897197
0.1442214 0.07103861 0.04664968 -0.010256839 0.45748872 -0.19516237 -0.053509083 -0.29084447
0.3966661 1.211594 0.18159486 -0.19577906 0.23222512 0.40488523 0.12788422 -0.09966631
0.0059369747 0.12806202 0.022071054 -0.24003403 0.24141887 -0.16722773 -0.14526613 -0.24812002
0.019254807 -0.01126982 -0.06272292 0.09584048 -0.30979982 -0.1815597 0.20981999 0.05249069
0.1293395 -0.10495369 0.115434475 -0.08299041 -0.06527563 0.04391386 -0.14012443 -0.795632
0.21903922 -0.019559491 0.06672826 -0.3525092 -0.027502825 0.25479046 -0.14426385 -0.026864694
0.028445445 -0.5340274 0.079690196 -0.109799705 -0.06232174 -0.0068209544 0.24467474 -1.4414145
-0.34162226 -0.011096807 -0.1369247 0.32546178 0.07893383 -0.2115606 0.3820978 -0.10940855
0.010135489 -0.6703445 0.022947596 -0.20788606 -0.1428006 -0.031329535 0.11452344 -0.60922396
-0.15983336 -0.3412228 0.26564267 -0.23593855 0.052261744 0.2198006 -0.14986637 0.17853293
0.102930896 -0.4479573 -0.11091621 -0.008382114 0.051679906 -0.35556594 -0.15518153 -1.9671689
0.038420472 0.6910729 -0.44184256 0.5556323 0.22187227 0.16617192 -0.040818535 0.57382387
-0.25026453 0.29830408 -0.0055599003 0.019063642 -0.0041731535 -0.017022107 0.056570657 0.009789205
-0.06970778 -0.0057469667 0.06351446 0.05689157 -0.009921769 -0.021296136 0.010008819 -0.07915257
-0.00029275278 -0.007605496 0.09426243 -0.008244017 -0.39801088 0.41327438 0.1262007 0.29549935
0.6014285 -0.259479 -0.07365422 -0.017728046 -0.2654422 -0.30719706 0.051663846 0.28208917

fc1.bias f4 [64]
00000000: 9cf7 ea40 be72 1bc0 6c15 b7c0 61f0 ea40
00000010: aa5c 2fbe 413b af40 285d 2ec1 c211 0640
00000020: 21e6 98c0 580c 1ec1 1670 15be 51f5 17c1
00000030: ade6 6640 c037 d440 1b66 4fc1 83be 3bc0
00000040: a33d 26c1 d990 6540 f90a dc40 a97d c0c0
00000050: 1e5a 67be 3880 23c1 b6cf 3140 746f 44be
00000060: 1e09 4340 b5b6 bf40 9d99 8fbe 80e2 9040
00000070: bb66 003e 4a51 5cc0 458b 0cc1 d500 d2c0
00000080: 46d2 60c0 4c61 3cc1 a668 8f40 d2b6 1240
00000090: 6969 4040 f728 05c1 e541 1fc0 6fb6 df40
000000a0: 1594 36c1 3577 b9c0 24fb 0dbe 81e8 0441
000000b0: bfd8 7dbf 7c59 38c1 5d92 e63f f72b 48c1
000000c0: 14a2 97c0 6b1d e1bd 5b86 4840 7f8c 1f40
000000d0: 8f48 583c dba7 a8be 5d4c 9dc0 7d64 d3c0
000000e0: 75ed fcbf bbe5 05c0 55a0 bf3f e706 2fc1
000000f0: 55ba 82bd 9d21 13c1 5a08 5d40 ab38 cb40
7.3427258 -2.4288783 -5.721365 7.341843 -0.17125192 5.475983 -10.897743 2.0948339
-4.778092 -9.878014 -0.14593539 -9.497392 3.6078293 6.6318054 -12.962428 -2.933503
-10.390048 3.5869658 6.8763394 -6.0153394 -0.2259297 -10.218803 2.7783027 -0.19183141
3.0474315 5.991053 -0.28046885 4.527649 0.12539189 -3.4424615 -8.784001 -6.5626016
-3.512834 -11.773754 4.4815245 2.2924085 3.0064337 -8.322501 -2.488397 6.9910197
-11.411153 -5.7958016 -0.13865334 8.306764 -0.99158853 -11.521847 1.8013417 -12.510734
-4.738535 -0.10991939 3.1332004 2.4929502 0.013200893 -0.32940564 -4.9155717 -6.6060166
-1.9759966 -2.0921466 1.4970804 -10.939185 -0.06383196 -9.195706 3.4536347 6.3506675

fc2.weight f4 [64, 64]
00000000: 17b7 2dbe 5743 393f 4433 9fbf bff8 003f
00000010: bcec 40bf b1eb 5bc0 ad7b 793f 1961 8fbf
00000020: 6990 1dbf 1596 4a3f 4b97 383f edec 04be
00000030: 7b02 eebf 98d4 cb3e bf88 123e 3c7d a9bf
00000040: 7a85 03bf e72d aa3e b077 e8be 9c22 b9bf
00000050: ce33 19c0 dc7a 8e3e 23d1 4bbf bdf3 dabf
00000060: 352d bdbf 3c1c 6ebf a7f7 8a3e 60b8 5bbf
00000070: 7db7 5dbf b694 54bf a1ee 9d3f f25b 643c
00000080: 390c 823f 74c1 d53e 9ad8 5c3f 8a9e 80bd
00000090: 8058 393e 4594 39bf c078 18c0 dc6c 103f
000000a0: 8d41 ef3e ff7c 363f 4714 21bd 45e2 c0bd
000000b0: 2864 96bf 4e66 43bf 3a62 2a3f 044d bebf
000000c0: fb34 f83e 5079 0fbf ddf0 443f 9ecf 42c0
000000d0: 06f6 773f 6c96 3a3f c68c 64bf b503 7fbc
000000e0: 9cb3 71bd 14d9 8e3f f4d2 593f e2f0 83bf
000000f0: 82fb d3bf 3c76 ca3f 6698 21c0 7763 f3bd
00000100: eec5 0fc0 812f c3be 8bcb cebd e90b 31bf
00000110: e3ff d63c be53 063f 4d50 1fbd c35f 1cbf
00000120: 74b8 44bf 8f46 57bf 5b72 38bf 58d1 0bbf
00000130: a22f 80bf 5914 483f 85b3 1f3f b368 203e
00000140: d61d ccbe 01eb 1ebe 0db0 5a3e a6e1 25bf
00000150: 8d20 2bbe 772a e53e a2a6 9d3e c7a8 3dbb
00000160: 8e36 f0be f4d7 40bf 59a6 0ebf 4361 27bf
00000170: 5a80 46be 184e f2be 1828 88bf bc40 0ebd
00000180: d3d3 30bc 6195 283e c35e 51bf 1526 e53e
00000190: adef 59bf ac4c f5bd c63d 80be 4b50 b4be
000001a0: 1843 563e e850 ffbe 20c6 0cbe 4628 55bf
000001b0: 9434 183e 29eb 723e b889 c7bf 9f14 4cbe
000001c0: 1e57 7dbd df80 16be 2719 89bf fe25 133e
000001d0: 5d32 30be 28cd 1c3f 69a8 ebbf 2e9f 35bf
000001e0: bed0 efbd dec3 88bf fce7 fb3e d147 023d
000001f0: a50b 9cbd 323b 5ebe 997b 9f3d d39d 02bf
00000200: 4f53 a3be 3445 09bf 0c08 1ebf 680e 813e
00000210: ebb0 4dbf 669f 3abf 2fed 9fbe ae42 95be
00000220: 8e25 f83c 0801 8c3e 9022 53be d038 a2be
00000230: 2eaf 47bf 5da8 5fbf 0fc1 72bf 34d6 cfbe
00000240: 7251 b7be 92dd 18bf acb6 91be 9f0b e1bd
00000250: 1e6d 21bd 6575 66bf cbde 47be 28b2 a4be
00000260: a062 f33d 36d9 34c0 dd70 4cbd 6627 e4be
00000270: 16ac 10bb ad6b 11bf bfab 8fbd f81f 063c
00000280: af45 233e 51f0 0cbb 405f d13d 9e31 99bf
00000290: fb7d d6be ad7c 29bf 10f2 e8bd 296f 453e
000002a0: 38d5 73bf 6bb5 17bf 14a9 e53e 1ed5 45bf
000002b0: a737 d13d 08b3 7fbe 26f3 fdbe d935 eebd
000002c0: e329 13be aaaf fdbe 3472 33be 2597 68be
000002d0: e553 65be 659a cb3c 481f b73e e35f d7be
000002e0: e5d0 a3be fdec 3cbe 7cb9 8bbf e10d 393e
000002f0: af6c 05be 05ab 813d e357 73bf 251d 8fbf
00000300: eac6 08c0 acd9 d6be b5ea 253f e5cb 883e
00000310: e2b4 13bf 5f4c 19be 01e8 043e a146 483d
00000320: 5a09 773e 34c5 86bf 68fd 21bf 457d acbf
00000330: a47e 933e 6022 d9be 9c93 d23e 85df 0cbf
00000340: 5ffe dfbe 9d1a e43e b6d5 c83d ee2a 6a3e
00000350: 8af3 8ebf 4e69 0a40 cdd1 0cc0 e506 4dbe
00000360: 538c e6bf 094b 343f 881d c7bf 2f70 59bf
00000370: c6e7 8a3d 0713 043e e58d e3bf cbb0 13c0
00000380: 9420 f2bf db56 2d3f 1d6d 043f c561 b5bf
00000390: bb8b 60c0 6fb1 b0bd 6cfc 46bf 1fdc 9ebe
000003a0: 2764 7cbf a5f7 1e3f 20a6 973f a2b9 a5bd
000003b0: 898b f6bf 6f9a 983e 6b9d 8ebd 1cde b8bd
000003c0: 1d41 a6bc 30da ddbf 55d2 97bf 2156 c8bf
000003d0: 284c c13d 9cd9 a9be a69e b4be 1643 523e
000003e0: 8647 f33e 0a5c 3b3f 5415 b0bf e858 a83e
000003f0: 8922 05bf bf6f a93c 04c0 c1bf a791 d7be
-0.16964374 0.7236838 -1.243752 0.50379556 -0.7536123 -3.4362605 0.9745434 -1.1201507
-0.6154848 0.79135257 0.72105855 -0.12981005 -1.8594507 0.39810634 0.14309977 -1.3241343
-0.51375544 0.33238146 -0.45403814 -1.4463687 -2.393787 0.2782811 -0.7961599 -1.7105633
-1.4779421 -0.9301183 0.2714207 -0.8582821 -0.86608106 -0.83039415 1.2338449 0.013937937
1.015998 0.41749156 0.8626801 -0.06280239 0.18100166 -0.72491866 -2.38237 0.56416106
0.467297 0.7128448 -0.03932598 -0.094181575 -1.1749315 -0.7632798 0.6655613 -1.4867253
0.4847792 -0.56044483 0.7693003 -3.043922 0.96859777 0.72885776 -0.89277303 -0.015564849
-0.05900918 1.1159997 0.85087514 -1.0307887 -1.6561129 1.5817332 -2.5249267 -0.11884206
-2.2464557 -0.3812218 -0.100974165 -0.691588 0.026245063 0.5247153 -0.03889494 -0.6108362
-0.76843953 -0.8409204 -0.7204949 -0.5461631 -1.0014536 0.7815605 0.623833 0.1566494
-0.39866513 -0.15519334 0.2135622 -0.6479744 -0.16711636 0.4475896 0.30791193 -0.002893971
-0.46916622 -0.7532952 -0.55722576 -0.65382785 -0.193849 -0.47325206 -1.0637236 -0.034729704
-0.01079269 0.16463234 -0.8178522 0.44755617 -0.8513134 -0.119775146 -0.2504713 -0.3521751
0.20924032 -0.49866414 -0.13747454 -0.8326458 0.14863807 0.23722519 -1.5588903 -0.19929741
-0.06185066 -0.14697598 -1.0710801 0.14369962 -0.17206712 0.61250544 -1.841077 -0.70946014
-0.11709736 -1.0684774 0.49200428 0.03180677 -0.076194085 -0.21702269 0.07787246 -0.5102207
-0.31899497 -0.5362122 -0.6173103 0.25206304 -0.8034808 -0.7289947 -0.31235644 -0.29152435
0.030291345 0.27344537 -0.20618653 -0.3168397 -0.7800168 -0.87366277 -0.94825834 -0.40593112
-0.35804325 -0.5971309 -0.2845968 -0.10988545 -0.039410703 -0.9002288 -0.19518583 -0.32167172
0.118840456 -2.8257575 -0.049912322 -0.4456131 -0.0022075227 -0.56804925 -0.0701518 0.008186333
0.15944551 -0.0021505544 0.102232456 -1.1968267 -0.4189299 -0.66205865 -0.11374295 0.19280685
-0.9524722 -0.59261197 0.4485556 -0.77278316 0.10215693 -0.24970639 -0.4959957 -0.116313644
-0.14371447 -0.49548084 -0.17524034 -0.22713907 -0.22395284 0.024853894 0.35766053 -0.42065343
-0.3199531 -0.18449779 -1.091598 0.180717 -0.13029741 0.063314475 -0.9505598 -1.1180769
-2.1371408 -0.41962945 0.6481126 0.2671806 -0.5769788 -0.1497054 0.12979127 0.048895482
0.24124661 -1.0528932 -0.6327729 -1.3475729 0.28807557 -0.4240904 0.41128242 -0.55028564
-0.43748757 0.44551554 0.09806387 0.22867939 -1.1168072 2.1626773 -2.2003052 -0.20022161
-1.8011574 0.70426995 -1.5555887 -0.84936804 0.067824885 0.12897883 -1.7777678 -2.3076656
-1.8916192 0.67710656 0.51728994 -1.4170462 -3.5085285 -0.08627593 -0.77728915 -0.31027314
-0.9859032 0.62096626 1.1847572 -0.08092047 -1.9261333 0.29805323 -0.06963619 -0.09026739
-0.02029472 -1.733221 -1.1861063 -1.5651284 0.09438354 -0.33173835 -0.3527729 0.20533404
0.47515506 0.73187315 -1.3756509 0.3288033 -0.5200582 0.020683168 -1.5136724 -0.4210331

fc2.bias f4 [64]
00000000: e306 dbbe 6d21 c7bf 465c 23bf 8556 1dbf
00000010: f4fe 8dbf 321c 4fc0 41a3 f2bd 37b6 e03e
00000020: a7f1 55bf 80ce 873e 8e68 71bf b1bd a73d
00000030: 305e a63f 99fa 6fc0 1500 1ebf 58ec 3b3f
00000040: 5c2d f1be 75cd a5bf 47ed db3f 82ed 20bf
00000050: d875 623e 5c59 6b40 1721 b33f 7f3b 8640
00000060: 1c28 90bf 132e b13f bad2 b940 3e74 4dbf
00000070: 43f4 56c0 a4e7 60c0 4db3 39bf 2508 1bbf
00000080: 1f4a dbbe 1494 a5bf 0f06 323e 1060 0ec0
00000090: fedd 80be 6246 b3bf 6760 54c0 deb9 243e
000000a0: 9186 26be a7bd d9be a780 f6bf ccd6 8a3f
000000b0: c194 a83f bbe8 febe 58d5 92bf 0efd 9fc0
000000c0: f3b6 483f ca82 273f d8c1 5dc0 430e 1a40
000000d0: e918 64c0 2a65 0040 89b2 5ec0 9a5b b3bf
000000e0: 36e9 85be 6657 bbbd 3a3a 00c0 6ca2 8bbf
000000f0: 1bf7 88bf d19d 9e3e 6ccd 7b3e 3dd6 90bf
-0.42778692 -1.5557076 -0.63812673 -0.61460143 -1.109343 -3.236096 -0.118475445 0.4388902
-0.8357186 0.26524734 -0.9430016 0.08190478 1.2997494 -3.7496703 -0.61718875 0.73407507
-0.4710492 -1.2953326 1.7181786 -0.6286241 0.22115266 3.677329 1.3994473 4.1947627
-1.126224 1.3842186 5.8069735 -0.80255497 -3.3586586 -3.5141382 -0.72539216 -0.605593
-0.42829987 -1.2935815 0.17385124 -2.2246132 -0.25169367 -1.4005854 -3.318384 0.16086528
-0.1626227 -0.42527506 -1.9258012 1.0846801 1.3170396 -0.49786934 -1.1471357 -4.9996405
0.7840416 0.65433943 -3.4649563 2.4071205 -3.5640204 2.0061746 -3.479647 -1.401233
-0.26154488 -0.09147529 -2.0035539 -1.0908942 -1.0700411 0.3097978 0.24590081 -1.131538

fc3.weight f4 [64, 64]
00000000: 9ad3 863d 3efc b3bd b351 393f 5852 abbf
00000010: 3496 8abf d2c4 f73d c060 43bd 8f2c b9be
00000020: a330 c3bf 18f9 fdbe 9eb4 87bf 92e2 5fbf
00000030: a147 15be 31d5 1c3d 3c39 b9be 43c3 01bf
00000040: 8718 c8bf 7904 463f c553 21be fc5d 4fbf
00000050: d54d acbf f9a7 313f 9e78 b53c 7556 8dbf
00000060: 9b82 09bf b574 453f edaf 0abf faa5 58bd
00000070: ee82 1fbd 4bac 243d 625f 033f 0758 163f
00000080: d136 813e f81e 663e 325f 02bf d55e 0bbf
00000090: 27fd d13e c016 79bf e9dc 34bf 77b0 4ebe
000000a0: 9ae0 263e 4366 19bf afd1 81be 56d9 4dbf
000000b0: 4e08 bdbe 3e2a afbd dfa5 fbbc 2fc6 06bf
000000c0: e98f 88bf 7bbc a4bf 8c5b afbc 7d65 873e
000000d0: 1d2f 34be f044 4abf 6f87 a0bf cf24 eabe
000000e0: 4b10 183f 5b6a 91bf 3793 943d 640a 3d3f
000000f0: eb51 d33d 0558 92bf 6714 033c b731 8bbf
00000100: b412 c7be d2e4 64be aa85 223d a2cd 823f
00000110: d385 6bbf 1ea9 11bf bc59 1fbf 5693 593f
00000120: 5230 4fbf 958e a8bf 06c5 583e dd11 5fbe
00000130: e912 cdbd 7792 e83e 35d9 ce3e 202c e83e
00000140: 97aa 43be 912f ad3e 6316 863e 1826 3b3e
00000150: e6ff 633e 7884 943e 6094 873f b979 223f
00000160: 4744 50bf 4aa0 6c3f b9a9 1e3f 9027 8bbe
00000170: 5d0e 923e 24b8 003d c6a7 043f 52c0 99be
00000180: d399 463e a6c2 913f e697 2bbf 41fd 3f3e
00000190: 0e31 243f b8d3 a3bf 85bb 68bf 81b2 84bf
000001a0: ef4c 49bf dc03 cc3e 564c 92be c360 21be
000001b0: 896e a0be f5c1 54bf 6458 463f ae34 4b3f
000001c0: 4db9 e03d 0573 08bf d13d 483d 10a4 8d3f
000001d0: 34e4 9c3d 00b0 6d3e b5e9 9abf 1adc 2b3e
000001e0: 5bdb b9bf 5e35 163f 0c92 10bf 7b8b a1bf
000001f0: 9f27 5bbe 0ba1 07bf f10b 5dbe 7646 4dbf
00000200: fff4 9abf 30df 57bf c0dc 1dbf 677d 5fbf
00000210: b8ee 04bd d334 5c3d ac9e eebd 1dd2 5fbe
00000220: 4903 a3bf d7f3 88bd cc96 a23e 8331 823e
00000230: 67de 743e f1fd 5cbf f06f 26bf e3ff 8a3d
00000240: 0eba b33c b893 ddbd 92d2 a7be 3b28 a3bf
00000250: c8a2 79bf d1d3 10c0 9e19 b53e 2364 83be
00000260: befd 16be 8322 703e ea66 4abf bdcd 86bf
00000270: 9357 89be 304e b6be da99 48bf dc17 f83e
00000280: 6a7d f8be bf43 043d 49cb 8a3b a082 c4be
00000290: cc9c 66bf 780f b8bf e5dd 38bf 4440 463f
000002a0: 15f1 493f 0f9c 9e3d b02f 923e a575 0cbf
000002b0: 4821 403e 6786 553f 1a70 26be 3ac9 eabe
000002c0: 3da8 13bf 84d5 723f 1036 4bbd 6c60 4ebe
000002d0: dab1 dd3c 5385 95bd b9e1 0ebf 20b9 03bf
000002e0: 19e6 8a3e 79c5 43bd 511a febe 5565 753f
000002f0: 8f6f 6dbf 154e 40be b2bc adbf 4ba9 2cbf
00000300: 8e9d 273e 279d a3be ea3b 5d3e 9e41 4b3d
00000310: 0e84 1c3e 8cbb 80bf e8e6 03bf 759b 7f3e
00000320: 678d febc 7bbf 0dbf 9d1d 08be 0f7a c4bf
00000330: 4593 5dbf 9182 4a3f 9a9d 82bf 00f5 033f
00000340: 7819 4ebe 63e5 81be f39b 08bf 5d54 91be
00000350: 7342 063f d9d0 05bf 33d6 273e c542 7dbf
00000360: 2241 fa3d a782 af3f 4ab8 f2bf 7f5e ddbe
00000370: 37a5 b6be 08bc cabe 67c8 6b3e 6dd2 143f
00000380: 73f9 2ebf fd65 44be dcc8 5bbe 9c29 c3bf
00000390: dd7d 9dbe 31ff 1f3f 385e 3abf 5205 24be
000003a0: 135f 97be 1b12 433f 97af d6bb 236c b6bf
000003b0: ee08 e13d 9690 cc3d a7ff cfbe b903 21bf
000003c0: 8f46 11c0 93c9 c1be f6ae 91bb 84d3 f8bd
000003d0: 64d0 a8bf 37df 8bbf b515 a6bf 98c2 7dbf
000003e0: 6af3 dbbd 4b92 233f ef77 86be 0993 28be
000003f0: e796 cbbd 58a9 26bf b1f3 7cbe f393 b0bd
0.065833285 -0.08788346 0.7239029 -1.3384504 -1.0827088 0.12098087 -0.04769969 -0.36166808
-1.5249218 -0.49604106 -1.0601995 -0.87455094 -0.14578106 0.038289253 -0.3617648 -0.5068857
-1.5632485 0.77350575 -0.15754612 -0.81002784 -1.3461252 0.6939693 0.022152241 -1.104201
-0.53714913 0.77131206 -0.5417469 -0.052892663 -0.038943224 0.040203374 0.5131742 0.5872807
0.25237134 0.22472751 -0.50926507 -0.5444158 0.41013452 -0.9730034 -0.7064958 -0.20184503
0.16296616 -0.59921664 -0.25355288 -0.80409753 -0.36920398 -0.08552979 -0.030718742 -0.52646154
-1.0668918 -1.287002 -0.021405958 0.26444617 -0.17596097 -0.7901144 -1.2541331 -0.45731208
0.5939986 -1.1360582 0.072546415 0.7384398 0.10318359 -1.1433111 0.00800047 -1.0874547
-0.38881457 -0.22352913 0.039678253 1.0219004 -0.92001075 -0.5689868 -0.622463 0.8499044
-0.80933106 -1.3168513 0.21168908 -0.21784158 -0.100133725 0.45424244 0.4040009 0.45346165
-0.19108044 0.33825353 0.26188955 0.1827625 0.22265586 0.29007316 1.0592155 0.63466984
-0.8135418 0.9243208 0.61977726 -0.2717862 0.28526583 0.03142561 0.518185 -0.3002954
0.19394617 1.1387527 -0.67028654 0.18748952 0.6413735 -1.2798986 -0.9091113 -1.0366975
-0.78633016 0.39846694 -0.28573865 -0.15759568 -0.31334332 -0.83108455 0.77478623 0.7937726
0.10972843 -0.53300506 0.048887078 1.1065693 0.07660714 0.2321167 -1.2102572 0.16783181
-1.4520067 0.5867518 -0.5647285 -1.2620691 -0.21401833 -0.5298011 -0.21586587 -0.8018564
-1.2106017 -0.8432493 -0.6166496 -0.87300724 -0.032454222 0.053761315 -0.11651358 -0.21857496
-1.2735378 -0.06687134 0.31755674 0.254284 0.23912965 -0.86324984 -0.65014553 0.06787088
0.021939304 -0.10819191 -0.3277784 -1.2746652 -0.9751401 -2.2629282 0.35371107 -0.25662336
-0.14745232 0.23450665 -0.79063284 -1.0531536 -0.26824626 -0.35606527 -0.7835976 0.48455703
-0.48533183 0.03229117 0.0042356593 -0.3838091 -0.90083003 -1.4379721 -0.72213584 0.7744181
0.78883487 0.077446096 0.28552008 -0.5486701 0.18762696 0.83408207 -0.16253701 -0.4585665
-0.57678586 0.9485705 -0.049612105 -0.2015397 0.027062345 -0.0730082 -0.55813175 -0.51454353
0.27128676 -0.047795746 -0.49629453 0.95857745 -0.9274835 -0.18779786 -1.357321 -0.6744582
0.16368696 -0.31955835 0.21604887 0.049623124 0.1528475 -1.0057235 -0.5152421 0.24961646
-0.031073285 -0.553703 -0.13292547 -1.5349749 -0.8655284 0.7910548 -1.0204346 0.51545715
-0.20126903 -0.2537032 -0.5336296 -0.28384677 0.52445143 -0.522718 0.16390304 -0.9893001
0.12219454 1.3711747 -1.896249 -0.43236157 -0.35672924 -0.3959658 0.23025666 0.58133584
-0.6834938 -0.1917953 -0.2146334 -1.5247073 -0.3076009 0.62498766 -0.72800016 -0.16017655
-0.29564723 0.761995 -0.0065516937 -1.4251751 0.10988031 0.09988515 -0.40624735 -0.62896305
-2.2699316 -0.378491 -0.004445906 -0.121497184 -1.3188596 -1.0927495 -1.2975374 -0.9912505
-0.10739787 0.638951 -0.26263377 -0.1646234 -0.09940892 -0.6510215 -0.24702336 -0.08621969

fc3.bias f4 [64]
00000000: 4402 9cbf 2dd3 51be a71c 15c0 ef4c 15c0
00000010: 94de 17c0 03df 913e f7fd 01bd 65d0 ae3e
00000020: eede f8be fa97 eebe 5951 08bf 44fd 8a3e
00000030: 9655 203e 24ed 59c0 9048 a13e 3a93 2bc0
00000040: 617e 2a40 4ff6 00bf a654 0540 15e0 c13f
00000050: f783 b33f 98c8 b5c0 e651 0940 3ed6 0140
00000060: 3dfc 513f 16c6 883f 6e38 343f 9ff3 5cc0
00000070: ab69 0540 8f4c 2a40 b02b 3140 a9e3 123f
00000080: 6525 22bd 2dd6 df3f f53b 2640 1a8b 0bc0
00000090: 841d aac0 90e6 3e3f 95d2 4bc0 2394 423f
000000a0: 533e 3440 0aae 9ebe b390 2c40 dd68 6ebd
000000b0: c9c6 c5bf f3c0 dc3f 6ef7 563f 3703 b7bf
000000c0: 0f84 0940 28a5 3540 f9cf 263f ba2c c43f
000000d0: c8a8 6abf e85a 1ac1 7789 4040 341c f6bf
000000e0: 6504 a3bf 0429 3040 7dcc 243e 73e4 6d3c
000000f0: b3a5 9740 53ac 5c40 527c 873f ea08 fcbf
-1.2188191 -0.20490713 -2.3298738 -2.3328207 -2.37296 0.28490457 -0.03173634 0.34143367
-0.48607582 -0.46600324 -0.53249127 0.2714635 0.15657648 -3.405099 0.31500673 -2.680861
2.6639636 -0.5037584 2.0832915 1.514651 1.4024647 -5.6807365 2.1456237 2.0287013
0.8202551 1.0685451 0.70398605 -3.4523695 2.0845745 2.6609228 2.7682915 0.5737863
-0.039586443 1.7487236 2.5974095 -2.180365 -5.316103 0.7457056 -3.184728 0.7600729
2.816304 -0.30992156 2.6963317 -0.058205474 -1.545129 1.7246383 0.839713 -1.4297856
2.1486852 2.8382053 0.6516109 1.532615 -0.9166379 -9.647194 3.0083902 -1.9227357
-1.2735716 2.7525034 0.16093631 0.014519799 4.738977 3.4480178 1.0584815 -1.969022

value.weight f4 [1, 64]
00000000: eef5 243d 5207 eabe 20f0 273f 1c5a c43c
00000010: 2399 f23e 13af 8abf 4a52 30be 615b 9f3e
00000020: c56a f0be 63b7 35be e0f3 14bf c7db 85be
00000030: f8aa 2bbf 48d7 b03e af1e e5be f154 9d3e
00000040: a99b 803e b823 b6be f763 623e ba8a a8be
00000050: 5694 46bf 7136 a03e 4b4e 913e 0e67 eabe
00000060: 37a9 e9bf f3c1 2ebf d734 1c3e fd34 133e
00000070: df9b 623e e7d2 373f 27d9 34be 783f 603e
00000080: f9ca 3f3f a619 8e3e 74fe cf3e e64a 5ebe
00000090: 05cd fe3e 3e43 b2be e058 233f f3a5 64bf
000000a0: ff06 15bf c7d6 c0be d970 dbbe 0944 c7be
000000b0: a364 80bd 6695 34bf 3291 b4bd fa4e 393e
000000c0: 2a8f 1d3e 0a54 dd3e f9e8 873e d9b5 8f3e
000000d0: 6652 073f 90f0 e73d a131 bf3e bf32 b83e
000000e0: ed90 593d a4cd 53be 789f 09bf 9b57 8bbe
000000f0: b319 d1bd 378d 8bbe 5f9b b3be d15f 0e3e
0.0402736 -0.4570871 0.65600777 0.023968749 0.4738246 -1.0834678 -0.17218891 0.31124404
-0.4695646 -0.17745738 -0.58184624 -0.2614424 -0.6705775 0.34539247 -0.44749972 0.30728868
0.2511876 -0.35574126 0.22108446 -0.3291834 -0.7757009 0.31291535 0.28380045 -0.4578175
-1.8254765 -0.68264693 0.15254532 0.14375682 0.22129773 0.71806186 -0.17660962 0.21899211
0.74919087 0.27753943 0.4062382 -0.21708259 0.49765792 -0.34816927 0.6380749 -0.8931572
-0.582138 -0.37663862 -0.42859533 -0.38919094 -0.06269195 -0.70540464 -0.08816756 0.18096533
0.15386644 0.4322818 0.26544932 0.28068426 0.52860105 0.113251805 0.3734255 0.35976216
0.053116728 -0.20683914 -0.53758955 -0.27215275 -0.1020998 -0.27256176 -0.35079476 0.13903739
