maddpg_v7_over/model/simple_tag/agent_3/616_critic_params.pth (torch, 57783 bytes, 7 tensors)

fc1.weight f4 [64, 82]
-0.4469025 -0.3464752 0.84522635 0.7151933 0.17639771 0.4225054 -0.12357516 0.53300905
-0.2621571 0.13509312 -0.44945738 0.11559283 0.037081387 -0.04164065 0.13759089 -0.24832225
0.018115582 0.21343344 0.61742705 0.80977076 0.3252506 0.3198784 0.39457873 0.5231101
0.4120326 0.0017622163 0.26254234 -0.2090771 0.16467078 0.30845228 0.17653188 -0.2731438
0.6345001 0.41210157 0.4231388 0.43037286 0.5619759 0.28373957 -0.10942224 0.8154867
0.14498827 0.16722284 -0.1273039 0.14134598 0.3605903 0.15962124 0.357433 -0.22341888
0.5284995 -0.025772009 0.6309755 0.9901913 0.61464036 -0.21062993 -0.08333282 -0.0514736
0.2593798 0.01827499 -0.30426067 0.07722354 -0.2594353 -0.24549222 0.019460361 -0.0110202655
-0.020325433 -0.083141506 0.113471046 0.1040723 0.032324024 0.21038067 -0.08786035 -0.10451533
-0.077305794 0.36385444 0.020066602 -0.022200622 0.013385953 0.12626655 0.45655906 -0.5285621
-0.25488484 0.10479424 0.59025574 -0.9763439 0.9411039 -0.56868434 -0.042298213 -0.4927266
-0.051037915 -0.124348216 -0.40575323 -0.6473648 -0.39344 -0.29413003 0.25269032 -0.46638566
0.1455882 0.11900085 0.33086464 0.019571248 1.3861108 -1.0425291 0.6507572 0.287341
-0.2363737 0.19967698 0.3489733 0.21525377 -0.51032186 0.025775217 0.8674163 -0.32484588
0.12029172 0.12536664 0.021737697 -0.28144935 0.275171 -1.0193181 0.611688 0.23536114
0.32342035 0.40949315 0.285563 0.12548667 0.6695417 -0.053757757 0.24489842 -0.24422714
0.16756135 -0.1532334 0.069988765 -0.23452371 2.2391171 -1.967607 -0.15797698 0.8091674
-0.022563208 0.7613454 -0.052297957 0.79673505 -0.7434814 0.2148194 -0.49767998 0.09666498
-0.18060191 -0.008323273 0.036424443 -0.49382222 0.29587755 -0.057706725 -0.17853376 0.037386242
-0.011511401 -0.07387919 0.1492982 -0.12827717 -0.017812809 0.009871825 0.05682238 0.045802273
0.746397 -0.23727995 -0.1787286 0.03175739 0.045929287 -0.11393932 -0.1533035 -1.6877948
0.20998 -0.16974291 0.11590567 -0.5409852 -0.03067916 0.22554882 -0.1642111 -0.05656567
0.0069415723 -0.79490095 0.043553583 -0.16029121 -0.0549344 -0.3103146 0.23355787 -2.4533231
-0.3128624 -0.14520091 -0.055919938 0.15407886 0.08211119 -0.1823151 0.3591009 -0.08796593
0.0211251 -0.9346683 -0.013190065 -0.25837833 0.04815915 0.009212368 0.093873866 -1.358971
-0.14899191 -0.4299967 0.3208666 -0.35541058 0.072209656 0.24950023 -0.12686926 0.15708847
0.097168714 -0.69628644 -0.14705433 -0.058868375 0.01554452 -0.40605584 -0.15008955 -4.024026
0.07523976 0.9038488 -0.36805847 0.66914696 0.24338175 0.42704707 -0.05180954 0.8381477
-0.24449386 0.54663634 -0.038174577 -0.03699062 0.06640363 -0.08289371 0.12900965 -0.03698272
-0.03820738 -0.11127592 -0.061411187 0.041923236 -0.056712255 -0.04634097 0.046984952 0.050703146
0.07000373 -0.017574204 0.016379533 0.27001876 -0.5317249 0.68010783 0.09915995 -0.48720357
0.049919616 -1.3787354 0.9840685 0.47100976 0.5143881 0.18219343 0.16667545 0.2626837
00000000: 68d0 e4be 3365 b1be c160 583f e816 373f
00000010: 9aa1 343e a152 d83e f914 fdbd 4873 083f
00000020: 7539 86be da55 0a3e 471f e6be efbb ec3d
00000030: a7e2 173d 638f 2abd a0e4 0c3e 3048 7ebe
00000040: 2167 943c 4c8e 5a3e b30f 1e3f 234d 4f3f
00000050: 3f87 a63e 1ac7 a33e 3906 ca3e 8bea 053f
00000060: f0f5 d23e 2bfa e63a f36b 863e 4f18 56be
00000070: 759f 283e 75ed 9d3e c6c4 343e 81d9 8bbe
00000080: 996e 223f fafe d23e a6a5 d83e d559 dc3e
00000090: a7dd 0f3f 5046 913e c418 e0bd bdc3 503f
000000a0: ce77 143e 773c 2b3e f45b 02be 00bd 103e
000000b0: 4b9f b83e c073 233e 7501 b73e ebc7 64be
000000c0: be4b 073f d21f d3bc 9c87 213f 2d7d 7d3f
000000d0: 1259 1d3f 5faf 57be 66aa aabd fbd5 52bd
000000e0: 6ecd 843e 6fb5 953c 0ec8 9bbe 6027 9e3d
000000f0: b4d4 84be 5062 7bbe 566b 9f3c 588e 34bc
00000100: 8681 a6bc 1846 aabd 8263 e83d dc23 d53d
00000110: 3266 043d 086e 573e 21f0 b3bd 220c d6bd
00000120: 8052 9ebd 214b ba3e b762 a43c 14de b5bc
00000130: c250 5b3c 054c 013e 1cc2 e93e d94f 07bf
00000140: 4480 82be 5d9e d63d 001b 173f adf1 79bf
00000150: 2fec 703f 4c95 11bf e440 2dbd a946 fcbe
00000160: 220d 51bd 47aa febd e3be cfbe b3b9 25bf
00000170: f870 c9be 3698 96be a060 813e 1aca eebe
00000180: 1315 153e b8b6 f33d 1767 a93e e253 a03c
00000190: 146c b13f 9871 85bf 0698 263f 5c1e 933e
000001a0: f20b 72be 1f78 4c3e a1ac b23e 7c6b 5c3e
000001b0: 74a4 02bf 8c26 d33c ff0e 5e3f 3352 a6be
000001c0: 815b f63d 1d60 003e 4113 b23c 211a 90be
000001d0: 37e3 8c3e 0479 82bf 9697 1c3f 8302 713e
000001e0: 5a97 a53e 16a9 d13e 5035 923e 947f 003e
000001f0: 1667 2b3f 1831 5cbd a7c6 7a3e ae16 7abe
00000200: 3495 2b3e 37e9 1cbe 4556 8f3d fc26 70be
00000210: b24d 0f40 8cda fbbf b8c4 21be 9825 4f3f
00000220: 7ad6 b8bc 88e7 423f 6236 56bd d4f6 4b3f
00000230: cc54 3ebf 9ef9 5b3e e9cf febe 4af8 c53d
00000240: b5ef 38be 565e 08bc cc31 153d 44d6 fcbe
00000250: 437d 973e e35d 6cbd 8ed1 36be 5122 193d
00000260: 519a 3cbc f94d 97bd a1e1 183e 175b 03be
00000270: 2bec 91bc 6fbd 213c 95be 683d 2a9b 3b3d
00000280: e013 3f3f 84f9 72be a104 37be 0914 023d
00000290: 5920 3c3d 0559 e9bd 98fb 1cbe a909 d8bf
000002a0: ff04 573e 16d1 2dbe f45f ed3d 027e 0abf
000002b0: dd52 fbbc 45f6 663e f426 28be 67b1 67bd
000002c0: 2176 e33b a17e 4bbf 3e65 323d 6123 24be
000002d0: e502 61bd 8ee1 9ebe cb29 6f3e 3f03 1dc0
000002e0: 802f a0be 8caf 14be 4e0c 65bd d9c6 1d3e
000002f0: e929 a83d cfb0 3abe 13dc b73e 7b27 b4bd
00000300: 8c0e ad3c 6c46 6fbf 241b 58bc 2a4a 84be
00000310: 8742 453d 79ef 163c f140 c03d c3f2 adbf
00000320: 5691 18be 8728 dcbe a148 a43e 60f8 b5be
00000330: a8e2 933d fd7c 7f3e 04ea 01be cddb 203e
00000340: 6400 c73d d43f 32bf 6995 16be f71f 71bd
00000350: 71ae 7e3c 8de6 cfbe 13b1 19be d2c4 80c0
00000360: 4e17 9a3d a362 673f 2972 bcbe 374d 2b3f
00000370: 1139 793e eaa5 da3e 3d36 54bd d990 563f
00000380: 995c 7abe 5cf0 0b3f f25c 1cbd 7a83 17bd
00000390: a0fe 873d 2dc4 a9bd 1b1b 043e 317b 17bd
000003a0: 577f 1cbd a1e4 e3bd 4c8a 7bbd b3b7 2b3d
000003b0: 1c4b 68bd 07d0 3dbd 4b73 403d 1aae 4f3d
000003c0: 1e5e 8f3d c7f7 8fbc 5f2e 863c e63f 8a3e
000003d0: 1f1f 08bf 8c1b 2e3f 5f14 cb3d bf72 f9be
000003e0: 8378 4c3d 677a b0bf eaeb 7b3f 3128 f13e
000003f0: f0ae 033f ea90 3a3e f8ac 2a3e 7a7e 863e

fc1.bias f4 [64]
8.197743 -3.8264706 -8.051335 6.3505197 -0.26629353 5.342427 -14.111615 0.37002128
-8.222691 -13.705712 -0.16484465 -9.597697 0.46205452 7.299105 -15.51238 -8.949988
-10.533395 5.3894286 7.8132696 -9.390399 0.40394783 -11.76855 1.1403296 0.007820111
2.6016095 5.9120255 -0.43629307 6.3968697 -0.15829186 0.21461344 -12.502594 -11.687669
-5.8946414 -15.136362 5.354864 0.9634985 1.0517858 -12.570684 -0.9178712 7.583819
-14.85456 -6.856105 -0.1690431 8.343654 -1.5232562 -12.994251 -0.06436333 -15.29249
-7.0223107 0.23514307 3.9173696 4.0737944 -0.6284079 -0.5209681 -3.8987777 -10.057343
-1.2270215 -0.41817462 0.27454773 -12.372552 0.00036629263 -11.355546 2.099886 8.462587
00000000: f529 0341 e5e4 74c0 45d2 00c1 7537 cb40
00000010: a057 88be 29f5 aa40 2dc9 61c1 6e73 bd3e
00000020: 2490 03c1 994a 5bc1 09cd 28be 2b90 19c1
00000030: 6992 ec3e 4592 e940 b532 78c1 2733 0fc1
00000040: c988 28c1 3376 ac40 4e06 fa40 133f 16c1
00000050: 40d2 ce3e fb4b 3cc1 52f6 913f ec1f 003c
00000060: c580 2640 502f bd40 ce61 dfbe 28b3 cc40
00000070: 4317 22be a0c3 5b3e a00a 48c1 b100 3bc1
00000080: e7a0 bcc0 8a2e 72c1 0c5b ab40 d6a7 763f
00000090: eba0 863f 8621 49c1 9bf9 6abf a5ae f240
000000a0: 47ac 6dc1 3665 dbc0 a219 2dbe 9b7f 0541
000000b0: 0ffa c2bf 74e8 4fc1 ecd0 83bd 0aae 74c1
000000c0: c5b6 e0c0 58c9 703e 2fb6 7a40 865c 8240
000000d0: 57df 20bf 2a5e 05bf 9385 79c0 e0ea 20c1
000000e0: 0a0f 9dbf fc1a d6be 8591 8c3e f9f5 45c1
000000f0: f70a c039 51b0 35c1 8864 0640 c266 0741

fc2.weight f4 [64, 64]
-0.51090664 1.0957168 -0.49853516 -0.31752533 -2.5135708 -3.6062517 -1.2417145 -3.8133943
-1.2821256 -0.3739393 0.40721515 -1.4160101 -1.116669 0.039873917 0.20199937 -1.1515778
-1.0776908 0.9421722 -0.6195785 -1.6709241 -0.3918218 0.44077808 -2.1639538 -2.1774735
-1.4781866 -1.2669078 0.20933197 -1.421345 -0.555454 -1.3882694 0.8647452 -1.5492831
0.5476266 0.3861471 0.6243946 -0.33064523 -0.21156897 -0.49396032 -2.9634786 -0.064706124
0.7874451 -0.19773582 -0.19192185 -0.43913618 -1.3663158 -1.0693883 -0.38822207 -1.9609406
1.5131816 -0.760898 0.029144501 -2.1864545 0.7185089 2.097154 -0.011803476 0.047449693
-0.46112844 0.37825623 0.9157816 -3.2079732 -0.41294333 2.9541578 -1.6535753 -1.7110702
-2.3099875 -0.3812218 -0.100974165 -0.691588 -0.0055190236 0.42941815 -0.03889494 -0.6108362
-0.86373585 -0.8409204 -0.7204949 -0.5461631 -1.0649832 0.6862642 0.623833 0.1566494
-0.4304308 -0.21872304 0.11826513 -0.6479744 -0.16711636 0.38405827 0.24438055 -0.034644376
-0.46916622 -0.7532952 -0.5889909 -0.6855903 -0.193849 -0.5050174 -1.0637236 -0.034729704
-0.01079269 0.10110088 -0.8178522 0.44755617 -0.8513134 -0.119775146 -0.2504713 -0.4474714
0.17747448 -0.49866414 -0.16924028 -0.9279421 0.053340755 0.20545949 -1.5588903 -0.2628284
-0.12538181 -0.14697598 -1.1028444 0.080168255 -0.17206712 0.51720953 -1.841077 -0.7412255
-0.11709736 -1.0684774 0.4284731 4.0992112e-05 -0.13972557 -0.21702269 -0.017424908 -0.605517
-0.31899497 -0.5362122 -0.6173103 0.25206304 -0.8034808 -0.7289947 -0.31235644 -0.29152435
0.030291345 0.27344537 -0.20618653 -0.3168397 -0.7800168 -0.87366277 -0.94825834 -0.40593112
-0.35804325 -0.5971309 -0.2845968 -0.10988545 -0.039410703 -0.9002288 -0.19518583 -0.32167172
0.118840456 -2.8257575 -0.049912322 -0.4456131 -0.0022075227 -0.56804925 -0.0701518 0.008186333
0.15944551 -0.0021505544 0.102232456 -1.1968267 -0.4189299 -0.66205865 -0.11374295 0.19280685
-0.9524722 -0.59261197 0.4485556 -0.77278316 0.10215693 -0.24970639 -0.4959957 -0.116313644
-0.14371447 -0.49548084 -0.17524034 -0.22713907 -0.22395284 0.024853894 0.35766053 -0.42065343
-0.3199531 -0.18449779 -1.091598 0.180717 -0.13029741 0.063314475 -0.9505598 -1.1180769
-2.7044997 -0.33425617 0.6602439 0.18848893 -0.5769788 -0.3059976 0.016105369 -0.107781485
0.24124661 -1.0517957 -0.6327729 -1.3158097 0.02489732 -0.2196649 0.3795171 -1.9889029
-0.46806145 0.3183422 -1.6545132 0.19725713 -0.91168815 2.0926201 -2.326766 0.25366396
-1.8717991 0.5842207 -1.1742852 -1.3555698 0.040144816 0.08033347 -2.2912936 -2.403498
-2.5374238 0.67710656 0.45419362 -1.4170462 -3.2032654 0.09797343 -0.8564035 -0.9021324
-0.9859032 -0.116449594 1.0272708 -0.36089668 -1.9663043 0.29805323 -0.10140188 -0.13681462
-0.27340958 -1.7891148 -1.1457813 -1.9181159 -0.044243008 -0.36198613 -0.56974137 0.6012138
0.73646843 0.6188364 -1.5657636 0.29703826 -0.75161093 0.031005703 -1.8859483 -0.66376305
00000000: c7ca 02bf 7340 8c3f 0040 ffbe ae92 a2be
00000010: 58de 20c0 d4cc 66c0 80f0 9ebf a70e 74c0
00000020: b11c a4bf f974 bfbe 817e d03e d23f b5bf
00000030: 03ef 8ebf d552 233d ecd8 4e3e e766 93bf
00000040: c6f1 89bf 3332 713f b29c 1ebf d7e0 d5bf
00000050: de9c c8be aaad e13e 387e 0ac0 ba5b 0bc0
00000060: 3835 bdbf 092a a2bf 1f5b 563e a2ee b5bf
00000070: 3c32 0ebf d0b2 b1bf f15f 5d3f e94e c6bf
00000080: 4231 0c3f 13b5 c53e 53d8 1f3f 554a a9be
00000090: 89a5 58be 5ee8 fcbe a2a9 3dc0 a584 84bd
000000a0: 0196 493f 427b 4abe 2987 44be 75d6 e0be
000000b0: 70e3 aebf b7e1 88bf 0bc5 c6be 1a00 fbbf
000000c0: efaf c13f 36ca 42bf 73c0 ee3c dfee 0bc0
000000d0: 33f0 373f c537 0640 5e63 41bc 9c5a 423d
000000e0: 0719 ecbe cdaa c13e aa70 6a3f 6f4f 4dc0
000000f0: 4f6d d3be ec10 3d40 5ba8 d3bf 5904 dbbf
00000100: d6d6 13c0 812f c3be 8bcb cebd e90b 31bf
00000110: edd8 b4bb b2dc db3e 4d50 1fbd c35f 1cbf
00000120: cb1d 5dbf 8f46 57bf 5b72 38bf 58d1 0bbf
00000130: 5f51 88bf 03af 2f3f 85b3 1f3f b368 203e
00000140: 6d61 dcbe eff8 5fbe fd34 f23d a6e1 25bf
00000150: 8d20 2bbe 49a3 c43e e53e 7a3e 43e7 0dbd
00000160: 8e36 f0be f4d7 40bf 1cc8 16bf d982 2fbf
00000170: 5a80 46be d248 01bf 1828 88bf bc40 0ebd
00000180: d3d3 30bc fa0d cf3d c35e 51bf 1526 e53e
00000190: adef 59bf ac4c f5bd c63d 80be f91a e5be
000001a0: dfbb 353e e850 ffbe 534d 2dbe 9d8d 6dbf
000001b0: d67b 5a3d f963 523e b889 c7bf 7291 86be
000001c0: 1764 00be df80 16be 012a 8dbf 412f a43d
000001d0: 5d32 30be d867 043f 69a8 ebbf f4c0 3dbf
000001e0: bed0 efbd dec3 88bf d360 db3e f2ee 2b38
000001f0: 3814 0fbe 323b 5ebe aebe 8ebc 2a03 1bbf
00000200: 4f53 a3be 3445 09bf 0c08 1ebf 680e 813e
00000210: ebb0 4dbf 669f 3abf 2fed 9fbe ae42 95be
00000220: 8e25 f83c 0801 8c3e 9022 53be d038 a2be
00000230: 2eaf 47bf 5da8 5fbf 0fc1 72bf 34d6 cfbe
00000240: 7251 b7be 92dd 18bf acb6 91be 9f0b e1bd
00000250: 1e6d 21bd 6575 66bf cbde 47be 28b2 a4be
00000260: a062 f33d 36d9 34c0 dd70 4cbd 6627 e4be
00000270: 16ac 10bb ad6b 11bf bfab 8fbd f81f 063c
00000280: af45 233e 51f0 0cbb 405f d13d 9e31 99bf
00000290: fb7d d6be ad7c 29bf 10f2 e8bd 296f 453e
000002a0: 38d5 73bf 6bb5 17bf 14a9 e53e 1ed5 45bf
000002b0: a737 d13d 08b3 7fbe 26f3 fdbe d935 eebd
000002c0: e329 13be aaaf fdbe 3472 33be 2597 68be
000002d0: e553 65be 659a cb3c 481f b73e e35f d7be
000002e0: e5d0 a3be fdec 3cbe 7cb9 8bbf e10d 393e
000002f0: af6c 05be 05ab 813d e357 73bf 251d 8fbf
00000300: 8616 2dc0 a023 abbe bf05 293f 3e03 413e
00000310: e2b4 13bf b8ab 9cbe 68ef 833c 8abc dcbd
00000320: 5a09 773e 3ea1 86bf 68fd 21bf 746c a8bf
00000330: 77f5 cb3c d6ef 60be 1150 c23e 5f94 febf
00000340: c0a5 efbe c0fd a23e 17c7 d3bf c6fd 493e
00000350: 6564 69bf 7ded 0540 bce9 14c0 3ee0 813e
00000360: 1d97 efbf 7d8f 153f fa4e 96bf 5083 adbf
00000370: e46e 243d e085 a43d 8ea4 12c0 e9d2 19c0
00000380: 2765 22c0 db56 2d3f 118c e83e c561 b5bf
00000390: 4d02 4dc0 4ba6 c83d 433d 5bbf 26f2 66bf
000003a0: 2764 7cbf 207d eebd 9c7d 833f 73c7 b8be
000003b0: dcaf fbbf 6f9a 983e caab cfbd 2219 0cbe
000003c0: 57fc 8bbe b701 e5bf f6a8 92bf d284 f5bf
000003d0: 2838 35bd 3f56 b9be 92da 11bf 26e9 193f
000003e0: 3289 3c3f 106c 1e3f f16a c8bf 6615 983e
000003f0: 9369 40bf acff fd3c c166 f1bf 60ec 29bf

fc2.bias f4 [64]
-1.3869795 -1.6509998 -0.63812673 -0.9360441 -1.1034287 -3.2678075 -0.59168667 0.37409198
-0.8357186 0.11905975 -1.313928 0.32044175 1.2917461 -3.7863426 -0.8178898 0.5600193
-0.6058137 -1.2953326 1.875156 -1.0849473 0.11317564 3.1726375 0.91928923 5.1630573
-1.5972856 1.8431009 5.967318 -0.8667798 -3.3904178 -3.5776672 -2.0132015 -0.605593
-0.42829987 -1.4026867 0.08411593 -2.2246132 -0.25169367 -1.4005854 -3.4035847 0.09215734
-0.1476694 -0.42527506 -1.9258012 0.8558693 1.2239933 -0.54134864 -1.2106586 -5.81288
0.35159615 0.6448542 -3.377333 -0.7372456 -5.999804 1.9744143 -3.5011454 -1.7462698
-0.35805392 0.3859805 -2.0035539 -1.2191162 -1.953229 -1.4739401 0.46442807 -1.4222258
00000000: 8b88 b1bf f653 d3bf 465c 23bf 96a0 6fbf
00000010: 273d 8dbf c223 51c0 c778 17bf fc88 bf3e
00000020: a7f1 55bf 99d5 f33d cb2e a8bf f110 a43e
00000030: f057 a53f 7053 72c0 3a61 51bf 6d5d 0f3f
00000040: 9b16 1bbf 75cd a5bf 1d05 f03f 8edf 8abf
00000050: a1c8 e73d 7e0c 4b40 8a56 6b3f c437 a540
00000060: db73 ccbf bbea eb3f 45f4 be40 48e5 5dbf
00000070: 9bfc 58c0 80f8 64c0 4bd8 00c0 2508 1bbf
00000080: 1f4a dbbe 3d8b b3bf f944 ac3d 1060 0ec0
00000090: fedd 80be 6246 b3bf 55d4 59c0 fdbc bc3d
000000a0: a636 17be a7bd d9be a780 f6bf 401a 5b3f
000000b0: d0ab 9c3f d395 0abf dcf6 9abf 1d03 bac0
000000c0: 6904 b43e 2a15 253f 3926 58c0 21bc 3cbf
000000d0: 65fe bfc0 9cb9 fc3f c412 60c0 c585 dfbf
000000e0: d852 b7be 3c9f c53e 3a3a 00c0 000c 9cbf
000000f0: 6803 fabf 12aa bcbf 84c9 ed3e 7f0b b6bf

fc3.weight f4 [64, 64]
0.30446386 -0.08788346 0.7239029 -1.3384504 -1.0524752 0.12098087 -0.04769969 -0.36166808
-1.5249218 -0.49604106 -1.0601995 -0.6699428 -0.14578106 0.038289253 -0.15348575 -0.1879254
-1.5632485 0.77350575 -0.5071462 -0.81002784 -1.3461252 0.6841258 -0.16276897 -0.9522033
-0.53714913 0.44890255 -0.7590869 -0.052892663 -0.038943224 0.040203374 0.51498044 0.5872807
0.25237134 0.22472751 -0.50926507 -0.5444158 0.41013452 -0.9730034 -0.7064958 -0.20184503
0.16296616 -0.59921664 -0.25355288 -1.0478095 -0.36920398 -0.08552979 -0.030718742 -0.6305667
-1.0668918 -1.287002 -0.2914592 0.6830314 -1.1703398 -0.7901144 -1.2541331 -0.45731208
0.5917389 -1.1360582 0.072546415 0.7384398 0.18779805 -0.74668497 0.00800047 -1.0874547
-0.09354171 -0.25526088 0.039678253 0.8706283 -0.7506629 -0.5375256 -0.6884545 0.67763853
-0.80933106 -1.4772158 0.17042969 -0.21104705 0.28476816 0.44792956 0.1150921 0.30640483
0.5780962 0.33825353 0.20660716 0.6160574 0.038546506 -0.15083387 0.3664944 0.31824633
-0.13923125 0.6817776 0.22993022 -0.21883683 0.28526583 0.094860144 0.545697 -0.3002954
0.19394617 1.0946766 -0.696727 0.18748952 0.6413735 -1.2798986 -0.84560597 -1.0332654
-0.61026454 0.39846694 -0.28573865 -0.94789344 -0.2970505 -0.7886659 0.77478325 1.020272
0.052613158 -0.4995392 0.056512166 1.1223406 0.57820415 0.2321167 -1.1897804 -0.22520274
-1.0599624 0.40736145 -0.5647285 -1.2360309 0.005558626 -0.53197724 -0.35440147 -0.49762708
-1.2106017 -0.8432493 -0.6166496 -0.87300724 -0.032454222 0.053761315 -0.11651358 -0.21857496
-1.2735378 -0.06687134 0.31755674 0.21112666 0.23912965 -0.86324984 -0.5320019 0.28749284
0.021939304 -0.10819191 -0.6369507 -1.2746652 -0.9971376 -2.2629282 0.42002934 -0.42745024
-0.14745232 0.12342692 -0.6180731 -1.0531536 -0.26824626 -0.35606527 -0.8022645 0.48455703
-0.48533183 0.03229117 0.0042356593 -0.3838091 -0.90083003 -1.4379721 -0.72213584 0.7744181
0.85475665 0.077446096 0.28552008 -0.5804356 0.18762696 0.83408207 -0.16253701 -0.4585665
-0.6085506 0.9485705 -0.027023826 -0.22431093 -0.13571133 -0.0730082 -0.55813175 -0.51454353
0.23952097 -0.047795746 -0.49629453 0.95857745 -0.9274835 -0.09317425 -1.357321 -0.6744582
0.007944285 -0.31955835 0.21604887 0.049623124 0.15471953 -1.0057235 -0.5152421 0.24961646
-0.031073285 -0.553703 -0.13292547 -1.6611552 -0.8655284 0.7910548 -1.0087906 0.5557611
-0.20126903 -0.2537032 -0.8976531 -0.28384677 0.4868099 -0.43438923 0.11390514 -0.9566072
0.12219454 1.4721206 -1.8246092 -0.43236157 -0.35672924 -0.3959658 0.2854359 0.58133584
-0.6834938 -0.1917953 -0.2146334 -1.5247073 -0.3076009 0.62498766 -0.72800016 -0.16017655
-0.29564723 0.761995 -0.0065516937 -1.3335012 0.10988031 0.09988515 -0.40624735 -0.66072744
-2.2699316 -0.378491 -0.004445906 -0.18828216 -1.3867037 -1.0927495 -1.2975374 -0.9912505
-0.10739787 0.638951 -0.26263377 -0.1646234 -0.09940892 -0.5061587 -0.24702336 -0.08621969
00000000: b0e2 9b3e 3efc b3bd b351 393f 5852 abbf
00000010: 82b7 86bf d2c4 f73d c060 43bd 8f2c b9be
00000020: a330 c3bf 18f9 fdbe 9eb4 87bf 5f81 2bbf
00000030: a147 15be 31d5 1c3d 5e2b 1dbe 846f 40be
00000040: 8718 c8bf 7904 463f 55d4 01bf fc5d 4fbf
00000050: d54d acbf de22 2f3f e9ac 26be 98c3 73bf
00000060: 9b82 09bf 8ed6 e53e 8553 42bf faa5 58bd
00000070: ee82 1fbd 4bac 243d c2d5 033f 0758 163f
00000080: d136 813e f81e 663e 325f 02bf d55e 0bbf
00000090: 27fd d13e c016 79bf e9dc 34bf 77b0 4ebe
000000a0: 9ae0 263e 4366 19bf afd1 81be 9f1e 86bf
000000b0: 4e08 bdbe 3e2a afbd dfa5 fbbc d26c 21bf
000000c0: e98f 88bf 7bbc a4bf 243a 95be 25db 2e3f
000000d0: b2cd 95bf f044 4abf 6f87 a0bf cf24 eabe
000000e0: 337c 173f 5b6a 91bf 3793 943d 640a 3d3f
000000f0: 224e 403e bf26 3fbf 6714 033c b731 8bbf
00000100: cc92 bfbd 8eb1 82be aa85 223d 7fe1 5e3f
00000110: 722b 40bf 479b 09bf 8e3e 30bf b879 2d3f
00000120: 5230 4fbf 6815 bdbf 1f85 2e3e b81c 58be
00000130: 22cd 913e 0657 e53e 68b5 eb3d 18e1 9c3e
00000140: 1dfe 133f 912f ad3e d490 533e f0b5 1d3f
00000150: f1e2 1d3d 3274 1abe 27a5 bb3e 2ff1 a23e
00000160: a392 0ebe fa88 2e3f d472 6b3e c316 60be
00000170: 5d0e 923e 0946 c23d ccb2 0b3f 52c0 99be
00000180: d399 463e 5d1e 8c3f b35c 32bf 41fd 3f3e
00000190: 0e31 243f b8d3 a3bf a279 58bf 0a42 84bf
000001a0: 4c3a 1cbf dc03 cc3e 564c 92be 25a9 72bf
000001b0: 0117 98be 02e6 49bf 3258 463f 4698 823f
000001c0: e580 573d 9ac3 ffbe 4d79 673d dba8 8f3f
000001d0: 3005 143f 00b0 6d3e b94a 98bf 8c9b 66be
000001e0: d9ac 87bf ae91 d03e 0c92 10bf 4336 9ebf
000001f0: 2225 b63b a92f 08bf 1c74 b5be fac8 febe
00000200: fff4 9abf 30df 57bf c0dc 1dbf 677d 5fbf
00000210: b8ee 04bd d334 5c3d ac9e eebd 1dd2 5fbe
00000220: 4903 a3bf d7f3 88bd cc96 a23e 9631 583e
00000230: 67de 743e f1fd 5cbf 4731 08bf 4332 933e
00000240: 0eba b33c b893 ddbd 330f 23bf 3b28 a3bf
00000250: 6944 7fbf d1d3 10c0 160e d73e c2da dabe
00000260: befd 16be 41c7 fc3d 0a3a 1ebf bdcd 86bf
00000270: 9357 89be 304e b6be 3561 4dbf dc17 f83e
00000280: 6a7d f8be bf43 043d 49cb 8a3b a082 c4be
00000290: cc9c 66bf 780f b8bf e5dd 38bf 4440 463f
000002a0: 55d1 5a3f 0f9c 9e3d b02f 923e 6d97 14bf
000002b0: 4821 403e 6786 553f 1a70 26be 3ac9 eabe
000002c0: f9c9 1bbf 84d5 723f 1261 ddbc c4b1 65be
000002d0: e9f7 0abe 5385 95bd b9e1 0ebf 20b9 03bf
000002e0: fc44 753e 79c5 43bd 511a febe 5565 753f
000002f0: 8f6f 6dbf 24d2 bebd b2bc adbf 4ba9 2cbf
00000300: bf28 023c 279d a3be ea3b 5d3e 9e41 4b3d
00000310: cc6e 1e3e 8cbb 80bf e8e6 03bf 759b 7f3e
00000320: 678d febc 7bbf 0dbf 9d1d 08be bca0 d4bf
00000330: 4593 5dbf 9182 4a3f 0d20 81bf 5c46 0e3f
00000340: 7819 4ebe 63e5 81be 98cc 65bf 5d54 91be
00000350: 263f f93e 4468 debe 1947 e93d 36e4 74bf
00000360: 2241 fa3d 736e bc3f cb8c e9bf 7f5e ddbe
00000370: 37a5 b6be 08bc cabe a724 923e 6dd2 143f
00000380: 73f9 2ebf fd65 44be dcc8 5bbe 9c29 c3bf
00000390: dd7d 9dbe 31ff 1f3f 385e 3abf 5205 24be
000003a0: 135f 97be 1b12 433f 97af d6bb 2bb0 aabf
000003b0: ee08 e13d 9690 cc3d a7ff cfbe 6f25 29bf
000003c0: 8f46 11c0 93c9 c1be f6ae 91bb 0acd 40be
000003d0: 827f b1bf 37df 8bbf b515 a6bf 98c2 7dbf
000003e0: 6af3 dbbd 4b92 233f ef77 86be 0993 28be
000003f0: e796 cbbd 9e93 01bf b1f3 7cbe f393 b0bd

fc3.bias f4 [64]
-1.2152389 -0.8620634 -2.3969877 -2.4793425 -3.5364394 -0.13050176 0.31573302 -0.47671926
-0.7211205 -0.51227415 -1.0767462 0.8514337 0.6562449 -3.5666409 0.1741644 -1.9983884
2.6648805 -0.60980785 3.0326378 1.6588107 2.4190197 -6.056383 1.7107748 2.8902583
0.43721125 1.6179359 1.0518069 -9.604555 2.1446924 3.1018002 4.354192 -0.2712993
-0.46373823 1.6856914 2.864748 -2.2306101 -5.6713705 1.0471433 -5.667855 -0.0962321
2.8756714 -0.610509 3.1042705 -0.44583842 -1.3677133 2.1076963 0.38837287 -0.6834993
2.7339303 3.0402882 0.1586173 1.857957 -1.185147 -9.956106 3.7050474 -2.989494
-0.91699356 3.1191826 -0.33187184 0.8232745 6.1121287 4.8608713 1.9423513 -7.636373
00000000: f38c 9bbf 30b0 5cbf 3f68 19c0 8cad 1ec0
00000010: 0655 62c0 41a2 05be c2a7 a13e 8c14 f4be
00000020: 5a9b 38bf 6624 03bf d2d2 89bf 8ff7 593f
00000030: aaff 273f d843 64c0 2758 323e 31cb ffbf
00000040: 678d 2a40 5e1c 1cbf bd16 4240 e953 d43f
00000050: 38d1 1a40 e4cd c1c0 abfa da3f fef9 3840
00000060: 27da df3e 8618 cf3f 9ca1 863f 42ac 19c1
00000070: a442 0940 e583 4640 8a55 8b40 bee7 8abe
00000080: 196f edbe bcc4 d73f 0858 3740 51c2 0ec0
00000090: de7b b5c0 cb08 863f 115f b5c0 5615 c5bd
000000a0: 000b 3840 514a 1cbf 5eac 4640 ef44 e4be
000000b0: 3b11 afbf 7fe4 0640 cfd8 c63e cff9 2ebf
000000c0: b7f8 2e40 1594 4240 936c 223e 89d1 ed3f
000000d0: e6b2 97bf 364c 1fc1 7f1f 6d40 df53 3fc0
000000e0: 17c0 6abf b0a0 4740 1beb a9be 1ec2 523f
000000f0: 8f96 c340 428c 9b40 f89e f83f 2b5d f4c0

value.weight f4 [1, 64]
-0.19545154 -0.077100486 0.49072748 0.22317907 0.019175809 -0.5654268 -0.04184712 0.10659102
-0.1124106 -0.082625225 -0.11441316 -0.42015553 -0.19027224 0.077728525 -0.21230873 0.32137102
0.14347619 -0.0982956 0.15997574 -0.12662475 -0.3126701 0.07417528 -0.26270938 0.2662043
-0.30589253 -0.05794951 -0.11347947 0.12475053 -0.12805815 0.40484345 -0.08606193 0.060065404
0.039678037 0.020622084 0.07661281 0.016052697 0.17249358 0.1821538 0.25140417 -0.37007356
-0.3158855 -0.11289071 -0.12774116 -0.2943941 0.1705358 0.12180018 0.062143352 0.0655385
-0.1296325 0.17160147 0.0609536 0.13939315 0.39307836 0.027118778 0.11125144 -0.5192191
0.3498398 -0.2649882 -0.13827133 -0.10694204 0.04729158 -0.2096389 -0.12703371 0.10255586
00000000: 7324 48be dce6 9dbd a240 fb3e 0e89 643e
00000010: 9616 9d3c d0bf 10bf e367 2bbd 654c da3d
00000020: 8737 e6bd 6a37 a9bd 7251 eabd a01e d7be
00000030: bad6 42be 2230 9f3d 7667 59be be8a a43e
00000040: 6ceb 123e 344f c9bd aed0 233e eba9 01be
00000050: 4c16 a0be 36e9 973d d881 86be ee4b 883e
00000060: f29d 9cbe 775c 6dbd ed67 e8bd 357d ff3d
00000070: ad21 03be a447 cf3e 3d41 b0bd 2407 763d
00000080: 7085 223d a5ef a83c 2de7 9c3d f280 833c
00000090: 28a2 303e 8786 3a3e 0cb8 803e 487a bdbe
000000a0: bfbb a1be 3f33 e7bd 94ce 02be d3ba 96be
000000b0: f0a0 2e3e 5f72 f93d 078a 7e3d 0d39 863d
000000c0: 62be 04be 4cb8 2f3e 7baa 793d 14bd 0e3e
000000d0: 9141 c93e 3328 de3c ccd7 e33d 8beb 04bf
000000e0: 341e b33e 89ac 87be 0097 0dbe 6e04 dbbd
000000f0: d1b4 413d 94ab 56be 2015 02be cf08 d23d
