maddpg_v7_over/model/simple_tag/agent_0/709_actor_params.pth (torch, 41911 bytes, 8 tensors)

fc1.weight f4 [64, 16]
0	0xbe0e5ac9	-0.1390182
1	0x3d44a8ed	0.048012663
2	0xbcb5ef72	-0.022208903
3	0x3e67feb3	0.22655754
4	0xbc445827	-0.011983908
5	0xbd75d3c1	-0.060016397
6	0xbe0ac177	-0.13550363
7	0x3daf0e8e	0.08547698
8	0x3f9eb7cf	1.2399844
9	0x3d2b1c97	0.041775312
10	0xbdb7be95	-0.089718975
11	0xbe577685	-0.21041305
12	0xbf002b63	-0.500662
13	0xbf2ae4d5	-0.6675542
14	0xbf0e31c5	-0.5554469
15	0xbe3d838b	-0.18507211
16	0xbd3358f3	-0.043786
17	0xbcd38166	-0.025818538
18	0xbc565c89	-0.013083586
19	0xbeb59141	-0.35462382
20	0xbca6e2ba	-0.020371784
21	0x3c535e01	0.01290083
22	0xbdd75662	-0.10514523
23	0x3d76c353	0.06024487
24	0x3e5b6072	0.2142351
25	0x3f061bb5	0.5238603
26	0x3e35d2d8	0.17756212
27	0x3f2672cb	0.6501891
28	0x3efc3ff0	0.4926753
29	0x3c23c892	0.00999655
30	0xbde77736	-0.113020346
31	0xbdfa43a5	-0.122199334
32	0x3df764f8	0.12079805
33	0xbda2fd15	-0.07958428
34	0x3e0b9220	0.13629961
35	0xbef2329f	-0.47304246
36	0xbbf5e3c5	-0.007503959
37	0xbdabd511	-0.083902486
38	0xbd4bec43	-0.049785864
39	0xbd47ae2e	-0.048750095
40	0xbd7e3ce2	-0.06206978
41	0x3e5a2f6f	0.21307157
42	0xbebd3278	-0.36952567
43	0x3ec5f5de	0.38664144
44	0xbf56ecdc	-0.8395517
45	0x3f7f4c2e	0.99725616
46	0x3c8ac886	0.01694132
47	0x3e738626	0.23781642
48	0x3dd50441	0.10401202
49	0x3c9b3d88	0.018950239
50	0x3f07f163	0.531027
51	0x3e697fd3	0.22802667
52	0x3d3ac1ab	0.045594852
53	0xbe2a3748	-0.1662265
54	0xbd4b8e18	-0.049696058
55	0x3c298598	0.010346793
56	0xbe9f78bf	-0.3114681
57	0xbe9fa398	-0.311795
58	0xbda9f8a6	-0.08299379
59	0xbcdf6100	-0.027267933
60	0xbf183985	-0.5946277
61	0xbe6ee508	-0.23329556
62	0xbd87c8db	-0.06630107
63	0x3dd93be0	0.106071234
64	0xbdfcb40f	-0.12339031
65	0x3dde119b	0.10843202
66	0xbda8902d	-0.08230624
67	0x3d5fb53c	0.054616198
68	0x3d8cea40	0.06880617
69	0x3b623bcf	0.0034520512
70	0xbc209634	-0.009801436
71	0xbe49bac0	-0.19700146
72	0xbe85dd85	-0.26145568
73	0x3e6ddf2c	0.23229665
74	0x3e4859ee	0.19565555
75	0x3dcb443f	0.09925126
76	0x3f013dbc	0.50484824
77	0xbe86b131	-0.2630706
78	0xbd16c7bb	-0.03681157
79	0xbe321dda	-0.173942
80	0x3c4715a7	0.012151158
81	0xbdcc92f0	-0.099889636
82	0x3f04ca96	0.5187162
83	0xbf397bb2	-0.7245437
84	0xbdecd786	-0.11564545
85	0x3c90639b	0.01762562
86	0xbdc35779	-0.095381685
87	0x3d5f2555	0.054478962
88	0xbd93a43b	-0.07209059
89	0xbe03d3ee	-0.12873814
90	0x3e80a17e	0.2512321
91	0xbe77e1fa	-0.24207297
92	0xbe0dee94	-0.13860542
93	0xbf2f4260	-0.68460655
94	0xbf1adeef	-0.6049642
95	0x3e8f25c6	0.27958506
96	0x3d8f9dc5	0.07012514
97	0x3ce5c4ff	0.028048037
98	0x3e8c01ab	0.27345023
99	0xbe302a76	-0.17203698
100	0x3dc900f5	0.09814636
101	0xbdd88c5d	-0.10573647
102	0x3ccc776d	0.02495929
103	0xbcc4f037	-0.024040325
104	0x3bae17fa	0.005312917
105	0xbef8f685	-0.4862558
106	0x3e10f714	0.14156753
107	0x3ebfe78f	0.37481353
108	0xbe60cca1	-0.2195306
109	0xbfb8cb2c	-1.4437003
110	0x3db94809	0.09046943
111	0xbda1071a	-0.07862683
112	0xbdc0a88e	-0.09407149
113	0xbca2d203	-0.019875532
114	0xbf2be8ba	-0.6715199
115	0xbf102542	-0.5630685
116	0x3d71d68d	0.059042502
117	0x3d4c38bd	0.049858797
118	0x3da94995	0.08265988
119	0x3cc4ae94	0.024009027
120	0xbd23a355	-0.039950687
121	0xbdf4c94c	-0.11952457
122	0xbeba0be4	-0.36337197
123	0xbe6a82ea	-0.22901502
124	0xbf20a140	-0.6274605
125	0xbf2b4579	-0.6690288
126	0x3e73da50	0.23813748
127	0xbe60e871	-0.2196367
128	0x3db611bb	0.088901006
129	0xbe5de121	-0.21667911
130	0x3ea3817d	0.3193473
131	0xbd6ac68c	-0.057318255
132	0x3d3579d0	0.044305623
133	0x3ded168d	0.11576567
134	0xbb32c624	-0.0027278746
135	0x3caff462	0.021478835
136	0x3d0dc29d	0.034609426
137	0x3f4d1e6b	0.8012454
138	0xbceb4c7d	-0.028722996
139	0xbe4ed0e8	-0.20196879
140	0xbc7e0372	-0.015503751
141	0xbf310842	-0.69153225
142	0xbe223d2e	-0.1584365
143	0xbdfbfbb4	-0.12303868
144	0x3e224948	0.15848267
145	0x3d487e1b	0.04894839
146	0x3e738178	0.23779857
147	0x3dbf0b0d	0.0932828
148	0xbd94abdb	-0.07259341
149	0x3d465507	0.048420932
150	0xbd7ea9fe	-0.062173836
151	0xbda46676	-0.080273554
152	0xbedae513	-0.42752895
153	0x3ccb6462	0.02482814
154	0x3e3cb5e8	0.18428767
155	0x3de27bb5	0.110587515
156	0x3eca2516	0.3948142
157	0x3f1f3d4f	0.62202924
158	0x3e319665	0.17342527
159	0xbd90cea3	-0.07070663
160	0xbd814d19	-0.06313533
161	0xbcd823f8	-0.026384339
162	0xbcc98a55	-0.024602095
163	0xbe80258f	-0.25028655
164	0x3d6707d7	0.05640396
165	0x3da5efd5	0.08102385
166	0xbc7cb7ec	-0.01542471
167	0xbd72bd40	-0.059262514
168	0xbbd8be06	-0.0066144494
169	0xbcdcbabf	-0.026944516
170	0x3d91c652	0.07117905
171	0xbf1b6ec5	-0.60715896
172	0x3fce8f05	1.6137396
173	0x3ef36773	0.47539863
174	0xbc42345a	-0.011853302
175	0x3cb6e14f	0.022324232
176	0xbd547d74	-0.051877454
177	0x3d914151	0.07092536
178	0xbe91e6c4	-0.28496373
179	0xbbc96397	-0.0061459052
180	0x3c40d989	0.011770614
181	0xbc945001	-0.018104555
182	0xbd613e1b	-0.05499087
183	0x3c8d6c1a	0.01726346
184	0xbdc4a51c	-0.096018046
185	0x3defe0ad	0.117127754
186	0x3d197853	0.037468266
187	0x3f71a5eb	0.94393796
188	0xbe016f78	-0.12640178
189	0xbf88f7cb	-1.070062
190	0x3df3be90	0.11901581
191	0xbe0b0504	-0.13576132
192	0x3b5b499f	0.003346063
193	0xbd051545	-0.032490987
194	0x3c7d724b	0.015469144
195	0xbdc81fa3	-0.09771659
196	0xbe022b37	-0.12711798
197	0xbd2871ac	-0.04112403
198	0x3a084a3c	0.000519905
199	0xbe6cb578	-0.231161
200	0xbc06b85e	-0.0082226675
201	0x3d06f8c4	0.032952085
202	0xbe4c63d1	-0.19959952
203	0xbf26630f	-0.649949
204	0xbe8dee9c	-0.27721107
205	0x3d505177	0.05085894
206	0xbdf850ae	-0.121247634
207	0x3e54efec	0.20794648
208	0xbd3ee540	-0.04660535
209	0xbdefa013	-0.117004536
210	0xbe2a9d15	-0.16661485
211	0x3e33fd15	0.17577012
212	0xbbed7dd3	-0.0072476654
213	0x3d6c2f5b	0.05766235
214	0xbcf8cb86	-0.030370485
215	0x3d90d238	0.07071346
216	0x3dc8c9c1	0.098041065
217	0xbcbe237f	-0.023210285
218	0xbf2f0b08	-0.6837621
219	0x3f3801ee	0.71877944
220	0xbd2aeacc	-0.041727826
221	0x3f2669dc	0.6500528
222	0xbdbb271e	-0.091383204
223	0xbe27a6c2	-0.16372207
224	0x3d9d5a70	0.07683265
225	0x3cd70685	0.026248226
226	0x3d038218	0.03210649
227	0xbf19123d	-0.59793454
228	0x3c7c6a0a	0.015406141
229	0xbb4b4a47	-0.0031019615
230	0x3d0a4bdf	0.033763763
231	0xbe210c96	-0.15727457
232	0xbe60b869	-0.21945347
233	0x3d7225c2	0.05911804
234	0xbe85ca7b	-0.26131043
235	0xbdd47781	-0.10374356
236	0x3e440943	0.19144158
237	0x3eeaee94	0.45885146
238	0xbc8815bc	-0.016611926
239	0xbbff3e06	-0.007789376
240	0x3d67a66d	0.0565552
241	0x3a4444aa	0.00074870384
242	0x3f5b8e63	0.8576414
243	0x3ea4ae8f	0.32164428
244	0xbd0e55fe	-0.034749977
245	0xbd23a413	-0.039951395
246	0xbde06b85	-0.10958008
247	0x3d3ccc7f	0.04609346
248	0x3bdf2ab8	0.0068105124
249	0xbdda3ebd	-0.10656498
250	0x3e64d63e	0.22347352
251	0x3d4e80d1	0.050415818
252	0x3f913aa2	1.1346018
253	0x3db08eb8	0.086209714
254	0x3e07b7ee	0.13253757
255	0x3e3018cd	0.17196961

fc1.bias f4 [64]
0	0xbdbafe13	-0.09130492
1	0x3e435696	0.19075999
2	0x3edf9172	0.43665653
3	0xbeab6f09	-0.3348315
4	0x3f5847bd	0.84484464
5	0xbe882fdc	-0.26599014
6	0x3f0cce8f	0.55002683
7	0x3f04eb03	0.519211
8	0x3f265f5d	0.6498926
9	0x3e6c6811	0.23086573
10	0x3f0a1a6d	0.5394657
11	0x3eaec7fb	0.34136948
12	0x3f260cb2	0.6486312
13	0x3ecaf6c3	0.3964139
14	0x3eb35cf9	0.3503187
15	0x3f04adcf	0.5182771
16	0xbd0abe9a	-0.033873178
17	0xbc271ca0	-0.010199696
18	0x3f53c07f	0.827156
19	0x3e7a6365	0.24451979
20	0xbe9456f7	-0.289726
21	0x3cf6d789	0.030132072
22	0xbef0768c	-0.46965444
23	0x3f28e264	0.65970445
24	0x3dd8e0fe	0.10589789
25	0x3f200e5f	0.6252193
26	0x3f125513	0.5716106
27	0x3e0003bc	0.12501425
28	0xbe42a88e	-0.19009611
29	0x3de65aad	0.11247764
30	0x3f8879f7	1.0662221
31	0x3f3e8e72	0.74436104
32	0x3e8abb1f	0.27095887
33	0xbdebb3f6	-0.11508934
34	0x3f1cb351	0.61211115
35	0xbf102809	-0.5631109
36	0x3e97a8f3	0.29621086
37	0x3db61589	0.08890826
38	0x3f1cbbe6	0.6122421
39	0xb9b30811	-0.0003414755
40	0x3eba9e88	0.36449075
41	0xbf45f5f9	-0.7732845
42	0x3f4df4f5	0.804519
43	0x3f23a6d3	0.6392643
44	0xbe06b0fd	-0.13153453
45	0x3d182191	0.037141386
46	0x3f10294e	0.56313026
47	0x3e2427f0	0.1603086
48	0x3f4919d2	0.78555024
49	0xbe238dc0	-0.15972042
50	0x3ef41809	0.47674587
51	0x3f1bfbfc	0.6093137
52	0xbf032b37	-0.51237816
53	0x3f4b3e07	0.7939152
54	0x3ef27901	0.47357944
55	0x3bdda6fa	0.00676429
56	0x3eb90847	0.36139128
57	0xbe59818d	-0.21240826
58	0xbe483e3f	-0.19554995
59	0x3eb5e2b3	0.3552452
60	0x3ec67e46	0.38768214
61	0x3edcff80	0.4316368
62	0xbe7465dd	-0.23866983
63	0x3f909a9f	1.1297187

fc2.weight f4 [64, 64]
0	0x3e9c3824	0.30511582
1	0x3ef362f0	0.4753642
2	0x3eb9a3b7	0.36257717
3	0x3f0854ef	0.532546
4	0xbf106f2d	-0.5641964
5	0x3e6a5d07	0.2288705
6	0x3e395d7a	0.18102065
7	0xbc69ecf5	-0.014277686
8	0xbd867a66	-0.065663144
9	0xbe47f189	-0.19525732
10	0xbe208720	-0.15676546
11	0x3dc07151	0.093966134
12	0xbcb8889c	-0.022526078
13	0xbd922659	-0.071362205
14	0x3e4d5d66	0.2005516
15	0x3e9554dc	0.29166305
16	0xbf182234	-0.5942719
17	0xbec86aec	-0.39144075
18	0x3e0fca38	0.14041984
19	0x3d38a650	0.045080483
20	0x3eb104fc	0.34574115
21	0x3db534b1	0.08847941
22	0x3dc58fc2	0.0964656
23	0xbe654e3d	-0.22393127
24	0xbdd0dcc2	-0.10198356
25	0xbe8f51b6	-0.27992028
26	0x3d6eb6a9	0.058279667
27	0xbe5bbfd5	-0.21459897
28	0x3eac24a5	0.33621708
29	0x3f06ec94	0.5270474
30	0xbe087b5c	-0.13328308
31	0xbe88614a	-0.26636726
32	0xbd8d1d30	-0.06890333
33	0x3edec795	0.43511644
34	0xbe71b957	-0.23605858
35	0xbe3a6220	-0.18201494
36	0x3ec9488e	0.39313167
37	0xbe5fc81d	-0.21853681
38	0x3d6f3000	0.058395386
39	0xbe57156e	-0.21004269
40	0xbd6f1b3c	-0.058375582
41	0xbed79f2b	-0.42113623
42	0x3d9e3770	0.077254176
43	0x3e101fdb	0.14074652
44	0x3eca1f75	0.39477125
45	0xbe2cc170	-0.16870666
46	0xbe30e448	-0.17274582
47	0x3e98ed5a	0.29868585
48	0x3e1ffb0a	0.15623108
49	0x3e12c531	0.14333035
50	0x3eb88c58	0.36044574
51	0x3c0b61c7	0.008507199
52	0xbd64dee9	-0.055876646
53	0x3e82aca0	0.25522327
54	0x3efe54b6	0.49674004
55	0xbe3c7d10	-0.18407083
56	0x3e6df345	0.23237331
57	0xbecaedc9	-0.3963454
58	0xbde091bb	-0.10965296
59	0xbd839feb	-0.06426986
60	0x3d513cae	0.05108326
61	0x3e3a4e9b	0.18194048
62	0x3e4d5b8e	0.20054457
63	0xbde11bf1	-0.109916575
64	0x3caf68ec	0.021412335
65	0x3f0165a3	0.5054571
66	0x3da62140	0.08111811
67	0xbe88aa88	-0.26692605
68	0x3e67ddd4	0.22643214
69	0xbdc29db9	-0.095027395
70	0x3e570b16	0.21000323
71	0xbcea3647	-0.028590335
72	0xbe4c584d	-0.19955559
73	0x3e0fc092	0.14038303
74	0xbe0b0c2f	-0.13578866
75	0xbf0962b7	-0.5366625
76	0x3e693e6c	0.22777718
77	0x3ecf589b	0.40497288
78	0x3d9f274f	0.077711694
79	0x3e0c7926	0.1371809
80	0xbe3fb3e9	-0.18720974
81	0xbee18cb7	-0.4405267
82	0xbcdc922e	-0.026925173
83	0xbf56f9cb	-0.83974904
84	0xbf46b788	-0.77623796
85	0x3c18a7d3	0.009317356
86	0xbdabf5b6	-0.08396475
87	0x3e18f95e	0.14938876
88	0xbe9c4858	-0.30523944
89	0x3e7e1017	0.24810825
90	0xbe97993a	-0.2960909
91	0x3e960b75	0.29305616
92	0xbc9f7e75	-0.01946948
93	0x3d728ba0	0.059215188
94	0xbd88e3e0	-0.06684089
95	0x3ec04476	0.37552232
96	0xbef44571	-0.4770923
97	0x3d4d1e79	0.05007789
98	0x3de20fca	0.11038168
99	0xbe9e2617	-0.30888435
100	0x3ee2e4e1	0.44315246
101	0xbdb15613	-0.086589955
102	0xbe837448	-0.25674653
103	0xbdbde3ba	-0.09271951
104	0xbe8bd5c8	-0.2731154
105	0xbc3f5f7b	-0.011680479
106	0x3f1c4b27	0.61052173
107	0x3ed22100	0.41040802
108	0x3e8fc203	0.28077707
109	0x3cb53549	0.022120135
110	0xbe6af87b	-0.2294635
111	0xbeb4baec	-0.3529886
112	0x3ea8c531	0.32962945
113	0x3e1d1c79	0.15342893
114	0x3d9505b3	0.07276478
115	0xbc90d5cc	-0.017680071
116	0x3e8693d1	0.2628465
117	0x3e15a263	0.14612727
118	0x3ebc3685	0.36760345
119	0xbeffadc7	-0.4993727
120	0x3e8b6d79	0.27231959
121	0xbea2dd26	-0.31809348
122	0x3f1772a9	0.5915933
123	0x3ed40bb2	0.41415173
124	0x3d81e9ba	0.06343408
125	0xbeeca851	-0.46222165
126	0xbd9df220	-0.07712197
127	0xbd8b8673	-0.068127535
128	0x3e60ce8d	0.21953793
129	0xbe931966	-0.28730315
130	0x3f4bd20c	0.7961738
131	0xbe7bc515	-0.245869
132	0xbeb939d9	-0.36176947
133	0xbeced87d	-0.40399542
134	0xbe881cc8	-0.26584458
135	0x3eb7c27b	0.35890564
136	0xbdeb8fdf	-0.115020506
137	0xbe5a3398	-0.21308744
138	0xbe58fd69	-0.21190418
139	0xbe427e80	-0.18993568
140	0x3ca618a6	0.020275425
141	0x3f373d7b	0.71578187
142	0x3dc5de90	0.09661591
143	0x3e4f74e3	0.20259432
144	0xbd044cf8	-0.032299966
145	0x3b026941	0.0019899162
146	0xbe28fdcf	-0.1650307
147	0xbeed4847	-0.46344206
148	0x3edea7ef	0.43487498
149	0x3ec4a4cf	0.3840699
150	0xbefe4682	-0.49663168
151	0x3e11fbc3	0.14256196
152	0x3d74753b	0.059682112
153	0x3e6951d4	0.22785121
154	0x3ef51b0d	0.478722
155	0x3f06613a	0.52492106
156	0x3e00dee5	0.12585028
157	0x3dbae243	0.09125187
158	0x3c4c1ccf	0.01245804
159	0xbe5fc12d	-0.21851034
160	0x3e8e0233	0.27736053
161	0x3ddfbf44	0.10925153
162	0xbd99ea9a	-0.0751545
163	0x3e450818	0.19241369
164	0x3da78c80	0.08181095
165	0x3e1a931d	0.15095182
166	0xbdf4bd71	-0.119501956
167	0x3ece6d4b	0.4031776
168	0xbd958ef9	-0.073026605
169	0x3ec7a050	0.38989496
170	0x3da62122	0.08111788
171	0xbdea8e33	-0.114529036
172	0x3ebab51f	0.3646631
173	0xbf237532	-0.638507
174	0x3e17eaba	0.14835635
175	0xbef50e92	-0.4786268
176	0x3decfd49	0.11571748
177	0xbe49ef4c	-0.19720191
178	0x3e9f6a4e	0.31135792
179	0x3d23f97d	0.040032852
180	0xbd2d1d34	-0.04226418
181	0xbe811254	-0.25209296
182	0xbe0178b6	-0.12643704
183	0xbee562c8	-0.44801927
184	0x3e1906d7	0.14944015
185	0xbea26be1	-0.3172293
186	0x3e7fb100	0.24969864
187	0x3d0ef01e	0.034896962
188	0xbe7bbab5	-0.24582942
189	0xbd79c3cc	-0.060977742
190	0x3ef65919	0.4811485
191	0xbf411890	-0.75428104
192	0xbc65a9d7	-0.014017544
193	0x3da5e060	0.08099437
194	0xbe051028	-0.12994444
195	0xbd0107c0	-0.03150153
196	0x3ea6849c	0.32523048
197	0xbe056c0c	-0.13029498
198	0xbdddc0c7	-0.10827785
199	0xbdf41e00	-0.119197845
200	0x3ebedd37	0.3727815
201	0x3ecfa97e	0.40559
202	0xbe8c586a	-0.27411205
203	0x3e0f523c	0.13996214
204	0x3e85c2bc	0.26125133
205	0x3e97d29d	0.29652873
206	0xbda371e3	-0.079807065
207	0x3e406494	0.18788368
208	0x3db256c5	0.08707956
209	0xbd9da84d	-0.076981165
210	0x3dc1822b	0.09448656
211	0x3ea274e8	0.31729817
212	0x3ec762c1	0.3894253
213	0xbc3796cb	-0.011205385
214	0xbedb906f	-0.42883632
215	0xbd063fe3	-0.03277577
216	0xbdcbdfec	-0.09954819
217	0xbe3dd87f	-0.18539618
218	0xbe44b9bf	-0.19211482
219	0x3e633907	0.22189723
220	0xbea2aa20	-0.3177042
221	0xbecafc63	-0.3964568
222	0x3eee4e6d	0.4654421
223	0x3e8b0d50	0.27158594
224	0x3ef97b04	0.48726666
225	0xbdddd00a	-0.10830696
226	0xbd7d8919	-0.061898325
227	0x3e6dfcb5	0.23240931
228	0x3d7037df	0.058647033
229	0x3de8fd7b	0.113764726
230	0xbeb95d2e	-0.36203903
231	0xbcdf9075	-0.027290562
232	0xbdc96ac5	-0.09834818
233	0x3e03ef08	0.12884152
234	0x3f33b42d	0.701968
235	0xbf1fd3f3	-0.62432784
236	0x3e8bcdaf	0.27305362
237	0x3d9d8f1d	0.07693312
238	0x3cd13f9a	0.025543023
239	0xbd5a7685	-0.053335685
240	0x3ec9cbb2	0.3941322
241	0x3d66ea6c	0.056375906
242	0x3e5b27a3	0.21401839
243	0x3e2622f0	0.16224265
244	0xbeee2f0a	-0.46520263
245	0xbe4be2d9	-0.19910754
246	0x3ef389a5	0.47565952
247	0xbdb12ca4	-0.08651093
248	0x3d585574	0.05281587
249	0x3dbdbd17	0.09264582
250	0x3c4c816f	0.012482031
251	0xbda1bcf2	-0.078973666
252	0xbe3a9ef1	-0.18224694
253	0xbe5f41df	-0.21802472
254	0xbb96c7f1	-0.0046014716
255	0xbe0b09e5	-0.13577993

fc2.bias f4 [64]
0	0xbec393e4	-0.3819877
1	0xbd8feb02	-0.07027246
2	0x3dc5f272	0.096653834
3	0x3dc340d7	0.095338516
4	0x3e11b630	0.14229655
5	0x3d84c22d	0.064823486
6	0xbdbf1166	-0.0932949
7	0xbe6ee6d9	-0.23330249
8	0xbc9d2349	-0.019181864
9	0x3ed8d030	0.42346334
10	0x3e293b18	0.16526449
11	0x3d6ed701	0.058310512
12	0xbed10c9f	-0.40829942
13	0x3ed04d0d	0.40683785
14	0x3ef2eb88	0.4744532
15	0x3efb6e06	0.4910738
16	0x3d2e7e1a	0.04260073
17	0xbe4017f8	-0.18759143
18	0x3e100d38	0.14067543
19	0x3dc5df46	0.09661727
20	0x3e42bf56	0.19018301
21	0xbe1e304f	-0.15448116
22	0x3ea35209	0.31898525
23	0x3d54f80d	0.051994372
24	0xbe2f9804	-0.17147833
25	0x3e16fd4b	0.14745061
26	0xbd9333a4	-0.07187584
27	0x3e2ccbc8	0.16874611
28	0x3e0b3bb9	0.13597001
29	0x3e56f4f3	0.20991878
30	0x3dab9b09	0.0837918
31	0x3e4685a6	0.1938692
32	0x3e9db703	0.3080369
33	0x3ee010a6	0.43762702
34	0x3ea3c6ce	0.31987613
35	0x3db02b1e	0.08601974
36	0xbdca9e7a	-0.09893508
37	0xbd819621	-0.06327463
38	0xbdf3e1be	-0.11908291
39	0x3e7f2380	0.24915886
40	0x3d8083ad	0.06275115
41	0x3da284fd	0.07935522
42	0xbdd60dd4	-0.10451856
43	0x3ea86fb5	0.32897726
44	0x3e8825d6	0.26591367
45	0x3db76844	0.08955434
46	0x3d7db2ec	0.06193821
47	0xbdc2d856	-0.09513919
48	0x3e2e48ed	0.17020006
49	0x3dc03ac5	0.093862094
50	0xbe3429ce	-0.17594072
51	0x3e605d9a	0.21910706
52	0x3e1c53f7	0.15266405
53	0xbd530640	-0.051519632
54	0x3db0d296	0.08633916
55	0x3e5aa6f5	0.21352752
56	0x3ce61b92	0.028089318
57	0xbe3955f9	-0.18099202
58	0xbe6681e0	-0.22510481
59	0x3e3a4b0a	0.18192688
60	0xbe84dadf	-0.25948235
61	0xbe748e0b	-0.2388231
62	0x3d0d0758	0.03443083
63	0xbe924d09	-0.28574398

fc3.weight f4 [64, 64]
0	0xbf7d22b4	-0.9888108
1	0xbf2d986b	-0.67810696
2	0xbf06ed79	-0.52706105
3	0xbeef7f20	-0.46776676
4	0xbf97ede8	-1.1869478
5	0x3d54c462	0.051945098
6	0xbf427613	-0.75961417
7	0xbe252da8	-0.16130698
8	0xbebab496	-0.364659
9	0x3cd3ced7	0.025855465
10	0x3ea75b3a	0.32686788
11	0x3f46f4f0	0.77717495
12	0x3e36ac45	0.17839153
13	0xbd893bd6	-0.06700866
14	0xbe561b2b	-0.20908801
15	0xbf25b900	-0.6473541
16	0x3e337f28	0.17528975
17	0xbdc32d25	-0.09530095
18	0xbf13077f	-0.57433313
19	0xbe98a71c	-0.29814994
20	0x3f066b2a	0.5250727
21	0xbe1b2d1c	-0.15153927
22	0xbdf37c2d	-0.11888919
23	0xbe3fba32	-0.18723372
24	0xbe467387	-0.19380008
25	0x3d2699a4	0.040673867
26	0xbdf092b0	-0.117467284
27	0x3e6b0c78	0.22953975
28	0xbf20f389	-0.62871605
29	0x3ec00213	0.37501583
30	0x3da0c927	0.07850867
31	0x3ee96763	0.4558669
32	0xbe3de88e	-0.18545744
33	0x3e93a109	0.28833798
34	0xbd6a25c4	-0.057164922
35	0x3ec842cd	0.39113465
36	0xbe9e8921	-0.30963996
37	0xbea91560	-0.3302412
38	0xbf15ada1	-0.5846806
39	0xbe84f17c	-0.25965488
40	0xbe844750	-0.25835657
41	0xbf0de924	-0.5543387
42	0xbd3ffb41	-0.046870474
43	0xbdd42b8e	-0.1035987
44	0x3dc158f7	0.09440797
45	0x3ecfb1ac	0.4056524
46	0xbec6dee4	-0.38841927
47	0x3d8d47e6	0.06898479
48	0x3e930bff	0.2872009
49	0x3e9e66ca	0.30937797
50	0x3e01cff3	0.12676983
51	0xbf38c827	-0.7218041
52	0xbea3785f	-0.31927773
53	0x3db50f50	0.08840811
54	0xbe817926	-0.2528774
55	0x3f1280fa	0.5722805
56	0x3e49057d	0.19631
57	0x3ed53004	0.41638196
58	0xbef0c3a5	-0.47024265
59	0xbe51d641	-0.20491888
60	0xbebf53e7	-0.373687
61	0x3e35cf82	0.17754939
62	0xbac56131	-0.0015058873
63	0x3d6b04a8	0.057377487
64	0xbedc28b3	-0.429998
65	0xbf07693c	-0.5289495
66	0xbcdb1c06	-0.026746761
67	0x3d603565	0.05473842
68	0x3e9c6911	0.3054891
69	0xbe52e96a	-0.20596853
70	0x3f0e637a	0.5562054
71	0xbd97ddea	-0.074153736
72	0x3e24b13b	0.16083233
73	0xbf3f6725	-0.7476676
74	0x3e870e17	0.26377937
75	0x3ea2c1cb	0.31788477
76	0xbea4d20f	-0.32191512
77	0xbed3ba45	-0.4135305
78	0xbe890cb5	-0.26767507
79	0xbd48820e	-0.048952155
80	0xbe97c664	-0.29643548
81	0xbdd8835d	-0.105719306
82	0xbe44c9da	-0.19217625
83	0xbad98cfe	-0.0016597805
84	0xbe183657	-0.14864479
85	0xbdd9ba3d	-0.10631225
86	0xbee3ac4b	-0.44467387
87	0xbe39fe5f	-0.18163441
88	0x3eebc7b5	0.46050802
89	0x3db8c57c	0.09022042
90	0xbe91111c	-0.28333366
91	0x3eb59759	0.35467032
92	0xbe888a3f	-0.26667973
93	0xbf24c1d1	-0.6435824
94	0xbbd9f827	-0.0066518965
95	0xbeca57ce	-0.39520115
96	0xbec681ea	-0.38770992
97	0xbdf98b37	-0.12184756
98	0x3de15371	0.11002243
99	0xbeb086ea	-0.3447793
100	0x3d19c739	0.03754351
101	0xbdcdb315	-0.10043923
102	0xbe76d556	-0.24104819
103	0x3e0b9740	0.13631916
104	0x3e560cf7	0.20903383
105	0xbe62df99	-0.22155608
106	0x3eb44db8	0.35215545
107	0xbe5ac3e6	-0.21363792
108	0x3e0f1182	0.13971522
109	0xbe2f88a1	-0.17141964
110	0xbf501563	-0.81282634
111	0x3bdc62ea	0.0067256587
112	0xbe253460	-0.1613326
113	0x3e9ece32	0.3101669
114	0xbe92395c	-0.28559387
115	0x3e648d68	0.22319567
116	0xbf560e86	-0.8361591
117	0xbe373db2	-0.17894629
118	0xbe23f0d1	-0.16009833
119	0xbf1867a8	-0.59533167
120	0x3ed4f05f	0.4158964
121	0x3e06dd1a	0.13170281
122	0xbd61dce1	-0.055142287
123	0xbeda0fe0	-0.42590237
124	0x3da9ed61	0.082972296
125	0xbe84e98b	-0.2595943
126	0xbd9c9a2e	-0.07646595
127	0x3f484233	0.7822601
128	0x3e2061bc	0.15662283
129	0x3e24bffc	0.16088861
130	0x3e2c258f	0.16811202
131	0x3e3f2388	0.18665898
132	0x3d76b0a4	0.06022705
133	0xbe2521d4	-0.16126186
134	0xbee6cab9	-0.4507654
135	0x3e8a6aa0	0.27034473
136	0x3b1fcd4e	0.0024383846
137	0x3e2b6234	0.1673668
138	0x3e0be4fc	0.1366157
139	0xbdacfc35	-0.08446542
140	0xbc8b3de4	-0.016997285
141	0xbdc9721b	-0.09836217
142	0x3e024c3c	0.12724394
143	0x3bb8f45a	0.0056443634
144	0xbcd9325e	-0.026513275
145	0xbe4ba75f	-0.19888066
146	0xbeb1af74	-0.34704173
147	0x3d9b4595	0.07581631
148	0xbeb6c1b4	-0.3569466
149	0x3eb2d337	0.3492677
150	0x3e6b2fd7	0.22967468
151	0x3f237e05	0.63864166
152	0x3d917116	0.071016476
153	0xbe79ed88	-0.24407017
154	0x3cf4c2d9	0.029878067
155	0x3f0185fb	0.5059506
156	0x3e0ed5f3	0.13948803
157	0xbe433b1c	-0.19065517
158	0xbf003b23	-0.50090235
159	0x3e187db6	0.14891705
160	0xbe4e9fac	-0.20178097
161	0x3ee39684	0.44450772
162	0xbe8e77bc	-0.27825725
163	0x3eca217f	0.3947868
164	0xbe1ec825	-0.15506037
165	0x3ed28a2b	0.4112104
166	0x3e0a4d25	0.13505991
167	0xbbe81fcc	-0.0070838686
168	0xbe2291c0	-0.15875912
169	0xbea5bd36	-0.3237092
170	0x3bcf2bf4	0.0063223783
171	0xbeeb5370	-0.45962095
172	0x3e1f811c	0.15576595
173	0x3e939476	0.28824204
174	0x3e603c97	0.21898113
175	0x3dbf099a	0.09328003
176	0xbe652cda	-0.22380391
177	0xbbec899f	-0.007218554
178	0x3da6e393	0.08148875
179	0xbe03776c	-0.12838525
180	0x3c11b9a3	0.008894357
181	0x3e84be6e	0.25926536
182	0x3ebd85d1	0.37016156
183	0xbdb6b784	-0.089217216
184	0x3ef27532	0.47355038
185	0x3f06bf2a	0.52635443
186	0xbe06de5d	-0.13170762
187	0x3e7bfd7f	0.2460842
188	0xbe779b9b	-0.24180453
189	0xbf39e304	-0.72612023
190	0x3e5228f7	0.2052344
191	0xbcb2699a	-0.02177887
192	0x3d2b27ae	0.04178589
193	0xbf0cf562	-0.55061924
194	0xbed7bd6f	-0.42136714
195	0x3d9a6bee	0.07540117
196	0x3d5818fb	0.0527582
197	0xbec6cc44	-0.38827717
198	0x3c83b169	0.016075807
199	0x3e3c6dd2	0.18401268
200	0xbd9dbefc	-0.07702443
201	0x3dc2f770	0.09519851
202	0x3e9925a4	0.2991153
203	0x3f179ce3	0.59223765
204	0xbd830944	-0.06398252
205	0xbe203b2b	-0.15647571
206	0xbe91e55b	-0.28495297
207	0xbef2f56d	-0.4745287
208	0x3e46243b	0.19349758
209	0xbea0bbcd	-0.3139328
210	0x3e604262	0.21900323
211	0xbc674db0	-0.014117643
212	0x3eae7b6b	0.34078535
213	0x3eaf605d	0.34253207
214	0xbea311fe	-0.31849664
215	0xbe13ec9e	-0.14445731
216	0x3ddb3181	0.107028015
217	0x3ded91e5	0.11600093
218	0x3e9e0f3b	0.30870995
219	0xbf164955	-0.58705646
220	0xbf40fd1b	-0.7538621
221	0xbd98ab40	-0.07454538
222	0x3f09198a	0.53554595
223	0xbe09e88a	-0.13467613
224	0xbf40e8d4	-0.7535527
225	0x3e48eb90	0.1962111
226	0x3e0bd850	0.13656735
227	0x3daaf267	0.08347016
228	0xbea00fec	-0.31262147
229	0x3e853809	0.26019314
230	0x3e80c44e	0.2514977
231	0xbf243aef	-0.64152426
232	0x3e6faaa6	0.23404941
233	0x39342513	0.00017179949
234	0xbe83c794	-0.25738204
235	0xbf0e8f8e	-0.556878
236	0x3f063fa7	0.52440876
237	0xbefbad3c	-0.49155605
238	0x3f5755c6	0.84115255
239	0xbf1545b4	-0.58309484
240	0x3eb4a661	0.35283187
241	0x3e387799	0.18014373
242	0xbdbdc874	-0.09266749
243	0x3e836d01	0.256691
244	0xbe54b0e4	-0.20770603
245	0xbe93b8d7	-0.2885196
246	0xbe974ee7	-0.29552385
247	0xbdb7292f	-0.08943402
248	0xbd46d71d	-0.04854499
249	0x3d4dcd59	0.050244663
250	0xbe892833	-0.26788482
251	0xbe777f57	-0.2416967
252	0xbec57126	-0.38562888
253	0x3f1d5c99	0.6146942
254	0xbce56038	-0.027999982
255	0x3e31f908	0.17380154

fc3.bias f4 [64]
0	0x3e1551f9	0.14582051
1	0xbe4c37e9	-0.19943203
2	0x3e8607b6	0.26177758
3	0xbe3d732a	-0.18500963
4	0xbdaff0ce	-0.08590852
5	0x3d96ab3e	0.073568806
6	0xbe4b63d0	-0.19862294
7	0x3ee6647c	0.44998538
8	0x3e8b52cc	0.27211607
9	0xbc068263	-0.008209798
10	0x3ce8b040	0.028404355
11	0x3d870d93	0.06594386
12	0x3ea037fb	0.3129271
13	0x3eabe28f	0.33571288
14	0xbe4bb97d	-0.19894977
15	0xbc10121a	-0.008793378
16	0x3eced4e8	0.4039681
17	0x3da87ab1	0.082265265
18	0x3e701687	0.23446093
19	0xbd8e147f	-0.06937503
20	0xbe88e520	-0.26737309
21	0x3e1264df	0.14296292
22	0x3d8f3a47	0.069935374
23	0xbe4eb747	-0.20187102
24	0x3e159f17	0.14611469
25	0x3e25309b	0.16131823
26	0x3c6a5afd	0.01430392
27	0x3d051de1	0.032499198
28	0x3da4e3bb	0.08051249
29	0x3e096f5c	0.13421386
30	0xbd45d34b	-0.048297208
31	0x3d42db4d	0.047572423
32	0x3eb7cf2e	0.35900253
33	0x3e351ed2	0.17687538
34	0x3e176688	0.14785206
35	0x3e836fa7	0.2567112
36	0x3df15742	0.11784221
37	0x3ce17839	0.027523147
38	0x3e5a5e5d	0.21325059
39	0xbb226710	-0.0024780668
40	0xbdf795c0	-0.120891094
41	0x3debbf09	0.115110464
42	0x3e62f96b	0.22165458
43	0xbe27679f	-0.16348122
44	0x3dc7e7a0	0.09760976
45	0x3d1f4bbf	0.038890596
46	0x3c7901fb	0.015198226
47	0xbde4e43e	-0.11176346
48	0x3bdf6f34	0.0068186764
49	0xbea7e208	-0.32789636
50	0xbd0f578e	-0.034995608
51	0x3e88cb19	0.2671745
52	0x3e212e01	0.15740205
53	0x3dab7e87	0.083737426
54	0x3d0c526a	0.034258284
55	0xbe0a9d7c	-0.13536638
56	0xbe8256c2	-0.25456816
57	0xbce32527	-0.027727677
58	0x3e66fc20	0.22557116
59	0xbe1e50a4	-0.1546045
60	0x3d6cde59	0.057829235
61	0x3e6c728f	0.23090576
62	0x3e565d54	0.2093404
63	0x3d1cced1	0.038283173

pi.weight f4 [5, 64]
0	0xbe4ce871	-0.20010544
1	0x3ed0584f	0.40692374
2	0x3f6bfcf6	0.9218286
3	0xbf821e3a	-1.0165474
4	0x3f0cb367	0.54961246
5	0xbfb97b45	-1.4490744
6	0xbd81c61b	-0.06336614
7	0xbebdf45e	-0.371005
8	0x3f69df13	0.9135601
9	0x3e73fd52	0.23827103
10	0xbf6ae588	-0.91756487
11	0xbed82e41	-0.4222279
12	0x3da218fa	0.0791492
13	0xbf35c1e8	-0.70999
14	0x3e8dc6a7	0.27690622
15	0x3e517011	0.20452906
16	0xbe00ba9b	-0.12571184
17	0x3e1210b6	0.14264187
18	0xbe1837f4	-0.14865094
19	0x3f033c73	0.51264113
20	0x3dc033e2	0.09384896
21	0xbeb92aad	-0.36165372
22	0x3e95f79e	0.2929048
23	0xbd3d2128	-0.0461742
24	0xbde176b3	-0.11008968
25	0x3ffe8f79	1.9887534
26	0xbebff307	-0.37490103
27	0x3f17d001	0.59301764
28	0xbeb5ee28	-0.3553326
29	0xbec4006e	-0.38281578
30	0x3f69b2dc	0.9128854
31	0x3ed715cd	0.4200882
32	0x3dc080c6	0.093995616
33	0xbff371b8	-1.9019079
34	0xbf68313b	-0.9070012
35	0x3f4322e4	0.76225114
36	0x3f44efe3	0.7692854
37	0xbf098a16	-0.5372633
38	0x3edb080f	0.42779586
39	0xbfc666ad	-1.5500084
40	0xbf0c42b8	-0.54789305
41	0xbf956561	-1.1671563
42	0x3f9f6f98	1.2455931
43	0xbf7b2c12	-0.9811412
44	0xbdcbeffa	-0.09957881
45	0x3f7c8f38	0.98656034
46	0x3e8e78e3	0.27826604
47	0x3ff6da17	1.9285306
48	0x3f9cca43	1.2249225
49	0x3dc90ea3	0.09817245
50	0xbf077425	-0.529116
51	0xbf3cec7c	-0.73798347
52	0xbf05f81e	-0.5233172
53	0xbf56b61f	-0.83871645
54	0x3f23350a	0.63752806
55	0x3da5d344	0.08096936
56	0x3f3751d4	0.71609235
57	0x3edc91d6	0.43080014
58	0x3f1cf0f6	0.6130518
59	0x3f255931	0.6458922
60	0xbf741481	-0.95343786
61	0xbf729670	-0.947608
62	0x3f06d3ba	0.5266682
63	0xbf274059	-0.6533256
64	0x3ee20648	0.44145417
65	0x3f178667	0.59189457
66	0x3f101e9c	0.56296706
67	0xbe44d277	-0.19220911
68	0xbe6041d8	-0.21900117
69	0x3eb6490c	0.35602605
70	0x3f4d739e	0.8025454
71	0xbe02795e	-0.1274161
72	0x3e93c68f	0.28862426
73	0xbf616e75	-0.8805917
74	0x3e9db3ca	0.3080123
75	0xbebbe770	-0.3670001
76	0x3eeddc81	0.46457294
77	0xbf71a5ba	-0.94393504
78	0xbebf0aca	-0.3731292
79	0xbdc12e29	-0.094326325
80	0x3e8afe36	0.27147073
81	0xbc4a5198	-0.012348555
82	0xbf9aafd3	-1.2084907
83	0x3e4e4c2f	0.20146249
84	0x3eb4324e	0.3519463
85	0x3ea07711	0.3134084
86	0x3dd3d473	0.10343256
87	0x3f23d6d8	0.639997
88	0x3d895f57	0.06707638
89	0xbf661b19	-0.898851
90	0x3f0e1267	0.5549683
91	0xbf1ff3dc	-0.62481475
92	0x3ed652f1	0.41860154
93	0x3ed79cd4	0.42111838
94	0xbe48aaef	-0.19596456
95	0xbf4e73b0	-0.80645275
96	0xbfa3da67	-1.2801026
97	0x3e3690f0	0.17828727
98	0x3e9602e2	0.29299074
99	0x3e1b088a	0.15139976
100	0xbefe1832	-0.49627835
101	0xbe9b0054	-0.30273688
102	0xbf4948d0	-0.7862673
103	0x3eb4ff73	0.35351142
104	0xbea5b046	-0.32361048
105	0xbf45287e	-0.7701491
106	0x3e894812	0.26812798
107	0x3f20698a	0.6266104
108	0x3f73d4d4	0.95246625
109	0x3f32f061	0.6989804
110	0xbeb6fd5c	-0.35740173
111	0x3ed9cae2	0.425376
112	0x3e3d725e	0.18500659
113	0xbead90a6	-0.3389942
114	0x3f04ff44	0.51952004
115	0xbf6ddf57	-0.92918915
116	0xbc7b9b9c	-0.015356924
117	0x3f097752	0.53697693
118	0x3ef30c58	0.47470355
119	0xbedd209e	-0.43188947
120	0x3e962c48	0.2933066
121	0xc000705b	-2.0068576
122	0xbf0c08e7	-0.54701084
123	0xbd5a3884	-0.053276554
124	0xbf46a995	-0.7760251
125	0xbf6ec772	-0.9327308
126	0xbedfda0a	-0.43721038
127	0x3f824d0b	1.0179762
128	0x3f6b2fbd	0.9186972
129	0xbf88421e	-1.0645177
130	0xbdd8bd3c	-0.105829686
131	0xbf069fdb	-0.5258767
132	0x3f00a188	0.5024648
133	0x3ec9dd3c	0.394266
134	0xbf292b95	-0.66082126
135	0x3f7afdf2	0.9804374
136	0x3e3bd57f	0.18343161
137	0x3f736d28	0.95088434
138	0xbea71381	-0.32632068
139	0x3dfa9369	0.122351475
140	0x3e779a43	0.2417994
141	0xbe046f45	-0.12933071
142	0x3fa65aaf	1.2996424
143	0x3e62a04b	0.2213146
144	0x3fa76bd3	1.307978
145	0xbf2e8446	-0.68170583
146	0x3f08df57	0.5346579
147	0xbeb586bf	-0.35454366
148	0xbf104522	-0.5635549
149	0xbf81a484	-1.0128331
150	0xbefcb23b	-0.4935473
151	0xbece753c	-0.40323818
152	0x3f06b64c	0.5262191
153	0x3e7293b1	0.23689152
154	0x3d82a6e0	0.06379485
155	0x3f976290	1.1826954
156	0xbe960826	-0.29303092
157	0xbf06b24f	-0.5261583
158	0xbe1fbe74	-0.15599996
159	0x3ed329ce	0.41242832
160	0x3fbb654a	1.4640286
161	0x3e156f47	0.1459323
162	0xbe7b5397	-0.24543606
163	0xbe6f5c24	-0.23374993
164	0xbe526c4a	-0.20549121
165	0xbec3fdd9	-0.38279608
166	0x3f0e950f	0.55696195
167	0xbc651060	-0.013980955
168	0xbe465088	-0.19366658
169	0x3d8ed715	0.069746174
170	0x3ea00562	0.31254107
171	0xbf4d9ca0	-0.80317116
172	0xbf55b596	-0.83480203
173	0xbf0954bc	-0.5364492
174	0x3d82b0b0	0.06381357
175	0xbeb2f9ee	-0.34956306
176	0x3f3105d5	0.69149524
177	0x3de39597	0.111125164
178	0xbebdba61	-0.37056258
179	0x3f54d7fa	0.83142054
180	0x3dde2ea0	0.10848737
181	0xbc88f8b5	-0.016720155
182	0xbe2abc63	-0.16673426
183	0xbe1ff561	-0.15620948
184	0x3c36dbdf	0.01116082
185	0x3fc1880e	1.5119646
186	0x3d78b110	0.060715735
187	0xbed632ff	-0.41835782
188	0xbe8f0e87	-0.2794077
189	0x3f903c9d	1.1268498
190	0xbcb6dbc9	-0.022321599
191	0xbfc3ec82	-1.5306551
192	0xbefc8aba	-0.4932459
193	0xbf8039d6	-1.001765
194	0xbf04184f	-0.5159959
195	0x3f87e27a	1.061599
196	0xbf2b2d23	-0.6686575
197	0xbf19f0cb	-0.60133046
198	0xbdc06286	-0.09393792
199	0x3d650eb0	0.05592221
200	0x3f11b34c	0.5691421
201	0x3e538f4b	0.2066013
202	0x3f546cb7	0.82978386
203	0x3fb0e20b	1.3818983
204	0xbe2d00c4	-0.16894823
205	0x3f7c131c	0.9846666
206	0x3f869542	1.05143
207	0xbf386047	-0.7202191
208	0xbeeefa76	-0.46675462
209	0x3f15afe4	0.5847151
210	0x3eb9b819	0.36273268
211	0x3eb2fddf	0.34959313
212	0x3da780ae	0.081788406
213	0xbf89e71c	-1.0773654
214	0xbf840707	-1.0314645
215	0x3f45bd38	0.7724185
216	0xbedbe987	-0.42951605
217	0x3f28831a	0.65825045
218	0xbf16ddc0	-0.58932114
219	0xbd3681a1	-0.044557218
220	0xbee024e7	-0.43778154
221	0xbe87d659	-0.26530722
222	0xbee474e7	-0.4462044
223	0x3d703eed	0.05865376
224	0xbdb385c2	-0.08765747
225	0x4017e469	2.373316
226	0xbf2c7d0e	-0.6737832
227	0x3f27fa46	0.6561626
228	0x3fb1ce1e	1.3891027
229	0xbfa360ad	-1.2763878
230	0xbf5c1ae7	-0.8597855
231	0x3ddacdba	0.106837705
232	0x3f77838b	0.96685094
233	0x3ea3abb2	0.3196693
234	0x3e88f596	0.26749867
235	0x3f3d89be	0.740383
236	0x3eb19df4	0.3469082
237	0xbedad6d4	-0.42742026
238	0xbe8ce7ad	-0.27520505
239	0x3eb0d3a3	0.34536466
240	0x3f046731	0.5171996
241	0x3f42da6c	0.76114535
242	0x3ed41aa3	0.41426572
243	0x3ee2ea91	0.44319585
244	0x3f2a1cb7	0.66450065
245	0xbe959cf8	-0.2922132
246	0xbee7198c	-0.45136678
247	0x3f843eda	1.0331681
248	0x3faa1167	1.3286561
249	0x3e0cf5aa	0.13765588
250	0x3f455b90	0.7709284
251	0x3f1e28c9	0.61780983
252	0x3e782413	0.24232511
253	0xbec43b16	-0.3832633
254	0xbf173d9d	-0.5907839
255	0xbf6689e1	-0.90054137

pi.bias f4 [5]
0	0xbea12e9e	-0.3148088
1	0x3c98c126	0.018646788
2	0x3e810f83	0.25207147
3	0xbe3eeaf2	-0.18644312
4	0xbd2fca87	-0.042917755
