maddpg_v7_over/model/simple_tag/agent_2/353_actor_params.pth (torch, 41911 bytes, 8 tensors)

fc1.weight f4 [64, 16]
-0.002518634 0.02145011 0.22856253 -0.19258727 0.03384996 -0.38470432 0.12714742 -0.29827932
-0.1443778 0.23190428 0.42342746 -0.24128687 0.54153425 -0.4640431 0.12020485 -0.074699305
0.14083762 0.1811432 0.09975664 -0.18302238 -0.06596657 -0.19638245 0.27187237 0.018652769
0.08845729 0.09757112 -0.10137656 -0.09619243 -0.06107865 -1.0852964 -0.36792994 -0.05851651
-0.12426338 -0.09224854 -0.085170984 -0.33965853 -0.094656125 0.12531549 -0.03793089 -0.3114844
0.2362231 0.10069846 0.037750427 0.24894711 0.45123255 0.8251943 -0.045216825 0.06562323
-0.00012039349 0.25173798 -0.00501212 -0.14817607 0.33797616 -0.16582265 0.36300662 0.26364166
-0.014525678 -0.14762716 -0.6489596 -0.07938965 0.58548856 0.22466318 -0.122688666 -0.0552847
0.01618508 0.02419925 -0.14159718 -0.15433398 -0.0521911 0.2137341 -0.31364805 -0.4577672
-0.015681261 0.16209973 -0.24128278 -0.05363183 -0.08852311 0.13398212 0.03406636 -0.055258494
-0.07183478 -0.07534009 -0.5273659 0.25262746 0.40818033 -0.3922104 -0.4468721 0.36929014
0.013585972 0.052179698 -0.20725137 -0.04220988 0.021608666 0.50932807 -0.081987284 0.21286656
-0.1062618 0.10438437 0.26645732 -0.23747835 -0.40623343 -0.3252456 0.63694304 -0.023888098
0.19129345 0.059878152 -0.22583924 -0.3210034 0.34747007 -0.5505385 -0.048283074 0.05666629
-0.10420926 0.08358093 0.19026409 0.21617427 -0.07898327 0.29320285 0.13470036 -0.1899203
0.054673173 -0.031174289 -0.08646832 -0.1149533 0.8718 -0.72886354 0.12355 -0.14341094
0.05600985 0.16307937 0.017675359 0.10171551 0.13425608 0.293689 -0.062157705 -0.09622637
-0.07560189 0.1097829 0.16083486 -0.17422439 -0.14443347 -0.9231447 0.017667944 -0.19984762
-0.036258835 0.1620388 0.37327567 0.24845363 0.07027408 0.16562314 0.11240232 -0.24739316
-0.03635995 0.19789459 0.7206272 -0.2188027 -0.43599227 0.004896445 0.059926692 0.08844137
-0.027991772 -0.054289646 0.24652833 0.105739586 0.1343976 0.119663015 0.120537326 0.14717491
0.32990852 -0.34261295 -0.08690885 -0.15038711 0.38925973 0.93018353 0.26297766 0.03403015
-0.13543959 -0.247122 0.08978449 0.06571515 0.16709258 -0.18362729 0.59117615 -0.34056002
-0.13064572 0.18791176 0.3877835 -0.21952668 -0.16822216 -0.51792234 0.23740466 -0.44379565
-0.05742989 0.052297693 -0.08383257 0.15399794 -0.43917516 0.5215523 0.31063235 0.045896
0.013252709 -0.16015941 0.39501026 0.25014013 -0.38519412 0.4853905 -0.07272652 0.18590647
-0.013004696 -0.07165986 0.60125154 -0.15382504 0.15076771 -0.119436674 0.3677616 0.26842794
-0.041099567 -0.10001204 0.05294744 -0.1445916 -0.52507603 0.76331216 0.13635534 0.18109488
0.18347217 0.07647498 0.52626085 -0.008551962 -0.31936565 -0.6600252 -0.25853395 -0.30799136
0.17631438 0.33614808 -0.12326889 -0.2421459 0.07401999 -0.062495567 0.02799532 -0.14655842
-0.027901143 -0.0031075508 0.07610928 0.18094006 0.30434418 0.2805834 -0.0343279 0.06404026
-0.021434667 -0.073708355 0.418855 0.6778424 -0.2643421 -0.88147086 -0.08230347 -0.1577345
00000000: ab0f 25bb 24b8 af3c 4c0c 6a3e 9935 45be
00000010: 41a6 0a3d f7f7 c4be ef32 023e 11b8 98be
00000020: c6d7 13be 5178 6d3e 7ccb d83e e813 77be
00000030: fda1 0a3f 0f97 edbe f62d f63d f3fb 98bd
00000040: bd37 103e 9a7d 393e 364d cc3d 386a 3bbe
00000050: 7b19 87bd 7b18 49be db32 8b3e b1cd 983c
00000060: 1829 b53d 5ed3 c73d 849e cfbd 8900 c5bd
00000070: 9b2d 7abd feea 8abf 5061 bcbe 02af 6fbd
00000080: cd7d febd cdec bcbd 206e aebd b9e7 adbe
00000090: 12db c1bd b452 003e 6c5d 1bbd e27a 9fbe
000000a0: 78e4 713e ff3a ce3d 31a0 1a3d feeb 7e3e
000000b0: f407 e73e ef3f 533f 4735 39bd 7965 863d
000000c0: c37b fcb8 cde3 803e b63c a4bb 78bb 17be
000000d0: 360b ad3e 6acd 29be 01dc b93e 0afc 863e
000000e0: 1cfd 6dbc 932b 17be 3722 26bf 0a97 a2bd
000000f0: 94e2 153f 1b0e 663e 3244 fbbd 3672 62bd
00000100: 9396 843c 813d c63c dafe 10be ba09 1ebe
00000110: 56c6 55bd 1ddd 5a3e 7a96 a0be 7660 eabe
00000120: fd75 80bc 79fd 253e d512 77be 0dad 5bbd
00000130: 9b4b b5bd 9c32 093e 2b89 0b3d bb56 62bd
00000140: 1d1e 93bd e84b 9abd 7401 07bf 6358 813e
00000150: 03fd d03e cdcf c8be 6bcc e4be 9913 bd3e
00000160: b297 5e3c 61ba 553d b439 54be 44e4 2cbd
00000170: a804 b13c 5363 023f f3e8 a7bd b1f9 593e
00000180: c99f d9bd 79c7 d53d 186d 883e 862d 73be
00000190: d4fd cfbe 9786 a6be b30e 233f f9b0 c3bc
000001a0: 6ee2 433e cb42 753d 6742 67be 8f5a a4be
000001b0: 99e7 b13e 17f0 0cbf 79c4 45bd e91a 683d
000001c0: aa6b d5bd 7b2c ab3d 97d4 423e ca5c 5d3e
000001d0: fbc1 a1bd af1e 963e e4ee 093e 787a 42be
000001e0: faf0 5f3d 3961 ffbc 4d16 b1bd a36c ebbd
000001f0: 492e 5f3f cd96 3abf c807 fd3d 51da 12be
00000200: 966a 653d 47fe 263e eacb 903c 3950 d03d
00000210: 6d7a 093e 685e 963e 1499 7ebd 5512 c5bd
00000220: 2ad5 9abd dbd5 e03d e5b1 243e e167 32be
00000230: 5ee6 13be 3653 6cbf 5dbc 903c dba4 4cbe
00000240: 2584 14bd 80ed 253e fd1d bf3e a16a 7e3e
00000250: dbeb 8f3d 1d99 293e 3033 e63d a254 7dbe
00000260: 2cee 14bd e1a4 4a3e 067b 383f d10d 60be
00000270: 613a dfbe 5c72 a03b b175 753d c020 b53d
00000280: 004f e5bc d25e 5ebd ec71 7c3e ff8d d83d
00000290: 869f 093e e211 f53d 46dc f63d 05b5 163e
000002a0: c5e9 a83e f76a afbe 44fd b1bd 14ff 19be
000002b0: 0d4d c73e 8220 6e3f 02a5 863e 3363 0b3d
000002c0: adb0 0abe 8d0d 7dbe eee0 b73d aa95 863d
000002d0: 511a 2b3e cb08 3cbe 5257 173f e25d aebe
000002e0: fec7 05be f16b 403e 8f8b c63e 9acb 60be
000002f0: 6e42 2cbe 8f96 04bf 351a 733e 2f39 e3be
00000300: 9b3b 6bbd 1b36 563d 69b0 abbd a3b1 1d3e
00000310: 91db e0be 7484 053f 340b 9f3e 72fd 3b3d
00000320: e421 593c d400 24be c93e ca3e 5e12 803e
00000330: 2a38 c5be 1b85 f83e a4f1 94bd 445e 3e3e
00000340: a611 55bc 68c2 92bd 9feb 193f 5084 1dbe
00000350: da62 1a3e 379b f4bd 404b bc3e 636f 893e
00000360: 0558 28bd 1dd3 ccbd 6adf 583d d20f 14be
00000370: 626b 06bf 6d68 433f bca0 0b3e f070 393e
00000380: 21e0 3b3e ea9e 9c3d 08b9 063f 871d 0cbc
00000390: e583 a3be 69f7 28bf 905e 84be 0bb1 9dbe
000003a0: c28b 343e 9a1b ac3e 6674 fcbd 18f5 77be
000003b0: cb97 973d 5afb 7fbd 7156 e53c 6913 16be
000003c0: f090 e4bc 0da8 4bbb 2fdf 9b3d 5a48 393e
000003d0: 00d3 9b3e a1a8 8f3e 699b 0cbd 8a27 833d
000003e0: c197 afbc 68f4 96bd 2a74 d63e 1487 2d3f
000003f0: d957 87be 13a8 61bf b98e a8bd 2785 21be

fc1.bias f4 [64]
0.5869545 1.0665431 0.68163216 -0.70802397 1.1964746 1.0755079 0.08073046 0.8310699
0.96661323 0.27983475 -0.39869988 -0.5052498 0.031697705 1.2072184 -0.41745675 0.6595085
-0.21773419 0.43633607 -0.43598828 0.40967456 1.1942066 1.1445037 0.4475996 0.44565156
-0.03231479 0.3598228 0.50278234 0.51762027 0.033235166 0.96114576 0.45952094 0.3256309
0.57460433 0.20551199 0.6559698 0.38939065 -0.11984519 -0.037259404 0.54888934 0.0844016
0.43215936 -0.34654418 -0.5823108 0.4852932 0.5687951 0.08095015 0.34572354 0.38921762
-0.04598966 1.1763191 0.3369336 0.7146964 0.5805928 0.7734837 0.40775424 -0.68316984
0.62390316 -0.43181613 -0.11270465 0.7736928 0.870961 -0.23015988 0.52322817 0.5410262
00000000: a642 163f 7c84 883f 727f 2e3f 0f41 35bf
00000010: 1426 993f 3eaa 893f 0356 a53d ffc0 543f
00000020: f773 773f 8046 8f3e 6422 ccbe 0d58 01bf
00000030: 74d5 013d 2286 9a3f e4bc d5be 8dd5 283f
00000040: b6f5 5ebe 7167 df3e db39 dfbe ddc0 d13e
00000050: c3db 983f 197f 923f c62b e53e 712c e43e
00000060: 835c 04bd b23a b83e 58b6 003f c382 043f
00000070: 9921 083d a60d 763f 5446 eb3e 18b9 a63e
00000080: 4519 133f bc71 523e a3ed 273f 365e c73e
00000090: 6571 f5bd 519d 18bd 0384 0c3f bfda ac3d
000000a0: fe43 dd3e 3d6e b1be 5212 15bf 5a78 f83e
000000b0: 8e9c 113f 31c9 a53d ad02 b13e 8847 c73e
000000c0: a75f 3cbd a091 963f 9082 ac3e 58f6 363f
000000d0: bba1 143f 0703 463f 2ac5 d03e 38e4 2ebf
000000e0: 1eb8 1f3f 0117 ddbe b2d1 e6bd bb10 463f
000000f0: 4df7 5e3f 08af 6bbe 48f2 053f b180 0a3f

fc2.weight f4 [64, 64]
0.43777815 -0.15460515 0.19457199 -0.2057152 -0.22526309 0.31020784 -0.02963207 0.16289063
0.37545133 0.25830546 -0.23644386 -0.10121044 -0.04455144 -0.5233307 0.07211885 0.31879917
0.40907446 0.06590743 -0.20892876 0.19110307 -0.14118741 0.39200142 -0.14919712 -0.13445535
0.18519393 -0.23840624 -0.4430006 -0.2667142 0.04839782 -0.53270173 -0.298183 0.031442855
-0.5059013 -0.07242022 0.114108086 0.17093492 0.47367173 -0.1139421 0.31169048 0.34523737
0.43580472 -0.19760132 0.058991596 -0.15532169 -0.33212975 -0.28288165 0.07831727 0.8921998
-0.323458 0.34691852 0.2260443 -0.08145344 -0.5406967 -0.08194281 -0.2813776 0.24821812
-0.08805401 0.107226655 -0.26241067 0.08371413 0.025221715 -0.17509153 0.2055125 0.45308194
-0.12928915 0.453385 0.101696365 -0.4515559 0.24308681 0.5474875 0.08642388 -0.33763784
0.37950325 0.08783532 -0.24882908 0.11463631 0.17848206 0.025869453 0.39120457 0.32007286
0.14966924 0.042854216 -0.10807975 0.21630797 -0.01664041 -0.02554274 -0.22193022 -0.13140394
0.07541474 0.34698495 0.007846451 -0.56133884 -0.388378 -0.0009168723 0.19613057 0.37081125
-0.066677794 -0.2608231 -0.012784808 0.22291455 0.09847874 -0.19777498 0.25514317 -0.17124078
0.31665853 0.15877388 -0.2061293 0.29260707 0.2080533 -0.11848853 0.21617942 0.11643669
-0.118931815 -0.23263277 -0.3671564 0.07675702 -0.18832992 0.38819408 -0.2233434 -0.17072086
0.17472884 0.12367298 -0.13978992 0.6257498 0.17501353 -0.1527281 -0.44669053 0.022838706
0.215243 0.02369402 -0.4620165 -0.16875859 0.19590303 0.19508749 -0.410228 -0.11623573
0.027266633 0.32301304 0.078468725 0.065989494 0.09776731 0.269631 0.25870797 0.55484194
-0.07335892 -0.25248587 -0.25885543 -0.35927787 0.119045235 0.4315949 0.40654448 -0.22921072
-0.4731753 0.015361848 0.10338064 0.095636286 -0.13721733 0.086958855 0.07799312 -0.3342747
-0.36918727 -0.37705132 -0.036308907 -0.1489514 -0.13638194 0.114409804 -0.46432483 -0.33411437
-0.5432406 -0.114651985 0.25901076 0.164925 0.21228153 0.018570317 0.1917558 0.25439978
-0.28500196 -0.22500868 -0.054585744 -0.13092245 -0.045908917 0.29648757 -0.12917309 -0.08261272
-0.17645329 0.1464585 -0.14216104 -0.10117962 0.64596057 -0.5042985 0.16669664 -0.28214547
0.018439058 0.31474552 -0.21343812 0.3048026 0.05926483 -0.09147329 0.23564258 0.59255546
0.3458877 0.2650165 0.044225484 0.4001558 0.04688648 0.3924846 -0.075351745 0.092547506
-0.16037549 0.14140421 -0.06873919 -0.27428648 0.34813508 0.19650243 0.3477087 0.22853474
-0.21697097 0.64969355 0.004800345 0.13345514 -0.2505893 -0.19457905 -0.33678165 0.016799834
-0.57487303 0.35811728 -0.29400143 0.060790136 0.42897967 -0.37003195 0.047919452 0.094044775
0.14567105 -0.30729777 0.05546317 0.13167104 -0.21614486 -0.42725575 -0.10155934 0.5735962
0.16631894 -0.050027512 0.03474568 0.24328326 -0.55718607 0.11026571 0.25561938 -0.08035652
0.10372876 0.03819977 -0.16244726 -0.010729541 0.0222689 0.32342216 -0.17413172 -0.05475873
00000000: 7524 e03e d050 1ebe e13d 473e 01a7 52be
00000010: 5eab 66be 90d3 9e3e f4be f2bc cdcc 263e
00000020: 283b c03e 9d40 843e 571e 72be 6b47 cfbd
00000030: 927b 36bd 00f9 05bf 0cb3 933d a539 a33e
00000040: 3572 d13e 7afa 863d 6cf1 55be 86b0 433e
00000050: 6f93 10be 69b4 c83e 21c7 18be aaae 09be
00000060: 7aa3 3d3e c420 74be fad0 e2be c38e 88be
00000070: cb3c 463d 245f 08bf 71ab 98be 39ca 003d
00000080: bf82 01bf 0d51 94bd 80b1 e93d 9009 2f3e
00000090: 1a85 f23e 7a5a e9bd e595 9f3e f4c2 b03e
000000a0: cc21 df3e 0058 4abe 2ca1 713d a60c 1fbe
000000b0: e90c aabe ddd5 90be ce64 a03d 3567 643f
000000c0: 499c a5be 4e9f b13e 2878 673e 10d1 a6bd
000000d0: 196b 0abf a2d1 a7bd ba10 90be e42c 7e3e
000000e0: a955 b4bd a699 db3d b15a 86be 5072 ab3d
000000f0: c59d ce3c 324b 33be de71 523e 5bfa e73e
00000100: 6064 04be 1422 e83e 2f46 d03d 5632 e7be
00000110: c0eb 783e 2428 0c3f 01ff b03d dede acbe
00000120: 404e c23e 01e3 b33d 0dcd 7ebe 71c6 ea3d
00000130: 00c4 363e 2dec d33c f74b c83e 97e0 a33e
00000140: e542 193e e787 2f3d ea58 ddbd d67f 5d3e
00000150: 7851 88bc 023f d1bc ad41 63be c18e 06be
00000160: 0b73 9a3d 03a8 b13e 678e 003c e7b3 0fbf
00000170: 7bd9 c6be 425a 70ba 74d6 483e f9da bd3e
00000180: 5e8e 88bd 9b8a 85be 5f77 51bc b643 643e
00000190: 39af c93d 8685 4abe 20a2 823e be59 2fbe
000001a0: 1121 a23e 9f95 223e 8f13 53be 98d0 953e
000001b0: ed0b 553e 1daa f2bd 235e 5d3e 5c76 ee3d
000001c0: 8692 f3bd 4937 6ebe ecfb bbbe c932 9d3d
000001d0: 8fd9 40be 60c1 c63e 22b4 64be 73d1 2ebe
000001e0: 1eec 323e 4248 fd3d 1725 0fbe 2431 203f
000001f0: bf36 333e c164 1cbe 9fb4 e4be 3d18 bb3c
00000200: a968 5c3e f619 c23c 6d8d ecbe 0dcf 2cbe
00000210: ce9a 483e 04c5 473e 6809 d2be 000d eebd
00000220: 465e df3c f761 a53e 36b4 a03d 8025 873d
00000230: 3a3a c83d 130d 8a3e 5f75 843e 1f0a 0e3f
00000240: 343d 96bd d445 81be b388 84be 45f3 b7be
00000250: fdcd f33d 02fa dc3e 9926 d03e 37b6 6abe
00000260: 0844 f2be 43b0 7b3c 3bb9 d33d f5dc c33d
00000270: b382 0cbe 7c17 b23d dbba 9f3d 0e26 abbe
00000280: 1d06 bdbe df0c c1be a6b8 14bd b786 18be
00000290: b5a7 0bbe b04f ea3d fcbb edbe 0a11 abbe
000002a0: d111 0bbf a9ce eabd 0f9d 843e 19e2 283e
000002b0: 5460 593e c720 983c a25b 443e b040 823e
000002c0: c7eb 91be ad68 66be 4d95 5fbd 8910 06be
000002d0: fd0a 3cbd 38cd 973e f345 04be dc30 a9bd
000002e0: 2cb0 34be 38f9 153e aa92 11be 4337 cfbd
000002f0: ac5d 253f b519 01bf 86b2 2a3e 5f75 90be
00000300: 820d 973c 5326 a13e 868f 5abe 160f 9c3e
00000310: aebf 723d 5956 bbbd 4a4c 713e b7b1 173f
00000320: 3118 b13e 3eb0 873e c825 353d 39e1 cc3e
00000330: 0a0c 403d bef3 c83e 0452 9abd 8c89 bd3d
00000340: 7939 24be 44cc 103e 22c7 8cbd 476f 8cbe
00000350: c33e b23e ef37 493e e006 b23e 0305 6a3e
00000360: a32d 5ebe 5152 263f 364c 9d3b 77a8 083e
00000370: 3e4d 80be bb3f 47be a56e acbe ce9f 893c
00000380: e12a 13bf 265b b73e 5b87 96be 14ff 783d
00000390: 39a3 db3e d474 bdbe 3047 443d 8c9a c03d
000003a0: cb2a 153e 2256 9dbe 592d 633d c6d4 063e
000003b0: 1455 5dbe 44c1 dabe 58fe cfbd 33d7 123f
000003c0: 834f 2a3e a6e9 4cbd 7c51 0e3d 3f1f 793e
000003d0: bfa3 0ebf fdd2 e13d 8be0 823e f691 a4bd
000003e0: be6f d43d 5d77 1c3d 9358 26be f5ca 2fbc
000003f0: 456d b63c 9797 a53e 964f 32be b14a 60bd

fc2.bias f4 [64]
0.14286526 0.022814527 0.25554988 -0.06602842 0.26892075 -0.15137354 0.031032559 0.17169344
-0.042705674 0.17456679 0.23160125 0.093757056 0.06507207 -0.45909306 -0.0019576328 0.09883384
-0.06339444 0.0012168074 0.06648367 0.24272516 0.02979107 0.116885796 -0.09489025 0.35673505
-0.39121577 0.24645261 -0.011822146 0.23631527 0.073653184 0.0984504 0.08753619 -0.11042905
0.32701948 0.23587866 0.17642516 0.33452988 -0.10669031 0.19269413 -0.20295852 0.15085036
-0.05789525 -0.074322924 -0.339363 0.13030876 0.03223746 0.21255423 0.21016353 -0.0692307
0.31600085 0.19915989 0.08657091 -0.20255548 0.038291167 0.24608721 0.020113695 0.17177057
0.104234345 0.03055324 0.37128574 0.14974521 -0.33919954 0.15499845 0.300887 0.15835664
00000000: 454b 123e 88e5 ba3c 6fd7 823e e939 87bd
00000010: fbaf 893e aa01 1bbe fe37 fe3c 68d0 2f3e
00000020: 25ec 2ebd a3c1 323e e128 6d3e b303 c03d
00000030: 8144 853d 3f0e ebbe a14b 00bb 6569 ca3d
00000040: f2d4 81bd 487d 9f3a 9728 883d f28c 783e
00000050: 670c f43c d261 ef3d d255 c2bd faa5 b63e
00000060: 6f4d c8be 135e 7c3e adb1 41bc a1fc 713e
00000070: 7bd7 963d 5da0 c93d 2d46 b33d a028 e2bd
00000080: 196f a73e 2d8a 713e cca8 343e 8047 ab3e
00000090: 7380 dabd 9c51 453e 5cd4 4fbe 8478 1a3e
000000a0: 9223 6dbd 9e36 98bd fdc0 adbe a96f 053e
000000b0: 6d0b 043d d1a7 593e 1c35 573e d3c8 8dbd
000000c0: ddca a13e 92f0 4b3e 174c b13d b46a 4fbe
000000d0: 33d7 1c3d 49fe 7b3e 7ac5 a43c a0e4 2f3e
000000e0: d178 d53d ca4a fa3c 2a19 be3e cf56 193e
000000f0: 90ab adbe eab7 1e3e dc0d 9a3e 3e28 223e

fc3.weight f4 [64, 64]
0.17462249 0.53790146 -0.60356176 -0.38321266 -0.34348664 0.027305737 -0.16197523 0.27183583
0.10554164 -0.08497701 0.40969652 -0.31952724 0.13916256 0.49385646 0.22594899 0.61197037
0.21937656 -0.17555821 0.07310438 -0.14608021 0.21383053 -0.29643413 -0.26693392 -0.32585093
-0.18790495 -0.30236349 -0.28615454 0.064120084 0.4187946 0.29517648 0.31584266 -0.1666996
-0.13465182 0.37516603 -0.42560232 -0.22329405 0.598816 -0.5292457 -0.010141932 -0.30823526
0.38813144 0.0895398 0.2311574 -0.38415986 -0.044971887 0.10324782 -0.114319295 -0.25777584
0.1912553 -0.21443687 0.10494231 0.38555145 0.18188743 0.07061597 -0.029832559 0.2899647
0.38491178 0.09797489 -0.9658921 0.008620126 0.05109099 0.21556859 -0.19295445 -0.36280823
-0.4349703 0.36715767 0.46786827 -0.41338214 -0.11473516 -0.118511796 0.07469721 -0.323573
0.18658806 0.396584 -0.23729517 -0.6500129 0.40568206 0.070411064 0.121623345 0.5912322
-0.2915504 -0.03499782 -0.030604627 -0.3247365 -0.22406033 0.04605829 -0.106242955 0.20655046
0.20286159 0.4851222 -0.07646313 -0.207964 0.22225355 -0.27419755 0.328005 -0.46784467
0.16554196 -0.42124826 -0.49711934 0.45969304 0.6086473 0.27324957 -0.049368475 0.061095808
0.22498919 -0.049591042 -0.10661957 0.6896931 -0.02709781 0.09081683 -0.8949904 0.07607239
0.35909748 -0.20097177 0.23568678 -0.031053983 0.556144 0.11362524 -0.26870975 0.10756041
0.47383374 -0.39050853 0.032736644 0.19208834 0.76852506 -0.3764181 0.15287837 0.0914222
-0.35197675 -0.09477798 0.20890695 -0.019249715 -0.17497511 -0.23467551 0.40087703 -0.149616
0.11397016 0.2299576 -0.23398751 -0.46588024 -0.056063592 0.12170535 0.4469572 -0.29390433
0.22777657 -0.072897896 -0.09140386 -0.75378984 -0.30905318 0.2594351 0.20694526 0.060327575
-0.2734599 -0.0048565897 0.3253025 -0.3907799 0.04926864 0.015025659 -0.06579651 -0.2208276
-0.06446356 0.06101256 0.07196407 -0.77906907 0.057712242 0.16142479 -0.12962483 0.015003608
-0.14015672 -0.3140316 0.37588787 -0.38521573 -0.28112772 -0.4135201 -0.23951113 -0.29821214
-0.1367011 -0.32779443 -0.20555484 -0.05220803 -0.49931425 -0.39212924 0.36098486 -0.1705033
-0.21951607 0.21389118 -0.28303465 -0.62007445 -0.38256857 -0.31973884 -0.12127304 -0.038488045
0.20119 0.09138871 0.54111534 0.05653992 -0.5139887 0.69427675 -0.18368739 -0.51523656
0.09074296 -0.39015937 -0.3371613 0.15050599 0.19601361 -0.19294617 -0.2521291 -0.49247193
0.10597686 0.22839673 -0.22432967 0.11654444 0.24117436 -0.019888526 0.07229045 -0.40921667
-0.10206534 -0.31710574 -0.28387794 0.121092126 0.045844723 -0.21218532 -0.13099642 -0.45051914
-0.24708807 -0.08553732 -0.54506326 -0.24215417 0.20053183 0.07438962 -0.07625809 -0.52073556
0.30076197 -0.035437126 -0.2961096 -0.01630794 0.058910523 0.03718521 0.13820845 -0.34293917
0.14684981 -0.6613041 -0.9695694 0.26856413 0.6756683 -0.0033545687 0.027353281 -0.89254206
0.16501036 0.16708185 0.31375235 0.24839595 -0.8888906 0.14853057 -0.36375037 -0.0068722763
00000000: 3dd0 323e e9b3 093f 0683 1abf 7334 c4be
00000010: 7bdd afbe 48b0 df3c d6dc 25be 112e 8b3e
00000020: 3726 d83d 6d08 aebd bec3 d13e 1399 a3be
00000030: a180 0e3e c1da fc3e 2c5f 673e 17aa 1c3f
00000040: 40a4 603e 88c5 33be c0b7 953d 0d96 15be
00000050: 64f6 5a3e 37c6 97be 90ab 88be efd5 a6be
00000060: 286a 40be 63cf 9abe d982 92be 6451 833d
00000070: 3f6c d63e 5f21 973e 21b6 a13e 4db3 2abe
00000080: 2be2 09be c315 c03e 8ce8 d9be 32a7 64be
00000090: 014c 193f a57c 07bf 592a 26bc 03d1 9dbe
000000a0: 2ab9 c63e a560 b73d 87b4 6c3e 9ab0 c4be
000000b0: 7134 38bd 9873 d33d 3c20 eabd 32fb 83be
000000c0: 6ed8 433e 5795 5bbe feeb d63d 0067 c53e
000000d0: b340 3a3e 1b9f 903d 6963 f4bc 4176 943e
000000e0: 2813 c53e 0fa7 c83d b444 77bf 6e3b 0d3c
000000f0: c944 513d 03be 5c3e da95 45be 00c2 b9be
00000100: 6db4 debe 17fc bb3e 6e8c ef3e d3a6 d3be
00000110: 44fa eabd 50b6 f2bd dafa 983d 5cab a5be
00000120: f110 3f3e 0f0d cb3e 81fd 72be 3f67 26bf
00000130: 8fb5 cf3e ad33 903d a915 f93d fe5a 173f
00000140: 1846 95be e059 0fbd 8eb6 fabc dd43 a6be
00000150: 1270 65be 9ea7 3c3d e895 d9bd f781 533e
00000160: f3ba 4f3e f061 f83e b498 9cbd 84f4 54be
00000170: 6f96 633e 9f63 8cbe 45f0 a73e 5689 efbe
00000180: d583 293e daad d7be 6d86 febe e35c eb3e
00000190: 4fd0 1b3f 5ee7 8b3e 9936 4abd 993f 7a3d
000001a0: 9163 663e fa1f 4bbd 5c5b dabd ba8f 303f
000001b0: 3afc ddbc 2dfe b93d 171e 65bf d7cb 9b3d
000001c0: a0db b73e 8bcb 4dbe e057 713e ec64 febc
000001d0: 745f 0e3f 5ab4 e83d 5394 89be a248 dc3d
000001e0: 569a f23e bcf0 c7be dc16 063d ceb2 443e
000001f0: 0fbe 443f e0b9 c0be 268c 1c3e 903b bb3d
00000200: 4c36 b4be f51a c2bd b4eb 553e 94b1 9dbc
00000210: ad2c 33be c74e 70be c13f cd3e f034 19be
00000220: 3069 e93d 017a 6b3e 6c9a 6fbe db87 eebe
00000230: f0a2 65bd a840 f93d 93d7 e43e a17a 96be
00000240: 433e 693e 7e4b 95bd f231 bbbd 5ff8 40bf
00000250: 383c 9ebe add4 843e 75e9 533e 0c1a 773d
00000260: f002 8cbe 0724 9fbb 0d8e a63e 4e14 c8be
00000270: eacd 493d 2f2e 763c 52c0 86bd a120 62be
00000280: 7905 84bd 4ee8 793d e661 933d 1271 47bf
00000290: ac63 6c3d 8a4c 253e 5fbc 04be b1d1 753c
000002a0: 3e85 0fbe c0c8 a0be 6074 c03e ff3a c5be
000002b0: f9ef 8fbe e8b8 d3be 6842 75be 43af 98be
000002c0: 60fb 0bbe acd4 a7be f87c 52be 16d8 55bd
000002d0: 1ea6 ffbe 2ac5 c8be 02d3 b83e 6b98 2ebe
000002e0: d2c8 60be 4a06 5b3e ebe9 90be 33bd 1ebf
000002f0: 07e0 c3be cfb4 a3be 005e f8bd a4a5 1dbd
00000300: c004 4e3e 012a bb3d 8986 0a3f 6796 673d
00000310: c394 03bf 1fbc 313f 8c18 3cbe 8be6 03bf
00000320: 72d7 b93d f8c2 c7be 68a0 acbe 3e1e 1a3e
00000330: cbb7 483e ae93 45be 1117 81be 4825 fcbe
00000340: 650a d93d d5e0 693e adb6 65be daae ee3d
00000350: 69f6 763e 43ed a2bc 040d 943d d984 d1be
00000360: a207 d1bd af5b a2be 7358 91be 26ff f73d
00000370: adc7 3b3d 1c47 59be ed23 06be 72aa e6be
00000380: a804 7dbe 312e afbd 4489 0bbf 43f7 77be
00000390: 3758 4d3e 9659 983d 342d 9cbd ed4e 05bf
000003a0: 79fd 993e 8526 11bd ad9b 97be 3b98 85bc
000003b0: 294c 713d 854f 183d 8486 0d3e b995 afbe
000003c0: cc5f 163e 3a4b 29bf b335 78bf 3d81 893e
000003d0: 99f8 2c3f 53d8 5bbb fd13 e03c a37d 64bf
000003e0: 7af8 283e 8117 2b3e 26a4 a03e 825b 7e3e
000003f0: 568e 63bf 6618 183e 7d3d babe d530 e1bb

fc3.bias f4 [64]
-0.5347441 0.17438883 -0.26837635 -0.36543566 -0.33948404 0.11774225 0.24722315 0.31904978
0.082012154 -0.16444157 0.2469421 0.12165954 0.22015676 0.18841894 -0.059210565 0.18248148
0.11190759 -0.03574302 0.19783375 -0.25335386 -0.15384318 0.11523763 -0.092762075 -0.30594358
0.13628788 0.28859273 -0.005751492 0.05641583 0.18702479 0.00681543 -0.3547377 0.2353054
-0.4288316 0.1574208 -0.020352023 -0.37333038 0.14429261 0.16904324 0.11474536 0.28362778
0.2270792 -0.06505968 0.2619285 0.11633767 0.11148894 -0.22358619 0.15025435 -0.0076901494
0.07801848 -0.01764278 -0.1514621 0.12106675 -0.06502735 0.04123552 -0.22812442 0.04135986
-0.019641727 0.2392427 0.07511213 0.07831819 0.11101817 -0.044163126 -0.05771193 0.4149194
00000000: fde4 08bf fc92 323e a068 89be 621a bbbe
00000010: dad0 adbe d922 f13d 1128 7d3e 7e5a a33e
00000020: fdf5 a73d 5f63 28be 64de 7c3e a328 f93d
00000030: c670 613e e5f0 403e c786 72bd 6ddc 3a3e
00000040: ce2f e53d 4667 12bd ee94 4a3e 99b7 81be
00000050: 1189 1dbe b501 ec3d 0bfa bdbd a3a4 9cbe
00000060: 0d8f 0b3e 6dc2 933e 0377 bcbb 4914 673d
00000070: 6d83 3f3e f853 df3b 2ea0 b5be e6f3 703e
00000080: d18f dbbe eb32 213e 49b9 a6bc 2925 bfbe
00000090: 71c1 133e ac19 2d3e 9eff ea3d a937 913e
000000a0: 7387 683e 023e 85bd 7e1b 863e 7242 ee3d
000000b0: 5054 e43d c7f3 64be 47dc 193e a6fd fbbb
000000c0: 27c8 9f3d 9787 90bc e118 1bbe d8f1 f73d
000000d0: 0f2d 85bd 94e6 283d 7399 69be f568 293d
000000e0: b0e7 a0bc 0afc 743e 63d4 993d 4a65 a03d
000000f0: 7f5d e33d 65e4 34bd 5863 6cbd 5170 d43e

pi.weight f4 [5, 64]
-0.64052916 -0.430488 -0.4086309 -0.31220675 -0.3164411 0.37025458 -0.6478872 -0.39951572
-0.015250075 0.1316707 -0.3838123 0.6207161 0.10932188 -0.05744933 0.5713018 0.39953196
0.32538116 -0.7861527 1.1071506 -0.21060106 -0.9445164 0.54746985 -0.3837478 -0.7535955
-0.31970638 0.6174389 -0.60174304 -0.21084021 -0.46226463 0.033452574 -0.11794237 -1.2916436
-0.90321076 -0.050741415 -0.47935796 0.7832147 0.5269321 -0.62734354 -0.19894853 0.68977696
-0.9450464 -0.5599184 -0.026597124 -0.23683062 -0.08098488 0.16445912 0.5950016 0.9126049
0.82069594 0.29440668 0.24911691 0.05913699 0.465029 -0.6503723 -0.52730703 0.47094047
-0.2478199 0.3020209 -0.4115842 0.69099206 0.64793336 0.90201217 0.7339327 -0.095949896
0.38127244 -0.5640547 -0.45701376 -0.036730815 0.882343 -0.5437372 -0.04394934 -0.59127426
-1.1620454 -0.8537334 0.24290006 0.2891128 0.006905402 0.14833339 0.27495912 -0.92399484
0.5573693 -0.18864949 -0.9892392 -0.06352019 0.54988813 0.5049147 -0.00064240396 0.33530247
-0.26423895 0.3860701 -0.93223995 -0.33432573 0.10363316 -0.09258998 0.19869062 0.13065928
-0.20957306 0.16237749 0.7654315 0.49714723 1.0343088 -0.81296754 -0.17449896 -0.28201634
0.020691043 -0.26125187 0.44518134 0.01295976 -0.5058046 -0.23225619 0.078301325 -0.16160929
-0.0060918448 0.32997832 -0.2642612 0.1346832 0.5003962 0.6508708 -1.2052841 -0.5129239
0.34959832 0.35577092 -0.65398747 0.5351274 0.39850864 0.5219649 0.8663894 -1.249107
0.40705368 0.34414494 -0.1418089 0.063917935 -0.41145027 0.63501376 0.5719565 -0.48999584
0.6667355 -0.13231103 -0.9258951 -0.42682916 -0.09176514 0.30204222 0.14379655 -0.36412215
-1.1488174 0.004554947 -0.33178282 0.7128625 -0.016915698 -0.5400192 -0.040793955 -0.6756292
0.29220906 0.5163533 0.91934645 0.54195476 -0.101470925 0.8435593 -0.9396102 0.058265936
0.005648962 0.4003469 -0.6452443 -0.7478899 -0.26600674 0.632788 0.64735544 -0.34539238
-0.5801459 -0.3319003 -0.41903302 0.48358795 0.3858363 1.014829 -0.1870811 0.34013206
0.7042779 -1.1500872 0.59598106 0.12767906 0.08340836 -0.53693795 0.62802446 -0.6887355
0.17223486 -0.028906317 0.5208706 -0.5185103 -0.8650316 -0.48013657 -0.011475514 0.86289966
-0.024059713 1.1200775 -0.37680867 1.0310463 -0.11581324 0.3248975 0.004788679 -0.5385326
0.75927126 0.6994214 -0.2649858 -0.99301773 -0.4865901 -0.39913684 -0.60556793 0.06832812
0.89209247 0.4314125 -0.13530506 0.87734187 0.605463 0.5514106 -0.760448 0.04406273
0.17151813 -0.71216375 -0.41445893 -0.33332998 -1.0126781 -0.45594758 0.14955208 -0.65775365
1.1697803 0.9129594 0.07248408 -0.24311349 -0.19309194 -0.5618288 -0.6907406 0.42636698
-0.4228279 -0.20357233 0.8414356 -0.891435 0.48683378 0.42909074 -0.83530104 0.19965552
-0.27824742 1.2634877 -0.30350062 0.66042286 0.31049997 -0.4888109 0.46585813 0.20779943
0.82673526 -1.3141358 0.4007827 -0.041306697 0.00078482676 0.7319931 0.39005822 -0.06092775
00000000: b8f9 23bf ec68 dcbe 1238 d1be 90d9 9fbe
00000010: 9104 a2be 0292 bd3e efdb 25bf 538d ccbe
00000020: 73db 79bc afd4 063e 0c83 c4be 40e7 1e3f
00000030: 26e4 df3d fd4f 6bbd d640 123f 748f cc3e
00000040: 5c98 a63e 4e41 49bf 1cb7 8d3f cea7 57be
00000050: d4cb 71bf fc26 0c3f 977a c4be a2eb 40bf
00000060: 8eb0 a3be 7a10 1e3f d50b 1abf 7fe6 57be
00000070: f3ad ecbe 9105 093d c58b f1bd 9454 a5bf
00000080: d238 67bf 3bd6 4fbd 686e f5be c280 483f
00000090: 06e5 063f 9699 20bf 2ab9 4bbe 3995 303f
000000a0: 90ee 71bf d056 0fbf 36e2 d9bc ba83 72be
000000b0: 67db a5bd f967 283e 0652 183f 7aa0 693f
000000c0: 2119 523f 79bc 963e 8118 7f3e a139 723d
000000d0: 4818 ee3e cd7e 26bf 98fd 06bf 1c1f f13e
000000e0: 80c4 7dbe 7ca2 9a3e 2abb d2be dbe4 303f
000000f0: f6de 253f 45ea 663f 03e3 3b3f 6181 c4bd
00000100: 2436 c33e e465 10bf b5fd e9be 0d73 16bd
00000110: 3be1 613f 5c32 0bbf 3904 34bd c05d 17bf
00000120: e7bd 94bf 468e 5abf cbba 783e 9806 943e
00000130: b646 e23b b5e4 173e 71c7 8c3e ed8a 6cbf
00000140: c1af 0e3f 552d 41be c83e 7dbf e016 82bd
00000150: 78c5 0c3f 1742 013f 0067 28ba c4ac ab3e
00000160: 544a 87be fbaa c53e 47a7 6ebf be2c abbe
00000170: 9f3d d43d d19f bdbd 8e75 4b3e 8ccb 053e
00000180: 529a 56be 4946 263e 52f3 433f 158a fe3e
00000190: 3b64 843f a41e 50bf dbaf 32be 7264 90be
000001a0: 4380 a93c cec2 85be cfee e33e 2c55 543c
000001b0: 697c 01bf 91d4 6dbe 725c a03d e87c 25be
000001c0: 199e c7bb ebf2 a83e 3e4d 87be 65ea 093e
000001d0: f719 003f 789f 263f c046 9abf fb4e 03bf
000001e0: 8dfe b23e 9b27 b63e b96b 27bf 1cfe 083f
000001f0: 5309 cc3e 7e9f 053f b2cb 5d3f bde2 9fbf
00000200: 5769 d03e c433 b03e 5a36 11be 68e7 823d
00000210: 9ca9 d2be 4390 223f be6b 123f bce0 fabe
00000220: 2daf 2a3f 8b7c 07be 7607 6dbf 5a89 dabe
00000230: 5def bbbd 47a5 9a3e 673f 133e 386e babe
00000240: 730c 93bf aa41 953b 70df a9be 287e 363f
00000250: ca92 8abc b33e 0abf 9017 27bd 09f6 2cbf
00000260: 6d9c 953e bb2f 043f 4a5a 6b3f 8cbd 0a3f
00000270: fdcf cfbd 81f3 573f 4b8a 70bf 43a8 6e3d
00000280: ee1a b93b 45fa cc3e bb2e 25bf b675 3fbf
00000290: 0932 88be 65fe 213f 16b9 253f 45d7 b0be
000002a0: 7184 14bf d6ee a9be 7f8b d6be d798 f73e
000002b0: 568c c53e ebe5 813f 3092 3fbe ca25 ae3e
000002c0: 8e4b 343f 0f36 93bf 3792 183f 4dbe 023e
000002d0: 01d2 aa3d c474 09bf 36c6 203f f850 30bf
000002e0: 565e 303e f1cc ecbc c757 053f 17bd 04bf
000002f0: b672 5dbf 76d4 f5be cb03 3cbc fee6 5c3f
00000300: e018 c5bc b35e 8f3f 11ed c0be 53f9 833f
00000310: 7e2f edbd f758 a63e 5aea 9c3b 46dd 09bf
00000320: 9a5f 423f 480d 333f 38ac 87be 6936 7ebf
00000330: 5622 f9be aa5b ccbe 8006 1bbf 9def 8b3d
00000340: 2c60 643f 19e2 dc3e 698d 0abe 7a99 603f
00000350: a0ff 1a3f 3f29 0d3f b8ac 42bf 1f7b 343d
00000360: 73a2 2f3e 5d50 36bf f633 d4be 3aaa aabe
00000370: 709f 81bf f671 e9be 2e24 193e 8b62 28bf
00000380: 5cbb 953f b5b7 693f 8972 943d bef2 78be
00000390: e5b9 45be 03d4 0fbf 60d4 30bf c64c da3e
000003a0: e67c d8be 4475 50be 5368 573f 1635 64bf
000003b0: 4742 f93e c8b1 db3e 4ad6 55bf 7f72 4c3e
000003c0: 7276 8ebe f7b9 a13f 6f64 9bbe 7911 293f
000003d0: daf9 9e3e 6c45 fabe f584 ee3e 60c9 543e
000003e0: eca4 533f 9a35 a8bf 6433 cd3e 3631 29bd
000003f0: d5bc 4d3a e663 3b3f b6b5 c73e 608f 79bd

pi.bias f4 [5]
0.09691983 -0.17592615 0.025965694 -0.0020063366 -0.047855537
00000000: e77d c63d fc25 34be 02b6 d43c be7c 03bb
00000010: 2b04 44bd
