masac/model/simple_tag/agent_2/145_critic_params.pth (torch, 115263 bytes, 14 tensors)

critic1.0.weight f4 [64, 82]
0	0x3df3e560	0.11908984
1	0xbd41a6ac	-0.04727809
2	0x3deb9342	0.115026966
3	0x3e1feba2	0.1561723
4	0xbdc994fe	-0.09842871
5	0x3d985710	0.07438481
6	0xbe52398d	-0.20529766
7	0x3c6b0ce8	0.014346339
8	0x3dbb1e65	0.09136657
9	0xbdda0ec7	-0.1064735
10	0xbe2ccaa1	-0.16874172
11	0x3c6e6ca2	0.014552267
12	0xbdb4a47f	-0.08820438
13	0x3d390c8f	0.045177992
14	0xbe433a7e	-0.19065282
15	0x3b9a5e38	0.004710939
16	0xbd7ca57d	-0.06168126
17	0xbd9fe34f	-0.078070275
18	0xbcdd262d	-0.026995743
19	0xbdada50a	-0.08478744
20	0x3e3aa737	0.1822785
21	0x3c99ba4f	0.018765597
22	0x3d66bbdd	0.056331504
23	0xbda222a1	-0.07916761
24	0xbdfdb5e6	-0.1238821
25	0x3cb349b7	0.021885736
26	0x3e624f42	0.22100547
27	0x3d944755	0.07240168
28	0xbd8299bd	-0.063769795
29	0x3c6b04cd	0.014344406
30	0x3ccf6cd1	0.025320442
31	0xbe8b993c	-0.27265346
32	0xbc892039	-0.016738998
33	0x3e59ef35	0.21282656
34	0xbe3c95df	-0.18416546
35	0x3e3609df	0.17777203
36	0x3c926d80	0.01787448
37	0xbe4e1281	-0.20124246
38	0x3ce181a3	0.027527636
39	0xbe79e0f6	-0.24402222
40	0x3e1ee4fb	0.15517037
41	0xbda5b9bd	-0.080920674
42	0xbe2f5a18	-0.17124212
43	0xbcc47646	-0.023982178
44	0xbb82a046	-0.0039863912
45	0xbe84dbde	-0.25948995
46	0x3c98003e	0.018554803
47	0x3c8ca4b4	0.01716838
48	0x3d8977c1	0.06712294
49	0x3dfa63bc	0.12226054
50	0xbea253ca	-0.3170455
51	0xbd1bad4c	-0.038007066
52	0xb9ba0370	-0.00035479246
53	0xbc15654b	-0.009118388
54	0xbeb4da11	-0.3532262
55	0xbe8fd6df	-0.2809362
56	0x3d2bb245	0.041918058
57	0xbc42b4a1	-0.011883886
58	0xbe372c70	-0.17888045
59	0x3cc6f72f	0.024287788
60	0xbe448454	-0.19191104
61	0x3e156622	0.14589742
62	0xbd1cd500	-0.03828907
63	0x3d5c4583	0.05377723
64	0x3c9eeb8f	0.019399432
65	0x3d547f34	0.051879123
66	0x3d1dd7e8	0.038535982
67	0x3d765590	0.060140193
68	0xbc609537	-0.013707451
69	0x3aeb0e68	0.001793337
70	0x3d221a36	0.039575778
71	0xb8fc8ca6	-0.00012042494
72	0x391f7b01	0.00015209244
73	0x3c4c088a	0.012453208
74	0x3b930af3	0.0044873892
75	0x3d7f3b16	0.062312208
76	0xbc994cde	-0.018713411
77	0xbd3b744e	-0.045765214
78	0x3d1c515c	0.038163528
79	0x3b450683	0.0030063696
80	0xbd582854	-0.052772835
81	0xbc32e407	-0.010918624
82	0xbe086a70	-0.13321853
83	0x3d0dcaf9	0.034617398
84	0x3dd1d8d3	0.10246434
85	0x3e68a5da	0.22719517
86	0xbda44f64	-0.08022955
87	0x3e5f4eb2	0.21807364
88	0x3bb2e858	0.0054598264
89	0xbd981fa6	-0.074279115
90	0x3e0d077f	0.13772391
91	0x3d8fa843	0.07014515
92	0x3e15d3f1	0.1463163
93	0x3d9a4533	0.0753273
94	0x3de8af92	0.113616124
95	0xbd2f1320	-0.04274285
96	0x3ddde023	0.10833766
97	0xbe570692	-0.209986
98	0xbc117955	-0.0088790255
99	0x3e2f8ccd	0.17143555
100	0x3e977aa0	0.29585743
101	0x3ecb8cd4	0.3975588
102	0x3e2bd98b	0.16782205
103	0x3c18742c	0.009305041
104	0xbe5d3639	-0.21602716
105	0xbea85310	-0.32875872
106	0x3c06efd3	0.0082358895
107	0x3c8bcba9	0.017064886
108	0x3e20e4ea	0.15712324
109	0x3ca7198f	0.02039793
110	0xbd8c3de1	-0.0684774
111	0xbd37d2ec	-0.044878885
112	0xbe33d589	-0.17561926
113	0xbe0877fa	-0.13327017
114	0x3e448fc9	0.19195475
115	0xbd09d9c9	-0.03365496
116	0x3d97def0	0.07415569
117	0x3de33dd7	0.110957794
118	0xbe63e44d	-0.22255059
119	0x3e287684	0.1645146
120	0xbe65e143	-0.22449212
121	0xbe523bf5	-0.20530684
122	0xbdf4d9f2	-0.11955632
123	0x3df3e98f	0.11909782
124	0xbdbb8bb0	-0.09157503
125	0x3e2fa0fe	0.17151257
126	0xbe69116b	-0.2276055
127	0xbb4af45d	-0.0030968406
128	0x3e0a4800	0.13504028
129	0xbd106f98	-0.035262674
130	0xbc956ad5	-0.018239418
131	0x3dab384f	0.083603494
132	0x3e88e09f	0.26733872
133	0x3e77de53	0.24205904
134	0xbcc6c3d5	-0.024263302
135	0x3eb4f75c	0.3534497
136	0x3d070374	0.032962278
137	0xbc8d004a	-0.017212052
138	0xbe2379d1	-0.15964438
139	0x3ccd008a	0.025024671
140	0xbe44cd6d	-0.19218989
141	0x3da3c449	0.07996423
142	0x3de017f0	0.10942066
143	0xbe1329d6	-0.14371428
144	0x3c1d38bc	0.009596046
145	0x3b05154b	0.002030688
146	0x3d23804e	0.039917283
147	0x3c6f59bc	0.014608797
148	0xbd45f772	-0.048331685
149	0x3d80f5a7	0.062968545
150	0x3cfcd579	0.03086351
151	0xbc189c94	-0.009314675
152	0x3de5cb8f	0.11220466
153	0xbd83851e	-0.064218745
154	0xbd33b0e4	-0.043869868
155	0x3dc17852	0.094467774
156	0xbda08879	-0.0783853
157	0xbca40e01	-0.020026209
158	0x3d3132e5	0.043261427
159	0x3d3a7af6	0.04552742
160	0x3d8be971	0.06831635
161	0x3cb57af1	0.02215335
162	0xbcc17127	-0.023613526
163	0x3de813a1	0.11331869
164	0x3d9ad882	0.07560827
165	0xbc8a3d91	-0.01687506
166	0x3da3cc8c	0.079979986
167	0xbe8b8779	-0.27251795
168	0x3d3b2b5e	0.045695655
169	0x3e8b23e9	0.27175835
170	0xbe38b0d2	-0.18036202
171	0xbe4c5249	-0.19953264
172	0xbe53b94c	-0.20676154
173	0x3cad500e	0.021156337
174	0xbc9e5121	-0.019325795
175	0xbd63875c	-0.05554901
176	0xbe616ae8	-0.22013438
177	0x3e5a0930	0.21292567
178	0x3e39c630	0.18142009
179	0xbca86e45	-0.020560393
180	0x3df09f7a	0.11749168
181	0xbd599af0	-0.053126276
182	0x3e74cf52	0.23907211
183	0xbca55682	-0.020182852
184	0xbde16dfa	-0.110073045
185	0xbe13dd8e	-0.14439985
186	0xbeaac748	-0.33355165
187	0xbdf9ffe2	-0.12207009
188	0xbe52b581	-0.20577051
189	0xbc220b0d	-0.00989033
190	0x3dc0bbf0	0.09410846
191	0xbddc82d4	-0.10767141
192	0xbe40a14b	-0.18811528
193	0x3e811b3f	0.252161
194	0xbc543145	-0.0129512
195	0xbd3e9d9a	-0.04653702
196	0x3db1550c	0.086587995
197	0xbd001938	-0.03127405
198	0x3ebc16ca	0.36736137
199	0x3da68d82	0.08132459
200	0xbc504069	-0.012710669
201	0x3d52f652	0.05150444
202	0xbe11d291	-0.14240481
203	0xbe716af3	-0.23575954
204	0x3cba0cae	0.022711124
205	0xbcac5c98	-0.021040246
206	0xbe810261	-0.25197127
207	0x3e3e454f	0.18581127
208	0xbe9f3759	-0.31096914
209	0x3b4271fb	0.0029669988
210	0xbe420127	-0.18945752
211	0xbd3ccfa7	-0.04609647
212	0xbdd487f3	-0.10377493
213	0x3e1c49fd	0.152626
214	0x3e84160d	0.25798073
215	0xbe400a21	-0.18753864
216	0x3e852d9f	0.2601137
217	0x3db79125	0.08963231
218	0xbcf9d706	-0.030498039
219	0x3ca9d5bc	0.0207318
220	0xbddfbbad	-0.10924468
221	0x3e2c1e5d	0.16808458
222	0x3e43b742	0.19112876
223	0x3d4db204	0.050218597
224	0x3e08a09d	0.13342519
225	0x3df70343	0.12061169
226	0x3d0420b4	0.03225775
227	0xbbaf7c72	-0.005355411
228	0xbcf78826	-0.030216288
229	0xbd3c06b3	-0.045904826
230	0xbaaed335	-0.0013338091
231	0xbba1d252	-0.004938402
232	0x3dac3526	0.08408575
233	0xbcb8d218	-0.022561118
234	0xbd37391e	-0.044732206
235	0x3cdf2cd2	0.027243052
236	0xbd89a112	-0.06720175
237	0x3d9ed77b	0.077559434
238	0x3c4b1bf4	0.012396801
239	0xbd2edfd7	-0.04269394
240	0x3c21e264	0.009880636
241	0x3d044638	0.03229353
242	0xba929233	-0.0011182487
243	0x3d09c469	0.033634577
244	0xbd407441	-0.04698587
245	0xbcd69ca0	-0.026197731
246	0xbe3b06a5	-0.18264253
247	0x3b7f4f57	0.0038957202
248	0x3e52b6a3	0.20577483
249	0x3dd950b8	0.10611099
250	0x3e5a78a3	0.21335082
251	0xbe161aec	-0.14658707
252	0x3e94606b	0.2897981
253	0x3e4617b2	0.19344977
254	0xbc9dc0ac	-0.019256912
255	0x3d618825	0.05506148

critic1.0.bias f4 [64]
0	0xbf777046	-0.9665569
1	0x3e27a471	0.16371323
2	0xbee0fb6c	-0.4394182
3	0x3e95fcd6	0.2929446
4	0x3e7235f8	0.236534
5	0x3f98fa40	1.195137
6	0x3fa7449d	1.3067814
7	0x3e0b5337	0.13605963
8	0x3fc46b64	1.5345273
9	0x3f0c4db6	0.5480608
10	0x3f509e94	0.8149197
11	0xbd5b1dbc	-0.053495154
12	0x3f4b0760	0.7930813
13	0x3e9ebe40	0.31004524
14	0x3faf5522	1.3697855
15	0x3ead757d	0.338787
16	0x3cd3ff12	0.025878463
17	0x3f930599	1.1486083
18	0xbe8deec6	-0.27721232
19	0xbdc4e60c	-0.096141905
20	0x3f617af0	0.8807821
21	0x3f6b8cea	0.9201189
22	0x3fbf60c4	1.4951406
23	0xbf5e6d4b	-0.8688552
24	0xbf3e41a6	-0.7431892
25	0x3f89b172	1.0757277
26	0x3e1d7600	0.15377045
27	0x3f1b0b70	0.6056433
28	0x3fc46596	1.5343502
29	0x3f8a8cbb	1.0824198
30	0xbf94c37f	-1.1622161
31	0xbf0ec214	-0.5576489
32	0xbf3ed878	-0.74549055
33	0x3f3f2d66	0.7467865
34	0x3f65f622	0.89828694
35	0x3fa2eb1d	1.2728001
36	0x3dc46c1c	0.09590933
37	0x3f35d0b1	0.7102156
38	0x3e12d2c6	0.14338216
39	0x3f533810	0.8250742
40	0xbcccafcd	-0.024986172
41	0xbe410471	-0.1884935
42	0x3f973644	1.1813436
43	0x3e8e50aa	0.27795917
44	0x3f4a617b	0.79054993
45	0xbf0a431b	-0.54008645
46	0x3f9aa346	1.2081077
47	0x3f956b86	1.1673439
48	0xbbe11acd	-0.00686965
49	0x3e4eb0b8	0.201846
50	0x3f5402c6	0.8281673
51	0x3e9cdb60	0.3063612
52	0xbec90dc7	-0.39268324
53	0x3f907ee2	1.1288722
54	0x3f8cf6f6	1.1012866
55	0x3f7a1cab	0.97699994
56	0xbeb43660	-0.35197735
57	0x3f01f27c	0.50760627
58	0x3f607edd	0.8769358
59	0x3e40f812	0.18844631
60	0xbe546bf8	-0.20744312
61	0x3f258822	0.6466085
62	0x3f59eb06	0.8512424
63	0xbd555402	-0.05208207

critic1.2.weight f4 [64, 64]
0	0x3e186069	0.14880528
1	0xbd82819f	-0.063723795
2	0xbd999118	-0.074983776
3	0x3ea61f4e	0.3244576
4	0x3e803a39	0.2504442
5	0xbd4e7459	-0.050403927
6	0xbd6346f8	-0.055487603
7	0xbf1e5c9b	-0.61860055
8	0x3cafa16d	0.021439278
9	0x3d962089	0.07330424
10	0x3ea32609	0.31864956
11	0xbda24647	-0.079235606
12	0xbce03f7e	-0.027374025
13	0x3eb253e1	0.3482962
14	0x3df21e41	0.11822177
15	0xbdf0e216	-0.117618725
16	0xbe95479d	-0.291562
17	0x3ed2125b	0.4102963
18	0xbe699c1e	-0.2281346
19	0x3dd45614	0.103679806
20	0xbdb6b29c	-0.08920786
21	0xbe9ea76c	-0.30987108
22	0x3e0f2181	0.13977624
23	0x3e878bc7	0.2647383
24	0x3e36c65a	0.17849103
25	0x3d29eac9	0.041483674
26	0xbe3bc64a	-0.1833736
27	0x3ea6b273	0.3255802
28	0xbe31f478	-0.17378414
29	0x3e8ea930	0.27863455
30	0xbedd25e7	-0.4319298
31	0xbe7744f5	-0.24147399
32	0xbe3c11a3	-0.18366103
33	0x3df5de2e	0.12005268
34	0x3e320547	0.17384826
35	0xbeae5679	-0.34050348
36	0xbe5d68c6	-0.21621999
37	0xbdd23d9f	-0.102656595
38	0xbcbd2a40	-0.023091435
39	0x3ca9697d	0.020680184
40	0xbe3ce137	-0.18445288
41	0x3e9b5aa6	0.30342597
42	0xbe7b3a1d	-0.24533887
43	0xbce57b16	-0.028012794
44	0x3e22ba38	0.1589135
45	0x3dd174e0	0.1022737
46	0xbe939227	-0.28822443
47	0xbc7c26f3	-0.015390146
48	0xbdeb347a	-0.114846185
49	0xbee6fe62	-0.45115954
50	0x3db8cd59	0.09023542
51	0xbdf59864	-0.11991957
52	0x3f04948b	0.5178916
53	0x3e1596a4	0.14608246
54	0x3e50d301	0.20392992
55	0xbd66397b	-0.05620716
56	0xbe740630	-0.23830485
57	0x3db8c009	0.09021003
58	0x3e86bf08	0.2631762
59	0x3e995d64	0.29954064
60	0xbe02a78c	-0.12759227
61	0xbe5b65d4	-0.21425563
62	0x3e250191	0.16113879
63	0x3e025675	0.12728293
64	0x3e8ffe37	0.28123638
65	0x3ab77033	0.001399523
66	0xbe1d1f06	-0.15343866
67	0x3e3124f5	0.17299254
68	0xbea88eba	-0.32921392
69	0xbc58fb7c	-0.013243552
70	0x3ddb646c	0.10712513
71	0xbf28139c	-0.6565492
72	0x3d9ca729	0.07649071
73	0x3e142966	0.14468917
74	0xbd448884	-0.047981754
75	0xbee5b6c3	-0.44866
76	0x3e4ec964	0.20194012
77	0x3ecdf75b	0.4022778
78	0x3d8d2adf	0.06892943
79	0x3d4bd642	0.04976488
80	0xbf06416e	-0.5244359
81	0xbd9197c4	-0.07109025
82	0xbc422073	-0.011848557
83	0xbdfef85f	-0.12449717
84	0x3cbc3a34	0.022976972
85	0xbed36ab1	-0.41292337
86	0xbdbe11e3	-0.09280755
87	0xbdd01988	-0.1016112
88	0xbe2b4668	-0.16726077
89	0xbd0875b9	-0.033315394
90	0xbc8f21be	-0.017472144
91	0xbec9c3c0	-0.39407158
92	0xbd0f8c6f	-0.035046037
93	0x3e5eb487	0.21748553
94	0xbe0c14a7	-0.13679753
95	0xbe614b3c	-0.22001356
96	0x3db19f09	0.08672912
97	0x3dd73c04	0.10509494
98	0xbedde27f	-0.43336865
99	0x3e217852	0.15768555
100	0xbdd5c9ef	-0.104389064
101	0x3b732ac6	0.0037104352
102	0xbbf8eb81	-0.0075964336
103	0x3ec0d7f6	0.37664765
104	0xbf557f0b	-0.8339698
105	0xbd95a004	-0.07305911
106	0x3ec521be	0.38502306
107	0xbdac586e	-0.08415304
108	0x3e63fb41	0.22263815
109	0xbd09f048	-0.033676416
110	0x3b884776	0.0041589094
111	0x3cdd2884	0.026996858
112	0xbf455c50	-0.7709398
113	0xbdb7dbb9	-0.08977456
114	0x3e3bdb99	0.18345489
115	0xbeee5f9c	-0.4655732
116	0xbccaf05c	-0.024772815
117	0x3d0c0b3d	0.034190405
118	0x3e9d0c6b	0.30673537
119	0x3d957531	0.07297743
120	0x3dbf5923	0.09343173
121	0xbd4f1395	-0.050555784
122	0xbe63973c	-0.2222566
123	0xbd681ed0	-0.05667001
124	0xbd83d444	-0.06436971
125	0x3e73efbb	0.23821919
126	0x3e6b8849	0.23001207
127	0x3d6a2a8f	0.057169493
128	0x3b1d0f78	0.002396552
129	0xbd998772	-0.07496537
130	0xbe423879	-0.18966855
131	0x3e11b518	0.14229238
132	0x3e2d1eb1	0.16906239
133	0x3ebdb9cb	0.3705581
134	0x3e36c5ef	0.17848943
135	0xbc657481	-0.0140048275
136	0xbcf0017d	-0.029297585
137	0x3e2bafe7	0.1676632
138	0x3e120bcd	0.14262314
139	0x3d14dfe7	0.036346342
140	0x3e5fb3cd	0.21845932
141	0x3e4b3f7b	0.19848435
142	0xbdf84154	-0.12121835
143	0x3eeeb216	0.46620244
144	0x3ecfb3d0	0.40566874
145	0x3d8913e1	0.06693245
146	0xbef4108d	-0.47668877
147	0x3c7f45ae	0.015580578
148	0x3ef676f4	0.4813763
149	0x3d49aa26	0.04923453
150	0xbec52539	-0.3850496
151	0xbe0132d2	-0.12617043
152	0x3ea49aa4	0.3214923
153	0xbdba1134	-0.090853125
154	0xbdf56158	-0.119814575
155	0x3d3b419b	0.045716863
156	0xbd9f9dac	-0.077937454
157	0x3e169ddd	0.14708658
158	0xbf2b6add	-0.66959935
159	0xbe2d4f20	-0.16924715
160	0x3bee39d5	0.0072700777
161	0x3e008e18	0.12554204
162	0xbeaad72c	-0.33367288
163	0xbe41383f	-0.18869112
164	0x3dea9255	0.11453692
165	0xbeaf5adb	-0.34249005
166	0xbd07df56	-0.033171974
167	0xbc3693b8	-0.011143617
168	0xbed446a4	-0.41460145
169	0xbea7ffe5	-0.3281242
170	0x3e5e83bf	0.21729945
171	0xbdc4c45d	-0.09607766
172	0xbdd05b36	-0.10173647
173	0x3d0b5824	0.034019604
174	0x3e1458dc	0.14487022
175	0xbeb88ad1	-0.3604341
176	0xbed86d3b	-0.42270836
177	0xbe157da3	-0.14598708
178	0x3dbb8cc8	0.09157711
179	0xbe927698	-0.28606105
180	0xbd063fb8	-0.03277561
181	0x3e2086b8	0.15676391
182	0x3e52203e	0.20520112
183	0x3d158765	0.036506075
184	0xbeae2839	-0.34015062
185	0x3ea63c70	0.32467985
186	0x3e65f59c	0.22456974
187	0x3e931839	0.28729418
188	0xbe48977e	-0.1958904
189	0x3de27121	0.11056734
190	0x3e0a458b	0.13503091
191	0xbe6fac0c	-0.23405474
192	0xbe8b553a	-0.2721346
193	0x3e030933	0.12796478
194	0xbe2dc331	-0.16968991
195	0x3ed3d794	0.4137541
196	0xbcbcec75	-0.02306197
197	0x3e66f4a2	0.22554258
198	0x3e3d396d	0.18478937
199	0xbec43685	-0.38322845
200	0x3da3f3d1	0.08005489
201	0x3e354ccb	0.17705075
202	0x3e46d783	0.19418149
203	0xbe274dcc	-0.16338271
204	0x3eae32e6	0.34023207
205	0xbe0b96f1	-0.13631798
206	0x3e1600fd	0.14648814
207	0xbe30fdfb	-0.17284386
208	0x3d390d4a	0.04517869
209	0x3e2bf0c7	0.16791068
210	0xbd5a5d1c	-0.053311452
211	0xbd520f3f	-0.05128407
212	0x3ce47804	0.02788926
213	0x3d138ec5	0.036024828
214	0x3e9d69f6	0.30744904
215	0xbedcace1	-0.43100646
216	0xbe24e06c	-0.16101235
217	0xbe874fd5	-0.26428095
218	0xbe42d75c	-0.19027466
219	0xbe25be56	-0.16185889
220	0xbdc28fc0	-0.095000744
221	0xbe6ce20f	-0.2313311
222	0xbeebbaca	-0.46040946
223	0x3d6d67da	0.05796037
224	0xbe0488bc	-0.12942785
225	0x3e9bbcee	0.3041758
226	0xbcf9813e	-0.030457135
227	0x3ccb763c	0.024836652
228	0xbe713dfc	-0.23558801
229	0x3e14c8a2	0.1452966
230	0xbe2eb12e	-0.17059776
231	0x3d50b4d4	0.0509537
232	0xbcc5f364	-0.02416391
233	0xbe8dca3f	-0.27693364
234	0x3d8c424e	0.06848584
235	0xbe2b3730	-0.16720271
236	0x3eb1b5b5	0.34708944
237	0xbec94510	-0.39310503
238	0x3e8c1a4e	0.2736382
239	0xbec529dd	-0.38508502
240	0x3e42819e	0.18994758
241	0xbe990908	-0.29889703
242	0x3e959490	0.29214907
243	0xbdb92a45	-0.090412654
244	0xbe0de037	-0.13855062
245	0x3de036ba	0.10947938
246	0x3e111ab5	0.14170344
247	0x3dbb6d64	0.09151724
248	0x3d87468d	0.06605253
249	0xbe40bd32	-0.18822172
250	0xbdc0f856	-0.09422366
251	0xbddbc8c0	-0.107316494
252	0x3e2432ce	0.16035005
253	0x3ca8d9d5	0.020611683
254	0xbc19a5a9	-0.009377875
255	0xbcecddd4	-0.02891437

critic1.2.bias f4 [64]
0	0x3f37324d	0.7156113
1	0x3f15cf60	0.58519554
2	0x3f33bb57	0.7020773
3	0x3f566507	0.83747905
4	0xbf3fa708	-0.74864244
5	0x3f3ee0d5	0.74561816
6	0x3f3cfecf	0.7382631
7	0x3eeed275	0.4664494
8	0x3f3fcc5d	0.7492121
9	0x3f87ba85	1.0603796
10	0xbf4ee465	-0.8081725
11	0x3f6aacb0	0.9166975
12	0x3efdd82b	0.49578986
13	0x3f31d841	0.694706
14	0x3eb27a10	0.3485875
15	0x3f2e6464	0.68121934
16	0x3f603e9e	0.87595546
17	0x3f4bce53	0.796117
18	0xbef2bd5a	-0.4741009
19	0xbdcc8df2	-0.099880114
20	0x3f0644e4	0.5244887
21	0x3f8f735f	1.1207083
22	0x3f333b33	0.70012206
23	0x3f7d2ae5	0.98893577
24	0x3f44f986	0.7694324
25	0x3f263359	0.649221
26	0x3f7ab65e	0.9793452
27	0x3f408fbe	0.75219333
28	0x3f0b29e6	0.54360807
29	0x3f897f7e	1.0742033
30	0x3f84325a	1.0327866
31	0x3f4a29c9	0.7897001
32	0x3f8b45b5	1.0880648
33	0xbeb9ae6a	-0.3626588
34	0x3f63790e	0.8885659
35	0x3f479e64	0.7797606
36	0x3f2707de	0.6524638
37	0xbe2cda48	-0.16880143
38	0xbeefeed7	-0.46861908
39	0x3f256d9b	0.6462037
40	0x3f247673	0.6424324
41	0x3fab5bb9	1.3387367
42	0x3f5f69fc	0.87271094
43	0x3f51274b	0.8170058
44	0x3f508627	0.814547
45	0x3f558ec6	0.8342098
46	0x3f5a53a4	0.85283875
47	0x3f5ed857	0.8704886
48	0x3f7a2c15	0.97723514
49	0x3f4d2a70	0.8014288
50	0x3d807083	0.0627146
51	0xbeba7ee1	-0.36424926
52	0x3f44bc0e	0.7684945
53	0xbeea8ee4	-0.45812142
54	0x3f051035	0.51977855
55	0xbf221db1	-0.63326555
56	0xbedd0456	-0.4316737
57	0xbf52c9d9	-0.82339245
58	0x3e23b623	0.15987448
59	0x3ef654d1	0.48111585
60	0x3f49ca25	0.78824073
61	0x3f29e6ed	0.6636799
62	0xbf1daefb	-0.61595124
63	0x3f0a0db4	0.5392716

critic1.4.weight f4 [64, 64]
0	0xbf3ee6d1	-0.7457095
1	0xbf9d0d43	-1.2269672
2	0x3f335597	0.70052475
3	0xbe533be3	-0.20628314
4	0x3e12a851	0.1432202
5	0x3e858069	0.26074532
6	0xbe734e4b	-0.23760335
7	0xbbcbbb88	-0.006217424
8	0xbd234cd9	-0.03986821
9	0x3e910a6e	0.2832827
10	0x3e94e993	0.29084453
11	0xbebc8357	-0.36818954
12	0x3e9773d4	0.29580557
13	0xbe722f27	-0.236508
14	0xbd817009	-0.06320197
15	0xbf6515ec	-0.89486575
16	0xbf0800b2	-0.5312606
17	0xbeb56126	-0.3542568
18	0x3f6f4a24	0.93472505
19	0x3f39bea0	0.72556496
20	0xbe466afd	-0.1937675
21	0x3f4288a5	0.75989753
22	0xbcdda985	-0.027058372
23	0xbf9e65c4	-1.2374806
24	0xbd369910	-0.044579566
25	0x3ea4757e	0.3212089
26	0x3cf79095	0.03022031
27	0x3f1e8cad	0.61933404
28	0xbdafd42c	-0.085853904
29	0x3bb93620	0.005652204
30	0x3d2e45a7	0.042546894
31	0xbeb0716e	-0.3446154
32	0x3e197e9c	0.14989704
33	0x3d5ca760	0.05387056
34	0x3e8980a7	0.26855966
35	0x3ec8efd5	0.39245477
36	0xbf2f203a	-0.6840855
37	0xbeeec5ba	-0.46635228
38	0x3e64e885	0.22354324
39	0x3e58d799	0.21175994
40	0xbe4761bd	-0.19470878
41	0xbd8125ee	-0.06306063
42	0x3ee412f1	0.445457
43	0x3d12e79e	0.03586542
44	0x3ea9eadd	0.33187
45	0x3df482e4	0.11939028
46	0xbcc98d2d	-0.02460345
47	0xbe33fa30	-0.17575908
48	0xbf361e74	-0.7114022
49	0xbf1886fc	-0.5958097
50	0xbd953955	-0.07286326
51	0x3e3fcaa7	0.1872965
52	0xbdf768d7	-0.120805435
53	0x3e8a0ff4	0.26965296
54	0x3f482ff2	0.7819816
55	0x3f0476a1	0.51743513
56	0xbcdde500	-0.027086735
57	0x3d5e8c6f	0.054333147
58	0x3e3d0d51	0.18462111
59	0xbb19b56b	-0.002345408
60	0xbead421c	-0.338395
61	0xbdde1170	-0.1084317
62	0x3ee0c9c4	0.43903935
63	0xbea88b39	-0.32918718
64	0x3f007137	0.5017275
65	0x3cfe8841	0.03107083
66	0x3e78469e	0.24245688
67	0x3e2bdfd7	0.16784607
68	0xbf0898fc	-0.53358436
69	0x3dcb042b	0.09912904
70	0x3e8513d6	0.25991696
71	0xbebbb682	-0.3666268
72	0x3e0ee298	0.13953626
73	0x3e37f6de	0.17965266
74	0xbf334969	-0.7003389
75	0x3d5ebfb9	0.05438206
76	0xbdd9e018	-0.106384456
77	0x3ef7d6b7	0.48406002
78	0x3cdebe57	0.02719037
79	0x3f0b8aa1	0.54508406
80	0x3db063b6	0.08612768
81	0x3ce5df26	0.028060507
82	0xbefecc38	-0.49765182
83	0xbea52636	-0.32255715
84	0x3c8fb512	0.017542396
85	0x3e844d22	0.25840098
86	0xbd3fa452	-0.046787567
87	0x3e4864a9	0.19569649
88	0xbe337e0d	-0.17528553
89	0x3ef1e186	0.47242373
90	0x3f27e80b	0.65588444
91	0x3ea3db51	0.32003263
92	0xbe9b7750	-0.30364466
93	0x3ed8beae	0.42332977
94	0xbd35a2c1	-0.044344667
95	0x3e9400c7	0.28906843
96	0x3f30af10	0.69017124
97	0xbe440d56	-0.19145712
98	0x3e5e2613	0.21694212
99	0x3e92e274	0.28688395
100	0x3d26073b	0.04053424
101	0xbefd0e4f	-0.4942498
102	0xbecc36c6	-0.3988554
103	0x3ec57467	0.3856537
104	0xbe5b38fc	-0.21408457
105	0x3e202c4e	0.15641901
106	0x3e74ab44	0.23893458
107	0x3cf42473	0.029802537
108	0x3e643bf5	0.22288497
109	0xbcff88a2	-0.031193081
110	0x3e85aca5	0.2610828
111	0x3c385018	0.011249565
112	0x3d956411	0.07294477
113	0x3eb44088	0.35205483
114	0x3e14cb24	0.14530617
115	0xbecd02c7	-0.4004118
116	0x3e0a45da	0.13503209
117	0xbe3f963c	-0.18709654
118	0x3e1cacb5	0.15300258
119	0xbe8efd97	-0.2792785
120	0xbed2bb74	-0.4115864
121	0xbdfa77af	-0.12229859
122	0x40135c60	2.3025131
123	0x3dde4f5b	0.108549796
124	0x3d4d87ff	0.050178524
125	0x3c4373f4	0.011929501
126	0xbeff171f	-0.49822327
127	0xbe2be3aa	-0.16786066
128	0x3e3073c8	0.17231667
129	0x3e99f222	0.30067545
130	0x3eaf2f9f	0.3421602
131	0xbe08417a	-0.13306227
132	0xbe501ae5	-0.2032276
133	0x3c500546	0.01269657
134	0x3e364d93	0.1780303
135	0xbe2f9893	-0.17148046
136	0x3dfabe3f	0.12243318
137	0x3e2d6323	0.16932349
138	0xbee2fc67	-0.44333193
139	0xbe6889dd	-0.2270884
140	0x3efcc78c	0.49370992
141	0x3e5a84fb	0.2133979
142	0xbe3f7dba	-0.18700305
143	0x3d7a3ada	0.06109128
144	0x3e594462	0.21217492
145	0xbaedf8b4	-0.0018155784
146	0xbeb3b062	-0.35095507
147	0xbe84691f	-0.2586145
148	0x3dac688c	0.08418378
149	0x3e760cb5	0.24028285
150	0x3b450639	0.0030063523
151	0x3d906414	0.070503384
152	0x3cb6a036	0.022293191
153	0x3e9ab596	0.30216664
154	0x3f2590ce	0.6467408
155	0x3eac3efe	0.3364181
156	0xbe4f2061	-0.20227195
157	0x3eb1169f	0.3458757
158	0x3e0be479	0.13661374
159	0x3dc70727	0.09718161
160	0x3efe879f	0.49712846
161	0xbeacc206	-0.33741778
162	0x3dced8d5	0.10099951
163	0x3e4c2971	0.19937684
164	0x3e5e43da	0.21705571
165	0xbebde0a2	-0.37085444
166	0x3dbdd23f	0.09268617
167	0x3df927f1	0.12165821
168	0xbe588bbd	-0.21147056
169	0x3e84e71d	0.25957575
170	0x3e9cf9ac	0.30659235
171	0x3e55d698	0.20882642
172	0x3da0889b	0.078385554
173	0x3d3c181b	0.045921426
174	0x3dac0fa1	0.084014185
175	0x3ec5d184	0.3863641
176	0x3df8e61b	0.12153264
177	0xbc4fde61	-0.012687297
178	0x3e13da90	0.14438844
179	0x3dcea567	0.10090142
180	0x3d50771e	0.05089485
181	0xbe5aab66	-0.21354446
182	0x3d4e636c	0.050387785
183	0xbef258da	-0.47333413
184	0xbdd874b7	-0.105691366
185	0xbd806ccf	-0.062707536
186	0x3ffcd481	1.9752351
187	0x3d5195d2	0.05116827
188	0x3d267931	0.04064292
189	0x3d6f9514	0.05849178
190	0xbedc435b	-0.43020138
191	0x3e08deac	0.13366193
192	0x3e93b393	0.28847942
193	0x3e908df1	0.28233293
194	0x3de596ca	0.11210401
195	0x3d86fbb1	0.06590975
196	0xbe6d3bf5	-0.23167403
197	0x3eb27c41	0.34860423
198	0x3ea94ae1	0.3306494
199	0xbeb32c01	-0.3499451
200	0x3dd16306	0.10223965
201	0xbc50a071	-0.012733565
202	0xbee48473	-0.446323
203	0xbe17962a	-0.14803377
204	0x3e595df2	0.21227244
205	0x3e083760	0.13302374
206	0xbec6e1af	-0.38844058
207	0x3e669252	0.22516754
208	0x3e54ba04	0.20774084
209	0x3e6e7e43	0.23290353
210	0xbe5d3b65	-0.21604688
211	0xbed47855	-0.41498056
212	0x3ddd59c1	0.10808135
213	0x3eb3c023	0.35107526
214	0xbda8e1b2	-0.08246173
215	0x3cd5c278	0.026093706
216	0x3e042daf	0.12908052
217	0x3ef59213	0.47963008
218	0x3f1ca1a4	0.61184144
219	0x3e532237	0.2061852
220	0x3c3765eb	0.011193733
221	0x3eb1a1e6	0.3469383
222	0x3da0c2c6	0.0784965
223	0x3eb8b2ba	0.36073858
224	0x3f2d1e42	0.67624295
225	0xbea3ab27	-0.31966516
226	0x3e0186e9	0.1264912
227	0x3f34bd39	0.7060123
228	0x3d17ac58	0.037029594
229	0xbe97ffd4	-0.2968737
230	0xbe3f58b3	-0.1868618
231	0x3d7c5bfa	0.061611153
232	0xbe88832d	-0.2666258
233	0x3e8701d1	0.26368573
234	0x3e23bcc2	0.15989974
235	0x3e45992f	0.19296716
236	0x3e811654	0.25212348
237	0x3e394e75	0.18096335
238	0x3ed54624	0.41655076
239	0x3e1aae0e	0.15105459
240	0xbda2cf34	-0.07949677
241	0x3e91f8ef	0.28510234
242	0xbd5a8853	-0.053352665
243	0xbd61a735	-0.0550911
244	0x3e6e21d9	0.232551
245	0xbeb1baf0	-0.34712934
246	0x3e020829	0.12698425
247	0xbed2cc21	-0.41171363
248	0xbe927cdc	-0.28610885
249	0x3d85e063	0.06536939
250	0x400bffff	2.1874998
251	0x3eace86f	0.33771083
252	0xbdc86e9e	-0.097867236
253	0x3e148964	0.14505535
254	0xbe00b0d5	-0.12567456
255	0x3e551b48	0.20811188

critic1.4.bias f4 [64]
0	0xbefa9058	-0.4893825
1	0x3f2d01b5	0.6758073
2	0x3f007127	0.50172657
3	0x3efad0ae	0.48987335
4	0xbe08560c	-0.13314074
5	0x3ef5deb6	0.48021477
6	0x3f120624	0.5704062
7	0x3f1c6a65	0.61099845
8	0x3f21e5ec	0.6324146
9	0x3f0d581d	0.55212575
10	0xbef3f486	-0.47647494
11	0xbf0fd137	-0.5617861
12	0xbe843454	-0.25821173
13	0xbf7574ca	-0.9588133
14	0x3f160b33	0.5861084
15	0x3f0799e3	0.5296919
16	0xbf6c48d0	-0.92298603
17	0x3f1aa57c	0.6040876
18	0x3f06e6e7	0.5269608
19	0xbec0eda3	-0.37681302
20	0x3f17d8c5	0.5931514
21	0x3f3fa519	0.74861294
22	0x3f34914c	0.70534205
23	0xbdca1d70	-0.09868896
24	0xbe4e4b03	-0.20145802
25	0x3e9254f6	0.28580445
26	0x3f459b3f	0.7719001
27	0x3f103e03	0.5634462
28	0x3f0ebc8a	0.5575644
29	0xbe681450	-0.22663999
30	0x3f4749e5	0.7784713
31	0xbcab57a2	-0.02091581
32	0xbdad49f3	-0.0846137
33	0x3f2dea45	0.6793559
34	0x3f0fb367	0.5613312
35	0x3f357709	0.7088476
36	0x358637bd	1e-06
37	0xbe915bf5	-0.2839047
38	0x3ef9a16f	0.48755977
39	0x3f2492a8	0.6428628
40	0xbc645e5a	-0.013938511
41	0xbf748869	-0.95520645
42	0x3f012a69	0.5045534
43	0x3f018886	0.50598943
44	0xbeb793f0	-0.35855055
45	0xbf400671	-0.7500983
46	0x3f23f344	0.6404307
47	0x3e16d77c	0.14730638
48	0x3f11624d	0.5679062
49	0x3f24bc89	0.6435018
50	0xbf0698b6	-0.5257677
51	0x3f2e17eb	0.68005246
52	0x3f29d361	0.66338164
53	0x3ef105b9	0.4707468
54	0xbed9ec7f	-0.42563245
55	0xbd0b751a	-0.034047224
56	0xbc43e530	-0.011956498
57	0x3ef619b6	0.4806649
58	0xbf1ea645	-0.6197246
59	0x3e7e7ab2	0.24851492
60	0x3f117d90	0.5683222
61	0x3e12ffe6	0.1435543
62	0x3f00a12e	0.5024594
63	0x3f030a5e	0.51187694

critic1.6.weight f4 [1, 64]
0	0xbfcfef3f	-1.6244887
1	0x3e8a8c47	0.27060148
2	0x3e9684c6	0.29398173
3	0x3e9481cf	0.29005286
4	0xbf70b00c	-0.94018626
5	0x3e0b2f0e	0.13592169
6	0x3e4b726a	0.19867864
7	0x3eae22b2	0.34010845
8	0x3eb5a13e	0.3547458
9	0x3ea921e0	0.33033657
10	0xbf8369c2	-1.026665
11	0xbf3aef7f	-0.7302169
12	0xbf4bfd20	-0.79683113
13	0xbf23ab4b	-0.6393325
14	0x3eb09818	0.34491038
15	0x3e4d11c6	0.20026311
16	0xc0056da2	-2.0848165
17	0x3ef03d5b	0.4692181
18	0x3e88860c	0.2666477
19	0xbec75547	-0.3893225
20	0x3ecae82a	0.39630252
21	0x3ea5ae8d	0.32359734
22	0x3e90d292	0.28285652
23	0xbdd12a42	-0.10213138
24	0xbfa498e8	-1.2859163
25	0xbf67e8f1	-0.90589815
26	0x3eca26f7	0.39482853
27	0x3e127597	0.1430267
28	0x3e427e06	0.18993387
29	0xbffcb50d	-1.9742752
30	0x3e9f5269	0.3111756
31	0xbf8f1944	-1.1179585
32	0xbfad7042	-1.3549883
33	0x3ef0ee94	0.4705702
34	0x3e8eb4da	0.27872354
35	0x3ee44124	0.44580948
36	0x3e1a9113	0.15094404
37	0xbf34b9ce	-0.70596015
38	0x3e9f4a65	0.31111446
39	0x3e5e7067	0.21722566
40	0xbdc59fda	-0.0964963
41	0xbfbbc0fe	-1.4668272
42	0x3ed6c3da	0.41946298
43	0x3e3e080d	0.18557759
44	0xbf0355e5	-0.5130294
45	0xbfa81a19	-1.3132964
46	0x3e8c91f8	0.27455115
47	0xc006f143	-2.1084754
48	0x3e6dc110	0.23218179
49	0x3e2d1e22	0.16906026
50	0xbf73a338	-0.9517093
51	0x3edd1599	0.4318054
52	0x3e810ef6	0.25206727
53	0x3ed9788f	0.4247479
54	0xbf830661	-1.0236322
55	0xbf88fb02	-1.0701602
56	0xbfe47816	-1.7849147
57	0x3e6ca415	0.23109467
58	0xbf68e170	-0.9096899
59	0xbfe8b89c	-1.8181338
60	0x3ef90091	0.48633245
61	0xbf490eb3	-0.78538054
62	0x3e52a59a	0.20570984
63	0x3f0754d7	0.5286383

critic2.0.weight f4 [64, 82]
0	0xbd8d80bb	-0.06909319
1	0x3ba82788	0.0051316656
2	0xbd92be1e	-0.07165168
3	0x3da712e0	0.08157897
4	0x3d35be22	0.044370778
5	0x3ef4ae8e	0.47789425
6	0xbe5a9bb4	-0.21348459
7	0xbebc3993	-0.36762676
8	0x3e3f462f	0.18679117
9	0xbdd1a039	-0.10235638
10	0x3d2445d7	0.040105667
11	0xbdb81fb4	-0.08990422
12	0xbdcfd411	-0.1014787
13	0x3dab116a	0.08352931
14	0xbd334fa5	-0.043777127
15	0xbe0425de	-0.1290507
16	0xbc2b32d0	-0.010449126
17	0xbc9b9e77	-0.01899646
18	0xbe9d25fb	-0.3069304
19	0x3baff577	0.005369838
20	0x3e18d768	0.14925921
21	0x3ef9672e	0.48711532
22	0xbe4f0c8a	-0.20219627
23	0xbe106488	-0.1410085
24	0x3b211eaa	0.0024584928
25	0xbd29a740	-0.041419268
26	0x3b9c208b	0.0047646216
27	0x3de71cd2	0.11284794
28	0xbe4f2d2a	-0.20232072
29	0x3caedbd6	0.02134506
30	0xbd4f9168	-0.05067578
31	0xbccadc1e	-0.024763163
32	0x3d46a8be	0.04850077
33	0x3cb79963	0.022412008
34	0x3d815e73	0.06316843
35	0xbd82cd37	-0.06386798
36	0xbbfcbf09	-0.007713203
37	0x3ea81361	0.32827285
38	0xbe1eaf41	-0.15496542
39	0xbe9dec27	-0.30844232
40	0xbdd23461	-0.10263897
41	0xbdefc0c8	-0.11706692
42	0x3e0ffdff	0.14061736
43	0x3d651b7c	0.055934414
44	0xbe4fe68f	-0.20302795
45	0xbd21efe5	-0.039535422
46	0x3d4c24d9	0.04983983
47	0x3d5b7748	0.053580552
48	0xbdc395a5	-0.09550027
49	0x3dda2808	0.106521666
50	0xbe18976d	-0.14901514
51	0xbd31a1a8	-0.043367058
52	0x3e8643fb	0.2622374
53	0x3f0f591f	0.55995363
54	0xbe41bf70	-0.18920684
55	0xbf3990ca	-0.72486556
56	0xba975a08	-0.0011547217
57	0x3d37e21b	0.044893365
58	0x3e307e97	0.1723579
59	0x3e83317a	0.25623685
60	0x3e01de38	0.12682426
61	0x3dab2bb6	0.083579466
62	0xbc73018d	-0.014831913
63	0xbb2bf603	-0.0026239164
64	0x3c31b4eb	0.010846357
65	0xbbed3b5a	-0.0072397413
66	0xbacd2066	-0.0015649914
67	0x3bd32bf0	0.0064444467
68	0x3aa1a597	0.0012332675
69	0xbcad92db	-0.02118819
70	0x3b8c1538	0.0042749904
71	0x3caf8bb4	0.02142892
72	0x3cc065bf	0.023486016
73	0x3d237945	0.039910574
74	0x3b69c15b	0.0035668227
75	0xbb1904ad	-0.0023348734
76	0x3a370bbd	0.0006982645
77	0x3c9ee207	0.019394888
78	0xbdab91c7	-0.08377414
79	0x3d915bde	0.070976004
80	0x3ba998b3	0.005175674
81	0x3b9da2f2	0.0048106844
82	0x3d8625bf	0.06550168
83	0xbc4adcff	-0.012381791
84	0xbda4f417	-0.08054369
85	0x3ca9600c	0.020675682
86	0x3e30f217	0.1727985
87	0xbafc88e1	-0.0019266867
88	0xbea04066	-0.31299132
89	0xbe07c9c1	-0.13260557
90	0xbe04c9dd	-0.1296763
91	0x3db875fb	0.09006878
92	0x3e305697	0.17220531
93	0xbe00992a	-0.12558427
94	0xbd0cd918	-0.034386724
95	0x3e439769	0.19100727
96	0xbe1b0943	-0.15140252
97	0x3e486e3c	0.19573301
98	0xb7f6ce58	-2.9421572e-05
99	0x3c233165	0.009960507
100	0xbd934370	-0.07190597
101	0x3e83502d	0.25647107
102	0xbde4f0b1	-0.11178721
103	0x3dc7306d	0.09726033
104	0xbd13f711	-0.036124293
105	0x3d1fea49	0.03904179
106	0x3d828196	0.06372373
107	0x3e3c878a	0.18411079
108	0xbdbfdd2b	-0.09368356
109	0xbce6ccb1	-0.028173776
110	0x3d9c3bd7	0.07628601
111	0x3d97d9ad	0.07414565
112	0x3dcfd240	0.10147524
113	0xbd957d39	-0.07299275
114	0x3d17dd55	0.037076313
115	0xbc84e194	-0.016220845
116	0xba91fefd	-0.0011138614
117	0x3e53d512	0.20686749
118	0x3eb37e65	0.3505737
119	0x3df048f6	0.11732666
120	0xbe607f93	-0.21923666
121	0x3de8b05c	0.11361763
122	0xbd8bb02c	-0.068207115
123	0x3d4d505e	0.050125472
124	0x3da262ee	0.079290256
125	0xbd1be401	-0.03805924
126	0x3e14eb76	0.14542946
127	0xbe3b1b8c	-0.18272227
128	0x3d8c837f	0.068610184
129	0x3d374080	0.044739246
130	0xbad7a820	-0.0016453303
131	0xbe690a6f	-0.22757886
132	0x3dc38990	0.09547722
133	0x3e4fdf90	0.20300126
134	0x3c84d8b4	0.016216613
135	0x3cca8161	0.024719896
136	0xbe6721c6	-0.22571477
137	0xbe5d64b5	-0.21620448
138	0x3c955d6f	0.01823303
139	0xbd8b5b72	-0.06804551
140	0xbe321b1e	-0.17393157
141	0xbcc6b7d6	-0.024257582
142	0xbd048e06	-0.032362007
143	0x3d6b4d9f	0.057447072
144	0x3d351475	0.044208962
145	0x3ca4c8a0	0.020115197
146	0xbcf759df	-0.030194221
147	0x3cbe4b59	0.023229288
148	0xbb815c8f	-0.0039478014
149	0x3c11b21c	0.008892562
150	0x3c1e7e96	0.009673735
151	0xbd216d6e	-0.039411
152	0x3cb50dcf	0.022101311
153	0xbc5273b9	-0.012844973
154	0xbc4ec88f	-0.012621059
155	0x3bf86e69	0.0075815213
156	0xbc42ebbf	-0.011897027
157	0x3d4fbac5	0.050715227
158	0x3d5fd4c4	0.05464627
159	0x3bd5ba72	0.00652247
160	0x3ca5396c	0.020168982
161	0xbd9dda96	-0.077077076
162	0xbcac6c49	-0.021047728
163	0x3c8304cd	0.0159935
164	0xbd764a79	-0.060129616
165	0xbbc04808	-0.005867962
166	0xbebaa5ed	-0.36454716
167	0xbeaa5f81	-0.3327599
168	0xbd08fb7a	-0.03344295
169	0x3ce6ae3d	0.028159255
170	0xbdc382f6	-0.09546463
171	0x3e5c25b7	0.21498762
172	0xbd1953fd	-0.037433613
173	0xbde66c2a	-0.112510994
174	0x3d29ef3d	0.04148792
175	0x3cd646cd	0.026156807
176	0xbdb069ab	-0.086139046
177	0x3d58ce14	0.052930906
178	0xbe021e65	-0.12706907
179	0x3dfdce16	0.123928234
180	0xbd6ef08a	-0.058334865
181	0x3c970261	0.018433752
182	0xbeca01dd	-0.39454547
183	0xbe8b861f	-0.27250764
184	0x3e5ddcc1	0.21666242
185	0xbeb853b5	-0.36001363
186	0xbec35426	-0.38150138
187	0x3c88f200	0.016716957
188	0x3e0d985e	0.13827655
189	0x3dc4479f	0.09583973
190	0x3da8c781	0.08241177
191	0xbe81a82a	-0.25323611
192	0x3dc7d230	0.09756887
193	0x3d622b93	0.055217337
194	0xbcdbf388	-0.026849523
195	0xbe3bb52d	-0.18330832
196	0xbd0ea62a	-0.034826435
197	0xbd87c5fe	-0.06629561
198	0xbeaecdd0	-0.34141397
199	0xbe2a2e0f	-0.16619132
200	0x3e23882b	0.15969913
201	0xbe8832cb	-0.26601252
202	0xbea2f9a7	-0.31831095
203	0x3d98d778	0.074629724
204	0xbd509243	-0.050920736
205	0x3a67fdd7	0.0008849776
206	0x3deb9555	0.11503092
207	0x3dc85d05	0.09783367
208	0x3c2df4aa	0.0106174145
209	0xbbf90702	-0.0075997123
210	0x3d60e8d2	0.054909535
211	0xbd41f4ae	-0.047352485
212	0x3dadb10f	0.08481037
213	0x3dbd1c44	0.09233907
214	0xbefeeab5	-0.49788442
215	0xbedfa663	-0.4368163
216	0xbdd50011	-0.10400403
217	0xbee56fc6	-0.4481184
218	0xbe498af0	-0.19681907
219	0x3d908866	0.07057266
220	0x3baea983	0.005330266
221	0x3d871641	0.065960415
222	0xbe38b156	-0.18036398
223	0xbd25a4a0	-0.0404402
224	0xbda56990	-0.08076775
225	0x3d409a63	0.047022235
226	0x3bcbb34b	0.0062164417
227	0xbcc66b6c	-0.024221145
228	0x3c9c8c15	0.019109765
229	0xbc765f0d	-0.01503731
230	0x3c8d01fc	0.01721286
231	0xb91f7996	-0.00015208716
232	0xbc201294	-0.009770054
233	0x3d1bb030	0.038009822
234	0x3c6f9ca2	0.0146247465
235	0xbb430498	-0.0029757377
236	0x3a186d48	0.0005814624
237	0xbcd15e8f	-0.025557784
238	0x3c967ea4	0.018370934
239	0xbcd597bc	-0.02607333
240	0x3c99a408	0.018754974
241	0x3c613cb0	0.013747379
242	0xbc9a6755	-0.0188481
243	0xbc19a646	-0.009378022
244	0xbcc1fdca	-0.023680586
245	0x3b249ae1	0.002511673
246	0x3c1f4e7d	0.009723303
247	0x3dc2f945	0.09520201
248	0xbe4b2fff	-0.19842528
249	0x3e3b2a94	0.18277961
250	0x3e8a7ce2	0.27048403
251	0x3e44599f	0.19174813
252	0xbec74a69	-0.38923958
253	0x3e0b4908	0.13602078
254	0x3d107851	0.035270993
255	0xbdc2f6e3	-0.09519746

critic2.0.bias f4 [64]
0	0x3f140eda	0.5783516
1	0x3fa02bd2	1.2513373
2	0x3e97633e	0.29567903
3	0x3f574701	0.8409272
4	0xbd8bc31f	-0.06824326
5	0x3f7043ef	0.9385366
6	0x3f1c7c06	0.61126745
7	0xbe33eeb6	-0.1757153
8	0xbcf03524	-0.029322214
9	0x3fa8bb6c	1.3182197
10	0xbebfd8f2	-0.37470204
11	0x3fb032e9	1.3765537
12	0x3f5ce825	0.86291724
13	0xbf6ad11d	-0.9172533
14	0x3fac52b0	1.3462734
15	0x3f027d04	0.5097201
16	0x3fe720c2	1.8056872
17	0x3ed6a5af	0.41923282
18	0x3f070b5e	0.5275172
19	0x3e642c45	0.22282512
20	0x3f410e0d	0.75412065
21	0xbf3b84f3	-0.7324974
22	0x3fa09d63	1.2548031
23	0x3c76d921	0.015066416
24	0x3e16ad0a	0.14714447
25	0xbf867ba4	-1.0506482
26	0x3fa470f4	1.284697
27	0x3fa92ee7	1.3217438
28	0x3f79a82c	0.97522235
29	0x3ea75e64	0.32689202
30	0x3f72d1e7	0.94851536
31	0x3f98df9f	1.1943244
32	0x3f692431	0.9107085
33	0xbf389ad2	-0.7211124
34	0xbf106ccb	-0.56416005
35	0xbf4f53b7	-0.80987114
36	0xbe7f3ebd	-0.24926277
37	0x3f44d6c7	0.76890224
38	0x3db96a73	0.09053507
39	0x3f8104a6	1.0079544
40	0x3f38fc20	0.7225971
41	0xbf68f1b3	-0.90993804
42	0x3f1c3f54	0.6103413
43	0xbe285be4	-0.16441303
44	0x3d94920f	0.07254421
45	0x3e4c6103	0.19958882
46	0x3f10e3f9	0.5659786
47	0x3c26394d	0.0101454975
48	0x3fc0534d	1.5025421
49	0x3e81c00a	0.25341827
50	0x3f9d2e16	1.2279689
51	0x3f815747	1.010476
52	0xbf8bf4db	-1.0934099
53	0x3e8e76cf	0.2782502
54	0xbe64c379	-0.22340192
55	0x3e83a0b1	0.25708535
56	0xbe5d5700	-0.21615219
57	0xbecdccc2	-0.4019528
58	0x3f1ee372	0.62065804
59	0x3f9a24ad	1.2042443
60	0xbf7365a7	-0.95076984
61	0x3d2f5f72	0.042815633
62	0x3e242aa0	0.16031885
63	0x3f5834e4	0.84455705

critic2.2.weight f4 [64, 64]
0	0xbeee1b3a	-0.46505147
1	0x3e06fd75	0.13182624
2	0x3eb8d913	0.36103114
3	0x3bb5845d	0.0055394606
4	0x3eda4e37	0.42637798
5	0x3ee23c8e	0.44186825
6	0xbeaab5fe	-0.33341974
7	0x3e962a15	0.2932898
8	0x3ea2c5e6	0.3179161
9	0x3daea05d	0.085266806
10	0x3dd28d8d	0.10280905
11	0x3d51d55c	0.051228866
12	0x3e3798e0	0.17929411
13	0xbe1d49b5	-0.15360148
14	0x3e948f77	0.29015705
15	0x3cf750b2	0.030189846
16	0x3e041083	0.12896924
17	0xbe1fb121	-0.15594913
18	0x3e0468fa	0.1293067
19	0xbdd83910	-0.10557759
20	0x3e373abc	0.17893499
21	0xbe1094b2	-0.14119223
22	0x3e18a62e	0.14907143
23	0x3e8de8f4	0.27716792
24	0xbe9a4016	-0.3012702
25	0x3f18045c	0.5938165
26	0x3d6d6e4a	0.057966508
27	0x3e5330c7	0.20624076
28	0xbdf0ce20	-0.11758065
29	0x3e27a6f8	0.16372287
30	0x3dd13ca4	0.102166444
31	0x3e239a55	0.15976842
32	0x3ecfd4e0	0.40592098
33	0x3e4e45d5	0.20143826
34	0xbb10720c	-0.0022040633
35	0x3e95bda3	0.29246244
36	0x3ed7b5b0	0.42130804
37	0x3d844fbe	0.06460522
38	0xbe80b2f1	-0.2513652
39	0xbe256ed9	-0.16155566
40	0xbcc748f9	-0.024326788
41	0x3e17c011	0.14819361
42	0x3e0d9849	0.13827623
43	0xbe6201a4	-0.22070938
44	0x3e1f20fd	0.15539928
45	0x3ccd5fb2	0.025070045
46	0x3e381400	0.1797638
47	0x3e044739	0.12917794
48	0xbcdfb9cc	-0.027310275
49	0x3d2c7eec	0.04211323
50	0x3e0b143d	0.13581939
51	0xbe498e71	-0.19683243
52	0x3ebe0a54	0.37117255
53	0xbe93a006	-0.28833026
54	0x3de461f4	0.111514956
55	0x3dda7ae7	0.10667973
56	0x3e121b96	0.14268336
57	0x3e800a0a	0.2500766
58	0xbb136dec	-0.0022495938
59	0xbdfae8ec	-0.122514576
60	0xbe83f082	-0.2576943
61	0x3cbb1743	0.02283824
62	0x3e509126	0.2036787
63	0x3e1d048a	0.15333763
64	0xbe6c5c6f	-0.23082136
65	0x3e6f58b7	0.23373686
66	0xbe0baf36	-0.13641056
67	0x3df1749a	0.11789818
68	0xbbe13c9d	-0.0068736807
69	0x3e2729eb	0.16324584
70	0x3e893090	0.26794863
71	0x3e9ef52a	0.3104642
72	0xbe02d7f7	-0.12777697
73	0xbaab535e	-0.001307111
74	0x3d913af8	0.070913255
75	0x3d090333	0.033450317
76	0xbd4fdb00	-0.050745964
77	0x3d65373d	0.055960882
78	0x3e9c0fcb	0.304808
79	0xbe3cd792	-0.18441609
80	0x3de935bd	0.11387203
81	0xbe2d9a70	-0.16953444
82	0x3ec1c6d6	0.37847012
83	0xbe02c103	-0.1276894
84	0x3e0a459d	0.13503118
85	0x3c953781	0.018214943
86	0x3b84a3d0	0.0040478483
87	0x3e27311e	0.1632733
88	0xbd9e8d65	-0.077418126
89	0x3ee0466d	0.4380373
90	0xbde11f16	-0.10992257
91	0x3d838307	0.06421476
92	0x3d313fbe	0.04327368
93	0x3bad08a3	0.0052805706
94	0xbdc19c07	-0.09453588
95	0x3e8baf6f	0.27282283
96	0x3eb23db6	0.34812707
97	0x3d1aaaa5	0.037760396
98	0x3e0a9482	0.13533214
99	0xbe741475	-0.23835929
100	0xbcd08778	-0.025455222
101	0x3cb26a7c	0.021779291
102	0xbe543ece	-0.20727083
103	0xbd9475c2	-0.07249023
104	0x3e56177d	0.20907398
105	0x3d71c608	0.059026748
106	0xbdd89640	-0.10575533
107	0xbe010816	-0.12600741
108	0xbef3dbf8	-0.4762876
109	0x3d3fee72	0.04685826
110	0xbe9da84f	-0.30792472
111	0xbe944f93	-0.2896696
112	0x3ed316ec	0.41228426
113	0x3d394669	0.045233164
114	0x3ecfc044	0.40576375
115	0xbda5cea0	-0.08096051
116	0x3de24ed2	0.1105019
117	0xbdd070c4	-0.10177758
118	0xbd36582c	-0.04451768
119	0x3cb4fa4b	0.022092005
120	0x3db8a8e9	0.09016592
121	0xbb61921d	-0.0034419366
122	0x3d04773b	0.03234027
123	0x3eb01079	0.34387568
124	0x3ea7c208	0.32765222
125	0xbd1f5780	-0.038901806
126	0x3d5459c8	0.051843435
127	0x3d3f8cd7	0.046765175
128	0x3b1a4626	0.0023540347
129	0x3e9d25c0	0.30692863
130	0xbe7b1930	-0.24521327
131	0x3d042623	0.032262933
132	0xbd1627ef	-0.036659177
133	0x3ec2c090	0.3803754
134	0x3d070ef1	0.032973234
135	0xbead586c	-0.33856523
136	0x3e3ce56e	0.18446895
137	0xbe182ada	-0.14860097
138	0xbe97cf64	-0.29650414
139	0x3def72da	0.11691828
140	0xbe7e94ee	-0.248615
141	0x3d9fe018	0.07806414
142	0xbedef113	-0.435433
143	0xbd1b0ba5	-0.037852902
144	0x3bc25a20	0.005931154
145	0x3e5b34cc	0.21406859
146	0x3e98cf9c	0.29845893
147	0x3df63a3f	0.12022828
148	0x3e1b3ffa	0.15161124
149	0xbf1963d1	-0.5991793
150	0x3d99f86f	0.07518088
151	0x3d17a848	0.03702572
152	0x3dcf3492	0.10117449
153	0xbf257742	-0.646351
154	0x3e433b4c	0.19065589
155	0xbe708c1c	-0.23490947
156	0x3eeee2bd	0.46657363
157	0xbf042ad1	-0.5162783
158	0x3e3dbda3	0.18529372
159	0xbe87feb1	-0.26561502
160	0x3d316018	0.043304533
161	0xbe5dfb14	-0.2167781
162	0xbd27500c	-0.040847823
163	0xbe503741	-0.20333578
164	0xbe21362e	-0.15743324
165	0x3e79ff49	0.2441379
166	0xbe51d7d3	-0.20492487
167	0xbcd957d9	-0.026531147
168	0xbcb0fd78	-0.021605238
169	0xbeab6840	-0.33477974
170	0x3e146c63	0.14494471
171	0xbe1305b5	-0.14357646
172	0x3eadcb48	0.33944154
173	0x3e712f01	0.23553087
174	0x3e79f89c	0.24411243
175	0xbdd67c17	-0.10472887
176	0x3f1d04e1	0.6133557
177	0x3d3497fa	0.04409025
178	0xbc6b39da	-0.014357055
179	0x3be2097c	0.0068981033
180	0xbdacde1b	-0.08440801
181	0x3ec31aa8	0.38106275
182	0x3ec24368	0.37942052
183	0xba8a09dc	-0.0010531503
184	0x3e0b2d44	0.13591486
185	0xbcf9c774	-0.030490614
186	0x3ee5ca5b	0.44880947
187	0x3de62faf	0.11239564
188	0x3ea1b3b8	0.31582427
189	0x3e134eed	0.14385577
190	0x3f176cbf	0.5915031
191	0x3dc1eb16	0.09468667
192	0xbd8c035a	-0.06836577
193	0x3d2bd7d6	0.041953884
194	0xbec40d88	-0.38291574
195	0xbebe72e5	-0.37197033
196	0xbdded0b3	-0.1087965
197	0x3d8515c6	0.064982936
198	0xbf21e237	-0.632358
199	0x3e77a0cd	0.24182434
200	0x3e393377	0.18086039
201	0x3cc3535f	0.023843465
202	0xbe9c59f2	-0.30537373
203	0xbdb3ef5e	-0.0878589
204	0xbe1ae5d6	-0.15126738
205	0x3e664719	0.22488059
206	0x3e24a21d	0.16077466
207	0xbdc267a7	-0.09492426
208	0xbdb0555e	-0.086100325
209	0x3e4cb720	0.19991732
210	0x3e267969	0.16257252
211	0xbe88d98b	-0.26728472
212	0x3cd32361	0.025773706
213	0x3e26ff3b	0.163083
214	0xbee75443	-0.45181474
215	0x3eca6a22	0.39534098
216	0x3cca1a61	0.024670782
217	0x3d3609de	0.044443004
218	0xbd6a6670	-0.0572266
219	0xbf21999e	-0.63125026
220	0xbdd8ac83	-0.10579779
221	0x3d917b73	0.07103624
222	0xbe48922c	-0.1958701
223	0xbe74ff60	-0.23925543
224	0x3e824ca2	0.2544909
225	0xbeb588ef	-0.35456035
226	0x3d87e093	0.06634631
227	0xbf14093c	-0.5782659
228	0x3e964f78	0.29357505
229	0x3de4377f	0.111433975
230	0xbdddba64	-0.10826567
231	0xbebdbd65	-0.3705856
232	0xbdbada67	-0.09123688
233	0xbec9b6ac	-0.3939718
234	0x3e6c4cde	0.23076198
235	0xbe398787	-0.18118106
236	0x3e2c58f8	0.16830814
237	0xbc041760	-0.008062214
238	0x3de55313	0.11197486
239	0x3da39e2a	0.07989152
240	0x3e6ce386	0.23133668
241	0x3d2bde51	0.041960064
242	0x3e48393a	0.1955308
243	0xbc992bcf	-0.018697647
244	0x3da63299	0.081151195
245	0x3e60f55d	0.21968599
246	0x3e4d9cb3	0.20079307
247	0xbe998451	-0.29983762
248	0xbebc2792	-0.3674894
249	0xbeacfd15	-0.33786836
250	0xbd078be8	-0.03309241
251	0x3ded6a7b	0.11592575
252	0x3e3f1c33	0.18663101
253	0x3dff190e	0.12455951
254	0x3d572c6c	0.0525326
255	0x3e414ae7	0.18876229

critic2.2.bias f4 [64]
0	0xbef6db78	-0.48214316
1	0x3f7ad2dd	0.97978
2	0x3f0d6333	0.5522949
3	0xbe9e7755	-0.30950418
4	0x3f19e22a	0.60110724
5	0x3f3def91	0.74193674
6	0x3f25c417	0.64752334
7	0x3f3bf39a	0.7341858
8	0x3f2bf5b7	0.67171806
9	0x3f3d7270	0.7400274
10	0x3df74cbf	0.12075185
11	0x3f5af4c6	0.85529745
12	0x3ee70316	0.45119542
13	0x3f7222ca	0.94584334
14	0xbebe543c	-0.3717364
15	0x3eae83bb	0.34084877
16	0x3f516f19	0.81810147
17	0x3f2cbcb9	0.6747547
18	0x3f654526	0.8955864
19	0x3f375431	0.7161284
20	0xbf1a62a1	-0.60306746
21	0x3f1ca684	0.6119158
22	0x3f39b6a9	0.7254434
23	0x3f241c34	0.64105535
24	0x3ef47142	0.4774266
25	0xbea18749	-0.31548527
26	0xbe96eb02	-0.29476172
27	0x3f74e8b4	0.95667577
28	0x3f2508e0	0.6446667
29	0x3f1b0c00	0.60565186
30	0x3ed981c8	0.42481828
31	0x3f8aca79	1.084304
32	0x3f43c497	0.7647185
33	0x3f7e2428	0.9927392
34	0x3f404a00	0.75112915
35	0x3e75cac5	0.24003132
36	0x3f28bca3	0.65912837
37	0x3f362400	0.7114868
38	0xbecaea75	-0.39632002
39	0x3f302e39	0.6882053
40	0x3f0fbda9	0.56148773
41	0x3f088d91	0.53341013
42	0x3f55c9eb	0.8351123
43	0x3f71ce42	0.9445535
44	0xbf154ecc	-0.5832336
45	0x3d9493a0	0.0725472
46	0x3f3d2e95	0.73899204
47	0xbe87da08	-0.26533532
48	0x3f4e1c7c	0.80512214
49	0xbee7e85f	-0.45294473
50	0x3f400426	0.7500633
51	0x3ec1cc56	0.37851208
52	0x3f167775	0.58776027
53	0x3f8e03ac	1.109487
54	0x3f882f3c	1.0639415
55	0x3f3a56ae	0.7278851
56	0x3e70dd62	0.23521951
57	0xbee818fd	-0.45331565
58	0x3f05e4d6	0.523023
59	0x3f1947d2	0.59875214
60	0xbf068f11	-0.5256205
61	0x3efc9e8c	0.49339712
62	0x3e78c701	0.24294664
63	0x3fada341	1.3565446

critic2.4.weight f4 [64, 64]
0	0x3c8450b2	0.01615176
1	0xbdf35fcc	-0.11883506
2	0xbece1a99	-0.40254667
3	0xbec1666e	-0.3777346
4	0x3dd36824	0.103225976
5	0xbe9d0234	-0.30665743
6	0xbf2fc22d	-0.68655664
7	0x3f6804d7	0.90632385
8	0x3cbec27e	0.0232861
9	0xbeacc71d	-0.3374566
10	0x3e87a7a1	0.26495078
11	0xbf2182ca	-0.63090193
12	0xbd80145d	-0.06253884
13	0x3dd80273	0.10547342
14	0x3dfed039	0.12442059
15	0x3dc6ee92	0.097134724
16	0x3f060f45	0.5236705
17	0xbd42d4bb	-0.047566157
18	0xbbda3ff6	-0.006660457
19	0xbeb0714c	-0.3446144
20	0x3e9910c6	0.2989561
21	0x3efbec41	0.49203685
22	0x3ed6f457	0.41983292
23	0xbe9862f0	-0.29762983
24	0x3f2c3861	0.6727353
25	0x3d80388e	0.06260787
26	0xbe92f986	-0.28705996
27	0xbd886008	-0.066589415
28	0x3dac3e0d	0.08410273
29	0x3e6ca93a	0.2311143
30	0xbeab3409	-0.33438137
31	0x3e769f25	0.24084146
32	0x3e77ceaf	0.24199937
33	0x3c17c5b1	0.009263442
34	0xbf33e45d	-0.7027033
35	0xbc215274	-0.0098463185
36	0xbea76d7d	-0.3270072
37	0x3e910611	0.2832494
38	0x3df62eb0	0.12020624
39	0x3ec08aeb	0.37605986
40	0xbeb82abc	-0.35970104
41	0xbf451fa2	-0.7700139
42	0x3e34a1ee	0.17639896
43	0x3e71ea0b	0.23624437
44	0xbe846ec6	-0.25865763
45	0xbf2d02be	-0.6758231
46	0xbdeec2c9	-0.11658246
47	0xbe061960	-0.13095617
48	0xbf182212	-0.5942699
49	0xbe9b1633	-0.30290374
50	0x3ec0a704	0.37627423
51	0x3e3df032	0.18548658
52	0x3d30f5ec	0.04320328
53	0x3e8aeeed	0.2713541
54	0x3e993418	0.29922557
55	0xbec5f2b5	-0.38661733
56	0xbe025c99	-0.12730636
57	0xbf6a7cd7	-0.9159674
58	0xbdbc5413	-0.091957234
59	0xbec2eb63	-0.3807021
60	0xbf2f86ba	-0.6856495
61	0x3e8874bd	0.26651564
62	0xbe0c246b	-0.13685767
63	0xbebf8ba6	-0.3741123
64	0xbe619c8c	-0.22032374
65	0xbd1259e8	-0.035730273
66	0x3d0bb77b	0.034110527
67	0x3ebffa5e	0.37495703
68	0x3ee432ab	0.44569907
69	0xbe8e057e	-0.27738565
70	0x3e01bd02	0.12669757
71	0x3dd3215a	0.10309096
72	0x3d78be33	0.060728263
73	0x3e57bb64	0.21067578
74	0xbebae4f9	-0.36502817
75	0xbef62bd0	-0.480803
76	0x3dccf751	0.10008109
77	0xbe8b58d0	-0.27216196
78	0x3eae122c	0.3399824
79	0xb9e6a753	-0.00043993685
80	0x3ea15363	0.31508932
81	0x3e31cbf9	0.17362966
82	0x3d2086f4	0.0391912
83	0xbf2fd380	-0.686821
84	0x3e9dea30	0.30842733
85	0x3e18c75d	0.14919801
86	0xbde69170	-0.11258209
87	0xbe9be1e5	-0.3044578
88	0xbe4ccf22	-0.2000089
89	0x3e45fbf8	0.193344
90	0x3e90bb45	0.28267875
91	0xbbca3758	-0.0061711483
92	0x3e13d33b	0.14436047
93	0xbe86b2e1	-0.2630835
94	0x3eb63fab	0.3559545
95	0x3d9746c6	0.07386546
96	0xbe812a93	-0.25227794
97	0xbe28bb1f	-0.16477631
98	0xbcd855d0	-0.026408106
99	0x3ebb7cf5	0.36618772
100	0x3ce10e32	0.02747259
101	0xbe98a9e8	-0.29817128
102	0x3ed39b92	0.41329628
103	0xbf199417	-0.5999159
104	0xbe6e2df1	-0.23259713
105	0x3e6ca80c	0.2311098
106	0x3ea5dc4f	0.32394645
107	0x3e0b3a84	0.1359654
108	0x3dbf0b8a	0.09328373
109	0xbe6bf105	-0.2304116
110	0xbdf86a1d	-0.121296145
111	0x3df9626b	0.12176975
112	0xbf1eb730	-0.6199827
113	0x3d607b1f	0.054804917
114	0xbe8ad35f	-0.27114388
115	0xbe61df47	-0.2205783
116	0x3df25978	0.11833471
117	0xbd82a417	-0.06378954
118	0xbddb269f	-0.10700726
119	0x3dd18e0e	0.10232173
120	0xbd270493	-0.040775847
121	0x3ef1c0b5	0.47217336
122	0x3dc980d7	0.098390274
123	0x3e976689	0.29570416
124	0x3eaf8c8b	0.34286913
125	0x3f13db64	0.5775664
126	0x3ed07ddf	0.40721032
127	0x3e722aef	0.2364919
128	0xbd167286	-0.03673031
129	0x3ec15813	0.37762508
130	0xbefd8bfe	-0.49520868
131	0x3e8a4d68	0.2701218
132	0x3e3b95b4	0.18318826
133	0xbe84929a	-0.25893098
134	0xbe0fe752	-0.14053085
135	0xbe59f867	-0.21286164
136	0xbdb41c65	-0.08794478
137	0xbe1d27e1	-0.15347244
138	0x3def3b2a	0.116812065
139	0xbea3985b	-0.31952175
140	0xbd34f095	-0.04417475
141	0xbf9a9044	-1.2075276
142	0xbdc9396b	-0.09825405
143	0xbe5913fe	-0.21199033
144	0xbec67273	-0.38759193
145	0x3ddfa777	0.10920613
146	0xbe3e795f	-0.18600987
147	0x3e00433e	0.12525651
148	0xbebaf8bf	-0.36517903
149	0x3eb3bc98	0.35104823
150	0xbd8f8364	-0.07007483
151	0x3d49ecab	0.04929797
152	0x3f0d8e80	0.5529556
153	0xbde02168	-0.10943872
154	0xbd81baca	-0.06334455
155	0xbe1d639f	-0.15370034
156	0xbf7abec0	-0.9794731
157	0x3ddf6283	0.109074615
158	0xbe968ed1	-0.29405835
159	0x3cfd1963	0.030895894
160	0x3ed9974d	0.42498246
161	0x3de10c82	0.10988714
162	0xbf004f05	-0.50120574
163	0x3d0db52b	0.034596603
164	0xbd344304	-0.044009224
165	0xbcff880e	-0.031192806
166	0xbdc5005e	-0.09619211
167	0xbef4c065	-0.47803035
168	0xbeff99ed	-0.49922124
169	0xbf310728	-0.69151545
170	0x3d20baf3	0.03924079
171	0x3e8335ea	0.2562707
172	0xbc2dae17	-0.010600588
173	0x3dba671e	0.09101699
174	0x3e9b90f5	0.3038403
175	0x3e10452b	0.14088885
176	0xbf522d4e	-0.8210038
177	0xbeb5c4fb	-0.35501847
178	0x3e31658d	0.17323895
179	0xbd440a87	-0.047861602
180	0xbe935f9d	-0.28783885
181	0x3e0c6489	0.13710226
182	0xbcd4f7dd	-0.025997097
183	0xbf35038b	-0.7070853
184	0x3cf75d9b	0.030196002
185	0x3ce9d671	0.028544636
186	0xbe8a7dbc	-0.27049053
187	0x3d08ce34	0.033399776
188	0xbda7acf9	-0.08187289
189	0xbd087f37	-0.033324447
190	0xbdae40ec	-0.085084766
191	0x3d6cc753	0.057807278
192	0xbe9668bc	-0.2937678
193	0x3e26e4b4	0.16298181
194	0xbd4a296d	-0.049355913
195	0xbdd43f14	-0.10363594
196	0xbe70ec9d	-0.23527761
197	0x3f0cf4df	0.55061144
198	0x3e3cbac7	0.18430625
199	0x3e270d41	0.1631365
200	0x3d232f4d	0.03984003
201	0x3f08b564	0.5340178
202	0x3f226d00	0.6344757
203	0x3dc6b716	0.097028896
204	0xbe2ecd78	-0.17070568
205	0x3f0b71d6	0.54470575
206	0xbf1456f4	-0.5794518
207	0xbe2e4263	-0.17017512
208	0x3e96876f	0.29400203
209	0x3e427739	0.18990792
210	0x3f0b895b	0.5450646
211	0x3cc52836	0.024067026
212	0xbe83f6d7	-0.2577426
213	0x3f116f4b	0.56810445
214	0x3eccfc4d	0.4003624
215	0x3e83b20f	0.25721785
216	0x3f0a861e	0.54110897
217	0xbeb1185d	-0.345889
218	0xbeb3a3ed	-0.35086003
219	0x3e814d8a	0.2525447
220	0x3eb6a9c7	0.35676405
221	0x3f21bf45	0.6318248
222	0x3e72f120	0.23724794
223	0x3e470ba0	0.19438028
224	0x3c57a325	0.013161455
225	0x3e631e95	0.22179635
226	0x3e6506fd	0.22365947
227	0xbc994fe1	-0.018714847
228	0xbc7da7ad	-0.015481872
229	0xbedff165	-0.43738857
230	0xbeb49bc8	-0.35275102
231	0x3b7dec8f	0.0038745736
232	0x3e6478ec	0.22311753
233	0x3ea38cbd	0.31943312
234	0x3d022849	0.0317767
235	0x3f0668e8	0.52503824
236	0xbebd7486	-0.37002963
237	0xbe015e70	-0.12633681
238	0xbdcdb271	-0.100438006
239	0xbeb55538	-0.3541658
240	0x3e47840e	0.19483969
241	0xbf0f25cf	-0.55917066
242	0x3f5d5e88	0.8647237
243	0x3eb1f496	0.34756917
244	0x3e84fd34	0.2597443
245	0x3f04f834	0.5194123
246	0x3eff434e	0.49856037
247	0x3e903bf7	0.2817075
248	0x3d5412bc	0.05177568
249	0xbe74144f	-0.23835872
250	0x3e190be2	0.14945939
251	0xbe5b7075	-0.21429618
252	0xbeff4729	-0.49858978
253	0xbe917d49	-0.28415897
254	0x3abe1088	0.0014500776
255	0x3d780805	0.060554523
