masac/model/simple_tag/agent_2/251_critic_params.pth (torch, 115263 bytes, 14 tensors)

critic1.0.weight f4 [64, 82]
000000 98 05 90 bd 71 d9 2c bd 47 ff 7f bc 84 7f 9e 3d
       -0.07032317 -0.042199556 -0.015624828 0.077391654
000010 ed 4a 60 be e1 1f e1 3d d6 3b b8 3d 1b d1 41 3e
       -0.21903582 0.109924085 0.08995788 0.18927424
000020 7a 5a 55 3e 58 42 ce bc b6 8d fe bd d8 b0 e4 3b
       0.20835295 -0.02517812 -0.12429373 0.006979089
000030 1f cb 68 3b 54 de 0b 3e 34 4a 27 be 8a 0c 20 3d
       0.003552146 0.1365903 -0.163369 0.03907446
000040 4a bb 86 3d 6f 4b 04 3d 0b 6b 05 3d fc a7 90 bd
       0.06578691 0.0322985 0.032572787 -0.070632905
000050 46 58 bb bd 05 75 08 bd 0b 71 48 3e a5 20 b6 3c
       -0.09147696 -0.033314724 0.19574372 0.022232363
000060 6f a6 76 be c4 56 73 bd 59 26 1c 3e 63 83 8f 3c
       -0.24086927 -0.059408918 0.15249003 0.017518705
000070 16 3b 09 be 7f 82 48 bc 29 79 57 3d eb 02 74 be
       -0.13401446 -0.012238144 0.05260578 -0.23829238
000080 0c c1 66 bd db dc cb 3d e8 f1 80 be 7e 9e af 3d
       -0.056336448 0.09954234 -0.2518456 0.08575152
000090 d2 96 e2 bd ac f0 15 be 9d 93 57 3e a6 38 7e bd
       -0.11063923 -0.1464259 0.21052404 -0.062065743
0000a0 0b c2 e2 3d c8 36 96 bd 82 63 d2 bd d9 22 fd 3c
       0.11072167 -0.073346674 -0.10272886 0.030900406
0000b0 ae 9e 54 3c eb 4b 3e be 8a c2 3b 3d de 12 53 3d
       0.012977285 -0.18583648 0.045839824 0.051531665
0000c0 98 59 c1 3d 5c 62 20 3e 09 92 d5 be 16 83 ab bd
       0.09440917 0.15662521 -0.41712978 -0.08374612
0000d0 0a f5 c4 be ab c8 cf bd 88 94 c4 3d 6c 69 7f bc
       -0.384682 -0.10145696 0.095986426 -0.015589099
0000e0 94 23 4c bd c1 8c d3 bd 26 7c de bd cb 5e 50 3d
       -0.049838617 -0.10329581 -0.10863523 0.05087165
0000f0 49 e3 55 be 88 f4 93 3d 31 27 b9 3c 11 15 08 bc
       -0.20887484 0.07224375 0.022601696 -0.008305804
000100 eb de ca 3c e1 dc 08 bc c1 13 ea ba dc da 16 3c
       0.024764499 -0.008353443 -0.001785867 0.009207454
000110 da 51 2e 3d df 84 4c bc 10 8b b4 3c ab 80 75 bc
       0.04255853 -0.012482851 0.022038966 -0.01498429
000120 3f ad 8b 3c c4 bd 10 bd e9 98 76 3c fd 52 b8 3c
       0.017050384 -0.035337225 0.015051105 0.02250051
000130 a5 0a 81 bd 99 bb 9a ba 64 b1 9b 3c 68 56 58 bc
       -0.063008584 -0.0011805176 0.019005485 -0.013204195
000140 d6 1b 50 bb 81 4c 5f bc 79 2d d1 3d 3e 8a 50 3c
       -0.0031754873 -0.01362908 0.10213751 0.012728272
000150 f7 9b 85 3e 56 55 48 3e e8 2c a8 bd c5 f8 78 3e
       0.26095554 0.19563803 -0.0821169 0.24313648
000160 4e 06 28 be b4 a4 3e bd 51 c5 ec 3c 3b 60 a7 3b
       -0.16408655 -0.046543792 0.028902682 0.005107907
000170 44 00 a0 3d 85 8d 9a 3d 95 92 15 3d 34 3b 89 bd
       0.07812551 0.07546524 0.036516745 -0.06700745
000180 03 82 01 3e da da 1a be 08 1f cd bc a1 6c 5b 3d
       0.12647252 -0.15122548 -0.02503921 0.053570393
000190 a4 19 ab 3e b6 42 8d 3e 91 71 9a 3e ae 20 f2 3d
       0.33418 0.2758996 0.3016477 0.118226394
0001a0 22 eb 91 be e8 81 5b be cb bb ef 3d b1 25 a8 3d
       -0.28499705 -0.21436274 0.117057405 0.08210314
0001b0 85 e5 43 3e d3 50 e3 3d 76 4b 61 bd 8c 67 0c 3d
       0.19130524 0.110994 -0.055003606 0.034278437
0001c0 e4 43 21 be 46 97 98 bd 54 36 dc 3d d8 9e 00 bd
       -0.15748554 -0.07450728 0.1075255 -0.031401485
0001d0 19 26 32 3e 8a 55 b3 3d b1 42 82 bd fa 0a 4c 3e
       0.17397346 0.0875655 -0.063603766 0.19926062
0001e0 b0 c0 b6 be 62 b1 2d be 69 64 52 bd 57 a0 f3 3d
       -0.35693884 -0.16962197 -0.05136529 0.11895817
0001f0 17 c6 00 be c6 b8 a5 3d c0 13 74 be 21 76 dd 3a
       -0.12575565 0.08091883 -0.23835659 0.0016896167
000200 a4 d9 1c 3e 94 81 c0 3c 21 5a db b8 e6 c7 11 3e
       0.15317398 0.023499288 -0.000104595216 0.14236411
000210 30 f4 b4 3e 3e 58 43 3e b8 08 3c 3e 16 e4 dc 3e
       0.3534255 0.1907663 0.18362701 0.43142766
000220 2c 8b a9 bd d9 6b da 3c 1f 0d a9 bd 61 e3 49 3d
       -0.08278498 0.026662754 -0.08254456 0.04928911
000230 e8 99 52 be 3a 3a 53 3a 43 1e f6 3d 5b 10 18 be
       -0.20566523 0.00080576877 0.12017491 -0.14849989
000240 8a 43 17 3d bd 8a 5a 3d 82 41 d9 bc d6 ee c5 bc
       0.036929645 0.053354967 -0.026520494 -0.024161737
000250 ab 9a 4b 3b a7 67 e9 3c 34 eb 91 bb ac 88 c8 bc
       0.003106753 0.028491808 -0.004453087 -0.024479233
000260 63 f9 8e bc 7f 39 22 bd d2 31 94 bb 28 cd 52 3d
       -0.017452901 -0.039605614 -0.0045225406 0.051465183
000270 11 69 a7 bc 2c 2f f5 bc 2f 90 c7 3c c1 2e 0f 3c
       -0.020435842 -0.02992972 0.024360744 0.008739174
000280 bd 03 60 3d 71 71 10 bd 38 4b 56 3c 4e bf c3 bb
       0.054691065 -0.035264436 0.013079457 -0.005973733
000290 55 16 df bd 3f 0e a4 3d 41 61 47 bd c6 51 50 3e
       -0.10892931 0.0801053 -0.048676733 0.20343694
0002a0 ad 88 f0 3e 37 6b c7 3e ac 06 a3 3d ae 54 ec be
       0.46979275 0.38948986 0.07960257 -0.46158355
0002b0 b1 cd 2d be af f3 2a be 75 e8 38 3c 5c 64 d3 bd
       -0.16972996 -0.1669452 0.011285891 -0.103218764
0002c0 b7 d0 32 3c 28 47 52 3c 89 2d 60 3e 3c 78 63 bd
       0.010914019 0.012834348 0.2189237 -0.055534586
0002d0 86 f5 f1 bc f5 9e f7 bc 1b 29 de 3d 74 45 63 3e
       -0.02953602 -0.030227164 0.10847684 0.22194463
0002e0 a2 a0 92 3e d9 0d 81 3e 0a dd fd bd a9 53 21 be
       0.28638178 0.25205877 -0.123956755 -0.1575457
0002f0 63 a1 78 be f1 7c 36 3e 8b 4b 88 3d 9d 06 50 3b
       -0.24280314 0.17821099 0.06655034 0.0031742223
000300 fc 26 31 3d 05 7a a3 3e 53 21 c9 3c e9 ee a6 bd
       0.04325007 0.3192903 0.024552023 -0.08151037
000310 02 0c 56 bd 37 9d 11 3e e6 b6 0b 3e 9c 4a d9 3e
       -0.052257545 0.14220129 0.13643989 0.42439735
000320 35 3e 1b 3f 93 2c a8 3e 7e 0a a1 3d 86 0a cf be
       0.60641795 0.32846507 0.07863329 -0.40437716
000330 d9 72 01 bc f5 26 da 3c 16 cc 65 be 90 87 99 3d
       -0.007900917 0.026629904 -0.22441134 0.074965596
000340 63 26 2d 3d 8f 45 b7 bd f8 99 1b be f7 07 a6 bd
       0.042272937 -0.08948814 -0.15195453 -0.08106988
000350 de b8 87 bd ca f3 f0 3d d9 25 de 3e f5 c8 6e 3e
       -0.066270575 0.11765249 0.4338825 0.23318847
000360 4c 47 29 3f c7 5e 0a 3f 28 5e 92 bd 25 e0 8e bd
       0.66124415 0.5405087 -0.07146865 -0.06976346
000370 0e 3b ae be 47 81 bc 3e f2 ce 24 bd 56 80 8a bc
       -0.3402943 0.3681738 -0.04023642 -0.016906898
000380 7c 17 61 be de 2d 5a 3e af 71 8c bc c9 55 98 bd
       -0.21981615 0.2130656 -0.017144052 -0.07438237
000390 68 e0 08 3d b4 25 29 3d f3 5b 83 bd cb 6e 05 3d
       0.033417135 0.041295722 -0.06414022 0.032576364
0003a0 16 97 0f bd c3 9c 26 3c 3b 78 26 bd 39 d9 13 bd
       -0.035056196 0.010169211 -0.040642004 -0.03609583
0003b0 a1 7f 51 bc 81 b4 18 ba b5 e4 52 3c bc bc 56 3d
       -0.012786777 -0.0005825237 0.012871911 0.052426085
0003c0 e1 76 79 bd aa 42 d0 3a fe da 05 3d 4d 58 3b 3c
       -0.060904387 0.0015889008 0.03267955 0.011434627
0003d0 f0 f9 87 bd 68 a1 60 3d a0 d0 1e be 3e 69 97 3e
       -0.06639469 0.05484143 -0.15509272 0.2957248
0003e0 17 0b 43 bc 3d ad 77 3e 4e f2 75 3e 79 28 c4 be
       -0.0119044995 0.24187179 0.24018213 -0.38312128
0003f0 ac 00 dc 3c 29 4b 7a bd 17 7c c5 3d f1 e2 52 be
       0.02685579 -0.061106835 0.09642809 -0.20594384

critic1.0.bias f4 [64]
000000 59 3c ee bf e5 e9 52 3f 55 87 99 3e 3f 35 75 bf
       -1.8612167 0.82388145 0.29986063 -0.9578437
000010 05 f0 38 3d cd 7e 9f 3f 22 7b c4 3f fa b7 08 bf
       0.045150775 1.2460572 1.5350077 -0.53405726
000020 08 3d ef 3f 0a de 2f 3f d0 7c 46 3f 16 18 83 3f
       1.86905 0.6869818 0.775342 1.0241725
000030 c5 91 66 3f 74 27 53 3f 8a e7 c6 3f ab b9 01 3f
       0.90066177 0.82482076 1.553941 0.5067393
000040 75 5b cc be b1 59 a7 3f 0b f6 b7 bd 5a 83 9f be
       -0.39913526 1.3074247 -0.08982476 -0.311549
000050 b5 1d f4 3e 8c 10 8a 3f 22 ee e6 3f a1 74 82 bf
       0.47678915 1.07863 1.8041422 -1.0191842
000060 c8 51 45 be 83 9c 44 3f 96 55 8d bd 7e 38 d6 3e
       -0.19269478 0.7680132 -0.0690109 0.41839975
000070 a8 bd da 3f ff 37 b1 3f 14 89 b6 bf 48 21 7a bf
       1.7089128 1.3845214 -1.4260583 -0.97707033
000080 c6 e4 8a bf d0 89 c8 3f d5 c8 88 3e 11 ac c0 3f
       -1.0851066 1.5667057 0.26715723 1.505251
000090 6d 49 3b be 07 61 33 3e 27 a5 af be 26 de 17 3f
       -0.18289728 0.17517482 -0.3430569 0.59323347
0000a0 41 6e e4 bd 72 73 dd be a1 ca d3 3f 01 d2 e0 bd
       -0.11153842 -0.4325214 1.6546212 -0.10977555
0000b0 c6 58 8c 3f 5f cb 88 be c1 f3 bb 3f 5f a2 bc 3f
       1.0964592 -0.2671766 1.4683763 1.4737052
0000c0 58 75 36 3e dc b4 96 3f f2 0c 16 3f 2c a3 94 3f
       0.178182 1.1773944 0.586135 1.1612296
0000d0 eb a8 be be 78 35 b1 3f 9d 96 88 3f 9d c1 f2 3e
       -0.3723825 1.3844442 1.0670964 0.4741334
0000e0 ed 35 c5 3e ef a9 6f 3e ed 82 cb 3f de 1f 6c be
       0.38517705 0.23404668 1.589933 -0.23059031
0000f0 d1 72 fb 3d 2f 0a 46 3f 96 cc 4c 3f 30 e8 28 be
       0.12277759 0.7735929 0.79999673 -0.16494823

critic1.2.weight f4 [64, 64]
000000 6a cb 3f 3e e8 5b b6 3d 00 90 f2 bd 6b 76 e4 3d
       0.1872994 0.089042485 -0.11843872 0.11155399
000010 b0 aa 0b 3f 90 5a 81 bd d9 4b 0f bc f4 d2 92 bf
       0.54557323 -0.063161016 -0.008746111 -1.1470628
000020 7e ae 6e 3d d9 23 4d 3e 61 f6 b1 3e e8 fb 10 bd
       0.058271877 0.20033206 0.34758285 -0.035396487
000030 d8 fc ca 3d 97 02 8d 3e 9e 28 02 3e 1c 9d 8d bd
       0.09911507 0.27541038 0.12710807 -0.06914732
000040 24 cc b9 bd ca 0e 0c 3f 8b 55 fd be ee 7f b3 3e
       -0.0907214 0.54710066 -0.49479327 0.3505854
000050 bb 5e 9e bc fb 21 29 be 72 a4 52 3e d5 04 b3 3e
       -0.01933228 -0.16516869 0.20570543 0.34964624
000060 ed 8d af 3d 7f 88 cb bd 47 43 45 bd 93 90 81 3d
       0.08571992 -0.09938144 -0.048159864 0.063264035
000070 ae 81 2b be ab f6 2c 3e d4 11 d5 be 58 ba 44 be
       -0.16748688 0.16890971 -0.41615164 -0.1921171
000080 23 7a b9 3e ee 34 9c 3e 74 72 3f 3e 49 44 c5 be
       0.36225995 0.30509132 0.18696004 -0.3852866
000090 33 0d 5d be ee 52 d2 bd dc aa eb 3d 3a 8e b1 bd
       -0.21587066 -0.10269724 0.11507198 -0.08669706
0000a0 56 f4 c5 bd a4 71 91 3e 42 5d 4b be a4 79 c5 be
       -0.09665744 0.28407013 -0.19859794 -0.38569367
0000b0 3b 12 74 3e ea 8a 8d be 55 8a 27 be 21 9f 15 3d
       0.2383508 -0.27645046 -0.16361363 0.03652871
0000c0 7b fa 86 bb 5c 54 e5 be 67 0f 01 3e 77 a4 d4 3c
       -0.004119215 -0.44790924 0.12603532 0.02595733
0000d0 30 a4 dc 3e 96 be 7c 3d 98 24 3e be d2 73 a5 bb
       0.43094015 0.061705194 -0.18568647 -0.0050492072
0000e0 fb d4 f3 bd 3d 0a 24 3e c8 c0 ef 3d 51 22 9f 3e
       -0.11905857 0.1601953 0.11706692 0.3108087
0000f0 a1 7c 91 be 0f 8f 2e be 7d 19 9a bd ba 3f cb 3e
       -0.28415397 -0.1704676 -0.07524393 0.39697057
000100 f5 85 52 be e8 0e a6 3c 92 9e a5 3c 33 d8 31 bc
       -0.20558913 0.02027078 0.020217214 -0.010854769
000110 a1 6b 2b 3d cf 69 9b 3d 42 fb 12 3d dc c8 b8 bd
       0.04185069 0.07588541 0.03588415 -0.09022686
000120 7b 0e 96 3d dc b1 02 3d f2 02 5a bd 9e 78 dc bd
       0.07326981 0.0319079 -0.053225465 -0.107651934
000130 6f 5a ab 3e d1 fb 21 3b 82 80 6d 3d 44 3b b6 bd
       0.33467433 0.0024716745 0.057983883 -0.08898023
000140 2d 07 a3 bd 6a 84 d3 3c ca 73 50 bb 3c b1 f1 3b
       -0.07960353 0.025819976 -0.0031807297 0.0073758643
000150 b0 56 d3 3c 0c 0d 68 bd 19 5f 90 bd 4d 37 40 3c
       0.025798172 -0.056653067 -0.070493884 0.011731935
000160 0b ec 05 bc a4 27 59 3d cb 42 05 3b 51 9b 5c bc
       -0.008173953 0.05301632 0.0020334001 -0.013464765
000170 fe 97 c2 3b 42 16 a3 3d 3b ba cb bb d6 f7 40 bd
       0.005938529 0.0796323 -0.0062172688 -0.047111355
000180 0c 3b 2c bd c7 58 ce 3d 03 86 62 bd 3b 76 17 3d
       -0.0420485 0.10075527 -0.055303585 0.036977988
000190 ef da 85 3d 6c ff 8b 3d cd 6d a1 bd ae 9c ab 3d
       0.06535899 0.06835827 -0.07882271 0.08379494
0001a0 07 1e 3d c0 f4 f8 18 bd ae 07 f4 3e 82 01 92 3c
       -2.9549577 -0.037346795 0.4766211 0.017822985
0001b0 64 73 2e 3e b2 b0 27 bd 46 3b 9a bb e3 ac 0c be
       0.17036206 -0.040939994 -0.004706773 -0.13737826
0001c0 2b 15 11 c0 19 51 6e bd b2 8d ef 3e 85 f2 07 3a
       -2.266917 -0.05818281 0.46787792 0.00051859795
0001d0 41 a6 4d 3b 4f 73 31 bd de eb 10 3e e1 ee d1 3d
       0.0031379613 -0.043322857 0.14152476 0.10250641
0001e0 10 83 bd bf 1a 0c da 3c 37 cd 64 be 42 fa 4e 3b
       -1.4805622 0.026617099 -0.22343908 0.003158227
0001f0 0e f6 05 3c 0f 53 1f 3d f1 45 6b be b8 e9 11 3d
       0.00817634 0.03889757 -0.229759 0.035623282
000200 bd a5 84 be 13 3a a7 bd 0f 97 ae be 16 d2 82 bd
       -0.25907698 -0.08165374 -0.34099624 -0.06387727
000210 ca 68 0c 3e 45 a2 ff 3e ee 38 7d 3e c0 30 e1 bc
       0.13711849 0.4992849 0.24728748 -0.027489066
000220 75 66 aa 3c f9 0a 3e bd 12 39 85 3e e0 98 4e bd
       0.020800808 -0.046397183 0.26020104 -0.05043876
000230 0d 70 ab 3e 7b 03 6b 3b 12 20 18 bd d5 70 0c 3f
       0.33483925 0.0035860229 -0.03713996 0.5485967
000240 72 b4 f1 3e b4 52 5d 3e 70 8e c0 be 19 6d 1a be
       0.4720798 0.2161358 -0.3760867 -0.1508068
000250 06 24 e9 3e 77 02 cf 3d 51 6d bf be 3d 88 ef 3d
       0.45535296 0.10107892 -0.3738809 0.11695907
000260 2b 8c c7 3e 76 fd a3 3d 92 56 44 3e ab c0 03 bd
       0.38974127 0.08007328 0.19173649 -0.032166164
000270 6b 1e 1c 3d 69 47 dd 3d 03 1b 18 bf 8c a2 72 be
       0.038114946 0.10804636 -0.59416217 -0.23694819
000280 0d 0f f7 bd b4 80 f4 3d 44 48 a9 be ab ff 6d be
       -0.120634176 0.11938611 -0.33062947 -0.23242061
000290 7a ff 01 3e 64 ab 61 be c5 7b 06 be ee b3 62 be
       0.12695113 -0.22038037 -0.13133152 -0.2213895
0002a0 41 53 9a be 60 39 48 be b2 c7 42 3e 5f e5 f9 bd
       -0.30141643 -0.19553137 0.1902149 -0.12201952
0002b0 1d 93 9c 3d 55 d8 a2 be 1c 96 a2 3d 0f a4 0c be
       0.07645247 -0.31805673 0.07938787 -0.13734458
0002c0 b0 ea 2d be b8 e4 b0 bd 01 c9 8e 3e ec 10 2b 3e
       -0.16984057 -0.08637375 0.2788773 0.16705674
0002d0 69 86 ce bd cd 7e 00 3e 2c 41 03 3d c8 54 25 3e
       -0.100842305 0.1254837 0.032044575 0.16145623
0002e0 15 64 66 be ca 48 08 3f c9 c2 70 3e 85 7d b2 3e
       -0.22499116 0.5323607 0.23511805 0.3486139
0002f0 ab 12 ab be e0 b5 64 3e 64 77 39 bd ea d3 49 bd
       -0.3341268 0.22335005 -0.045279875 -0.049274363
000300 2c 39 8f be 84 81 d5 3c 6b 80 64 bd 3e a7 6c 3e
       -0.27973306 0.026062734 -0.05578653 0.23110673
000310 9a ed 9e bd 30 90 06 3e b6 3e 73 3e 90 ed 86 be
       -0.07760163 0.1314094 0.23754391 -0.2635312
000320 c3 f2 60 3d fe 6d 77 3e 87 37 83 3e a2 71 88 bd
       0.054919016 0.24163052 0.25628302 -0.06662299
000330 a9 ad 4a 3e 5f 78 0d bd b9 92 a5 3d d2 bb 66 bd
       0.19792809 -0.034538623 0.08084626 -0.056331463
000340 55 cc b0 bd 65 e5 c9 3d 7f c7 2a 3e f6 d8 8a be
       -0.08632723 0.09858207 0.16677664 -0.27118653
000350 c3 86 6a 3d d4 90 e1 3d 20 1a a6 3e 6f 7e e5 3d
       0.057257425 0.11013952 0.32441807 0.11205756
000360 bf 6a 41 be f1 69 43 be 07 72 71 3d b9 c7 3f 3b
       -0.18888377 -0.19083382 0.058946636 0.002926333
000370 df 8c 0e be 6b b0 47 be 1c 72 29 be 74 1f 3f 3e
       -0.13920926 -0.19500892 -0.16547436 0.18664342
000380 01 ac 32 3d 40 7c ba 3e fd ad 2f 3b 57 17 98 3d
       0.043621067 0.3642292 0.0026806586 0.07426327
000390 f6 81 55 bd b9 c3 ba 3e dd a1 ca bc 3e a2 1a 3e
       -0.052125894 0.3647745 -0.024735386 0.15100953
0003a0 f3 81 4d be 4f f7 a7 be e2 63 06 3e 4a 3e 25 bf
       -0.20069103 -0.3280587 0.1312404 -0.6454817
0003b0 e2 9b 92 3e 85 a8 10 be 34 2a bc 3e a3 9d 4e be
       0.28634554 -0.14126785 0.36750948 -0.20177321
0003c0 aa a2 ff 3d 65 d4 a0 be 9e 60 39 3e de 59 16 be
       0.124821976 -0.31412044 0.18103263 -0.14682719
0003d0 5f e7 d6 bd f1 b0 3d 3e 3c 97 41 3e 4a f1 ec 3c
       -0.10493349 0.18524529 0.18905348 0.02892365
0003e0 5b f6 c8 3d 92 a4 12 be d4 8a 13 be fa 26 de bc
       0.098126136 -0.14320591 -0.14408427 -0.027118195
0003f0 55 ed 85 3e 4e c8 3c 3e fc 3c 94 bd 1f b6 7e be
       0.26157632 0.18435785 -0.07238194 -0.24874161

critic1.2.bias f4 [64]
000000 bd 22 41 3f c6 31 10 3f 6e 7d 48 3f bc de 3f 3f
       0.7544363 0.5632595 0.7831639 0.7494924
000010 17 84 2b bf 0e d8 50 3f c0 27 80 3f 91 29 03 3f
       -0.6699843 0.81579673 1.0012131 0.512353
000020 3c 0f 84 3f 51 28 99 3f 0d e2 71 bf 8d 1c 6d 3f
       1.0317149 1.1965429 -0.9448555 0.9262169
000030 fe f5 2f 3f 5f 9b 7f 3f 95 fd fb 3e 43 a0 3a 3f
       0.6873473 0.9984645 0.49216905 0.7290079
000040 83 c5 75 3f 8f b8 a0 3f 6f 88 12 bf 18 15 24 be
       0.96004504 1.2556323 -0.5723943 -0.16023672
000050 90 24 2a 3f d2 63 9a 3f f6 8f 72 3f cd f6 8c 3f
       0.6646204 1.2061713 0.94750917 1.1012818
000060 7a 0e 11 3f ab bf d9 3e 41 6e 93 3f 76 ca 73 3f
       0.56662714 0.42529044 1.1518022 0.95230806
000070 f7 63 02 3f dc 36 99 3f 3a d5 a0 3f 25 68 73 3f
       0.50933784 1.1969867 1.2565072 0.95080787
000080 a0 11 a7 3f 53 f7 fb be 69 3a 43 3f da 7a 44 3f
       1.3052254 -0.4921213 0.76261 0.76749957
000090 be d2 1b 3f bb 29 3c be d6 fb cc be de 0b 1f 3f
       0.6086844 -0.18375294 -0.40035886 0.6212748
0000a0 f7 6a 1e 3f 19 03 b9 3f 0b b5 8f 3f aa 4d 31 3f
       0.61881965 1.445407 1.1227125 0.6925913
0000b0 35 b8 84 3f 95 26 82 3f 87 c8 87 3f 1c 6e 8b 3f
       1.0368716 1.0168024 1.0608071 1.0892978
0000c0 d3 5c 95 3f 8a 5b 8a 3f dd 7f cd bd 4f f3 e0 be
       1.1668953 1.0809186 -0.100341536 -0.4393563
0000d0 9d 3e 74 3f 27 5f 08 bf 29 6b da 3e 31 29 55 bf
       0.9540804 -0.5327019 0.42659882 -0.8326598
0000e0 02 cb 08 bf 7c 50 81 bf f9 72 06 3e 4a b2 55 3f
       -0.53434765 -1.0102687 0.13129796 0.8347517
0000f0 2f 91 6f 3f df 7f 3a 3f 91 66 40 bf 34 7b 95 3e
       0.9358091 0.72851366 -0.75156504 0.2919556

critic1.4.weight f4 [64, 64]
000000 2f b3 f0 be 89 8d d3 be 00 fc 59 3c 4a 93 41 be
       -0.47011706 -0.4131892 0.01330471 -0.18903843
000010 67 28 a2 be 6c f8 5d 3d 0c e6 6c bf 27 ae 09 3f
       -0.3167145 0.05419199 -0.92538524 0.5378136
000020 96 b2 20 3e 20 37 90 3e e6 7a 25 3e cb a7 a2 be
       0.15693125 0.28167057 0.16160163 -0.3176864
000030 25 a3 81 3e 58 29 0f be dc eb a7 3c bc 7a d6 bf
       0.25319782 -0.13980615 0.020498209 -1.6756206
000040 27 b8 dc be 49 0b 95 bf 9a c6 54 3e 88 8f b8 3f
       -0.43109247 -1.1644069 0.20778885 1.4418802
000050 6e 56 81 3d b1 35 4b 3f a7 62 1e 3d 99 49 7a bf
       0.06315313 0.793788 0.0386683 -0.9776855
000060 27 12 13 bd a3 54 a4 3e c3 1f 2e 3e dc cb 2c 3f
       -0.035905983 0.32095823 0.17004304 0.67498565
000070 55 72 45 3f 84 7e 07 bb 7e ac 8e 3e cb a5 c9 be
       0.7712758 -0.0020674774 0.27865976 -0.39384302
000080 46 b3 ad 3e 24 0d c3 be 71 be 80 3e fd ba 8a 3e
       0.33925837 -0.38095963 0.25145295 0.27095786
000090 6b db 67 be 59 ca f2 be 5b f9 71 3e bb d7 d6 3e
       -0.22642295 -0.47420004 0.23630278 0.41961464
0000a0 2c 30 6c be 50 8f 63 bd 2c d9 10 3f 20 6a c1 be
       -0.23065251 -0.055556595 0.5658138 -0.3777628
0000b0 56 df 94 3e 9a a5 0d 3e 1e 53 86 be 55 6a 01 3c
       0.29076642 0.13832703 -0.26235288 0.007898887
0000c0 24 3e da be ad 98 d7 be bd b9 41 be 6c 8c 50 3e
       -0.42625535 -0.4210867 -0.1891851 0.20366067
0000d0 e4 62 9e be ca ae 6a 3e 37 be 8d 3f 1f 29 04 3f
       -0.30934823 0.22918239 1.1073674 0.51625246
0000e0 a6 fd ee 3d 96 4b 7f bd 51 0d 3d 3e b3 52 99 bf
       0.11669473 -0.062327944 0.18462111 -1.1978363
0000f0 03 57 f9 be 07 a1 09 be a7 6a d5 3e 3b b3 79 be
       -0.48699197 -0.13440333 0.41682932 -0.24384777
000100 be 36 0b 3f 8a 7c 20 3f 22 03 95 3e cf 88 24 3c
       0.54380405 0.6269003 0.29103953 0.010042383
000110 a4 11 93 bf c1 a8 75 3f 44 72 12 3f 75 19 ee be
       -1.1489758 0.95960623 0.57205606 -0.46503797
000120 a1 72 13 3d 99 48 ee 3d 0b e2 56 bf 30 7a 7b 3c
       0.03599799 0.11634941 -0.83938664 0.015348956
000130 88 30 ba bd e0 00 f0 3e a2 23 6c be c5 b0 20 3e
       -0.09091288 0.46875668 -0.23060468 0.15692432
000140 52 d8 d0 bd 2a 5c 68 bd d1 1a 27 bf ce 50 62 be
       -0.1019751 -0.05672852 -0.65275294 -0.22101137
000150 5c b6 68 bf 63 de 9b 3e 55 00 03 be 74 aa 66 3e
       -0.9090326 0.30443105 -0.12793095 0.2252596
000160 1e 93 8e bf 53 5f 0c 3f 02 68 16 3f 91 99 93 3e
       -1.1138647 0.54832953 0.58752453 0.288281
000170 d6 dc 09 bf f8 f5 4a 3e 41 2a 09 bd cc 30 99 3e
       -0.53852594 0.19820392 -0.033487562 0.29920042
000180 c7 17 01 3f bc 7d d7 be d7 c1 32 3e 25 ab b9 3e
       0.50426906 -0.42088115 0.17456757 0.36263385
000190 a9 1d 00 3e 63 79 39 bf 6b f3 81 be 06 53 29 3e
       0.12511314 -0.72450846 -0.25381026 0.16535577
0001a0 1d 5d b5 3d 68 f9 23 3e 60 53 09 3e ff f9 fb be
       0.088556506 0.1601311 0.13410711 -0.4921417
0001b0 84 d9 37 bc fd 04 f5 bb 98 2b 78 3d db 43 09 be
       -0.011221293 -0.0074774013 0.06058845 -0.13404791
0001c0 a2 d1 e8 bd 63 9b 7d 3e 19 d1 04 be 9e 8b 03 bf
       -0.11368109 0.24766307 -0.1297039 -0.51384914
0001d0 ae a2 fb bd 18 09 7e 3e fc 59 94 3e e8 e5 34 3e
       -0.12286888 0.24808156 0.28974903 0.17665827
0001e0 7a 96 2b bf f6 9f b5 be 94 24 12 40 e0 43 26 3e
       -0.67026484 -0.35473603 2.2834826 0.1623683
0001f0 eb 4e 40 be aa fa df bd 1a a7 12 bf f5 95 9c 3d
       -0.18780105 -0.10936482 -0.57286227 0.076457895
000200 13 8c 30 3e d3 68 4b 3f df 0e c7 3e af f7 0d be
       0.17240934 0.79456824 0.38878533 -0.13864015
000210 1e 03 3e be 42 2a 4e 3d ab a6 aa 3e da 58 71 be
       -0.18555877 0.05033327 0.33330283 -0.2356905
000220 66 3f a5 3d 37 90 f2 3d a4 03 ee be 38 22 4a be
       0.08068733 0.11843913 -0.46487153 -0.19739616
000230 43 db f6 3e f0 59 84 3e c8 40 63 bb 0b f4 04 3e
       0.48214158 0.25849867 -0.0034676064 0.1298372
000240 7f 4b 40 3e 70 0e fc 3d 56 83 a1 be d6 e6 f5 bd
       0.187788 0.12307441 -0.31545514 -0.12006919
000250 cd 03 d2 bc fc e3 6a 3e 13 a3 84 ba 98 63 05 3e
       -0.025636578 0.22938532 -0.0010119401 0.13026273
000260 e8 5e 8d be b7 9b 83 3e 1f 94 1a 3f 21 41 a6 3e
       -0.2761147 0.25704738 0.60382265 0.32471564
000270 a2 9a 15 be db b0 a2 3e 36 f9 45 3e 2f e3 4f 3d
       -0.14609769 0.31775555 0.19333348 0.05075377
000280 97 b0 d5 3e 35 55 88 be a9 27 e2 3c 25 23 07 3e
       0.4173629 -0.26627508 0.027606802 0.13197
000290 99 01 da 3e 49 08 b6 bd 06 da 71 3e 16 cc 23 3d
       0.42579344 -0.08888299 0.23618326 0.039989553
0002a0 0e a6 a6 bd a2 50 72 3e 73 36 a0 3e 81 70 b1 3e
       -0.08137141 0.23663571 0.3129154 0.34656146
0002b0 1f 6a 94 3d a5 1f 1d 3d c6 e3 c8 3d 81 50 ca 3e
       0.072468035 0.038360257 0.09809069 0.39514545
0002c0 ef 96 27 3d cb 01 0d 3c 85 07 17 3e 06 25 2c 3e
       0.040915426 0.0086063845 0.14748962 0.16810998
0002d0 e0 ac bc 3d 98 e3 4c bd 70 ab c7 3d 03 e0 cd be
       0.09212661 -0.050021738 0.09749496 -0.4020997
0002e0 70 87 b0 3d e4 14 f6 bd a5 30 f9 3f ba 2a 8b 3d
       0.08619583 -0.12015703 1.946797 0.06795259
0002f0 e4 6a b4 3d 81 e6 89 3c 69 59 c9 be c7 03 de 3d
       0.0880945 0.016833546 -0.39326027 0.10840564
000300 1d f3 99 3e 3c fc 3f 3f db 1e c4 3d e5 84 29 3d
       0.30068293 0.74994254 0.09576198 0.041386504
000310 c5 dd c1 be 05 81 b1 3e 8c 9c 02 3f 62 1f ea be
       -0.3786451 0.34668747 0.5102012 -0.45727068
000320 6f 4b d6 3d 3c ae 50 bd 38 47 ee be 12 c7 a0 bd
       0.104636066 -0.050947413 -0.4653871 -0.0785047
000330 ad af 5d 3e 3e 89 81 3d 32 0c 07 be 13 d8 86 3e
       0.21649046 0.06325005 -0.13188246 0.26336727
000340 da bf 4a 3e 3a da ac 3e bd af 25 be 27 3d 3a be
       0.19799748 0.33760244 -0.1618032 -0.1818739
000350 ca 81 8d bc 13 6c b0 3e 93 b9 94 bd f0 55 c7 3d
       -0.017273802 0.34457454 -0.07261958 0.09733188
000360 f3 56 3a be 2c 44 f2 3e c1 be 15 3f 88 d1 53 3e
       -0.18197231 0.47317636 0.5849419 0.20685399
000370 e8 f4 6a 3d 9c 43 ab 3e 3b 75 f9 3d 09 0a 9e 3e
       0.057362467 0.3345002 0.12180563 0.3086703
000380 dd c2 15 3f ce 2f 6d be 32 bc d2 3d b1 f2 29 3f
       0.5850046 -0.23162767 0.10289802 0.6638594
000390 43 5a 66 3e 50 a0 f5 bc b4 90 e6 bd e3 82 4d bc
       0.2249537 -0.02998367 -0.11258069 -0.012543413
0003a0 d3 b4 38 be 83 66 64 3e 19 55 16 3e c5 79 c0 3e
       -0.18037729 0.2230473 0.146809 0.37592903
0003b0 55 57 8c 3e 4a 55 58 3e 4c b0 e5 3e b6 17 19 3e
       0.2741038 0.21126285 0.44861066 0.14950451
0003c0 52 7f ef bd e8 d3 8e 3e db e8 5c bd 72 a9 35 bc
       -0.11694206 0.27896047 -0.053933006 -0.011087762
0003d0 dd 39 9c 3e d5 b6 81 be 17 0c 78 3e fb f0 d2 be
       0.30512896 -0.25334802 0.24223362 -0.41199479
0003e0 cf e1 96 bb b3 38 4d 3b 14 2e 0a 40 f1 30 86 3e
       -0.004604555 0.0031314313 2.1590624 0.26209214
0003f0 da 90 96 bd fb 30 de 3d 5f b8 d6 bd f9 9d 29 3e
       -0.07351847 0.10849186 -0.10484385 0.16564168

critic1.4.bias f4 [64]
000000 e8 ae f8 be 16 c2 22 3f 9b 73 2c 3f 4b 40 2c 3f
       -0.48570943 0.635774 0.673639 0.67285603
000010 71 c2 58 be b6 0b 1e 3f 91 70 48 3f 47 23 3b 3f
       -0.21167924 0.6173662 0.7829676 0.73100704
000020 7e 11 4c 3f 09 a4 40 3f 9d 2b 34 bf 2a 2c 44 bf
       0.7971419 0.752503 -0.7037905 -0.7662989
000030 a6 5f 18 be 7f 61 83 bf 20 bd 46 3f 05 6e 35 3f
       -0.14880237 -1.0264128 0.7763233 0.70871
000040 ea ae 79 bf d9 9b 50 3f 41 e3 2d 3f 12 a4 0e bf
       -0.9753252 0.81487805 0.67924887 -0.557191
000050 25 12 45 3f 1b ab 69 3f 69 47 65 3f 70 1d ca bd
       0.7698081 0.9127671 0.8956209 -0.09868896
000060 74 7f e4 bd cb 34 38 3e 0e 32 7b 3f ab 21 09 3f
       -0.11157122 0.17988889 0.9812325 0.53567
000070 7b 6c 2e 3f af 2f 6e be f6 ae 7b 3f e1 6e 4f 3b
       0.6813428 -0.23260377 0.98313844 0.0031651782
000080 3d a5 84 be b6 c3 63 3f 4d ce 40 3f f9 d1 6d 3f
       -0.25907317 0.88970506 0.7531479 0.9289852
000090 bd 37 86 35 af 59 a6 be 4b 84 2e 3f b5 09 5d 3f
       1e-06 -0.32490298 0.68170613 0.86342937
0000a0 e7 76 51 3c 15 10 62 bf 24 fe 31 3f ee 14 2a 3f
       0.012784696 -0.8830579 0.6952841 0.66438186
0000b0 e3 72 0a bf 4c 4b 3f bf de 76 51 3f cc 88 01 3e
       -0.54081553 -0.7472427 0.81822 0.1264984
0000c0 24 22 d3 3e cb 84 4f 3f ba 04 f9 be fe f4 5f 3f
       0.41236985 0.81062 -0.4863642 0.87483203
0000d0 23 39 5f 3f f0 8e 20 3f f7 a7 e1 be bc 57 3a be
       0.8719656 0.62718105 -0.4407346 -0.1819753
0000e0 75 ff b8 bd 58 8f ca 3e c7 8a 51 bf 9d 58 91 3e
       -0.090330996 0.39562488 -0.8185238 0.2838792
0000f0 25 ee c6 3e 96 1e c0 3b 13 43 31 3f 36 9d 14 3f
       0.38853565 0.005863021 0.6924297 0.58052385

critic1.6.weight f4 [1, 64]
000000 92 b3 cd bf ed d0 ef 3e c1 f7 74 3e 32 1f 81 3e
       -1.6070426 0.46839085 0.23922636 0.25219113
000010 c9 83 4a bf cc e6 d9 3d 39 9b 22 3e 4e 0f 97 3e
       -0.7910734 0.10639724 0.15879525 0.29503864
000020 79 c1 ab 3e 0a 75 90 3e ee 6f 9a bf 52 3a 3c bf
       0.33546045 0.28214294 -1.2065408 -0.7352649
000030 2a 64 16 c0 fd 28 e2 bf 5a 35 93 3e ba 9d 2d 3e
       -2.3498635 -1.7668759 0.28751642 0.16954699
000040 9b 80 c0 bf c9 3a db 3e bd 13 7b 3e 6f 23 7e bf
       -1.5039247 0.42818287 0.24519248 -0.9927282
000050 a3 59 af 3e d8 2c 8a 3e e8 de 70 3e 42 2a d1 bd
       0.34248075 0.26987338 0.23522532 -0.10213138
000060 8d 22 8c bf e1 a5 67 bf 69 45 b6 3e 05 8f 3f 3f
       -1.0948044 -0.90487486 0.3559983 0.74827605
000070 bb da 1d 3e 57 10 b2 bf d5 32 96 3e f3 a1 a2 bf
       0.1541547 -1.3911237 0.29335657 -1.2705673
000080 0d eb ed bf d5 ea dd 3e 9a cc 6c 3e d2 5a c4 3e
       -1.8587357 0.43343225 0.23124924 0.3835054
000090 13 91 1a 3e 59 eb 2e bf 2a bb 8d 3e b6 19 45 3e
       0.15094404 -0.6832786 0.27681857 0.19248089
0000a0 13 cf 36 bf 93 1b 90 bf f7 29 c5 3e da 7c 2f 3e
       -0.7140972 -1.1258415 0.3850858 0.17137471
0000b0 df 6d 12 bf 63 99 e5 bf 23 59 5e 3e 08 d4 97 bf
       -0.571989 -1.7937435 0.2171369 -1.1861582
0000c0 45 b3 77 3f 14 91 0f 3e 5c 0e 63 bf 42 a1 d0 3e
       0.9675792 0.14020187 -0.88693786 0.4074803
0000d0 55 f9 70 3e 17 b6 ce 3e bc 4e 78 bf 98 03 8b bf
       0.23532613 0.403733 -0.9699514 -1.0860472
0000e0 8b ea d5 bf 9f 73 8c 3f e7 38 69 bf 7a 15 c6 bf
       -1.6712202 1.0972785 -0.9110245 -1.5475304
0000f0 9f 3a 13 40 a5 0f 11 bf 6b 21 33 3e d2 3f 00 3f
       2.300453 -0.56664497 0.17493217 0.5009738

critic2.0.weight f4 [64, 82]
000000 0a 57 93 bc e1 6b b6 bc 9d b5 d9 bc e5 34 1e 3e
       -0.01798584 -0.022268238 -0.026575858 0.15449865
000010 97 d2 4c bc 28 49 69 3e 12 34 33 be c8 8a 86 be
       -0.01250138 0.22781813 -0.17500332 -0.26277757
000020 6f cc 26 3e 9b a9 d4 bd 12 de 99 bc d1 3e f1 bd
       0.16288923 -0.10383912 -0.01878265 -0.117795594
000030 90 c1 c3 bd 1a 48 f3 3d ea ac cf bc 50 16 fe bd
       -0.095584035 0.11878987 -0.025351007 -0.124065995
000040 18 0e f6 3c 86 2b 8c bd 1b 65 9d be ac 7d a6 3d
       0.030036017 -0.06844239 -0.307412 0.08129439
000050 56 ee f7 3d b1 99 71 3e b1 f5 fb bd ea 98 74 bc
       0.12106006 0.23593785 -0.12302721 -0.014929036
000060 d5 ed d7 3c d8 95 23 bd c7 30 a2 bc 02 2d bf 3d
       0.026358524 -0.039937824 -0.01979865 0.093347564
000070 7c 41 13 be 60 b4 53 3d 2d 18 04 bd 66 02 a2 bc
       -0.14380449 0.05168569 -0.03224962 -0.019776534
000080 8b 88 bd bb e2 97 0e bd 65 e5 32 bd 68 4b 9e bc
       -0.0057840995 -0.034812815 -0.0436758 -0.019323066
000090 f9 37 d5 3b b7 ca 67 3d 15 3b 18 bd 18 9b 04 be
       0.0065069166 0.05658981 -0.03716572 -0.12949789
0000a0 1d 35 33 bd 52 a0 b6 bd d2 24 29 3e 79 7d 9a 3d
       -0.043751825 -0.089172974 0.16517952 0.07543463
0000b0 8c c6 d1 bd 60 ae 0d 3d d4 ce 8b 3d d9 e2 6f 3d
       -0.10242948 0.034590125 0.06826559 0.05856595
0000c0 1f d9 9d bd ed 5d e4 3d b7 6a 9f bd a6 d0 dc 3d
       -0.07707428 0.111507274 -0.07784026 0.10781984
0000d0 e1 c6 0f 3e 4c 6c 0e 3e ed 75 4c be 91 81 1d bf
       0.1404071 0.139085 -0.1996686 -0.6152583
0000e0 84 f7 e6 bb fb cb 1d 3c e7 24 e9 3d cc 51 67 3e
       -0.007048549 0.009631152 0.11383992 0.22589797
0000f0 31 da d6 3c bc e5 1a 3c 15 3f 17 bc bb 1d 7c 3c
       0.026227089 0.009454187 -0.0092313485 0.015387948
000100 8b 6e 15 3c ff 0b 81 bc ac 64 f9 3b fb f4 d1 bb
       0.009120594 -0.01575279 0.007610878 -0.006407378
000110 af 58 14 3d b1 93 ec 3b 0e dc da bc a0 3b 02 3d
       0.036217388 0.0072197546 -0.026716258 0.031795144
000120 26 53 be 3c 03 9a 2e bc df 40 1a 3c a9 0b 25 bc
       0.023233008 -0.010656836 0.009414881 -0.010073581
000130 e1 2e 94 3c 1b 75 47 3c 5a 14 e0 3b 5d f3 09 3d
       0.01808876 0.012173916 0.0068383636 0.033679355
000140 49 ec 8a bb cd 81 4e bd 8d 3a 6d 3c 83 f9 f8 bc
       -0.004239593 -0.050416756 0.014479292 -0.030392414
000150 d0 07 99 bd 29 24 65 3d 2c 3d f7 3d 41 9d 92 3c
       -0.07472193 0.055942688 0.120722145 0.01789725
000160 ba 42 6a be 51 06 4f bd 38 5e ec bd 4d 17 ef 3d
       -0.22877017 -0.050543133 -0.11541408 0.11674366
000170 cc 2d 2b 3e 5b 0b ea bd b9 e4 a0 bd 0d 5e 3f 3e
       0.16716689 -0.11427947 -0.078561254 0.18688221
000180 27 43 38 be 29 97 50 3e f0 8d a0 bc 7b af 3e 3c
       -0.17994367 0.20370163 -0.019598931 0.0116385175
000190 9d 7f 4b bd 2b 38 a1 3e 5d 6c 4e be d5 fc ca 3d
       -0.04968225 0.31488165 -0.20158525 0.09911505
0001a0 05 22 04 3d 1f fe 08 3e 43 98 4a 3d 57 36 21 3e
       0.032259006 0.1337819 0.049461614 0.15743385
0001b0 0e ea fc bd 90 e5 f3 bc 82 ad 28 bc 83 9b 52 3d
       -0.1234933 -0.02977255 -0.010295274 0.05141784
0001c0 aa 5e 95 3d 7c 2a 85 bd 44 e6 f5 bb 22 dc 6b 3d
       0.07293446 -0.06502244 -0.0075042564 0.057582982
0001d0 82 e0 87 bc 3f ee 7f 3e 16 2c a1 3e 79 3c f8 3d
       -0.016586546 0.24993227 0.31478947 0.12120909
0001e0 22 d8 ca bd a8 43 6d 3e 55 5f 81 bd e2 00 1f 3d
       -0.09904505 0.2317034 -0.06317011 0.0388192
0001f0 8b 70 df 3d ae 57 15 bd a9 d5 36 3d 61 3e 36 be
       0.10910138 -0.03646057 0.044637356 -0.17797233
000200 8d 20 24 3d a5 e4 57 3d 33 49 f7 bc 82 e1 60 be
       0.040070105 0.052708287 -0.030186271 -0.21961024
000210 1c 4b 36 bd 55 3b 89 3e 77 c0 a4 3c 1c cd 37 3d
       -0.044505224 0.2680308 0.020111306 0.044873342
000220 58 e0 22 3c 0f a4 a3 bd d5 9e 7f 3d e9 e7 82 bd
       0.009941183 -0.07990276 0.062407333 -0.063918896
000230 1d e6 b2 bd e5 99 c8 ba 5a 24 8c 3d 21 d9 57 3d
       -0.08735297 -0.0015304653 0.06842871 0.052697305
000240 f0 69 64 3c 4a ab ec bc e9 7b a6 bb 20 9b c2 bc
       0.013941273 -0.02889027 -0.005080689 -0.02375561
000250 a3 9f ba 3c b1 da 7d 3c dd 27 dc bb 9a 39 1a bc
       0.022781199 0.015494035 -0.0067186193 -0.009413147
000260 bb e8 df bb ff c7 92 bc fc ae e5 bc 2e 7b ea 3b
       -0.0068331636 -0.017917631 -0.02803754 0.0071557974
000270 b7 6f bd bc 5e 3e a2 3c e3 85 af bc a4 68 4b bc
       -0.023124559 0.01980513 -0.021426147 -0.012415085
000280 a0 f9 d9 bc 52 63 c9 bc 8c 64 d7 3b 53 1a c8 ba
       -0.026608288 -0.024583492 0.0065732654 -0.0015266634
000290 d9 bc 57 bd 83 9b 05 3d fa 4e e3 be cc 43 c4 be
       -0.052670334 0.03261901 -0.44396192 -0.38332975
0002a0 83 ea d1 3c 51 19 3c 3c ed 89 85 be 43 30 a9 3d
       0.02562452 0.011480645 -0.26081792 0.08261158
0002b0 b6 a4 30 3d 79 60 08 be 3b 39 05 3e 8e 90 59 bc
       0.04312583 -0.13318051 0.13010113 -0.013279093
0002c0 37 26 a1 bb 31 3f 03 ba ee 1d d0 bd 89 68 eb 3d
       -0.0049178856 -0.00050066697 -0.10161959 0.11494548
0002d0 17 b2 e9 bc e2 fb 6c 3d f7 ac b7 be c7 bd b9 be
       -0.028527303 0.0578574 -0.3587415 -0.362776
0002e0 96 4c 46 3e c3 7d b6 be 23 4c 25 bf 04 e5 f5 bd
       0.19365153 -0.35642824 -0.645693 -0.12006572
0002f0 95 69 6c 3d 3b 9d ee 3d 86 5e 86 3d 92 8b 8d be
       0.05771788 0.11651083 0.06560998 -0.27645546
000300 25 0e 8d 3d c1 4a ba 3c cd c5 b7 ba 7b e8 44 be
       0.068874635 0.022740724 -0.0014020741 -0.1922931
000310 5a 5a 56 3d 17 43 6b bd 40 a0 aa be 86 93 94 be
       0.05233226 -0.05743703 -0.33325386 -0.290188
000320 26 58 cc 3d 27 06 70 be 18 1e 2b bf f8 fc 26 bd
       0.099777505 -0.23439847 -0.66842794 -0.040768594
000330 eb e1 0e be 93 27 25 3d d0 fe 06 3e 87 eb f7 3d
       -0.13953368 0.040320944 0.13183141 0.1210547
000340 50 ca 16 3b df a5 de bc 24 92 a4 3d 9d c1 66 bd
       0.0023008771 -0.027178703 0.080356866 -0.056336988
000350 9b ce e1 3d eb b4 aa 3d 64 ab fb be 52 48 28 bf
       0.11025735 0.083352886 -0.49154198 -0.6573535
000360 ea fa e0 bd 45 97 d2 be e7 66 09 bf cd bc 6c bd
       -0.10985358 -0.41131034 -0.5367264 -0.057797242
000370 c3 6b 9b bd 61 83 f4 3d 82 4f 1b be 67 76 02 bc
       -0.07588913 0.11939121 -0.15167049 -0.0079628
000380 4e 61 94 bd f9 65 88 3d 59 fd 28 3d f9 e7 ae bb
       -0.07245122 0.06660075 0.041257236 -0.005337712
000390 4e ae 25 3c 31 c1 33 3c e1 c3 14 bb 14 98 85 bb
       0.010112358 0.010971353 -0.002269976 -0.004076967
0003a0 e4 77 ad bc e7 9f 93 3b 09 18 86 bb 2b c3 05 bd
       -0.021175332 0.004505146 -0.0040922207 -0.03265683
0003b0 9e 59 23 3d 8e a2 3b 3d 25 48 ec bc e5 87 cd bb
       0.039880387 0.04580932 -0.028842995 -0.0062723034
0003c0 d7 73 22 3d 0e dd 86 39 33 a6 99 3d c8 61 91 bd
       0.039661255 0.0002572317 0.07502403 -0.070987284
0003d0 f9 21 b7 bc 5a cc 77 3c e7 93 17 bd 82 b3 67 3c
       -0.022355067 0.015124405 -0.037006285 0.014141919
0003e0 8c a8 14 be d6 84 b2 3e cd 00 8a 3e 80 0a 0f 3e
       -0.1451742 0.3486697 0.26953736 0.13968849
0003f0 c7 18 92 be e1 3d 5c 3e df de 0a bb b0 c4 05 be
       -0.2853453 0.2150798 -0.002118997 -0.13063312

critic2.0.bias f4 [64]
000000 e0 c4 ad 3f b1 61 db 3f 5a ac ae bb e7 c3 b1 3f
       1.3575706 1.7139188 -0.0053306045 1.388791
000010 4a c5 4c 3f 47 07 83 3f 2f 4a 73 3c ec 73 4f be
       0.7998854 1.0236596 0.01484923 -0.20259064
000020 5a d1 bb bd 53 e1 c1 3f a5 af ab 3c 71 f7 e4 3f
       -0.0917079 1.5146888 0.020957777 1.7888013
000030 01 d5 05 3f b0 f6 b2 bf d5 5f a3 3f d5 a9 96 3e
       0.52278143 -1.3981533 1.2763621 0.29426447
000040 8b ae 01 40 86 20 6f 3f 3e 43 26 3e c3 8a e9 bd
       2.0262783 0.93409 0.16236588 -0.1140342
000050 de af 50 3f b5 f0 92 be 8c 6f c1 3f 81 21 f6 3d
       0.8151835 -0.2869927 1.5112166 0.12018109
000060 55 7d 9a 3d 89 03 ac bf b9 42 c4 3f 1f 4a c6 3f
       0.075434364 -1.3438579 1.5332862 1.549137
000070 0b 62 9d 3f 1e a4 a4 3e 0d b1 5b 3f 6e 8f c5 3f
       1.2295545 0.3215646 0.85817033 1.5434396
000080 54 73 bd 3f 14 6a 5b bf e4 1a 4d bf a3 11 83 bf
       1.480082 -0.8570874 -0.80119157 -1.0239757
000090 9d a9 a3 3e 6d d4 84 3f 35 ae ba bd d2 de 0d bb
       0.31965342 1.0377327 -0.091152586 -0.0021647704
0000a0 ae a4 a4 3f d3 4e 8e 3e ce a5 1c 3f 70 ed 75 bf
       1.2862756 0.27794513 0.611905 -0.96065426
0000b0 1f 67 dc be 40 ed 9d 3c 42 91 ad 3e ce bc 0d 3e
       -0.43047425 0.019278169 0.33899885 0.13841555
0000c0 65 08 d3 3f c0 4b 9c 3e c4 ff 37 3f ca 6c 88 3f
       1.6486937 0.30526543 0.7187464 1.06582
0000d0 e5 1b dc bf eb 09 8c 3d e3 a6 3f be 73 51 bb bd
       -1.7196013 0.06837829 -0.18716006 -0.091463946
0000e0 0a 3e 57 bf b9 f6 db be 57 34 5a 3e 57 74 61 3f
       -0.8407904 -0.42961672 0.21309029 0.88068146
0000f0 39 58 96 bf 16 49 2f 3e 1a e4 03 bf 60 6b 1c 3f
       -1.1745673 0.17117724 -0.5151993 0.6110134

critic2.2.weight f4 [64, 64]
000000 8b 82 cb be 76 87 b4 3c e5 f4 78 3e 03 9e 46 bd
       -0.39748034 0.022037249 0.2431217 -0.048490535
000010 23 06 4d 3e 86 e9 c6 3e 00 e8 aa bd 91 e2 bf 3e
       0.20021872 0.3885004 -0.08345032 0.37477544
000020 19 54 24 3e 85 05 f0 3d a2 a4 af 3d 96 f9 b1 3b
       0.16047706 0.11719803 0.08576323 0.0054313643
000030 fc 06 42 3e 1f c5 45 be ee cf a0 3e 36 98 29 be
       0.18947977 -0.19313477 0.31408638 -0.1656197
000040 bd ed 1d 3e ec a7 81 be fe c8 1d 3d 54 50 a0 be
       0.15422721 -0.25323427 0.03852176 -0.31311285
000050 b9 70 f4 3e d6 ec b3 be 76 07 19 3e b4 95 2e 3e
       0.4774225 -0.3514163 0.14944252 0.17049295
000060 9a 5f f4 bd b7 46 08 3f ee 6a af 3d 18 a6 a7 3e
       -0.11932297 0.532329 0.08565317 0.32743907
000070 de 5e 8f bd 6d 43 b2 3d e1 b2 62 3d bc b2 78 3e
       -0.07000516 0.08704267 0.055346373 0.24286932
000080 77 8c c6 3e 50 0f 82 3d b5 4d b0 bd d1 2a 02 3e
       0.3877904 0.06350577 -0.086085714 0.12711646
000090 18 2d ae 3e 2c 6a 51 3e 09 35 43 be 90 8c 6a be
       0.3401878 0.20450658 -0.190632 -0.22905183
0000a0 35 82 cb bc d1 fa 17 3e 7a d9 a7 3e 07 c4 4d bd
       -0.024842361 0.14841773 0.3278311 -0.050235774
0000b0 ac ee 49 3e 5d e3 a7 3b 07 84 1b 3e 43 9b 04 3e
       0.19719952 0.0051235394 0.15187083 0.12949853
0000c0 1c f3 39 3d 1f bd b8 ba 5f 1e f3 3d f1 ca 7e be
       0.045397863 -0.0014094448 0.11871027 -0.24882104
0000d0 4f a5 f5 3e 78 49 4f be 23 db 5e 3d 6a 99 4e 3e
       0.47977683 -0.2024287 0.054408204 0.2017571
0000e0 1e 16 83 3e e0 3e 6a 3e a8 b6 57 3d 80 51 e0 bd
       0.25602812 0.22875547 0.05266443 -0.10953045
0000f0 c2 bc ab be ec 7b 81 3e 70 6c e4 bd 69 c7 64 3d
       -0.33542448 0.25289857 -0.11153495 0.055854235
000100 6f 98 e7 bd 45 c0 95 3e 06 1d bf bd f4 e8 9c 3e
       -0.11308371 0.29248253 -0.09331708 0.3064648
000110 e6 bb 3a 3e a2 76 02 3e 15 91 a5 3e 9b b9 4f 3e
       0.1823574 0.12740567 0.3233725 0.20285647
000120 06 de 1e 3e ef a0 ba bd 92 54 99 3d 7c 18 ec 3c
       0.15514383 -0.09112727 0.07486834 0.028820269
000130 38 38 8d be 64 e4 a5 bd 8f b9 60 3e 05 33 aa be
       -0.27581954 -0.08100203 0.21945785 -0.3324205
000140 0b 51 07 3e 00 7f 41 be 5e 32 66 3e 81 39 73 be
       0.13214509 -0.18896103 0.22480151 -0.23752405
000150 a7 84 46 ba 3d cc 3e be 06 80 99 bb 6d cc 2a be
       -0.00075728673 -0.18632598 -0.004684451 -0.16679545
000160 7b 3b cc bd 4a 7b b9 3e 26 99 00 bd 17 8c 1a 3e
       -0.099722825 0.36226875 -0.031396054 0.15092503
000170 82 fd dd 3a 1c 31 6b bd d5 72 b6 3d 49 52 89 3e
       0.0016936513 -0.05741988 0.08908621 0.2682059
000180 69 d7 9e 3e f8 64 c5 3d 11 ab 5c 3e 07 ec 2b be
       0.3102372 0.09638399 0.21549632 -0.16789256
000190 df 91 24 be 6c 79 4f 3d 44 92 35 be ff 9e d9 bc
       -0.1607127 0.050652906 -0.17731577 -0.026565073
0001a0 bc cb 2b 3e c4 6d 6f 3e 02 e0 20 be 2c ba d0 3c
       0.16776937 0.23381716 -0.15710452 0.025479399
0001b0 11 e6 22 bf dd 9c bb 3e 24 1c 99 be 19 1b d0 bd
       -0.63632303 0.36643115 -0.29904282 -0.101614185
0001c0 39 b6 b2 3e e0 02 1a be f2 b4 88 3e 30 f3 04 be
       0.3490465 -0.15040159 0.2670055 -0.12983394
0001d0 5a 24 9f be a1 bd 23 3e 28 21 5d be e5 7b 38 bd
       -0.31082422 0.15990306 -0.2159468 -0.04504003
0001e0 17 ec ca 3d 71 dc 44 3e 8e 4b 1a be e5 35 a2 3e
       0.09908312 0.19224717 -0.15067884 0.31681743
0001f0 da d1 3f be 70 05 98 3d 84 36 de 3d 54 79 e1 3c
       -0.18732396 0.07422912 0.10850242 0.027523674
000200 16 8b 54 3e 88 6b 36 3e d8 39 88 be 32 75 7d be
       0.20756182 0.17814457 -0.2660663 -0.24751738
000210 60 e2 1a be bf 21 4d 3e 53 16 5c be cb 94 97 be
       -0.15125418 0.20032404 -0.21492891 -0.29605708
000220 72 8f 5c 3d 98 83 c7 bd f4 ce bd be ac c7 52 3e
       0.053847738 -0.097418964 -0.37071955 0.20583981
000230 fe 3e 06 be 9e d6 c6 3e db 2b 0e bf 6c 11 d2 be
       -0.13109967 0.38835615 -0.5553567 -0.41028917
000240 45 3c 54 3e 4d d5 a2 3e 07 ea 82 3c e5 a1 80 be
       0.20726116 0.3180336 0.015980734 -0.25123516
000250 b4 42 0d 3f d5 78 8a be df 30 93 3d 23 e5 e9 be
       0.55179906 -0.27045313 0.07187056 -0.4568263
000260 b4 3b c4 3d a0 49 b5 be 2c 65 55 3d 94 18 33 3d
       0.095817 -0.35407734 0.05209844 0.04372461
000270 0c aa dd 3e d5 97 73 bf ab 3d fb 3d d7 a7 16 be
       0.43293798 -0.9515355 0.122676216 -0.14712463
000280 08 85 51 bb 93 07 9d 3b 7e 20 3e bf b6 c8 a2 bd
       -0.0031970162 0.0047921627 -0.7426833 -0.07948439
000290 ae 49 44 bf 5f d7 e2 3e 54 d7 84 bd 22 8c 62 be
       -0.76674926 0.4430494 -0.06486383 -0.22123769
0002a0 48 85 7a 3d 94 45 58 bf ce 7e a2 3e 73 a7 73 be
       0.061162263 -0.8448117 0.3173737 -0.23794346
0002b0 d9 26 0e 3e b2 95 93 bc 57 4a 3e bd bf 79 e3 be
       0.13882007 -0.018015716 -0.046457615 -0.44428822
0002c0 c1 05 de 3e 8d c9 48 be 37 e7 dc bc b1 5b dc bc
       0.43363765 -0.19608136 -0.02696572 -0.02689919
0002d0 90 a9 bd be c5 bc 1a be e3 25 49 3d 3d 21 79 3d
       -0.37043428 -0.15111072 0.049108397 0.060822714
0002e0 05 9f a1 be e5 21 1e be b4 56 b2 3e 4b 87 1d be
       -0.31566635 -0.15442617 0.34831774 -0.15383641
0002f0 be ef 7e be 42 a8 9b 3d 27 f5 63 3e fa 10 5c 3a
       -0.24896142 0.07600452 0.22261487 0.00083948637
000300 72 ef d8 be 29 a9 c5 3d a9 b2 80 be b3 8a ba be
       -0.42370182 0.09651405 -0.25136307 -0.36433944
000310 05 76 6d be 34 2d 18 3e 95 38 65 be 4d f6 d1 3e
       -0.23189552 0.14860994 -0.22384866 0.41008225
000320 27 36 17 be 85 7d 70 bd 72 20 77 bc f6 75 b8 be
       -0.14766751 -0.058713455 -0.015083419 -0.36027497
000330 91 b9 df bd ea 8f 68 3e 76 16 e9 3d 43 e7 27 be
       -0.10924066 0.22711149 0.11381237 -0.16396813
000340 5f 86 15 be 7a b6 3b 3f 1b 9e 6a 3e 58 c9 ee 3d
       -0.1460204 0.7332531 0.22911875 0.11659497
000350 05 2e cb bd 48 3b d0 bd 8a ca e3 be b2 39 21 3c
       -0.09920887 -0.10167557 -0.44490463 0.009840416
000360 7a 7e 4d ba 6e 6f a0 3e ea 1b 24 be 6e e7 34 bf
       -0.0007838976 0.31335014 -0.16026273 -0.70665634
000370 f5 4a 9d bd a2 ea eb bd 1e 81 fe bd 35 e6 88 be
       -0.076803125 -0.11519362 -0.12426971 -0.26738134
000380 55 3a ad 3e ed 09 a0 3d 65 cb 2b bc 6b 45 1e bf
       0.33833566 0.07814393 -0.010485505 -0.61824673
000390 f1 4f 37 3c a0 7a 3a 3d a2 42 4d 3e 21 0f f2 be
       0.011188493 0.0455271 0.2004495 -0.47277167
0003a0 86 2e 2b 3c 31 5e eb be ef d4 22 bd e2 0f f4 be
       0.010448104 -0.459703 -0.03975385 -0.47668368
0003b0 1d 4f 25 3e ec 09 28 3e 45 0a ef 3e 6f 83 77 bc
       0.1614346 0.16410035 0.46687523 -0.01510702
0003c0 3b 7f c6 3d 90 88 98 3e f6 88 96 3e f9 55 96 be
       0.09692236 0.2979169 0.29401368 -0.29362467
0003d0 7f be 0c 3e 6c e6 bc be 3b 70 99 be 2b a0 a5 be
       0.13744543 -0.36894548 -0.29968438 -0.3234876
0003e0 c1 53 49 be 0f 44 c7 be 83 21 e9 3d 99 35 9a 3e
       -0.19660856 -0.38919112 0.11383345 0.30119017
0003f0 a6 3e 56 3e 12 b3 73 be 7b 38 91 3e 95 cc 8c 3d
       0.20922336 -0.23798779 0.28363404 0.068749584

critic2.2.bias f4 [64]
000000 a5 65 1a bf 98 2b 92 3f 8f af fe 3e 19 5e dd be
       -0.6031135 1.1419554 0.49743316 -0.43235853
000010 ca a1 05 3f 0f 20 82 3f 39 54 42 3f 50 30 4c 3f
       0.52199996 1.0166034 0.75909764 0.7976122
000020 dc d7 14 3f 66 dd ff 3e 7f 48 a5 3d 7f 27 89 3f
       0.58141875 0.499736 0.08070468 1.0715178
000030 91 26 61 3e f3 01 a0 3f de 6a 12 bf 32 9e b2 3d
       0.21987368 1.2500595 -0.57194316 0.087215796
000040 93 b7 d4 3e cb 98 01 3f 9f 7d 8e 3f 95 41 56 3f
       0.41546306 0.5062377 1.1132087 0.8369382
000050 91 28 28 bf fe ab 29 3f df c7 4f 3f fd 17 51 3f
       -0.656869 0.66278064 0.81164354 0.8167723
000060 d6 59 31 3f 75 e7 ea be ad 59 e4 be c2 f9 9d 3f
       0.69277704 -0.45879713 -0.44599667 1.2341845
000070 b3 72 22 3f 9c 31 99 3e f7 13 14 3f 8c 52 9f 3f
       0.6345627 0.2992066 0.57842964 1.2447066
000080 64 82 60 3f 34 cf 8d 3f 29 68 25 3f 5b 12 5b 3e
       0.8769896 1.1078858 0.6461206 0.21393721
000090 d4 2e 9b 3f 9e 6c 54 3f 7c f8 1b bf 31 d1 12 3f
       1.2123666 0.82978237 -0.6092603 0.5735045
0000a0 46 96 56 3f 08 ff 22 3f 40 05 59 3f ce 87 8e 3f
       0.8382305 0.63670397 0.84773636 1.1135194
0000b0 bb 98 2c bf 41 62 ad 3d a3 48 58 3f 38 fd bd be
       -0.6742055 0.08466006 0.84485835 -0.37107253
0000c0 4e ce 7a 3f 35 1e 17 bf e7 9c 67 3f 7c 78 ae 3e
       0.97971046 -0.5903047 0.9047379 0.34076297
0000d0 e9 9c 2f 3f a7 c8 a1 3f f3 19 9a 3f b1 42 44 3f
       0.685988 1.2639359 1.2039169 0.76664263
0000e0 15 50 2d 3d 82 44 49 bf ed d3 d5 3e 2b 55 19 3f
       0.0423127 -0.7862016 0.4176325 0.5989558
0000f0 17 2a 28 bf b7 b7 dc 3e 8a 9d ee bb a8 c3 b1 3f
       -0.65689224 0.43108913 -0.0072819637 1.3887835
