masac/model/simple_tag/agent_2/400_actor_params.pth (torch, 43913 bytes, 10 tensors)

feature.0.weight f4 [64, 16]
000000 de 29 4c 3d 30 15 e3 bb 70 ca a6 be bb a4 17 3e
       0.049844615 -0.006930016 -0.32576323 0.14808933
000010 33 03 1a 3d 20 1f 69 3e 14 1e 88 be 57 b2 27 be
       0.037600707 0.2276578 -0.26585448 -0.16376625
000020 f2 90 8e 3d ff d9 0d 3d ff 6b 9c bd f8 1e a0 3c
       0.0696124 0.034631725 -0.07637786 0.019546017
000030 d3 54 ea 3d 63 73 7d bd 6d 24 57 3c ad d0 06 bd
       0.1144196 -0.06187762 0.013131243 -0.032913852
000040 21 ab db bc 6e 19 87 bd 06 d8 8e bb e0 f0 4d 3d
       -0.026814999 -0.06596647 -0.004359248 0.050278544
000050 e6 bf b0 bb 39 0d 3e bb 00 7a 06 3d e3 9d 58 3d
       -0.00539397 -0.002899958 0.032831192 0.052884948
000060 58 3b 3c 3c 90 ba 2b be 7b a8 45 be 5c 27 91 3e
       0.011488758 -0.16770387 -0.19302551 0.2835034
000070 ff ee 6e 3d bf c9 80 bd 4c e5 cf 3b 6f 3f 0d 3d
       0.058333393 -0.0628848 0.006344473 0.034484323
000080 4e 5d d9 bc 58 c6 f1 bc 3c 0c 93 be 39 8e 93 3d
       -0.026533749 -0.029513523 -0.28720272 0.07204861
000090 e9 9c 89 3c ff 31 53 3d 91 1b cd bd 0c 80 b5 bd
       0.016798453 0.051561352 -0.100150235 -0.08862314
0000a0 bd c5 04 3e ed 23 84 3d c2 30 48 bf 99 b2 4a be
       0.12966056 0.06452165 -0.781994 -0.19794692
0000b0 cd 79 07 3f 1f e5 19 3e 98 3b 28 bc db 68 dd 3b
       0.5292023 0.15028809 -0.0102681145 0.0067568845
0000c0 de 71 66 3d 64 9d 99 3c 9c 56 7d 3c 0a 25 c3 bd
       0.056260936 0.018751808 0.015462544 -0.09528549
0000d0 69 d5 8c bb 0f ed 86 bd b8 22 06 bd 68 11 b0 3c
       -0.0042979014 -0.06588184 -0.032747954 0.021492675
0000e0 92 aa 62 3c 78 be 10 3e 03 4e fb 3d 87 02 e1 3e
       0.013834612 0.14135158 0.12270739 0.4394724
0000f0 52 e3 47 be c1 eb 1c bf 26 bd 6f bc 45 d3 32 bd
       -0.1952031 -0.6129723 -0.014632499 -0.043658514
000100 76 f4 28 3d 22 8b 1e 3d 35 2c 0e bc cb ea 04 bc
       0.04124876 0.038706906 -0.008677532 -0.00811262
000110 57 7c 39 bd b8 6c 67 bd cd b4 e3 bb 88 59 f2 3c
       -0.045284595 -0.056500167 -0.0069490434 0.029583707
000120 d2 ee de be a4 56 44 3e 45 84 1b 3e 07 a9 0d be
       -0.4354158 0.19173676 0.15187176 -0.1383401
000130 ae bd 80 3e d7 63 a4 3c 32 ce c2 bc 6b 57 f8 3c
       0.25144714 0.020067139 -0.023779962 0.030315122
000140 0a 4a a3 bd d7 4f 95 3d c5 4d cd bd 3b 28 56 3d
       -0.07973106 0.07290619 -0.10024599 0.05228446
000150 e8 fc 28 3d 64 51 9c 3c a8 31 d8 bc 36 4b e1 ba
       0.041256815 0.019081779 -0.026390865 -0.0017188552
000160 05 34 bc 3c 4e b1 4a 3d b5 19 0e bb bb 0c 84 3d
       0.022974024 0.049485497 -0.0021682803 0.06447741
000170 4d fa bf 3f cd ce bf be bd 3a 67 3e 78 a1 86 bc
       1.4998261 -0.37462464 0.22581 -0.016434416
000180 1e d2 33 3b 92 11 62 3c 1e a5 43 3c 51 79 07 be
       0.0027438472 0.013798134 0.0119412225 -0.13229872
000190 38 c2 45 bb ae a6 9b bd 2a d6 76 3d 2c 24 31 3d
       -0.0030175578 -0.07600151 0.060262837 0.043247387
0001a0 76 8d 6e 3e c5 47 51 3e aa a8 cb bd ec 2a de be
       0.2329615 0.20437534 -0.099442795 -0.43392122
0001b0 a2 95 a8 bd 56 74 db 3c 25 7d 4b 3d 80 dd 98 bb
       -0.08231665 0.026788872 0.049679894 -0.0046650767
0001c0 68 27 a4 ba 3f f0 85 3d 17 fe 30 3e dc f3 66 bd
       -0.0012523951 0.06539964 0.17284428 -0.056384906
0001d0 ee 63 bc bd 20 21 16 be 1a 9b 0e 3e 5c 0f 5e 3d
       -0.091987476 -0.14661074 0.13926354 0.054213867
0001e0 70 48 28 be 6d 97 8a 3d 8c 3a 73 3f 33 e8 78 3d
       -0.16433883 0.067671634 0.9501121 0.060768317
0001f0 a6 7e 26 bf fa 71 e6 bd 77 55 82 bc d6 c8 3b bc
       -0.65037 -0.11252208 -0.015909893 -0.011461457
000200 e5 3d 46 3e ed b2 23 bd 3d 49 c6 bd d8 a1 14 3e
       0.19359548 -0.03996556 -0.09681938 0.14514863
000210 28 74 81 3d 92 4e 82 bd cd 4f e3 bc 26 00 44 3d
       0.06320983 -0.06362642 -0.027748013 0.047851704
000220 26 1d 83 ba 69 40 9e bb 95 a9 06 bd 82 2c 5a 3a
       -0.0010003194 -0.0048294556 -0.03287657 0.0008322672
000230 26 36 60 be c2 b5 3f 3e e8 6f 47 3f c4 ff ca be
       -0.21895656 0.18721679 0.7790513 -0.3964826
000240 23 5c ea 3d 42 9b 39 bd 73 61 f5 3d 41 36 86 3c
       0.11443355 -0.04531408 0.119814776 0.016383292
000250 e8 6f d0 bd 29 99 30 3b c7 5a a6 bc bb 9e 6e 3c
       -0.101775944 0.002694676 -0.020306958 0.0145642115
000260 35 6d 06 3d 97 03 88 3c 92 d1 2d 3d 62 77 95 3b
       0.03281899 0.016603274 0.04243619 0.0045613507
000270 63 27 03 c0 8b 60 09 3e f5 79 5f be 96 24 4b 3d
       -2.049279 0.13415734 -0.21823867 0.049595438
000280 83 fe 2d 3d 43 ea 73 bc ca 44 38 3e 48 1c d3 3d
       0.04247905 -0.014887395 0.17994991 0.103081286
000290 d6 77 05 bd 3c e1 cb bd 51 04 5a 3d 43 44 7c 3d
       -0.032584988 -0.099550694 0.053226773 0.061588537
0002a0 4d 92 6d bd 95 2a 84 bc a9 9d fb 3e dd ec 19 3f
       -0.05800085 -0.016133586 0.49143723 0.6012705
0002b0 35 9e b6 be 48 72 d1 be fd e3 cd 3b 78 ed 82 3c
       -0.35667577 -0.40907502 0.006283282 0.015982375
0002c0 6a 21 6a 3b 6d e3 ba 3d 25 30 2e 3c 4a f9 da 3d
       0.0035725483 0.09125409 0.010631596 0.10692079
0002d0 c3 cb 1c be 74 c8 16 bf 02 7c ab 3e 48 7f 0a 3f
       -0.15312104 -0.5889962 0.33493048 0.54100466
0002e0 06 29 82 bb d3 e9 00 3d 5e 9d 80 be 31 76 b3 bc
       -0.0039721755 0.031472992 -0.25120062 -0.021906944
0002f0 b3 b9 ed 3d a7 2e f4 3a 66 d7 8c 3c 02 7b 5b bd
       0.11607685 0.0018629626 0.017192554 -0.053584106
000300 19 08 84 3d fb 3b 07 3d 4a 56 e7 bc 91 e9 c2 3c
       0.06446857 0.033016186 -0.028239388 0.023793014
000310 9e 5d 3f 3e f7 35 ff 3e 94 b8 c8 be 54 f0 ea be
       0.18688056 0.4984586 -0.39203322 -0.4588648
000320 49 7d 0b 3d d4 37 a4 3d fc 17 97 bb 59 54 8e 3d
       0.034055028 0.08018461 -0.0046110135 0.06949682
000330 25 ce 16 3c 4f c0 ef bd 8f d1 8a 3c c4 0f 25 3c
       0.009204422 -0.11706602 0.016945628 0.01007456
000340 29 d5 c3 3c 4c 00 35 bc ff 3c c8 be 95 e9 50 be
       0.023905354 -0.011047434 -0.39109036 -0.20401604
000350 8f f6 4e 3e 00 04 07 3e 17 be 37 be e0 ad 49 bd
       0.20211242 0.1318512 -0.17943607 -0.049238086
000360 76 4a 05 be 48 93 1c bc 6e a1 bb bc 60 1b a1 3d
       -0.13016686 -0.009556599 -0.022904124 0.078665495
000370 a5 f8 a0 bc 30 77 27 be f0 02 9e 3b b6 74 fd ba
       -0.019649813 -0.1635406 0.0048221275 -0.0019337151
000380 b8 2d 99 bd 7e 48 26 3e 87 ab 1d 3e 48 6e 0d be
       -0.07479423 0.16238591 0.15397464 -0.138116
000390 8b d0 7b bc 0e c4 ad 3d 9b 4e 3c 3d e3 ce 26 bd
       -0.015369545 0.0848466 0.0459734 -0.040724646
0003a0 21 c7 60 3c a9 1c 00 3d 18 5c db bb 54 89 ba bc
       0.013719351 0.031277332 -0.006694328 -0.022770561
0003b0 9b bb fa 3d 74 ab e8 bd b2 9f b5 be c6 4e 4a 3f
       0.12242814 -0.11360827 -0.354734 0.7902645
0003c0 e7 c1 26 be e0 58 22 be e8 78 18 be 0f 8d 2a be
       -0.16284905 -0.15854216 -0.14889872 -0.16655372
0003d0 bb 8b c2 ba 35 ff 3f bd a7 33 2c bc ed 35 37 3d
       -0.0014842668 -0.046874244 -0.010510362 0.044729162
0003e0 0d 07 5d bd 17 6f 20 3c 0f 1c 21 bd 55 00 29 bd
       -0.053961802 0.009792111 -0.0393334 -0.041260082
0003f0 cb 02 a3 3f ae 9a ca 3f 40 89 f9 3d 1e 07 41 3e
       1.2735227 1.5828454 0.121843815 0.18850371

feature.0.bias f4 [64]
000000 40 0b 67 3d 54 9c d0 3d 66 d1 a4 3d d4 90 27 3e
       0.056407213 0.10186067 0.08047752 0.16363841
000010 2d 00 a7 3d d1 4f ab be 96 7a 53 bd a3 7a 20 3d
       0.081543304 -0.33459333 -0.05163058 0.039179455
000020 93 38 10 bf 11 8d e9 be 42 71 1e 3e 8b 62 61 be
       -0.56336325 -0.45615438 0.15472892 -0.22010247
000030 e9 6d 95 3d 72 d9 0c 3e fc 1c 18 bf 17 e7 51 3d
       0.07296354 0.13754824 -0.59419227 0.051245775
000040 59 2f e8 3e 0d 50 4f 3c 90 aa a5 3d d3 24 8c 3d
       0.45348623 0.012653363 0.08089173 0.06842961
000050 15 9b d7 3e 1c 64 0a bf f2 3d 87 3e d4 60 28 bf
       0.42110506 -0.54059005 0.26414448 -0.6577275
000060 46 6e 19 3c 03 97 62 3b 89 4f 4d be 3f 36 7c 3e
       0.00936467 0.0034574873 -0.20049872 0.24630068
000070 59 f4 6b bd 5e b4 c5 bd 3f 1b ba 3d ae c2 8a be
       -0.057606075 -0.09653543 0.09087228 -0.27101654
000080 6c 40 21 bf ca eb 92 3e 3e f8 45 3e 34 9a 53 3e
       -0.62988925 0.28695518 0.19332978 0.20664293
000090 9e 8e 82 bd 17 15 9b be ca 3b 3c be 0d 30 0b 3c
       -0.06374858 -0.30289528 -0.18382183 0.008495343
0000a0 96 08 c9 3e cc ba d7 3e 46 6d b9 be 41 91 18 3e
       0.39264363 0.42134702 -0.36216182 0.1489916
0000b0 12 55 68 3d ce 16 56 3d ff 3d 4c 3d 13 cd 56 3d
       0.056721754 0.052267842 0.04986381 0.052441668
0000c0 2f 31 65 3e 55 c5 55 3c 12 5c b3 3d e6 a3 62 3d
       0.22382043 0.013047536 0.087577954 0.055332087
0000d0 f9 4e a2 3e 7e 1b d8 3d a4 e3 05 3e b9 a2 62 3d
       0.31700876 0.10552119 0.1307512 0.055330966
0000e0 57 51 4a be 4c 84 22 be c5 89 98 be 61 a0 b6 3d
       -0.19757591 -0.1587078 -0.2979261 0.089173086
0000f0 a0 c4 6b 3e 61 95 ea 3e a9 64 03 3e eb ca 1a 3e
       0.23024225 0.45817092 0.12831368 0.1511647

feature.2.weight f4 [64, 64]
000000 16 4b 50 be 68 f6 b1 be aa 9f bd be bb e7 4e 3f
       -0.20341143 -0.34758306 -0.37035877 0.8082234
000010 46 07 84 be 70 2d 65 be 48 34 6d bd ba 88 15 bf
       -0.257868 -0.22380614 -0.057911187 -0.58411753
000020 06 5e 56 3e c5 fb 60 3e 93 c3 77 bf 76 b8 7e bd
       0.20934305 0.21971042 -0.967828 -0.062187634
000030 ff dd 11 3f 0d 5c 32 be f7 78 5a be 6b 80 ea 3d
       0.56979364 -0.17417927 -0.21335207 0.11450275
000040 71 3c 6b be 07 44 b8 bf 15 fd 57 be ee 20 8d 3d
       -0.22972275 -1.439576 -0.21092637 0.068910465
000050 55 06 16 3b db ea 13 3e 32 af a0 bd 52 fe 20 be
       0.0022891958 0.14445059 -0.07845916 -0.15722016
000060 8f ac 60 3e 5f 74 9d 3e 91 61 ff bd a1 0d 27 bf
       0.21940826 0.30752847 -0.12469781 -0.6525517
000070 b7 92 68 be 37 c5 4c 3d 87 a5 86 bf 58 62 25 3f
       -0.22712217 0.049992766 -1.0519265 0.64603186
000080 db 00 b5 be 2e 6c 1c 3e 3a c8 1b 3e 21 5c 0d 3f
       -0.35352215 0.15275642 0.15213099 0.552187
000090 64 d7 23 be 05 00 4d 3e 99 1f c1 3e 36 e0 da 3d
       -0.16000134 0.20019539 0.3771942 0.10687296
0000a0 08 f1 82 3e 90 03 d8 be 3c 42 6e bf 42 3a c2 3e
       0.25574517 -0.42190218 -0.93069816 0.37935072
0000b0 cf ca a9 3e 0a f2 e7 3e b7 ac d9 bd e3 ac be be
       0.33162543 0.4530185 -0.10628646 -0.37241277
0000c0 48 54 89 3e a1 0a d2 3e 7c fa 00 bd 6a 59 8e 3e
       0.26822114 0.41023734 -0.03148888 0.27802593
0000d0 3d 67 d4 be b6 5e 00 3e 48 d4 e6 bb 82 8c 5e be
       -0.41485015 0.1253613 -0.007044349 -0.21733287
0000e0 f8 e0 1c 3e 55 7d 80 bf c1 ae 82 bd a4 29 69 bd
       0.15320194 -1.0038248 -0.06380988 -0.056924477
0000f0 8f 20 82 3d 11 c9 a7 bd 71 b9 02 bf 40 4c e9 bd
       0.06353866 -0.08192647 -0.5106421 -0.11391497
000100 b4 ee f1 be 4c 46 12 3e ff b0 a5 bf a4 38 07 bf
       -0.4725243 0.14284629 -1.294464 -0.528208
000110 6b 27 c8 be 82 69 2f bf 30 bf 9b 3e 92 9d fa be
       -0.39092574 -0.6852037 0.30419302 -0.48948342
000120 6c f4 25 be 3e f6 b1 be bd d0 dd 3c cb c9 86 be
       -0.16206521 -0.3475818 0.027077073 -0.2632583
000130 4c 83 d8 bd 04 6d 6d 3d 61 83 4b 3e 4d 67 44 3e
       -0.10571918 0.057965294 0.19874336 0.19180031
000140 5e b5 b0 3e ba 3a 8e bd 7a 40 8a bf e4 ae ce bd
       0.34513372 -0.06944795 -1.0800927 -0.100919515
000150 bc b6 0d 3d 72 62 b7 3e ca 6f 6f 3e 5c 98 54 3d
       0.034598097 0.35817295 0.23382488 0.051903114
000160 9e 30 13 bd 07 f4 ff 3d 86 58 7b be 61 f3 4c 3e
       -0.035935037 0.124977164 -0.24545488 0.20014717
000170 81 f8 81 bf a0 41 b7 bc 22 73 5e be 91 b2 66 bf
       -1.0153962 -0.02237016 -0.21723607 -0.9011622
000180 07 af b8 be c3 89 4b bd 34 49 f6 3d 5b e2 88 be
       -0.36071035 -0.049691927 0.12025681 -0.26735196
000190 3b 6e ab be 0b e4 84 3c 30 4d 11 3e 23 fe 3e be
       -0.33482537 0.01622202 0.14189601 -0.18651633
0001a0 66 b8 88 bd cf 33 65 bd 05 b8 2e be 73 23 e0 bd
       -0.06675796 -0.05595761 -0.17062385 -0.109442614
0001b0 0f 56 2e bf 9f a8 f6 3d 8a 4c 67 3e 5d 7c b3 be
       -0.68100065 0.12043881 0.22587791 -0.3505582
0001c0 72 3a 3f 3e 14 74 bf bf 99 f6 ff be e0 18 39 3e
       0.18674639 -1.4957299 -0.49992827 0.18075895
0001d0 46 7a af 3e 16 9e 1b bb fa 70 8a 3d a0 93 7a 3e
       0.34272975 -0.002374535 0.0675983 0.24470377
0001e0 e9 64 71 be 0c 69 83 be 33 3b 43 3e e5 f9 a3 be
       -0.2357365 -0.25666082 0.19065551 -0.32026592
0001f0 ce 27 0d be 37 63 6d 3d f9 90 98 be 16 54 f6 bd
       -0.13784716 0.057955947 -0.29798105 -0.12027757
000200 cd e6 a5 be d0 79 00 bf e3 dd 60 bf 70 6d 30 3f
       -0.3240265 -0.5018587 -0.8783857 0.6891699
000210 79 9e 9f be fa 7c e7 be 15 a8 9c bd f4 3e 50 bf
       -0.31175593 -0.45212537 -0.076492466 -0.8134606
000220 55 14 d2 bd 09 4f 46 3d d3 d0 99 be 32 1f e5 be
       -0.10257784 0.048415218 -0.30042133 -0.44750363
000230 21 a4 8d 3e 0f 20 f2 3d 71 13 6a 3c b6 f5 ff 3d
       0.27664283 0.11822521 0.014286862 0.124980375
000240 3f 44 b2 be 33 ea 06 c0 de dc 89 bf 07 9c d4 bd
       -0.34817693 -2.1080444 -1.0770528 -0.10381322
000250 ad e3 c8 bc 72 3e c3 3b 6c 62 46 3d 2b e0 f3 bd
       -0.024522627 0.005958372 0.048433706 -0.11907991
000260 a6 9c 1f be 64 48 c1 bc 3a b8 84 3c 59 00 eb bc
       -0.155871 -0.023594089 0.016201127 -0.02868669
000270 e7 14 83 bd 96 c5 3e 3e 3b a7 77 3e 80 94 bf bd
       -0.06400471 0.1863006 0.24184887 -0.09354496
000280 0c d8 ce be ed 58 22 3e f8 b1 18 3e 26 35 eb 3e
       -0.40399206 0.15854235 0.1491164 0.45938987
000290 b0 36 d6 be 6f 3b a5 be 72 48 7f be d5 be 4d bd
       -0.41838598 -0.32271907 -0.2492998 -0.05023082
0002a0 6b cd 96 be c7 47 2f 3e 9b 4c b5 3d f3 26 84 3e
       -0.29453596 0.17117225 0.08852502 0.25810966
0002b0 fb 68 61 3c 29 75 2c bf 5a 67 44 3e 47 f2 71 bf
       0.013757939 -0.6736627 0.1918005 -0.9451031
0002c0 cb 68 72 3a ed 9e 1b bf 3e e9 0a bf 78 c7 82 3e
       0.0009247183 -0.60789376 -0.5426215 0.25542808
0002d0 8a 8a 8a 3e 36 6b 8e 3e 72 a1 33 bf 5c d2 05 bd
       0.27058822 0.2781617 -0.7016822 -0.032671317
0002e0 09 6c fc bd e8 81 a7 be 5e 10 c9 3c fa bc a2 3d
       -0.123252936 -0.32716298 0.024543937 0.07946201
0002f0 48 e9 ea 3e 56 d3 49 3e 54 62 47 3e f0 b3 ae be
       0.45881104 0.19709525 0.19471103 -0.34121656
000300 c1 8a cc be 55 dc 33 3e ab b3 8b bf fa d3 52 3f
       -0.3994961 0.17564519 -1.0914205 0.823547
000310 93 60 2d bd 55 4a 1e 3d d2 82 f0 be 4e dc 2a 3e
       -0.04232843 0.038645107 -0.46974808 0.16685602
000320 c2 f1 8f be 1d 61 44 be 37 a1 0c 3e 0b 75 a5 be
       -0.28114134 -0.19177671 0.13733374 -0.3231586
000330 1c 7c 37 3f e8 ff cf 3e 28 d6 93 3e 07 cb 2a 3d
       0.7167375 0.40624928 0.28874326 0.04169753
000340 31 64 17 bf c3 5b 18 3f 3a 79 17 3e 64 6e 01 3e
       -0.59137255 0.5951502 0.14792338 0.12639767
000350 be a1 2e 3d bd f8 fe 3c 62 6e b5 bd c2 9a c3 3c
       0.042634718 0.031124467 -0.088589445 0.023877505
000360 04 85 a9 3e 7c 9e 92 bd 0c 47 06 3e 12 fb 0f bd
       0.33109295 -0.07159135 0.1311304 -0.03515155
000370 ce 87 1d 3e 0b d0 1d 3e b7 c3 fe be f3 ce c7 3c
       0.15383837 0.15411393 -0.49758694 0.024390673
000380 13 ae 74 3e 6c e8 1c 3c 6c 58 82 b9 4b b4 3e 3e
       0.23894529 0.009576898 -0.00024861412 0.18623464
000390 9c cb c0 be 3f a4 95 be ec ac 93 3f 22 97 3f bd
       -0.37655342 -0.29226872 1.1537147 -0.04677499
0003a0 42 94 cb be 29 65 95 be c2 88 4a 3e c5 e0 1c bf
       -0.3976155 -0.29178742 0.19778731 -0.6128047
0003b0 1a ce d9 bc 75 35 70 bf e5 b3 d1 bd 77 18 eb 3e
       -0.026587535 -0.9383157 -0.1023939 0.45917103
0003c0 44 46 47 3e 48 0a 08 bf 66 d4 13 3e 96 62 af be
       0.19460398 -0.5314069 0.14436492 -0.34254903
0003d0 26 cf af bd 09 ed 6d 3e 93 64 2e 3e ab ae 26 bf
       -0.08584432 0.23234953 0.17030554 -0.6511027
0003e0 17 2a 3c bf 13 b2 4e 3e 15 ee c4 be 74 cb 55 3e
       -0.73501724 0.20185117 -0.38462892 0.20878392
0003f0 72 0a 5c 3e 3c 2e 66 3e 7c 29 08 3e bb d8 93 bf
       0.2148836 0.22478575 0.13297075 -1.1550516

feature.2.bias f4 [64]
000000 a5 63 d6 3e 6a f3 e7 3e cf 0d e1 3e d8 45 cd 3d
       0.41872898 0.45302898 0.43955848 0.10023087
000010 c6 fb 2d 3f a0 a7 97 3e a8 5e 5f bd 72 b3 c6 3e
       0.679623 0.29620075 -0.05453363 0.3880878
000020 88 fe 80 3e 4d 2a 39 3e d8 7b b4 3e 80 a6 1b 3e
       0.25194192 0.18082543 0.35250735 0.15200233
000030 1d 8e ef 3e 2f 0b e5 be 99 87 ef 3e 78 b1 a9 3f
       0.4678811 -0.44735095 0.4678314 1.3257284
000040 20 3e aa be 5a fb 1d 3f 81 90 ca 3e 14 2b 06 3f
       -0.33250523 0.6171166 0.39563373 0.5240948
000050 b2 f4 bc 3d 42 38 e7 3e 0e 38 1f 3f 02 27 e2 3e
       0.092263594 0.4516011 0.6219491 0.44170386
000060 14 87 30 3f 6f 83 08 3f f8 13 0d 3e 77 7b d0 3e
       0.6895611 0.5332555 0.13777149 0.40719196
000070 b0 fc 3f 3f 65 9e 97 bf 82 b1 07 3f d2 27 30 3e
       0.74994946 -1.1845213 0.5300523 0.1720269
000080 4b 1e 92 bf 1f fc 32 3e bf 5b 53 3f 3a 99 b3 3d
       -1.1415495 0.17478989 0.8256187 0.0876946
000090 19 70 72 3e 0c 4a 1e 3f a6 c6 4c 3f d9 a4 57 3f
       0.23675574 0.61831737 0.79990613 0.8423591
0000a0 43 d6 67 3f 12 5c 24 3e 43 00 39 3d 67 ba 0f 3f
       0.9056131 0.16050747 0.045166265 0.561438
0000b0 08 e0 f1 3e e7 a1 ff 3e 95 94 2b 3f e1 fd 17 3f
       0.47241235 0.4992821 0.67023593 0.59371763
0000c0 a2 2d 03 3f 46 4f 04 3f f5 c7 26 3f a7 97 05 3f
       0.51241505 0.5168346 0.6514886 0.5218453
0000d0 61 fc 25 3f 96 3e f3 3e 37 d2 d9 3e 5c be 8a 3e
       0.64838225 0.47508687 0.42543194 0.27098358
0000e0 e4 66 2e 3f 33 3a 3e bf b6 3b 7d 3d 9e ef 17 3f
       0.6812575 -0.74307555 0.061824523 0.5935
0000f0 a3 c0 47 3f a6 27 c8 3e d7 21 0d 3e 81 1e 10 3f
       0.78028315 0.3909275 0.1378244 0.56296545

feature.4.weight f4 [64, 64]
000000 c0 66 23 be a4 f8 2c bd 25 cd 9a 3e ed 5f 76 bd
       -0.15957165 -0.04222931 0.30234638 -0.060150076
000010 07 59 4e bd 45 88 da bd 31 e1 10 3d 06 6e 0b be
       -0.05037787 -0.106705226 0.03537101 -0.1361619
000020 e5 a7 ff 3d 1d a2 30 3e e7 5a b5 3e cc 1e a7 bd
       0.12483195 0.17249341 0.35420915 -0.08160171
000030 5f d1 af bd e4 73 46 3e ee 9e c0 3e c3 f6 65 3f
       -0.08584856 0.19380146 0.37621254 0.89829654
000040 ba 31 80 bc 74 90 11 bb 21 84 d3 3e f4 fa 2e bd
       -0.015648711 -0.0022211345 0.41311744 -0.042719796
000050 d7 6a bf bc 3b e5 06 be 39 36 00 bd 42 f3 c8 bd
       -0.023366375 -0.13173382 -0.03130171 -0.09812023
000060 cd 22 0c be e6 48 d4 3b e5 dc 83 be ca 5d a3 be
       -0.1368515 0.0064784167 -0.25754467 -0.31907493
000070 c4 30 71 bf cc 62 2d 3d 59 07 c3 3e b4 a9 c5 bd
       -0.94215035 0.04233055 0.38091543 -0.09651509
000080 a2 e4 01 bd 5b f7 00 be 2f f8 34 3e ba d8 9b be
       -0.031712182 -0.12594359 0.176728 -0.30438787
000090 72 88 36 be 23 29 8a 3d ef d0 ed 3c 46 23 d0 3d
       -0.17825487 0.067461275 0.029030291 0.10162978
0000a0 5f b7 e0 3e 04 70 c3 be 9e cc b5 bd 4f 68 b2 bd
       0.438899 -0.381714 -0.08876918 -0.087113015
0000b0 1e e6 f7 3d 39 9d 3a 3f 2a 19 7a bf ff db 29 bf
       0.12104438 0.7289615 -0.9769465 -0.6635131
0000c0 c3 23 ed bd 58 21 54 3e 3a fa 73 bc 34 ed c3 3d
       -0.11579087 0.20715845 -0.014891202 0.09566727
0000d0 76 d1 14 be 97 5b b1 3e 89 fc 05 3e 97 a7 0e be
       -0.14533028 0.3464019 0.13084616 -0.13931118
0000e0 39 37 f0 b9 30 96 0d be 78 b8 51 bc 84 1f 08 bc
       -0.0004581751 -0.13826823 -0.012800328 -0.008308295
0000f0 b7 88 09 bf f7 fe 4a 3e 01 dd d1 bd da 75 37 bd
       -0.53724235 0.19823824 -0.10247231 -0.044790126
000100 3f 28 b1 3d dd 25 2c be e5 30 a2 3e b3 52 d8 3c
       0.086502545 -0.16811319 0.3167793 0.026406622
000110 32 af 34 bf 1a aa 62 3d 57 d2 a0 3c 5d 88 cd bd
       -0.70579827 0.055338003 0.019631548 -0.10035775
000120 1a e1 38 be 4d 44 d3 3e 72 9b ea ba 17 96 a8 3c
       -0.1805462 0.41263047 -0.001789911 0.02057938
000130 f2 d3 1f bd 28 85 74 bc 8f d6 d8 3d a1 eb a6 bd
       -0.039020486 -0.014924325 0.10587799 -0.081504114
000140 f8 cc 58 3d 8c ee 00 3e 0a 1f b1 3e f9 9e ff bb
       0.05292985 0.12590998 0.34593993 -0.0078009334
000150 80 4b 51 3d 5a 62 38 bc 57 7e 24 3d 8b 93 83 be
       0.051097393 -0.011253918 0.04015955 -0.25698504
000160 30 25 84 3d a3 00 ec 3d d9 44 11 3e 2b 8a fd bd
       0.064524055 0.11523559 0.1418642 -0.12379869
000170 ae 28 dc bf c2 ee 86 bc 5b a3 b0 3d 20 f6 08 3e
       -1.7199914 -0.01647127 0.086249076 0.13375139
000180 13 d0 d8 bd ff 8d 74 3d b1 4b 73 bd f4 b0 82 bc
       -0.10586562 0.05970573 -0.059398357 -0.015953518
000190 e5 e2 bb 3e 85 87 c0 bc 35 ea 05 3d c7 23 c3 bd
       0.36696544 -0.02350212 0.03269406 -0.09528308
0001a0 7e 23 b9 bf 7b 96 ad 3b 5e c8 3b 3d 93 2d 9a 3e
       -1.4463956 0.0052974797 0.045845382 0.30112895
0001b0 b5 0d e0 3c a4 91 db 3e 80 74 5b bd 23 0d c5 bd
       0.027350286 0.42884552 -0.0535779 -0.09621646
0001c0 67 e5 a5 bc 85 41 7e 3d 89 2a 9b 3e b5 ed 8a 3c
       -0.02025099 0.062074203 0.3030589 0.01695905
0001d0 c4 b3 30 be ac ab cc 3e 0d 75 d1 3e 67 46 98 be
       -0.17256075 0.39974725 0.40909615 -0.29741213
0001e0 37 cd 6c 3d 7c f7 2f 3c f0 cf 07 bd 98 cc f7 bd
       0.057812896 0.010740157 -0.03315729 -0.1209957
0001f0 0a e7 0a 3c a4 05 9f 3d 73 f4 2a 3e 1a ce fa 3d
       0.008477936 0.07764748 0.16694812 0.12246342
000200 db 12 80 bc 49 4f 77 3e c7 5d 20 be 24 ef 2e 3d
       -0.015633991 0.24151339 -0.15660773 0.04270853
000210 24 48 0f be 8b 23 1b bd 91 95 df 3d cd 5e d6 be
       -0.13992363 -0.037875693 0.109171994 -0.41869202
000220 ea 59 02 bd 9c 75 35 be cc 9a ec 3e 68 48 6f bd
       -0.03182403 -0.17720646 0.4621185 -0.05841866
000230 0f e4 47 3d a9 01 89 bd 15 53 b5 be 77 ed 9e be
       0.048801478 -0.0668977 -0.3541495 -0.31040546
000240 07 c5 64 be 61 25 6d 3e d6 31 10 3f 8c 3e af bc
       -0.22340785 0.2315879 0.56326044 -0.02139213
000250 f4 7f 0b 3e 7d 8e 19 be 59 68 8f bd 1b c1 b3 bc
       0.13623029 -0.14995761 -0.070023246 -0.021942666
000260 b4 09 a0 be f7 d9 63 bd f7 7b af 3e 18 3b 89 3d
       -0.31257403 -0.05562779 0.34274265 0.06700724
000270 02 3f 09 bd f0 cb c3 be ad c8 13 3f a8 55 6f bb
       -0.033507355 -0.3824153 0.5772808 -0.003651956
000280 c3 ce c2 3b 5f 7d 2f be 3a 12 f2 3d f6 1c ed be
       0.005945058 -0.17137669 0.11819883 -0.46311158
000290 6f 7c 90 3d 4d de c9 be 67 9b 94 be 26 4f 08 3e
       0.07054984 -0.39427415 -0.29024813 0.13311443
0002a0 73 a5 c2 3e f6 e9 54 3d 05 a7 a4 3d 79 07 4d 3e
       0.38016853 0.051980935 0.08039669 0.20022382
0002b0 c5 ca 8c 3e 5a ca 3b bf 0d e9 f7 bf ab ca c2 be
       0.2749845 -0.7335564 -1.9367996 -0.38045248
0002c0 55 5d 39 bd 88 90 a1 be 19 61 85 3c ff df 48 3a
       -0.045255024 -0.3155558 0.016281651 0.00076627726
0002d0 33 32 b5 be 97 ac 11 3f af 8e 4f be d4 b9 2e 3e
       -0.3538986 0.56903976 -0.20269273 0.17063075
0002e0 ec 0f a5 3d 85 3c 2e 3e fa 21 b7 bd 98 01 d9 bc
       0.080596775 0.17015274 -0.089420274 -0.026490018
0002f0 21 ef 77 3d 43 8c 11 3d 56 6f 5b 3d cb 73 ad be
       0.060530785 0.035534155 0.053572975 -0.33877406
000300 96 e8 f4 3e 5a 9d 82 be 6e 00 b9 3e 4d 45 7b be
       0.478337 -0.25510675 0.3613314 -0.24538155
000310 5c 58 a6 be e7 54 35 3e 1c 1b b3 be 64 1a f7 bd
       -0.32489288 0.17708169 -0.3498162 -0.120655805
000320 51 3d 51 bd d0 50 0b be cf 44 54 bf 19 27 8c be
       -0.051083867 -0.13605046 -0.82917494 -0.2737358
000330 07 0e 0a 3f d4 65 89 3e 7b 46 93 bd db 8f ab 3d
       0.53927654 0.268355 -0.071911775 0.08377048
000340 e6 c2 c1 3d e9 54 5c 3e 16 f2 28 bf 67 f5 54 3e
       0.09461002 0.21516766 -0.65994394 0.20796739
000350 7b 53 4f be 6d 9b d5 bd d6 e9 a1 be 89 48 da be
       -0.20246689 -0.10430036 -0.31623715 -0.42633465
000360 52 24 09 be 90 bf 84 be 8c 34 58 3d dc 41 87 bf
       -0.13392761 -0.259274 0.052784488 -1.0566974
000370 3c b2 29 bf 49 1f 22 bf 97 8d 47 bf 2e d0 7a 3f
       -0.6628759 -0.6332899 -0.77950424 0.97973907
000380 7c 79 fb be e3 34 a4 3e 71 01 76 bd 42 39 0d 3b
       -0.49116123 0.320716 -0.06005997 0.002154902
000390 05 45 1b 3f c1 63 06 bf 67 08 0a 3f a0 ec 8c bc
       0.6065219 -0.5249596 0.5391907 -0.017202675
0003a0 64 20 4f bf a7 94 ae 3d c2 8b 03 bf 80 a6 42 3e
       -0.809088 0.08524447 -0.5138513 0.19008827
0003b0 bb 9c 4e be 36 2a 65 3d e2 48 02 3e 84 13 be be
       -0.20176975 0.05594846 0.12723115 -0.37124264
0003c0 da 39 8e bc 25 6b b3 3c b2 81 0c be 74 2c 5c 3f
       -0.01736157 0.021901676 -0.1372135 0.8600533
0003d0 0e 22 3e be 1c 2b 96 bf b7 ce 16 3e dd 9d 44 be
       -0.18567678 -1.1731906 0.14727293 -0.19200845
0003e0 05 bf 8d be 0c f4 9a bf 8c 6f 87 be 94 96 27 bf
       -0.276848 -1.2105727 -0.2645229 -0.6546414
0003f0 b1 a7 80 3e d2 17 a9 3d 18 93 29 bf f0 f1 52 3e
       0.25127938 0.082564965 -0.6624007 0.20600104

feature.4.bias f4 [64]
000000 5e d5 ce 3e a9 fe 8a 3f d4 7f 65 3f f8 a3 16 3f
       0.4039716 1.0858966 0.89648175 0.58843946
000010 9c 9c 83 be 7e 77 33 3f 01 94 e9 3e 1f f3 80 3f
       -0.2570542 0.70104206 0.4562073 1.0074195
000020 25 88 0d 3f 8d 8f 40 3f 63 71 31 be 40 a7 82 3f
       0.55285865 0.7521904 -0.1732841 1.0207291
000030 73 01 33 3f 76 b8 82 3f 61 a7 f8 bb 48 7c 6a 3f
       0.69924086 1.0212543 -0.0075883125 0.9159589
000040 28 24 f8 3e 9a 15 f9 3d 4a 7f c6 3e 58 7d 71 3f
       0.48465085 0.12162323 0.3876899 0.94331884
000050 63 54 b2 3f 4c a1 3b 3f 13 81 ba bd 9b e0 76 3f
       1.3932003 0.73292994 -0.0910665 0.9643647
000060 48 3c f0 3e d9 bc 29 3f 1d 76 40 3f 06 9b 7b 3f
       0.4692099 0.66303784 0.75180227 0.9828342
000070 86 d3 a7 3e 09 94 84 bd ef 15 21 3f ad 96 2c 3f
       0.32778567 -0.06473548 0.62924093 0.67417413
000080 0b 39 1a 3f 0a bc 00 3e 6c da 63 3f 59 fb 64 3f
       0.6024329 0.12571731 0.8900516 0.89446026
000090 5b 75 68 3f 1a cb 98 3e 26 78 f1 bd 4c b9 35 3f
       0.9080407 0.29842454 -0.117904946 0.70985866
0000a0 b5 96 f6 3e e5 ef 39 3f 45 56 e8 3e 9c 14 01 3f
       0.48161855 0.72631675 0.45378318 0.5042207
0000b0 08 e6 67 3f 36 8d 1d 3f eb b1 4b 3f c8 af 3f 3f
       0.90585375 0.61543596 0.79568356 0.74877596
0000c0 79 fc 3c 3f 04 b6 62 3f 09 8f 32 3f 12 b0 de 3c
       0.7382274 0.88558984 0.69749504 0.027183566
0000d0 07 5f eb 3e e4 7d 49 3f 00 ab c7 3e 61 a0 45 3e
       0.45970938 0.7870772 0.3899765 0.19299461
0000e0 0f 50 81 be b2 dc 12 3f da e3 2c 3f cb 1c a9 be
       -0.25256392 0.57368004 0.67535174 -0.3302978
0000f0 39 b8 b4 3f 9a d3 1d 3f d4 c7 37 3e 5e e0 c6 bd
       1.411872 0.61651003 0.17947322 -0.097107634

log_std.weight f4 [5, 64]
000000 cd f7 61 3c 97 8c 0d bc 87 1e 12 bd 8a 47 35 3d
       0.0137919905 -0.008639476 -0.035673644 0.044257678
000010 43 11 b7 3e 4f ba 36 bd f1 9b b5 3b 56 eb 3d bc
       0.35755357 -0.04461127 0.0055422713 -0.011591753
000020 70 98 3b bc 14 25 fc bb 8a 66 40 3c 25 d0 34 bc
       -0.011449918 -0.0076948497 0.011743197 -0.011035954
000030 4c 28 cd bb 1f 54 b3 3b a6 11 3f 3d 4d 9a 71 ba
       -0.0062609073 0.0054726745 0.04664769 -0.0009216413
000040 eb 24 15 bd 61 06 b8 bc 44 57 a1 3c 5e e3 6a bc
       -0.03641216 -0.02246398 0.019694932 -0.014336435
000050 19 d0 1c bc 88 ec 72 bc 4b b6 9b bc 67 3e c1 3b
       -0.009571099 -0.014826901 -0.019007822 0.0058973315
000060 4b ae 6d 3d ac 8b cf bc fa 96 65 3d b2 37 99 3b
       0.058027547 -0.025335155 0.056052186 0.004675829
000070 6f e7 f1 39 1f 0d 31 3b d4 bb 92 bb e3 b5 59 3c
       0.00046139534 0.0027015877 -0.0044779573 0.013287994
000080 d9 d8 8e 3c 2b 5e 93 3a e0 a1 3e bd b0 86 af 3d
       0.017437385 0.0011243274 -0.046541095 0.085706115
000090 bc 4a 02 3d b0 bd 15 3c ee 0c b4 3d d3 3e 51 ba
       0.031809554 0.009139463 0.08791529 -0.0007982079
0000a0 4d 31 0f 3c ba e6 a5 bb 7a 24 1b 3b 1c 1f 97 3c
       0.008739782 -0.005062905 0.0023672865 0.018447451
0000b0 6e bb 94 bc 4b 1c 5d 3d 00 1f ec bc d9 ce 1b 3d
       -0.01815578 0.05398206 -0.028823376 0.038039062
0000c0 63 36 27 3c a5 f1 0e 3c f8 51 e5 3a 7d 98 67 bb
       0.010205838 0.008724605 0.0017495742 -0.0035338693
0000d0 99 b1 e9 bb 4e f4 b4 3c 42 80 77 bb ec be 4c bc
       -0.007131767 0.02208915 -0.0037765657 -0.012496691
0000e0 85 11 c2 3d 31 aa b0 bc 34 6d 6a bd 54 d4 fd 3c
       0.09475998 -0.021565529 -0.05723305 0.030985035
0000f0 d4 25 99 3c ef 08 ad 3c e4 d1 60 bc 08 01 e8 3c
       0.018694796 0.021122424 -0.013721917 0.028320804
000100 67 dc 2d be 58 96 1d 3b 20 9d 0f be 38 3c 31 bd
       -0.16978608 0.002404591 -0.14024782 -0.04327032
000110 a6 77 a6 3e bb 55 a2 bc 72 34 d3 bc 22 50 6a 3e
       0.3251316 -0.01981627 -0.025781844 0.2288213
000120 f3 00 77 bc 45 3c 9e 3c da 85 04 3d 67 39 e5 3b
       -0.01507591 0.019315848 0.032354213 0.0069953683
000130 1f d6 cb 3d 30 8a 2f 3c 0c 38 6d 3e 09 ec 7d 3a
       0.0995295 0.010714099 0.23165911 0.0009686356
000140 83 a2 65 bc 18 4d 9e 3d ca f8 6a 3d 14 72 db b9
       -0.014015797 0.07729548 0.05736617 -0.0004185593
000150 a5 66 4f bd ca 18 4e bd c0 79 4b 3d 1c f5 05 bc
       -0.050635 -0.05031661 0.049676657 -0.008176114
000160 4e 1e e8 3d a1 8f 76 bc 4f 35 fa bb eb a4 a7 bb
       0.11333905 -0.015048892 -0.0076357494 -0.0051160953
000170 23 d2 2f bd b0 79 47 3d 7b c8 cd 3c d6 f9 59 bc
       -0.04292501 0.048700035 0.02512001 -0.013304194
000180 e9 a5 8d 3c f1 14 61 3c 70 d7 8d bc 31 d0 05 3e
       0.017291026 0.013737903 -0.017314643 0.130677
000190 f8 b2 52 3c f3 19 00 bc c8 fe fd 3e 74 fc e6 bc
       0.012860052 -0.007818687 0.49608445 -0.02819655
0001a0 0b 47 00 3b 24 d6 31 bd ce fd ff 3c 31 e2 af 3d
       0.0019573595 -0.04341711 0.031248953 0.085880645
0001b0 f8 75 85 3c 34 6b 82 3d 32 54 35 bc 39 59 dc 3b
       0.016291603 0.063681036 -0.011067437 0.0067245034
0001c0 28 ab 8a 3d 43 0c 09 bc b7 13 0a bc 62 8e 85 3b
       0.06770927 -0.00836474 -0.008427552 0.0040758112
0001d0 28 ec 9d bc 33 5c 04 ba 2d a1 7e bd d3 59 6e 3b
       -0.019277647 -0.0005049139 -0.062165428 0.0036369457
0001e0 30 65 6b 3d e1 cd df bc bf 84 53 3c 5c 95 0e bf
       0.057469547 -0.02731985 0.012910067 -0.55696654
0001f0 a1 41 80 bc ef 0a a8 bc c7 dc 55 bd 81 55 09 bf
       -0.015656294 -0.020513026 -0.052212503 -0.53646094
000200 91 e3 15 be 5a 81 16 3b 9d 6a 26 be de 1a e3 bb
       -0.14637591 0.0022965283 -0.16251607 -0.006930693
000210 9d 7a c3 3e 68 c7 bc bc ef cc 5c bd a9 34 40 3e
       0.38179484 -0.023044303 -0.053906377 0.18770088
000220 1e 31 f5 bc 4c 2c 82 3c 8f 73 0b 3d db 8e 52 3c
       -0.029930647 0.015890263 0.034045752 0.012851442
000230 2d 7f be 3b b3 17 1f 3d 83 65 20 3e 17 22 22 3b
       0.0058135004 0.03884096 0.15663724 0.0024739557
000240 52 a0 44 3d 0b da 56 3d 0a 28 52 3d 1e 61 ab 3d
       0.048004456 0.052454036 0.051307715 0.08368133
000250 c9 41 8a bd 02 5f 1e bd af a5 41 3c 64 04 80 ba
       -0.06750829 -0.038664825 0.011819287 -0.0009766934
000260 4e a0 97 3e 24 b1 5e bd a6 7c e1 bc 02 16 4a bc
       0.2961449 -0.054368153 -0.027525257 -0.012334349
000270 78 81 69 bd 7c 0e 4c bc bd cb 93 3d d8 fb 09 bd
       -0.057008237 -0.012454625 0.07216594 -0.033687443
000280 8e b4 b9 3c 3a 7b a7 3c 67 ad f0 bc e7 a3 92 3d
       0.022669103 0.020444501 -0.02937956 0.07160168
000290 0b a6 2f 3d 3d d4 84 bc 3a 66 94 3e 5e 20 8b bc
       0.04288296 -0.016214484 0.28984243 -0.016983207
0002a0 5a 17 0e 3c 82 07 0e bd 6d b8 ac 3c 3e 99 1b 3e
       0.00867256 -0.03467513 0.021084035 0.15195176
0002b0 f9 76 56 3d 74 b1 55 3d 51 26 8c 3b bc 2d cd 3c
       0.052359555 0.052171186 0.0042770286 0.025046222
0002c0 b1 54 5d 3d 46 a4 fb bb 2a b7 49 bb 42 59 04 3c
       0.054035846 -0.007679495 -0.003077934 0.008077921
0002d0 1c 7b 08 bd a7 3b be b9 1c 99 8d bd 06 1f ec 3c
       -0.03332053 -0.00036284068 -0.06913969 0.028823387
0002e0 7f de 4e 3d 93 c9 f0 bc 25 f6 00 3d eb b6 09 bf
       0.050505158 -0.029392993 0.03148474 -0.53794736
0002f0 c7 c4 d6 bc c6 c2 d4 3b 5e 67 09 bd f0 7c 07 bf
       -0.026216878 0.0064929454 -0.033545844 -0.52925014
000300 66 ea 75 3d ae 72 4c 3d f2 3b d1 bc f9 b0 36 bc
       0.060037993 0.049914055 -0.02554128 -0.011150592
000310 37 21 3e 3e ec c5 0b 3d 00 0e fb 3d f7 6c ae 3d
       0.18567358 0.0341243 0.1225853 0.08516877
000320 67 1d c0 3c 99 9b 32 3c fe da df bc 1f 37 10 3d
       0.02345152 0.010901355 -0.027326103 0.035208818
000330 68 91 fd 3d 79 e9 04 3e ce b8 fc 3d d1 41 c4 ba
       0.1238125 0.12979688 0.12339936 -0.0014973228
000340 4f 8c 22 bd a4 3b fe 3c 52 4a ec 3c 53 ea 56 bd
       -0.03968459 0.031034298 0.028844032 -0.052469563
000350 7b 49 2e 3b ce d5 6c bd b1 1d 43 bd e3 ff e8 3c
       0.002659409 -0.057821088 -0.047635738 0.028442329
000360 49 47 ae 3e 15 70 30 3d 8f 06 9a bc 1c 00 e0 3c
       0.3403876 0.04307564 -0.018801956 0.027343802
000370 dc 79 6c bc 67 49 ba bb 1c 6a 60 bb 45 09 7e bb
       -0.01443335 -0.00568502 -0.0034242934 -0.003876285
000380 3e d5 ce 3d bc ee 49 3f 40 9e 5b bc fd a9 fe 3c
       0.100992665 0.78879905 -0.013404429 0.031086916
000390 e7 f8 00 3d b5 81 de bc 9b c2 b8 3d 23 1e 48 be
       0.03148737 -0.027161459 0.09021493 -0.19542746
0003a0 99 9b 8d 3e cd 69 09 3d 87 0b 76 be 4d d1 7e 3c
       0.27657774 0.033548165 -0.24027835 0.015552831
0003b0 44 17 bc bb 75 8f ae ba 61 f2 85 3c c6 e0 14 bb
       -0.005740078 -0.00133179 0.016350927 -0.0022716983
0003c0 2f 27 32 3c a2 55 00 3b 44 49 90 bc 11 46 be 3c
       0.0108736 0.001958229 -0.01761306 0.02322677
0003d0 bd 81 49 3d 40 f0 1e bd 08 11 a4 be 70 79 03 bd
       0.049195994 -0.03880334 -0.32044244 -0.032098234
0003e0 02 bf e2 3d fb 69 a1 3d dc 58 8d 3b b8 4c a7 3d
       0.11071588 0.07881542 0.0043135714 0.0816893
0003f0 32 e6 ce 3d 63 77 ce bc 30 00 51 3d 44 5f 98 3c
       0.101025 -0.025203412 0.05102557 0.018600114

log_std.bias f4 [5]
000000 22 a1 ad be a4 7d f7 be e7 d1 fe be c7 98 74 bf
       -0.33911997 -0.48338044 -0.49769518 -0.9554562
000010 d0 3c 8e bf
       -1.1112309

mu.weight f4 [5, 64]
000000 47 bb 92 bd ad 65 61 3e df a2 a6 3d a1 f0 e5 bd
       -0.071646266 0.22011442 0.08136534 -0.11227537
000010 50 ec 50 3f aa 0c 41 bf ac dd be bb 33 d6 32 bc
       0.81610584 -0.7540995 -0.005824765 -0.010915327
000020 e3 0c 46 bd ff b8 b2 be f5 87 4d 3d 95 b6 78 be
       -0.048352133 -0.34906766 0.050178487 -0.242884
000030 66 65 9c 3c 0d 43 02 ba e8 4d 02 be 81 4a c6 bd
       0.01909132 -0.0004969098 -0.12725031 -0.09682179
000040 93 65 83 39 26 0e 9e 3e cc a3 ae bc e3 4b ab bd
       0.00025061946 0.3087017 -0.021318339 -0.083640836
000050 74 aa 75 3e de e7 64 be c7 26 96 3d bf 41 a3 be
       0.23990804 -0.22354075 0.07331615 -0.31886098
000060 d8 64 e5 be b7 88 48 bd f7 a7 61 3e 8f ef 74 3e
       -0.448035 -0.048958506 0.2203673 0.2391951
000070 7e 2c 44 3e 48 42 e0 3d e3 29 8e bc 30 a3 42 3e
       0.19157597 0.10950142 -0.017353958 0.19007564
000080 1a 25 6e 3d a3 66 5b be e6 0a 5e 3e ac 63 47 be
       0.05814085 -0.21425872 0.21683845 -0.19471616
000090 57 db 55 bc 84 d7 c9 be 31 61 fc bc 6b d6 ce 3d
       -0.013052783 -0.39422238 -0.030808063 0.10099491
0000a0 a9 87 65 3b 1e 11 67 3e 52 e4 cc 3b 14 20 3b 39
       0.0035023487 0.22565123 0.006252804 0.0001784566
0000b0 6b 7c 66 3e 65 c3 a3 be da 27 c2 bd 7d 65 d2 be
       0.22508399 -0.31985012 -0.09480257 -0.41093054
0000c0 d6 22 1f bd de 83 fb be 8b bd da 3d d9 f1 f3 bb
       -0.03885158 -0.49124044 0.10680684 -0.007444602
0000d0 e2 b0 9f 3e 7b 43 6c 3d fe 68 aa be bf 74 d8 3d
       0.31189638 0.057681542 -0.33283228 0.105691426
0000e0 a2 74 32 be 19 73 22 3e 30 5d 48 be b1 9e 2e be
       -0.17427304 0.15864219 -0.19566798 -0.17052723
0000f0 56 a1 92 3d 9d 02 a8 be db 33 7b 39 e2 c5 63 bd
       0.07159679 -0.32814494 0.00023956543 -0.055608638
000100 5c 41 3d 3e 69 1b d9 bc 9e 91 66 be 3c 72 0d be
       0.18481964 -0.026502328 -0.22516486 -0.13813108
000110 78 9d 51 3f 7c fa 89 bd d8 6f d5 bd 3f 3a 3b bf
       0.81880903 -0.06737229 -0.10421723 -0.7313575
000120 fb 59 12 bd 7a d7 03 bd 8e 1b 83 bf a6 4f 3c 3f
       -0.035730343 -0.032187916 -1.0242784 0.73559034
000130 b3 29 8e 3d 29 18 c5 3d f1 da 75 be 2e 2c 08 3d
       0.06941547 0.09623749 -0.24009301 0.033245258
000140 6f 47 08 bd 29 d7 e2 3e 48 f7 8f 3e 67 db 42 bd
       -0.03327125 0.4430478 0.28118348 -0.04757252
000150 78 b9 2f bf 33 f4 f5 bd 01 64 09 bf c8 f3 79 bd
       -0.6864238 -0.12009468 -0.5366822 -0.061023504
000160 80 81 06 be e2 18 19 bd 98 20 e0 3d bc d9 1d 3e
       -0.13135338 -0.037377246 0.10943717 0.1541509
000170 72 9c 3c be 30 b8 bc be 3a a9 1e bc 05 28 dc bd
       -0.18419054 -0.36859274 -0.009683901 -0.107498206
000180 11 a2 fb 3c ea 7a 93 bc 51 ac e1 bb 32 3e 0a 3f
       0.030716928 -0.018002946 -0.006886997 0.5400115
000190 b5 d4 99 be 32 e1 e6 3d f6 a7 8c bd 0f eb 91 3d
       -0.30045095 0.11273421 -0.068679735 0.07124912
0001a0 05 d0 52 bc b5 f1 79 bd c1 9c 83 bd 77 73 87 3e
       -0.0128669785 -0.061021525 -0.06426383 0.2645528
0001b0 5e b4 2a be de ba c7 3d 3a f2 b3 bd 13 6e 25 bc
       -0.16670367 0.09752439 -0.087864354 -0.0100970445
0001c0 c4 9f 1a 3f d0 6e ce 3c b3 56 9f 3c 52 1a fd 3d
       0.60400033 0.025199324 0.019450521 0.12358536
0001d0 6f a6 83 3d 70 2f e0 3d cf 46 94 3c 50 79 9c 3e
       0.06428229 0.10946548 0.01810017 0.30561304
0001e0 45 75 13 bd 55 38 04 be 2e 5c 19 be ac 57 16 3f
       -0.03600051 -0.12912114 -0.1497657 0.58727527
0001f0 10 36 9f bd f7 dc cb bc b3 09 45 3f 8d c8 44 bf
       -0.077739835 -0.024885638 0.76967925 -0.76868516
000200 9b 97 2e be e9 f2 f8 ba 91 db 89 3e d9 7f 3c 3e
       -0.1705002 -0.0018993291 0.26925328 0.18408145
000210 87 cb 78 bf f0 c1 e0 3a 79 22 7a 3c 79 01 24 3f
       -0.9718556 0.0017147642 0.015267008 0.6406475
000220 5f 1e 0d be 53 5d 45 3c 6b c2 47 3f 1a 50 f2 be
       -0.13781117 0.012046176 0.78031033 -0.47326738
000230 ac 12 ec be 1d 28 04 bd d3 af 7b 3e d5 ca 66 3b
       -0.46107996 -0.032264818 0.2457879 0.0035216112
000240 89 62 d8 3d d3 f4 a5 3d 33 f6 b1 3e 77 65 44 bf
       0.10565669 0.08103337 0.34758148 -0.76717323
000250 a4 b1 2b 3f 4d 0f df 3e ac c6 b6 3e 31 01 4e 3e
       0.67067933 0.4356636 0.3569845 0.20117642
000260 aa 6c 6e be 29 cf ee 3b 28 0a 5d 3d 2c f6 84 be
       -0.2328364 0.007287879 0.053964764 -0.25969064
000270 46 02 d7 3d 7e 9e 87 3c 7f ed 90 bd 7f fa 93 3e
       0.104984805 0.016555067 -0.07076549 0.2890205
000280 f1 ad 49 bd 23 b1 32 be 6d e2 e5 bd a8 3f 89 be
       -0.04923815 -0.17450385 -0.11224828 -0.26806378
000290 f4 c4 8f be af 6d ba bc d7 ec 22 3e 36 b2 61 bd
       -0.2807995 -0.02275738 0.1591066 -0.055101596
0002a0 e2 db 91 3d fd 2d b9 3e a7 b4 ad 3d a5 af 33 bf
       0.071220174 0.361679 0.08481722 -0.7018989
0002b0 e4 fd e4 3d 12 41 c9 bd aa b0 19 3e af e6 3d bd
       0.11181238 -0.09826864 0.15008798 -0.046362575
0002c0 91 a2 c5 be fc dd 60 bd 97 d5 ce 3c 74 9b 0e be
       -0.3860059 -0.0548992 0.025248332 -0.13926488
0002d0 04 f6 2d be 5f 26 33 3c 1d 12 6f 3d da fe a3 be
       -0.16988379 0.010934441 0.058366884 -0.32030374
0002e0 d1 27 32 3d 5d 7c d2 3d 79 57 9f 3d 45 cc 58 3f
       0.043495003 0.10277627 0.07780356 0.8468669
0002f0 5b 8e f3 3c 39 b5 03 be 65 1d 45 bf e0 83 51 bf
       0.029730966 -0.128621 -0.7699798 -0.8184185
000300 85 dd a2 3e 3e a0 12 3f fd e3 90 bd c2 a4 00 be
       0.3180963 0.5727576 -0.07074735 -0.1256285
000310 21 a1 ee bd 7e df 2d be e6 3e 8a 3e 63 e5 74 3e
       -0.11651827 -0.16979787 0.27001113 0.23915629
000320 7f 03 89 be 1b 6e 72 3e 31 8f a2 bd e6 49 24 3d
       -0.2676048 0.23674814 -0.07937468 0.040109538
000330 2f b9 5a 3e 5b 4b da be ee c3 73 be 63 09 89 3c
       0.21359704 -0.42635617 -0.2380521 0.016728109
000340 6c 51 bf 3d fb cd dc bc 26 87 dd 3b 2e 94 11 3c
       0.09341702 -0.026953688 0.0067604957 0.008885426
000350 24 4e 26 bc 83 53 0b 3b d0 41 30 bd aa dc ed bd
       -0.010150466 0.0021259494 -0.043031514 -0.11614354
000360 e4 90 48 3f ce 09 04 bf f7 6d 9b 3e 06 6e 0f b9
       0.78346086 -0.5157746 0.30357334 -0.0001367853
000370 cf 76 c9 3d 6d 38 38 3c cb 3e 31 bd 93 c8 25 bd
       0.09837114 0.011243922 -0.043272775 -0.040474486
000380 9a 3d 0d 3f a5 cf 97 be 9c 0d 0e be d7 52 d7 bc
       0.5517212 -0.29650608 -0.13872379 -0.026284618
000390 7e d7 dd 3d 0d 12 e2 3d d8 da 02 be af 56 44 be
       0.108321175 0.11038599 -0.12778795 -0.19173692
0003a0 a6 02 3a bf 38 80 3d 3d c8 d7 2d 3e ae 4c 4f 3e
       -0.7266029 0.046264857 0.16976845 0.20244095
0003b0 d2 ea 37 bd 48 d9 46 bd 00 61 4d 3d 42 15 a2 3c
       -0.044901676 -0.04854706 0.050141335 0.019785527
0003c0 48 2f c5 bc 32 8e 5c 3c 22 de db 3c 3d ed 33 3d
       -0.024070397 0.013461636 0.02683932 0.04392742
0003d0 13 61 f6 bc ff 73 eb bd d9 4f ce be b7 67 a5 bc
       -0.030075585 -0.11496734 -0.40295294 -0.020191057
0003e0 98 6b 3d bf 80 12 d9 3e 78 d0 c9 bd 9b 6a f6 bc
       -0.739923 0.42396927 -0.098542154 -0.03008013
0003f0 7b f0 1e 3e ef f7 5c 3d 60 f1 87 3d 63 07 ef 3c
       0.15521424 0.053947385 0.066378355 0.029178327

mu.bias f4 [5]
000000 75 de ff 3e 61 63 1b 3d 20 c2 b5 3c ae d9 23 3f
       0.4997441 0.037936572 0.022187293 0.6400403
000010 59 a2 34 bd
       -0.04410014
