masac/model/simple_tag/agent_2/571_critic_params.pth (torch, 115263 bytes, 14 tensors)

critic1.0.weight f4 [64, 82]
000000 6c 92 a8 3d d6 46 8b be 5e 82 af 3d 5b 03 0d 3e
       0.08231053 -0.2720248 0.085697874 0.13770811
000010 ad 42 4c be da 07 26 3e 53 7a 37 be de 9f 3f 3d
       -0.1994731 0.16213933 -0.17917757 0.04678332
000020 87 d1 00 3e df 6c a0 bd 3f a9 70 be 01 54 0d be
       0.12579928 -0.078332655 -0.23502062 -0.13801576
000030 11 a7 c0 bd 2e ea 49 3d 59 42 8f be ef 84 f3 3d
       -0.094068654 0.049295597 -0.27980307 0.118905894
000040 78 96 6d bd 6a 71 e6 bd 86 c1 e4 3b 29 5c f2 bd
       -0.058004826 -0.11252101 0.0069810776 -0.118339844
000050 72 ed 04 3d 6e 3d 1f 3e 67 9a ba 3d c6 79 bd bd
       0.032453008 0.15550777 0.09111481 -0.09251742
000060 ff 1d 22 be d6 e4 cc bb 21 79 f6 3d 51 80 00 bd
       -0.15831755 -0.0062528653 0.12034822 -0.031372372
000070 ee f4 1c be a2 6a 0f bd 67 b9 82 bd 9e 43 22 be
       -0.15327808 -0.035013802 -0.06383019 -0.15846106
000080 9a 12 8b bd 05 99 02 3e 40 ac a5 be 46 79 a9 bd
       -0.06790657 0.12753685 -0.3235798 -0.08275084
000090 1d 33 fe 3d ce b5 07 3e 03 f5 eb 3d a5 fd 7e bd
       0.12412093 0.13252947 0.11521342 -0.062253613
0000a0 11 c3 62 3e 3d bc 92 3d 4f 90 90 bd a9 69 a3 3d
       0.22144724 0.0716481 -0.07058775 0.079791375
0000b0 af 85 fd bc 8c 4f 08 be 64 94 90 bd d3 83 06 3e
       -0.030947534 -0.13311595 -0.07059553 0.13136224
0000c0 32 6f b4 bc 9e 22 72 3e 20 c2 22 bf d8 95 9f be
       -0.022025678 0.23646018 -0.6357746 -0.3116901
0000d0 c6 e7 a0 3d 3a fe af 3e df 5a 01 be d0 30 14 be
       0.07856707 0.34373647 -0.12632321 -0.14471745
0000e0 03 b8 43 3d f6 14 83 bc 47 0a b7 bd 97 d4 96 3d
       0.04778291 -0.016001206 -0.08937507 0.07364767
0000f0 3f e9 28 be 5c eb 9f 3c 12 7e da bd 6a 2b fd 3d
       -0.16495226 0.019521408 -0.10668577 0.12361796
000100 9c 31 31 3d d2 fc 3a be 92 e7 b1 bd b9 31 46 bd
       0.0432602 -0.18260506 -0.08686747 -0.048387263
000110 bf 77 41 be 87 ec 41 bd 81 a6 b2 bd c0 63 79 3c
       -0.18893336 -0.04734471 -0.08723164 0.015221536
000120 c0 19 b9 bc fe c1 54 bd fd 4e 80 3d f1 0f d3 bd
       -0.022595286 -0.051942818 0.06265066 -0.10305775
000130 1f af d9 bd c9 6f a8 3d 08 cd 13 be e4 1d 32 3e
       -0.10629105 0.08224446 -0.14433682 0.17394215
000140 39 93 d6 3d fa 6e e4 bd f7 91 7e 3d 88 b2 33 bd
       0.10477299 -0.111539796 0.06215092 -0.043871433
000150 13 f1 1a 3d 47 99 64 3c 53 2a 2e be b4 28 3d 3d
       0.037827563 0.01395256 -0.17008333 0.046181396
000160 cd da ce 3c 96 a1 9a 3d 94 70 1d 3f 24 52 28 3e
       0.025250817 0.07550351 0.61499906 0.16437584
000170 9c 64 38 bc 57 1e b5 3d 56 2c d8 be 8b 9f 4f be
       -0.011254456 0.088436775 -0.42221326 -0.20275705
000180 e1 3b 34 bd 0c 5f 65 be b4 9f 04 3f 44 77 b8 3e
       -0.044002417 -0.22399539 0.5180619 0.36028492
000190 0c 3b 2f 3f be 65 96 3e b9 40 86 be 56 f7 8c be
       0.68449473 0.29374498 -0.26221254 -0.27532452
0001a0 f5 b4 f1 be 3b bb 7f be 0c 24 f0 be c9 0a 9e bd
       -0.47208372 -0.24973767 -0.46902502 -0.07716901
0001b0 7b 91 bc be f4 36 d2 bc af 62 ee bf 5d 2d 61 bf
       -0.36829743 -0.02566097 -1.8623866 -0.87959844
0001c0 be e8 a7 be da ce 16 be 97 24 90 bd 8e 0d b6 3b
       -0.32794756 -0.14727345 -0.07038229 0.005555815
0001d0 c8 fe 35 be 4e a2 55 bc 21 5f 04 bd ff e5 08 bd
       -0.17772973 -0.013039185 -0.032317284 -0.033422466
0001e0 9f 85 65 bd f8 72 62 bd 50 b6 1b 3d 77 0c d9 3d
       -0.056035634 -0.055285424 0.038015664 0.105980806
0001f0 1e 21 de 3e f2 cb 5e 3e 78 18 f7 be 5a 17 22 be
       0.4338464 0.21757486 -0.48260856 -0.1582922
000200 b1 b2 8d bc 97 cd 49 bd b3 ab 2e be 3a 88 8e 3d
       -0.01729712 -0.04926833 -0.17057686 0.06959577
000210 a2 d9 07 bf 32 70 16 be e8 9a f5 3e 5d 36 52 3e
       -0.53066456 -0.14691237 0.47969747 0.2052855
000220 97 44 10 3f 80 98 68 3e 7d 9b c0 3e 61 7a 3d 3e
       0.5635466 0.22714424 0.37618628 0.18503715
000230 4b 05 cd 3f ae 28 6a 3f 3c 95 ba 3e 85 2c 3c 3c
       1.601724 0.9146832 0.36441982 0.011485224
000240 21 7c a9 3c 24 1c c6 bc ce 11 45 3c 90 60 bb 3c
       0.020689072 -0.02418334 0.012028171 0.022873193
000250 37 d4 a8 3c 41 20 b2 bc 8a 69 36 3e fc 34 8d be
       0.020609004 -0.021743895 0.17813697 -0.27579486
000260 a3 74 32 3e 4c 00 16 be 94 41 48 3c b9 fb e9 3b
       0.17427306 -0.14648551 0.012222666 0.0071406034
000270 5f 4c ea 3c 72 25 0d bd 65 90 5a 3d 1f cc 52 3c
       0.02860087 -0.03445954 0.05336036 0.012866049
000280 d9 57 a9 be 3f 6b b6 3e 6e 53 10 be e5 40 0f 3e
       -0.33074835 0.35628697 -0.14094326 0.13989599
000290 8c 4f 81 bd ab 0c 2e 3e 30 b0 14 bf b7 43 91 3e
       -0.063140005 0.1699702 -0.5808134 0.28371975
0002a0 e3 73 fa 3c c4 90 aa 3c 23 62 0a 3e fe cb 8c be
       0.030572837 0.020820983 0.13513999 -0.27499384
0002b0 f2 4c 07 be 9a 7d 7e bd ed 3c b3 bd 70 b6 6d bd
       -0.13212946 -0.0621315 -0.08751855 -0.058035314
0002c0 ce 04 fe bd 7e 07 50 3e 1f f5 3f 3e dc bd a0 bc
       -0.1240326 0.20315358 0.1874585 -0.019621782
0002d0 b4 9c f5 bc 42 52 01 3e 0c bd 14 bf cc 1c f5 3e
       -0.029981948 0.12629035 -0.5810096 0.47873533
0002e0 01 4c 7a be dc 20 8a be 12 09 70 bc 54 c8 b5 bd
       -0.24443056 -0.26978195 -0.0146506 -0.088761
0002f0 d2 8f 8f be ae 51 96 3d 5c c7 4b 3b d9 eb 94 bd
       -0.28039414 0.07339798 0.003109417 -0.07271547
000300 ab b9 0a be 8e 76 c6 3e 3a 8e e2 bb 69 c2 3a bd
       -0.13547389 0.38762325 -0.0069139274 -0.04559556
000310 cf 0a 6d be 8f 74 11 3e 55 e3 15 bf a3 1b 12 3f
       -0.23148654 0.1420462 -0.58550006 0.5707342
000320 b7 62 8b 3d a2 72 98 bd 10 eb 60 3e 8d 99 92 be
       0.06805938 -0.074437395 0.21964669 -0.28632775
000330 b8 2b ba 3d 4a fc 97 bc b7 d6 24 be 50 79 1a 3e
       0.0909037 -0.018552918 -0.16097532 0.1508534
000340 00 3a 5f bd 6d 44 92 bc ac d2 3b be 51 f4 38 bd
       -0.054498672 -0.017854894 -0.18342084 -0.045154873
000350 b4 29 c8 bd 73 41 1d 3e 26 57 1d bf f4 a1 0c 3f
       -0.09773579 0.15356998 -0.614611 0.5493462
000360 d9 3d 64 3d c9 a1 08 be aa bb 19 3e 3e 1a e8 3d
       0.055723045 -0.13342966 0.15012994 0.1133313
000370 14 49 52 be 5c 20 36 3e c9 cf 0d 3e c8 8f ae bd
       -0.2053569 0.17785782 0.13848795 -0.08523518
000380 c9 fe fb bd 12 d4 10 3e f8 27 1a bd de bd 6f bd
       -0.12304456 0.14143398 -0.037635773 -0.05853068
000390 a1 d7 b0 3c 1d df 9d 3d eb 2a bb bb c8 9b 3e bd
       0.021587195 0.07708571 -0.0057119033 -0.046535283
0003a0 db ad 4f 3d a6 05 12 bc 48 b2 bb 3d b4 8d 4d bd
       0.05070291 -0.0089124795 0.09164864 -0.050183967
0003b0 0d 0b 99 bc 8a 17 98 bd cb 17 a7 3d 14 b3 ec 3b
       -0.018682027 -0.07426365 0.08158835 0.007223496
0003c0 ae 06 9a bc e7 8c 0b bc aa 13 ff bb 0d 2c 61 3d
       -0.018802013 -0.00851748 -0.0077843266 0.05497365
0003d0 93 35 02 3d 0c 1b e5 bd 18 83 26 bd d3 cc 41 3c
       0.031789374 -0.111867994 -0.040652364 0.011828619
0003e0 d8 44 d5 3d 7a 11 f0 3d 31 39 73 3e 8e 7e 26 be
       0.104135215 0.117220834 0.23752286 -0.16259214
0003f0 0c 0d f2 bd df 99 ef 3d 41 2b c8 3e 58 96 35 be
       -0.11818895 0.116992705 0.390955 -0.17733133

critic1.0.bias f4 [64]
000000 7f cc 88 c0 a0 27 f7 3d 23 ec d6 3d 4c 94 b2 3d
       -4.274963 0.12068105 0.10494258 0.08719692
000010 49 4b 13 3f bf fc a2 3f 80 a9 fe 3f b2 a5 a3 be
       0.5753675 1.2733382 1.9895477 -0.31962353
000020 20 a4 09 40 16 a4 ab be 34 26 93 3f e0 bb 29 3f
       2.1506424 -0.33523625 1.1496034 0.663023
000030 a6 f0 38 3f d4 4f 43 3f b7 86 84 3f 6b d7 38 bd
       0.722422 0.76293683 1.0353612 -0.045127314
000040 49 d8 69 be ae bb 98 3f 68 ea ad 3e 48 91 46 be
       -0.22836412 1.1932275 0.339679 -0.19391358
000050 8c 46 00 3d c9 a3 50 3e 66 5d 0e 40 b2 f9 94 be
       0.03131728 0.20374979 2.2244506 -0.29096752
000060 cd 3d a8 bd a2 cc 64 3e f3 dc b9 bd b2 57 1b 3f
       -0.082149126 0.22343686 -0.09075346 0.6068069
000070 2c 4b 5c 3f 8d 60 f0 3f 34 45 c5 be 57 fe 03 c0
       0.86052203 1.8779465 -0.3852936 -2.0623987
000080 0d 82 ea bf 3e 0c 6e 3f 03 39 6e 3e 00 e8 ba 3f
       -1.8320938 0.9298743 0.23263936 1.4602051
000090 74 6b 1a bd 6a 71 58 3c 86 4f 9a bf 63 f2 10 3f
       -0.03770013 0.013210634 -1.2055519 0.5661985
0000a0 4b 19 8b bd 66 eb b8 bf d2 87 17 40 2d 79 ea 3d
       -0.067919336 -1.4446838 2.3676648 0.11448894
0000b0 a4 77 5e 3f 35 b2 bb be 09 38 08 40 d1 4c a1 3f
       0.8690131 -0.366594 2.12842 1.2601568
0000c0 4d 59 b8 3d 5b c9 80 3f ca a0 77 be 1c e5 81 3f
       0.09001408 1.0061449 -0.2418243 1.0148044
0000d0 94 97 da be 2b 9d 0d 40 70 96 c7 3f f0 ea 50 3f
       -0.4269377 2.2127178 1.5592785 0.81608486
0000e0 bc 69 b7 3d 8b 6b 2b 3f 6a bf a0 3f c5 9f 84 bf
       0.08955714 0.6696097 1.2558415 -1.0361258
0000f0 ed c6 36 3d 64 c9 83 3f 01 60 a0 3e 12 06 8b bd
       0.044623304 1.0295835 0.31323245 -0.06788267

critic1.2.weight f4 [64, 64]
000000 c5 ef aa bf 07 b0 eb bc 87 52 93 3d e1 e2 f2 3e
       -1.3354422 -0.02877046 0.07193475 0.4743872
000010 6e c5 8e 3e af 25 76 be b7 59 49 bd f2 19 a8 3b
       0.27885002 -0.24037813 -0.049157824 0.005130046
000020 61 90 2a 3e 55 96 b9 3e cb 51 64 3f 93 66 a6 3d
       0.16656639 0.36247507 0.89187306 0.08125033
000030 df 9f 78 3d 96 9c a1 3b dd 99 cc 3f 40 33 aa 3d
       0.06069934 0.0049319966 1.5984455 0.083105564
000040 f4 86 c9 bd b4 fa c1 3e d7 15 b3 3e ac e6 82 3e
       -0.098401934 0.37886584 0.349776 0.25566614
000050 18 06 34 3d bf 66 50 bd ec 04 7e 3e 15 dd ff 3d
       0.043951124 -0.050879236 0.24806565 0.1249334
000060 67 51 8d 3d dc 3a d9 bd d6 31 29 c0 3c ec 16 bc
       0.06900292 -0.1060693 -2.6436667 -0.009211596
000070 d6 d2 0f be f8 74 7e 3e 28 1e c3 bc a2 a4 3c 3d
       -0.14045271 0.24849308 -0.02381809 0.046055444
000080 b0 35 9a 3b 7e 8f ad 3d c2 1e 95 3e d2 4d d2 be
       0.004706107 0.084746346 0.2912503 -0.41074997
000090 0f ff bc bd 62 51 c2 bc e6 e6 88 be 0d 85 8c 3d
       -0.09228336 -0.023720447 -0.26738662 0.06861315
0000a0 a4 ab 0b be da 29 87 bd ea fb a8 be 65 91 2e bd
       -0.13639694 -0.065997794 -0.33004695 -0.042619128
0000b0 6b b8 d6 3d 3c 7f fd 3c e9 4e bb bd a3 b6 62 3e
       0.10484394 0.03094446 -0.0914591 0.22139983
0000c0 5d 30 f3 3b ed cd b3 be 2d 13 e7 3d 8f fc df bc
       0.007421537 -0.35118046 0.11282954 -0.027342109
0000d0 eb 69 f7 3b 5a 57 31 bd 4a bc e8 3d fe 6a 6b 3c
       0.007550468 -0.043296196 0.11364038 0.014368771
0000e0 27 35 eb bc f9 c9 58 3c 9c d2 a7 be 25 53 61 3e
       -0.028711868 0.013231748 -0.3277787 0.22004373
0000f0 44 41 11 c0 9c ef 68 be be 10 5c bd 0f e5 3f c0
       -2.2696085 -0.22747654 -0.053726904 -2.9983556
000100 a3 f2 3c bf f7 e0 bf bb aa aa 69 3e 18 45 62 bd
       -0.73807734 -0.0058556753 0.2281901 -0.055241674
000110 42 0b 0a 3f 52 6b 4f 3d 46 7c c5 bd a2 9c e5 bb
       0.5392343 0.050639458 -0.09642844 -0.0070071975
000120 62 ce 08 3e 27 45 4d 3e 6a da 5f bd 4f 24 ef bd
       0.13359979 0.20045911 -0.054651655 -0.11676847
000130 ad f5 26 be 69 a8 0b 3d ad 13 9f 3a e8 68 16 3c
       -0.16304655 0.034096155 0.0012136601 0.009180285
000140 65 f8 5a bd 65 5c 27 3b 1d 3b 69 3d 30 bd 19 3f
       -0.053459544 0.002553725 0.05694114 0.600543
000150 fe 6e a2 bf b3 95 58 3e 18 ab 2e bd cd 85 d7 3d
       -1.2690122 0.21150856 -0.042643636 0.10523567
000160 f4 61 92 be 81 cf 00 be 6f c8 7c bc 04 01 91 be
       -0.28590357 -0.12579156 -0.0154286465 -0.28321087
000170 ba c9 77 bd bb c3 55 3e 22 dd 94 bc 37 02 60 3b
       -0.060495116 0.20875446 -0.01817185 0.0034181008
000180 08 0f 48 bd 0c d6 5c 3e da a9 91 3b 9d 15 03 3c
       -0.04884246 0.21566027 0.0044452967 0.0080007585
000190 fc 36 3b 3e a2 50 a3 3d 8a 4b 75 3b 52 74 0b 3b
       0.18282694 0.07974364 0.0037429058 0.002127905
0001a0 a5 c1 43 c0 9d 45 76 bc 05 2a f0 3e de 84 32 bd
       -3.0586941 -0.015031246 0.46907058 -0.043583743
0001b0 3c 89 83 3c 92 f7 98 bd 23 ec e6 3b 40 b6 bb 3c
       0.01605665 -0.07469095 0.0070471927 0.022914052
0001c0 ff 55 3a c0 df 0a 88 3d 80 e8 14 3e 22 f9 5d 3e
       -2.9114988 0.066426985 0.14541817 0.21677068
0001d0 47 f9 d1 bd ee 8e c3 bd d3 ab fd 3e b1 32 e6 3e
       -0.10252624 -0.09548746 0.49545154 0.4496055
0001e0 69 14 3b c0 7e 9e af bd 7e af 05 bd a5 11 a9 3d
       -2.9231207 -0.08575152 -0.032638066 0.082553186
0001f0 cf de a6 bc a7 c5 11 3d b6 b5 48 3d b0 d8 d7 3c
       -0.020369915 0.035588887 0.049001418 0.026348442
000200 b5 7d 26 c0 85 f0 60 3e f5 99 0d bc a5 ac d8 3d
       -2.6014225 0.21966751 -0.008642663 0.10579804
000210 23 12 b7 3d 88 00 57 bd 0e f7 27 3d 59 81 66 bc
       0.08939006 -0.05249074 0.041007094 -0.014068925
000220 48 23 f4 bd 61 18 3a be 5d 1e 9f 3f 87 ca a4 be
       -0.11920792 -0.18173362 1.2431141 -0.32185766
000230 af 2c 44 3e 40 43 1d 3e 2b a3 a0 be 42 ef 43 be
       0.1915767 0.15357685 -0.31374487 -0.19134238
000240 61 2d fb 3b aa 0b 0a 3f e0 d1 f0 bc 7c 8c 7e 3e
       0.0076653217 0.5392405 -0.029396951 0.24858278
000250 0d 0b bb 3c 26 53 ac 3d 51 02 d9 be 9a 19 77 bd
       0.022832418 0.08414297 -0.4238458 -0.06032715
000260 30 ef b7 bd 6c 1a ed 3d c8 fb d4 bf ce b1 71 bc
       -0.08981168 0.11577305 -1.6639338 -0.014751865
000270 cf ee 5a be 49 ab cc bd cb 2b e9 bd 0c 79 31 3e
       -0.21380161 -0.099936076 -0.11385306 0.17331332
000280 cd b7 25 be c3 92 46 3e 7f 7f 39 3c bb e7 93 be
       -0.16183396 0.19391923 0.011321901 -0.28887734
000290 2b c9 3a 3d d0 03 2d 3c 7f 23 75 3d 63 db 0f 3e
       0.045602005 0.010559991 0.059848305 0.14048533
0002a0 ac 88 21 be c9 9a d4 bd 6e aa aa 3d dd cd aa 3e
       -0.15774792 -0.103810854 0.08333288 0.33360186
0002b0 9f 76 74 3e ce 19 e9 3d 79 57 e0 3d 92 c5 97 bd
       0.23873375 0.11381875 0.10954184 -0.074107304
0002c0 33 88 d4 3d fc 54 7f 3d 1c 93 e4 3d 0e 5e 05 3e
       0.103775404 0.062336907 0.111608714 0.1302416
0002d0 cd 75 7e be 0b 54 3d 3e d6 96 83 3e a2 52 58 3e
       -0.24849625 0.18489091 0.25701016 0.21125272
0002e0 82 d6 40 3c 81 93 00 3e 3a 7b 23 3e 9b 61 20 bc
       0.011769893 0.12556268 0.15964976 -0.009788896
0002f0 eb 75 fe bf 48 c9 71 bd 09 3c 15 be c7 f3 a2 bf
       -1.9879736 -0.059029847 -0.14573683 -1.2730645
000300 ff b7 44 3e 8f ac ae bd 78 18 0f bf 6e 48 a1 3e
       0.19210814 -0.08529007 -0.5589671 0.31500572
000310 b7 e0 19 bd 0f af a4 3e 3f cd 43 3c c4 5a 59 bd
       -0.03756782 0.3216481 0.01195079 -0.053065076
000320 56 51 c4 3c 7e f8 c4 3e ee 16 86 3e 4a 12 c3 bb
       0.023964565 0.38470834 0.2618937 -0.005953108
000330 80 b0 ec bd ed 10 dd 3d e3 71 06 3f c6 b6 f0 3d
       -0.11557102 0.10794244 0.5251753 0.11753611
000340 1f 74 b0 3e de 65 0d 3e fa ef 14 be 66 cf 09 3e
       0.34463593 0.1380839 -0.14544669 0.13458022
000350 e7 15 a9 3d ff 61 c5 be 30 b7 f6 3d 93 40 4c 3e
       0.08256131 -0.38551328 0.12046659 0.19946508
000360 b8 de c6 be 05 79 b3 3d 52 de fe bc bf 42 12 be
       -0.38841796 0.08763317 -0.03111187 -0.14283274
000370 b6 b6 c7 3d 26 bb 01 bf bc 20 99 be f7 22 15 3e
       0.09751646 -0.5067619 -0.29907787 0.1456412
000380 1e 1d 4a bd 16 1f 01 be 0a 8b f5 be a1 6b d9 3e
       -0.049344175 -0.12609515 -0.4795764 0.42464927
000390 83 0d 60 3e d1 8d 2d bc fb af e7 3e e1 cb 5a be
       0.21880154 -0.010592894 0.4525145 -0.21366836
0003a0 00 fd 08 3e 7e a7 38 be 26 3a 52 3d 08 91 ad bf
       0.13377762 -0.18032643 0.051324986 -1.3559885
0003b0 a1 7a 11 3e d4 07 87 be 2d 17 20 3e f3 bc c9 be
       0.14206935 -0.2637316 0.15633841 -0.3940197
0003c0 1e af a1 3e 9e 11 20 be d8 6a 12 3f db 68 19 be
       0.31578916 -0.1563172 0.5719428 -0.14981405
0003d0 1e 6f d2 3c c3 de 8a 3d 92 98 bd be f7 61 a9 be
       0.02568775 0.0678077 -0.37030464 -0.33082554
0003e0 78 98 08 bd 0a 74 16 3e 78 3f 7b 3e 78 38 a8 3d
       -0.03334853 0.14692703 0.2453593 0.082138956
0003f0 49 a3 83 bc 79 67 fc 3e c8 67 21 bf e7 2b 37 bd
       -0.016069071 0.49297693 -0.6304898 -0.044719603

critic1.2.bias f4 [64]
000000 7e 68 25 3f 3f 87 54 3f 27 d2 5d 3f 9b 6e eb 3e
       0.6461257 0.8301887 0.8664879 0.45982823
000010 35 da 07 bf 0e 22 fd 3e 1c 9a 6a 3f 8e 68 a9 3f
       -0.5306733 0.49440044 0.916414 1.3235033
000020 56 4f 68 3f 34 e6 d3 3f 55 f1 96 bf 98 e0 41 3f
       0.9074606 1.6554627 -1.1792399 0.7573333
000030 8d 88 90 3e ed fb 87 3f 25 03 dc 3e c2 05 6f 3f
       0.2822918 1.0623757 0.4297115 0.9336816
000040 fc 57 77 3f a3 15 68 3f 0c 16 d8 bf c5 ac 81 3b
       0.9661863 0.90658015 -1.6881728 0.0039573633
000050 e1 d8 31 3f 05 55 b7 3f 58 8f 8d 3f d1 fc 81 3f
       0.69471556 1.4322821 1.105937 1.0155278
000060 a9 9b cb 3e c0 17 06 3f 59 db bb 3f 63 ab 88 3f
       0.39767197 0.5237999 1.4676315 1.0677303
000070 ac 41 32 3f 5d cb 8e 3f 5d 66 de 3f 9b 41 8c 3f
       0.6963146 1.1155812 1.7374989 1.0957521
000080 2f d1 bc 3f 75 b7 3e bf d1 82 d5 3d 13 5f 33 3f
       1.4751338 -0.74498683 0.10425342 0.70066947
000090 9f b5 1c 3f 84 06 67 3e aa 24 1f bf 45 45 54 3f
       0.6121463 0.2256108 -0.6216532 0.82918197
0000a0 b2 df 0b 3f 6b 24 b9 3f 50 1c 0e 3f 70 ee 73 3f
       0.54638207 1.4464239 0.5551195 0.952857
0000b0 2e 1e 9c 3f 6b a9 bb 3f 07 2e 9d 3f 6c a5 cf 3f
       1.219671 1.4661077 1.2279671 1.6222358
0000c0 9f 16 be 3f 69 c7 b1 3f 41 f6 14 3d 69 ac 41 bf
       1.4850653 1.388898 0.03636766 -0.756537
0000d0 dd db 67 3f d5 c5 32 be c8 f4 40 3f 69 b2 c2 bf
       0.9056986 -0.1745828 0.75373507 -1.5210696
0000e0 88 8c 31 bf 13 23 a3 bf 26 90 ed 3d 96 dd 0b 3e
       -0.6935506 -1.2745079 0.1159976 0.13658747
0000f0 dd e2 9e 3f 31 0b 8e 3f aa 4d 76 bf aa 34 78 3e
       1.2412983 1.1097165 -0.96212256 0.2423884

critic1.4.weight f4 [64, 64]
000000 92 81 1f bf 20 53 2b bf c7 d1 96 be a1 91 28 be
       -0.62307084 -0.66923714 -0.29456922 -0.16461803
000010 37 4c 34 bf 9a 34 75 3e 7a 40 42 bf 67 af 32 3f
       -0.70428795 0.23945847 -0.75879633 0.6979889
000020 90 b6 56 3e d0 d7 4f 3e 73 de bb bd 47 b8 99 be
       0.2096808 0.2029717 -0.09173288 -0.30023405
000030 3d c4 05 bf 40 b8 c9 be 73 e0 c3 3e 5d be ce bf
       -0.5225256 -0.39398384 0.3825718 -1.6151844
000040 40 a6 97 be 19 9a 98 bf be 5a 26 be d2 19 98 3f
       -0.29619026 -1.1922027 -0.16245553 1.188288
000050 29 4c 77 be bc d3 1e 3f 3a a6 b7 bd 64 99 88 bf
       -0.24150147 0.6204183 -0.08967252 -1.0671811
000060 4b 66 45 3c 13 22 4f 3e 9b 58 8c 3d 53 6c 6b 3f
       0.012048314 0.20227842 0.06852838 0.91962165
000070 57 0b 1b 3f 80 94 ae bb 35 d3 2e 3e 3c ee 5d bf
       0.6056418 -0.005327761 0.17072757 -0.8669164
000080 0f 07 3e 3e c7 2a f4 be b8 81 61 bd 78 95 96 bd
       0.1855738 -0.47688887 -0.05505535 -0.07352728
000090 71 a8 e3 bd f6 12 fb be 95 fb 32 bd 94 7f a7 3e
       -0.11116112 -0.49037904 -0.04369696 0.32714522
0000a0 fa 6c eb be 85 ee 21 be 9d d5 16 3f e5 20 f9 be
       -0.4598158 -0.15813644 0.589197 -0.4865791
0000b0 a5 a2 8b 3e b4 73 aa be 90 02 cb be 7a 15 56 be
       0.27272525 -0.332914 -0.39650393 -0.2090663
0000c0 3c 0e 18 bf 27 6c 11 bf c2 45 b6 be c5 73 41 bd
       -0.5939672 -0.5680565 -0.35600096 -0.047229547
0000d0 8f e4 b3 be 65 57 be bd de d8 ac 3f 75 f5 40 3f
       -0.35135314 -0.09294013 1.3503683 0.7537454
0000e0 77 ce a9 be 9a 0a 88 be 51 0d 3d 3e 8b 4e 83 bf
       -0.33165333 -0.26570588 0.18462111 -1.0258344
0000f0 66 9a 00 bf d3 f1 af be 67 ce 3b 3e e4 de 10 bf
       -0.50235593 -0.34364185 0.18340455 -0.56590104
000100 3a c6 aa 3e 4b 4f bf 3d c2 34 8a 3e 46 97 f3 bd
       0.3335436 0.09341296 0.26993376 -0.118940875
000110 ca 5f 49 bf fe 56 30 3f b4 56 05 3f 17 f6 25 bf
       -0.7866179 0.6888274 0.52085423 -0.6482863
000120 30 98 a7 bd 79 e1 12 bd 3c 38 85 bf 80 ee 56 3e
       -0.08183324 -0.03585956 -1.0407786 0.20989418
000130 71 af 17 3d a8 23 b9 3e 52 bb b4 be 6e b5 09 be
       0.03703255 0.36160016 -0.35299164 -0.13448116
000140 ec be a1 bc 5d 8a cb bd 6c 0a 16 bf 8a 0f 4d bf
       -0.019744359 -0.099385 -0.5860965 -0.80101836
000150 f5 c7 89 bf 78 6a 7f 3e a5 78 b4 be ef a9 6b 3e
       -1.0764147 0.24942958 -0.35248294 0.23014043
000160 25 77 5c bf e1 1e ea 3e ae ba e4 3e d8 59 96 3e
       -0.861193 0.45726684 0.44673675 0.2936542
000170 d3 37 96 be a0 c5 13 3e e5 5d f0 bd a4 be ba 3d
       -0.29339465 0.14430857 -0.11736659 0.09118393
000180 5c 53 fb 3e de cf a2 be a2 46 22 3e 49 11 76 3e
       0.49087036 -0.31799215 0.15847257 0.24030031
000190 40 df b3 3e ab 1a 3e bf 0d 36 84 be d5 7d 6f 3e
       0.35131264 -0.7425944 -0.25822487 0.23387845
0001a0 78 68 4e bc 17 e3 fb 3c 33 95 05 3e 97 ce b6 bc
       -0.0125981495 0.030747933 0.13045196 -0.022315307
0001b0 58 39 c4 bd e2 4c 55 3d 00 68 96 bd f3 fa 66 bd
       -0.0958125 0.052075274 -0.07344055 -0.056391668
0001c0 e2 00 b3 be 3c f1 bc 3d f9 d2 b6 be d8 b4 22 bf
       -0.3496161 0.09225699 -0.35707834 -0.63557196
0001d0 2e 5e 69 be 46 34 0e 3e ab bf ad bd 6e 29 f9 bd
       -0.22789833 0.13887128 -0.084838234 -0.12166105
0001e0 9d 97 a8 be ab 6b 0b bf 94 24 12 40 cd 06 47 3e
       -0.32928172 -0.54461163 2.2834826 0.19436188
0001f0 fe c5 82 be 5b ea af be e4 59 40 bf 2b 3a 64 be
       -0.2554168 -0.34358487 -0.7513716 -0.22287814
000200 1b b9 82 3e b0 71 1c 3f 84 68 27 be 51 62 0c bf
       0.2553185 0.61110973 -0.16348463 -0.5483752
000210 e7 13 01 be 93 da ac 3d 46 08 ac be 5b 70 7f be
       -0.12605248 0.08440127 -0.33600062 -0.24945204
000220 6f db 0d be a9 9b cf 3a 21 1e 34 bf 1c af e8 3e
       -0.13853239 0.0015839237 -0.70358473 0.45446098
000230 d3 f8 e7 3e d9 bd 28 bf 56 05 ac 3e cd 59 bb bd
       0.45307025 -0.65914685 0.3359782 -0.091479875
000240 4d 79 9a be c9 56 78 3d f3 90 b6 3c d8 81 ba bc
       -0.3017067 0.06062964 0.022285914 -0.022766992
000250 37 6a 21 3c cc 92 c9 3e 4c d0 77 3e 2d 0e 7d bc
       0.009851984 0.3936981 0.24200553 -0.015445274
000260 76 77 e9 3e 79 38 c7 be de 5a cd 3e cd e0 4a 3e
       0.45598954 -0.38910273 0.4010839 0.19812317
000270 2a 76 8e bc 0d 94 2e be 7f 5d 36 3e e5 02 0e 3c
       -0.01739033 -0.17048664 0.17809103 0.008667682
000280 f3 ba 74 3e c7 15 40 bf c2 01 39 be 34 06 07 bf
       0.2389944 -0.7503323 -0.18067077 -0.5274384
000290 e6 42 c9 3e 4e a6 9c 3a a9 a6 c8 be b4 54 e6 be
       0.39308852 0.0011951418 -0.39189652 -0.44986498
0002a0 37 b1 ca bd ad e3 ed 3e 38 40 28 bf 3f 23 9b be
       -0.09897082 0.46462765 -0.6572299 -0.30300328
0002b0 86 58 37 be 12 1c 02 be ee 07 27 3e 18 de 95 3e
       -0.17904863 -0.1270602 0.16311619 0.29271007
0002c0 7b 5b 00 3e c2 07 77 3e 67 a8 16 be 4b 37 9d 3e
       0.12534897 0.24124053 -0.14712678 0.30706248
0002d0 69 df d5 bd c9 22 ff 3c 1e cb b0 bd b7 81 39 bf
       -0.10443003 0.031144517 -0.086324915 -0.72463554
0002e0 e4 ab 2a be 9b 8e 17 3e 9a 8b f7 3f 8b 79 35 3e
       -0.16667134 0.14800493 1.9339478 0.17722146
0002f0 3e b0 dc 3c b4 f1 db bd 3f 58 0b bf 74 ef a7 bd
       0.026939508 -0.107394606 -0.5443153 -0.08199969
000300 80 6f 3d 3e 81 f7 a1 3f d5 a8 83 bc f7 24 00 bd
       0.18499565 1.2653657 -0.016071716 -0.031285252
000310 43 a1 df be ee 6b 55 3e f8 aa bd 3e 24 85 6e be
       -0.4367772 0.20841953 0.370445 -0.23292977
000320 a2 81 39 3e b8 75 17 bc c4 2f a2 be 07 df b6 3d
       0.18115857 -0.009244375 -0.31677067 0.08929258
000330 b5 87 ae 3e e9 a7 e5 bd 5a fe 76 bc 3a 4b 5d 3e
       0.3408791 -0.11213667 -0.015075291 0.21610728
000340 04 14 88 3e 7f 26 bc 3e 85 a8 f8 3d 38 a0 57 3d
       0.2657777 0.3674812 0.121415175 0.05264303
000350 95 6f 2f be 85 59 1b 3e b5 96 8f 3c 17 2f 8c be
       -0.17132409 0.15170868 0.017527917 -0.27379677
000360 1f 15 7a be f0 82 e6 3e 47 aa be 3e 28 c1 58 bc
       -0.2442212 0.45021772 0.37239286 -0.013229646
000370 e0 e2 4d 3e 96 eb 29 3e bd ff dc 3d 99 6e a7 3e
       0.20106077 0.16593775 0.10790966 0.32701567
000380 5a 57 ed 3e 6c d2 02 be 8c 91 7a be 9d 79 02 3f
       0.46355706 -0.12775582 -0.24469584 0.5096682
000390 ac 89 55 3e 93 5f fb 3d db 3d b6 bb 1b ed 87 3d
       0.20853299 0.12274089 -0.005561573 0.06637021
0003a0 c7 f8 24 be 8e 0a 08 3e bc 06 4e 3e 7b 9b d0 3e
       -0.16110526 0.13285276 0.20119756 0.40743622
0003b0 0a af 21 3e a2 f1 48 3e 36 4b aa 3e 39 40 12 3e
       0.15789428 0.19623426 0.33260506 0.14282311
0003c0 4a a1 22 be 29 7e 05 3e 64 9a 12 3e 0b 93 9f 3d
       -0.1588184 0.13036408 0.14316708 0.07791718
0003d0 9e ed 4c 3e 76 e1 82 be 42 1c a4 3e 82 da e6 bd
       0.20012519 -0.25562638 0.3205281 -0.11272146
0003e0 b2 eb 82 3b e9 5b 19 3d 28 5b 09 40 d0 4b 28 3e
       0.003995382 0.037441168 2.1461887 0.1643517
0003f0 5d 85 1e be 5d 94 36 3e 11 b9 71 bd df af 5e 3e
       -0.15480562 0.17830034 -0.059014384 0.21746777

critic1.4.bias f4 [64]
000000 2e 8b 12 bf 77 46 03 3f f0 b5 48 3f ea 33 8f 3f
       -0.5724362 0.51279396 0.78402615 1.1187718
000010 84 bb 01 bf 16 ba 83 3f 1e 3d 57 3f 37 89 da 3e
       -0.5067675 1.0291164 0.8407763 0.42682812
000020 05 34 02 3f 57 29 a5 3f 75 ba 3b bf 6c 95 90 bf
       0.50860626 1.2903241 -0.73331386 -1.12956
000030 7d ab 27 be 76 ff 8b bf c2 be 9b 3f c7 64 5a 3f
       -0.16374011 -1.0937335 1.216759 0.85310024
000040 68 0b 8b bf ae b1 65 3f df b7 8d 3f 1e e7 0d bf
       -1.0862856 0.8972424 1.1071738 -0.5543078
000050 1d cb f7 3e d4 e1 b9 3f ee 36 bb 3f 70 1d ca bd
       0.4839715 1.4522042 1.4626138 -0.09868896
000060 c8 ca f6 be f6 53 33 be 93 65 9c 3f 93 0b b5 3e
       -0.48201585 -0.17512497 1.2218498 0.35360393
000070 fc 16 f5 3e ad 91 29 bf 53 79 ca 3f 09 3b 8f bd
       0.47869098 -0.6623791 1.5818275 -0.06993682
000080 31 d2 fe be 61 94 b4 3f 90 dc 89 3f a1 5f 3d 3f
       -0.49769738 1.4107782 1.0770435 0.73974043
000090 57 e5 08 3f 45 70 82 3e 06 5a 95 3f b4 6d c3 3f
       0.53474945 0.2547628 1.1668098 1.5267854
0000a0 b4 95 0b bf 13 41 ff be 2b 44 9f 3f b3 2e 81 3f
       -0.54525304 -0.49854335 1.2442678 1.0092376
0000b0 ad 62 20 bf 31 f0 22 bf 2e 17 0a 3f 9b cc 8d bd
       -0.6265057 -0.63647753 0.5394162 -0.06923791
0000c0 e5 b3 5e 3e 66 59 48 3f 7f d1 39 bf 28 4e b5 3f
       0.21748312 0.7826141 -0.7258529 1.4164476
0000d0 30 cb ad 3f 57 84 8c 3f 27 64 e4 be ee e0 1a bf
       1.3577633 1.0977887 -0.4460766 -0.60499465
0000e0 3f d5 2d be 18 99 02 3f 06 40 9b bf de d3 5b 3e
       -0.16975878 0.5101485 -1.2128913 0.2146754
0000f0 16 0d c2 3e 84 02 f4 bd 22 e2 54 3f 9e b3 da 3e
       0.3790061 -0.11914542 0.8315755 0.42715162

critic1.6.weight f4 [1, 64]
000000 ad 64 d7 bf 9c 78 2b 3f 26 18 d3 3e 6f 8a ad 3d
       -1.6827599 0.6698091 0.4122936 0.0847367
000010 24 01 df be b2 cb 6d 3e 7d 77 da 3e 90 0a 0b 3f
       -0.43555558 0.23222235 0.42669287 0.5431299
000020 65 1b c1 3e 44 7b c4 3d 19 4d 15 bf f4 be 14 bf
       0.37716213 0.095938236 -0.58320767 -0.5810387
000030 eb dc 10 c0 b1 53 da bf 67 a8 02 3e 21 97 dd be
       -2.2634838 -1.705679 0.12759553 -0.43279365
000040 cd cf b1 bf 45 7e b9 3e 8c fb fb 3d be 14 d6 be
       -1.3891541 0.36229149 0.12303838 -0.418127
000050 95 0d b8 3e f7 ac 54 3e f5 42 0e 3e 42 2a d1 bd
       0.35947862 0.20769106 0.1389273 -0.10213138
000060 7d 97 5d be 30 d0 03 bf ab be 03 3f 67 36 a7 3f
       -0.2163982 -0.51489544 0.5146281 1.3063477
000070 66 57 78 3f 22 00 f6 be 16 cd 39 3e ec f6 9b bf
       0.9700836 -0.48046976 0.1814464 -1.218473
000080 d8 13 ba be c8 e6 89 3e 26 60 e2 3d 33 63 97 3f
       -0.36343265 0.26933885 0.11053495 1.1827148
000090 c2 13 69 3f d6 14 3d bf cd a6 d4 3d 83 27 2e 3e
       0.91045773 -0.7385992 0.10383377 0.1700726
0000a0 60 82 f8 be ab bc 01 bf f2 67 70 3e f6 32 5c 3e
       -0.48536968 -0.5067851 0.23477152 0.21503815
0000b0 80 79 5d bf 10 4c 0c bf 59 b5 38 3f e9 c1 ea be
       -0.8651352 -0.5480356 0.72151715 -0.45851067
0000c0 df 6c bd 3f dd 1c 3a 3f 9d 21 9c be f8 b1 90 3e
       1.479885 0.7270029 -0.30494395 0.2826078
0000d0 fc 4f aa 3d 8c 40 96 3e 1e 86 ff be ef 13 47 bf
       0.08316037 0.2934612 -0.4990701 -0.7776479
0000e0 86 e9 c5 bf 08 7c 92 3f a1 4d 08 bf b5 4c ac bf
       -1.5461891 1.1444101 -0.5324345 -1.3460909
0000f0 81 9e 12 40 35 ac 8e bf 1b 65 07 3f 48 2a 3b 3f
       2.2909243 -1.1146303 0.5288865 0.7311139

critic2.0.weight f4 [64, 82]
000000 69 b7 fb 3c f2 c4 ef 3b c7 d3 16 3d 60 72 a3 3b
       0.030727105 0.007317179 0.03682306 0.004988
000010 4a 26 d0 bc e6 a3 3f 3d 38 98 82 bd 0d 72 fa bc
       -0.025408883 0.046787165 -0.0637669 -0.030571962
000020 d5 f3 ec 3e 29 03 db be 80 4c c6 bc 9b 2e ab bd
       0.4627978 -0.42775849 -0.0242064 -0.08358499
000030 80 ea b9 be eb 7a e0 3e f8 b3 8a bd 3a 28 a3 bd
       -0.36311722 0.4384378 -0.067726076 -0.07966657
000040 b9 2d 5b 3e c4 53 af be 42 29 06 3e 90 52 b3 be
       0.2140416 -0.34243596 0.13101676 -0.35023928
000050 56 ae 6b be fc a7 9d 3e c7 ef 84 be b1 5e f3 3e
       -0.23015723 0.30792224 -0.25964186 0.4753318
000060 bc 0f 8c be 85 65 91 3e 03 11 8c be 3f 0c a6 3e
       -0.27355754 0.28397766 -0.2735673 0.32431218
000070 9b 4d 91 bf 2d d3 89 3f af d5 98 bd 8b ba c9 3c
       -1.1351808 1.0767571 -0.07462632 0.024625083
000080 e6 37 26 bc 08 2a 9d 3d 9a 6f f1 3c d9 b8 fb bd
       -0.010145163 0.076740324 0.029472161 -0.12291116
000090 be 70 4b bd a4 8f e3 bd 3c 1a d8 3d ee f0 a5 3d
       -0.049668066 -0.11111382 0.10551879 0.08102594
0000a0 bd fe 1c bd fa b1 fc bd 85 7f d6 3e fe 43 1f be
       -0.038328875 -0.12338634 0.41894165 -0.1555328
0000b0 ec 2b cf be ab c9 54 3e 63 16 d4 3c 53 df d2 3d
       -0.40463197 0.20780055 0.025889581 0.10296502
0000c0 68 a2 f4 bd 6d a5 1f 3e df 78 a5 be 9e 01 64 3e
       -0.11945039 0.15590449 -0.3231878 0.22266242
0000d0 5b cf bc 3e a1 0d 9c be 18 94 85 3e 6a 0c 0b bf
       0.3687695 -0.30479148 0.2608955 -0.5431582
0000e0 cc 5d 85 3e dd ba 9e be ce 77 8d 3f 82 97 4c bf
       0.26048124 -0.3100194 1.1052186 -0.7991868
0000f0 7b 27 a8 3e 95 af 27 be f6 e7 21 3b da 9f 70 bc
       0.3284262 -0.16375573 0.002470491 -0.014686549
000100 63 12 62 3a ff 9b ec 3b 4c 5a e3 bc ee 7b cb bc
       0.00086239557 0.0072207446 -0.027753018 -0.024839368
000110 59 9c 0b 3e 16 2f f7 bd a4 e7 ab bd 13 d3 12 3e
       0.1363386 -0.12069528 -0.08393791 0.14338331
000120 fb 73 36 bb 3f b5 85 3c 70 60 65 3b 11 fe 52 3d
       -0.0027840126 0.016321776 0.0035000108 0.051511828
000130 a1 87 6e bc 8e ed d8 bb ba fc 3d be b6 b5 45 3e
       -0.014558704 -0.0066201156 -0.18553439 0.19307598
000140 00 98 2c 3e 55 2a fe bd d9 f1 1b be 75 b4 31 bd
       0.16854858 -0.12410418 -0.15228976 -0.043384988
000150 3c 1d cf bd 64 f2 81 be 5e 76 63 3d 29 d3 08 3d
       -0.10112998 -0.25380242 0.055532806 0.033404503
000160 33 56 20 be 64 25 ae bd 8f af 11 be 4c f3 3b 3e
       -0.15657882 -0.085032254 -0.14227127 0.18354529
000170 5e 2f 0f 3e a8 ea 69 bd 93 b1 b3 bc 52 e8 18 3e
       0.13982913 -0.05710855 -0.02193526 0.14932373
000180 02 10 e3 bd 41 d9 41 3e fa 53 b7 bd ed dc 23 be
       -0.110870376 0.18930532 -0.08951564 -0.16002245
000190 86 af d0 bd 33 2c 79 3d 41 f8 66 be 93 e1 21 3d
       -0.101897284 0.060833167 -0.22555639 0.039521765
0001a0 c2 06 31 3e 7a 4d 00 3d 7e 50 9c 3d 37 9e b9 3d
       0.17287734 0.031323887 0.0763254 0.0906338
0001b0 c1 da 00 be d4 8f 03 bd 01 5c d4 3d 3c ef 6b bd
       -0.12583448 -0.032119587 0.10369111 -0.0576012
0001c0 18 6b 11 3e 5d a7 a2 bd 42 88 01 3d 6e 9e 2f 3b
       0.1420101 -0.07942078 0.031624086 0.0026797312
0001d0 22 b8 e0 bc e8 af 17 bb d0 dd 9b 3e e6 21 ce 3d
       -0.027431551 -0.002314562 0.30442667 0.10065059
0001e0 6a 0a 4b 3d ee 6b d1 3d b3 c2 12 bd 56 57 96 bc
       0.04957048 0.10225664 -0.03583021 -0.018352192
0001f0 b1 3b e4 3d e6 bb 0b bd 46 66 48 3e b3 6c 68 be
       0.11144198 -0.03411474 0.19570264 -0.22697715
000200 13 87 df 3d 4d e8 1c 3d 5a 4a 1f 3d e8 9f 6f be
       0.10914435 0.038307477 0.038889267 -0.23400843
000210 1c 9c f0 3d e8 f9 47 be 10 19 04 be 92 bd f5 3d
       0.117485255 -0.19528925 -0.12900186 0.11999048
000220 cd 89 9d 3d 6f 7e 16 be 9a 6e bd 3b d1 f1 d7 bc
       0.07692299 -0.14696668 0.005781007 -0.026360424
000230 fb 2c 4e be a0 23 dc 3d 7c 3d a9 bd 92 49 d0 3d
       -0.20134346 0.107489824 -0.0826368 0.101702824
000240 db 83 be bc 29 64 c2 3c 21 27 c5 3d f3 2e 3a bd
       -0.023256233 0.0237294 0.09626604 -0.04545493
000250 54 1e 7c 3c 5c 22 46 bb 0b 92 01 bc 20 71 6a 3c
       0.01538809 -0.0030232882 -0.0079083545 0.014309198
000260 3f 9e ce bd 56 52 31 3d 60 80 01 bc 72 06 a2 3d
       -0.10088777 0.043291412 -0.007904142 0.079113856
000270 b5 3e 6a 3c 45 63 b9 bc 88 2b 81 3d 9f a6 47 bb
       0.014297177 -0.022630343 0.06307131 -0.0030464304
000280 73 44 20 bd 1c c9 84 3d 57 6e 48 3c 62 e0 67 3d
       -0.03912778 0.06483671 0.012233338 0.056610473
000290 51 a4 0b be f5 e9 11 bc cd 95 44 be da 37 b2 bd
       -0.136369 -0.008905877 -0.1919777 -0.08702059
0002a0 ea 3d 31 bd 9f 49 36 3e 25 f8 46 3e 9e 00 2e 3d
       -0.043271936 0.17801522 0.19430597 0.042481057
0002b0 72 b6 97 be 9a 12 38 be 9d 46 d1 3d bd 93 7e bd
       -0.29631382 -0.17975846 0.102185465 -0.062152613
0002c0 10 18 53 3e 42 58 2c 3e 15 68 29 3d 98 1d 0d 3e
       0.20614648 0.16830543 0.041359026 0.1378082
0002d0 60 f8 fe be 6c 19 13 3d 58 7c c7 be e3 5d a8 bd
       -0.4979887 0.035912916 -0.38962054 -0.082210325
0002e0 16 28 b2 3e 1e f7 75 bd 84 80 9a 3d ca 78 12 bd
       0.34796208 -0.060050122 0.07544044 -0.035759725
0002f0 5b 58 cb 3e c1 ff 26 3e ca 8a 7a 3e 0b fc 3e be
       0.39715847 0.163085 0.24467006 -0.18650834
000300 c8 ec 52 3f c8 37 8d 3e fa f9 10 3e 47 7f 2d be
       0.8239255 0.2758162 0.14157858 -0.16943084
000310 68 18 b5 bb 5d d0 c6 bc bd b1 24 be 20 5c cc 3d
       -0.005526591 -0.024269277 -0.16083427 0.09978509
000320 33 67 e2 3d e8 f6 4b bd c4 33 06 be 0b c0 11 bd
       0.1105484 -0.049796015 -0.13105685 -0.035583537
000330 72 98 e4 bd 74 ab b6 3d 38 73 41 bd 2b d2 fe 3c
       -0.11161889 0.08919421 -0.04722902 0.031106075
000340 bc 7f 85 3e 63 f6 b8 bd c3 b2 64 3e d4 19 09 bd
       0.26074016 -0.090313695 0.22333817 -0.033471897
000350 3e a8 81 3e e2 88 d9 3d c0 64 54 3e eb 54 05 be
       0.2532367 0.106218114 0.20741558 -0.13020675
000360 43 c2 d1 be 08 62 56 bd 14 7b 3c bd aa 63 f1 3b
       -0.40968522 -0.052339584 -0.046015814 0.007366617
000370 f6 eb 92 be d2 71 4a bd d1 1e 68 bf b4 a6 85 be
       -0.2869565 -0.049424954 -0.9067202 -0.26103747
000380 77 6a a9 be ae d9 04 3e 1b 71 9c bc 7d 0b 43 3c
       -0.3308904 0.12973663 -0.019096902 0.0119045945
000390 90 de e4 3c 0f 4b ae bc e6 39 97 bc 89 4f c2 bb
       0.027938157 -0.021276025 -0.018460225 -0.0059298915
0003a0 5c 54 2b be 74 bf 08 3e e4 8a ba bb e6 7b f0 bc
       -0.167314 0.13354284 -0.0056928266 -0.029355954
0003b0 4c 07 f0 3b ee 02 dc 3b 4c 9a e0 bc b5 6d 20 3d
       0.0073250886 0.0067142164 -0.027417324 0.039167125
0003c0 d9 a1 32 3c 45 e2 6d 3c 3d 9f 4e 3e e4 cd 7f be
       0.010902845 0.014519279 0.20177932 -0.24980885
0003d0 c4 36 46 3d 61 9e 8e bd 8d a4 93 3d 0f 1c c1 ba
       0.048392072 -0.06963802 0.0720912 -0.0014733094
0003e0 bc c2 96 bb e7 f5 39 3d 73 44 52 3d 19 82 97 bc
       -0.004600851 0.045400526 0.05133481 -0.018494653
0003f0 5a da 90 bd bc 65 1a 3d 35 39 1e 3d 97 33 3d bd
       -0.07072897 0.037694678 0.038628776 -0.046191778

critic2.0.bias f4 [64]
000000 f1 f9 8d 3f 8a 72 05 40 f8 ba 32 3d 99 3d 15 40
       1.1091901 2.085116 0.04363534 2.3318846
000010 74 a6 8d 3f 14 c0 b2 3f 45 c3 c4 3e 9b 00 83 bf
       1.1066422 1.3964868 0.3843023 -1.023456
000020 72 a2 1e bd 3d 06 00 40 33 ff cc bc d8 02 0d 40
       -0.03872914 2.0003808 -0.025024032 2.2032986
000030 81 b5 14 3f 18 29 7f be f8 a1 30 3f 83 58 71 3f
       0.58089453 -0.2491802 0.68997145 0.94275683
000040 04 17 bd bb bc 6d d9 3e 95 33 0d 3e c7 59 34 bf
       -0.005770566 0.42466533 0.13789208 -0.7044949
000050 2d 1f b6 3d d3 91 03 bf 98 c3 ec 3f 96 43 8d bd
       0.08892665 -0.51394385 1.849719 -0.068976566
000060 36 e4 97 3c 5a 2f f1 bf 18 67 9b 3f 81 f0 9d 3f
       0.018541437 -1.8842576 1.2140837 1.2339021
000070 c5 d7 ae 3f c3 b0 2f 3e 4d d0 72 3f b3 93 d3 3f
       1.3659598 0.17157273 0.9484909 1.6529449
000080 bc 83 a1 3f 5b a1 92 bf a2 f0 84 3d d5 1a e8 bf
       1.2618327 -1.1455492 0.064912096 -1.8133188
000090 01 64 3d 3f 21 a7 a5 3f b4 09 30 bd 42 93 37 be
       0.7398072 1.2941629 -0.042978004 -0.17927268
0000a0 ba ea 65 3d c5 27 92 3e b7 b6 c7 3e 03 4d 14 c0
       0.056132056 0.28545967 0.39006588 -2.3172004
0000b0 dd 16 52 bf b4 74 a6 be a0 09 66 3e 90 32 25 3b
       -0.82066137 -0.32510912 0.22464609 0.002520714
0000c0 55 7d de 3f 39 8f 80 3e 74 b0 3b 3f 0f a4 d5 3d
       1.7381998 0.2510927 0.7331612 0.10431682
0000d0 81 78 88 c0 0c e2 b7 bd 2e c6 b0 bf 97 24 d0 3d
       -4.26471 -0.08978662 -1.381048 0.10163229
0000e0 76 3a b7 be 64 a0 29 bf e8 7d 7e 3f ee ea 56 3f
       -0.3578679 -0.6626036 0.9941087 0.83952224
0000f0 c2 0d 05 bf 81 d8 6d bd e3 96 8b be 9c fb 9a 3f
       -0.5197412 -0.058067802 -0.27263555 1.2108035

critic2.2.weight f4 [64, 64]
000000 3e 25 8d bd ec b1 11 bc 4b 62 6c bd b6 c6 a5 3c
       -0.06891869 -0.008892518 -0.057710927 0.020236354
000010 c0 4f 45 3e 1b 18 b9 3e 65 51 0c be 96 59 6b 3e
       0.19268703 0.36151204 -0.13702925 0.22983393
000020 e7 11 93 3e 09 94 fd 3c aa e0 c3 be a8 a6 14 3d
       0.28724596 0.030954378 -0.38257343 0.03629175
000030 3e 2b e8 3c 2b 77 75 bd c2 06 92 3e f6 b7 3f be
       0.028340932 -0.0599281 0.2852078 -0.1872252
000040 09 5a 28 3f 0e f1 82 3d 22 9f 8a 3e 63 b5 d9 3d
       0.6576238 0.06393634 0.27074534 0.106303
000050 8a 40 93 3c cc 69 53 be b1 93 12 3e be 71 44 3e
       0.01797511 -0.20645827 0.14314152 0.19184014
000060 65 25 e7 bd 6b cd 7e ba 6e 21 61 be b9 34 c7 3e
       -0.11286429 -0.0009719941 -0.21985409 0.38907412
000070 03 c7 d7 bd fc 5c 63 3e 8b 41 30 3e 73 0d 80 3e
       -0.10536005 0.2220344 0.17212503 0.2501026
000080 7c a9 e8 3e 7c 44 88 3e 5f f4 1b 3e fa fe 80 3e
       0.45441806 0.2661475 0.15229939 0.25194532
000090 45 0f 46 3e ce a3 f5 3c a4 a6 7f bd 0c 25 94 be
       0.19341762 0.029985335 -0.06241478 -0.28934515
0000a0 80 b6 b4 3d 93 bf 91 3d 1c 8a 6e be 55 11 4b bf
       0.088238716 0.07116618 -0.23294872 -0.7932332
0000b0 05 12 f3 bd ed fb 93 bd 32 e9 ad 3e 2a 69 ca bd
       -0.11868671 -0.072257854 0.33966976 -0.0988334
0000c0 4e f7 ca bc b7 da 7c 3e 9d f2 81 bd a2 d8 91 be
       -0.024776127 0.24692808 -0.06345103 -0.2848559
0000d0 64 6d 37 3f 85 4b cf 3c 81 fe c3 bd ec b8 91 3e
       0.7165129 0.025304565 -0.09570027 0.28461397
0000e0 fc 87 91 bd 5f 5d b3 be 46 cc 73 3d b9 3f 46 3d
       -0.07106015 -0.35032174 0.059520982 0.048400614
0000f0 86 ef 6f bf 76 04 88 3e 77 04 4a 3d c9 87 82 3e
       -0.9372486 0.26565903 0.049320664 0.2549422
000100 67 95 50 3e 24 10 0d 3f 58 c9 a7 bd 77 c1 c3 3e
       0.20369492 0.55102754 -0.081927 0.3823354
000110 7d 4b 9b bd a6 89 6c be da 1a 3f be b2 f5 0b 3f
       -0.075827576 -0.23099384 -0.18662587 0.54671776
000120 de e2 d0 bd a2 71 80 bd f4 a7 17 be ef 93 b6 ba
       -0.101995215 -0.06271674 -0.14810163 -0.0013929586
000130 d4 fd 74 be 43 6e a3 3a 05 c7 dd bc a7 2e f8 bd
       -0.23924953 0.0012468774 -0.027072439 -0.12118273
000140 da c4 9e bd 38 30 1c be 64 2d 77 3e 01 f2 97 be
       -0.0775239 -0.15252769 0.24138409 -0.29676822
000150 1a 50 34 be fb b9 5e be 32 a6 6f 3e 9b a6 1d be
       -0.17608681 -0.21750633 0.23403242 -0.15395586
000160 f8 9d 82 be 92 9e 64 3e b4 7e 98 be 47 12 0b 3e
       -0.25511146 0.22326115 -0.29784167 0.13581191
000170 be 24 41 bd 01 d0 f2 be e4 7b df bc cd f0 6e 3d
       -0.04715418 -0.4742432 -0.027280755 0.058335114
000180 f1 3d b8 3e 09 80 84 be 22 8d 1e 3f 8a ea 7e bf
       0.35984758 -0.25878933 0.619341 -0.9957663
000190 1e c9 4c be 7f eb 05 3e b7 ae 1a 3e 94 b0 69 be
       -0.19998595 0.13078116 0.15105711 -0.22821265
0001a0 14 63 bc 3e d7 87 da 3e 6c 41 96 be 40 48 56 bf
       0.3679434 0.42681763 -0.29346788 -0.83703995
0001b0 b1 04 80 be f2 3a c3 3d 01 47 86 3e 72 13 19 3d
       -0.2500358 0.09532727 0.26226047 0.03737206
0001c0 5e 24 91 3e 39 d6 6b 3e 5a d1 80 3d 73 48 64 be
       0.28348058 0.23030938 0.06289931 -0.22293262
0001d0 34 84 9d bf 69 cc 8c 3e 11 aa 1a bf fc 2a 31 be
       -1.230597 0.27499703 -0.6041575 -0.17301553
0001e0 28 67 01 3d f8 bc a8 be 1e 21 b8 be 4b 2c 8e be
       0.031592518 -0.32956672 -0.35962766 -0.27768168
0001f0 66 6c 5e be 1f 12 d5 3d 2d e7 54 bd aa d8 92 3e
       -0.21721038 0.10403847 -0.05197828 0.28680927
000200 e0 56 47 3f 44 72 5f 3d 9c 8b b9 bd 4f 0a a2 be
       0.77866936 0.05455233 -0.090598315 -0.3164849
000210 1c d0 60 3e 1a b1 1a be e6 2f 4a 3d a0 06 b6 3e
       0.21954387 -0.15106621 0.049362086 0.3555193
000220 8d c8 7d 3e 89 be e9 be 4d ed b8 be d9 29 aa 3c
       0.24783535 -0.4565318 -0.36118546 0.020771908
000230 0c 7c aa be cf b3 67 be 90 1a fc bf ef 60 fc be
       -0.33297765 -0.22627185 -1.9695606 -0.49292704
000240 d1 ea 94 3b 0a 7a fe bd e2 a9 91 3e d0 e7 e3 bc
       0.004544594 -0.12425621 0.28449923 -0.027820498
000250 f8 92 05 3e f9 23 6b 3c 35 19 04 bc ba 8e af 3d
       0.13044345 0.014351838 -0.00806265 0.08572145
000260 cc 23 31 3f 1a 97 51 bf 68 81 d7 3e c6 4a 0f 3e
       0.69195247 -0.8187119 0.42090917 0.13993368
000270 7f 6d f5 3e 4d ac df 3e c7 bd 62 3f 65 cb af be
       0.479351 0.43686143 0.8857083 -0.34334865
000280 2e a2 9d 3d fd 57 fb bd 57 02 87 bf ee ee 39 3c
       0.07696949 -0.12272642 -1.0547589 0.011348469
000290 42 fd 8d 3e 9c b0 94 3e f7 0d 71 3e 96 a3 2e bf
       0.27732283 0.29040992 0.23540483 -0.6821836
0002a0 de ea d6 be 61 ce 6b be 6f be 7e 3d ff 7d 43 bd
       -0.41976064 -0.23027946 0.06219333 -0.04772758
0002b0 9c ff 09 be c9 5f 6c 3e 29 40 a7 bd 21 5a b6 be
       -0.13476413 0.23083414 -0.081665345 -0.35615638
0002c0 cc af b9 3e 7f 27 af be 4e 6e 04 3e 76 ad 95 3c
       0.36266935 -0.3420982 0.12932703 0.01827119
0002d0 59 4a 2c bf 54 64 16 3d 87 49 4d 3e 69 f6 c3 3e
       -0.67300946 0.036716774 0.2004758 0.38273934
0002e0 3f 17 51 be 82 21 a2 be a6 ce c9 3e 72 c9 c1 be
       -0.20419024 -0.3166619 0.39415473 -0.37849003
0002f0 99 cf 65 be a5 09 c0 3d b8 03 cb bc a0 39 0c be
       -0.22442473 0.093768395 -0.024782047 -0.13693857
000300 24 9a a8 3d ea 92 ad 3e 96 38 9b be 7a aa 9d bd
       0.08232525 0.3390115 -0.3031661 -0.076985314
000310 4a 47 8e be f3 5d 7b 3e fd 50 03 3f cd cc f1 bd
       -0.27788764 0.24547558 0.51295453 -0.11806641
000320 2d 06 26 be cf f4 2a be 66 72 96 be 80 cd 7e bd
       -0.16213293 -0.1669495 -0.29384154 -0.0622077
000330 08 d1 bd be 7c e5 f0 be 31 b7 e5 be 5a 56 04 3e
       -0.3707354 -0.47050083 -0.44866326 0.12923566
000340 a1 52 ca 3e 5a 60 46 3e 0b 15 19 3e d5 6d f3 3e
       0.39516166 0.19372693 0.14949434 0.47544733
000350 aa 78 aa bd 73 07 dd bd c8 d9 b9 be f2 e6 45 3f
       -0.08323796 -0.107924365 -0.36298966 0.7730552
000360 80 cb 4e 3e ef 27 06 3e ef 01 93 3d 46 48 d7 bd
       0.20194817 0.13101171 0.07178103 -0.10511832
000370 34 07 77 3d 5b f3 34 bf 53 cb c2 3e 23 44 cf be
       0.060309604 -0.7068383 0.3804575 -0.40481672
000380 ec 62 18 3f 01 71 9f 3d db af 6d 3e c8 23 86 be
       0.5952594 0.07785226 0.23211615 -0.26199174
000390 4b d0 b7 3e b3 eb d1 3d 27 43 99 be b7 69 f4 3e
       0.35901102 0.10250034 -0.29934046 0.47736904
0003a0 51 fe 97 bd 8b 49 d3 3c 79 f2 36 3f 68 27 7f 3e
       -0.07421554 0.025791904 0.71463734 0.24917376
0003b0 d1 e8 a7 3d 72 ce 21 3e 55 26 43 3e 6a 62 56 be
       0.08198703 0.15801409 0.19057591 -0.2093598
0003c0 6a 14 f4 3d 1c 64 88 bd ce 8a 4d 3e 86 16 1a be
       0.11917956 -0.06659719 0.20072481 -0.15047655
0003d0 18 be 38 bf b9 58 ab 3e e0 1f 09 3e 4d 9b 81 3d
       -0.7216506 0.33466128 0.13391066 0.063284494
0003e0 f7 f7 2c 3f 8f 89 bb 3d 7c b6 99 3e a9 cf 75 3e
       0.67565864 0.091570966 0.30022037 0.24004997
0003f0 df 47 dc bd ae d0 3d be ff 3c ac bc 93 42 83 bf
       -0.10755896 -0.18536636 -0.021025179 -1.0254692

critic2.2.bias f4 [64]
000000 02 ff 4d bf 8d ad d8 3f 42 a0 99 3e 21 3e 83 3d
       -0.80467236 1.6927963 0.3000508 0.064083345
000010 b7 6d 36 3f 9d 4c ba 3f 10 0b aa 3e ee 0a e2 3e
       0.7126116 1.455463 0.33211565 0.44148964
000020 59 dd 73 3f 56 5e 52 3e 29 cd 0e bd e3 00 7f 3f
       0.95259625 0.20543799 -0.034863625 0.9961073
000030 1d 8c 62 3e 48 29 bc 3f 73 04 6c bf df 99 98 be
       0.22123761 1.4700098 -0.9219429 -0.29804894
000040 91 e5 cd 3e af 3d 6b 3f e7 e6 91 3f b2 cd ab 3f
       0.40214208 0.91890997 1.1398591 1.3422148
000050 8d a2 3d bf 87 eb 5e 3f b2 a1 6c 3f b1 fc d1 3e
       -0.7407616 0.87078136 0.9243423 0.410131
000060 4c b1 3b 3f 33 8d 29 bf 0b e8 42 bf a3 3d d9 3f
       0.7331741 -0.6623108 -0.7613532 1.6971935
000070 c7 2e 24 3f 3f 5d 20 3f e4 09 12 3f 72 93 ec 3f
       0.64133877 0.6264228 0.5704634 1.8482497
000080 53 34 26 3f 30 70 16 3f 21 38 a0 3f b2 d0 54 3d
       0.6492359 0.58764935 1.2517129 0.05195684
000090 8a a9 04 40 30 6a b6 3f 99 94 bb be 44 4f 13 be
       2.0728478 1.4251156 -0.3663681 -0.14385706
0000a0 df e4 8e 3f 19 6a 0b 3f 46 75 60 3f 58 a6 cd 3f
       1.1163596 0.5445877 0.87678945 1.6066389
0000b0 a7 d6 4a bf fa cb 31 3e e5 e3 68 3f 6a 28 48 bf
       -0.79233783 0.17362967 0.9097274 -0.78186667
0000c0 da 37 a3 3f 8a da ae be 53 74 9f 3f 7c 33 2a 3f
       1.275142 -0.34151107 1.2457374 0.6648481
0000d0 4d 9a df 3e 44 1e c0 3f 69 bc af 3f 16 bd 68 3f
       0.4367241 1.5009236 1.3729373 0.9091352
0000e0 29 f2 f8 3e 6e a9 20 bf b1 d0 c8 3e e1 c3 5b 3f
       0.48622254 -0.6275853 0.3922172 0.8584576
0000f0 36 8f 6d bf f4 34 04 3f 97 02 7a 3e 2a 99 c2 3f
       -0.9279665 0.516433 0.2441505 1.5202992
