masac/model/simple_tag/agent_2/648_critic_params.pth (torch, 115263 bytes, 14 tensors)

critic1.0.weight f4 [64, 82]
0	0x3e0553b9	0.13020219
1	0x3bf06766	0.007336545
2	0xbbf95b62	-0.0076097706
3	0x3e57eff6	0.21087632
4	0xbdd4e904	-0.10396007
5	0xbd3bfb0b	-0.04589371
6	0xbd8cfc16	-0.06884019
7	0xbe7522b0	-0.23939013
8	0x3dc0e31d	0.094183184
9	0xbda5619a	-0.08075257
10	0xbdc4ba8e	-0.09605895
11	0xbe481cc3	-0.19542222
12	0x3d254951	0.040353123
13	0x3d32ae33	0.04362316
14	0xbe1f9f3d	-0.15588088
15	0x3d44914a	0.04799012
16	0x3d1a0232	0.03759975
17	0x3d54c5c5	0.05194642
18	0xbd71bfa7	-0.059020665
19	0xbd531b23	-0.05153955
20	0x3d11d148	0.035599977
21	0x3ced345b	0.02895563
22	0x3e490ef3	0.19634609
23	0xbe9ebba0	-0.31002522
24	0xbe01bf13	-0.12670545
25	0xbb7b269a	-0.003832257
26	0x3e447139	0.19183816
27	0xbd6fb439	-0.058521483
28	0xbd473e3c	-0.048643336
29	0xbc859107	-0.016304506
30	0x3d7623f4	0.06009288
31	0xbe6ae1d7	-0.22937714
32	0x3ca1d243	0.01975358
33	0x3c8635b5	0.016383031
34	0xbe490608	-0.19631207
35	0xbdda78e7	-0.106675915
36	0xbe2acc37	-0.16679464
37	0x3dbe91f3	0.09305181
38	0x3d546de5	0.051862616
39	0xbe5e313f	-0.21698473
40	0x3da8edd0	0.08248484
41	0x3e0427ac	0.12905759
42	0xbe117da4	-0.14208084
43	0x3ddb043e	0.106941685
44	0x3b19667b	0.002340703
45	0x3e0e5f20	0.13903475
46	0x3d5a6de5	0.05332746
47	0x3d77973b	0.06044696
48	0x3dd0af67	0.10189705
49	0x3e2984a0	0.16554499
50	0xbf059a37	-0.5218844
51	0xbd88a595	-0.06672207
52	0xbe54a2cf	-0.20765232
53	0x3c349be8	0.011023499
54	0xbde28478	-0.11060423
55	0xbf0542d6	-0.5205511
56	0xbdb16fbc	-0.0866389
57	0xbc292d79	-0.010325783
58	0xbe46aa90	-0.19401002
59	0x3d6106e6	0.05493822
60	0xbe4aff28	-0.19823897
61	0xbe8158e6	-0.25263137
62	0x3d2e2b8e	0.042522006
63	0x3d26c39a	0.040713884
64	0xbd19b1a3	-0.037522923
65	0x3cb7cd77	0.02243684
66	0xbd5a85d5	-0.05335029
67	0xbd17cfb5	-0.03706332
68	0x3d286a60	0.041117072
69	0x3ca10858	0.019657299
70	0x3b9703a6	0.004608589
71	0x3c894a7c	0.01675915
72	0x3d7db9a0	0.061944604
73	0x3dae004e	0.08496152
74	0xbdc64ca2	-0.09682585
75	0x3da04f65	0.07827643
76	0x3d2c91b0	0.042131126
77	0xbc5fbcc4	-0.013655845
78	0xbc852b52	-0.016256008
79	0xbd967a72	-0.07347573
80	0x39e310d3	0.0004330935
81	0xbd0b4dff	-0.03400993
82	0xbb9882bb	-0.004654256
83	0xbc68f77c	-0.014219161
84	0x3d630f00	0.055434227
85	0x3aa7c0ef	0.0012798588
86	0xbe2e079d	-0.16995092
87	0x3d5cc55f	0.053899165
88	0xbbb838ba	-0.0056219967
89	0x3d9e5d5b	0.0773265
90	0x3f22b2a7	0.6355385
91	0x3e514ba4	0.20439011
92	0xbc5b1263	-0.013371083
93	0x3db61ec7	0.08892589
94	0xbf007c2b	-0.50189465
95	0xbe7ab6cc	-0.24483794
96	0xbd26d263	-0.040727984
97	0xbe6f4ee0	-0.23369932
98	0x3f0dec71	0.55438906
99	0x3ed92d8f	0.4241757
100	0x3f387b80	0.72063446
101	0x3e9f98bb	0.31171212
102	0xbe8dad02	-0.27671057
103	0xbe969606	-0.29411334
104	0xbf042165	-0.51613456
105	0xbe8c1fc6	-0.2736799
106	0xbefaa7c4	-0.4895612
107	0xbdeffc01	-0.11717988
108	0xbec553d8	-0.3854053
109	0xbd5ff72c	-0.05467908
110	0xc00773ae	-2.1164355
111	0xbf90e534	-1.1319947
112	0xbea63b53	-0.32467136
113	0xbe20beae	-0.15697739
114	0xbdb3cc60	-0.08779216
115	0xbd2bab5b	-0.041911464
116	0xbe28620f	-0.16443656
117	0xbcbb1d44	-0.022841103
118	0xbd02724f	-0.031847294
119	0xbcdeab51	-0.0271813
120	0xbda867b2	-0.08222903
121	0xbd60f919	-0.054925058
122	0x3d24617a	0.040132023
123	0x3dd80c07	0.10549169
124	0x3ee6e37b	0.4509543
125	0x3e7c8316	0.2465938
126	0xbf0b46af	-0.5440473
127	0xbe4481ec	-0.19190186
128	0xbc65bea1	-0.0140225
129	0xbd718b55	-0.058970768
130	0xbe2b5188	-0.1673032
131	0x3d755285	0.05989315
132	0xbf13e402	-0.5776979
133	0xbe44d424	-0.1922155
134	0x3f07474c	0.52843165
135	0x3e756818	0.2396549
136	0x3f13e135	0.57765514
137	0x3e827e52	0.25487
138	0x3ee96775	0.45586744
139	0x3e6891a3	0.22711806
140	0x3fed899f	1.8557624
141	0x3f9562d3	1.1670784
142	0x3eda0969	0.42585304
143	0x3d38b37a	0.045093037
144	0x3ad522a1	0.001626093
145	0xbb89dae6	-0.004207003
146	0x3ca5c99d	0.020237738
147	0x3b5ec7f3	0.003399369
148	0x3c88e472	0.016710494
149	0x395e340c	0.00021190959
150	0x3e68556b	0.22688834
151	0xbe885545	-0.26627555
152	0x3e44e323	0.19227271
153	0xbe2b404d	-0.16723748
154	0x3c60017a	0.013672227
155	0x3ac1f7d1	0.0014798586
156	0x3b776b24	0.003775307
157	0xbb9ab904	-0.0047217626
158	0x3d2e9433	0.042621803
159	0xbafe3b7e	-0.0019396392
160	0xbec5d567	-0.38639376
161	0x3ec8de27	0.3923199
162	0xbe58c861	-0.21170188
163	0x3e793b54	0.24339038
164	0xbe04dd97	-0.12975155
165	0x3d8ef63f	0.069805615
166	0xbf1d34e1	-0.6140881
167	0x3e8290b1	0.25501016
168	0x3db99b25	0.090627946
169	0xbd68695b	-0.0567411
170	0x3d7a2024	0.061065808
171	0xbe456cfb	-0.19279854
172	0xbe399975	-0.18124945
173	0xbdebb4f9	-0.11509127
174	0xbd4986fc	-0.049200997
175	0xbd22e977	-0.03977343
176	0xbc63cf49	-0.013904401
177	0x3e8ae8d2	0.27130753
178	0x3e548a7d	0.20755954
179	0x3d0883ad	0.0333287
180	0xbdc9fb2f	-0.098623626
181	0x3e552524	0.2081495
182	0xbf26bd7b	-0.65132874
183	0x3ecaf885	0.3964273
184	0xbe160169	-0.14648975
185	0xbe9f7da0	-0.31150532
186	0xbd43eacd	-0.047831345
187	0x3d295a73	0.041346025
188	0xbe6cd412	-0.23127773
189	0x3e016414	0.12635833
190	0x3db661bf	0.08905362
191	0xbb7650a2	-0.0037584682
192	0x3d4a5921	0.049401406
193	0x3f0c652a	0.54841864
194	0x3c58115d	0.0131877335
195	0x3bf0fc54	0.0073542986
196	0xbe161699	-0.14657058
197	0x3e36044f	0.17775081
198	0xbf1556a7	-0.58335346
199	0x3f0eb8e8	0.55750895
200	0x3dc2daea	0.09514411
201	0xbe1fe4ea	-0.15614668
202	0x3ddc4dc9	0.10757024
203	0xbe6898b4	-0.22714502
204	0x3d576483	0.05258609
205	0xbd16ca95	-0.03681429
206	0xbe7cd8b4	-0.2469204
207	0x3da7b993	0.08189692
208	0x3d203117	0.039109316
209	0x3ca6346c	0.020288669
210	0xbe273d50	-0.16331983
211	0x3bff6c92	0.007794925
212	0xbd9efe5f	-0.07763361
213	0x3e537990	0.20651841
214	0xbf0927e4	-0.53576493
215	0x3f149b3c	0.5804937
216	0x3cc22bd8	0.023702547
217	0xbe865210	-0.26234484
218	0xbcf78fb0	-0.030219883
219	0x3e1d2833	0.15347366
220	0xbea1880e	-0.31549114
221	0x3de0acf1	0.10970486
222	0xbd3e0106	-0.046387695
223	0xbe7beeff	-0.24602889
224	0xbe5dd9ec	-0.21665162
225	0x3dd38af0	0.103292346
226	0xbc0b189b	-0.008489753
227	0xbdfe7db8	-0.12426323
228	0xbd0650d0	-0.032791913
229	0x3cc19ef4	0.023635365
230	0xbc7af8ab	-0.015318076
231	0x3ce3eb9a	0.027822305
232	0x3c8409b2	0.016117904
233	0x3d3af004	0.045639053
234	0x3d9c56fa	0.07633777
235	0xbd7f6647	-0.0623534
236	0x3d3fd3c1	0.046832804
237	0xbda4e228	-0.080509484
238	0x3cc7439b	0.024324229
239	0x3df2a526	0.11847906
240	0x3d30fabe	0.043207876
241	0xbcec94c1	-0.028879525
242	0xbdc0546d	-0.09391103
243	0x3d4db4ff	0.05022144
244	0x3de8f9c3	0.11375763
245	0xbdb263ef	-0.08710467
246	0xbc80dded	-0.015730822
247	0x3c61d411	0.013783471
248	0x3df5bad2	0.11998524
249	0x3e00762b	0.12545078
250	0x3e77b3fe	0.24189755
251	0xbe24fd49	-0.16112246
252	0xbdc7e509	-0.09760482
253	0x3dff25b4	0.12458363
254	0x3ee0cbdb	0.4390553
255	0xbe43d13f	-0.1912279

critic1.0.bias f4 [64]
0	0xc09702bb	-4.7190833
1	0xbc24baeb	-0.01005433
2	0xbe5ff65a	-0.2187132
3	0x3ccdc937	0.02512036
4	0x3eff4800	0.4985962
5	0x3fbf551f	1.4947852
6	0x4002acb7	2.0417917
7	0xbf072f8b	-0.5280692
8	0x4011f3bd	2.2805016
9	0xbf30ca90	-0.69059086
10	0x3f9b55c9	1.2135555
11	0x3eab6f5b	0.33483395
12	0x3f3ba9bb	0.73305863
13	0x3f3aae8b	0.7292258
14	0x3f90fba2	1.1326792
15	0xbe8d7977	-0.27631733
16	0xbde98765	-0.114027776
17	0x3f988a70	1.1917248
18	0xbc27b3bf	-0.010235726
19	0x3e1f0abd	0.1553144
20	0xbd395d4d	-0.045254994
21	0x3d171e73	0.036894273
22	0x401464a0	2.3186417
23	0xbe078535	-0.13234408
24	0xbde11607	-0.109905295
25	0x3e3f2a91	0.18668582
26	0xbe0c5394	-0.13703758
27	0x3f98fa6e	1.1951425
28	0x3f4cf4e5	0.8006118
29	0x3fd9ecaa	1.7025349
30	0xbdd95391	-0.10611642
31	0xc0033451	-2.0500681
32	0xc00054f0	-2.0051842
33	0x3edf9cfe	0.43674463
34	0x3e517a2c	0.20456761
35	0x3fc7b236	1.5601261
36	0xbe885712	-0.2662893
37	0xbe9cd5b1	-0.30631784
38	0xbfb25014	-1.3930688
39	0x3f7cd951	0.987691
40	0xbdbd1756	-0.092329666
41	0xbfce837b	-1.6133875
42	0x401e16eb	2.4701488
43	0x3d2cdb1b	0.042201143
44	0x3f2ecf3b	0.6828496
45	0xbea08a88	-0.3135569
46	0x400e1d2d	2.2205307
47	0x3fa9e06b	1.3271612
48	0x3de84a5c	0.11342308
49	0x3f978113	1.1836265
50	0xbe973908	-0.295357
51	0x3f469ced	0.775832
52	0xbeb28214	-0.34864867
53	0x400f1ea8	2.236246
54	0x3ff37aa9	1.9021808
55	0x3f7d7d01	0.99018866
56	0x3d1eff8d	0.03881793
57	0x3ebdad61	0.3704634
58	0x3fab24a0	1.3370552
59	0xbfa3db60	-1.2801323
60	0x3db48b84	0.08815673
61	0x3f64cb97	0.89373153
62	0x3eb46b2e	0.35238022
63	0xbe0d8572	-0.13820437

critic1.2.weight f4 [64, 64]
0	0xbf697882	-0.91199505
1	0xbcf8675f	-0.030322729
2	0xbde7b444	-0.1131368
3	0x3eaf26ab	0.3420919
4	0x3e8cb7c6	0.27483958
5	0xbe408cdf	-0.18803738
6	0xbd646e30	-0.055769145
7	0xbc6c1b7f	-0.014410852
8	0x3dd538e2	0.1041124
9	0x3e805a11	0.25068715
10	0x3f665e81	0.8998795
11	0x3d62695d	0.055276264
12	0x3dbaf866	0.091294095
13	0xbd06c3ca	-0.032901563
14	0x3fde70bd	1.7378155
15	0x3c8d69e3	0.017262405
16	0xbd35f98f	-0.04442745
17	0x3ed7f2c8	0.42177415
18	0x3ea5fe3a	0.32420522
19	0x3ecc2476	0.39871567
20	0x3d436b9c	0.047710046
21	0xbd8b8291	-0.06812013
22	0x3e67cc83	0.22636609
23	0x3d51e9e6	0.051248454
24	0x3c863613	0.016383206
25	0x3b91d5c2	0.0044505307
26	0xc037cf4d	-2.8720276
27	0xbdb0b333	-0.086279295
28	0xbe8030da	-0.2503727
29	0x3e9931f3	0.2992092
30	0x3ca15d60	0.019697845
31	0xbd5a7b83	-0.053340446
32	0xbe32cd62	-0.1746116
33	0x3e4dfef1	0.20116784
34	0x3ea96571	0.33085206
35	0xbed0443f	-0.40677068
36	0xbd628e24	-0.055311337
37	0x3b96797d	0.0045921193
38	0xbe1de664	-0.15419918
39	0x3d830698	0.06397742
40	0xbda83021	-0.08212305
41	0x3d09e634	0.033666804
42	0xbe974007	-0.29541036
43	0xbd70cf16	-0.058791243
44	0x3d106fc0	0.035262823
45	0xbc6dff2d	-0.014526171
46	0xbd85f2f7	-0.065404825
47	0x3e876f76	0.26452225
48	0x3ba6e9bf	0.0050937827
49	0xbeb2e869	-0.3494294
50	0x3d50746f	0.05089229
51	0xbb905499	-0.004404616
52	0xbd7bdea0	-0.06149161
53	0xbc21d829	-0.009878197
54	0x3e28e5fe	0.16493985
55	0x3d6eb124	0.058274403
56	0x3b94b9f4	0.004538769
57	0xbb45bd75	-0.003017274
58	0xbe8eb57c	-0.27872837
59	0x3e4ce599	0.2000946
60	0xc02939e9	-2.6441596
61	0xbe7a1fe2	-0.24426225
62	0xbcbdf8a3	-0.023189848
63	0xc05256c4	-3.2865458
64	0xbf1c06e2	-0.60948
65	0x3dbaae31	0.091152556
66	0x3d259154	0.0404218
67	0xbd9732f2	-0.07382764
68	0x3f04d447	0.5188641
69	0x3c74dc14	0.014945049
70	0xbd99183a	-0.07475324
71	0xbca5d457	-0.020242853
72	0x3dafb332	0.08579101
73	0x3e2c7219	0.168404
74	0xbd8696ac	-0.06571707
75	0xbd2e3f86	-0.04254105
76	0xbe60bef2	-0.2194784
77	0xbca6661e	-0.020312365
78	0xb9999bcd	-0.00029298515
79	0xbd02497b	-0.031808358
80	0xbdbff826	-0.093735024
81	0xbbf5a6e8	-0.0074967034
82	0x3dcbec16	0.09957139
83	0x3f04b89b	0.51844186
84	0xbfb891d9	-1.4419509
85	0x3f054a70	0.5206671
86	0xbce294c2	-0.027658824
87	0x3e2e1719	0.17000999
88	0xbf10dad1	-0.5658389
89	0xbd5354ae	-0.05159443
90	0x3c8311ff	0.015999792
91	0xbe7202e3	-0.23633914
92	0xbd336594	-0.043798044
93	0x3e08b62d	0.13350745
94	0xbb705777	-0.0036673227
95	0xbccc939c	-0.02497273
96	0x3c91f272	0.017815802
97	0x3eb5f6f5	0.35539976
98	0x3cc27b9e	0.023740586
99	0x3c26c21a	0.010178113
100	0x3e8df23f	0.27723882
101	0x3e367830	0.17819285
102	0xbe197d1e	-0.14989135
103	0x3df6906a	0.120392635
104	0xc050b691	-3.261143
105	0x3cf67fbc	0.030090205
106	0x3eec8811	0.4619756
107	0x3dc04fd4	0.09390226
108	0xbcf2bfdd	-0.029632503
109	0xbdcffeac	-0.10155997
110	0x3c5c5120	0.013447076
111	0xbc79c980	-0.015245795
112	0xc0404e18	-3.0047665
113	0x3ce5b7ba	0.02804171
114	0x3e3202bb	0.17383854
115	0x3ea6615f	0.32496163
116	0xbe88ede4	-0.26743996
117	0xbc61abf0	-0.013773903
118	0x3f0a093b	0.53920335
119	0x3f102e97	0.5632109
120	0xc0484322	-3.1290975
121	0xbca7dc45	-0.020490775
122	0xbb92d48b	-0.0044809035
123	0xbd902385	-0.07038025
124	0x3c8e1d96	0.017348092
125	0xbd93f1a4	-0.07223824
126	0x3d8f1664	0.069866925
127	0x3ca35c79	0.019941555
128	0xc0233f4e	-2.5507388
129	0x3e185e46	0.14879712
130	0xbb661186	-0.003510566
131	0x3e31edf5	0.1737593
132	0x3d5313c3	0.051532518
133	0xbd2cfbda	-0.042232372
134	0xbcb81214	-0.022469558
135	0x3cf74666	0.030184936
136	0xbe19e919	-0.15030326
137	0xbd957618	-0.07297915
138	0x3fb1be48	1.3886194
139	0xbead1572	-0.33805424
140	0x3e32fca2	0.17479184
141	0x3dc5c009	0.096557684
142	0xbd731201	-0.05934334
143	0xbe1d3784	-0.15353209
144	0x3d157c67	0.036495592
145	0x3f2dd0c0	0.6789665
146	0xbbc3a08e	-0.0059700673
147	0x3ea17d90	0.3154111
148	0x3d1946ed	0.037421156
149	0xbcfa98b6	-0.030590396
150	0xbee41407	-0.4454653
151	0x3ce2d572	0.02768967
152	0xbd534698	-0.051580995
153	0xbca28092	-0.019836698
154	0xbffefff6	-1.9921863
155	0xbd841258	-0.06448811
156	0xbe79ba3d	-0.2438745
157	0xbe072b10	-0.13200021
158	0xbddd125d	-0.10794518
159	0x3e2daa98	0.16959608
160	0xbc8c266c	-0.017108165
161	0x3e4f34f7	0.20235048
162	0xbd4e1cae	-0.05032032
163	0xbe64329a	-0.22284928
164	0x3cee7ab6	0.029111248
165	0x3e021cc4	0.12706286
166	0xbe56190d	-0.20907994
167	0x3d5f2209	0.054475818
168	0xbdbcd150	-0.09219611
169	0x3d8ac5d0	0.06776011
170	0x3d3abfbd	0.045593012
171	0x3e9b4cde	0.30332083
172	0x3def622c	0.11688647
173	0xbc0547b8	-0.008134775
174	0x3dc0e372	0.09418382
175	0xbd70acf5	-0.058758695
176	0x3e02f079	0.12787046
177	0x3d1b7e50	0.037962258
178	0x3e1c36d8	0.15255296
179	0x3d1aa219	0.037752245
180	0xbe9dde67	-0.30833742
181	0x3e52744e	0.20552179
182	0x3e5412af	0.20710252
183	0x3e19a829	0.15005554
184	0xbba4c919	-0.0050288555
185	0x3e24564f	0.16048549
186	0x3e0cf45e	0.13765094
187	0x3e06740c	0.13130206
188	0xc001455b	-2.0198581
189	0xbe2ebcbe	-0.17064187
190	0xbd14e126	-0.03634753
191	0xbfba4cd6	-1.4554698
192	0x3fb9c356	1.4512737
193	0xbe724606	-0.23659524
194	0xbf4275e7	-0.75961155
195	0x3db1f568	0.08689386
196	0xbe317708	-0.17330563
197	0x3e9c9961	0.3058577
198	0x3d9bc352	0.07605614
199	0xbd530556	-0.05151876
200	0xbbabd27b	-0.005243597
201	0x3e871a68	0.26387334
202	0x3e6d13db	0.23152106
203	0xbe12ccbd	-0.14335914
204	0xbec97e5a	-0.3935421
205	0x3d72df2c	0.059294865
206	0x3ebd15f8	0.36930823
207	0x3eabede2	0.33579928
208	0x3f049101	0.5178376
209	0x3e1d65eb	0.1537091
210	0xbe96f41e	-0.29483122
211	0x3e602f71	0.21893097
212	0xbd80a20a	-0.062809065
213	0xbe84e85c	-0.25958526
214	0x3e2ff02c	0.17181462
215	0x3e3777dd	0.17916818
216	0xbed6f6e0	-0.41985226
217	0x3ec75db7	0.38938686
218	0xbddab0e7	-0.10678273
219	0xbe045c79	-0.129259
220	0x3d2933fe	0.04130935
221	0xbec52eb3	-0.3851219
222	0xbe7c93ac	-0.24665707
223	0x3f240292	0.6406642
224	0x3e2a6058	0.16638315
225	0xbe2bc91f	-0.1677594
226	0xbee20bfe	-0.44149774
227	0x3ef29133	0.47376403
228	0x3efa6add	0.48909655
229	0x3ea9d0a4	0.33166993
230	0x3e81b789	0.2533534
231	0x3cb7d350	0.022439629
232	0x3daf34a9	0.08554966
233	0xbf154448	-0.58307314
234	0x3e35f1b0	0.17767978
235	0xbf94d25e	-1.1626699
236	0x3e9756bd	0.29558364
237	0xbecb3a7d	-0.3969306
238	0x3e860a8e	0.26179928
239	0xbeb905ea	-0.36137325
240	0x3e249a6c	0.16074532
241	0xbe5f0995	-0.21780999
242	0x3ec1f979	0.37885645
243	0x3d0d69b5	0.03452464
244	0x3ec7d49d	0.390294
245	0x3df4368e	0.11924468
246	0xbe240a61	-0.16019584
247	0xbe2554ac	-0.16145581
248	0xbdc74461	-0.09729839
249	0x3e0bde19	0.13658942
250	0x3e999809	0.29998806
251	0x3e6d3ecc	0.23168486
252	0xbca0f2a3	-0.019646948
253	0x3ee8453f	0.4536533
254	0xbf222817	-0.6334242
255	0x3d388ca7	0.04505601

critic1.2.bias f4 [64]
0	0x3f291db9	0.6606098
1	0x3f62b50a	0.88557494
2	0x3f54c0bc	0.8310659
3	0x3f0bcf57	0.5461325
4	0xbf0a52e5	-0.54032737
5	0x3e113ec3	0.14184098
6	0x3f65b600	0.89730835
7	0x3fb3cfa5	1.4047743
8	0x3f66d8fa	0.9017483
9	0x3fdb5812	1.7136252
10	0xbf99a406	-1.2003181
11	0x3f3567d3	0.7086155
12	0x3e90888d	0.2822918
13	0x3f9446a3	1.1584057
14	0x3ee516f8	0.44744086
15	0x3f6ef957	0.9334921
16	0x3f88ae58	1.0678205
17	0x3f587ff0	0.8457022
18	0xc0076b40	-2.115921
19	0x3d740a0d	0.059579898
20	0x3f2e562a	0.68100226
21	0x3fb85485	1.4400793
22	0x3f901b8b	1.1258405
23	0x3f70afd0	0.9401827
24	0x3eaae122	0.33374888
25	0x3ed131f1	0.40858415
26	0x3fc74478	1.556777
27	0x3f8c0675	1.093947
28	0x3f521716	0.82066476
29	0x3f94016b	1.1562933
30	0x3fed17a0	1.8522835
31	0x3f958e47	1.1684045
32	0x3fc07a75	1.5037371
33	0xbf3d6ab2	-0.7399093
34	0xbe73afba	-0.23797503
35	0x3f3b2dec	0.73116946
36	0x3f1db164	0.615988
37	0x3e9bae87	0.3040659
38	0xbf294ff1	-0.66137606
39	0x3f6070ee	0.8767232
40	0x3f02710a	0.50953734
41	0x3fbda491	1.4815847
42	0x3f1b618f	0.6069574
43	0x3f6f40e9	0.9345842
44	0x3f9981f0	1.1992779
45	0x3fc50c20	1.5394325
46	0x3f9c42e1	1.220791
47	0x3fded205	1.7407843
48	0x3fbb96ae	1.4655359
49	0x3fb5f018	1.4213896
50	0x3dfeeb38	0.12447208
51	0xbf4093c8	-0.75225496
52	0x3f6b90ae	0.9201764
53	0xbe293d84	-0.16527373
54	0x3f2d6c32	0.6774322
55	0xbfbe7cb1	-1.4881803
56	0xbf35e5df	-0.7105388
57	0xbfa16881	-1.2610017
58	0x3ded9026	0.1159976
59	0xbd2d5fdf	-0.042327758
60	0x3fa3000b	1.2734388
61	0x3f94a7cf	1.1613711
62	0xbf8254d1	-1.0182134
63	0x3e2f926d	0.17145701

critic1.4.weight f4 [64, 64]
0	0xbf1b4faf	-0.6066846
1	0xbf2b5320	-0.66923714
2	0xbea71f30	-0.32640982
3	0xbe0b9fe2	-0.13635209
4	0xbf3fc637	-0.74911827
5	0x3e75349a	0.23945847
6	0xbf54fc0e	-0.83197105
7	0x3f251d43	0.64497775
8	0x3e56b690	0.2096808
9	0x3e1f27c4	0.15542513
10	0xbe0b4b57	-0.13602959
11	0xbeb4dbbe	-0.353239
12	0xbf05c43d	-0.5225256
13	0xbebd3064	-0.36950982
14	0x3eac22dd	0.3362035
15	0xbfcf90ca	-1.6216061
16	0xbeab8ee1	-0.33507445
17	0xbf9f6d1d	-1.2455174
18	0xbe265abe	-0.16245553
19	0x3f90fd58	1.1327314
20	0xbe774c29	-0.24150147
21	0x3f0f845e	0.5606135
22	0xbe12f288	-0.14350331
23	0xbf889964	-1.0671811
24	0xbcfad9ff	-0.030621527
25	0x3e418ac1	0.18900587
26	0x3cae3b3b	0.021268478
27	0x3f5fbc6a	0.8739687
28	0x3f0baffb	0.545654
29	0xbbae9480	-0.005327761
30	0x3dfe1eaa	0.124081925
31	0xbf5dee3c	-0.8669164
32	0x3e12cdef	0.1433637
33	0xbf044f45	-0.51683456
34	0xbd6181b8	-0.05505535
35	0xbdd56432	-0.10419501
36	0xbe127518	-0.1430248
37	0xbf09f6d8	-0.5389228
38	0xbda6d2e0	-0.0814569
39	0x3e90b7d7	0.2826526
40	0xbef52ed8	-0.478873
41	0xbe21ee85	-0.15813644
42	0x3f16d59d	0.589197
43	0xbf068c63	-0.52557963
44	0x3e6da739	0.23208322
45	0xbec1f44c	-0.37881696
46	0xbef0fd91	-0.47068456
47	0xbe85b141	-0.26111796
48	0xbf180e3c	-0.5939672
49	0xbf1a969c	-0.6038606
50	0xbeb95e95	-0.36204973
51	0xbd4173c5	-0.047229547
52	0xbecd9457	-0.40152237
53	0xbe0bf78e	-0.13668653
54	0x3fa6b38a	1.3023541
55	0x3f40f575	0.7537454
56	0xbebcae61	-0.3685179
57	0xbe90bc79	-0.28268793
58	0x3e3d0d51	0.18462111
59	0xbf88f7ae	-1.0700586
60	0xbf0a44a7	-0.54011005
61	0xbec955dc	-0.39323318
62	0x3e1174fa	0.1420478
63	0xbf0cb9e9	-0.54971176
64	0x3eacbbb2	0.3373695
65	0x3df79e7a	0.12090774
66	0x3e8dfca3	0.2773181
67	0xbde02ae3	-0.1094568
68	0xbf47bbc6	-0.78020895
69	0x3f3056fe	0.6888274
70	0x3f0744ad	0.52839166
71	0xbf22b08f	-0.6355066
72	0xbda79830	-0.08183324
73	0xbc952fa3	-0.018211192
74	0xbf858509	-1.0431224
75	0x3e572627	0.21010648
76	0x3d17af71	0.03703255
77	0x3ec8dc2a	0.39230472
78	0xbeb0f838	-0.34564376
79	0xbe05def7	-0.13073336
80	0xbce05623	-0.027384823
81	0xbdc09c83	-0.09404852
82	0xbf160a6c	-0.5860965
83	0xbf4c69ea	-0.7984911
84	0xbf8868a4	-1.0656934
85	0x3e777756	0.24166617
86	0xbeb67b91	-0.3564115
87	0x3e82080e	0.2539677
88	0xbf57d9be	-0.84316623
89	0x3eea1ee1	0.45726684
90	0x3ee9767f	0.45598218
91	0x3e992de1	0.29917815
92	0xbea4da4a	-0.3219779
93	0x3e054cf1	0.13017632
94	0xbddb3e31	-0.107052214
95	0x3dc87a8b	0.09788998
96	0x3f004e2d	0.50119287
97	0xbea54620	-0.32280064
98	0x3e2246a2	0.15847257
99	0x3e770a98	0.24125135
100	0x3eb87dc8	0.36033463
101	0xbf3c10a2	-0.7346288
102	0xbe7c1d9f	-0.24620675
103	0x3e85497a	0.2603262
104	0x3bd1fbdc	0.006408198
105	0x3d1aaf66	0.03776493
106	0x3ddaf629	0.106914826
107	0xbcad892d	-0.021183575
108	0xbd9feaf0	-0.07808483
109	0x3d67f232	0.05662746
110	0xbd868d83	-0.0656996
111	0xbd2bf996	-0.04198607
112	0xbea966a8	-0.33086133
113	0x3dbf5ccf	0.09343874
114	0xbebcfa8c	-0.36909902
115	0xbf1b8413	-0.60748404
116	0xbe648561	-0.22316505
117	0x3e19a677	0.15004908
118	0xbd8e7496	-0.06955831
119	0xbe16c0d3	-0.14721994
120	0xbea50e67	-0.3223755
121	0xbf0e7090	-0.55640507
122	0x40122494	2.2834826
123	0x3e39e18c	0.18152446
124	0xbe6c8116	-0.23096117
125	0xbea3f1dc	-0.32020462
126	0xbf42db60	-0.7611599
127	0xbe5cfdaa	-0.2158114
128	0x3f0ce120	0.55031013
129	0x3f11718d	0.5681389
130	0xbdaaaf55	-0.08334223
131	0xbebc7251	-0.36805966
132	0x3d954408	0.072883666
133	0xbd23618f	-0.03988796
134	0xbf12a5be	-0.5728415
135	0xbf005daa	-0.5014292
136	0xbe0c7c4c	-0.1371929
137	0xbda39d15	-0.079889454
138	0xbf393620	-0.72348213
139	0x3ebd6295	0.36989275
140	0x3ee7f8d3	0.45307025
141	0xbf42be1a	-0.7607132
142	0x3e782303	0.24232106
143	0x3e90fad5	0.2831637
144	0xbe8612b6	-0.2618615
145	0x3e0e049c	0.13868946
146	0x3ec35788	0.3815272
147	0x3d6b4c90	0.057446063
148	0xbe74873f	-0.23879717
149	0x3f108b20	0.5646229
150	0x3e61fb15	0.22068436
151	0x3da1f6da	0.07908411
152	0x3ebdb2b0	0.3705039
153	0xbe167de9	-0.14696468
154	0x3eaf49b0	0.34235907
155	0x3e6bcc28	0.23027098
156	0x3b8001e9	0.0039064777
157	0xbe30b066	-0.1725479
158	0x3e3c5b19	0.18394126
159	0x3dee1fb9	0.11627144
160	0x3e5f97b1	0.2183521
161	0xbf5d1508	-0.86360216
162	0xbdd2eac9	-0.10298688
163	0xbf5623ff	-0.83648676
164	0x3e84a918	0.25910258
165	0x3e0b6e04	0.13616186
166	0xbed8c897	-0.42340538
167	0xbef108e6	-0.470771
168	0xbe9399d4	-0.288283
169	0x3eb9801e	0.36230558
170	0xbf716362	-0.9429227
171	0xbec330bb	-0.38123116
172	0xbe4186e3	-0.18899111
173	0xbe2a5fbc	-0.16638082
174	0x3e6a5aa7	0.22886144
175	0x3e7025e7	0.23451959
176	0x3c0ff0f3	0.008785474
177	0x3e79d32d	0.24396963
178	0x3e852fb6	0.26012963
179	0x3eb1df54	0.34740698
180	0xbd2ca3c9	-0.042148385
181	0x3dd1bc3b	0.1024098
182	0xbe8133d3	-0.2523485
183	0xbf6a360f	-0.91488737
184	0xbddfd14a	-0.109285906
185	0x3e6b57bd	0.22982688
186	0x3ff78b9a	1.9339478
187	0x3e5e3cd0	0.21702886
188	0x3df7f8f3	0.1210803
189	0xbcccf8df	-0.025021015
190	0xbf0ad3ca	-0.54229414
191	0x3db424be	0.087960705
192	0x3e2b7b80	0.1674633
193	0x3fa4b480	1.2867584
194	0xbde46747	-0.11152511
195	0xbe0ba487	-0.13636981
196	0xbf06c9ec	-0.5265186
197	0xbcc5a47f	-0.02412629
198	0x3e984102	0.29737097
199	0xbe6fb14a	-0.23407474
200	0x3e4815c1	0.19539548
201	0xbcf7e77f	-0.030261753
202	0xbea3162b	-0.3185285
203	0x3d9c26a6	0.07624559
204	0x3eae87b5	0.3408791
205	0xbe12569f	-0.14290856
206	0xbd84eafb	-0.064901315
207	0x3e1d15ee	0.15340397
208	0x3e59a131	0.21252896
209	0x3ea5411e	0.32276243
210	0x3da833ee	0.0821303
211	0x3ca6deed	0.020369971
212	0xbe474ef9	-0.1946372
213	0x3d8e2841	0.069412716
214	0xbca1fea7	-0.019774748
215	0xbeac4ba8	-0.3365147
216	0xbe9e8039	-0.309572
217	0x3efa3992	0.48872048
218	0x3ea2a777	0.3176839
219	0xbd0fec7a	-0.03513763
220	0x3e3da27b	0.18519013
221	0x3dfe08fb	0.12404057
222	0x3d8f3016	0.069915935
223	0x3eafec9c	0.34360206
224	0x3ed0fd0b	0.40818056
225	0xbe0bd3fa	-0.13655081
226	0xbe4bb58d	-0.19893475
227	0x3ef97514	0.48722136
228	0x3e4395f2	0.19100168
229	0x3d96c0cd	0.073609926
230	0xbc61a6e1	-0.013772697
231	0x3caf12c5	0.021371255
232	0xbe15cfbc	-0.14630026
233	0x3e041139	0.12897195
234	0x3e42dc97	0.19029461
235	0x3ea1f504	0.31632245
236	0x3dbf2625	0.09333447
237	0x3e06d6cb	0.13167875
238	0x3e8218c9	0.25409535
239	0x3da7689d	0.0817425
240	0xbe6dfa89	-0.23240103
241	0x3ddd1b1c	0.10796186
242	0x3dad8559	0.084727
243	0x3cfa7450	0.03057304
244	0x3e343a9d	0.17600484
245	0xbeaac6f4	-0.33354914
246	0x3e334cf9	0.17509831
247	0xbe21b4bb	-0.157916
248	0xbcd07cce	-0.025450137
249	0x3b964145	0.0045854175
250	0x40095b28	2.1461887
251	0x3e210e15	0.15728028
252	0xbe38e3bf	-0.18055628
253	0x3e136ff4	0.14398175
254	0xbdf0297d	-0.11726663
255	0x3e58f834	0.21188432

critic1.4.bias f4 [64]
0	0xbf1e7836	-0.6190218
1	0x3f05216c	0.5200412
2	0x3f3551a0	0.70827675
3	0x3f9c2daa	1.2201436
4	0xbf214f3e	-0.6301154
5	0x3f9b1e3c	1.2118602
6	0x3f64e519	0.89412075
7	0x3ed5a82a	0.41729861
8	0x3f204cfd	0.62617475
9	0x3fb56f14	1.4174523
10	0xbf447eb8	-0.7675586
11	0xbf9f078b	-1.2424177
12	0xbe3b217f	-0.18274496
13	0xbf8fc8ba	-1.1233132
14	0x3faeee8d	1.366655
15	0x3f45a9b2	0.7721206
16	0xbf8b0b68	-1.0862856
17	0x3f8346b6	1.0255954
18	0x3f9dfda0	1.2343025
19	0xbf22c431	-0.63580614
20	0x3ef2ea13	0.4744421
21	0x3fcac06e	1.5839975
22	0x3fcad8d8	1.5847425
23	0xbdca1d70	-0.09868896
24	0xbf1737a5	-0.5906928
25	0xbeb02202	-0.34400946
26	0x3fb202a4	1.3907056
27	0x3ed330d4	0.4124819
28	0x3f038ecb	0.5138976
29	0xbf4455e4	-0.7669356
30	0x3fdc24c0	1.7198715
31	0xbd6d07d4	-0.057868794
32	0xbf22caa9	-0.63590485
33	0x3fc720e0	1.5556908
34	0x3f988386	1.1915138
35	0x3f35215f	0.70754045
36	0x3f23b2b2	0.6394454
37	0x3e85433e	0.26027864
38	0x3fa3d03c	1.2797923
39	0x3fd51c52	1.6649268
40	0xbf2e2673	-0.6802742
41	0xbf250100	-0.6445465
42	0x3fb161d6	1.3857982
43	0x3f8e7206	1.1128547
44	0xbf1f7657	-0.6228995
45	0xbf3163ac	-0.6929271
46	0x3f0a172e	0.5394162
47	0xbe3b73fa	-0.1830596
48	0x3e5eb3e5	0.21748312
49	0x3f423173	0.75856704
50	0xbf2e5f83	-0.6811449
51	0x3fc7df48	1.5615015
52	0x3fbd6322	1.4795878
53	0x3f9eeba5	1.2415663
54	0xbf077630	-0.52914715
55	0xbf3b3a29	-0.7313562
56	0xbe2dd53f	-0.16975878
57	0x3ed755f4	0.42057765
58	0xbfaba71e	-1.3410375
59	0x3e46921c	0.19391674
60	0x3ec8402d	0.39111462
61	0x3c9125c9	0.017718213
62	0x3f5d9961	0.8656216
63	0x3f05db6f	0.52287954

critic1.6.weight f4 [1, 64]
0	0xbfc99c87	-1.5750893
1	0x3f307ca4	0.68940187
2	0x3f1eb647	0.61996883
3	0x3d3e035d	0.046389926
4	0xbed85569	-0.42252663
5	0x3e440cbf	0.19145487
6	0x3ed836be	0.42229265
7	0x3f089a0e	0.5336007
8	0x3eb6b5f3	0.3568569
9	0x3d81a271	0.06329811
10	0xbfca9c0c	-1.5828872
11	0xbed8fa5a	-0.42378503
12	0xc00fa4aa	-2.2444253
13	0xbfd68c2e	-1.676153
14	0x3dc56fce	0.09640466
15	0xbef0afe7	-0.47009203
16	0xbfb1cfcd	-1.3891541
17	0x3e98c5f5	0.2983853
18	0x3dc927d5	0.098220505
19	0xbed84f72	-0.42248112
20	0x3eb32c88	0.34994912
21	0x3e411168	0.18854296
22	0x3e11334e	0.14179727
23	0xbdd12a42	-0.10213138
24	0xbe5ac06a	-0.21362463
25	0xbedb25d3	-0.42802295
26	0x3ef461be	0.4773082
27	0x3f863075	1.0483538
28	0x3f4f25ce	0.8091706
29	0xbef69ef2	-0.4816814
30	0x3e29e639	0.16591729
31	0xbf9cde60	-1.2255363
32	0xbeb5d8c0	-0.3551693
33	0x3e83b65c	0.25725067
34	0x3e3ce963	0.18448405
35	0x3f8cae1e	1.0990636
36	0x3f70454d	0.93855745
37	0xbf99b6ff	-1.2008971
38	0x3d841b91	0.064505704
39	0x3e2bb6dc	0.16768974
40	0xbed62c20	-0.4183054
41	0xbf236cf3	-0.6383812
42	0x3e5e9b9d	0.2173905
43	0x3e47f217	0.19525944
44	0xbf01316c	-0.50466037
45	0xbf0108a4	-0.5040381
46	0x3f38b559	0.72151715
47	0xbec8db2e	-0.3922972
48	0x3fbd6cdf	1.479885
49	0x3f6ed851	0.9329882
50	0xbf07c2b7	-0.53031486
51	0x3e86b9a6	0.26313514
52	0x3d82604b	0.06366023
53	0x3e8e7d53	0.2782999
54	0xbf177690	-0.59165287
55	0xbf2c1280	-0.6721573
56	0xbfc5e986	-1.5461891
57	0x3f80f579	1.0074912
58	0xbf0b395f	-0.54384416
59	0xbfaaa033	-1.3330139
60	0x40133b23	2.3004844
61	0xbf8a1273	-1.078688
62	0x3ef5b09e	0.4798631
63	0x3ead7049	0.3387473

critic2.0.weight f4 [64, 82]
0	0xbcb75ae5	-0.02238221
1	0x3ce0775b	0.027400663
2	0xbba1e1e4	-0.0049402583
3	0xbb082e96	-0.002077972
4	0xbd1300be	-0.03588938
5	0x3d8ab7a6	0.067733094
6	0xbd92cb5b	-0.07167693
7	0xbc32b1f1	-0.010906682
8	0x3ef6a22e	0.48170608
9	0xbef82b2f	-0.48470446
10	0xbc8a76fc	-0.01690244
11	0xbdb4285a	-0.08796759
12	0xbeb58522	-0.35453135
13	0x3f092dcb	0.535855
14	0xbd99342d	-0.07480655
15	0xbd9141d7	-0.07092636
16	0x3e845a09	0.2584994
17	0xbeb3549e	-0.35025495
18	0x3dd6785e	0.10472177
19	0xbeca3c65	-0.39499202
20	0xbe81ee5d	-0.2537717
21	0x3eb7614e	0.35816425
22	0xbe8f3443	-0.2796956
23	0x3f05df1c	0.5229356
24	0xbe95bdfd	-0.29246512
25	0x3eae8d8b	0.34092364
26	0xbe93671b	-0.287896
27	0x3eba76ce	0.36418766
28	0xbf9402c3	-1.1563343
29	0x3fb5a88f	1.4192065
30	0xbda7562c	-0.08170733
31	0x3d08a963	0.033364665
32	0xbb321dae	-0.0027178335
33	0x3ce84f58	0.028358147
34	0xbb62e4a4	-0.0034621144
35	0xbe07c333	-0.13258056
36	0xbd8150e8	-0.0631426
37	0xbdb65642	-0.08903171
38	0x3dc14f73	0.09438982
39	0x3dd28285	0.10278801
40	0xbd3aea40	-0.045633554
41	0xbdf3b876	-0.119004175
42	0x3eddd5b5	0.43327108
43	0xbe481742	-0.19540122
44	0xbece80ae	-0.4033255
45	0x3e91b7f1	0.2846065
46	0x3c9a1418	0.01880841
47	0x3de4c5b6	0.11170523
48	0xbe019158	-0.126531
49	0x3e289864	0.16464382
50	0xbeb70aa9	-0.3575032
51	0x3e88057c	0.26566684
52	0x3eb50f6d	0.3536333
53	0xbea7bbd8	-0.327605
54	0x3e7e6abc	0.24845403
55	0xbf111981	-0.5667954
56	0x3e80f884	0.25189602
57	0xbed09b13	-0.40743312
58	0x3f902cf6	1.1263721
59	0xbf922187	-1.1416482
60	0x3ea77c3d	0.32711974
61	0xbe7655ad	-0.2405612
62	0xbcbd7748	-0.023128167
63	0x3be2449a	0.0069051506
64	0x3c43e43c	0.011956271
65	0x3c8167b3	0.015796518
66	0xbd12218d	-0.035676528
67	0xbbfe8508	-0.0077673234
68	0x3e0cd03d	0.13751312
69	0xbd9e3ea4	-0.077267915
70	0xbdb9a21c	-0.09064123
71	0x3df1a64b	0.11799296
72	0x3cc41ea8	0.0239404
73	0x3cf52140	0.029923081
74	0x3ac57d45	0.001506724
75	0x3cd15490	0.025553018
76	0xbcec1934	-0.028820612
77	0xbc64f918	-0.013975404
78	0xbe20f811	-0.1571963
79	0x3e11f115	0.14252122
80	0x3e01cc19	0.12675513
81	0xbdb02374	-0.08600512
82	0xbe2ce54c	-0.16884345
83	0x3e13f4ba	0.14448825
84	0xbe09e575	-0.13466437
85	0xbe794107	-0.24341212
86	0x3dc7a7f1	0.09748829
87	0xbd31cf77	-0.043410745
88	0xbe0ecfd8	-0.13946474
89	0xbdc4c513	-0.096079014
90	0xbdc0dc4d	-0.09417019
91	0x3e0582ee	0.13038227
92	0x3e43b99c	0.19113773
93	0xbd91ce8e	-0.07119475
94	0xbcda15a7	-0.026621653
95	0x3e2644f9	0.16237248
96	0xbe0b4a01	-0.13602449
97	0x3e4a5eef	0.19762777
98	0xbd0c1cdb	-0.034207206
99	0xbdfbc4f2	-0.12293424
100	0xbdabf011	-0.083953984
101	0x3c818169	0.015808778
102	0xbe6ef3d7	-0.23335205
103	0x3a156f93	0.0005700525
104	0x3e145fed	0.14489718
105	0x3d850f89	0.06497104
106	0x3ce73141	0.028221728
107	0x3e133eaa	0.14379373
108	0xbe004c88	-0.12529194
109	0xbb90a7f8	-0.0044145547
110	0x3cc6f5af	0.024287073
111	0x3d23d1ef	0.03999513
112	0x3def52a1	0.11685682
113	0xbd919ce8	-0.071100056
114	0xbcc786e9	-0.024356322
115	0xbca1e665	-0.019763181
116	0xbab93bb5	-0.0014132174
117	0xbc241921	-0.010015757
118	0x3e966aa1	0.29378226
119	0x3d2ba83b	0.041908484
120	0x3c8c33e8	0.017114595
121	0x3dda9455	0.10672823
122	0xbdb273e5	-0.087135114
123	0xbb8bc4ec	-0.0042654183
124	0x3de31fb9	0.11090035
125	0xbd7d369c	-0.061819658
126	0x3dee77b1	0.11643923
127	0xbe4ee6fa	-0.20205298
128	0x3dac0298	0.08398932
129	0x3d3efdd9	0.046628807
130	0x3c610a11	0.01373531
131	0xbe671896	-0.22567973
132	0x3d759da5	0.059964795
133	0xbe322cf4	-0.17399961
134	0xbd875571	-0.066080935
135	0x3cc6f961	0.024288835
136	0x3dd9c2e1	0.10632873
137	0xbe295805	-0.16537483
138	0x3c2b7d85	0.010466938
139	0xbd216cb5	-0.03941031
140	0xbdf9bb85	-0.1219397
141	0x3c2215d0	0.009892896
142	0xbb5d039e	-0.003372408
143	0x3d9d3f3a	0.07678075
144	0x3cdc9e29	0.026930885
145	0x3cd149a4	0.02554781
146	0x3d3222c1	0.043490175
147	0x3cf76e30	0.030203909
148	0xbd2eca6b	-0.04267351
149	0x3cf146e8	0.029452756
150	0xbcaf8bcb	-0.021428963
151	0xbb8bb605	-0.004263642
152	0xbe40e2cf	-0.1883652
153	0x3db462ce	0.08807908
154	0xbd083fd4	-0.033263996
155	0x3dde86be	0.10865544
156	0xbddab7b1	-0.106795676
157	0xbac2f567	-0.0014874161
158	0x3c3e2606	0.011605745
159	0x3c487964	0.012235973
160	0xbe1eb0a4	-0.1549707
161	0x3de9cfce	0.11416589
162	0xbdcfb8b1	-0.10142649
163	0x3dda6eef	0.1066569
164	0xbd8d65a1	-0.0690415
165	0x3c613315	0.013745089
166	0xbdd08fb0	-0.10183656
167	0xbd6a0f48	-0.05714348
168	0xbd49ce9b	-0.0492693
169	0x3e366fc6	0.17816076
170	0x3e375792	0.17904499
171	0x3d59c678	0.05316779
172	0xbea2da92	-0.3180738
173	0xbe1241f7	-0.14282976
174	0x3dce34f9	0.100686975
175	0xbd86641a	-0.065620616
176	0x3e64285a	0.22281018
177	0x3e2b2e4d	0.16716881
178	0x3d9bda09	0.07609946
179	0x3e2540ac	0.16137952
180	0xbf1fae07	-0.6237492
181	0x3d34f80b	0.044181865
182	0xbe991c03	-0.29904184
183	0xbc64c978	-0.0139640495
184	0x3eb65b94	0.35616744
185	0xbdaf5354	-0.085608155
186	0x3d8e817b	0.0695829
187	0xbd48b841	-0.049003843
188	0x3ed67c7b	0.41891846
189	0x3e012eb1	0.12615468
190	0x3e8607c5	0.26177803
191	0xbe61a267	-0.22034608
192	0x3f69bf33	0.9130737
193	0x3e517917	0.20456348
194	0x3e348d7a	0.17632094
195	0xbe155bfc	-0.1458587
196	0x3d5fd08b	0.05464224
197	0xbc802d6c	-0.015646659
198	0xbd900d74	-0.07033816
199	0x3dfd9f06	0.12383847
200	0x3dd72a1a	0.10506077
201	0xbd424783	-0.04743148
202	0xbe152a1e	-0.14566848
203	0xbcbb7a37	-0.022885425
204	0xbde186ce	-0.1101204
205	0x3dbdc5f0	0.09266269
206	0xbd83c2fd	-0.064336754
207	0x3d8500c9	0.064942904
208	0x3e8ef265	0.27919307
209	0xbdb16e6f	-0.08663642
210	0x3e84233f	0.2580814
211	0xbc22350b	-0.009900342
212	0x3e937228	0.28798032
213	0x3e04e75c	0.12978882
214	0x3ea903ce	0.33010715
215	0xbdd02e43	-0.10165074
216	0xbedb88dc	-0.42877853
217	0xbd4fb25d	-0.05070721
218	0xbd9b92c8	-0.07596356
219	0x3ca50a90	0.020146638
220	0xbe9b7424	-0.30362046
221	0xbd45c83f	-0.048286673
222	0xbf7ef190	-0.99587345
223	0xbe425756	-0.18978629
224	0xbeb2dd26	-0.34934348
225	0x3e0115c1	0.12605955
226	0x3c6dedb6	0.014522007
227	0xbc7c7d1d	-0.015410689
228	0x3b60afde	0.0034284513
229	0x3b472df8	0.003039239
230	0x3c637fff	0.013885497
231	0xbc175796	-0.009237191
232	0xbe8d5496	-0.27603596
233	0x3e8005b2	0.25004345
234	0x3d26339c	0.040576562
235	0xbb989116	-0.0046559675
236	0x3bfb3ad6	0.007666926
237	0x3d1dc6d2	0.038519688
238	0xbcba55cc	-0.02274599
239	0x3d21e473	0.039524507
240	0xbb800a32	-0.0039074654
241	0xbb27fc05	-0.0025632393
242	0x3edafea9	0.42772415
243	0xbed358f0	-0.4127879
244	0x3e0f8f82	0.14019588
245	0xbe233d65	-0.15941389
246	0x3c987abf	0.018613217
247	0xbd928c07	-0.07155614
248	0x3cda4307	0.02664329
249	0x3cdab9bc	0.026699893
250	0x3d820698	0.06348914
251	0xbd8eac40	-0.06966448
252	0xbde2e3cf	-0.11078607
253	0xba4ca30e	-0.00078062795
254	0xbc58a376	-0.013222566
255	0xbdc6f598	-0.09714812

critic2.0.bias f4 [64]
0	0x3fa7f295	1.3120905
1	0x400cd234	2.2003298
2	0x3dc2a7d1	0.09504665
3	0x401d9cba	2.4626908
4	0x3fa0a7c6	1.25512
5	0x3fb8e736	1.444556
6	0x3eef9b19	0.46798018
7	0xbfa5e48a	-1.296037
8	0xbd8755e2	-0.06608178
9	0x40016f2a	2.02241
10	0xbd8e263b	-0.06940886
11	0x40124fcd	2.2861207
12	0xbd3e93f4	-0.046527818
13	0xbe797228	-0.24359953
14	0x3f2d564c	0.67709804
15	0x3f64669d	0.89219075
16	0xbeadec83	-0.33969507
17	0x3e6c2a14	0.23062927
18	0xbdb61f79	-0.08892722
19	0xbf1ab9fe	-0.6044005
20	0x3e204cf2	0.15654352
21	0xbf33b2fe	-0.70194995
22	0x3ff99a98	1.9500303
23	0xbdd3c146	-0.10339598
24	0x3c11e6e0	0.008905143
25	0xc009d122	-2.1533895
26	0x3fa8073f	1.3127211
27	0x3fa84bf2	1.3148177
28	0x3fadebde	1.3587606
29	0x3cd748b2	0.026279781
30	0x3f8a2f8f	1.0795764
31	0x3ff25a35	1.8933779
32	0x3f8a6b28	1.0813951
33	0xbf8e1db0	-1.110281
34	0x3d21f8bf	0.039543863
35	0xc0002af6	-2.0026221
36	0x3f18ef1b	0.59739846
37	0x3fafec38	1.3743963
38	0xbdbe4a9c	-0.09291574
39	0x3de793e6	0.11307506
40	0x3db72d87	0.089442305
41	0x3eb6b1f9	0.35682657
42	0x3f1f02fc	0.6211393
43	0xc019b2f5	-2.4015477
44	0xbf34daf4	-0.70646596
45	0xbe7b5275	-0.24543174
46	0x3c467bda	0.012114489
47	0x3c6a629b	0.014305736
48	0x3feb589a	1.8386414
49	0xbc66f671	-0.014096842
50	0x3f230ae6	0.63688505
51	0x3e0167bc	0.12637228
52	0xc093c289	-4.617497
53	0xbcd35d69	-0.025801377
54	0xbfc9c25b	-1.5762438
55	0x3b116273	0.0022183924
56	0xbe02cda0	-0.12773752
57	0xbf560f78	-0.83617353
58	0x3f4bb7f1	0.7957755
59	0x3f24d051	0.64380366
60	0xbf249b41	-0.642994
61	0xbd48f4fb	-0.049061757
62	0xbefc2305	-0.49245468
63	0x3fa96e7e	1.3236845

critic2.2.weight f4 [64, 64]
0	0xbd3c26a9	-0.045935307
1	0xbceac4aa	-0.02865823
2	0xbe4f897e	-0.20267293
3	0x3d4aad64	0.049481764
4	0x3e768044	0.24072367
5	0x3ecc947a	0.3995703
6	0xbd02feb5	-0.03198119
7	0x3eba8147	0.36426756
8	0x3e8ff81b	0.28118977
9	0x3d24423e	0.040102236
10	0xbe75bc24	-0.23997551
11	0x3d319093	0.043350767
12	0x3d08faf6	0.03344246
13	0x3df7e796	0.121047184
14	0x3e8a0ab8	0.26961303
15	0xbe4ec650	-0.20192838
16	0x3f1bffbb	0.6093709
17	0x3c9484b6	0.018129688
18	0x3ee8d1b9	0.45472506
19	0x3e8995be	0.26872057
20	0x3d5e9205	0.054338474
21	0xbe34a346	-0.17640409
22	0x3e1e0f8a	0.15435615
23	0x3e228f8c	0.15875071
24	0xbec178cc	-0.37787473
25	0x3c180cba	0.009280378
26	0xbe18e79e	-0.14932105
27	0x3eaa5b84	0.33272946
28	0xbe1690f7	-0.14703737
29	0x3e59f92f	0.21286462
30	0x3dcc87a4	0.09986809
31	0x3e9437c4	0.28948796
32	0x3ed54d81	0.41660693
33	0x3e28120c	0.16413134
34	0x3e18b8a2	0.14914182
35	0x3e327f46	0.17431363
36	0x3e82ba55	0.25532785
37	0x3c502c33	0.01270585
38	0xbdbe0605	-0.09278492
39	0xbe86a303	-0.26296243
40	0x3b5aecc1	0.0033405276
41	0x3d8316cf	0.06400835
42	0xbe9d907f	-0.30774304
43	0xbed29ae1	-0.41133788
44	0xbdc0f97e	-0.09422587
45	0xbe41f97b	-0.18942825
46	0x3e60423e	0.2190027
47	0xbc8d6594	-0.01726035
48	0xbd47d4b0	-0.04878682
49	0x3eb97938	0.36225295
50	0xbcf3ebd3	-0.029775536
51	0xbe3df9cd	-0.18552323
52	0x3f9cb51b	1.2242769
53	0xbd239b8a	-0.039943255
54	0xbd20d4fe	-0.039265625
55	0x3e9b9e89	0.3039439
56	0x3dac9db9	0.08428521
57	0xbe360eed	-0.17779131
58	0x3d7e7206	0.06212046
59	0x3d994eb3	0.07485714
60	0xbf802ff9	-1.001464
61	0x3e8d5c71	0.2760959
62	0x3d9131e7	0.07089596
63	0x3e501689	0.20321096
64	0x3e5cc6fc	0.21560282
65	0x3f1f4e74	0.62229085
66	0x3c1ef9ef	0.0097031435
67	0x3ef76c1a	0.48324662
68	0xbd3b00fa	-0.04565523
69	0xbe7a0d6f	-0.24419187
70	0xbe93770d	-0.28801766
71	0x3ea4fafb	0.32222733
72	0xbdbed3ca	-0.09317739
73	0xbc707a0c	-0.014677536
74	0xbe66d2bb	-0.22541325
75	0x3dbcac91	0.09212602
76	0xbe85bb09	-0.2611926
77	0xbd4c4d22	-0.049878247
78	0xbcb12439	-0.021623718
79	0x3d23f6fe	0.040030472
80	0xbe9fb1ec	-0.3119043
81	0x3e2b8c02	0.16752627
82	0x3dbc0d9a	0.09182282
83	0xbda70bf6	-0.08156578
84	0xbd7ae77f	-0.061255928
85	0x3df39acf	0.11894762
86	0x3db76cc7	0.089562945
87	0xbd64a156	-0.055817924
88	0xbe3083fd	-0.1723785
89	0x3e449b2b	0.19199817
90	0xbecb93dd	-0.39761248
91	0x3dd0c67e	0.101941094
92	0x3e03a312	0.12855175
93	0xbf0e53cf	-0.5559663
94	0xbe4c4bfe	-0.19950864
95	0xbb92e4d8	-0.0044828467
96	0x3ea79ee2	0.32738405
97	0xbda882bd	-0.08228061
98	0x3f1843e6	0.59478605
99	0xbf02c5c8	-0.5108304
100	0xbd9026e5	-0.070386685
101	0x3d9ee3e8	0.077583134
102	0x3dec7b43	0.11546948
103	0xbe46e692	-0.19423893
104	0x3ec1e8b7	0.3787286
105	0x3e8fda79	0.2809637
106	0xbed66acd	-0.41878358
107	0xbea8ba5c	-0.3295468
108	0xbe47e034	-0.1951912
109	0x3dd32850	0.103104234
110	0x3e7fd97a	0.24985304
111	0xbd80dbc1	-0.06291915
112	0x3e73c2bf	0.23804758
113	0x3e457bbf	0.19285487
114	0x3b696f2e	0.0035619247
115	0xbe614d30	-0.22002101
116	0xbff14bb9	-1.8851234
117	0x3e0617e6	0.13095054
118	0xbf24ef7b	-0.6442792
119	0xbe42d2ec	-0.19025773
120	0x3e596e90	0.21233582
121	0xbeaffd3d	-0.34372893
122	0xbe968ea2	-0.29405695
123	0xbe8fd71e	-0.2809381
124	0xbea3aa0e	-0.3196568
125	0x3e66f71f	0.22555207
126	0xbc4f63bf	-0.012658059
127	0x3e79f07b	0.24408142
128	0x3f4ff12d	0.8122738
129	0x3dbbe521	0.09174562
130	0xbea423a7	-0.3205845
131	0xbed6f320	-0.41982365
132	0x3e65ec09	0.22453322
133	0xbe73ce56	-0.2380918
134	0x3c4592dd	0.012058941
135	0x3ea03181	0.31287768
136	0x3f2572f8	0.64628553
137	0xbed61a39	-0.4181688
138	0xbe748fb5	-0.23882945
139	0x3e0e9897	0.13925396
140	0xbdf36174	-0.11883822
141	0xbe72db5d	-0.23716493
142	0xbfffee5c	-1.9994617
143	0xbf124fb9	-0.571529
144	0xbf15e486	-0.58551824
145	0xb958eea3	-0.00020688264
146	0x3e5aee82	0.21380046
147	0xbe5a4526	-0.2131544
148	0xbce47ffb	-0.027893057
149	0xbe197147	-0.14984618
150	0xbda1fc38	-0.07909435
151	0x3e848f6c	0.25890672
152	0x3f0a8400	0.54107666
153	0xbf13808a	-0.5761801
154	0x3ec42b57	0.38314316
155	0xbdb91184	-0.09036544
156	0x3f1e0bab	0.61736554
157	0x3f374c71	0.71601015
158	0x3f4a40ec	0.7900531
159	0xbe5bca8d	-0.21463986
160	0x3d61ef8d	0.055160094
161	0xbe9c97d7	-0.30584595
162	0xbf7bd7ae	-0.98375976
163	0x3dd0250b	0.101633154
164	0x3ecadf9e	0.3962373
165	0x3ec503ae	0.3847937
166	0x3dda26ab	0.106519066
167	0xbf0e2a22	-0.5553304
168	0xbee93d35	-0.4555451
169	0xbe472ed3	-0.19451456
170	0x3d04d724	0.032431737
171	0xbeb7759b	-0.35831913
172	0x3d688ecd	0.05677681
173	0x3ec12f36	0.37731332
174	0xbd491dfe	-0.04910087
175	0xbe9b83d7	-0.30374023
176	0x3eda9bee	0.4269709
177	0xbeba63b1	-0.36404184
178	0x3e86149f	0.26187608
179	0x3d952427	0.07282286
180	0xbe4c6317	-0.19959675
181	0xbd4b6352	-0.049655266
182	0x3f078ffa	0.52954066
183	0x3e97f9a4	0.29682648
184	0xbebd1bb4	-0.36935198
185	0xbec64ac9	-0.38728932
186	0x3e7d236a	0.2472054
187	0xbee8d6b9	-0.4547632
188	0xbc2f7eca	-0.010711381
189	0x3d8840b5	0.06652967
190	0xbd49c7a3	-0.049262654
191	0xbe38aae7	-0.18033944
192	0x3dea30ef	0.114351146
193	0x3ea3e5a7	0.32011148
194	0xbe34a9c6	-0.17642888
195	0xbc3c4f0e	-0.0114934575
196	0xbe85733e	-0.26064485
197	0x3ebb0907	0.36530325
198	0x3ee8dcef	0.4548106
199	0x3e28ede1	0.16496994
200	0xbd928065	-0.071533956
201	0xbdda0451	-0.106453545
202	0xbc96e87b	-0.018421402
203	0xbd635455	-0.055500347
204	0xbebac253	-0.36476383
205	0xbeb6619e	-0.3562135
206	0xbea02189	-0.31275585
207	0x3e013c1e	0.12620589
208	0x3ead26aa	0.3381856
209	0x3e66c748	0.22536957
210	0x3ebebecf	0.3725495
211	0x3f09cba0	0.5382633
212	0xbdc7ed84	-0.097620994
213	0x3e1e1d4c	0.15440863
214	0xbeb8428b	-0.35988268
215	0x3f53df4c	0.827626
216	0x3c93f2a2	0.018060032
217	0x3f024a0a	0.50894225
218	0xbd7ee3d9	-0.06222901
219	0x3d06ce7d	0.032911766
220	0x3e084750	0.13308454
221	0xbf11e920	-0.56996346
222	0x3ec6ca10	0.38826036
223	0xbec7571f	-0.38933656
224	0x3f201cc7	0.6254391
225	0x3d5ac740	0.053412676
226	0x3e683a73	0.22678547
227	0x3dd7cdf9	0.10537333
228	0x3e9c6abf	0.3055019
229	0x3d4ec9c4	0.050485387
230	0xbda7ac5c	-0.08187172
231	0x3ef41b38	0.47677016
232	0xbe39bf49	-0.18139376
233	0xbde83255	-0.11337725
234	0x3f069d06	0.5258335
235	0x3dcbeeec	0.0995768
236	0x3e69c27f	0.228281
237	0xbd3746e6	-0.04474535
238	0x3e019e51	0.12658049
239	0xbe39e4ea	-0.1815373
240	0x3e00a210	0.12561822
241	0xbd6c342a	-0.057666935
242	0xbe1be785	-0.15225036
243	0xbea1ad75	-0.3157765
244	0xbf6a9627	-0.91635364
245	0x3e9cb978	0.3061025
246	0x3e42d939	0.19028176
247	0x3da905b5	0.08253042
248	0x3e4d5c90	0.20054841
249	0xbd11cafb	-0.035593968
250	0x3ecbe38c	0.39822042
251	0x3e1c2b5a	0.15250912
252	0xbc223eb7	-0.009902648
253	0xbeea4be0	-0.45761013
254	0xbda1dfe9	-0.079040356
255	0xbf898091	-1.074236

critic2.2.bias f4 [64]
0	0xbf5bc17d	-0.85842115
1	0x3feefeeb	1.8671545
2	0x3e62c39e	0.22144935
3	0x3dee0abe	0.11623143
4	0x3f42d2b8	0.7610278
5	0x3fc5e584	1.5460668
6	0x3ef2e791	0.47442296
7	0x3ecb7537	0.39737865
8	0x3f776c07	0.9664921
9	0xbdd5230b	-0.104070745
10	0x3dbbe852	0.09175171
11	0x3f814370	1.0098705
12	0x3e92d0ed	0.28675023
13	0x3fc76b2c	1.5579581
14	0xbf83ebfc	-1.0306392
15	0xbe6a9348	-0.22907746
16	0x3ecde591	0.40214208
17	0x3f5fd3fd	0.87432843
18	0x3fa083f3	1.2540268
19	0x3fbbbaa3	1.4666332
20	0xbf3abc62	-0.729437
21	0x3f58489b	0.8448579
22	0x3f738f4c	0.9514053
23	0x3ec4b4f0	0.38419294
24	0x3f420b39	0.75798374
25	0xbf37808f	-0.7168054
26	0xbf54b9a1	-0.8309575
27	0x3fe599d0	1.7937565
28	0x3f2eecdd	0.68330175
29	0x3f28710c	0.65797496
30	0x3f04cc2b	0.51874036
31	0x3ffaddbe	1.959892
32	0x3f14b285	0.580849
33	0x3ef8b148	0.48572755
34	0x3f92d442	1.1471026
35	0x3c3da89c	0.011575844
36	0x400b03d4	2.1721087
37	0x3fcb88c5	1.5901114
38	0xbecb5117	-0.39710304
39	0xbe541643	-0.20711617
40	0x3f999c48	1.2000818
41	0x3f06fd39	0.5273014
42	0x3f5d77ea	0.865111
43	0x3fe03f00	1.7519226
44	0xbf5594e2	-0.834303
45	0x3e28bc70	0.16478133
46	0x3f6b59eb	0.9193408
47	0xbf614823	-0.88000697
48	0x3fb10582	1.3829806
49	0xbe8e5c3d	-0.27804747
50	0x3fab555d	1.3385426
51	0x3f43c51b	0.76472634
52	0x3ee7f63d	0.45305052
53	0x3fca9de8	1.5829439
54	0x3faf51b9	1.3696815
55	0x3f7530bc	0.9577749
56	0x3f03dc1b	0.5150773
57	0xbf1b786a	-0.6073061
58	0x3ee68f98	0.45031428
59	0x3f66d977	0.90175575
60	0xbf647a5b	-0.892492
61	0x3f08f4a0	0.5349827
62	0x3e8a2dbd	0.2698802
63	0x3fbfbe60	1.4979973

critic2.4.weight f4 [64, 64]
0	0xbe19462b	-0.14968173
1	0xbe99bd7d	-0.3002738
2	0xbf5d284b	-0.8638961
3	0xbf08306f	-0.53198904
4	0x3e0347d4	0.12820369
5	0xbf345099	-0.7043548
6	0xbf4757f2	-0.7786857
7	0x3f369111	0.71315104
8	0xbea8c5e3	-0.32963476
9	0xbf1b1b7d	-0.6058882
10	0x3e87a7a1	0.26495078
11	0xbf2fc401	-0.68658453
12	0xbdaa6068	-0.08319169
13	0xbc2fe230	-0.01073508
14	0xbeb62fcd	-0.35583344
15	0xbe03292e	-0.12808678
16	0x3ea89ae0	0.3293066
17	0xbe5efa78	-0.21775234
18	0xbe17ca63	-0.14823298
19	0xbeac221d	-0.33619776
20	0x3e562e94	0.20916206
21	0x3f0c6468	0.5484071
22	0x3e3a88ea	0.18216291
23	0xbe9e4bed	-0.30917302
24	0x3f1f82e9	0.6230913
25	0x3f1986a0	0.59971046
26	0xbefb1749	-0.49041203
27	0xbe50308d	-0.2033102
28	0x3e5b2d1e	0.2140393
29	0x3c4e4b9d	0.01259127
30	0xbeea25e2	-0.45732027
31	0x3e2ec348	0.17066681
32	0x3e8a2918	0.26984477
33	0xbe316af7	-0.1732596
34	0xbe847aa5	-0.2587482
35	0x3a7a1df3	0.0009541206
36	0xbecd59a6	-0.4010746
37	0x3dfedb18	0.124441326
38	0xbdd08b43	-0.10182812
39	0x3ce42a32	0.027852152
40	0xbf16ea13	-0.5895092
41	0xbf92211d	-1.1416355
42	0x3df20de8	0.11819059
43	0x3ddaddc1	0.106868275
44	0xbf115fdb	-0.5678689
45	0xbf2d87f7	-0.6778559
46	0x3ca351d6	0.019936483
47	0xbe7f0bdf	-0.24906872
48	0xbf0da175	-0.5532449
49	0xbdb7eb46	-0.08980422
50	0x3e8918ee	0.26776832
51	0xbe9e09e9	-0.30866936
52	0xbd862213	-0.06549468
53	0x3e4551a6	0.19269428
54	0x3e49d9c7	0.19711982
55	0xbee6965d	-0.45036593
56	0xbeca0748	-0.3945868
57	0xbf206a26	-0.6266197
58	0xbe9da17b	-0.30787262
59	0xbe82d195	-0.25550523
60	0xbf56b486	-0.83869207
61	0x3dc327a6	0.09529047
62	0xbef3f2bf	-0.47646138
63	0xbebe8d1c	-0.37217033
64	0xbed8eb97	-0.4236724
65	0xbfa7aee1	-1.3100244
66	0xbeda331b	-0.42617115
67	0x3f57a6c4	0.8423884
68	0xbe21adc3	-0.15788941
69	0xbe5cc684	-0.21560103
70	0x3f2bddf4	0.6713555
71	0x3e925db6	0.2858712
72	0x3e691cd0	0.22764897
73	0xbf2b05b5	-0.66805583
74	0xbebc96c8	-0.36833787
75	0x3f17df3a	0.5932499
76	0xbfb92f2e	-1.4467523
77	0xbec5716e	-0.38563102
78	0xbe3e8929	-0.1860701
79	0xbeeae7b4	-0.458799
80	0xbeaa8496	-0.3330428
81	0xbe636541	-0.22206594
82	0x3da2e54d	0.07953892
83	0xbf1a79d7	-0.6034216
84	0xbe94b466	-0.29043883
85	0x3e9b5109	0.30335262
86	0x3e80f2d0	0.2518525
87	0xbec50850	-0.38482904
88	0x3f08da94	0.53458524
89	0x3eef0f2b	0.4669126
90	0x3cbebc5f	0.023283182
91	0xbe56ab87	-0.2096387
92	0x3f2daeca	0.6784483
93	0x3d05e815	0.032692034
94	0x3e8ad0a9	0.2711232
95	0x3e8664f4	0.26248896
96	0xbe989d43	-0.2980748
97	0xbee18d5f	-0.4405317
98	0xbea7ca0b	-0.32771334
99	0xbd0fec64	-0.03513755
100	0xbf2ae52a	-0.66755927
101	0xbf714de9	-0.94259506
102	0xbe785b16	-0.24253497
103	0xbeb2ad53	-0.3489786
104	0xbe747169	-0.23871388
105	0xbf0a2bba	-0.5397297
106	0xbb22ce64	-0.0024842257
107	0x3e83a154	0.2570902
108	0xbe6f6723	-0.23379187
109	0xbd9b9102	-0.075960174
110	0x3eada014	0.33911192
111	0x3beca742	0.007222087
112	0x3eab8b74	0.33504832
113	0xbdfbe6d1	-0.12299884
114	0xbe3469d6	-0.17618498
115	0xbe931e83	-0.28734216
116	0x3ecfa1be	0.40553087
117	0xbea5c37d	-0.32375708
118	0x3d21ceeb	0.039503973
119	0x3ce532b7	0.027978284
120	0x3f0f8b34	0.5607178
121	0x3e33b97d	0.17551227
122	0xbee8e261	-0.45485213
123	0xbeedbb98	-0.46432185
124	0x3dd1710b	0.10226639
125	0x3eb2410f	0.3481526
126	0xbe259105	-0.16168602
127	0xbc6864f5	-0.014184226
128	0xbe1acaba	-0.15116397
129	0x3ed692db	0.41908917
130	0xbef4df6f	-0.47826716
131	0x3ea3fcba	0.32028753
132	0x3ee09268	0.438617
133	0xbeb4e42a	-0.35330325
134	0xbe9220f0	-0.28540754
135	0xbe2413f0	-0.1602323
136	0xbdc27a32	-0.09495963
137	0x3bb3dccc	0.0054889675
138	0x3dbde011	0.09271253
139	0xbf119d80	-0.5688095
140	0xbdb2f0a7	-0.08737307
141	0xbf84f22f	-1.0386409
142	0xbe4044a6	-0.18776187
143	0xbdebb435	-0.11508981
144	0xbf9551b3	-1.1665558
145	0xbde64b11	-0.112447865
146	0xbe14eaf9	-0.1454276
147	0x3e28e775	0.16494544
148	0xbd3d2a5e	-0.046182983
149	0x3e423b7c	0.18968004
150	0xbe12379f	-0.1427903
151	0xbd21df0e	-0.039519362
152	0x3ea04461	0.3130217
153	0xbe624bc1	-0.2209921
154	0xbe90ca16	-0.2827918
155	0xbee283ba	-0.44241124
156	0xbf698503	-0.91218585
157	0x3d0b6d77	0.03403994
158	0xbeae9fec	-0.34106386
159	0xbcfc1376	-0.030770998
160	0x3e8539ab	0.2602056
161	0x3bb1e5d4	0.005429009
162	0xbf43ad9e	-0.76436794
163	0xbe4c382f	-0.19943307
164	0xbec7e113	-0.39038906
165	0xbd888c36	-0.06667368
166	0x3cee82c0	0.02911508
167	0xbe31e6c0	-0.1737318
168	0xbf7e34c3	-0.9929926
169	0xbe699369	-0.22810139
170	0xbb7cf7e6	-0.0038599907
171	0x3de79986	0.11308579
172	0x3dc5dbd7	0.09661072
173	0x3e857f4d	0.26073685
174	0x3f033c5d	0.5126398
175	0x3d8abcf8	0.06774324
176	0xbf58eeb2	-0.8473922
177	0xbf22faa0	-0.63663673
178	0xbcda6c2b	-0.026662907
179	0x3de88e36	0.113552496
180	0xbf453b04	-0.77043176
181	0x3d23e82c	0.04001634
182	0xbe796a69	-0.24356999
183	0xbec25f40	-0.37963295
184	0x3dc4b7d5	0.09605376
185	0x3f239ad8	0.6390815
186	0xbf19ced6	-0.6008123
187	0x3e92e0d4	0.28687155
188	0xbe7b22b3	-0.24524955
189	0xbe90390d	-0.28168526
190	0xbd9688c9	-0.073503084
191	0xbbbfef46	-0.005857381
192	0x3e8f2096	0.2795455
193	0xbee5234c	-0.44753492
194	0xbf9f58d9	-1.2448989
195	0x3eefd4b0	0.46841955
196	0x3e937030	0.2879653
197	0xbd78aacf	-0.06070977
198	0x3def4759	0.1168353
199	0xbe393bc3	-0.18089204
200	0xbf96ebfb	-1.1790766
201	0x3f0611af	0.52370733
202	0x3f2360e5	0.63819724
203	0xbb558166	-0.0032578348
204	0xbfca8376	-1.5821369
205	0x3f41af87	0.7565846
206	0x3ee62252	0.4494806
207	0x3e387e46	0.1801692
208	0xbfa908c9	-1.3205806
209	0xbeb3833f	-0.3506107
210	0x3f761510	0.9612589
211	0xbf16978d	-0.58825
212	0xbf114b63	-0.56755656
213	0x3cc98271	0.024598332
214	0x3daa5321	0.08316637
215	0xbed441d9	-0.41456488
216	0x3f440adb	0.76579064
217	0xbef24c18	-0.4732368
218	0xbfd99556	-1.6998699
219	0x3e333ef3	0.17504482
220	0x3bddeb6d	0.0067724497
221	0xbf850b92	-1.0394156
222	0xbe8fb71a	-0.28069383
223	0xbe38d83f	-0.18051241
224	0xbefd36ed	-0.49455968
225	0x3eae520c	0.34046972
226	0xbf0d9746	-0.5530895
227	0xbfccceaa	-1.6000569
228	0xbdfd0ea0	-0.12356305
229	0xbf1cb3c9	-0.6121183
230	0xbeb42cdc	-0.35190475
231	0xbf3b5430	-0.73175335
232	0x3e3f3d2a	0.18675676
233	0xbd8275f2	-0.063701525
234	0xbf816977	-1.011031
235	0x3ec66df5	0.38755766
236	0xbe62232e	-0.22083732
237	0xbe0e5b50	-0.1390202
238	0xbf1cbd8c	-0.61226726
239	0xbeef7326	-0.4676754
240	0xbe872881	-0.2639809
241	0xbeb5386b	-0.35394606
242	0x3f2e0cf5	0.6798852
243	0xbf0b05a5	-0.5430549
244	0x3defd442	0.11710407
245	0x3e76142d	0.24031134
246	0x3ed535d0	0.41642618
247	0xbeea21b3	-0.45728835
248	0xbfe9b81c	-1.8259311
249	0xbf1d2e3b	-0.6139867
250	0xbe4c7f10	-0.19970345
251	0x3e7795ea	0.24178281
252	0xbf808597	-1.0040768
253	0xbe2e6bc2	-0.17033294
254	0x3e5d94dd	0.21638818
255	0x3ecbd22f	0.39808795
