matd3/model/simple_tag/agent_3/11_critic_params.pth (torch, 115263 bytes, 14 tensors)

critic1.0.weight f4 [64, 82]
00000000: 97dd bc3e 4b5c 8d3d d076 db3e 7205 4cbf
00000010: 8a75 aebe 4f72 ea3e 3d31 54be a979 8dbd
00000020: 764a 54be be5b 05be 60f8 45be ab51 963e
00000030: 0d85 293e 3562 ff3e feca 00be 9633 d1bd
00000040: 9553 44be 3c58 d5be d6d7 2b3e 842e 9bbe
00000050: 77fa 00be 937b 8c3e 6c8f fbbd c9a4 5a3e
00000060: 9ccc 103e 1acf 96bc 7f0a 413e 6ae4 1b3f
00000070: f997 853e 0c6d 8a3e e783 3e3d 29e2 2fbe
00000080: 2eae cf3d 0020 ebbe 814b f03c 0e04 4cbd
00000090: 26f3 3fbe 81e6 fbbd 6472 8ebe 1021 07be
000000a0: db53 9b3d 966b ddbe db42 94bd ca24 3cbf
000000b0: 6b75 4b3e 6ac2 55bd 93c0 d9bc eb01 07be
000000c0: dfac 003d d08a c4bd 79de f73e 096a 9ebd
000000d0: 4316 eabe 8718 eabd ae21 d5be 9399 cebd
000000e0: cd8b e9bd 2e16 2abf d082 a1bd 5905 34be
000000f0: 1611 1abe 0dc0 b43d c4ff 303e a905 423e
00000100: 96e2 1fbe 4306 3d3b 3d26 bebb a1b7 a43d
00000110: fbfb d43d 9519 0cbe 6672 96be 521c 943d
00000120: 7efa a7bd 1dfe 0e3d 02ae ddbc 6c63 a13d
00000130: 5d34 5e3d e96a af3c fb68 233e 7fbe 33bd
00000140: 79ab 8f3d 909d 5cbd 54d7 913e eebf d83d
00000150: af70 c73e be80 18bf 43d0 efbe 9abb c2bd
00000160: 13f9 a9be 65bc 863c b118 b4bb 46b5 adbe
00000170: 6758 45be b0c6 c03e 3615 35be 1be2 99bd
00000180: 7ee2 973d 9e44 adbd 0bab 433f eb5f 14bf
00000190: 8940 2b3d 5d87 26bf 0677 70be 117c f33c
000001a0: 943c a4be 8c1b bf3d 0666 b43c b0e2 cf3d
000001b0: fdfa 82be e550 313d 5f23 a43d 79cd 913d
000001c0: 457f 2cbe 26ab 73bd 468f 0c3f 33f3 a33d
000001d0: cb62 d83d 4b21 ebbe c99e 45bd b26f 35be
000001e0: 50f8 8b3d fd28 efbc fbf4 813e 4c93 b7be
000001f0: 9554 0d3e 9d73 55be 3e05 803e 1bb2 03bf
00000200: bccd 043e 3ca5 0dbe 41a7 a03d 069b f03d
00000210: b6e4 b13d c30b 89bf c8b2 22be 7995 8d3e
00000220: 765c 77be 6b0a bcbc e7ce 363e b19e 5b3d
00000230: 7f6a 183e ab0b 9ebe 7b87 fbbd aeea e23e
00000240: d8a4 a73d df85 fe3d 01e9 363d fe9d 7dbe
00000250: 7469 4f3d c289 0dbd 8c68 d93d dfae 8ebe
00000260: 9930 12be 079b 353e 20cd 5abc cdc6 503e
00000270: 76ca 1fbc eead 1bbe a66e 17bd 6069 84be
00000280: 237d 79bc 2293 20be 8eab 06be 7f58 dc3d
00000290: 9dc3 b43c 98f2 033f 3677 31be df55 17bd
000002a0: 1c59 e03d 646f 193e 8e0d 26bd de54 0abe
000002b0: 2c72 27be c669 873d 3880 4a3e 0b06 f6bd
000002c0: bfbb d0bd d8a7 23be 8c34 cdbc 7c20 903e
000002d0: 659e 0c3e 8243 a43e a435 11be b8e1 89bc
000002e0: 9a86 243e 5040 433d 6b05 68bd 9175 1a3c
000002f0: 05b4 4eb9 7aca 27be 1da9 e6bc 76de 8b3d
00000300: 163c eb3c 4911 92be 6792 0a3d 924b 9bbc
00000310: c9a8 7dbd 5601 0f3f 1bc5 01be c28b 36be
00000320: fb46 cfbd 1324 70bd b95d 42bd 2c6e 76bd
00000330: a132 08bd f96e dcbb 9783 da3d ebd7 f53c
00000340: 70de 593e 71e8 c4bc e17e 103e dbcb 6a3e
00000350: e944 953d 6362 9e3e 12bf a8be 61f6 68be
00000360: 9fa6 88bd 7a0d 2f3f df06 30bd 3dbd 2f3e
00000370: 35da dcbc 87cc 8f3e 2232 68be 2415 5d3d
00000380: d69e 9c3d 02a3 b93d c329 92be 3c98 8b3d
00000390: 4886 3e3d 4528 8b3b d332 cdbe ba11 d33d
000003a0: e863 913e 3d46 123e be1b 3e3e 7984 9f3e
000003b0: 8935 3e3e 0d03 993e 2c88 1cbe 046b 423e
000003c0: 237e 8dbe 1993 d0be eb2c b3be 5881 70bd
000003d0: c6fd 093e a9ca 55be 0d6a 3e3d 2fba dd3e
000003e0: d51d a0bd 517a af3e 2f14 9a3d d656 5cbe
000003f0: 50be 5d3e 1f2d 78bd b370 bd3e c63a c9bd
0.3688781 0.06902369 0.42864084 -0.7969581 -0.3407405 0.45790336 -0.20721908 -0.069079705
-0.2073153 -0.13023278 -0.19333029 0.29359183 0.16554661 0.49879614 -0.12577435 -0.10214917
-0.19172509 -0.4166888 0.16781554 -0.30308926 -0.12595545 0.2743803 -0.12283215 0.21351923
0.14140552 -0.0184093 0.1885166 0.6089541 0.26092508 0.2703632 0.04651251 -0.17176117
0.10140644 -0.45922852 0.029332878 -0.049808554 -0.18745098 -0.122998245 -0.27821648 -0.13196206
0.075843535 -0.43246144 -0.07239314 -0.73493636 0.1986901 -0.05218736 -0.026581084 -0.13184325
0.031414863 -0.09596789 0.4841192 -0.07735068 -0.4572011 -0.114304595 -0.41627258 -0.10087886
-0.11403618 -0.66440094 -0.07886279 -0.17580165 -0.1504558 0.08825693 0.17285067 0.18947472
-0.1561378 0.0028842844 -0.005802898 0.08042837 0.10399624 -0.13681634 -0.29384154 0.07231964
-0.082020745 0.03491031 -0.027060512 0.07880291 0.054249156 0.021413283 0.15958016 -0.043882843
0.07015128 -0.0538612 0.28484595 0.10583483 0.38953158 -0.59571445 -0.4683858 -0.095084384
-0.3319784 0.016447255 -0.0054961075 -0.33927363 -0.19272004 0.37651587 -0.17683873 -0.07513829
0.07416247 -0.08460353 0.76432866 -0.5795886 0.041809592 -0.650503 -0.23482904 0.029722245
-0.32077467 0.09331426 0.022021305 0.10150659 -0.25582114 0.043290038 0.08014559 0.07119269
-0.16845424 -0.05948939 0.5490612 0.08005371 0.10565718 -0.45923838 -0.048247132 -0.1771839
0.06834471 -0.02919435 0.25382218 -0.35854566 0.13801797 -0.20844884 0.25004 -0.5144364
0.12969106 -0.13832563 0.07844401 0.117483184 0.08686201 -1.0706714 -0.15888512 0.276531
-0.24156365 -0.022954186 0.17852364 0.053618137 0.14884375 -0.30868277 -0.122817 0.4431967
0.08185738 0.12427878 0.044655804 -0.247673 0.050637677 -0.034555204 0.10615644 -0.2786779
-0.14276351 0.1773492 -0.01335457 0.20388336 -0.00975286 -0.15203068 -0.036970757 -0.25861645
-0.015227589 -0.15681127 -0.1315138 0.10759067 0.022065932 0.51542044 -0.17330632 -0.036947127
0.10954496 0.14983898 -0.04054027 -0.13508937 -0.16352147 0.066119716 0.19775474 -0.12012871
-0.1019206 -0.15981996 -0.02504947 0.28149784 0.13732298 0.32082754 -0.14180619 -0.016831264
0.16066971 0.047668755 -0.056645792 0.009427444 -0.00019712753 -0.16385832 -0.028156811 0.068295404
0.028715175 -0.28528813 0.033831026 -0.018956933 -0.061928544 0.55861413 -0.12672846 -0.17826751
-0.1012096 -0.058628153 -0.047452662 -0.06016366 -0.03325141 -0.006727096 0.1066963 0.030010184
0.2127626 -0.024036618 0.141109 0.22929327 0.07288534 0.30934438 -0.32958275 -0.22750236
-0.066724055 0.6837994 -0.042975303 0.17162032 -0.026959518 0.2808573 -0.22675374 0.05397524
0.07647483 0.090642944 -0.28547487 0.06816146 0.04651478 0.004246744 -0.40077838 0.103061154
0.28396535 0.14284606 0.1856527 0.31155756 0.1857511 0.2988514 -0.1528632 0.18986136
-0.27635297 -0.40737227 -0.34995207 -0.0587171 0.13475713 -0.2087809 0.046487857 0.4330611
-0.0781819 0.34273008 0.07523381 -0.215175 0.2165463 -0.060589906 0.37000045 -0.09825663

critic1.0.bias f4 [64]
00000000: 6401 5a3c 6124 17be 0032 dcbe d35e 7e3e
00000010: 4066 7cbe 862a 3cbd ce85 afbe 252a 8e3d
00000020: d3c3 91be b049 c83e 4bdd fe3e 1ce4 7abe
00000030: fd82 483e d42c 2a3e 9e56 8cbe 0905 f3bd
00000040: d4c7 b8be d8a8 773e 8dee 493e e1ae 643e
00000050: 1116 233e 44f8 4b3e 0925 d4bd 1515 9f3d
00000060: cd2b e0be 367d 313e 5209 52bd cd6c c5be
00000070: 68ea 11bf 1f67 30bf a668 95be 2d24 463d
00000080: e2f6 143f 9f50 7bbd 9a64 f73d 45c5 6c3e
00000090: 5e1a 45be 435b 97bd 6304 4fbe 0224 f73e
000000a0: b1c5 d2be f68b 0cbf 248f 27be 93b2 a9bc
000000b0: b668 283d 9cb3 97bc bd37 ae3e 0efb 21be
000000c0: fd8b b33e 96da 16be 5ac6 b9bc 584a 033f
000000d0: cf23 023c 9dfd 10be 3ddd a83e f27b 45bd
000000e0: b7c7 f0be 3339 c5be 1a69 f9bd 1d65 803d
000000f0: 900e 7e3f 947d 34bd ac5b 583c 81a5 42bd
0.013305996 -0.14759971 -0.43006897 0.2484086 -0.2464838 -0.04593899 -0.34281772 0.06941632
-0.28469715 0.3911872 0.49778208 -0.2450108 0.19581218 0.16618663 -0.27409834 -0.11866195
-0.36089957 0.24185503 0.19719906 0.22332336 0.15926386 0.19918925 -0.103586264 0.07767693
-0.43783417 0.1733292 -0.05127842 -0.3855957 -0.569983 -0.6890735 -0.29181403 0.048374344
0.58189213 -0.061356183 0.12079735 0.23122127 -0.1924834 -0.07390454 -0.20216517 0.4826966
-0.41166452 -0.54901063 -0.16363198 -0.020715034 0.041115485 -0.018518262 0.340269 -0.15818426
0.3506774 -0.14731821 -0.02267759 0.51285315 0.007943108 -0.14159246 0.3298129 -0.048213907
-0.4702737 -0.38520202 -0.1217825 0.06269286 0.9924097 -0.044065073 0.01320545 -0.047521118

critic1.2.weight f4 [64, 64]
00000000: e08d b9bd 0beb 183e 6379 fbbc d8aa 8a3e
00000010: 6931 7c3e e57e 2e3e 74f2 d7be afaa 92bb
00000020: 7f56 b5bd 9e67 2f3d 4a35 0c3f 4104 30bd
00000030: 1aa8 72bd 5923 a9bc d53c 6dbe a571 70be
00000040: 190a a7be 8063 39be a4b3 1a3a 1408 353d
00000050: fd91 07be 01bc 883e 0808 403e 9f62 47bd
00000060: 6708 43bd 4e02 283e f7a2 c43d 313c 33be
00000070: b903 8c3e 310b 83be 71f0 11be 06a5 84be
00000080: c9dd c8bd f85f 5c3e e461 6b3d 8143 19be
00000090: 236b a3bd 1905 d83d 81d5 613e 3414 cf3e
000000a0: 7ece b63e aa27 10be 3e0b 0f3f af3f bc3d
000000b0: deab b7bd 3053 5d3e 6456 2c3e 4ea6 28be
000000c0: d427 34be a2a3 823e bb6a 8fbd 5164 04be
000000d0: afde ef3e 9f62 0fbd ddf5 993e e381 153e
000000e0: 9bb4 183d f8fa b7bd 8eb7 07bd 9d3b f63d
000000f0: b8f3 c1bd 4a83 4b3d d2a7 28be db73 b43d
00000100: 583c 0dbf 4f0e ca3e 655c bbbe ac64 263c
00000110: af68 36be 7f99 8c3d c71a 4bbe 9d46 ffbe
00000120: dfb9 433e 9c35 473d 9a15 003f 5781 213e
00000130: 7518 923e b93a e63e 7ff6 55be 21e0 753d
00000140: 5b65 b73d 7019 0b3e e338 0bbc 084e 223e
00000150: 5810 d3bd cb37 09bd 38cf 283e ff02 b43d
00000160: 75cb 563e d4a5 f3be da3c bd3e 24be ea39
00000170: c8f0 fcbe 85bf 93be e091 333d 3366 2dbe
00000180: ffe0 66bc f47b c03d c7c6 83be bca9 0fbe
00000190: 2358 773c 2087 243e 7749 8abc d4a0 aebc
000001a0: 74a8 06be af4a c7be 510a 90bd 73ac 693d
000001b0: 0ee2 24be 7f8c 0bbf 9eeb 563e 20c9 42bf
000001c0: 8027 0b3e 5b56 1fbf d6ca de3d 3821 f53e
000001d0: 61c8 2abf 9c4f 113d baec 8ebe e86b 81be
000001e0: f525 203d 6d42 563b 6a0d e3bd 934d 7c3c
000001f0: 35d9 3bbd b8a4 64be 5ba5 ec3d 2b32 aa3e
00000200: 68fa f63b b166 b43d aaf6 143e c69c d1bd
00000210: 7344 c3bd 6c8b dabd 1c61 973e b281 7f3e
00000220: ec43 183d 94b9 9a3e bbf3 c13c eb60 e43e
00000230: 1bee 173e c987 34be a64d e3bd 3293 563e
00000240: e009 9f3c 7d23 d93d 988f c3bd c277 5bbc
00000250: 1ba9 283e d0ea 6cbf 6c92 1f3c 58d0 4e3c
00000260: e929 96be d4e6 06be ab0e 23bd 9758 49be
00000270: b87f 493e bf86 a1bc b726 8fbe dd05 07bf
00000280: e79e 863d e793 c3bc f7e4 993e 1242 a43c
00000290: 5920 82be e7c6 343e 352b 103e 54db 1c3f
000002a0: d5f2 183e 0fa1 063e 575e 883e a1fb dfbc
000002b0: 5970 b03d 1270 81be d499 1cbe 61a6 8ebe
000002c0: 46c8 4b3e 5080 0ebd 7507 ac3c 7d40 943d
000002d0: 889c 753d 45a5 853d a8e8 d23d a974 423d
000002e0: 2e8d b73e 2de9 4a3e 299b cc3c ff33 913d
000002f0: 4630 a53d 276c 96be bfc1 073e 2598 033e
00000300: 2de4 fa3e 8dbf b23e dead 11bd ab0a 4dbf
00000310: bd28 fa3d cf3c 193e 535c 053e e271 4e3e
00000320: d332 5cbe c9e3 3cbe 49c4 83be 4fd4 713e
00000330: b00d b13e ae89 b8bd 8e52 1a3e 84f0 ba3e
00000340: 6365 193e 2d31 b9be 81e5 953c e784 f03c
00000350: 1bdd 2fbe 9617 fabe 0b66 56bd e197 97be
00000360: 5b48 24bd 489a 1abd f3b6 073d 5101 d33d
00000370: 1a9e 00be e5b2 d8be c759 783e d504 1abe
00000380: 452f 40be d3fc 443e 5d1a 903e e967 5e3e
00000390: 8ec9 9cbd 7beb e6bd 9509 e8bd 0723 653e
000003a0: ddb0 06bd fa7a 373e 08eb cebe fd8b 4e3e
000003b0: 0fe0 16be 49e5 31be 62fd 7fbf 94be 533e
000003c0: 59bd 883d 18af 9cbe b422 aabe d99b cc3d
000003d0: 70c6 6abf 4419 a63d 70a5 343d 4df9 743d
000003e0: d989 11bf c3b9 74be cc24 86bd cef7 bbbe
000003f0: c334 d83d 4c8c 99bc 0405 5a3d 738d 893e
-0.09060264 0.14933412 -0.03069753 0.27083468 0.24628223 0.17040594 -0.42177165 -0.0044759135
-0.088543884 0.042823426 0.5476881 -0.042972807 -0.059242345 -0.020646738 -0.23167737 -0.23480852
-0.3262489 -0.18104362 0.00059014023 0.044197157 -0.13239284 0.26705936 0.18753064 -0.048678037
-0.047615435 0.16407129 0.096013956 -0.1750343 0.2734659 -0.25594476 -0.14251877 -0.25907153
-0.09807927 0.21520984 0.057466403 -0.14967157 -0.07979419 0.10547847 0.22054102 0.404451
0.35704416 -0.1407763 0.5587653 0.09191834 -0.08968328 0.21613765 0.1682983 -0.1646969
-0.17593318 0.25515467 -0.07002779 -0.12928893 0.46849582 -0.03500616 0.3007039 0.14600329
0.037281614 -0.08983415 -0.033134036 0.12023089 -0.09470314 0.049685754 -0.16470268 0.0881116
-0.551702 0.39464042 -0.3659393 0.010155838 -0.17813371 0.068652146 -0.19834433 -0.4985856
0.19113873 0.04863511 0.5003296 0.15771995 0.28534284 0.44966677 -0.20894812 0.0600282
0.08954879 0.13583922 -0.00849745 0.15850079 -0.10305852 -0.033500474 0.16485298 0.08789634
0.2097605 -0.47587454 0.3696049 0.00044773624 -0.49402452 -0.28857055 0.04384029 -0.16933517
-0.014091729 0.09398642 -0.25737593 -0.14029592 0.015096697 0.16067171 -0.016880734 -0.021316923
-0.13150197 -0.38924167 -0.07033218 0.057049226 -0.16101858 -0.54511255 0.20988318 -0.7608814
0.13589287 -0.62241143 0.10878532 0.47876906 -0.66712004 0.035476312 -0.27914983 -0.25277638
0.0390987 0.0032693401 -0.11086543 0.0153993545 -0.04586144 -0.2232846 0.115549766 0.332414
0.007537175 0.08808649 0.1454722 -0.1023498 -0.0953454 -0.10671124 0.29566276 0.24951819
0.03717415 0.3021971 0.02367579 0.44605193 0.14836924 -0.17629923 -0.11098795 0.20954588
0.019413888 0.10602472 -0.09548873 -0.013395252 0.16470759 -0.92545795 0.0097395 0.012622915
-0.2932885 -0.13173991 -0.03980891 -0.196627 0.19677627 -0.019717572 -0.27959225 -0.5274332
0.06573277 -0.023874236 0.300575 0.020051036 -0.25415304 0.17654 0.14078982 0.6127217
0.14936383 0.13147376 0.26634476 -0.027341666 0.086151786 -0.25280815 -0.15293056 -0.27861312
0.19900617 -0.034790337 0.02099965 0.07238863 0.059963733 0.06525663 0.10298282 0.047474537
0.358499 0.19815512 0.02497633 0.070899956 0.08065848 -0.2937939 0.13257502 0.12851007
0.4900221 0.34911767 -0.035566203 -0.80094403 0.122148015 0.14964603 0.130235 0.2016063
-0.21503763 -0.18446268 -0.2573569 0.23616146 0.34580755 -0.09010635 0.15070555 0.36511624
0.14980082 -0.3617033 0.018297913 0.029360248 -0.17174189 -0.4884612 -0.05234341 -0.29608062
-0.040108066 -0.03774479 0.03313346 0.103029855 -0.12560311 -0.42323986 0.24252997 -0.15040906
-0.18768032 0.1923707 0.28145114 0.21719326 -0.07655631 -0.11275383 -0.113299526 0.22376643
-0.032883514 0.17918006 -0.4041369 0.20170589 -0.14733909 -0.17372622 -0.99996006 0.20678169
0.0667674 -0.30602336 -0.332296 0.09990663 -0.9170904 0.08110288 0.044103086 0.059808064
-0.56850964 -0.23898987 -0.06549987 -0.36712497 0.105569385 -0.018743657 0.05322744 0.2686573

critic1.2.bias f4 [64]
00000000: 30a8 4fbe 9447 a43c 6327 a4be 7dc8 ae3d
00000010: 4b5a 1b3d ff9a 85bd 6bce a03e 85bf b9be
00000020: db68 023f 63cf f93e 64a9 bcbe 49a3 153e
00000030: de06 1b3d c010 043e 7cb0 533f af3d 31be
00000040: 0d61 4bbd 7a19 b93d 9092 3e3e 3afd c2bd
00000050: 745c 1abe 9133 5d3e 126f 80be 1c11 abbe
00000060: 93c2 02bb 323c 84bd 58ea adbe 88e8 f5be
00000070: 51cb 363f 73ff 59bd 0f14 b73d 02e3 cabe
00000080: 2159 2fbe 3a26 ffbd 5912 203f 0a19 02bc
00000090: 8d85 323e eb54 043e 6064 ac3d cc94 353d
000000a0: 8298 143e a06e 163c 2d7f e53d 1917 523f
000000b0: 4b4f 7fbe 13c2 d23e a4df f9bc 4c61 3bbf
000000c0: ce08 4cbb ac2e a2be 297f 58be cfe7 e13e
000000d0: 610b 443e d388 10bd 30c0 10bd fb3c eabd
000000e0: e650 09be e963 2dbe a196 383e 071a 5d3e
000000f0: 9c6d 35bd b79f 043f d5b7 c1bd 400a 18bf
-0.20279002 0.020053662 -0.320613 0.08534334 0.037927907 -0.06523704 0.31407484 -0.3627893
0.50941247 0.48791036 -0.36847985 0.1461307 0.037848346 0.12897015 0.8269117 -0.17308687
-0.0496531 0.090380624 0.18610597 -0.095209554 -0.1507433 0.21601702 -0.2508474 -0.3341149
-0.00199524 -0.06456794 -0.33967853 -0.4802897 0.71403986 -0.05322213 0.08939373 -0.39626318
-0.17123844 -0.12458463 0.62527996 -0.00794054 0.17433758 0.12923019 0.084175825 0.044331357
0.14511302 0.0091816485 0.112058975 0.82066494 -0.24932592 0.41163692 -0.030502148 -0.7319534
-0.0031133178 -0.31676233 -0.21142258 0.44122168 0.19144966 -0.035286736 -0.035339534 -0.11437412
-0.13409767 -0.16932644 0.1802621 0.2159196 -0.044293985 0.51806206 -0.09458891 -0.5939064

critic1.4.weight f4 [64, 64]
00000000: f7b3 01be a3f2 8f3d e8ff ea3d 5241 a03d
00000010: ef8e a3be c159 e53d 4db2 9ebe c2c5 c33d
00000020: bc71 1bbe f256 473e 5ccf c13e dd55 e63c
00000030: d4f0 6e3e 4ef8 8e3e aeb2 eb3d 1b32 abbd
00000040: 823d 543e 4040 8f3e 00bb e2bd d3fb 4c3e
00000050: 2970 aa3e 9e5d 9e3e cda2 243d 9648 003e
00000060: aa8d 953d dbce 713e c61f 193e ac81 113e
00000070: 84e8 aebe e47f 26bd f428 153e f7c0 9fbd
00000080: 24da 5d3e a607 1b3e bb42 23bf 86f1 223e
00000090: 3b77 03bf 1e63 32be 5c85 e93d 86dd 1dbe
000000a0: 5220 0f3e a81b 903e 925c 1c3d ca52 82be
000000b0: 0ee9 a43d dc14 edbe 5e0b d73e 4791 013e
000000c0: 1b5f 833d 467d 91be 8a46 9a3e 64c8 a5be
000000d0: c0de 0dbe b658 983e 29b8 a5bd 9ed1 243e
000000e0: 97e2 aabd a1ac 9b3d 0418 973e 4e4b 863e
000000f0: 9006 213e 8d42 a0be c236 953e a93b dd3e
00000100: 2d99 44bf 499a 0bbf b11b e1bd 99b1 be3e
00000110: fb86 c8bf d3c5 8d3c afbd c3be 3673 373e
00000120: 6718 fcbe 78e4 e03c 15ad 403e 2303 dcbd
00000130: 6d09 153e b83f ca3f 5829 45bf 97df 273e
00000140: 8fde 17ba 660b 083e 37d2 96bf e683 c03d
00000150: 8f19 363e 6d6f 773e 405e bb3d d88a aebe
00000160: 860e 243d b07d 32be 45ca 5dbf ecd3 a8bc
00000170: fbb3 0abf d0dc 263d ab93 573e 0a27 333e
00000180: 3e07 0cbd fee4 0c3e 1476 c4bf 3a47 313e
00000190: ea4f 09bf a307 95bf b3d2 4e3e fa5d f1bd
000001a0: 8398 02bf 4818 26be 8536 a5bc 5f1c 18bf
000001b0: 4765 1c3c 7946 81bf bb7e 423f 837a e0bd
000001c0: 06de 89bd 77f1 29be e0a3 443d 739c 16be
000001d0: 00bf 65bf d5e9 dd3e fe08 ca3e 0d84 c83d
000001e0: 9b14 9dbf a589 4dbd 00b4 9a3f 79aa a03f
000001f0: 7edd 3dbd 900f dabd 7d1b 803e a179 aebe
00000200: e91e 043e 8070 00bf f47d debc a12f 0fbf
00000210: b5d7 823e a2e3 c5bd aef3 353e 3b3c a4bc
00000220: d1b5 31bd 40d0 27bb 421c d2be 70c8 863e
00000230: b981 073f 7b71 3b3f acd8 903d 23b1 f33d
00000240: 676d 57bf 40e3 b33d 23f6 133e c9bb b1be
00000250: 3a4b c3be e2da f43e 9e50 f8bd 037d fd3d
00000260: 6481 16bf 1c9c 37be 1cbf b93c 1358 3ebf
00000270: 2bf4 8ebd b67b ae3b 37c6 f63b 349e c9be
00000280: 5b96 6dbc b56c e6bc f15f 0b3f cc11 34bf
00000290: 2a81 32bf ab08 eb3d ddf1 143f 12d8 99bc
000002a0: 8851 8bbe 7493 20bf 4c6a 65be 00e1 513e
000002b0: 8284 aa3d 97dc d2bb 50d2 d33e df5b 44be
000002c0: c16d 94bd 5dfa 8fbc a867 5b3e 76a7 cfbe
000002d0: f68a 1cbe 9d77 823d dcc9 a2bc 91b4 5abe
000002e0: bb3b f13e d9e6 573e 7b58 0ebf f957 cfbc
000002f0: 87b8 bb3e 8da8 993e 4d19 fd3d 9a95 363e
00000300: 5bda 933d 6d26 12bf be02 dabd 3314 113f
00000310: d133 18bf 3736 243e eb20 07bf 2937 053e
00000320: 7c04 17bf 4e44 46be 86c2 84bc a97a 30bd
00000330: 907d 423c 203e 253f 123c e1be 06af a83e
00000340: fdab cbbd 0b6a 17be de0d f9be 4992 d43c
00000350: 9a6e 5d3d 6d21 053f 1576 12be b326 b9be
00000360: c391 07be 2139 333e 8ac9 123e 8bcb e63d
00000370: cc14 09bc fb34 02be 7148 3a3d e49f 0b3e
00000380: 4b15 27bd d608 aebe db89 70bf 6be9 5f3d
00000390: 5621 ebbe 3469 8abe 8d43 503e b059 24bf
000003a0: 0af7 d3be 3c72 393e da8b a8be c337 0fbf
000003b0: 02ea d2bc 7be5 13bf 1a93 843e 2145 27be
000003c0: 5305 703e 3d3d e3bd 29e8 393e 3b8d e2be
000003d0: c363 e1be 9e22 843e 7a72 8b3e b1ce 673e
000003e0: c14c c3be 139a 863e bc36 263f f1a6 393f
000003f0: 1b09 113d fbc2 a0be d150 a23e e1cf aebe
-0.12666307 0.07028701 0.114745915 0.07824959 -0.31944987 0.1119876 -0.30995408 0.09559204
-0.15180105 0.19466761 0.37853515 0.028117115 0.23334056 0.27923816 0.1150869 -0.08359166
0.20726588 0.27978706 -0.11070824 0.20017938 0.33288696 0.309308 0.04019432 0.1252769
0.07302411 0.23614065 0.14953527 0.14209622 -0.3416177 -0.04064931 0.14566404 -0.07800477
0.21665245 0.15139636 -0.637737 0.15912446 -0.51353806 -0.17420623 0.114023894 -0.15416536
0.13977173 0.281461 0.03817422 -0.25453788 0.08052264 -0.46304977 0.4200086 0.12653075
0.06414624 -0.2841589 0.30131942 -0.32379448 -0.13854504 0.2975518 -0.080917664 0.16095588
-0.08344 0.07601286 0.2951051 0.26229328 0.1572516 -0.31300774 0.2914334 0.4320958
-0.7679623 -0.54532295 -0.1099161 0.3724487 -1.5666193 0.017306244 -0.38230655 0.17915043
-0.49237368 0.027452692 0.18816026 -0.10742786 0.14554377 1.5800695 -0.7701621 0.16393887
-0.00057933567 0.13285598 -1.1782902 0.09400158 0.17783187 0.241636 0.09148836 -0.34090304
0.040052913 -0.17430758 -0.86636764 -0.020608865 -0.5418088 0.040737927 0.21052425 0.17495361
-0.034186594 0.13759229 -1.5348535 0.17312327 -0.53637564 -1.1642956 0.20197563 -0.11785503
-0.51013964 -0.162202 -0.020167599 -0.5941829 0.009545631 -1.0099632 0.75974625 -0.10960867
-0.06731801 -0.16596018 0.048007846 -0.14708118 -0.8974457 0.43342462 0.39459985 0.09790812
-1.2271913 -0.050180096 1.2086182 1.2552024 -0.04635381 -0.106474996 0.25020972 -0.3407717
0.12902416 -0.5017166 -0.027159669 -0.5593205 0.25555196 -0.09662558 0.17768738 -0.020048251
-0.043386284 -0.0025606304 -0.41037184 0.26324797 0.52932316 0.7322003 0.07072577 0.118990205
-0.8415131 0.08783579 0.14449362 -0.3471358 -0.3814333 0.47823244 -0.121247515 0.1237736
-0.58791184 -0.17930645 0.022674136 -0.7435314 -0.06980165 0.005324806 0.0075309533 -0.39378512
-0.01450118 -0.028128007 0.5444327 -0.70339656 -0.6972834 0.11476263 0.58181554 -0.018779788
-0.2721064 -0.62724996 -0.2240383 0.20495987 0.08326055 -0.0064349878 0.41371393 -0.19175671
-0.072474964 -0.017575437 0.2142626 -0.4055745 -0.15287384 0.06370471 -0.019871645 -0.21357943
0.47115883 0.21084155 -0.5560376 -0.025310503 0.3666422 0.30011407 0.12358341 0.17830506
0.072193824 -0.57089883 -0.10645054 0.56671447 -0.59454066 0.16036306 -0.52784604 0.13009323
-0.5899122 -0.19361994 -0.016206037 -0.043085728 0.011870757 0.6454792 -0.43991143 0.32946032
-0.099449135 -0.14786546 -0.48643392 0.02594866 0.054060556 0.5200413 -0.14302857 -0.36162338
-0.13239197 0.17502262 0.14334694 0.112692915 -0.008366775 -0.12715523 0.04547924 0.13635212
-0.04079179 -0.33991116 -0.9396035 0.054665964 -0.4592387 -0.2703339 0.20338269 -0.6419935
-0.41399413 0.18109983 -0.32919198 -0.5594446 -0.02574635 -0.57772034 0.2589348 -0.16334964
0.23439531 -0.11095665 0.18154968 -0.44248375 -0.44021425 0.2580766 0.27235776 0.2263744
-0.38144496 0.26289424 0.6492727 0.7252036 0.035409074 -0.31398758 0.31702283 -0.34142974

critic1.4.bias f4 [64]
00000000: 7c93 36be f08a d03e 0c32 b83e 319e 10bd
00000010: 53e4 2e3e 8bfd b5be 99d5 103e 0343 f03e
00000020: 9305 c93d 983a 5a3e 841e 8f3e 37dd 31bd
00000030: c894 413d 1d0e aabc 0b1c 963e cf27 01be
00000040: 8fd2 ebbc 9604 24bd 6e33 ffbd d27a 043f
00000050: 9a03 ee3e 4b5d 393c bc9b 83bc a641 a23d
00000060: 692c 073f df53 b9bd 5b4d 673e b4dc 9ebe
00000070: 1169 113f 74f6 1bbc 5bc2 71be 344b 193f
00000080: 1aa8 323e bd06 1fbe f97e 55bd 756f 6cbe
00000090: 589e 823e 2a07 6d3e a665 753e 657a ae3c
000000a0: 7f7d c1bc a0ed 04be c258 3dbe dd50 903e
000000b0: 2f45 fd3e c0f3 983e 3fd5 793e 0a0e 083e
000000c0: 10e0 853e 391e 693d 77cd c8be 8cf5 bfbe
000000d0: 2a3d 38bc 8b61 de3e 8ff5 e83e 3899 05be
000000e0: 6008 aa3d aca6 943e 8181 ecbd 340a cd3c
000000f0: ab76 93bd fb56 febd 4e37 01be 63e9 adbd
-0.17829698 0.40731 0.35975683 -0.035307113 0.17079286 -0.35545 0.14143981 0.46926126
0.09815516 0.21311414 0.2795297 -0.043423858 0.04726103 -0.020758683 0.2931827 -0.12612842
-0.028786926 -0.040043436 -0.12460981 0.5174991 0.46487123 0.011313747 -0.01606547 0.07922678
0.5280214 -0.090492 0.22588103 -0.31027758 0.56800944 -0.009519208 -0.23609297 0.59880376
0.17446938 -0.15529914 -0.052123044 -0.23089392 0.25511432 0.23147264 0.23964557 0.021298597
-0.023619412 -0.12981272 -0.1849089 0.28186694 0.49466845 0.29873466 0.24397753 0.13286605
0.2614751 0.05691359 -0.39219257 -0.37492025 -0.011245051 0.43433794 0.45499846 -0.1304673
0.08302379 0.2903341 -0.115481384 0.02502928 -0.072003685 -0.12418934 -0.12618753 -0.084917806

critic1.6.weight f4 [1, 64]
00000000: d524 8cbe 216d 52bf 167e 313f 0907 00bf
00000010: ba03 3dbf 7647 abbe 9e63 40bf c144 cc3e
00000020: e677 133e a3d8 053e 833f 0e3f 414d 223e
00000030: c233 f5be 3af1 8abc 1748 ac3e aba2 7bbe
00000040: 788f 693d 6240 85bc 5c10 8ebe 6e02 9a3e
00000050: 412b f23e b125 82be 1832 b6be 5bb8 15bf
00000060: 5993 be3e 44de c6be 33f9 873f eb34 60be
00000070: 9924 d33e ba11 8abf 3377 d8be a82a 5a3f
00000080: f183 793f cbf7 87be ab72 f1be efc7 57be
00000090: 35bd 313e 8623 503e 7f10 863f 0d33 36be
000000a0: e821 633b a853 a0be 1627 8bbe 75a6 8d3d
000000b0: 01b5 883f 734d 463e a0b8 773e 471c 62bf
000000c0: 0036 723d ca9e 443f f02e efbd f504 f2bd
000000d0: 3a7c 5bbd 3b07 94bf 6901 b3be c7f8 d5bd
000000e0: 3d0b 0bbf 618c 33bf ef86 efbe 0c23 c7be
000000f0: a1ce f33c b62e 02be c048 4bbe 2ce2 083f
-0.2737185 -0.8219777 0.69333017 -0.50010735 -0.7383381 -0.33452958 -0.75152004 0.39896205
0.14401206 0.13070922 0.5556566 0.15849783 -0.4789105 -0.016960729 0.3364875 -0.24573772
0.057021588 -0.016266052 -0.27746856 0.3007998 0.47298625 -0.2541938 -0.35585093 -0.5848443
0.37221792 -0.3884145 1.0622925 -0.21895187 0.4123886 -1.078666 -0.42278442 0.8522134
0.9746695 -0.2655624 -0.47157797 -0.21072362 0.17357333 0.20326051 1.0473784 -0.17792912
0.003465766 -0.31313825 -0.27178258 0.06916515 1.0680238 0.19365482 0.24191523 -0.883244
0.05913353 0.7680479 -0.116788745 -0.11817352 -0.05358527 -1.1564707 -0.34962013 -0.10447841
-0.54314023 -0.70136076 -0.46782634 -0.38893926 0.029761614 -0.12713131 -0.1985197 0.5347011

critic2.0.weight f4 [64, 82]
00000000: a181 7bbe 87f1 0c3f b370 e93d 2368 eabd
00000010: c866 713c 1ea8 8cbd 145d b93e 7cd4 a7be
00000020: 4fdb 20bd 22e1 033e a5c5 243e 1b7b 823e
00000030: 7275 2cbd 19da 05be 801d ca3d 4d26 53bd
00000040: 41ee d93e 104a 483f b0ab bdbd 9055 a73e
00000050: 5706 e63d 0be1 833c d82d cb3e 0b31 753d
00000060: ea73 9a3c 8465 e9bc 4be9 b6bd 12b3 95bd
00000070: 4d9c cc3d ad69 66be ea1c 2c3d d6ca cbbd
00000080: afec e9be 1a73 4b3e 8768 fd3d 4c10 1c3e
00000090: 507a dcbe 3ecc 96be 372e 0d3e c190 b6be
000000a0: 4e70 24be af8e 023c dde4 90bc 6dbf 683d
000000b0: 1d22 1e3d cbcb babd 8469 8fbd e597 68bd
000000c0: 7233 ad3e 952b 903d 87c8 2c3e dbc1 67be
000000d0: 0270 283d f0d8 85be b95a c23e 2ac8 96be
000000e0: 9501 cb3d 27fc 26bd c3e6 cb3d 9d40 333e
000000f0: 7b49 4fbd 42d9 713c cdc6 893d 0391 50bd
00000100: 1e8b 7b3d fd6a 273d 4e32 963d c964 9f3d
00000110: ea45 3c3e 6bad 78be 272a 083e 7cc1 b1bd
00000120: 8eaf 823d a288 bbbd 6792 443c 360a cd3b
00000130: bc1b 52be a0b8 6ebe 93d9 943e 474b 8a3c
00000140: 2857 a13d 74e2 27bd 06cc 6f3e c830 843e
00000150: 5feb b9be 76d5 35be d3dc 10bb 6198 4f3e
00000160: 8787 2e3e 4c66 dd3d cf83 9fbc 0753 bebe
00000170: c8bb 393d 6c57 1cbc bdb8 7d3d 3298 003d
00000180: 8dfc c13d c546 dd3d 410f 8cbe 2ae0 3bbe
00000190: 5fa0 25be 4aba 8abd e89f be3b 4879 523d
000001a0: 5f2f 813e 5e2a 913d a207 e23d b21d aa3e
000001b0: a18b 0b3e dff9 363e 3e85 a93d 4828 4e3e
000001c0: 3c8f 183e 4c06 553e c1a1 f73e 3084 c53e
000001d0: bd86 e5bd 6773 eabc 72dd 64be 157f d03d
000001e0: 3dd2 a53d 65a1 2c3e 3a8a 0fbe c62f 0cbe
000001f0: 775c 9fbe 6a45 2dbd 5259 b63c 17d6 7cbc
00000200: 110a 723e dd35 f43d 53c0 d1bd 007f 343d
00000210: a22d 803a be5e c3bd b507 34be 3578 cbbd
00000220: 0d1c 6bbd 0624 f6bd 9aa8 5cbe 6eae 0bbe
00000230: b86d 27be 196a 40be d7a0 97bd 20fe 84be
00000240: a012 533e b406 433d cd75 b53c 78dc f93c
00000250: 5534 36be 8d6a 3ebe 08d8 bfbc 5f67 be3d
00000260: d923 0bbc f827 0e3e ac9f 233e 46e3 4cbd
00000270: c7bd 83bd 42c2 6cbe 90c2 e63d f500 a5be
00000280: 627a 22bd a3bf c0bd 3d85 2f3e d227 663e
00000290: 4537 783c afa9 093f 034f 65be a809 f33d
000002a0: 052d 0dbe 7427 83be f695 e63e f3db c6bd
000002b0: 293b ddbc 66fe c3be 2849 d8bc 19c7 003d
000002c0: 0f9b e3bd 7a63 afbd 19b4 a23e 5bc9 6f3e
000002d0: 3537 a93e ebf3 01be f689 02be d2a2 59be
000002e0: eb3e 86be a55b d43d 9d06 2cbd 7f54 8b3d
000002f0: b8fd 5c3d 4f04 e13e 862d b0bc 6911 ba3e
00000300: 3c90 533e b717 833d b728 7d3e 4b11 bd3e
00000310: ffc2 373f 863f f13d 1299 36be be72 843e
00000320: 3ffe 2ebd 789b 55be bc7e 2a3d bae3 43be
00000330: 2eb1 a33d 569c bd3d 54e3 2b3e fe2f a0be
00000340: 77f4 163d 6e23 1abe 5d68 d9bc a602 ea3d
00000350: 892b c73d 5169 723e 0d48 c9bd c7b8 0bbe
00000360: 0c32 df3d fe84 e2bd d491 bd3e a831 38be
00000370: efcd ee3d 75bb 1c3e 68d2 503d 3069 8a3b
00000380: 1748 313d 0366 713d 2733 6d3e 7c11 32bd
00000390: 9bd8 96bd 9afc 26be 0159 64be 8cbe 78be
000003a0: 35df 9a3e 445a c7bd d683 dabd 4f6e ac3d
000003b0: 83ad 84be b927 943e 7ce4 91be 85ca 30bd
000003c0: 3976 3fbe 04e7 79be 9d23 98be bcaa 93be
000003d0: 7291 aa3d e931 29be 0863 b53e 1e0c 49bd
000003e0: 2d8f a73e 6130 0bbe 1b8c 1bbe 23ff 3b3e
000003f0: dfa9 40be 798a a63e b744 163e c99f 08bd
-0.24561168 0.5505604 0.11398449 -0.11445644 0.014733978 -0.06868003 0.36203825 -0.327793
-0.03927165 0.1287885 0.1609102 0.25484547 -0.042104192 -0.13071479 0.09868908 -0.0515502
0.42564586 0.7823801 -0.092612624 0.32682467 0.11231678 0.01609852 0.39683414 0.059861224
0.0188541 -0.02849079 -0.08931216 -0.073095456 0.099907495 -0.2250125 0.042019762 -0.09950797
-0.45688388 0.19868127 0.12373453 0.15240592 -0.43062067 -0.294527 0.13787161 -0.35657313
-0.16058466 0.007968589 -0.017687256 0.056823183 0.03860675 -0.09120902 -0.070025474 -0.056785483
0.33828312 0.070395626 0.1687337 -0.22632544 0.041122444 -0.26142073 0.3795984 -0.29449588
0.09912411 -0.040767815 0.09956124 0.17505117 -0.050607186 0.014761271 0.06727371 -0.050919544
0.06141197 0.040873516 0.073338136 0.07782895 0.18386045 -0.24284904 0.1329733 -0.08679482
0.06381141 -0.0915692 0.011997796 0.0062573208 -0.20518392 -0.23312616 0.29072246 0.016881598
0.07877952 -0.040987447 0.23417673 0.25818467 -0.36312386 -0.1775721 -0.0022104278 0.20272972
0.17043887 0.10810527 -0.01947203 -0.3717272 0.045345098 -0.009542327 0.06194376 0.031395145
0.09471998 0.10804514 -0.27355388 -0.1834723 -0.16174458 -0.06773813 0.005817402 0.051385194
0.25231454 0.07088159 0.11036612 0.3322578 0.13627483 0.17868756 0.08277367 0.20132554
0.1489839 0.20803183 0.48365596 0.38577414 -0.1120734 -0.028619481 -0.223501 0.10180489
0.080967404 0.16858442 -0.14017573 -0.13690099 -0.31125233 -0.042302527 0.022259388 -0.015431902
0.23636653 0.11924336 -0.10241761 0.04406643 0.0009779225 -0.09539555 -0.17581065 -0.09935037
-0.0573998 -0.1201859 -0.21548691 -0.13640758 -0.16350448 -0.18790473 -0.07403725 -0.25975132
0.20612574 0.047613814 0.022150898 0.030500636 -0.177934 -0.18595333 -0.023418441 0.0929706
-0.0084924335 0.13882434 0.15978879 -0.050021432 -0.064326815 -0.23120978 0.112675786 -0.32227293
-0.039667495 -0.09411552 0.1714067 0.22476128 0.015149896 0.5377454 -0.22393422 0.11867076
-0.13786705 -0.25616038 0.45036286 -0.09709921 -0.027005749 -0.38280028 -0.026402071 0.031439874
-0.111135595 -0.085638955 0.3177803 0.23416655 0.33049932 -0.12690704 -0.1274794 -0.21253517
-0.26219878 0.10369042 -0.041998494 0.06803226 0.053952903 0.439486 -0.021506082 0.36341408
0.2066049 0.064010076 0.24722563 0.36927256 0.71781915 0.11779694 -0.17831829 0.2586879
-0.042722937 -0.20860088 0.04162477 -0.1912984 0.07992779 0.09258334 0.16785938 -0.31286615
0.036854234 -0.15052578 -0.026539022 0.114262864 0.097251005 0.23672988 -0.09828196 -0.13644706
0.108982176 -0.110605225 0.3702532 -0.17987692 0.116603725 0.15305884 0.05098191 0.004223965
0.04328164 0.058935177 0.23164044 -0.043473706 -0.07365533 -0.16307297 -0.22299577 -0.24291438
0.30248418 -0.09734014 -0.10669677 0.08419477 -0.2591363 0.28936556 -0.28494632 -0.043161888
-0.18697442 -0.24404532 -0.2971467 -0.28841197 0.08328523 -0.16522945 0.35427117 -0.04908382
0.32726422 -0.13592674 -0.15190165 0.18359046 -0.188148 0.3252752 0.1467465 -0.033355508

critic2.0.bias f4 [64]
00000000: 5ef0 8d3e 90b3 80be c1eb ce3e 231d 5e3e
00000010: ab13 2e3e 5996 233f 152e a7bd 4136 383e
00000020: 1875 6abd 5011 d53d 813b 1e3e 4222 a2bc
00000030: 8f95 aa3e ddcb 5d3e 4574 7e3e e7f3 513e
00000040: 40a4 d13e e1ae 953d d6ac 51be 8ab1 1b3d
00000050: 6793 833c fbec aa3e d678 e93d 90d5 a0be
00000060: 88f0 50be 39ed 33be 8296 0e3f aea1 a13d
00000070: d3bd 3abe 28ee a83b 44d1 f4be 30ea 86be
00000080: 6c80 29be 1ac0 bb3e 3d50 42bd 8b61 66bd
00000090: 9c29 a03e 24c1 c2bc 624a cdbd a60e 5dbd
000000a0: 843c 14be 47cb 493d bf2a 253f 10fc 993e
000000b0: a4b6 d0be faf0 2b3d 9f87 d03c d638 72be
000000c0: 1dfd cb3e 31f2 52be 43a8 04bf e7ed 373d
000000d0: 7c2e 5b3e 0a0f febd 2dc1 253d a28f 74bd
000000e0: 64fc 0d3e b247 973d 0781 bbbe 3ce4 9fbe
000000f0: 3565 35bf 1099 a4bc b8e1 10bf 555c 723e
0.27722448 -0.25136995 0.4041424 0.21690802 0.1699969 0.6390129 -0.08163086 0.17989446
-0.057240576 0.10403693 0.15452386 -0.019791726 0.3331723 0.21659799 0.24849041 0.20503198
0.40945625 0.07308746 -0.20476088 0.03801111 0.016061498 0.33383927 0.11400001 -0.31412935
-0.20404255 -0.17570962 0.55698407 0.07892166 -0.18236475 0.0051553436 -0.47815907 -0.26350546
-0.16552895 0.3667 -0.047439802 -0.056245368 0.31281745 -0.023773737 -0.10023953 -0.053969048
-0.1447621 0.049266126 0.6451835 0.3007512 -0.40764344 0.04197786 0.025455294 -0.23654494
0.39841548 -0.20600201 -0.51819247 0.044904616 0.21404451 -0.12405212 0.04046743 -0.05970729
0.1386581 0.07386722 -0.36621878 -0.31228817 -0.70857555 -0.020092517 -0.5659442 0.23668034

critic2.2.weight f4 [64, 64]
00000000: a8ee 663e 615b 48be cb45 30be 9093 45be
00000010: 7a5c 6b3e f3fa 1fbe 2e92 1a3e f9e5 cbbe
00000020: d43d 703e 157f 403d 498a ab3d 834d eebd
00000030: 5c6b ed3d 4d30 c2bc 6aa5 f7bd 4e4f 90bd
00000040: aa39 efbd 066a b63d c94f 5fbe 7401 98be
00000050: a1ef 7abc f9f9 803e ca36 22bd ba04 be3c
00000060: c97b 403c b957 283e cc73 fabb 4ad2 d03d
00000070: f087 0a3e f5b2 48be 5bc2 9d3e 11d0 0e3e
00000080: 1a15 24be 4ed5 073d 9ca1 a93e 8ec5 3f3e
00000090: 6591 1ebe 3ee5 823e f8c0 4d3d 14fd dd3d
000000a0: 7cf7 503e 6c11 49bd e8a7 57be 916c dcbe
000000b0: 7789 03be fe17 98be e31c 5b3d 4056 903e
000000c0: c00a 95be 6d9d dfbb 17ae cebd 063c a83d
000000d0: 57dc 6e3e 74d0 923e 2f1e af3a 6e44 a5be
000000e0: 57ef 24bd 4bdb b7be e1ec cebe e323 0abe
000000f0: 476a 303e dbdb 003e c1cc a7bd 0e7c 3bbd
00000100: 3f4a f23d 6b15 c43e 2523 fdbc 5568 8fbe
00000110: 06e8 b5be 84ea 3abd d11f db3b 5ca1 7e3e
00000120: 2883 4cbe 1a0e d8bd 657c 4ebe 3440 91be
00000130: a9ce a83e 9817 e9bd e032 a53d 526b 173d
00000140: 480f 2b3e ee81 b9be 8dc6 163d 2c34 d6bd
00000150: dfef 4abd 98d2 ae3e cb93 b93d d0d6 7c3e
00000160: c942 093e 8de2 94bc bee6 f43c e523 c53d
00000170: c433 843e b82c 6f3d e4f7 913e f5e9 7d3e
00000180: a37e 1dbe b7c1 573e e882 94be bd84 e03d
00000190: 38b1 a3be 06a8 ca3b 6ade 853e 9bdb 113e
000001a0: d205 a63e 567a 94bd b0b3 f93d 5086 07bb
000001b0: 980c adbd 3746 30be 7126 1abd 57b0 263e
000001c0: 382b ef3d a6fd 873d 1c42 13be 1d8f 2cbd
000001d0: 4b2f 99be 76a9 603e 4c00 113f e067 75be
000001e0: e1bb ff3c 3564 94be 970d 463e 9282 4fbe
000001f0: 75c9 353e 79a1 c93c 6dfb 70be f233 28be
00000200: 60ae 0e3e fe28 1b3e d051 1a3f 0f11 b8be
00000210: a783 67bc afaa 7bbe a6e2 67bf c7c2 67bd
00000220: fe8a 3a3e d44e edbc 7d09 c4bf 114d 8d3d
00000230: c674 0ebe 6963 17bf fe04 d83e 1896 133e
00000240: d25c ea3e e6bf 96bf 0f98 ba3d 2fd5 a7bf
00000250: e51f 5cbb 04d6 e13e 72f0 97bd add4 d73d
00000260: a614 ba3e 6f5f 19bd 8d24 03c0 d9a0 393e
00000270: a095 18bf fb5b 66bf 9c6f 3cbf d7a3 b23e
00000280: 2204 99be 72db 0dbf 3168 643e 10d6 8dbd
00000290: e342 fcbe 2ba4 c73e f97a 3abf 552e 7abe
000002a0: 07b4 953e 310e 37be 1bf9 12bf 5464 eabf
000002b0: d64e b3bd c8d1 97be 7583 1ebe 3544 87bf
000002c0: d6a1 58bf 2a8d 0a3e b834 0cbf f3b5 223f
000002d0: 69a6 1f3d 1f12 9fbe dc66 9ebe 899f ba3c
000002e0: 15fb 1d3d cc60 e3bd a5eb 05be bce1 7f3e
000002f0: e55c 97bd 28d7 b9be eb0f 36bf 07f8 62bc
00000300: 40c7 aa3c 869b 43bf c962 34be dba9 1dbf
00000310: 2c51 1c3f 7e29 09bd 5ae4 d73e 14ee 403c
00000320: a152 823e deef 8e3e 896f 033e 2031 263e
00000330: edac d83b 7da2 8e3e 4150 293e 0b1e f9be
00000340: 9b06 7dbe ac4c 313e 028d 81bd 4aba 143e
00000350: be7d 7ebf 2db9 fd3d 43fc 35be 1973 b93e
00000360: 2dbe 373e 6ed7 3a3e 0afd d63d e86d 4abd
00000370: 0c87 aabe 5623 6bbe ef5e 303d b992 8fbd
00000380: bcae 2cbd c427 92bd 52d8 a63e 2caf e63e
00000390: 552b d9bb d1b1 493d d8e4 8a3d 715e 763c
000003a0: c044 b13e 3085 2bbd f7b1 703e e8f3 043e
000003b0: 3c9c 943e 33c2 083e 8468 a2be aa69 033e
000003c0: 4551 c8bc 76ee a33d ee5e 243c ee9d aabe
000003d0: 5937 c9bd b06c 5abd a04d 05bf 939c 8bbd
000003e0: 6468 413d b762 19bf 12a5 28bf a18f fbbd
000003f0: c88a 613d 1ae1 a13c 148d bcbd b871 f1bb
0.22551978 -0.19566108 -0.17214124 -0.19294572 0.22984496 -0.15623073 0.15094826 -0.39823893
0.23461086 0.046996195 0.08375985 -0.11635878 0.11592743 -0.023704672 -0.12092097 -0.07046376
-0.116809204 0.08906941 -0.2180778 -0.2968861 -0.015315921 0.25190714 -0.039603032 0.023195613
0.011748263 0.16439714 -0.0076431986 0.101963595 0.13528419 -0.19599517 0.30812344 0.13946559
-0.16023675 0.033162408 0.3313111 0.18727705 -0.15485151 0.25565523 0.050232857 0.108392864
0.20406908 -0.04908888 -0.21060145 -0.4305158 -0.12845407 -0.29705805 0.053494345 0.28190804
-0.29109764 -0.0068241865 -0.10091799 0.082145736 0.2332624 0.28674662 0.0013360436 -0.3227877
-0.040267315 -0.35909495 -0.404151 -0.13490252 0.17228042 0.12583868 -0.081933506 -0.045772605
0.118305676 0.3829759 -0.030900547 -0.28009287 -0.35528582 -0.045633808 0.0066871424 0.24866241
-0.19971907 -0.10549565 -0.2016464 -0.28369296 0.3297017 -0.11381453 0.08066344 0.036967583
0.16705048 -0.3623194 0.036810447 -0.1045917 -0.049545165 0.34145045 0.090613924 0.2469132
0.13404383 -0.018174434 0.029895183 0.09625987 0.25820744 0.058392256 0.28509438 0.24796279
-0.1538034 0.2106999 -0.29006124 0.10962818 -0.31971145 0.0061845807 0.2614625 0.14243929
0.32426316 -0.07249896 0.12192476 -0.0020679422 -0.08449668 -0.17214285 -0.037634317 0.16278206
0.11678165 0.066401765 -0.14380687 -0.04212867 -0.29918894 0.21939644 0.5664108 -0.23965406
0.031217517 -0.28982702 0.19341122 -0.20264652 0.17752631 0.024613129 -0.23533411 -0.16426066
0.13933706 0.15152356 0.60281086 -0.35950515 -0.014130509 -0.2457683 -0.90580213 -0.05658224
0.18217084 -0.028968252 -1.5315396 0.06899465 -0.13911733 -0.5913606 0.4219131 0.14412725
0.4577394 -1.1777313 0.09111034 -1.3111933 -0.0033588347 0.44108593 -0.07418908 0.105386116
0.36343879 -0.03744453 -2.049106 0.18127765 -0.5960331 -0.899841 -0.736078 0.34890625
-0.29885966 -0.5541297 0.22305371 -0.06925595 -0.4926978 0.38992438 -0.7284389 -0.24431737
0.29238912 -0.17876507 -0.57411355 -1.8311868 -0.08755271 -0.29652238 -0.15479834 -1.056769
-0.8462194 0.13530412 -0.5476794 0.6355888 0.03897706 -0.31068513 -0.3093785 0.02278115
0.03856953 -0.11102447 -0.13078173 0.24988455 -0.07390765 -0.36296964 -0.7111804 -0.01385308
0.020846963 -0.76409185 -0.17615809 -0.61587304 0.6106136 -0.033486836 0.42166406 0.011775512
0.25453666 0.2791738 0.12835516 0.16229677 0.0066124112 0.27858344 0.1653452 -0.48655733
-0.24709551 0.17314404 -0.06325723 0.14524189 -0.9941062 0.12388835 -0.17772011 0.36220625
0.1794364 0.18246242 0.10497482 -0.04942122 -0.33306158 -0.22962698 0.043059286 -0.07010407
-0.042158827 -0.07136491 0.32586914 0.4505552 -0.00662748 0.049241845 0.0678193 0.015037165
0.34622765 -0.041875064 0.23505388 0.12983668 0.29025447 0.13355331 -0.31720364 0.12833276
-0.024452815 0.08004467 0.010032399 -0.33323616 -0.0982501 -0.05332631 -0.5207157 -0.068169735
0.047218695 -0.5991625 -0.6587688 -0.122832544 0.055063993 0.019760657 -0.09206596 -0.0073682927

critic2.2.bias f4 [64]
00000000: 5d5b 3bbd 9a4b 003f 47df 023e 4088 b93e
00000010: 50ff 763e c80c e23e 9dd3 3e3e 4146 6dbf
00000020: 6ac4 e9bd 2a23 9b3d 42b0 f93d 237b 46bc
00000030: c6ef 46be db6a 46be 0785 36bb c497 2d3e
00000040: f24e abbe ddd9 a3bd 8a8a 4f3c 8980 193e
00000050: 6195 843e 1d0c d4be e292 933c ca5b d03c
00000060: d730 c33c 6b2f 4fbd f7e4 383e 3a33 363e
00000070: 02bf 49be a55f b4bd 76ce adbe 1a75 083f
00000080: 88b7 e63e 1949 0ebf 53ea ec3b 45a5 42be
00000090: 660b 96bb 450d febd c362 d5bc 21ee d43e
000000a0: 1224 29be c27c 73be 1b30 a83c 9cb0 7ebd
000000b0: fdf7 c7be 03c0 bc3e f2e3 d1be 25da e03d
000000c0: e854 42bd 6679 fdbd 1b74 203f 927c d73e
000000d0: 0cc9 b9bd 0325 903d f590 b23e 8ac5 5d3e
000000e0: 28b7 80bd 7a13 e2bc e967 eb3e 7ff5 c7bd
000000f0: 3d14 45bd 2e4c ea3d 2365 0ebf 09cf 0f3f
-0.045741428 0.5011536 0.12780486 0.36236763 0.24120831 0.44150376 0.18635412 -0.92685324
-0.11414416 0.075750664 0.12191822 -0.012114319 -0.19427404 -0.193767 -0.0027850287 0.16952425
-0.33458668 -0.080005385 0.012667308 0.14990439 0.25895217 -0.41415492 0.018014375 0.025434393
0.023827 -0.05058233 0.18056093 0.17792979 -0.1970177 -0.08807305 -0.3394658 0.5330368
0.45061898 -0.5558029 0.007230082 -0.19008358 -0.0045789955 -0.12404875 -0.02604807 0.41587928
-0.16517666 -0.2377806 0.020530751 -0.062180147 -0.39056388 0.36865243 -0.4099422 0.10979108
-0.047444254 -0.123766705 0.6267716 0.42087227 -0.0907155 0.070383094 0.34876218 0.21657386
-0.06284934 -0.027597178 0.45977715 -0.097636215 -0.048115004 0.11440311 -0.5562307 0.56175286

critic2.4.weight f4 [64, 64]
00000000: 707f dc3e 4d6b cc3c 0c19 673f a190 8f3e
00000010: 84c5 29bd fc6a 15bf 0c30 353f aeaf c1bf
00000020: a08a 55bf 75d4 a0bc 579e b03e 8194 083e
00000030: 7eff 703c 3fa6 a63d 128a 2fbe 9b2b 98be
00000040: 1505 893f b4ad a53e 73ce 823e 9ebb a03d
00000050: a9d9 22be 4451 9abe 2884 22be 70d6 45be
00000060: 3436 8cbd 9c53 7bbe 86e4 8e3e 5bef e0be
00000070: 2989 863e 533d a3bc a8d0 9e3e 6f4b 853e
00000080: 8525 9d3d d4a7 a7bd 40e6 fd3d fea1 853d
00000090: 7d9e b2be ee9b 4fbe ad89 cebd e605 59be
000000a0: 2d04 f0bf 564e 4bbd 9683 2f3d b3f6 b7be
000000b0: 50fa 1fbf 0a5d b23f 4f6b e7bd 954a 7ebe
000000c0: f155 233e 0848 073f 090d cbbe 4298 e5be
000000d0: c255 35be 01ed 11bd c318 743e 800d 33bc
000000e0: a4ad bb3d 0162 003f 0306 b0bf d58a d5be
000000f0: 2c5d 3bbe 0806 bf3f b073 20be 66fd 3f3e
00000100: 0fa3 e7bd d9ba 863e 1a2b 3c3f 2501 19bf
00000110: 49fc 4e3e d79a 15be 8dbc 96be db7d e03e
00000120: ee97 efbe 3075 d4bd 2068 b0bc 61ee 163f
00000130: 3bcb cebe f8f7 9cbd d2ec cabe 2531 5bbe
00000140: d74a b33e 606a 4f3e b8a6 ff3c b8ee 483e
00000150: f098 8a3e bc6c a2be 7229 d23e 26e6 333f
00000160: acb9 aabe 7fa9 12be a0f8 983e b4e9 ce3d
00000170: 6e42 453c 18d3 463e f697 96bc 5833 a13e
00000180: d8d3 6b3d 7342 083c 0672 253f b2ad 203f
00000190: a000 28be ee68 30bd 314e dbbe b4a7 173d
000001a0: 04cc be3c 7bb3 013d 797d b83d 9128 a23e
000001b0: b753 c23d bed6 8fbf ec8d 73be cd67 de3f
000001c0: c537 72bc 525e 943e d3f8 89be 781b 5fbe
000001d0: 95ff 583e 446f 573d 9be0 793e 1658 1c3e
000001e0: 4a79 0e3f df3d b03e 1a8a a6be 93aa 173f
000001f0: d238 a0bd da7b 8b3f 05dc 14be 80b1 5cbc
00000200: 8789 73bd 539b c0bd 7f31 02bf a8ee 0a3e
00000210: c688 d8be 6a03 56bd 11d5 713e 6851 f5be
00000220: 78c9 95bd 5f88 7c3d cc70 843e 7961 bb3d
00000230: ea46 073e a9f7 343d 3345 d7bd 9c0b debe
00000240: 80ae 37be c1c6 f33d 5757 91bb 1d0c 103d
00000250: 8b16 e7be 7849 863e b553 f9bd b498 6ebe
00000260: 2278 9ebd b5c8 36bd 877d 7d3e 3264 8cbd
00000270: c5eb da3d 9ae8 473e 6bf3 2e3e 03cb 853c
00000280: 003e 763d a108 0b3d 8190 893d d8fe 16bf
00000290: b428 3b3e 16b8 773d 71a2 c43e c7b2 36be
000002a0: b0f3 ef3c bb8a 463e 8204 56be 6af5 903d
000002b0: 69ab 683e d771 c1bd 67bc 0abc 8ed1 6fbf
000002c0: 962c c3bd 7ec3 953e d502 83be c6c2 b93e
000002d0: 11ff abbc d9e0 2ebe b0e8 55be 30ca 863d
000002e0: 926a 0ebe 168a 10bf 1d1b 9bbc 704f 3f3e
000002f0: 2190 883e 403f 0dbf 47da c9bd c07f c63d
00000300: 3ae6 723e e2db 9c3d 762c 033f e771 04bd
00000310: c6f8 b03e 709a ccbe 1981 69be dae4 9f3e
00000320: dabf f9be a1ab 853c b195 783e b2e3 393f
00000330: 2447 62bd cb3b 973d d489 473d fa32 44be
00000340: e3bf a93d 8bd3 3e3e 0bcd 0a3d 3129 bd3e
00000350: 74c9 adbe a09d 4fbe 401e a13e 42a8 083f
00000360: 94d6 2a3e 8dcb ebbd acbd 073e 0b33 47be
00000370: 59be 94be 0852 363d 8da7 40bd 462c 4b3e
00000380: c0f0 873c befd 6abe 6b51 a23e 9b08 883e
00000390: 7e2b fabd 4e9d 183e afc4 bdbd 0438 ce3d
000003a0: 69e2 45bc 0e0b f7bc 4db9 eb3e 7953 2a3e
000003b0: 9765 9f3e 3a8e 8cbf a5ce 493c 6346 f43f
000003c0: a380 24bd d14a 70bd bd94 d1be 91cb bb3e
000003d0: 79d5 f13e dcf3 29be e4ea 31be 3eeb 85be
000003e0: acc7 2c3e 7ba9 783e 2177 b7bf 85eb 5e3f
000003f0: 255b a2bd be36 a93f 8f70 59be ffd8 6dbe
0.43065977 0.024953509 0.90272593 0.2804003 -0.04144813 -0.5836637 0.7077644 -1.5131738
-0.8341465 -0.019632557 0.34495804 0.133379 0.014709352 0.08137178 -0.17142513 -0.29720768
1.0704676 0.32359087 0.25548133 0.07848285 -0.15903343 -0.30140126 -0.15870726 -0.19320083
-0.06846276 -0.24543613 0.27908725 -0.43932614 0.2627652 -0.019926703 0.31018567 0.26034114
0.07673172 -0.081863075 0.12397432 0.06525038 -0.34886542 -0.20274326 -0.10084853 -0.21193656
-1.8751274 -0.049635254 0.0428501 -0.35930404 -0.6249132 1.3934643 -0.11299764 -0.24833138
0.15950753 0.52844286 -0.39658383 -0.44842726 -0.17708495 -0.035626415 0.23837571 -0.010928512
0.09163979 0.5014954 -1.3751835 -0.41707483 -0.18297261 1.4923716 -0.15669131 0.18749008
-0.11310398 0.26314428 0.7350327 -0.5976737 0.20213427 -0.14609848 -0.29440728 0.4384602
-0.467956 -0.10373914 -0.021534026 0.5895749 -0.40389428 -0.07664484 -0.39633805 -0.21405466
0.35018036 0.20255423 0.031207427 0.19622314 0.27069807 -0.31723583 0.41047245 0.70273054
-0.3334478 -0.1432247 0.29877186 0.10103169 0.012039764 0.19416463 -0.018383007 0.31484485
0.057575077 0.008316624 0.6462711 0.6276504 -0.16406488 -0.04306882 -0.42833093 0.03702517
0.023290642 0.031665307 0.09008307 0.31671575 0.094886236 -1.1237409 -0.23784608 1.7375427
-0.014783804 0.2897821 -0.2694765 -0.21787822 0.21191247 0.052596346 0.24402086 0.15267977
0.5565382 0.34422204 -0.32527238 0.5924465 -0.078233376 1.0897171 -0.14537056 -0.013470054
-0.05945733 -0.09404626 -0.50856775 0.13567603 -0.4229185 -0.05224935 0.23616435 -0.4791367
-0.07313818 0.06165349 0.25867307 0.09149451 0.13210645 0.0441815 -0.105112456 -0.43368232
-0.1793766 0.11903144 -0.0044354605 0.035167802 -0.45134386 0.26227927 -0.12174169 -0.23300439
-0.07737757 -0.044625003 0.24754916 -0.06855048 0.10689501 0.19522324 0.17085044 0.016332155
0.06011772 0.033943776 0.06717015 -0.5898261 0.18277246 0.060478292 0.38405183 -0.17841636
0.029291004 0.19388859 -0.20900157 0.07078059 0.22721638 -0.09445541 -0.00846777 -0.9367913
-0.095299885 0.2925071 -0.25588098 0.36281413 -0.020995649 -0.1707796 -0.20889544 0.06581533
-0.13907841 -0.564607 -0.018933827 0.18682647 0.26672462 -0.55174637 -0.09856086 0.09692335
0.23720637 0.07659127 0.51239717 -0.03233519 0.345648 -0.39961576 -0.22803153 0.31229287
-0.48779184 0.01631719 0.24275853 0.7261306 -0.055243626 0.073844515 0.048715428 -0.19160071
0.082885526 0.18635385 0.03388695 0.3694549 -0.3394276 -0.20274973 0.3146839 0.5338174
0.16683418 -0.115134336 0.13255948 -0.19453065 -0.29051474 0.044511825 -0.04703479 0.19841108
0.01659429 -0.22948357 0.31702742 0.26569065 -0.12215327 0.14903757 -0.0926603 0.10069278
-0.012077906 -0.030156638 0.4603981 0.16633405 0.31132194 -1.0980904 0.012317334 1.908398
-0.04016174 -0.0586651 -0.4093379 0.36678746 0.4723318 -0.16596931 -0.1737476 -0.26156038
0.16873044 0.24283402 -1.433323 0.87078124 -0.07927541 1.3219831 -0.21234344 -0.23227309

critic2.4.bias f4 [64]
00000000: 32b0 083f a7d5 3a3e f05b a8be 13cb 323e
00000010: 3826 e53e c6a4 9ebe c9ce 6bbe 3f84 0f3f
00000020: f0bb 113f 9a2a 4f3f d6d0 30bd df8c f9bc
00000030: 980b 773e ffc7 bf3e e322 833e 9616 663e
00000040: 6043 c4be 9af0 433e 7bc1 23be 4c45 6cbe
00000050: cf6d 0cbe 5c1e da3e 12a7 17be d5cb b03e
00000060: 1e16 fbbc 329e bb3e 7632 983e 87fb 8abb
00000070: f205 823e a31a 033f a03a 97bd 9d44 93bd
00000080: c600 e7bd 4538 29be a906 403f 3bba 96be
00000090: 5251 913e 771d 81be 7cd0 e23e 99e9 8bbe
000000a0: 95b1 a53e a0a6 0cbd a6aa 3ebd cfed 623d
000000b0: b0b8 93bd 5db9 423d 217c 89bc 1cd6 b03d
000000c0: a6a6 5bbe fe3d b53e a985 413e df5a a23e
000000d0: ebd1 fcbc 8ec9 f9bd 99be a9be 1191 3abd
000000e0: 94d3 a9be 6a39 063e 0451 80bd 1cba edbe
000000f0: b070 a2be f864 a2bd d469 0f3f c3c5 ce3d
0.5339385 0.18245564 -0.32882643 0.17460279 0.4475572 -0.30985087 -0.23028101 0.56061167
0.56927395 0.8092438 -0.04316791 -0.03046268 0.24125516 0.37457272 0.25612554 0.22469553
-0.38332653 0.19134751 -0.15991776 -0.2307331 -0.13713764 0.42601287 -0.14809826 0.34530511
-0.030650195 0.3664413 0.29726 -0.00424141 0.2539516 0.5121252 -0.07384229 -0.07190821
-0.112794444 -0.16525371 0.7501016 -0.29438958 0.28382355 -0.25217792 0.44299686 -0.27326658
0.32362047 -0.034338593 -0.04654946 0.055402573 -0.07212961 0.047540057 -0.016782822 0.08634588
-0.2145029 0.3539886 0.18898644 0.31709954 -0.030861815 -0.12196647 -0.33153227 -0.045548502
-0.33169234 0.13107839 -0.062654525 -0.46431053 -0.317266 -0.079294145 0.56020856 0.10096314

critic2.6.weight f4 [1, 64]
00000000: 4082 a3bf b35c 5bbf d8d8 a9be 806b 5fbf
00000010: 066c 013f 41e8 3ebe 7a03 26be 5edd 88bf
00000020: a9cb 103f fb11 0f3f 8aa2 6a3e 4bfe a4be
00000030: b1d0 623e 22e8 45bf ccb6 bb3d 67f7 683f
00000040: 0a93 c4be bc42 18bf 57d2 9dbe d929 8dbe
00000050: 5cc1 75be 5ea6 1b3f 67e7 10be e2d6 39bf
00000060: c9e7 8dbe 4c86 803e a802 f93e dbcc 05be
00000070: d408 253e 9a9a c73e 8483 7dbe b096 88be
00000080: e1ad a7bd 0a75 80be 12cb 233f 25fa 31be
00000090: 277a bb3e c999 b2be 8cde 933e 14de 48bf
000000a0: 39da 9c3e aad3 4bbe ae86 213e 9079 b6be
000000b0: f999 c4bd 0dc0 6f3e 372f 5abe b4cb 3fbf
000000c0: 8ab4 55be 4498 ce3e 0452 a53e 9be2 c2bc
000000d0: 0523 a63d 0bdf 3cbe cdc3 46be 6d5c b43d
000000e0: eb13 8abe d51c 513f 7dfc a73c 2898 edbe
000000f0: 40bc bbbe 9402 76be 0719 823e c895 dfbe
-1.2774124 -0.8568832 -0.3317325 -0.87273407 0.50555456 -0.18643285 -0.16212264 -1.0692556
0.5656076 0.5588681 0.22913566 -0.3222526 0.22149922 -0.7730733 0.09165725 0.91002506
-0.38393432 -0.5947683 -0.3082454 -0.2757099 -0.23999542 0.6080073 -0.14150773 -0.7259351
-0.277159 0.2510246 0.4863484 -0.13066427 0.16116649 0.3898514 -0.247572 -0.26677465
-0.08187462 -0.25089294 0.63981736 -0.17380579 0.36616632 -0.34882954 0.28880727 -0.78463864
0.3063524 -0.19904962 0.15774032 -0.3563962 -0.095996805 0.23413105 -0.21307074 -0.749202
-0.20869651 0.40350544 0.32289135 -0.023789695 0.08112148 -0.18444459 -0.1941063 0.08806691
-0.2696832 0.8168462 0.020506138 -0.46405149 -0.3666706 -0.24024421 0.2540972 -0.43668962
