matd3/model/simple_tag/agent_2/16_critic_params.pth (torch, 115263 bytes, 14 tensors)

critic1.0.weight f4 [64, 82]
000000 22 1f 78 bf 32 b4 da 3e 9a 62 50 3e 3a 78 fb 3b
       -0.96922505 0.42715603 0.20350114 0.007674244
000010 de f5 80 be 9a 61 f8 3d 5d 6f c9 be 67 0d 21 3e
       -0.25187582 0.12127991 -0.39342776 0.15727769
000020 7d 2d e7 be 47 be 3b be 0b 8c 2f bd fb e3 81 3e
       -0.45151892 -0.18334304 -0.042858165 0.25369248
000030 e3 7c d4 bd dd 17 ca bd 85 b2 c3 bd e5 f6 91 3d
       -0.10375383 -0.09867833 -0.09555534 0.071271695
000040 48 2b 21 3f ff 38 c3 3c a3 2d 50 be 0f 93 3d be
       0.62956667 0.023830889 -0.20329909 -0.1851313
000050 4a 05 3d 3d 59 03 b2 3d ce b5 30 3d d3 0e bc 3d
       0.046147622 0.08692045 0.043142132 0.09182515
000060 8f be 97 3e 7b ba 7b 3d 15 7b c8 3d 54 bd 47 3e
       0.29637572 0.06145714 0.09789101 0.19505817
000070 6e 50 52 3c 5a 42 0d be 63 1e 13 be b8 f6 92 3e
       0.012836559 -0.13794842 -0.1436706 0.28703856
000080 4f e4 96 be 67 62 ef be 4a f6 30 3e 21 4a 6d bd
       -0.2947106 -0.46754763 0.17281452 -0.057932023
000090 97 2e 5e bc f7 88 86 be 4b 33 9f be 5c 02 0b bd
       -0.013560913 -0.2627637 -0.3109382 -0.033937797
0000a0 72 78 03 3e a4 b7 b1 bb f3 b2 66 bd 93 87 6e bd
       0.12838915 -0.005423503 -0.056323003 -0.058234762
0000b0 d2 c5 8d 3d 95 66 bb bd 04 e2 de 3c 88 19 cf 3e
       0.06922497 -0.09150425 0.027207382 0.40449166
0000c0 2d 07 d0 3c 71 4e 0a 3e 57 10 82 3e 53 1c d9 3d
       0.025394047 0.13506486 0.2540309 0.106011055
0000d0 f7 76 bc be d1 93 d8 3e 62 06 e8 be de 95 d4 3d
       -0.36809513 0.42300275 -0.4531737 0.103801474
0000e0 22 13 b3 bc a1 99 4c bd 24 60 5d be 4b bf b1 3c
       -0.02185971 -0.0499512 -0.21618706 0.02169766
0000f0 4c ac 0f be 26 14 a2 3c 47 d2 85 3e ce 6a 4d bf
       -0.1403057 0.019784998 0.2613699 -0.80241096
000100 2d f8 ff 3d f0 a2 0d be fa c7 45 3e 63 77 7a be
       0.12498508 -0.13831687 0.19314566 -0.24459605
000110 26 a5 44 3f 47 ca a5 3d b0 a1 53 3e 88 e5 7a bd
       0.76814497 0.08095222 0.20667148 -0.061254054
000120 69 03 fb 3d 1b 99 63 bd 13 26 c4 3e 55 40 94 be
       0.1225651 -0.055565935 0.38310298 -0.2895533
000130 55 26 c7 bd fe 2f b6 3e 52 3c ca bd 49 3d 45 be
       -0.09724108 0.3558349 -0.098747864 -0.1926166
000140 e3 2c ae be ff 5e de be 0e 10 30 bf d2 30 d2 3e
       -0.3401862 -0.4343185 -0.687745 0.41052872
000150 42 7f 97 bd 4e d8 88 3d cf ec 65 be 4e b5 85 3e
       -0.073973194 0.06681882 -0.22453617 0.26114887
000160 30 52 ee bd 40 56 09 3e 3d 1d c7 3e 0d 69 06 bd
       -0.1163677 0.13411808 0.38889495 -0.032815028
000170 64 26 f3 3c 24 6e 55 3e 38 0b 2f be 1e 90 9f bb
       0.029681392 0.20842797 -0.17094123 -0.004869475
000180 ce d8 80 be e7 36 66 3e c7 55 82 bf 74 42 f6 3b
       -0.2516541 0.22481881 -1.0182427 0.007515246
000190 b1 06 93 3d 9e a3 0f bd 5f b2 ff bd 63 01 82 3e
       0.07179011 -0.035068147 -0.124851935 0.25391683
0001a0 65 1f 2a bc 9b 47 94 bc 04 d2 70 be 47 26 bc 3d
       -0.010383462 -0.01810055 -0.23517615 0.09186988
0001b0 95 be 40 3e 3c 22 1e 3e 94 00 c8 be f1 f8 03 3d
       0.18822701 0.15442747 -0.3906294 0.03221983
0001c0 d8 0b c5 be 12 8e 87 3b 00 69 39 3e 9a c8 6c 3f
       -0.384856 0.004136809 0.1810646 0.92493594
0001d0 00 1d 1f 3d 66 25 c8 3e d3 38 8c be ee 53 cc 3d
       0.038846016 0.39091033 -0.27387103 0.09976946
0001e0 bd c1 91 be 0e be 5b bd 4f 68 d7 bc 43 28 14 be
       -0.28468123 -0.053648047 -0.026294855 -0.14468484
0001f0 9b a8 18 3c 4b 28 d5 3d 13 4a 30 bf 46 e5 28 be
       0.009317542 0.10408076 -0.6886303 -0.16493711
000200 5f 5e a1 bb 50 5c 00 be 54 27 74 be ac 60 f8 3d
       -0.00492458 -0.12535214 -0.23843127 0.12127814
000210 73 03 d2 be 62 7b 88 3e cd e0 81 3e d8 17 91 3e
       -0.41018257 0.26656634 0.25366822 0.28338504
000220 aa 76 12 3e 9b 16 c7 3e 65 31 bf 3e b3 10 a6 3d
       0.14303079 0.38884434 0.37342373 0.08108654
000230 1b 3c b5 3e c4 f6 ee 3c d9 fc ab 3e d1 9f 9a 3e
       0.3539742 0.029170401 0.33591345 0.30200055
000240 3c 3a 20 3e ce b0 6f be ff f3 79 3e 48 ae 8d 3e
       0.15647215 -0.2340729 0.24409483 0.2767203
000250 6d ac f1 bd fe 73 cf be 37 ff af be ca d3 42 be
       -0.11800466 -0.40518183 -0.343744 -0.19026104
000260 eb 90 d6 bd 6a 23 d3 bc a8 14 b7 be 2a 93 8c 3e
       -0.1047686 -0.025773723 -0.35757947 0.27456027
000270 0e 72 10 be ea b1 85 3e 1f c0 21 be 73 78 ac 3e
       -0.14106008 0.261123 -0.15795945 0.33685645
000280 92 8b 22 be ca 0c 2d bd 69 b3 da 3d bc aa f6 bd
       -0.15873554 -0.042248525 0.10678751 -0.12044284
000290 47 a2 2a be 93 0f af be 55 8e 7e be 41 8b 3c be
       -0.16663466 -0.3419157 -0.24858983 -0.18412496
0002a0 21 b5 35 3e 3c 80 9e bd 4c 6a 34 be 86 63 10 be
       0.17744876 -0.077393025 -0.17618674 -0.14100465
0002b0 15 15 78 be 6e fe 0d bf 0f 45 dd be c3 13 ff bc
       -0.24226792 -0.55466354 -0.4321675 -0.031137353
0002c0 a1 b7 1a 3d 28 48 a0 be b7 44 31 3e b4 fd 7f 3e
       0.03777278 -0.3130505 0.17311369 0.24999124
0002d0 5a 09 30 3f 0e 7a ff bd bb 13 28 be dc b4 9c be
       0.6876427 -0.12474452 -0.16413777 -0.30606735
0002e0 d4 b6 1e bd f6 51 ba 3d d7 76 3a be e1 10 2e 3e
       -0.038748577 0.09097664 -0.18209396 0.16998626
0002f0 cb 3f 49 3c d2 a6 b6 3e 51 3f c1 be 39 61 c0 3e
       0.012283276 0.3567415 -0.3774362 0.37574175
000300 ce 1d cc bd c3 53 91 3e 66 03 24 3e 37 94 e6 3e
       -0.09966622 0.28384218 0.16016921 0.45034954
000310 38 4a d8 be 5b 9d 29 bf 63 a9 35 bf 0e 52 d8 bc
       -0.42244124 -0.6625573 -0.7096159 -0.026406314
000320 4e cb db 3e 8c f4 7f 3d 9a be 13 bb 35 bd 5a be
       0.42928547 0.062489077 -0.0022544027 -0.21361239
000330 cb 39 ba 3e 76 da 63 3d 3a 6d 55 3e 7f 83 42 bd
       0.36372218 0.055628262 0.20842448 -0.047488686
000340 67 30 0e 3f c7 d9 9c 3d 7e 8e e3 3d cf 66 ba 3e
       0.55542606 0.07658725 0.111111626 0.36406562
000350 40 b2 94 3d b1 f6 06 3f 86 08 e8 be 57 bb 71 be
       0.07260561 0.5272017 -0.45319003 -0.2360662
000360 cd 8b c2 3d 78 b4 c5 bc 29 9d 5d be f4 f9 58 3c
       0.09499321 -0.024133906 -0.21641983 0.013243187
000370 bc 16 6b bd ed 1e 41 3e 90 ff d9 bb 43 06 4e be
       -0.057394728 0.18859453 -0.00665278 -0.20119576
000380 e5 3f fb be 2e 6f 01 3e fb 59 03 bd e9 9f 2b be
       -0.49072185 0.12640068 -0.032068234 -0.1676022
000390 cf 2a 27 be 7f 7b 44 be 93 63 10 bd 13 97 f5 bb
       -0.16324924 -0.19187735 -0.03525121 -0.007494816
0003a0 2c 79 07 3e 73 b7 53 bd 19 07 b9 bd ae 0e 38 be
       0.13229817 -0.051688623 -0.09034557 -0.1797435
0003b0 fc a0 d7 bd 15 62 77 bd cb 17 9f 3e 49 2a 82 bd
       -0.10528752 -0.060396273 0.3107284 -0.063557215
0003c0 ef 2f 96 3e d9 fb 26 3e 19 f1 c5 3e 9e 4c 94 be
       0.29333445 0.1630701 0.38660505 -0.28964704
0003d0 fe ee b7 3e 2c aa 0d bf d1 60 d5 3e 48 66 89 3f
       0.35924524 -0.55337787 0.41675428 1.0734339
0003e0 b1 f3 80 3e 86 1d f1 3d 26 19 0b bf c2 26 e2 3d
       0.25185922 0.11773209 -0.5433525 0.11042549
0003f0 4c e3 6f be 76 c1 6f bc af d7 16 3b 0c c9 8e be
       -0.2342655 -0.014633527 0.002301674 -0.27887762

critic1.0.bias f4 [64]
000000 43 f5 50 3e 8f 3d 49 3e 9c 23 41 bd 02 9e b6 bd
       0.2040606 0.19652389 -0.0471531 -0.08916856
000010 9a a8 c9 3e 83 ab eb 3e 10 0b c5 3c a4 65 fd 3d
       0.39386445 0.4602929 0.024053127 0.12372902
000020 34 a0 98 bd f0 7f 69 be 6b f6 8a bd da f6 07 be
       -0.07452431 -0.2280271 -0.06785282 -0.1327776
000030 d1 d5 3e be c7 08 f0 3b 89 14 92 3e d7 3e ea 3e
       -0.18636252 0.007325265 0.28531292 0.45751068
000040 f8 ba 90 3d 02 81 19 3e 9f 25 71 be 7f 80 35 3d
       0.070669115 0.14990619 -0.23549508 0.044311997
000050 3f a5 1a 3e b9 bd 9e be 91 3b b8 bd 20 b5 0c bd
       0.15102099 -0.31004122 -0.089957364 -0.03435242
000060 01 0e e6 be 95 45 01 be 5d f5 30 bd 31 48 cf 3d
       -0.4493256 -0.126242 -0.043202747 0.10121191
000070 7e cf 42 be 50 34 93 be b6 9b 24 3e 30 7e b4 3b
       -0.19024464 -0.2875085 0.16075024 0.005508207
000080 b9 21 28 3e 63 6c ea 3d 92 53 26 3e 65 14 02 bf
       0.16419114 0.114464544 0.16242817 -0.5081237
000090 9a 30 e5 be 03 f3 b1 3e ce 6c 51 3e f4 f0 29 be
       -0.44763643 0.34755716 0.20451662 -0.16595823
0000a0 2b 98 2b 3e ad b3 19 3e 1a 91 f4 3d 15 2f 2a be
       0.16757266 0.15009947 0.119417384 -0.16619523
0000b0 b2 3d cd 3c 53 e1 b1 be 3d 35 42 be 18 5a 2d bd
       0.025053833 -0.3474222 -0.18965621 -0.04232225
0000c0 6f 43 60 be b3 36 1e 3d 99 bd d0 bd 19 11 ba bd
       -0.21900724 0.038626384 -0.10192413 -0.09085292
0000d0 d7 e6 ab be e1 62 23 3f f9 6c 7b 3e 91 07 4d 3e
       -0.33574554 0.6382275 0.24553289 0.20022418
0000e0 fb 21 87 be c3 62 5c 3e 91 93 04 3e b3 cf f3 bd
       -0.26393113 0.2152205 0.12946917 -0.1190485
0000f0 13 97 91 be 65 4c 4f bc 9a 68 6d 3e 20 c6 4f bd
       -0.28435573 -0.012652491 0.23184434 -0.050726056

critic1.2.weight f4 [64, 64]
000000 b8 0b b5 3e a2 2b 1f be 72 26 6c bd 9b 4d 85 bf
       0.35360503 -0.15543988 -0.05765385 -1.0414308
000010 ff 1d c4 3e 00 0f 76 be 5e fd dc 3e b1 b8 d9 be
       0.38304135 -0.2402916 0.43162054 -0.4252372
000020 75 06 91 be 06 fd 07 3e c4 6e d9 3d 78 0a b4 3e
       -0.2832524 0.13280115 0.1061683 0.35164237
000030 99 2b 77 3d 93 cb 29 3e d3 f6 21 3e 67 ec 87 be
       0.060344312 0.16581564 0.15816812 -0.26547548
000040 ce 14 aa be bf f3 3e 3e 5d 20 b1 be 9e 62 7f 3d
       -0.33218998 0.1864767 -0.34595004 0.062349908
000050 c2 ba cf bd cc e9 41 bf ca 53 7f be 07 90 c8 3e
       -0.10143043 -0.7574737 -0.24934307 0.39172384
000060 20 fc 0b bd 31 64 68 3e 7f 4e a2 bf 19 c7 85 bf
       -0.034175992 0.2269447 -1.2680205 -1.0451385
000070 26 fe 63 3a 19 51 4a bf ea e7 96 3e 86 7f 1d bd
       0.0008697234 -0.79029995 0.2947381 -0.038451694
000080 b3 92 53 be 37 59 d7 bd 68 2b 9d 3e cd 60 ba bf
       -0.2066143 -0.10515063 0.3069718 -1.4560791
000090 10 c8 53 bf 42 c1 a1 3e 4f bc e9 3d c7 37 e6 bd
       -0.82727146 0.31592757 0.1141287 -0.112411074
0000a0 96 b8 c7 3c 3d a5 1e 3f 04 11 3e bf fb f9 f2 bc
       0.02438001 0.61970884 -0.74244714 -0.029660216
0000b0 8c d5 63 bd c0 3f 81 3d 5c 1b f5 3e e1 98 c2 3d
       -0.055623576 0.063109875 0.47872436 0.095018156
0000c0 a7 40 13 bf b2 91 be 3e 95 43 03 3f b1 f5 07 3f
       -0.57520527 0.37220532 0.51274997 0.5310927
0000d0 3c 2e 87 3e 77 f2 b5 be 1d d0 d1 be 2c 4b 5d bf
       0.26402462 -0.35536548 -0.4097909 -0.8644283
0000e0 82 8f a2 be 82 26 24 bf fd 5c a8 be 76 30 33 be
       -0.31750113 -0.6412126 -0.32883444 -0.17498955
0000f0 51 3c d6 bb 7c 51 4a bf fc 5b 22 bf 76 f2 05 bf
       -0.006537952 -0.79030585 -0.63421607 -0.5232309
000100 48 f5 88 3e 58 de b2 3e 9a e5 3f bf a8 a8 7e 3c
       0.26749635 0.3493526 -0.7495972 0.0155431405
000110 a3 47 4e be fc fa 89 3e 6d 45 4d be 36 d5 8d 3e
       -0.20144515 0.26949298 -0.20046015 0.2770173
000120 dd ef 37 3d 77 49 48 3e f5 b5 47 be 81 e0 12 bd
       0.044906486 0.19559275 -0.19503005 -0.035858635
000130 15 5e 50 bf 9e 9c 96 3d ad 10 e9 3e c2 5e ac be
       -0.8139356 0.07354091 0.45520535 -0.33666044
000140 4b af 06 3e 65 00 f0 3e ff cc 8a bd 46 f1 d3 be
       0.13152806 0.468753 -0.06777381 -0.41395015
000150 1f a1 3a be e8 29 a8 3e 33 7a ba 3c 11 cb 53 bd
       -0.18225525 0.32844472 0.022763347 -0.05170733
000160 4f 2e 11 bc ae b0 12 bd e2 49 0f bd 5b ce 52 be
       -0.0088611385 -0.035813026 -0.03498257 -0.20586531
000170 69 ac 28 bf a2 7d ea be 8a fc b2 3e 68 ab d3 be
       -0.6588808 -0.45798975 0.34958297 -0.4134171
000180 49 4f fe 3e cf 58 54 be 5a 40 83 3c 89 58 ba be
       0.49669865 -0.20737003 0.016021896 -0.36395672
000190 a4 83 7f 3e 8d e4 ee bd a8 d2 73 bf ae 90 1f be
       0.2495256 -0.11664686 -0.9524331 -0.15582535
0001a0 f8 ce be be ab a8 1b bf f0 83 b2 be 2f df 79 3c
       -0.3726728 -0.6080424 -0.34866285 0.015250965
0001b0 7f eb 85 be 96 89 0b bf b9 40 80 3d 3b 32 db 3d
       -0.26156232 -0.54506814 0.06262345 0.1070294
0001c0 1c 13 c0 3e f5 99 81 be 9d 38 02 3f 12 b9 9c 3d
       0.3751458 -0.25312772 0.50867635 0.07652487
0001d0 fc 92 3a be 9c 67 2b 3d 9a 66 cd 3e b7 f8 35 be
       -0.18220133 0.041846856 0.4011734 -0.17770658
0001e0 23 30 b7 bc 18 4d 86 be d4 d0 12 bd 38 7f 7c be
       -0.02236182 -0.26230693 -0.035843685 -0.24657905
0001f0 84 24 33 3e cc bc 6c bc 47 8b a7 3e 3e 34 f7 bd
       0.17494398 -0.01444931 0.32723448 -0.12070511
000200 2b 16 ff 3d 47 e5 27 bd 41 cb 10 3f e2 1e 4c bd
       0.124554 -0.04099014 0.5656014 -0.04983414
000210 a4 a5 10 bf be d3 7f 3e 61 9d eb bd 57 e4 96 3e
       -0.5650275 0.24983117 -0.11504627 0.29471084
000220 2e d8 4d be c9 a5 4a bd 72 fc 23 be 4b 10 39 3e
       -0.20101997 -0.04947451 -0.16014269 0.18072622
000230 16 ab 11 be b5 a4 94 3e 3a 86 d1 be 57 a4 10 bf
       -0.1422542 0.29031911 -0.4092272 -0.5650076
000240 a1 30 4b be 22 9c 91 be 92 6f 22 bf 98 16 9a 3d
       -0.19842769 -0.28439432 -0.6345149 0.07523841
000250 41 a1 01 3c 94 dc de be c5 35 33 3e 60 c6 a5 3e
       0.007911981 -0.43527663 0.1750098 0.3237791
000260 b4 b1 c1 bc de a4 01 bf 3f 9a 3c 3e f8 2e 6c 3e
       -0.023644306 -0.5064219 0.18418215 0.23064792
000270 f0 a9 de be 59 67 85 be ac 47 10 3e ac 2f be bd
       -0.43489027 -0.2605541 0.1408984 -0.092864364
000280 8a e5 99 be 5a 5a a6 3e ed 1f fe be 26 d9 0c bf
       -0.30057937 0.32490808 -0.49633732 -0.5501884
000290 98 9d 45 bf 03 f3 ed 3e 35 81 14 bf 53 80 f1 3e
       -0.77193594 0.46474466 -0.58009654 0.47168216
0002a0 66 9e 82 bf bf 5c 73 3e 4c f1 b9 3e 51 84 cf bd
       -1.0204589 0.23765849 0.36316907 -0.10132659
0002b0 8b 0a a3 be fb fd 5d 3e 08 3d d2 3e 00 f1 22 be
       -0.3184398 0.21678917 0.41062188 -0.15912247
0002c0 e1 d4 d2 3d 9d 4e ea 3e 1e d4 d1 bd e3 5c 2a be
       0.1029451 0.45763102 -0.10245536 -0.16636996
0002d0 0c 81 54 be cd e5 a4 be 60 53 b2 3e cb 7c 88 3c
       -0.20752352 -0.32206574 0.34829235 0.016661068
0002e0 4e 27 c9 3b b7 bd bc be 41 e4 09 bf 22 3c 09 bf
       0.0061387187 -0.3686349 -0.5386391 -0.5360738
0002f0 0a 8b cb 3c 70 28 0b 3e 7a d2 33 be f3 ab 16 3d
       0.024846572 0.13589644 -0.17560759 0.036785077
000300 6a 12 ae be 56 c8 1e bf 4b 1f cd 3d 6c 2d 0d bd
       -0.33998424 -0.6202444 0.10015734 -0.034467146
000310 02 58 9a 3e 9e e0 78 3e 60 ab 93 be 1b a9 d2 3b
       0.3014527 0.24304435 -0.28841686 0.0064288503
000320 1c 2b 31 3d 0a cb b2 bc 16 4b d0 be cb 60 b5 be
       0.043254003 -0.021825332 -0.40682286 -0.3542541
000330 74 be 7d bd 3d f4 87 bd 4a f3 5f 3c c9 38 7d 3e
       -0.06194921 -0.06638382 0.0136688445 0.24728693
000340 fd 64 0d bf 59 d2 0c 3e 79 31 fd 3e 1c 74 09 bf
       -0.5523222 0.13752116 0.49451807 -0.53692794
000350 ec b6 93 be a9 1d 1b bf d7 1b ad 3d 48 f0 0d 3f
       -0.28850496 -0.6059213 0.08452576 0.55444765
000360 73 03 80 3c 54 ed 29 be a0 a0 e9 be 7c a7 60 bf
       0.015626645 -0.1659444 -0.4563036 -0.8775556
000370 de 24 ac 3d a8 cb 5a 3e 5a a0 27 3a 47 a4 81 be
       0.08405469 0.21366751 0.00063944387 -0.25320646
000380 00 7d 82 3e db a8 c6 be a5 a1 da 3e c8 f3 a2 3d
       0.25485992 -0.38800701 0.4270145 0.07956654
000390 71 88 ac bd fc a0 c7 3d 45 57 dc 3e 13 19 62 bf
       -0.08424462 0.09747502 0.4303533 -0.8831951
0003a0 5b 5c 19 bd 30 38 d5 3d ea 5d d4 bc 44 a1 d4 be
       -0.037441593 0.104111075 -0.025923688 -0.41529286
0003b0 23 6a bc 3e 0e 20 7d 3c d0 03 b6 be 03 39 82 3d
       0.36799726 0.015449537 -0.35549784 0.0635853
0003c0 c1 76 b3 3e 60 2e 01 3d 5c b7 06 3e b7 2f b1 3e
       0.3505154 0.031538367 0.13155884 0.34606716
0003d0 78 5f f0 be 29 4a 65 be a5 2e 5b 3e ff 3a 7d 3e
       -0.46947837 -0.22391571 0.21404512 0.24729536
0003e0 58 03 af be 70 b3 47 bf 88 bf 4c 3e 39 36 90 3e
       -0.3418224 -0.78008175 0.19994938 0.2816637
0003f0 7c 91 2e bf 8b dd 06 be aa 9f 8c 3d 52 26 5e be
       -0.6819074 -0.1317045 0.06866391 -0.21694306

critic1.2.bias f4 [64]
000000 ab 06 36 be bb f8 cf 3e 64 23 e9 3d 56 50 5c 3e
       -0.17775981 0.40619454 0.11383703 0.2151502
000010 6d 7e ed 3e ce f8 20 bc b9 4d 15 3f b4 ac 2c 3f
       0.46385518 -0.009824945 0.5832172 0.67451024
000020 7d 65 e5 be 53 72 4e 3e 1d 13 f1 bd c7 76 9e 3e
       -0.44803992 0.20160799 -0.11771224 0.30949995
000030 ed cf ba 3e b8 a6 8e 3e 3b 50 ae 3e c2 1a 36 3d
       0.3648676 0.2786157 0.34045586 0.044459112
000040 4f 20 ee 3e 83 36 24 bd 24 9a bf 3e 78 2c d4 3d
       0.46509025 -0.04009105 0.37422287 0.10360044
000050 28 17 29 be 5d da 10 3e 4b ce f9 bb a8 88 bf 3e
       -0.1651274 0.14145799 -0.007623469 0.37408948
000060 bf 0e b1 3e c1 72 0b 3e 53 6d ec 3e 1e 25 41 bd
       0.34581563 0.13617994 0.46177158 -0.04715454
000070 0a 47 01 3f 79 da 0b 3e 05 2f 49 be 03 61 74 3e
       0.5049902 0.1365756 -0.19646843 0.23865132
000080 5e de 00 3e d0 13 88 3e 7b e3 22 3c de 3b 57 3e
       0.12584826 0.26577616 0.009941931 0.21018931
000090 1c 9a 85 3e c2 94 8c 3e 48 80 9e be a6 28 da 3e
       0.2609414 0.27457243 -0.30957246 0.42609137
0000a0 94 7e 61 3e b1 1e 5f bd e8 6f da 3e fb ca c1 3d
       0.22020942 -0.05447263 0.42663503 0.094625436
0000b0 20 5a 9a 3e 0d 94 07 be bf 00 89 3d a4 c8 b5 be
       0.30146885 -0.1324007 0.066895954 -0.3550464
0000c0 1c 68 1b 3e 16 b3 ee 3d 0f 3a 0b 3e 2c 26 15 3f
       0.15176433 0.11655252 0.13596366 0.5826137
0000d0 11 a0 5c 3e 71 b9 18 3e 9c eb aa bb d6 81 cf bd
       0.21545435 0.1491449 -0.005216075 -0.10132186
0000e0 92 3f 19 bb 35 e5 14 3e a5 98 df 3d 39 87 c9 3d
       -0.0023383838 0.1454056 0.109177865 0.09840245
0000f0 e3 15 dc 3d 94 22 13 bf ae 9a d7 3e 05 e9 02 be
       0.10746362 -0.5747464 0.421102 -0.12784202

critic1.4.weight f4 [64, 64]
000000 91 5e 84 3e 8e 82 1f bf 6a fe 3e 3e 38 52 b0 3e
       0.25853398 -0.62308586 0.18651739 0.34437728
000010 7d 62 77 3e 19 da 00 3e cd 7b 40 bf db 64 f0 3c
       0.24158664 0.12583198 -0.75188905 0.029344967
000020 13 22 d6 bb 60 cb e9 3e 7c 52 0a bf d0 a1 91 be
       -0.0065348237 0.45662975 -0.5403211 -0.28443766
000030 ed 9b 0d bf 64 14 0c 3e 43 ec b3 bc 9b 64 93 3e
       -0.5531605 0.13679653 -0.021963244 0.28787693
000040 15 a4 b9 3c 37 17 04 3e cc b7 93 3d 95 fc 1f 3d
       0.022661248 0.12899481 0.07212791 0.03905924
000050 8c 2c 8e 3c ed 85 97 3c 25 50 89 3d e5 66 08 bd
       0.017355226 0.018496478 0.067047395 -0.033301253
000060 84 87 91 3b e0 77 2a be 3b 60 84 3e 5e 6c 55 bf
       0.0044412035 -0.16647291 0.25854668 -0.8336848
000070 85 b2 30 3e c0 b6 1b 3e b9 c8 2a bf c2 1d 4a be
       0.172556 0.15206432 -0.6671253 -0.19737914
000080 69 3d 6b 3e 97 fc 07 3f d1 35 af be 50 25 92 3d
       0.22972645 0.53119797 -0.34220746 0.07136023
000090 de b5 45 3d 0e 01 1a be 0f d0 91 3d cf 65 25 be
       0.048269145 -0.15039465 0.07119762 -0.16152118
0000a0 88 8e a0 be f2 b1 3b 3e 82 b4 68 3d 83 e3 35 3e
       -0.31358743 0.183296 0.05681277 0.1776257
0000b0 e1 e0 0f bf f0 64 ce bc f0 a4 bd 3d 8e 77 90 bd
       -0.5620251 -0.025194615 0.09259975 -0.07054053
0000c0 db 7a 98 3d 21 74 61 be 1d d5 3f 3d a3 1d 18 be
       0.07445308 -0.22016956 0.0468341 -0.14855056
0000d0 6f 7a 01 3d ba bc 54 be 94 b2 dd bc 18 f8 b8 be
       0.031610902 -0.20775118 -0.027062692 -0.3612678
0000e0 50 2f b0 3d 98 3d 54 bf 64 f7 1b bf 36 59 7b be
       0.08602774 -0.82906485 -0.60924363 -0.2454575
0000f0 55 fe 55 be e4 be 91 3e 2e 75 db bd 68 39 81 bd
       -0.20897801 0.2846595 -0.107157096 -0.063097775
000100 c5 7b ca be 27 50 3d 3e 73 a0 69 be 8d 22 f9 3e
       -0.39547554 0.18487607 -0.22815113 0.48659173
000110 3b 19 36 3e d8 4d a3 be 4a 83 d7 3d bc d8 01 3e
       0.17783062 -0.31895328 0.10523088 0.12680334
000120 44 f7 5b 3d 8c 33 11 be d8 4f 27 3e 8a 03 5b 3e
       0.053702608 -0.1417982 0.16339052 0.21388069
000130 ad 5e a9 be 5a 78 1d bd 59 6d 62 be d6 90 11 be
       -0.33080044 -0.038444854 -0.22112025 -0.14215407
000140 a3 c1 1d 3d c9 73 25 3e 80 9b 94 be 24 07 bb 3d
       0.038514744 0.1615745 -0.29024887 0.09132221
000150 1f 1d a9 be c5 b6 c2 be b4 d8 2e 3d 00 bd 64 3e
       -0.3303003 -0.38030067 0.042687133 0.22337723
000160 db 0e fa be ca c4 ba 3d 5e d4 dc 3e 3f 2c 75 be
       -0.4883946 0.09119566 0.43130773 -0.2394266
000170 5e 4d 85 be 8b ec e3 be 9d f3 22 bd c9 53 5f 3d
       -0.2603559 -0.44516405 -0.03978311 0.054523263
000180 d1 dd 43 3e 47 1d 9a be 1b c7 b4 be df 06 18 be
       0.19127585 -0.30100462 -0.35308155 -0.14846371
000190 c7 c7 10 3f 51 ef 4b be 62 eb 1c bd 28 1c b5 be
       0.56554836 -0.1991551 -0.038310416 -0.35373044
0001a0 74 fa b3 3e b5 30 a6 be b9 c4 e6 bd cb 02 15 3e
       0.35152018 -0.32459036 -0.112679906 0.14551847
0001b0 b6 5f b8 be 6c 14 9b 3a ca a3 da 3d 6d d5 56 3e
       -0.36010522 0.0011831648 0.106757715 0.20979853
0001c0 3d 2e b9 3d 6b 46 ab 3e 1e b8 cc 3d 46 dd 7c be
       0.090420224 0.33452162 0.09996055 -0.24693784
0001d0 3e 73 25 3e c9 54 78 be 55 9b 05 bd 47 ed 2d 3c
       0.16157243 -0.24251093 -0.03261884 0.010615653
0001e0 f6 3c a4 bd fe c9 a7 3e 2d 56 ff 3d 8b 1c aa 3c
       -0.0801944 0.32771295 0.124676086 0.020765563
0001f0 48 48 05 3e 2c a4 64 bc 17 33 fd bc 79 74 b5 bd
       0.13015854 -0.013955157 -0.03090815 -0.08860106
000200 fa bc 32 bf 0b 88 5b be 08 9b dd bd a8 2b 1d bf
       -0.69819605 -0.21438615 -0.108205855 -0.6139474
000210 f9 e9 4d 3e 05 5c 4e 3c c0 c9 b1 be 47 f0 bc bd
       0.20108785 0.012595181 -0.34724236 -0.09225517
000220 ef b6 86 bf b2 dc 85 bf 7c a9 4d bf 12 c5 bc be
       -1.0524577 -1.0457976 -0.8033674 -0.36869103
000230 bf f3 d3 3e 22 36 81 bf bd ae 02 3e 8a b9 bc bd
       0.413969 -1.0094645 0.1276197 -0.09215076
000240 10 81 cd be 4b 8e cf be 2d 20 0e 3f 89 cf 5c bf
       -0.4013753 -0.40538248 0.55517846 -0.86254174
000250 b9 ae 63 bf d5 f0 c1 3e 79 1b 59 3d d9 92 77 3f
       -0.8893848 0.37879053 0.053004716 0.96708447
000260 c6 81 f3 3d e4 e3 b4 3e 29 1d d9 be 47 3b f5 3c
       0.11889987 0.35330117 -0.4240506 0.029935492
000270 f7 0f 97 be 9a 00 c2 3e 57 3e 22 be b6 dd d5 3e
       -0.29504368 0.37891084 -0.15844093 0.41770715
000280 47 7c 8e 3d 72 7a 50 3d 6e 84 57 3f 21 61 98 3e
       0.06957298 0.050898023 0.84186447 0.29761603
000290 b7 a6 33 3e 1e ab d3 be d1 1e 7d be 70 e3 23 bd
       0.17544065 -0.4134149 -0.24718787 -0.040011823
0002a0 9a 2a 88 bf 42 09 c1 bc 37 16 55 3e f8 8a 94 3e
       -1.0638001 -0.023563985 0.20809256 0.29012275
0002b0 2c 09 10 3f 2a a9 d2 be 6a a6 1d 3d 5e 48 4a bf
       0.56263995 -0.41144687 0.038488783 -0.79016674
0002c0 40 1e 5a 3e 84 28 07 bf 35 e2 0c 3f d9 30 2b 3e
       0.21300602 -0.52796197 0.55032665 0.16717853
0002d0 fc 6f dc be aa 0c be bf b1 aa 53 be 16 33 a2 be
       -0.43054187 -1.4847615 -0.20670582 -0.316796
0002e0 37 22 2d bf c9 dc 0f be ed 3e 8a bf 64 c3 ad bf
       -0.6763033 -0.14049067 -1.0800453 -1.3575253
0002f0 f2 47 e5 3e 32 5a b9 be 33 38 ed bd 04 05 41 3e
       0.44781452 -0.36201626 -0.11582985 0.1884957
000300 0f 6d 33 bd 3c 0b 8b be 01 d2 3f bf ac bf 7e 3e
       -0.04380518 -0.2715701 -0.74929816 0.24877805
000310 f5 0b 9e bd 60 a2 3d be 67 ac 8f be 42 09 67 3d
       -0.077171244 -0.18518972 -0.2806122 0.056405313
000320 a5 bb d9 be 48 2c 24 be e5 dd 2f 3e 3d 56 2c bd
       -0.42525974 -0.16032517 0.1717449 -0.04207443
000330 0d bf 50 3e a4 8d 77 bd 58 5b 2b 3e b6 ad 8b be
       0.2038538 -0.060437813 0.16734064 -0.27280968
000340 62 e0 2e 3e 8c ba ae 3c f6 1f 08 3e 9a ee b0 3e
       0.17077783 0.021329187 0.13293442 0.3455704
000350 ef 2c c2 be c4 8c 1f be 3e 0a 8b be 3e dc 59 3e
       -0.37924907 -0.15581042 -0.27156252 0.21275422
000360 51 ef 09 bf c5 8e 1d bf c7 21 b2 3d 27 6c ab 3e
       -0.5388079 -0.61545974 0.08697849 0.3348095
000370 d6 89 6f 3e 26 df 0d bf a7 ea 89 be 83 db cc 3e
       0.23392424 -0.5541862 -0.26936838 0.40011224
000380 d8 fd aa be 6f 1f 4b be 44 14 32 3d 7d f2 f2 be
       -0.33396792 -0.1983621 0.043476358 -0.4745063
000390 40 fa b2 bd ee 53 a7 be 6d 9d 49 3e 56 7a 8a bd
       -0.08739138 -0.3268122 0.1968896 -0.06761615
0003a0 52 6f 0c c0 4a 24 c2 be b6 b9 fe be ac b5 9b 3e
       -2.1942945 -0.3791831 -0.4975106 0.30412042
0003b0 0d 03 b7 3d 67 d2 65 be f4 58 a5 be 63 ec 90 3c
       0.08936129 -0.22443543 -0.32294428 0.017690843
0003c0 38 c8 ed 3d 23 bb 43 be 35 cb f8 3b 28 10 42 bf
       0.11610454 -0.19114356 0.0075925835 -0.758059
0003d0 54 90 59 3e 7e 09 80 3e 80 54 81 be 70 1e 0d bf
       0.21246463 0.25007242 -0.2525978 -0.5512457
0003e0 5e b7 eb 3d 4d e1 9b be ad 6a 4b 3e 73 cf f0 3e
       0.11509584 -0.30445328 0.19864912 0.4703327
0003f0 e2 05 fe 3d d2 8b 64 3a 74 a0 d4 3e 46 66 a9 3c
       0.12403466 0.00087183446 0.41528666 0.02067865

critic1.4.bias f4 [64]
000000 e7 34 ba 3e 70 4a ab bc b0 b7 b0 3e fc fc 6e 3f
       0.36368486 -0.020909518 0.34515142 0.93354774
000010 43 f9 7f 3e 38 cd 03 3f 05 8a c9 3e 80 c9 80 3c
       0.2499743 0.51485014 0.39363113 0.015721083
000020 d8 08 43 3d fb 9e 03 3f 6c 49 1b bb c1 47 9e 3e
       0.047615856 0.5141446 -0.0023694886 0.3091412
000030 37 b4 5c 3e 3b ae 88 3c db c7 1d bd 17 52 84 bd
       0.21553122 0.016684642 -0.038520675 -0.0646097
000040 2e 31 75 be 07 44 b5 3e 03 37 ad 3d 35 e3 18 3f
       -0.23944542 0.35403463 0.08457758 0.5972169
000050 2e c4 c5 3e 8f 29 15 3f d7 e3 ba 3d 7b e7 25 3f
       0.38626236 0.5826654 0.09125488 0.64806336
000060 6d 15 bb be ab a0 bb 3e 12 bd c4 3e 28 f6 80 3e
       -0.36539784 0.36646017 0.384255 0.25187802
000070 56 9b 6c 3e 5b ee 45 bd cd a8 32 3d 7f d9 5a be
       0.23106131 -0.048323017 0.043618012 -0.2137203
000080 4a 56 bb 3e 46 ac b3 bc 17 55 39 3e cb e6 43 be
       0.3658927 -0.021932732 0.18098865 -0.1913101
000090 93 38 28 3f bc 97 89 3e 1f 52 79 3e e1 26 ad 3e
       0.65711325 0.26873577 0.24347733 0.33818725
0000a0 ac f8 a9 3d 38 d0 12 be f4 18 27 3e fe a3 fe be
       0.082993835 -0.14337242 0.16318113 -0.4973449
0000b0 22 11 c4 3e e9 4c 79 3e 3e c6 8c 3e 5e c8 4d 3e
       0.3829432 0.24345745 0.27494997 0.20095965
0000c0 7c 30 92 3e 96 cf cc be 1c 7a 66 bd f4 0c 24 3e
       0.28552616 -0.40002126 -0.056268796 0.16020566
0000d0 42 c9 b3 3d 3d 68 8f bd 1c 25 a4 be 97 0a de 3d
       0.08778621 -0.07002304 -0.32059562 0.108418636
0000e0 42 3c f2 3d d4 88 21 3f 11 a9 81 3e 9e e3 6c 3e
       0.118278995 0.6309941 0.253243 0.23133704
0000f0 ac 08 99 3e 63 4f 03 3f 22 5d 87 3c 66 76 0e 3e
       0.2988943 0.5129301 0.016523901 0.13912353

critic1.6.weight f4 [1, 64]
000000 9f f9 2b be d7 81 7a be 6c 72 6f 3f d2 6a 16 be
       -0.16794442 -0.24463592 0.9353397 -0.14689186
000010 42 3b 80 3f 71 e0 20 be 91 7c bc bd d4 5c 39 3e
       1.0018084 -0.15710618 -0.09203447 0.18101817
000020 20 ff 8b bf d2 52 c8 bd ca 1f fe 3e 87 e1 e3 bd
       -1.0937233 -0.09781422 0.49633628 -0.11127
000030 3e c7 77 3f 72 ef d4 be 39 2b ca 3f e6 a4 a9 3e
       0.96788394 -0.41588932 1.579444 0.3313362
000040 78 80 fc 3d 89 6a 51 3f 44 f0 9d 3f f2 d5 8e 3f
       0.12329191 0.81803185 1.2338948 1.1159041
000050 4d 4c f6 bd 8a 5d 21 be 3a 1b 15 3e 98 f7 0e be
       -0.12026272 -0.15758339 0.14561167 -0.13961637
000060 b4 62 97 3e c9 9b 8f 3f ab 51 97 be 3d a1 f8 3e
       0.29567492 1.1219417 -0.29554495 0.48560515
000070 6f 3e bc 3e 62 9e b0 3f 14 dc 7d 3f 7f cc 39 bf
       0.36766383 1.3798335 0.9916394 -0.7257766
000080 2d c9 03 be f8 3a e1 be 70 c0 fd be b9 63 da 3e
       -0.12869711 -0.43990302 -0.4956088 0.42654207
000090 69 8b 0c be 5b a7 80 3f 6f 33 8e be ce 2b 1f bf
       -0.13725056 1.0051073 -0.27773616 -0.62176216
0000a0 ce de 8b 3e f9 15 f6 be 5b 38 19 be da cd b5 3f
       0.27318424 -0.4806364 -0.14962904 1.4203446
0000b0 66 1c c7 3f ca b0 d6 3f 3c 27 b2 3e 9b e6 53 bf
       1.5555542 1.6772702 0.34795558 -0.8277375
0000c0 a1 7c 7f 3f 6e c5 8f 3e 0e dc 36 3f be 18 0d 3f
       0.99799544 0.28080314 0.71429527 0.5511588
0000d0 36 c8 08 3f 7e 90 47 3e 2a 06 f1 be 8f 4d 52 bf
       0.534305 0.19488713 -0.47075015 -0.82149595
0000e0 6b 90 ae be 82 27 19 be 32 c9 36 3e f3 eb 6d 3f
       -0.34094557 -0.14956477 0.17850187 0.92938155
0000f0 79 08 1e 3f c9 bf aa be c8 39 39 be 8d 0a 8a 3f
       0.6173168 -0.33349445 -0.18088448 1.078447

critic2.0.weight f4 [64, 82]
000000 d6 87 13 3f 27 a2 50 be cf f1 28 3f 71 1e 18 3e
       0.57629144 -0.20374356 0.6599397 0.14855362
000010 ed ac 51 be 4b 51 4f be 39 f6 51 be a8 ce c6 3d
       -0.20476122 -0.20245855 -0.20504083 0.09707385
000020 e3 90 8b be 21 b5 a8 3c 83 ac 22 3e 89 e0 a5 3d
       -0.27258977 0.020594181 0.1588612 0.08099467
000030 66 71 53 bf fb 8c 82 be 0a a6 ca be d4 47 c6 bd
       -0.8259491 -0.25498185 -0.39579803 -0.09681669
000040 2d f6 e3 be 05 4f 0c 3f 68 b0 66 3e a7 81 be 3d
       -0.44523755 0.54808074 0.22528231 0.09302073
000050 b4 07 75 3e 97 77 b8 bd d9 8a 4a 3d a3 e3 51 3c
       0.2392872 -0.09007185 0.04944882 0.0128106205
000060 2f c5 da 3d ed fc 44 bd c9 cc 43 3e 6e 87 84 bd
       0.10682141 -0.04809277 0.19121088 -0.06471144
000070 9b 3d 7a 3d 27 6c f6 bd de f9 6d be 74 d4 af bd
       0.061093908 -0.12032347 -0.23239848 -0.08585444
000080 68 5c ad 3d 98 8a 3b be 10 fa b8 3e e0 8e 34 3e
       0.08464891 -0.18314588 0.36128283 0.17632627
000090 69 59 5d be de 5b a3 be 27 aa dc be 52 b7 46 3e
       -0.21616139 -0.31906027 -0.43098566 0.19405869
0000a0 f1 61 1d be 0e 1d 58 3d da 4e a6 bd 35 88 b2 3d
       -0.15369393 0.052762084 -0.081205085 0.08717386
0000b0 2f 9b 3c bf 5e d4 b7 bc 81 4a ea be b0 9b 04 3d
       -0.7367429 -0.022440132 -0.45759967 0.032375038
0000c0 4f e5 6a be b4 11 16 3e b3 bd 80 be 16 3b ae bd
       -0.22939037 0.1465519 -0.2514473 -0.085073635
0000d0 11 21 df 3e fe 35 39 be 51 e5 68 3e 0c 4f cf 3e
       0.43579915 -0.18087003 0.22743727 0.40489995
0000e0 ee f4 17 3f 0d 5d 80 3d 36 41 1f 3e b3 fe fc bd
       0.5935811 0.06267748 0.1555222 -0.123532675
0000f0 5d a6 3b 3f d2 6f 90 3e 95 cb 0b 3e 1c 0a 0f be
       0.73300725 0.28210312 0.13651879 -0.139687
000100 6f 86 d1 bd 08 d6 f3 be cd 16 e2 3d 0f dc 34 be
       -0.10230719 -0.4762423 0.11039505 -0.1766207
000110 95 bb 80 bd f0 e5 88 3d 9a ee 3c bd 93 40 02 bd
       -0.062857784 0.06684482 -0.046125986 -0.031799864
000120 c7 6f 02 bc 5b 04 47 3e 6f 5e 09 be e4 22 e8 3d
       -0.00796122 0.19435255 -0.1341493 0.1133478
000130 24 7e 87 3e 8b 01 22 be ed fa d5 be b1 60 10 3f
       0.26463425 -0.15820901 -0.41793004 0.5639754
000140 08 58 aa bd 8b 77 54 be fd bc 13 bf 39 b8 95 be
       -0.08317572 -0.20748727 -0.5771025 -0.29242113
000150 61 7c 5d be cc 31 f5 bd af 7d f8 3d 20 d5 09 be
       -0.21629478 -0.119723886 0.12133347 -0.13460207
000160 ee e0 ad be ed 87 6d 3e b4 5a 9f bd ce 4e b2 be
       -0.3396067 0.23196383 -0.07780972 -0.34825748
000170 6c 10 36 bd fc 7c c8 bb 50 b4 f7 bc b0 a4 1d be
       -0.044449255 -0.006118415 -0.030237347 -0.15394855
000180 a1 66 22 bd 85 9c 12 3d 31 7b 71 3e fc cd 70 be
       -0.039648656 0.0357938 0.2358215 -0.23516077
000190 28 9c e8 bd ef e2 c4 be eb e9 88 3e 36 ec 86 bd
       -0.113579094 -0.38454387 0.26740965 -0.065880224
0001a0 ba e2 81 be 5e e6 c0 3e ed d4 ab 3b d0 ec 3d 3e
       -0.2536829 0.37675756 0.0052438886 0.18547368
0001b0 cb b1 a0 3d 7b 5d 43 3d ef e4 b8 3d c4 65 49 3c
       0.07846411 0.04769657 0.090280406 0.012292329
0001c0 31 f9 ad 3e ab 70 49 3e a1 4a 85 bd ca 59 f3 be
       0.3397918 0.19671886 -0.06508375 -0.4752944
0001d0 9e c2 72 be f0 a5 93 be 22 ca ef 3d 77 4e db bb
       -0.23707053 -0.28837538 0.11708476 -0.0066927033
0001e0 7f 80 d4 be ae 62 db 3e e7 8b 28 be 9f 23 8f 3d
       -0.41504285 0.42848724 -0.16459619 0.06989216
0001f0 96 c3 31 be 06 b6 09 be d9 59 68 3e b8 7c b2 bd
       -0.17359766 -0.13448343 0.22690524 -0.087151945
000200 59 39 11 3e 39 a7 81 3e 64 c1 9c bb 40 37 4b 3e
       0.14182033 0.25322893 -0.004783796 0.19845295
000210 88 d1 11 3e 3d 13 18 bf 36 30 81 bd 17 d5 01 3e
       0.14240086 -0.59404355 -0.06308024 0.12678944
000220 b5 2d a3 be 95 8d 0b 3f f0 33 32 be 1a b7 8e 3e
       -0.3187081 0.5451291 -0.17402625 0.2787407
000230 67 20 01 be 1f 61 8c be 72 21 ca bd d5 ed b3 3d
       -0.12610017 -0.27417848 -0.098696604 0.08785597
000240 77 b2 2c 3e 77 49 bb 3d d3 46 71 3c 36 81 6c bc
       0.16864954 0.09144872 0.0147263585 -0.014435103
000250 9d a0 6a 3e 06 84 37 3e 85 39 17 be 9c e8 d0 be
       0.22912832 0.17921457 -0.14768036 -0.40802467
000260 36 57 57 bd e3 06 02 bc 06 f9 49 3e 9a 80 83 3d
       -0.052573405 -0.007936212 0.19723901 0.06421013
000270 84 4b df be bd 31 cb be 4a cc 4b be 07 0b a0 3e
       -0.436123 -0.39686385 -0.19902149 0.31258413
000280 89 4a df bd 8a 86 b2 be b9 c1 1f be 72 47 13 be
       -0.10902888 -0.3486827 -0.15601243 -0.14382723
000290 5c 88 8e be fa ba 16 be 2b c0 37 3f dc 04 13 bb
       -0.2783841 -0.14719763 0.717776 -0.0022433316
0002a0 5f 2e 3d bf 43 84 d1 3e f2 68 3c bf c3 80 8c be
       -0.7389888 0.4092122 -0.73597634 -0.27441987
0002b0 96 b7 04 bf a6 ba a4 3e 25 26 8d be 7b 6b 75 3e
       -0.5184263 0.3217365 -0.27568164 0.23966782
0002c0 9d cd 60 be 04 7b be 3d d1 0f 34 3e 73 96 78 3d
       -0.21953435 0.09300807 0.17584158 0.060690355
0002d0 65 ed c6 be d5 1c 0b bf 34 ec 24 bd 4b 54 02 3d
       -0.38852993 -0.5434087 -0.040264323 0.03181867
0002e0 bf c4 3d bd 06 9e 9a 3d 74 f0 b8 be 07 f2 4e be
       -0.04633021 0.07549672 -0.3612095 -0.20209514
0002f0 86 3d 0d 3f 7b 15 01 bf b0 d7 3d be ce 58 79 3d
       0.55172 -0.504234 -0.1853931 0.060875706
000300 78 fe 8a bc b6 7f 10 be 56 13 77 3e 06 5d 08 3e
       -0.016967043 -0.14111218 0.2412847 0.13316736
000310 8a 83 5c be 9d 22 48 3e 87 a5 44 bd 42 31 29 3e
       -0.21534553 0.19544454 -0.04800942 0.16522697
000320 63 2c 04 3e b0 23 b1 3e 28 48 c8 bd 27 54 07 bf
       0.12907557 0.3459754 -0.09779388 -0.5286278
000330 c2 8e 63 3e cf 56 86 bd 46 ec fd bd 37 66 f8 ba
       0.22222427 -0.06559526 -0.12398581 -0.0018951361
000340 1d d8 6f 3e cd 3b b5 3d ba 22 c5 3e 9f f8 e9 bc
       0.23422284 0.08849297 0.38503057 -0.028560935
000350 72 ed b8 3d fe bb 88 3c 1d b2 05 3e 39 a5 ba 3e
       0.09029664 0.016691204 0.13056226 0.3645418
000360 c2 e0 94 be f8 4b 82 3e 2f b0 aa be 4a e9 be be
       -0.29077727 0.25448585 -0.33337542 -0.3728736
000370 4c bb 64 3e 45 80 c2 bd 15 15 28 be b8 90 82 3e
       0.22337073 -0.09497122 -0.16414292 0.25501037
000380 4e 32 b2 be ac 57 7e 3d c3 08 29 be e4 c8 03 3f
       -0.34804004 0.06209533 -0.16507249 0.5147841
000390 0e 2d 47 3e 2d 7f 8a 3e 81 41 3e 3e d6 4d 32 3e
       0.19450781 0.27050152 0.18579675 0.17412505
0003a0 b1 8a d0 be 53 e6 92 3e 53 64 7f bd 04 4e 3b be
       -0.40730813 0.28691348 -0.062351536 -0.1829148
0003b0 63 8b 93 be 8e df b7 bd f0 7d e5 bd 1d fd 3d bd
       -0.2881728 -0.089781865 -0.11205661 -0.046383966
0003c0 a8 9c a3 bc fb c7 24 bd cd a2 01 3d 49 6f 16 3e
       -0.01997216 -0.04022978 0.0316494 0.1469089
0003d0 5a f2 b7 3c 84 48 95 be e9 d0 dc 3e bf 03 f7 3d
       0.02245443 -0.29156888 0.43128136 0.120612614
0003e0 bf 58 62 be b4 05 e6 bd fe 11 80 be 62 bb 2a bc
       -0.22104166 -0.112315565 -0.25013727 -0.010420652
0003f0 35 98 02 3f 3d 2f fb bd a9 05 1b bd a7 06 c0 bd
       0.510135 -0.12264869 -0.037847195 -0.09376269

critic2.0.bias f4 [64]
000000 8c 42 8a bd 8b 42 7f 3e e7 91 a0 bd 49 4f 0c be
       -0.06750974 0.24927728 -0.07840329 -0.1370212
000010 5a 80 11 bd 1d 17 88 bd b3 08 5c be f8 44 a3 bd
       -0.035522796 -0.066450335 -0.21487693 -0.07972139
000020 ef 29 53 3e 68 d5 ce 3e c2 f5 9a 3e 7e b8 de bd
       0.20621465 0.4039719 0.30265623 -0.10875033
000030 32 41 d1 3e d5 6f a0 bd a7 78 7f bd 10 5f 9a be
       0.40870053 -0.0783383 -0.062370922 -0.30150652
000040 df 70 e5 bd 70 48 bf 3c 4a ce 3e 3e b3 ad 4d be
       -0.11203169 0.02334997 0.1863338 -0.20085792
000050 0e 32 67 3c 29 b1 d9 bd 9a 02 ca 3e 47 76 bf bc
       0.014111055 -0.10629494 0.3945511 -0.023371829
000060 d4 fc 3e 3d dd fb 0d bd 64 59 39 be 15 43 6f 3e
       0.046627834 -0.034664024 -0.18100506 0.23365434
000070 4c 75 49 3e f8 5e cc 3d 62 fe 41 be c7 b9 e8 3e
       0.19673651 0.09979051 -0.18944696 0.45454237
000080 4c 41 a4 be 41 7c 19 3e f5 57 28 be 06 e7 99 bc
       -0.32081068 0.14988805 -0.16439803 -0.018786918
000090 7d 73 b9 bc c7 6a ca bc 03 53 93 be 8e b4 2e be
       -0.022638077 -0.024709119 -0.2877427 -0.17061064
0000a0 09 cb ba be b9 64 07 be d1 78 ee 3e 63 24 99 be
       -0.3648303 -0.13222016 0.4657655 -0.29910573
0000b0 fb d0 8f 3e 06 7e d8 be ed 34 16 3e d1 c2 43 3e
       0.28089127 -0.42283648 0.14668627 0.19117285
0000c0 ce 4e 84 3d 34 1d 26 3e 6b f5 72 3e 14 b8 4d be
       0.06460343 0.16222078 0.23726432 -0.20089751
0000d0 f5 33 f2 be 1a 50 35 be c8 b1 54 bd 7c b8 36 be
       -0.47305265 -0.17706338 -0.051927358 -0.17843813
0000e0 0f e4 08 be 1e a7 d0 be 46 31 fe bb aa 5f b3 3d
       -0.13368247 -0.407525 -0.0077573387 0.08758481
0000f0 11 b1 1e bd c4 4f 04 bd 51 f2 15 be 7e 2c 92 be
       -0.038743082 -0.032302633 -0.14643218 -0.2854957

critic2.2.weight f4 [64, 64]
000000 ff 04 59 3e b0 aa 61 3e dd ca ff 3c 71 17 5f 3d
       0.21193312 0.22037768 0.031224662 0.054465715
000010 19 29 4f 3e cd 5a 64 3d 8c 11 b9 3e f5 6a d5 3e
       0.20230521 0.055750657 0.361462 0.41683164
000020 5f 5d 2d bd 24 83 d0 be 02 3f 95 bd b1 37 86 3d
       -0.042325374 -0.40725052 -0.072874084 0.06553591
000030 51 7b b0 3e e5 be b4 bd 73 e5 42 be c3 bf 99 be
       0.34469083 -0.08825473 -0.1903284 -0.30029115
000040 cc 74 41 be 7b 71 46 be 44 f7 1b bf 07 c2 b3 bd
       -0.1889221 -0.19379227 -0.6092417 -0.08777242
000050 1d 3a c8 3d dc 4a 6e 3e b1 a4 a0 3e eb c0 3c bc
       0.09776709 0.23270744 0.3137565 -0.011520605
000060 f4 51 09 3d 6d b5 86 be 88 40 d6 bd cd 06 09 3f
       0.033525422 -0.26310292 -0.10461527 0.53526
000070 ba b0 c6 3c 4c b8 36 3e 3e f7 db be 28 e2 eb be
       0.024254192 0.17843741 -0.42962068 -0.4607098
000080 92 8c 21 3e 93 a3 60 be a3 99 50 3e d9 fa 13 3e
       0.1577628 -0.21937399 0.20371108 0.1445116
000090 1a a1 12 3e 1e c6 bc bd f2 8e 21 be 19 5c 81 bd
       0.14319268 -0.09217475 -0.15777186 -0.06316394
0000a0 33 52 ee 3d a3 9e d8 bd 11 ce 6a be d6 ba 0c 3f
       0.11636772 -0.105771326 -0.2293017 0.5497259
0000b0 84 38 24 be df 2d ce be 31 74 96 3d 12 f9 af 3e
       -0.16037184 -0.40269372 0.073463805 0.34369713
0000c0 d8 42 a5 3d 68 70 89 ba a6 a7 8f 3e 4b 8c 92 bb
       0.0806939 -0.001048577 0.28057593 -0.0044722906
0000d0 f1 7f b6 bd d9 15 88 be 23 27 b3 3e 9b 14 7d 3e
       -0.08911122 -0.26579168 0.34990796 0.24714892
0000e0 a7 0f 83 3e 37 7a 53 3e c7 2e 87 3d 23 8d 1f bf
       0.2559788 0.2065209 0.06600719 -0.6232473
0000f0 4b 1e e0 3d c8 b6 57 be 02 37 7e 3e 44 51 d5 3c
       0.10943278 -0.2106582 0.24825671 0.026039727
000100 3e 03 d9 be 1b bd 58 be e9 39 f0 bb 11 f6 6d 3d
       -0.42385286 -0.21165888 -0.007331122 0.058095995
000110 39 58 8b bc 89 46 a6 3c 6e d8 67 be 75 36 ea be
       -0.017009841 0.020297306 -0.22641155 -0.45744672
000120 7b 25 22 3e f2 8d 25 be 6f 00 8c be cc 95 c0 bd
       0.1583461 -0.16167429 -0.2734408 -0.094035715
000130 5a 1c 4a bd 44 4f 32 bd 25 c1 31 bd 9e b6 f9 bb
       -0.049343444 -0.043532625 -0.043397088 -0.0076206466
000140 aa 1a 8d bc e5 7f e3 be c1 9e 15 be b2 9b aa bd
       -0.017224628 -0.44433513 -0.14611341 -0.08330478
000150 d0 f7 22 bd 14 fe 0d 3d 43 49 0a 3d 1c 93 d9 bd
       -0.039787114 0.034666136 0.033761274 -0.10623762
000160 cc 40 41 3d a1 9c e3 3d 07 03 53 be 38 d0 1b be
       0.047180936 0.11113859 -0.20606624 -0.15216148
000170 83 87 d9 3c 8d 95 2d 3e 63 a8 a2 bd ac d7 12 3d
       0.026553875 0.1695158 -0.079422735 0.035850212
000180 ab 83 57 3e 47 df 04 be 9c d6 a1 bd 0e 77 8e bd
       0.21046321 -0.12975799 -0.079022616 -0.06956302
000190 31 ad b5 bd f9 86 79 3e 8f 9a 10 be 2e 42 8d be
       -0.08870924 0.24367894 -0.1412146 -0.27589554
0001a0 1a 43 a8 be a2 bf 0b bd 2b ce a4 bd d7 47 48 3e
       -0.32863694 -0.034118302 -0.08047136 0.19558655
0001b0 bd 21 75 3e 28 c3 53 3b c7 92 b2 bd de d4 7e be
       0.23938651 0.0032312367 -0.08719402 -0.2488589
0001c0 94 c4 b5 bc 93 0a 20 3c bb 03 d0 be b4 9f f2 bd
       -0.022188462 0.009768146 -0.40627846 -0.11846867
0001d0 00 42 be 3e bc b2 87 be f9 29 29 3e 7d 77 e3 3d
       0.3715973 -0.2650355 0.16519918 0.11106775
0001e0 24 2b 8a bd 01 5f 8c 3d 7f 10 50 3c 7b 4d ee bd
       -0.0674651 0.06854058 0.0126992455 -0.11635872
0001f0 2e 12 1d 3e 0a 1a 78 be 14 a1 b2 be 3f 67 b2 3c
       0.15338966 -0.24228683 -0.34888518 0.021777747
000200 0d 1e c3 3e 7c dd 2f be 4c 6d 4f bf 49 a8 8f be
       0.38108864 -0.17174333 -0.8102615 -0.2805808
000210 a6 45 00 3e b2 51 26 3d 25 75 5c 3e d0 7f 9a 3e
       0.12526569 0.040605254 0.21529062 0.30175638
000220 29 48 72 be 5a 97 94 3d 5e 9a bc be 61 1a 6d be
       -0.2366034 0.072554305 -0.36836523 -0.23154594
000230 e8 39 58 be f2 10 7e 3e 38 ad 0d 3d f7 3b 87 3e
       -0.2111584 0.24811152 0.034589022 0.26412937
000240 0c f6 1a 3d e8 82 4d be 7d a1 63 3e 43 fd 21 3d
       0.037832305 -0.20069468 0.22229572 0.03954817
000250 00 e2 10 bf d8 3d 97 bc 2e b7 44 bf f7 28 ad bd
       -0.5659485 -0.018462107 -0.7684201 -0.08455079
000260 ac b6 d5 bd 79 cd be be 01 0d cb 3e d1 15 69 3e
       -0.104352325 -0.37266138 0.3965836 0.22762229
000270 b5 6b 9f 3d c3 87 11 3e 4c 85 85 be 0d bb 77 bd
       0.07784215 0.14211945 -0.2607826 -0.06048112
000280 fc 79 7d 3e c0 48 88 bd c0 d2 63 3e 19 e3 cd bd
       0.24753565 -0.06654501 0.22248363 -0.10053081
000290 ff 22 cf 3e eb 97 43 3e 69 41 ba be 7d 09 70 bf
       0.40456387 0.19100921 -0.3637803 -0.9376448
0002a0 7f f7 1a be 5b c6 83 be d7 74 ae 3d b6 92 a9 be
       -0.15133475 -0.2573727 0.08518379 -0.33119744
0002b0 cf 9d 8f 3d 3e a5 e6 be b4 19 09 bd 0f 12 59 be
       0.070125215 -0.45047945 -0.033471778 -0.21198295
0002c0 27 82 08 be b9 be 1c 3e c0 15 ac be c8 ef d1 3e
       -0.13330899 0.1530713 -0.33610344 0.4100325
0002d0 fe 2b b4 3e 4f 35 7e 3e c9 bf 2d bf 9b 2c 1f be
       0.35189813 0.24825023 -0.67870766 -0.1554436
0002e0 74 85 52 be 77 74 d7 be 03 5c 0c 3f c0 cf 66 3e
       -0.20558721 -0.42081043 0.548279 0.22540188
0002f0 2b 03 e7 3d 6d c8 65 3e e9 55 20 3e 28 46 bf be
       0.11279901 0.22439738 0.15657772 -0.37358212
000300 4f da 7f be fd 77 36 3d 5a 3d 9a 3d 7c 77 88 ba
       -0.24985622 0.044548023 0.07531233 -0.0010411586
000310 4f 2f 0e 3d e9 11 8e 3e f9 94 9b 3e 0d b6 20 bd
       0.034713086 0.2774804 0.30387095 -0.039236117
000320 33 00 85 3e c2 ad 90 3d 47 fb 33 3e de 40 96 be
       0.25976714 0.07064392 0.17576323 -0.29346365
000330 49 65 8a bf 5c e5 e2 3e 33 9a 18 3e d8 47 e2 be
       -1.081216 0.44315612 0.14902572 -0.44195437
000340 08 4e cb bd e5 5e dd be a2 bb f7 bd 38 dc 11 be
       -0.09926993 -0.4323646 -0.12096335 -0.14244163
000350 ea ef bd 3d 34 99 80 bc 01 69 bd be c1 55 15 bf
       0.092742756 -0.015698053 -0.36994174 -0.58333975
000360 c7 04 f9 3d 1a bc e2 be 94 fb bd 3d 99 76 82 bc
       0.12159114 -0.44284135 0.092765 -0.015925692
000370 7e 2b 2f c0 61 07 2d 3e 9f b8 c6 be 83 66 82 bc
       -2.7370296 0.16897346 -0.3881273 -0.015918022
000380 c6 5f 12 bf 0c 76 03 bd 4b 3d ad be 23 28 fe bc
       -0.5717739 -0.032095 -0.33835825 -0.031024998
000390 80 ee 4c bf 8c fc a0 be 07 f6 98 3b 5f a9 f9 be
       -0.8005142 -0.31442678 0.0046680006 -0.48762032
0003a0 35 44 00 3e ef 92 20 bf ec 16 ad be 40 03 52 bf
       0.12526019 -0.627242 -0.3380655 -0.8203621
0003b0 7f 67 90 be c7 c0 78 be f8 69 31 bf cf f3 0a bd
       -0.2820396 -0.24292289 -0.6930232 -0.03392392
0003c0 f9 59 bf bd b4 02 dc bf d0 9f df be fb 01 0f bf
       -0.09343333 -1.7188325 -0.43676615 -0.55862397
0003d0 79 43 6c 3e fc 71 b2 3d 15 6d 0f c0 b9 93 55 bf
       0.23072614 0.08713147 -2.2410328 -0.8342853
0003e0 db 69 9e 3e 11 86 87 be 39 71 cb be e7 dc 7c be
       0.30940136 -0.26469472 -0.3973482 -0.24693643
0003f0 00 c7 b2 3e 35 19 af bf 3d 66 f1 bf 92 fc fd be
       0.3491745 -1.3679568 -1.8859326 -0.49606758

critic2.2.bias f4 [64]
000000 b2 56 98 3d 39 2b fa bc c1 2c a8 bd 67 fd d6 3c
       0.07438411 -0.030538188 -0.08211661 0.026243879
000010 53 b5 14 3f de 0b 22 be 88 99 07 3f ae 4a c9 3d
       0.5808918 -0.1582484 0.52968645 0.09828697
000020 18 e2 be bd 52 e7 29 bb 98 23 8a be 17 5e 97 bc
       -0.09320468 -0.0025925231 -0.2698028 -0.018477483
000030 75 3a b0 bb b8 28 58 3e 3b f4 be 3c 53 81 2c 3e
       -0.0053780624 0.21109283 0.023309818 0.16846208
000040 c7 09 c2 3e a1 04 b2 3e 3c 7f a8 3e 2b cb 9c be
       0.37898085 0.34769157 0.32909572 -0.30623755
000050 c7 e2 92 bd 4c 3a cd 3e 03 be a3 3e bd 69 8f 3e
       -0.071721606 0.4008354 0.31980905 0.2801036
000060 8a ab 0e 3f 43 74 fc 3e 5c d1 7f bd cb 1c 14 3d
       0.557305 0.4930745 -0.06245552 0.03616027
000070 b1 98 6b 3e 3e 03 c4 3e bb 05 d3 3e f5 eb 59 bb
       0.23007466 0.38283724 0.4121531 -0.0033252214
000080 fc 5d e4 3e f5 5e b8 3e bc ef 1e 3f 55 76 92 3d
       0.44602954 0.36009946 0.62084556 0.07151476
000090 96 0a d8 3e 13 10 9a 3e 46 be c0 3e 12 9b 4f bb
       0.42195576 0.3009039 0.37645167 -0.0031678122
0000a0 63 e7 14 be c0 7b df 3c 0f a2 a7 bd 1f 80 39 3e
       -0.14541392 0.027280688 -0.08185207 0.1811528
0000b0 d0 ac 2e 3f 3c fe b0 3e b1 a2 6c 3e 58 cf b4 3d
       0.6823244 0.34568965 0.23108937 0.0882861
0000c0 54 57 ad bd 85 b2 98 3e e5 1c c4 be c8 5b a4 3d
       -0.08463922 0.298237 -0.38303295 0.080253184
0000d0 af a5 18 3e 25 cf 05 3f eb 8a d7 3e 0e e5 38 be
       0.14906953 0.522692 0.42098173 -0.18056127
0000e0 8e 4a ae be 73 01 5f 3e 77 fd d8 bd 22 f4 9f 3e
       -0.34041256 0.21777897 -0.105952196 0.31240946
0000f0 d9 d1 3e 3e 73 1b ac be 96 dd 2a be 86 07 2c 3e
       0.18634738 -0.33614692 -0.16686091 0.16799745
