maddpg_v7_over/model/simple_tag/agent_1/147_critic_params.pth (torch, 57783 bytes, 7 tensors)

fc1.weight f4 [64, 82]
000000 aa f5 80 3e 0c dd 26 bc be 90 b2 3e 2f 86 3d be
       0.25187427 -0.010184538 0.34876055 -0.18508218
000010 69 20 5f bf 89 10 4e bf f2 72 27 3f d9 80 d3 3e
       -0.8715883 -0.8049398 0.6540977 0.4130924
000020 6f 8e d4 3d c5 a7 93 bd cf 04 2a 3d 53 f6 8e be
       0.103787296 -0.07209734 0.041508492 -0.27922305
000030 f5 8f a1 be 1e 63 82 be 00 c9 e9 3d fe 97 bc 3d
       -0.31555143 -0.25466245 0.11415291 0.09208678
000040 08 eb f2 3e a2 3a 59 bd ee d0 19 3f 9a db 8b be
       0.4744494 -0.053034432 0.60084426 -0.2731598
000050 a7 69 a9 bf ca 61 a9 bf 63 57 21 3f a0 32 60 3f
       -1.3235368 -1.3232968 0.63023967 0.8757725
000060 42 af 06 bd 0c b7 56 be 6c 35 5c 3d 28 75 e9 bd
       -0.032881983 -0.20968264 0.053761885 -0.11399299
000070 60 7d 8d be 55 b7 c4 bd bc 09 16 3e 4f 40 02 3d
       -0.27634716 -0.0960528 0.14652151 0.03179961
000080 9a ff 8e bc b0 49 72 bd ef e4 af 3e 0f 9b 6e be
       -0.017455865 -0.059152305 0.3435435 -0.23301338
000090 44 6e 20 bf 2f 87 81 bf 00 fc 75 3f 3d 01 8c 3e
       -0.6266825 -1.011938 0.96087646 0.27344695
0000a0 d3 51 15 be 27 7f 15 be 85 9b 67 3b 53 4c bf be
       -0.14581995 -0.14599286 0.00353405 -0.37362918
0000b0 89 77 07 3d 0e ca a0 be aa 3e 4c 3e 57 c0 08 be
       0.033072982 -0.31404155 0.1994578 -0.13354622
0000c0 0e 72 b1 bb 4e a9 06 3d 78 b4 84 3e 7f fa 6b 3e
       -0.0054152077 0.032876305 0.25918937 0.23044775
0000d0 e1 a8 8d bf 00 12 90 bf a7 cf 98 3f 2f f7 15 3f
       -1.1067163 -1.1255493 1.193837 0.585803
0000e0 49 63 8e 3e a7 e3 71 3d ce 04 2f 3f 81 4b 35 be
       0.27810124 0.059054997 0.68366706 -0.17704584
0000f0 e7 5c 0b be f0 f6 15 ba a9 60 1a 3e cb b2 a2 3d
       -0.13609658 -0.00057206955 0.15075935 0.07944258
000100 49 d8 d6 bc 09 7b 99 3d 48 9d f2 ba 21 5e 1d 3d
       -0.02622618 0.0749417 -0.0018510008 0.038419846
000110 11 1a a3 3e 0f c4 05 be 0d 67 f2 bb 12 ad e7 3d
       0.31855825 -0.13063072 -0.0073975385 0.113123074
000120 22 60 d1 bb d2 67 3c 3d 2b 0c bb 3d f0 fe 4c bd
       -0.0063896338 0.04599745 0.0913318 -0.050047815
000130 57 ed 1c bc 17 5e 3f bc de f2 82 3d ae 81 84 bd
       -0.009578071 -0.011680148 0.063939795 -0.06470047
000140 f5 d7 1b bd 7b 95 b3 ba 08 db d8 3d 60 5a c9 bd
       -0.03804775 -0.0013701165 0.10588652 -0.09831691
000150 2b 5b 01 bf 1e de 99 3d 00 57 2f bd ba f8 03 bd
       -0.50529736 0.075130686 -0.04280758 -0.032219626
000160 b5 60 76 bf 98 62 3f 3e 08 f4 ca 3d 47 38 5c 3e
       -0.96241313 0.18689954 0.099098265 0.21505843
000170 c4 48 b8 3d e9 81 d9 3e b7 1b 0c be 27 33 e3 3b
       0.08998254 0.42481926 -0.13682447 0.006933588
000180 1f 62 f7 3d 2f b4 14 be 31 3a 97 be a7 ff 1e bd
       0.12079262 -0.1452186 -0.29536584 -0.038818028
000190 07 cb 0e c0 43 28 8f be f3 3c 31 3f d3 c3 73 3e
       -2.2311418 -0.27960405 0.69233626 0.2380517
0001a0 b0 63 8c bf 68 a4 71 3b a3 7d a6 3d 36 77 cb be
       -1.0967922 0.0036871675 0.08129432 -0.39739388
0001b0 12 09 89 3e ca df e0 3d 09 d1 90 3f 82 a5 3d bf
       0.26764733 0.109801844 1.1313792 -0.7408067
0001c0 00 c0 88 3d ce 19 22 3e ae 96 e4 3c 75 ad 19 3d
       0.06677246 0.15830156 0.02790388 0.037518937
0001d0 df 3b 34 bf e7 dd dd 3d b4 a5 be 3e 87 af 80 be
       -0.70403856 0.1083334 0.37235796 -0.25133917
0001e0 9e 53 b9 bf 02 e9 49 3e b9 e1 2e be 5d 6e 04 bf
       -1.4478643 0.19717792 -0.17078294 -0.517309
0001f0 48 24 c5 bd 8b 08 df bc 8b d3 cb bd 06 0c b8 3d
       -0.09626061 -0.027225753 -0.09952458 0.08986668
000200 b2 c1 2d 3e 47 1e e4 3c 85 64 e1 bd a5 87 a1 3b
       0.1696842 0.027846469 -0.11005501 0.0049295
000210 f1 e4 86 bf b1 7b 27 bf 7c 4b 82 ba e4 f0 af 3e
       -1.0538617 -0.65423113 -0.0009940709 0.34363472
000220 74 df ce bf e6 6c 8a 3d ed 41 20 3d e4 00 86 bd
       -1.6161942 0.06759052 0.03912537 -0.065431386
000230 13 b5 52 bf 81 4f 81 3e 52 e1 a4 be de 83 b8 bd
       -0.8230755 0.2525597 -0.32203156 -0.09009527
000240 a1 e7 c6 3d dd 45 7f 3d 3a 87 31 3d e0 62 84 bd
       0.097121485 0.062322486 0.043341853 -0.064641714
000250 1a 25 90 3d 96 20 d4 3c c2 d4 e9 bd f0 dd c9 3e
       0.070383266 0.025894444 -0.114175335 0.39427137
000260 4a a0 1d 3d a9 5d 9d bc 22 e2 6d 3d bc 77 8c 3d
       0.03848294 -0.0192097 0.058076985 0.06858775
000270 72 b7 80 3c 8c da 76 3d b0 fa 1c 3c 63 cb de bb
       0.015712474 0.060267016 0.009581253 -0.006799148
000280 b6 48 7c 3d 53 63 3c be 0d 9b 04 bc 2a c1 03 be
       0.06159278 -0.18397264 -0.008093608 -0.12866655
000290 e6 f0 fa 3a d2 cd d3 3c 81 ea 96 3e 19 e2 67 bf
       0.001914528 0.025854979 0.29475787 -0.9057937
0002a0 62 a8 55 bf 19 79 11 bf 57 df 89 3f 4d 44 3a 3e
       -0.83460057 -0.56825405 1.0771283 0.18190117
0002b0 6e 03 7d 3e 17 a3 f6 bd bd aa b2 bd 8a 1b 47 be
       0.2470834 -0.12042826 -0.08723972 -0.19444099
0002c0 ae 10 de bd 16 87 a4 3e 68 81 7b be 7a 7c 9f bd
       -0.10843025 0.32134312 -0.24561083 -0.07787414
0002d0 cb c5 d1 bc cc 71 26 3e 64 41 c7 3e 7d 9c 8c bf
       -0.02560701 0.16254348 0.38917077 -1.0985256
0002e0 10 6e cf bf 7d a9 76 bf 3f c5 95 3f ab c2 ac be
       -1.6205463 -0.9635237 1.170082 -0.3374227
0002f0 cf 87 43 be d1 ee 86 be 82 91 42 3e 4b 65 04 be
       -0.19094776 -0.26354077 0.1900082 -0.12929265
000300 21 60 5f be ad d9 b4 be 05 8d 3a 3e bf 68 23 3e
       -0.21814014 -0.35322323 0.18217857 0.15957926
000310 19 a9 04 3e 86 b6 12 3e d9 3d cc 3e 1d 91 3f bf
       0.1295513 0.1432744 0.39890936 -0.748308
000320 eb 77 a4 bf 93 fd 22 bf 2c 33 90 3f 91 7b 0f be
       -1.2849096 -0.63668174 1.1265616 -0.1401198
000330 dd b9 9f bd b4 53 37 bc 90 29 b3 be e6 3c b3 3e
       -0.077991225 -0.01118939 -0.34992647 0.350074
000340 53 9a a9 be 3e 50 9e be ca ed 08 3e d2 90 c3 3c
       -0.33125553 -0.30920595 0.1337196 0.023872767
000350 e9 55 f0 bd 32 1a 83 bd 69 79 f3 3e ed 2a 26 bf
       -0.11735136 -0.06401481 0.47553566 -0.6490925
000360 4e 2e c5 bf 13 90 2a bf 09 5b 9e 3f 53 d6 10 be
       -1.5404756 -0.6662609 1.2371532 -0.14144258
000370 77 0a a7 3e eb 20 22 3e 14 22 b8 3d 25 02 a7 3d
       0.32625172 0.1583287 0.08990875 0.08154706
000380 27 46 fc 3e 34 cf 85 bc cf 4c e9 bb c7 6b 4f 3c
       0.49272272 -0.016334154 -0.007119752 0.012659973
000390 47 14 b5 3c 68 32 8d bd 9b 42 42 bd 38 1a 05 bd
       0.022104396 -0.0689438 -0.0474268 -0.032495707
0003a0 75 16 57 bd eb f9 36 3d 24 0f 07 3e ef 49 cb bc
       -0.05251165 0.044671934 0.1318937 -0.024815528
0003b0 7f cb 60 3d 80 fe c8 3d ef 21 8e bc 7f 81 5c 3d
       0.05488157 0.09814167 -0.017350165 0.053834435
0003c0 23 22 ea ba f5 79 50 bd 90 f5 ed bd db ad 0d 3b
       -0.0017862957 -0.050897557 -0.11619103 0.0021618519
0003d0 00 68 b4 3b fe 93 70 bd c7 24 b9 3e e3 6e 6b be
       0.005505562 -0.058734886 0.3616087 -0.22991519
0003e0 41 c1 8f 3e 1d 76 54 3f 39 df a1 3e cf 7a 66 3f
       0.2807713 0.82992727 0.31615618 0.9003114
0003f0 01 64 eb be 24 b9 f2 3e fc 6b 38 be 65 75 7b 3e
       -0.45974734 0.47406876 -0.18009943 0.24556501

fc1.bias f4 [64]
000000 c9 20 b3 3f 42 0c ff 3f 32 6f 6b 3f aa c2 b2 3d
       1.399438 1.9925616 0.91966546 0.087285355
000010 20 ac 07 3f 29 93 c9 3f c9 b3 ed 3d c4 85 d6 be
       0.52997017 1.5748035 0.11606557 -0.4189893
000020 13 36 9b c0 e8 ae 2c 40 06 89 e1 3e 31 6a 24 c0
       -4.850351 2.6981754 0.44049853 -2.5689814
000030 82 e0 77 3f a8 32 0e be e1 2e bf be b4 29 0d be
       0.96826947 -0.13886511 -0.37340453 -0.1378544
000040 d2 5a e5 3e 89 42 d2 bf cd df 0f c0 fe fe a8 3f
       0.44795853 -1.6426555 -2.2480347 1.3202817
000050 ff 04 25 40 ca 78 61 c0 1c 30 13 c0 c9 17 6e 3f
       2.57843 -3.5229974 -2.2998114 0.93005043
000060 e5 5c 0a 3e fa 8d 16 40 88 65 31 3e 5d 60 31 bf
       0.13511999 2.3524156 0.17323887 -0.69287664
000070 95 87 24 c0 f5 41 37 c0 91 7b f1 bf 19 9a 57 3f
       -2.5707753 -2.8634007 -1.8865834 0.8421951
000080 e4 c6 09 be 8b 76 0d be 3a 72 62 be 4a 31 1a 3e
       -0.13454777 -0.13814752 -0.22113886 0.15057865
000090 7b d4 aa 3e 6e 27 04 40 37 7e bf bf 60 b2 f3 3f
       0.33365235 2.0649066 -1.4960393 1.9038811
0000a0 98 e5 bc 3f d6 c7 9a bd 41 0e 12 40 28 55 fd 3f
       1.4757566 -0.07557647 2.28212 1.9791613
0000b0 67 91 3c c0 b0 48 23 40 31 cd 34 3f 83 f3 aa bf
       -2.9463747 2.5513115 0.706256 -1.3355564
0000c0 17 66 bc bf d8 64 ad bf c7 e2 31 c0 f0 d6 00 c0
       -1.4718655 -1.35464 -2.7794664 -2.0131187
0000d0 62 73 db 3e 16 a7 f3 bd c5 4a 4f 3f 9c 82 d3 3f
       0.42861468 -0.118971035 0.80973464 1.6524234
0000e0 f6 46 62 3f 21 cb bc be db 10 f2 3e 64 4d 7d bf
       0.8838953 -0.36873725 0.47278485 -0.98946214
0000f0 dc d5 17 40 3c 47 f3 be 6d 5b 9b 3f 42 54 37 c0
       2.372428 -0.47515285 1.2137276 -2.8645177

fc2.weight f4 [64, 64]
000000 52 9f a6 bf 98 54 45 bd f6 56 93 bf c6 f6 2f be
       -1.3017371 -0.048176378 -1.1510913 -0.1718398
000010 b8 ec f9 3e 81 f7 6a be d5 e2 9c 3d 6d e9 32 bd
       0.48813415 -0.22945978 0.07660452 -0.043679643
000020 ce 25 94 bf 05 9e ae bd ff 2f bd bb 77 b2 57 bf
       -1.1574037 -0.085262336 -0.005773544 -0.8425669
000030 8e 83 e1 3d d8 eb a6 bf bb 7e b9 bf 5e 52 00 bf
       0.1101142 -1.3040724 -1.44918 -0.5012568
000040 06 42 fd be 21 44 03 bf 1a 96 f4 be 75 ff 2e be
       -0.49464434 -0.5127583 -0.47770768 -0.17089637
000050 71 60 20 bf 8b 96 61 be 06 8c 7b 3e 85 00 0e 3f
       -0.6264716 -0.22030084 0.24565133 0.5546954
000060 c9 f7 96 be 4d 39 18 3e b2 73 0e c0 b5 2e 00 3d
       -0.2948592 0.14865609 -2.2258115 0.031294543
000070 b7 6a bb be 45 ff 87 be de 64 d0 bd 76 80 92 be
       -0.36604854 -0.26561943 -0.10175489 -0.28613633
000080 22 e4 aa bf 2c 90 53 bf 0e 6d 75 3c f9 c6 5d be
       -1.3350871 -0.82641864 0.014979614 -0.21657933
000090 e1 eb bb 3e 72 1f c9 3e 04 df 6a bf a7 21 da 3d
       0.367034 0.39281803 -0.91746545 0.1065095
0000a0 d4 33 4d 3e 91 59 d1 bd d7 d9 2e bd 09 b2 e2 3e
       0.20039302 -0.102221616 -0.042688217 0.44276455
0000b0 f9 26 a7 bf ee 48 0f 3f c6 73 85 3f 1c 97 bf be
       -1.3058769 0.55970657 1.0425956 -0.37419975
0000c0 00 87 36 be 2a b1 8d bf 94 c0 b2 be b7 ca 9c be
       -0.17824936 -1.1069691 -0.3491255 -0.3062341
0000d0 93 9b 07 bf f0 dd 3f be d1 42 24 bf db 68 15 3e
       -0.5297176 -0.18737006 -0.64164454 0.1459078
0000e0 b3 8b 49 bf b0 2b a8 be 01 74 a1 bf 39 2c ae 3e
       -0.7872879 -0.3284583 -1.2613527 0.34018114
0000f0 67 ec 8e bf 3f 4c 0a be 43 ed 09 bf c6 17 31 3d
       -1.1165894 -0.13505648 -0.5387766 0.043235563
000100 68 05 2c 3e d1 6f 03 be c7 23 9d bc 96 98 fd be
       0.16798937 -0.12835623 -0.019182099 -0.49530476
000110 05 7a b9 be 1c 79 56 be fb 5b 63 3e be 83 13 bd
       -0.36225906 -0.20944637 0.22203057 -0.03601431
000120 a7 17 f4 be 2a ae ea bd d0 b0 c7 3e 54 8f 8b 3d
       -0.47674295 -0.114590004 0.39002085 0.06814447
000130 86 cf 67 be ca ad 41 be c3 bc 80 be 05 74 d0 3e
       -0.22637758 -0.18913952 -0.25144014 0.40713516
000140 a2 1e b9 3d 2f c3 f9 be f1 3d 53 3f 2f e9 2e bf
       0.09039046 -0.48781726 0.8251639 -0.6832456
000150 c0 9b 0f 3e 0c 30 9a bf 17 1d f3 3d 38 e7 30 3f
       0.14024258 -1.2045913 0.11870783 0.6910281
000160 9a 79 de be 5c 81 fb be 06 4c a7 bd 3d 00 9a 3e
       -0.4345215 -0.4912213 -0.08168797 0.30078307
000170 3f 6e b0 bf 15 ad 2d 3f bb f4 70 be 73 42 96 be
       -1.3783644 0.6784223 -0.23530857 -0.29347572
000180 0d 9f 9a 3e 63 75 cc 3b 30 77 85 bf 47 3b 2f be
       0.3019947 0.0062395795 -1.0426998 -0.17112456
000190 97 df f0 3c 00 6f 88 bf 6a bc 72 be 10 d8 8b be
       0.029403491 -1.0658875 -0.23704687 -0.2731328
0001a0 ec d0 f9 be 89 95 d3 bd 95 cd 26 bf 98 c5 8c be
       -0.48792207 -0.10331256 -0.65157443 -0.27494502
0001b0 f7 32 1f bf e3 f3 b4 3c 5f 73 3f be 57 2f bf 3d
       -0.6218714 0.02208895 -0.18696354 0.09335201
0001c0 c9 01 2f 3e f5 bd 39 be a6 a2 73 3e 03 44 cd bf
       0.17090525 -0.18138869 0.23792514 -1.603638
0001d0 38 23 75 bf c2 08 ca 3e 5c 97 80 bf 46 cb b8 3e
       -0.95756865 0.39459807 -1.0046191 0.36092585
0001e0 0b 6e f4 3e 0c 7a 93 3d 2d 61 bb be cb 07 b9 3d
       0.47740206 0.07201013 -0.36597577 0.090346895
0001f0 e3 7c 5f bf e4 db d0 bd 1a 84 f3 3d 31 be 74 bf
       -0.87299937 -0.10198191 0.11890431 -0.9560271
000200 82 22 a7 bd 83 e3 82 be 6f be 53 3e bc bf 52 bd
       -0.08160879 -0.25564203 0.20678113 -0.051452383
000210 54 b9 9a be 81 d4 98 be d5 46 f1 3e 90 0d 46 3d
       -0.3021952 -0.29849628 0.47124353 0.048352778
000220 ff 15 ec be 0f 68 55 be c6 75 45 3e a7 50 4a bc
       -0.46110532 -0.20840476 0.19283208 -0.012348331
000230 07 a0 2d bf f5 1c 96 3d 40 af 86 3d 6b f8 19 3e
       -0.6782231 0.07329742 0.06576395 0.1503617
000240 58 0d 9f be e5 a5 66 be d5 d3 b1 bf 43 4e 0e bd
       -0.31064868 -0.22524221 -1.3892771 -0.034742605
000250 34 b9 d8 3d cc 39 cb be e6 61 ca 3e 89 f2 90 be
       0.105822 -0.39692533 0.39527816 -0.2831004
000260 17 f7 09 bf 8e 66 85 3d 5f 82 1c bf c5 da 3f bd
       -0.53892654 0.065137014 -0.6113643 -0.046839494
000270 f3 54 01 bf 63 9b a0 3e a9 34 a9 bd b3 ce 9d be
       -0.5052025 0.3136855 -0.08261997 -0.3082176
000280 6c 80 27 3d c8 19 e9 bf 76 66 ac be ad fa 9e bd
       0.040893957 -1.8210993 -0.33671921 -0.07762656
000290 85 61 3d 3f 9c 14 4e 3b 53 7d 16 bd 95 31 7a bd
       0.7397693 0.003144539 -0.036740612 -0.06108244
0002a0 1e 25 24 be e8 d8 33 be e5 38 a4 be bc 30 3f 3e
       -0.16029784 -0.17563212 -0.32074657 0.18670934
0002b0 f1 ee 9a 3e 0d e7 c6 be 85 fc 35 bf cd 3a dc be
       0.30260423 -0.38848153 -0.7108844 -0.4301361
0002c0 ea 70 e0 3c 09 12 1b 3e 66 58 5a be cb 13 f8 3b
       0.027397592 0.15143599 -0.21322784 0.007570719
0002d0 3d db c1 be cd de b4 3e 2c 0b c6 3c 8e 3c 18 3f
       -0.37862578 0.35326234 0.024175249 0.594674
0002e0 05 2e 64 3d 72 05 52 bd fc 02 e5 3d 88 7f 2b 3e
       0.05570795 -0.051274724 0.1118221 0.16747868
0002f0 7d fc 08 3e 79 aa bc be 04 5c eb 3d 0c 70 d0 bb
       0.13377567 -0.3684881 0.1149216 -0.0063610133
000300 4d 43 59 bf c8 54 c9 be 47 50 e6 bf d0 4b 8a 3f
       -0.8486832 -0.39322495 -1.7993249 1.0804386
000310 63 45 77 3e 16 63 eb be 8a e4 a9 bd 97 33 11 bf
       0.24147563 -0.45974034 -0.082955435 -0.56719345
000320 65 e9 90 be 04 5a 12 bf 09 b8 c3 bc 56 38 32 3e
       -0.28303066 -0.571686 -0.023891466 0.17404303
000330 af b6 17 be 4a 75 ab 3e 9e 74 28 3e 0c 82 1f bf
       -0.14815782 0.33487922 0.16450736 -0.6230781
000340 8c 55 b0 be 8c aa 0a 3f f9 d1 53 bf e7 06 ac be
       -0.34440267 0.54166484 -0.8274227 -0.33599016
000350 01 df 7a 3e c7 68 a7 3e 8c 75 80 3e 00 e8 1e bf
       0.24499132 0.32697126 0.2508968 -0.62072754
000360 a4 a7 4a 3e 2f b5 d3 bd 6f 9e c7 bf c5 a1 f3 3d
       0.19790512 -0.103372924 -1.5595225 0.118960895
000370 33 82 61 3e 18 7c 4e 3e 58 3a 80 be 9c 4f 18 3e
       0.22022323 0.20164526 -0.25044513 0.14874119
000380 11 50 99 3e 61 c0 9b bf fc 8d 30 bd bd c4 c9 be
       0.29943898 -1.2168084 -0.043104157 -0.39407912
000390 b2 49 20 bd d4 f9 54 bf 34 b6 6f 3e 30 56 67 be
       -0.03913278 -0.8319371 0.23409349 -0.22591472
0003a0 58 50 6c 3f 92 1c 12 bd a7 29 21 bf 31 b5 25 be
       0.92310095 -0.035671778 -0.6295418 -0.161824
0003b0 07 c1 dd 3d 40 80 42 3f e0 67 7b 3d e7 ae 1b 3e
       0.10827833 0.75976944 0.06137836 0.15203439
0003c0 0a 99 3e be 2e 3e 53 3f c8 0c 12 3f 61 5c 10 3f
       -0.18613067 0.82516754 0.5705075 0.5639096
0003d0 4d 59 d3 be 88 12 c0 be b0 16 56 be 05 ff 15 bf
       -0.4127907 -0.37514138 -0.20907092 -0.58592254
0003e0 ea b9 bc bd d6 1d cd 3e f4 ad 76 bd 4b d5 67 3e
       -0.09215148 0.40061826 -0.06022449 0.22639959
0003f0 77 1e ac bf c8 95 97 bd 04 0e 77 3f bd e3 7a 3d
       -1.3446797 -0.074016154 0.9650576 0.061252344

fc2.bias f4 [64]
000000 93 b6 69 3e 56 cc 31 3e 56 46 5e 3f d9 56 23 3f
       0.22823553 0.17363104 0.86826074 0.63804394
000010 60 c7 aa 3f 3d d3 d1 3f 83 e3 6f 3f be b1 b7 be
       1.3342094 1.639259 0.9370653 -0.35877794
000020 87 d9 9e 3f 44 c6 38 3f 73 a1 b1 be 74 44 dd 3e
       1.2410134 0.7217753 -0.34693488 0.43216288
000030 5a 21 a9 bf d2 b1 fd 3f c7 fd ab bf 21 66 3f 3e
       -1.3213303 1.9819891 -1.3436822 0.18691303
000040 6c 70 36 3f fe c8 c1 3f da 9c cc 3f a6 cc 47 3d
       0.7126529 1.5139463 1.5985367 0.048779152
000050 e8 8d 01 bd 36 d2 58 3e d1 ca 71 3f 2f 88 a3 bf
       -0.031629473 0.21173939 0.944501 -1.2775935
000060 2f 38 64 3f 70 6c e9 3f e8 f6 2f 3f b0 12 98 be
       0.8914823 1.8236217 0.68736124 -0.29701757
000070 26 9a 5a 3f a1 00 a7 3e 3b 9d b8 bf 98 a0 3a 3f
       0.8539146 0.32617667 -1.4422983 0.72901297
000080 bc 89 e2 3f cd 51 1c c0 16 a7 a0 3f c2 ff b6 3f
       1.7698283 -2.4424927 1.255099 1.4296801
000090 aa ba 5e 3f 26 e9 96 3f 6d b2 f1 3f 59 90 fd bf
       0.87003577 1.1789901 1.8882576 -1.9809676
0000a0 87 ac af 3f 3d 0a 32 bf 20 fa cc be 31 25 1a bf
       1.3724526 -0.6954687 -0.4003458 -0.60213
0000b0 8c a5 e7 bf 06 95 58 be dc 8e a7 3f 6a af 86 3f
       -1.8097396 -0.21150598 1.3090472 1.0522282
0000c0 dc 7b e1 3f ea 84 0f 40 f9 55 50 bf dd 5a ca 3e
       1.7615924 2.2424874 -0.81381184 0.39522448
0000d0 63 1a 0f 3f 72 7c 87 bf 6f 88 88 3f 3b 1b bb 3f
       0.5589964 -1.0584853 1.0666636 1.4617685
0000e0 c5 af 8b 3f d2 72 40 3f be 84 80 3f 24 0e ab bf
       1.0913016 0.751752 1.004051 -1.336369
0000f0 e8 3d b0 bf a2 8d 2d bf 2c b7 89 bf aa 6e a6 be
       -1.3768892 -0.6779424 -1.0759025 -0.32506305

fc3.weight f4 [64, 64]
000000 dc f7 a7 bf 11 1b a4 3d 83 20 b2 3e 1b 64 d9 bd
       -1.3122516 0.08012975 0.3479043 -0.10614797
000010 21 74 0d bf da 75 30 3e 6d 0f d1 be 20 26 b2 bf
       -0.55255324 0.17232457 -0.4083208 -1.3917885
000020 af a6 89 bf d0 a8 b5 3e 9a a1 97 bf 3a 8e a6 be
       -1.0753993 0.35480356 -1.1846192 -0.32530385
000030 e5 59 b1 be 6a ef c5 3e 18 c3 1b 3f 44 6e 8f bf
       -0.34638897 0.3865922 0.60844564 -1.1205525
000040 ce b1 66 bf 96 9a 1a 3e 5b 18 c2 3d df 59 88 be
       -0.9011506 0.15098032 0.09477302 -0.26631066
000050 38 f7 b5 be a7 91 9a bf 71 d1 0d bf 21 89 d3 3d
       -0.35540175 -1.20757 -0.5539771 0.1032889
000060 f7 45 dc bf 8e e9 ce be 7a 8f 8b 3d 1a ac 05 3e
       -1.7208852 -0.40412563 0.06814475 0.13053933
000070 d1 ba 97 bf 10 b9 1d 3f f6 7a a0 bd 65 24 3c 3f
       -1.1853887 0.6161051 -0.07835953 0.73493034
000080 17 7c dc bd ed b0 19 be 53 de e0 3d 3d dc e4 3e
       -0.10765856 -0.15008898 0.10979905 0.44699278
000090 48 4b 8d be 66 b1 87 3f c7 52 9c 3e 3c 45 11 bf
       -0.27596498 1.0601013 0.30531904 -0.5674627
0000a0 e1 dd fb bc 00 33 0e 3f 23 ff 9b 3d 38 2f 8f bf
       -0.030745449 0.5554657 0.07617023 -1.1186285
0000b0 cb cb 9a 3e a0 a5 57 3f 6c 32 6e 3e 74 a9 c1 3c
       0.30233607 0.842371 0.23261422 0.023640372
0000c0 0d 7e f0 3e e2 5d be bd 50 f3 fe be 68 6a 63 3e
       0.4697117 -0.092952505 -0.49795008 0.2220856
0000d0 9e 81 ae 3f 2c 6c 40 bd e0 1c a4 3e 3f 00 48 3f
       1.3633306 -0.04697816 0.3205328 0.78125376
0000e0 c1 db 10 bd fb c4 5a bf c0 23 fd 3d 7c d9 84 3d
       -0.035365824 -0.8545682 0.123603344 0.06486794
0000f0 c4 92 f3 be 81 ab 5d bd 57 d6 23 bf 5f 04 7e bf
       -0.4757291 -0.054118637 -0.6399893 -0.9922542
000100 2d b5 45 3e 71 53 4a 3d 53 1c ae bd 3e 8a 20 bd
       0.19307394 0.049395982 -0.08501496 -0.039194338
000110 31 74 41 3f e0 62 27 bf 54 b0 e8 3e 97 75 85 3f
       0.7556792 -0.65385246 0.45447028 1.042651
000120 0b 20 32 bd 6a a1 93 3e c5 22 3f bf e2 78 8f 3e
       -0.04348759 0.28834087 -0.7466243 0.28021914
000130 94 69 90 bf aa 04 b4 3c bf 52 92 bf 2d 90 be 3c
       -1.128222 0.02197488 -1.1431502 0.023262108
000140 90 4c a9 be f6 6d 46 bf f4 7f 84 3e 65 b7 33 3f
       -0.33066225 -0.7751154 0.2587887 0.7020171
000150 2d 6a f4 3d 42 72 95 bf f8 49 03 bf 03 cb 3c bf
       0.11934314 -1.1675494 -0.5128474 -0.7374727
000160 8a 7e c3 be 83 0a e8 be 9b a4 f6 bf c4 10 4e be
       -0.3818248 -0.4532052 -1.9268984 -0.20123583
000170 36 11 49 bf 6e b4 1a 3e 98 e0 e5 bd b5 1f ad be
       -0.78541887 0.15107891 -0.112244785 -0.33813253
000180 b1 6d df 3e a6 73 90 bf 73 a5 f4 be b9 ad 00 be
       0.43638375 -1.1285293 -0.47782478 -0.1256627
000190 b6 80 6a 3d df 95 f6 3d 20 ce f1 3e d7 88 1e c0
       0.057251655 0.120403044 0.47227573 -2.477102
0001a0 5b ff 57 bf 0c e7 b8 3d 4f 9e 7a bf 46 e8 68 be
       -0.84374017 0.09028444 -0.9789781 -0.22744855
0001b0 96 51 86 bf 7f 06 a7 bf 2e c2 91 3d d1 14 2c bf
       -1.0493648 -1.3048857 0.07117115 -0.67219263
0001c0 14 f1 30 bf 87 d5 4e 3d 92 3c e7 be b0 38 71 3e
       -0.69117856 0.050496604 -0.451634 0.23556781
0001d0 43 4b 10 3f 1d a0 79 be 15 9e 39 be 77 d2 0f 3f
       0.5636484 -0.24377485 -0.1812671 0.5618052
0001e0 05 d8 87 3e 37 fb c9 bc c7 36 99 3f f5 8c 17 bf
       0.26531997 -0.024655921 1.1969842 -0.5919946
0001f0 0d 39 7f 3e b2 61 6c be 84 0a 77 3e 08 ad 25 bf
       0.24924107 -0.23084143 0.24125105 -0.6471715
000200 b9 22 54 bf f1 dd aa 3d d9 bd 0d 3d b5 a4 80 3e
       -0.8286548 0.08343113 0.03460488 0.25125661
000210 93 a1 9a 3e 81 d7 b4 bd fc 4d 6c be d5 e8 58 3e
       0.30201396 -0.088301666 -0.23076624 0.21182568
000220 d1 90 f3 be e3 fc 69 bf 88 8e 50 bf f7 7e 70 bf
       -0.47571424 -0.914015 -0.81467485 -0.9394373
000230 5e 33 82 bf 31 d1 cc 3e 07 8f a7 bf 07 70 c7 be
       -1.0171926 0.4000335 -1.3090523 -0.38952658
000240 32 af e1 bd d0 26 68 bf ee 51 96 3e 9f a1 a2 bf
       -0.11019744 -0.90684223 0.29359382 -1.2705573
000250 c2 fe 06 bf 32 5d ec bf 7e c6 68 3d 09 d2 ce be
       -0.5273248 -1.8465941 0.056829922 -0.4039462
000260 b8 f3 33 3e e0 77 38 bf 57 04 d1 be b8 5a 03 3e
       0.1757344 -0.72057915 -0.40823624 0.12827575
000270 1c bf 24 3f 87 b8 44 bd bb d9 31 3f 39 32 03 3f
       0.6435411 -0.04802754 0.69472855 0.5124851
000280 95 b0 d7 be 68 d3 92 bf 61 ea 8b 3e 57 7c 0c 3f
       -0.4212691 -1.1470766 0.27327254 0.5487723
000290 fc 27 61 bf 70 57 a3 3e 4c 54 98 3e a0 7c a4 3e
       -0.87951636 0.31902647 0.29751813 0.3212633
0002a0 d5 1f 38 3f 50 5a 69 bf 34 5c e1 3d b3 fa 92 be
       0.7192357 -0.9115343 0.110039145 -0.28706893
0002b0 3f be c4 3e d7 76 81 bf 1d 07 67 be d9 18 c4 bf
       0.38426396 -1.0114392 -0.22561307 -1.5320083
0002c0 cb bd 31 bf 88 81 50 be 84 4d 18 bf ea 39 1d 3f
       -0.69430226 -0.20361912 -0.5949328 0.61416495
0002d0 c2 40 c7 3e ea 73 db 3e 38 42 31 3e 3a 3b 5f bf
       0.38916594 0.42861873 0.17310417 -0.8719975
0002e0 19 49 86 3e c3 96 c9 be 96 46 ec 3e ca 47 5e 3f
       0.26227644 -0.39372835 0.46147603 0.8682829
0002f0 61 d0 c7 be 63 e0 4a bf 7d b3 41 bf 4f 12 b8 bd
       -0.39026168 -0.79248637 -0.756645 -0.08987867
000300 61 ae 4d 3f f8 38 de be 70 98 3a be 7d 82 7a bf
       0.80344206 -0.4340284 -0.18222213 -0.9785536
000310 46 29 b5 be 55 c1 d2 be 45 1e fa be af 08 2d bf
       -0.35383052 -0.41163126 -0.4885122 -0.67591375
000320 a6 ff d0 bf 6d 84 17 3f 39 95 ab bf 9c 72 1f be
       -1.6328018 0.5918644 -1.3404914 -0.15571064
000330 58 00 9e bf 5c 78 f0 3e 60 63 d3 bd 7c 1c 10 be
       -1.2343855 0.46966827 -0.10321689 -0.14073366
000340 aa 88 77 3f a9 9f 91 3d 0b 9e 15 3f e2 74 c6 be
       0.9669291 0.07110531 0.5844428 -0.3876105
000350 24 ba 22 be 9e cd be bf 42 e4 13 3f 12 6f 0e bf
       -0.1589132 -1.4906499 0.5777017 -0.5563823
000360 8f eb 99 3e 17 7c 16 3f 40 e7 18 bf f9 ff 7c 3e
       0.3006253 0.58783096 -0.5972786 0.24707021
000370 86 6a 00 3e 7e 8f 32 bf 37 8f e3 3d 02 bb cd 3e
       0.12540635 -0.697502 0.111113004 0.40181738
000380 f2 cd 19 be a8 6f 67 bf dc d6 81 3e d9 39 b7 3e
       -0.15019968 -0.9040475 0.25359237 0.35786322
000390 8b 37 77 bf 92 b0 93 3f bb c1 bb bd 01 12 00 bf
       -0.96569127 1.153826 -0.091678105 -0.5002747
0003a0 76 1a ef be ab 55 be be 7e b5 5c bf fc a3 79 be
       -0.46699876 -0.37174734 -0.86214435 -0.24378961
0003b0 3c 91 43 be 62 60 b4 3e 0f ac 34 3e 63 b6 ad 3d
       -0.19098371 0.35229784 0.1764376 0.08482053
0003c0 7f 77 1d be 64 a3 74 3e 4f 44 be bd 89 14 8c bf
       -0.15377615 0.23890454 -0.092903726 -1.0943767
0003d0 26 f4 4e be 57 46 19 bf e0 37 b1 be 6d 67 ba 3e
       -0.20210323 -0.59872955 -0.34612942 0.36407033
0003e0 cd da 21 3f 1a 98 6d be f5 d3 38 be 38 1f aa bf
       0.6322449 -0.23202553 -0.18049605 -1.3290777
0003f0 90 9e 38 bf 94 2a 98 bd 55 89 84 be ed c9 34 3f
       -0.7211695 -0.07429996 -0.25886026 0.70620614

fc3.bias f4 [64]
000000 4c 3c 5e 3f 93 f7 84 3f a0 1b 8f 3f 9d 4c 54 bf
       0.86810756 1.0388054 1.1180305 -0.829294
000010 e4 e9 cc bf b8 a9 89 3f e0 6a 91 bf db 72 58 3f
       -1.6008878 1.0754919 -1.1360741 0.84550256
000020 f9 66 e2 3f af 60 ac bf f0 4e a1 3f 38 91 9b bf
       1.7687675 -1.3467005 1.2602215 -1.2153692
000030 5c 85 35 3f c9 33 9d 3f 1b 76 d2 be aa f1 dd 3f
       0.70906615 1.2281429 -0.41105732 1.7339375
000040 0e 8a b3 bf 33 c7 8e bf 74 5f 8b 3f da f9 8b 3f
       -1.4026506 -1.1154541 1.0888505 1.0935624
000050 a3 f1 29 bf 48 91 bc bf 1c cb 87 bf 7d 6f 1d 3f
       -0.66384333 -1.4731836 -1.0608859 0.6149824
000060 93 d8 19 3f 15 a8 4f 3f ad 4b 88 bf 8d f4 2a bf
       0.6009609 0.8111585 -1.0648094 -0.66779405
000070 08 77 83 3e 9f bc b5 bf c8 af a2 bf 0b 5f 49 3f
       0.2567675 -1.4198188 -1.2709894 0.7866065
000080 38 d0 5b bf 05 bf 1a 3f 9a 95 8f bf 70 07 90 3d
       -0.8586459 0.6044772 -1.121753 0.070326686
000090 8e 6d 90 3f 0f f1 a0 bf 4d c2 6d 3f 68 e3 59 3f
       1.1283433 -1.2573565 0.92874604 0.8511262
0000a0 c9 f9 bb bf 27 35 72 3f 3a ad b7 3f 17 62 10 40
       -1.4685603 0.94612354 1.434974 2.255987
0000b0 a9 17 c4 bf 13 f4 0e 3d 60 9d 5a bf 75 14 85 be
       -1.531972 0.034900736 -0.85396385 -0.2599217
0000c0 23 c3 44 3f 2a 68 8c 3f 1b 38 d9 3f fa 7b ec be
       0.76860255 1.0969288 1.6970247 -0.46188337
0000d0 bd b8 d7 3f 79 a0 99 3f 19 14 9d 3d 45 9b b4 3f
       1.6853253 1.2002097 0.07669849 1.4109885
0000e0 37 c7 2e bf 3c fc 39 bd 38 27 e7 be a8 3d 1f 3f
       -0.6827273 -0.045406565 -0.4514711 0.62203455
0000f0 b9 78 9c bf 33 3c b0 be ac 7f 61 3f d6 ae 42 3f
       -1.2224342 -0.34420928 0.88085437 0.7604803

value.weight f4 [1, 64]
000000 58 67 37 3e 77 64 76 3e 52 0f d8 3d 54 f9 1a be
       0.17910516 0.24061762 0.10549797 -0.15134174
000010 15 f5 9c be e7 ae a3 3d cd 45 e2 be a0 92 f8 3e
       -0.30655733 0.07992344 -0.4419388 0.48549366
000020 c5 38 7b 3e 50 ae 46 be 55 59 14 3e 65 5c 29 be
       0.24533375 -0.19402432 0.14487202 -0.16539152
000030 9c 39 b1 3e 8f 47 88 3e e9 76 af be 5c 57 cc 3e
       0.34614265 0.26617095 -0.3427041 0.399104
000040 03 31 15 3f 65 f1 3a be 49 e1 25 3e 5a 9e e2 3e
       0.5827791 -0.18256147 0.1619922 0.44261438
000050 59 e7 b3 bd aa b3 e1 be 31 2a 45 be 45 23 db 3e
       -0.087843604 -0.44082385 -0.19254376 0.42800346
000060 94 9c b4 be a4 df 05 be 73 10 45 be e1 24 39 bf
       -0.3527571 -0.13073593 -0.19244556 -0.723219
000070 e0 08 67 3e 93 b7 27 3f da 01 72 be b5 4c 4f 3e
       0.2256198 0.6551449 -0.23633519 0.20244105
000080 94 59 aa be ef ca b0 3e 05 5c e0 be be a3 71 be
       -0.33271468 0.34529826 -0.43820205 -0.23597619
000090 33 24 30 3e b9 89 0d bf 84 73 85 3e 57 fd 94 be
       0.17201309 -0.55288273 0.26064694 -0.29099533
0000a0 d3 aa df bd 8b d1 3c 3e 51 4d 75 3e 96 cb 25 3e
       -0.10921254 0.1843931 0.23955275 0.16190943
0000b0 f5 1c 7a be e4 ea d4 3e d9 df b1 be fa a8 2b 3f
       -0.24425109 0.41585457 -0.34741095 0.6705471
0000c0 de 76 f1 3d 12 aa a8 3d 79 fe a0 3e 9f b0 82 be
       0.1179025 0.08235563 0.31444147 -0.25525376
0000d0 de 31 80 3e 6c 77 0b 3e 97 4d 17 be 36 ba 54 3e
       0.25038046 0.13619775 -0.14775692 0.20774159
0000e0 04 1e c9 be f6 99 0d bf ea 11 cb bd 22 04 2b 3e
       -0.39280713 -0.5531305 -0.09915526 0.16700795
0000f0 41 d2 e3 be 7d 64 13 bf 63 6c 77 3e f9 aa ca 3e
       -0.44496349 -0.5757521 0.2416244 0.39583567
