maddpg_v7_over/model/simple_tag/agent_1/244_critic_params.pth (torch, 57783 bytes, 7 tensors)

fc1.weight f4 [64, 82]
00000000: 42b6 e53a 7e9a cbbe db7c fb3d 62cd aabe
00000010: a79f 7bbf 940f 17bf e8cd 4d3f e043 b53e
00000020: 84f1 073e 3bf3 8a3d 768b d9bc b240 a2bd
00000030: 0481 46be d6de dabd a427 aebc 7f84 a93d
00000040: aa4a 50bd 5b78 c4bc b82e f5be 8b14 c3be
00000050: 325d dabf 4913 89bf 8a7d 9f3f 6c22 1c3f
00000060: cb55 7dbd 1b02 b3be 75bb 813d 7d40 99bc
00000070: d030 eb3e 59e6 93bd 9005 363c a732 b83c
00000080: f2bf bebd 8e63 083f cf03 9b3c 71b9 11be
00000090: 15b3 2ebf db3c 84bf d1bd 943f 273d e0bb
000000a0: 853d 9fbd 3826 b1be 2b4a c6bb df15 f0be
000000b0: 3a0d 503e 5131 d3be a22a 833d d349 12be
000000c0: 6134 10be 8204 c13c 7057 82be ee1c 2f3e
000000d0: 7277 fabf e3de 60bf cc0a b33f 61c5 b83e
000000e0: 9827 203e f0ba b5bd 291c 55bd f2b2 4dbe
000000f0: e8c5 9cbe 4e72 c83d cb30 1b3d 1075 e23d
00000100: 40b9 acbc 6b16 073d 6085 fe3d be60 123e
00000110: d474 03bd b5a2 303d 8758 a0bc 5220 083e
00000120: 1c5a 01be dd01 07bd d126 70bd 65d7 233e
00000130: 52ce c7bd 1362 febd 9a7b 69bc c075 463c
00000140: 74aa e4bd e26b 923d 4a73 443e 92b5 07be
00000150: 8dee 22bf ae2f babd 01c8 f3bd 3de7 84bd
00000160: 047e 7abf 0701 d13d 0e57 0c3d d658 b2ba
00000170: a6da 15bd 1aaf 863e ae08 2cbe 3885 13bd
00000180: 9cb6 823e 12c4 d33c ca22 893d 3906 34bf
00000190: 10e3 35c0 320b 94bf 2455 003f b415 173f
000001a0: e5f6 70bf 285b 963e faa1 153e 5753 39be
000001b0: 74cd eb3d 37bb 993d bfd0 543f df90 ef3e
000001c0: ac1b 4e3e 0aa4 a83e 8ea4 87be fc45 dc3d
000001d0: 2ded 66bf 47c4 5abe e00d b93e 216a dbbd
000001e0: a44d b0bf e582 b23e 3e1b 35bd af09 b6be
000001f0: 1b62 663d c51d f63b e6ed bdbc 5a5c 8c3e
00000200: b5be 9b3e 5cb2 4b3e 4b50 c83c 0e3b 343e
00000210: 71ac fdbf 4288 3ebf 42bf b4bd a968 693d
00000220: f6a5 9bbf d8d5 6fbe 03fa 8f3d 222a b8bc
00000230: f6e2 05bf 55c6 74bf 62f7 cbbe 517a 8cbe
00000240: 044f e23b 2f20 22bc ec73 c33d 2d44 ffbc
00000250: de18 963d cd03 883d aeab 54bd 29da 7e3e
00000260: ca20 083e fa49 b73e 2bff f9bd a48e 933d
00000270: da3c 043e a950 e03d 3f87 013e 1e67 53be
00000280: 7fae 963e c6f4 e9be 5eb3 0c3e b8f7 8ebe
00000290: eccd f3be 8893 80be ea74 39be c5d3 81bf
000002a0: b7f6 e9be ba9d 0abf 0a1d 913f c666 6b3e
000002b0: 1670 ac3e 788e 1cbd 851b 953c 008a 17be
000002c0: 96e4 193e 100d ae3e bac3 5bbe 7cb3 08be
000002d0: fae8 5dbf 8c4c c5be 181d 5abf 5423 b4bf
000002e0: 2560 5bbf b0bf 7bbf 3941 0e3f d23d 81be
000002f0: 4fb2 8fbe a005 b1be c361 4b3e 947c e8bd
00000300: 10de 4d3f 5200 47bf e448 5a3e 9ae8 d43d
00000310: 2622 ab3e 113c 8fbc 9f7b 873d 3785 41bf
00000320: 2da6 85bf 6e35 34bf 2966 813f 1ea7 29be
00000330: abd4 3bbe 2a1a 6cbd 3a91 b7be 5a29 ab3e
00000340: 8767 18be d0bd babe 8baa 283e d209 02bd
00000350: 75db b0bd f403 f5bd b0a1 10be a259 61bf
00000360: 85a7 afbf 777b 31bf 812e 6c3e 907b 09be
00000370: 1350 8a3d 9216 0f3e d5b1 6ebf f773 013f
00000380: 1be0 9e3e 2e88 203d 8fda 69bc c6f7 e0bd
00000390: 047b 963d 62cc 823d b988 4e3e 8467 c0bc
000003a0: 9807 e4be 0895 253e 0293 c8bd d361 d9bd
000003b0: 54c6 c3bd cc9c 9c3e 0666 b7bd cd91 9f3d
000003c0: b4f9 013e 9e33 32be 4f7b fbbd 39b6 d0bd
000003d0: 11b9 1dbe 8324 993d 535c 863d e5d2 a63d
000003e0: 59dd b13d 78d8 8e3f d3fd a03e fec1 233f
000003f0: 1e47 a2be 9cf3 3cbe 058e b9bc 9c55 07bd
0.001752563 -0.39766306 0.12279674 -0.3335982 -0.98290485 -0.59008145 0.80392313 0.35403347
0.13275725 0.06784674 -0.026555758 -0.07922496 -0.19385153 -0.10687034 -0.021259136 0.08277225
-0.050852455 -0.023983171 -0.47887206 -0.3810161 -1.7059691 -1.070901 1.2460186 0.60990024
-0.061849397 -0.34962544 0.06334583 -0.018707508 0.45935678 -0.0722167 0.011109725 0.02248509
-0.093139544 0.5327691 0.018922715 -0.14230897 -0.6824201 -1.0331072 1.1620427 -0.0068432274
-0.07775406 -0.3459947 -0.006051322 -0.46891686 0.20317546 -0.41248563 0.06404616 -0.14285974
-0.14082481 0.02356172 -0.25457335 0.1710088 -1.9567702 -0.878401 1.398767 0.36088088
0.15640104 -0.08873546 -0.05202881 -0.20087793 -0.3061974 0.09787427 0.03788833 0.11057484
-0.021084428 0.032980364 0.12427783 0.14294717 -0.032093838 0.04312392 -0.019573463 0.13293579
-0.1263203 -0.03296076 -0.05863077 0.16000135 -0.09756149 -0.1242105 -0.01425066 0.012113035
-0.11165324 0.07149483 0.19184604 -0.13252857 -0.6364525 -0.090911254 -0.11903382 -0.06489418
-0.97848535 0.10205274 0.03426271 -0.0013606797 -0.036585473 0.26305467 -0.16800186 -0.03601572
0.25529945 0.02585033 0.066960886 -0.70321995 -2.8419838 -1.1565917 0.50129914 0.5901749
-0.9412673 0.29366422 0.1461257 -0.18098198 0.115137964 0.075064115 0.8313102 0.46790215
0.20127743 0.32937652 -0.26492733 0.10755536 -0.9020565 -0.21363936 0.36143398 -0.10713602
-1.3773694 0.3486549 -0.044215433 -0.35554263 0.056245904 0.007510873 -0.023184728 0.2741421
0.30418935 0.19892257 0.02445235 0.17600653 -1.981825 -0.7442666 -0.08825542 0.056984577
-1.2160022 -0.23421419 0.07030108 -0.022481028 -0.5229944 -0.9561513 -0.39837176 -0.2743707
0.006906392 -0.0098953685 0.09543595 -0.031160438 0.07328962 0.0664135 -0.05192154 0.24887909
0.13293758 0.35798627 -0.122068726 0.07204941 0.12913838 0.10952885 0.12649249 -0.20644805
0.29430005 -0.4569456 0.13740298 -0.2792337 -0.47618043 -0.25112557 -0.18111005 -1.0142752
-0.4569604 -0.5414692 1.1336987 0.22988424 0.33679265 -0.038221806 0.018201599 -0.14798737
0.15028605 0.3399434 -0.21461383 -0.13349718 -0.8668362 -0.38534963 -0.85200644 -1.4073281
-0.8569358 -0.98339367 0.5556827 -0.25242478 -0.28065726 -0.34574604 0.19861512 -0.113518864
0.80416965 -0.77734864 0.21316868 0.10395928 0.3342449 -0.017484697 0.06615376 -0.75593895
-1.0441338 -0.7039403 1.0109302 -0.16567656 -0.18342845 -0.05764214 -0.35852987 0.33429986
-0.14883243 -0.3647294 0.16471307 -0.031747647 -0.08635608 -0.119636446 -0.14124179 -0.88027394
-1.3722998 -0.6932902 0.23064615 -0.13426042 0.06753554 0.13973454 -0.932401 0.50567573
0.31030354 0.03919237 -0.0142733 -0.10984759 0.07347682 0.06386639 0.20169343 -0.02348686
-0.44537044 0.16170132 -0.097936645 -0.106143616 -0.095593125 0.30588377 -0.08955006 0.07791481
0.1269291 -0.17402503 -0.122793786 -0.10191006 -0.15402628 0.07477667 0.06560578 0.08145694
0.08684797 1.1159811 0.31443653 0.63967884 -0.31694883 -0.18452305 -0.022650728 -0.033040628

fc1.bias f4 [64]
00000000: 61aa 88be 6745 0d40 2920 813c 49fc ebbe
00000010: 04c7 503e d0a0 a23e 6bd7 0340 2627 c1be
00000020: 4912 eac0 3a38 af40 e0a4 58bf 94cf 8fc0
00000030: bb0f a53f c5ef e7bf f232 d4bf dfea d0bf
00000040: a3e5 4dbf 1e8f 73c0 3ab6 8ac0 1cc9 d83f
00000050: 4e98 8340 fb49 b8c0 6440 40c0 c5aa 0c40
00000060: e4f7 02bd c13d 5140 bc63 a13f 078a 18c0
00000070: 4c29 65c0 a399 85c0 c79d 0ac0 1f88 2240
00000080: 4d32 71bf 0ebd 3ebe ec2f 96bf b4b1 c43f
00000090: 7ac6 d33e ff54 d33f 8f30 90c0 df76 1740
000000a0: cc5b 1d40 52f2 8cbe 8f1b f63f f749 ca3f
000000b0: dbbf adc0 8137 6c40 3c69 51be 4cfc 2cbf
000000c0: acd6 0ac0 1428 3bc0 4e4a 93c0 f81f 8ec0
000000d0: a1a0 623e 63ff fabf a4f0 2ebf b8fa f03f
000000e0: 3a4a cbbf c91c 95c0 64e2 023d cf18 14c0
000000f0: b34e a540 dc15 eebf 3d62 543f b7c3 71c0
-0.2669249 2.207361 0.015762405 -0.46090916 0.20388418 0.31763315 2.060023 -0.3772518
-7.314732 5.4756136 -0.8462658 -4.494089 1.2895426 -1.8120047 -1.6578047 -1.6321677
-0.8042852 -3.8056102 -4.3347445 1.6936374 4.112342 -5.759031 -3.00393 2.197923
-0.03197469 3.2693942 1.2608562 -2.3834245 -3.5806456 -4.1750045 -2.16588 2.5395582
-0.9421738 -0.18626806 -1.1733375 1.5366731 0.41362363 1.6510314 -4.5059276 2.3666303
2.4587278 -0.27528626 1.922716 1.5803822 -5.42967 3.6908877 -0.204503 -0.67572474
-2.1693525 -2.9243212 -4.6028204 -4.4414024 0.22131588 -1.9609188 -0.6833594 1.8826513
-1.5882027 -4.659764 0.031954184 -2.3140142 5.165857 -1.8600421 0.829624 -3.7775705

fc2.weight f4 [64, 64]
00000000: 0c22 e2bf db47 e7be 0609 80be 9fe1 c8be
00000010: 7c55 03be 57b7 28bf 570f 35bf d3ee 56be
00000020: 524d d2bf 6dfa 6e3d c4d1 6dbf 0801 6ebf
00000030: 5465 3b3f d16c f1bf c313 ab3d 8481 50bf
00000040: 9e2d c6bd a333 983c 5889 893d eec3 54bf
00000050: add4 953e 7dff df3d 51ac 2bbf 1545 513f
00000060: 13e0 d73e 9b1e a13e 89c1 033e d84e c5bf
00000070: 8757 21bf d767 653e 8451 de3e 5a78 483e
00000080: c249 e9bf 71ac 2ebf 271f 5b3f c5f5 503f
00000090: 820a 0b3f 9fd3 963f ce71 f2be 20b5 213f
000000a0: c8c0 563f 6943 46bf 908a 033f 935d 003f
000000b0: 41c1 133f 4f1e 963e 78d6 9b3f b3f8 b0bf
000000c0: 9d33 30c0 8e63 babe fb17 0bc0 0fb8 ac3d
000000d0: 169f 29bf 9774 3bbf 76e2 2fbf 9aac b0bf
000000e0: c311 7dbf 76e3 913e 61dd f8bf 24a5 423e
000000f0: a692 8abf ef6b c13e 2a1c f4be 07d9 44c0
00000100: 518e e2be 002a c8be 4542 5b3f ce42 90bf
00000110: 2fe4 f7bf 1ef2 2bbf 5da6 cf3e 47a0 7fbe
00000120: 8ebc 23bf 7b13 3bbf 5ffc 0cbc 8687 063f
00000130: 54c5 3abf 33dd 233e e2cf 90be e7e0 873e
00000140: 3d9a 3abe cbf8 43bf 3095 5c3f caeb 00bf
00000150: b610 d2be 56a7 973c 6b6f 0fbe fd4b ac3f
00000160: d0e4 053f 3afe 523e 0a6d 17bf bab4 243f
00000170: e9f4 d4bf efb6 2e3f 74a2 27bf 7e5c 0abf
00000180: 78eb 4bbe 0996 28bf 267e 673c a6a5 ebbe
00000190: 1daf 20bf 650a 95bf f457 56be 6e0f 96bf
000001a0: 3a3a 09bf d91c 873e 011e a8bf b577 eb3e
000001b0: 66d4 4d3f 5686 173e a1b4 b33d ea9c 51bf
000001c0: e6ed 2bbf ddf6 fb3e 4a08 733f badc b5bf
000001d0: 851f 3fbf 31b3 bc3e ef80 a2bf dec2 1abc
000001e0: 7226 423f ff70 403f 7e4c 97bd 77e3 723e
000001f0: 5483 58bf 731a 98bf 42ee 25bf 0519 76bf
00000200: b43d bb3e 4c5f 493e 590f 0d3e af12 773e
00000210: 4354 883e 5cee 80be 1bcd 9c3e 9562 af3c
00000220: 2f89 96bf 43d4 383f 76fe 4e3d 3364 8bbc
00000230: c9b4 9bbe 6d99 abbd 9498 d13e 0e2f 97bd
00000240: 7c10 92be 663e f1bc 2c21 6abf 4548 6a3c
00000250: fce2 8e3d 6e20 14bf 0bcc c9be e049 8d3d
00000260: 804a 6e3f 973e cabd cf39 a93d 1f9e 743e
00000270: 524a 45bd 41a2 2a40 4ae5 febe 8cd9 bdbe
00000280: 45ff 6b3c 722f 513d d4e2 9bba 9b5d a83e
00000290: 8c26 fd3d 0a98 5cbe bca6 16bf 4f6c 9c3e
000002a0: acea 09be c5ae 4abe 9519 1abd 80fd 073f
000002b0: c35d 5bbe b0ca 07c0 6a0b f7bd 715b 543e
000002c0: 26c1 323c ecd6 05be f0d6 c63e e41a a8be
000002d0: 9e63 e5be 2e03 84bd f707 6fbe f38a 633e
000002e0: 803f 0ebf a62f 0540 9cd1 d2bd 89fd 503e
000002f0: 528b 593f 03a8 cb3c 670a 8c3e 1ed1 14bf
00000300: 741e 2abf 15e4 1c3f abcf c8bf 23eb 023f
00000310: 9b53 863e 0147 62bf 1403 dfbc dcb7 90be
00000320: c046 42bf b69b 03bf ccd1 c03d 28a2 b5bf
00000330: 2732 2cbf f880 bc3e 105b 0dbf da19 5bc0
00000340: 5673 85bf d119 293f 4905 eebf 683d 75bf
00000350: 8020 b03e 210b e4be e8c6 c93e 6716 8abe
00000360: d108 363d 1679 4f3e 885c 0fbe 3eee b73e
00000370: bfd4 0fbe 98a2 d73e 1bb4 86bd 564d 9b3d
00000380: a91d 203f 1750 40bd 198a 163f 0038 48bf
00000390: 31ec e73e 451a 28bf 5393 d0be e2ef fcbe
000003a0: 2f39 12bd 5068 85bd 4a7a 9dbf 4a93 d23e
000003b0: dffc babf 04ab bdbe f279 51bf 06d8 833d
000003c0: e7a9 89be 0e91 823f a647 28bf bd87 773f
000003d0: 1206 c6bc c2d3 303e e6a6 4fbf 04d8 a0be
000003e0: 777e e0be 061d 863f 2f1e 8d3e 2c5a d73f
000003f0: f886 37bf 3ef7 d83e c10e 213f d102 99be
-1.766664 -0.4517201 -0.25006884 -0.39234635 -0.12825578 -0.65904754 -0.7072653 -0.20989542
-1.6429846 0.058344293 -0.928982 -0.92970324 0.7320149 -1.8861333 0.083533786 -0.81447625
-0.096766695 0.01857931 0.06715649 -0.83111465 0.2926382 0.109374024 -0.6705981 0.81746036
0.42163143 0.31468663 0.12866797 -1.5414686 -0.6302418 0.22402893 0.43421566 0.1957716
-1.8225634 -0.68231875 0.8559441 0.81625015 0.5431291 1.1783332 -0.4735245 0.63167
0.8388791 -0.7744661 0.51383305 0.5014278 0.5771676 0.2932 1.2174826 -1.3825897
-2.7531502 -0.3640408 -2.1733387 0.08433544 -0.6625837 -0.73224777 -0.68704927 -1.3802674
-0.9885523 0.2849385 -1.944256 0.19008309 -1.0826004 0.3777766 -0.47677737 -3.0757463
-0.44249204 -0.39094543 0.85647994 -1.1270387 -1.9366511 -0.67166317 0.40556613 -0.24963485
-0.63959587 -0.730766 -0.008605092 0.5255054 -0.7295735 0.1600235 -0.28283602 0.26538774
-0.182229 -0.765515 0.8616514 -0.50359786 -0.41028374 0.01851241 -0.14007346 1.346069
0.52302265 0.20604792 -0.59150755 0.64338267 -1.6637241 0.68247885 -0.6548226 -0.5404738
-0.19914043 -0.65853935 0.014129197 -0.46024817 -0.627672 -1.1643797 -0.20931989 -1.1723459
-0.5360447 0.26389197 -1.3134156 0.45989767 0.8040222 0.14797339 0.087746866 -0.81880057
-0.6715988 0.4921178 0.94934523 -1.4207985 -0.7465747 0.36855462 -1.2695597 -0.009445874
0.7583991 0.7517242 -0.073876366 0.23719583 -0.8457539 -1.1883072 -0.6481668 -0.96131927
0.36570513 0.19665259 0.13775386 0.24128221 0.26626787 -0.25181854 0.30625233 0.021409312
-1.1760615 0.72198886 0.05053564 -0.017015552 -0.30411366 -0.08378873 0.4093672 -0.07382022
-0.28528202 -0.0294487 -0.91456866 0.014299457 0.069768876 -0.57861984 -0.39413485 0.06898856
0.9308243 -0.09875219 0.08262979 0.23888443 -0.04816658 2.6661532 -0.4978431 -0.37080038
0.014404123 0.051070638 -0.0011893162 0.32883915 0.12360868 -0.21542373 -0.58848166 0.30551383
-0.13468426 -0.19793232 -0.037622053 0.53121185 -0.21422486 -2.121746 -0.12062724 0.20738007
0.010910308 -0.13070267 0.3883586 -0.32833016 -0.44802564 -0.06445919 -0.23342882 0.22220974
-0.55565643 2.0810332 -0.10293886 0.20409216 0.8497821 0.024860388 0.27351686 -0.5813159
-0.6645272 0.61285526 -1.5688375 0.5114004 0.2623566 -0.88389593 -0.027223147 -0.28265274
-0.75889206 -0.5140947 0.094150156 -1.4190111 -0.67264026 0.36817145 -0.55217075 -3.4234529
-1.0425823 0.6605502 -1.8595363 -0.95796824 0.34399796 -0.4453974 0.39409566 -0.26970217
0.044442 0.20261034 -0.14000142 0.35923952 -0.14046 0.42116237 -0.06577321 0.0758311
0.6254526 -0.04695138 0.5880447 -0.7821045 0.45297387 -0.65665084 -0.407374 -0.49401766
-0.035699066 -0.06514037 -1.2302945 0.41127998 -1.460842 -0.37044537 -0.818267 0.064376876
-0.26887438 1.0200517 -0.65734327 0.96691495 -0.024172816 0.17268279 -0.8111404 -0.31414807
-0.43846485 1.0477607 0.2756209 1.6824393 -0.7169032 0.4237613 0.6291314 -0.2988496

fc2.bias f4 [64]
00000000: 3058 213f 57d8 3bbf 8216 2240 8671 0a3f
00000010: 9511 743f f5b5 d33f 6868 723f 4bcf 383e
00000020: fe1c f13f 2bf0 4e3f 641e d2be a6bf bc3e
00000030: df85 8cbe c1d5 b43f 0d8b f9bf 6107 903f
00000040: 6c70 363f e846 3840 8a2b 583f ac2c 9abe
00000050: 94c4 8fbe 6100 7e3f 5912 d13f 448b 91bf
00000060: 7af1 ba3e c63a 0340 2ffa 0c3f 9002 b8bf
00000070: 3b97 2240 d507 f5be 2480 bfbf 0c22 063f
00000080: 58e3 1a40 05fe 22c0 68ec fc3f 40c3 ce3f
00000090: 2ab2 603f 9b4f 1d3f 5715 a73f 528b 44c0
000000a0: b7b8 983f d483 6cbf 29a0 10c0 9a5d 1bbf
000000b0: 9c17 19c0 0695 58be 0241 3440 4080 ea3e
000000c0: 4c48 aa3f 8bca e53f 097a 29bf b342 213f
000000d0: 6598 bbbc 6f9f 4dbe bac4 223f 2e63 983f
000000e0: a52f ea3f 07cf ef3e dea4 5d3f 240e abbf
000000f0: 2b8f 17c0 a28d 2dbf 4de1 d9bf c779 93bf
0.6302519 -0.73376983 2.5326238 0.54079473 0.9533933 1.6539904 0.9469056 0.18047826
1.8836973 0.8083522 -0.4103881 0.36864966 -0.27445886 1.4127733 -1.949556 1.1252252
0.7126529 2.8793278 0.84441435 -0.30112207 -0.28079665 0.9921933 1.6333724 -1.1370625
0.36512357 2.0504622 0.5506925 -1.4375782 2.5404804 -0.47857538 -1.496098 0.523957
2.420126 -2.5467541 1.9759645 1.6153336 0.87771857 0.61449593 1.3053387 -3.0710034
1.193137 -0.92388654 -2.2597754 -0.606897 -2.392066 -0.21150598 2.8164678 0.45800972
1.3303313 1.7952436 -0.66201836 0.629924 -0.022899816 -0.2008035 0.6358143 1.1905267
1.829579 0.46837637 0.8657969 -1.336369 -2.3681133 -0.6779424 -1.7021881 -1.1521538

fc3.weight f4 [64, 64]
00000000: 322c 4e3d 30e8 4d3e 8070 873e e384 5cbd
00000010: 1ddf eabe 55cf 76bd 77a7 3bbf 6fc4 48be
00000020: 69c6 a1bd 7028 19be 9aa1 97bf 3a8e a6be
00000030: d6ea 4fbe bde2 683e 6fe8 163f 6564 963d
00000040: ceb1 66bf 68e2 753e fe48 aebe 306a 61be
00000050: d0dc fd3e 64e1 e4be 1ecf 4fbe d0d0 863d
00000060: 652a 0bc0 f212 80be 822f 773e f602 873e
00000070: 48d1 f3bd a9fa d93e 2c7e 86bd 2598 483f
00000080: 9b22 853f 0d93 e5bd 72f4 cabe 686d da3d
00000090: 54ad f23d 92f9 bc3e 7a00 693e 753f c2be
000000a0: 9c28 91bd bb88 6e3f 0b8c 0abf e755 8bbf
000000b0: d64e a33d a0a5 573f 054c e33d 8e15 f53d
000000c0: a89a 88be bf90 34be c7a6 a2bf 037f 85be
000000d0: 532e 3640 f85a 953e bae5 a3be efe1 283e
000000e0: aba4 243e a4a5 40bf 99d9 173f 7cd9 843d
000000f0: 9d1b c13e 81ab 5dbd 33e5 c8bd 91ed 4ebf
00000100: 0dba d63e 880f 0340 07ce dabe 889f 2dbd
00000110: a835 7a3f 5715 b0be 4d3f 2f3e 9698 693e
00000120: 0c0a 133c 62d1 19be c522 3fbf e278 8f3e
00000130: 94da 37bf 98b9 dc3e f82d c3bf 0483 99bf
00000140: 904c a9be 0e93 c7bf 5a19 40bf 0226 d63e
00000150: 6a13 9cbf b113 d8be cbde 08bf 93f7 89bf
00000160: 9562 f63d aef6 fbbe e52a ebbf 06c5 e6bd
00000170: c7d4 4dbf 6e4a c03e 98e0 e5bd cb78 e6bd
00000180: 78c9 b6be a673 90bf cfca 31be 14c5 8fbe
00000190: 1aa4 bf3e 66df b9be 70cc 35bf 06fa a2bf
000001a0: 4029 f9bf e167 183e 22b8 0abf 3796 60be
000001b0: 0ed5 14bf 7f06 a7bf 4261 24be eb67 86be
000001c0: f6e6 97bf 4ae1 03bf 923c e7be c703 68bf
000001d0: 7462 033e 76b5 ebbb 5842 5ebf b70a 3cbf
000001e0: 420c 873d d854 93bd 3f27 e13d f58c 17bf
000001f0: b1d5 cd3e b261 6cbe 4723 2bc0 cf6b 21bf
00000200: 2cb2 acbf 3a9e 82bf 46fe e9bd c91e 82bc
00000210: 6922 963e a6d7 e8bf c99c 91bf 7f52 a9bf
00000220: 91cc 4abf c9f9 b2bf 888e 50bf f77e 70bf
00000230: d77b 31bf 44d9 173f f6fe 0ec0 f1e8 79bf
00000240: 32af e1bd 7840 b6bf f7f4 d83e 3214 d5be
00000250: 1e4e db3e 6b2b 16bf 6966 f9bd 60d4 eabf
00000260: b80a 473e 4c9c 4cbf 08ff 83bf 0615 55bf
00000270: f9d1 b43e 5d68 f8bf bbd9 313f 9e77 25bf
00000280: a645 5bbe 68d3 92bf 6af3 c8bd ef25 e5bd
00000290: d8a9 3dbf b0b7 263f b189 68bf 1150 d3bd
000002a0: 8491 d9bd c861 7b3f bb8c 223f 8305 94be
000002b0: 2d4c 3dbf d776 81bf 994d 18bf a2a2 cebf
000002c0: 26d8 febf f497 893d f849 15bf 6e08 3b3f
000002d0: 25d6 993f fd78 f5be 9df8 2a3f 8152 b4bf
000002e0: e2e9 023f 8819 ecbe 2035 863f ca47 5e3f
000002f0: c417 943e 63e0 4abf 8ec1 8fbf dbde 50be
00000300: d9cc b03f e484 a6bf 2d24 b5be b45f d73e
00000310: b40a a7bf 3587 80bf 16f1 24bd c6b6 f6be
00000320: 2827 0ebf dc0b c13e 3995 abbf 9c72 1fbe
00000330: 80dd b7bf 9ed6 46be 40d3 383e c41a 073f
00000340: aa88 773f 4a74 7b3f 9fea 933e 927f c5be
00000350: c8cb 463e bde3 34bf 616d 3b3f 9b59 8e3d
00000360: b468 423f e127 fa3d 5858 0cbe c89c 823f
00000370: 5bc1 673e dce5 a0bf 378f e33d 1110 8d3e
00000380: 7c7e 673e a86f 67bf 86f6 21bf 7001 5fbe
00000390: 57a0 a7bc a601 8f3f 887f 8abf 9a01 6cbf
000003a0: a455 d5bd 462a 293d e183 49be fca3 79be
000003b0: 1981 533f 6260 b43e ceee 843e 7908 04bf
000003c0: d599 77be 65fa 34be 3de4 613d 8cb6 f73e
000003d0: 4492 bd3e 4161 17bf 695a e1bd ee57 533f
000003e0: 6ba5 5c3f 097a adbe 5ff7 35be 381f aabf
000003f0: 337d 1bbe 942a 98bd c8d7 273c ac2a 95be
0.050335117 0.20108104 0.26453018 -0.05383767 -0.45873347 -0.06025632 -0.73302406 -0.19606183
-0.07899172 -0.14956832 -1.1846192 -0.32530385 -0.20304427 0.22742744 0.58948416 0.073433675
-0.9011506 0.24012148 -0.34040064 -0.22013164 0.4958253 -0.4470321 -0.20293853 0.065827966
-2.1744626 -0.25014454 0.24139217 0.26369447 -0.119051516 0.4257405 -0.06567034 0.78357154
1.0401186 -0.11209688 -0.39639622 0.10665399 0.11849466 0.36909157 0.22754088 -0.3793904
-0.07087824 0.93177384 -0.5411994 -1.088559 0.07974021 0.842371 0.11098484 0.11967002
-0.26680493 -0.17633341 -1.2707146 -0.26073465 2.8465774 0.29170966 -0.32011205 0.16492437
0.16078441 -0.7525275 0.593164 0.06486794 0.3771638 -0.054118637 -0.09809341 -0.8083125
0.4193882 2.047823 -0.4273531 -0.04238847 0.9773812 -0.3439128 0.17113991 0.22812113
0.008974563 -0.1502128 -0.7466243 0.28021914 -0.718179 0.43110347 -1.5248404 -1.1993108
-0.33066225 -1.5591753 -0.75038683 0.41825873 -1.2193425 -0.42202523 -0.53464955 -1.0778679
0.12030522 -0.4921164 -1.8372465 -0.11268048 -0.804028 0.37556785 -0.112244785 -0.11253508
-0.35700583 -1.1285293 -0.17362522 -0.28080046 0.37429887 -0.36303252 -0.7101507 -1.2732551
-1.9465714 0.14883377 -0.54187214 -0.21932302 -0.58137596 -1.3048857 -0.16052726 -0.26251158
-1.1867359 -0.5151564 -0.451634 -0.90630764 0.12830526 -0.0071932627 -0.8681998 -0.7345385
0.06594135 -0.07193917 0.10993814 -0.5919946 0.40202096 -0.23084143 -2.6740282 -0.6305513
-1.3491874 -1.0204537 -0.11425452 -0.01588382 0.29323128 -1.8190811 -1.1375972 -1.3228301
-0.79218394 -1.3982478 -0.81467485 -0.9394373 -0.6932959 0.59315896 -2.2343116 -0.97621065
-0.11019744 -1.4238424 0.42374393 -0.4161697 0.42833036 -0.5866 -0.12177736 -1.8346062
0.19437683 -0.7992599 -1.0312204 -0.83235204 0.35316446 -1.9406849 0.69472855 -0.64635646
-0.21413288 -1.1470766 -0.098120525 -0.11188876 -0.74087286 0.65124035 -0.908351 -0.10318006
-0.10623458 0.9819608 0.6349599 -0.28910455 -0.7394436 -1.0114392 -0.59493405 -1.6143382
-1.9909713 0.06718436 -0.5831599 0.7305974 1.2018477 -0.4794387 0.66785604 -1.4087678
0.51138127 -0.4611323 1.0484962 0.8682829 0.28924382 -0.79248637 -1.1230943 -0.20397513
1.3812515 -1.3009305 -0.35379162 0.42065203 -1.3050141 -1.0041262 -0.04026898 -0.4818632
-0.555285 0.3770436 -1.3404914 -0.15571064 -1.4364471 -0.19417807 0.18049335 0.52775216
0.9669291 0.9822432 0.2888994 -0.3857389 0.19413674 -0.7066 0.73213774 0.06950685
0.75941014 0.122146375 -0.13705575 1.0204096 0.22632353 -1.2570148 0.111113004 0.2755132
0.22606844 -0.9040475 -0.6326679 -0.21777892 -0.020462198 1.1172378 -1.082017 -0.92189944
-0.10416725 0.04130008 -0.19679214 -0.24378961 0.8261886 0.35229784 0.25963444 -0.5157543
-0.24179776 -0.17673643 0.055149306 0.4838146 0.37025654 -0.5913277 -0.110035725 0.82556045
0.8618991 -0.33882168 -0.17770146 -1.3290777 -0.15184478 -0.07429996 0.010244317 -0.2913412

fc3.bias f4 [64]
00000000: 45e1 363e 7648 193f c4cf 9a3d 48f9 d1bf
00000010: bf0e 11c0 ee37 023c fc8e 90bf 203a 693e
00000020: 14a8 1340 2422 f4bf 157a 513f cd78 3ac0
00000030: d171 393f 553b bc3f 33da 54bf 64c3 2240
00000040: 7988 b5bf 157e dbbf 1523 583f 6258 0b3f
00000050: 4451 bdbd b66d cfbf 4446 43bf 1899 0e3e
00000060: 3973 993f e544 143f db56 02c0 63a1 89bf
00000070: 86fc 12be 9e41 b6bf 140c e5bf fda7 6d3f
00000080: 2025 30bf d88f a9be 4d24 bebf 7f8e 843f
00000090: c08c 743f df9d bfbf cfff 1c3f 24ad 8d3f
000000a0: 9e3f 12c0 89cc 8a3d fbeb 3b3f 04b7 1240
000000b0: c70e e5bf a7c4 b8be d21f 1abf 188a 76bf
000000c0: 38ad 08bf e541 2d3e bf8f 2840 cefd f4bd
000000d0: 2234 e13f aec3 4ebe 44ba 84bf 0b0c 3f3f
000000e0: 6c89 d4bf b6cc 263e 8820 60bf 9bfe 98be
000000f0: 4a68 debf 437b 5fbf ad57 0440 118c 0cbf
0.17859371 0.5987619 0.075591594 -1.64042 -2.266525 0.007947905 -1.1293635 0.22776079
2.3071337 -1.9072919 0.8182691 -2.913623 0.72439295 1.4705607 -0.83145446 2.5431757
-1.4182273 -1.7147852 0.8442853 0.54431736 -0.09244016 -1.6205356 -0.7627909 0.13925588
1.1988288 0.57917625 -2.0365512 -1.0752376 -0.14354143 -1.4238775 -1.7894311 0.92834455
-0.6880665 -0.33117557 -1.4854828 1.0355986 0.9552727 -1.4970053 0.6132783 1.1068463
-2.285133 0.06777293 0.7340695 2.2924204 -1.7895135 -0.36087534 -0.60204804 -0.96304464
-0.5338931 0.16919668 2.6337736 -0.11962472 1.7594035 -0.20191833 -1.0369344 0.7462775
-1.6604438 0.16289029 -0.8754964 -0.2988175 -1.7375576 -0.8729746 2.0678513 -0.54901224

value.weight f4 [1, 64]
00000000: 5810 8b3d ef3d 6abe 2620 903e e6d6 8bbd
00000010: 1bea f3bc 129b 653d adf8 e3bc 0562 fb3d
00000020: 632b 243d f6ed afbc 761b 06be d837 9ebd
00000030: e4c2 873e a09c 073e 39ee 63bd 2d26 103d
00000040: ab1d b23e 50e6 35be 5441 ce3d 6ee3 373e
00000050: 2925 28bd 43cf 2bbe 8a64 a7bc 6149 9e3d
00000060: fc69 0fbd b869 87bd a04d c2bd 1a91 dabd
00000070: 5e8d 1c3d 5f55 843e 8eac 6c3e 1335 8d3d
00000080: bf2f 97bc 2791 90be 79e0 89bd 5708 3bbe
00000090: 36f0 103e 3616 a9bd 793f 0b3e 4cee ebbd
000000a0: 19fa b0bd 4852 163e f701 0a3e 8490 963d
000000b0: cedb c5bd 8301 cc3e a932 ccbd 4cb4 e63d
000000c0: 40b5 a73e 1c51 8a3e 1aaa 163e dd22 afbd
000000d0: ebf3 613d 782b 553e 98c8 44bd fd2b fcbd
000000e0: f6c2 07be 3435 48be 1a57 d33d 39d2 a33e
000000f0: a2ce fabd 9124 bbbd 5cfb b43d 7e7c e33d
0.06790227 -0.22875188 0.28149527 -0.06828098 -0.029774716 0.05605609 -0.027828539 0.12274555
0.04008044 -0.021475773 -0.13096413 -0.07725495 0.26515877 0.13243341 -0.05564711 0.035192657
0.3478826 -0.17763638 0.10071054 0.17957851 -0.041051064 -0.16778283 -0.020433683 0.0772884
-0.035013184 -0.06611961 -0.09487462 -0.10672207 0.038220756 0.25846383 0.231127 0.06894889
-0.018455384 -0.28235742 -0.06732268 -0.182649 0.14154133 -0.082561895 0.13598432 -0.11520061
-0.08641452 0.14679825 0.13477312 0.07351783 -0.09661065 0.39844903 -0.099706 0.11264858
0.3275547 0.27015007 0.14713326 -0.085515715 0.05516426 0.20817363 -0.048042864 -0.123130776
-0.13257965 -0.19551545 0.10319348 0.31996325 -0.12246443 -0.09137834 0.088370055 0.111077294
