maddpg_v7_over/model/simple_tag/agent_1/377_critic_params.pth (torch, 57783 bytes, 7 tensors)

fc1.weight f4 [64, 82]
00000000: 3379 6cbe 96d2 463f a42d d83d f509 163e
00000010: 37ba b4be 7313 03bf 6bb0 5f3e be2d adbe
00000020: 54c4 5e3e e870 18bf 7461 91be 829d 3dbf
00000030: a6a7 81be e389 34bf 387c 2d3d 526e 25bd
00000040: a0f6 943e cb45 febe 9289 30be f0bb 85bf
00000050: 0279 2fbf 2fa4 803e 1850 37be 56a6 c83e
00000060: bf29 16be 349c a03e a058 fabe f0dd 823d
00000070: 85cf 403e 81d4 953c 0d0a 993d 0330 cebd
00000080: 3284 31bf ec8f 31be adea 12bf 8de4 a3be
00000090: e781 1f3f 790f 53be 2c08 473f ca8d 71bd
000000a0: 60f2 373e 7285 a13e 57d7 0b3f af31 0dbf
000000b0: ce73 113f 4004 d7be 09ba 023e b533 88be
000000c0: 841f 9ebd 7dfb cbbd 7a7c 0ebf dd04 06be
000000d0: 74a9 04bf 08b7 473e 1f28 d53e 640f b83c
000000e0: 3ff6 5c3e 3276 023f bf49 603e 3531 95be
000000f0: 74d3 2bbf e6c4 d73d 8069 583d 0bbe b8bd
00000100: 97f8 a33c 9fbe 3f3e 6a2d 6abe b938 993d
00000110: f34c c33d d1a0 0cbe be0a 86be e0e9 db3d
00000120: 7d47 4a3d e86c 7bbe 2538 943e 5c8e c63c
00000130: 7459 9a3d 74c5 97bc 29c1 b03c 27c3 92bd
00000140: b540 18be 4405 e33d c93d 633d b172 563d
00000150: 3126 863e 53f3 943e bbaa 62bd 20f9 ebbc
00000160: 96d2 55be ba2e 563b c22a f13d 7eb4 d6bc
00000170: f5d7 0f3f 7c39 efbe 8f9b 10bf 4290 ff3e
00000180: 5602 f3bd c1da a23d ad89 48bd d999 e33d
00000190: 35c0 a4bf 266e 7ebe f7af 8dbe 5326 b1bd
000001a0: 3bd1 253d d435 30be 7441 803d 91e0 1fbe
000001b0: 6da5 7a3f 3474 3cbf 2a01 b5bf eb49 b83e
000001c0: 5bd2 30be ff1d c43e 8884 613f 671f 72bf
000001d0: a5f6 0940 acd7 93bf 0956 9ebe 4a2e 9e3f
000001e0: a85d 8fbf efcc b63f 4e87 24bf bdde bf3e
000001f0: e2c4 4ebf f697 513f 24e1 2fc0 7720 8340
00000200: f3e0 8ebd 8953 813e 48f2 b2be 1130 6b3e
00000210: f0f5 b6bf 3b0c 923f 044e fa3e d75c 6fbf
00000220: b246 8a3f 0667 a8bf 3331 ef3e bac1 0ebf
00000230: de77 dc3f a822 59bf 69e6 1440 5622 83c0
00000240: e89c 8c3c d183 91bc 614a 1d3c 02e2 e83b
00000250: 920d 46bd da58 63bc 3ec8 10bd d2d2 8fbd
00000260: 9897 903d c2a3 a8bd 6517 033d decd bd3e
00000270: cb7f b1be 3c0e b7be 095e c33e 0a2d 72bc
00000280: da1d 02bf 0f94 de3e 323b 163f 9c8a 0fbf
00000290: 57a6 253f a0d8 2d3f 41ab 0a3e c41a 903e
000002a0: 9186 1cbf 089d b5be a166 c23e c7c9 bfbe
000002b0: cfa2 b63c f359 babe d071 33bf 098c 4bbf
000002c0: 9626 10bf 9b4b 10be e7a4 f7be 7376 22be
000002d0: 29f1 513e 6aa0 0c3e 21bd 55bf ef23 babd
000002e0: 1c1a c4be 479d 9dbe 50ee 3cbf e2dc 58bf
000002f0: c89b 0a3d 8ec8 a3bc 20d9 cdbe 8479 babe
00000300: c9f7 93be 4b77 0dbf 0dfa 64bd cb63 a13d
00000310: 0382 ecbd e3c3 91bd 753b f8be 8813 843b
00000320: 55cf 63be b88a de3d e1fd 863f 9bce 2ebe
00000330: c925 093f d7e7 163f 32ef 773e 84c1 153f
00000340: e9c0 80be 2bc2 2cbe ceb8 d5bd 8116 69bd
00000350: d7fa b5be 1045 14be 0cc0 60bf d135 3e3f
00000360: 0d0d 04be 5c6c a2bd 0008 a3be 37ab 47bf
00000370: 0cea 473f e5de 1e3f 92a0 243e 82d4 8f3e
00000380: 686e d33e ef98 20be 9378 ccbc 20f3 5a3e
00000390: 6bb8 13be 8cdd 713e e647 5dbe 7aa4 77bd
000003a0: bd05 0ebd 4355 ddbd bc1b 66bd 547f 3fbd
000003b0: d49f 0ebb 29ec b5bd 4af9 0a3e d74c 5cbd
000003c0: 66bd 1e3c 947f 133c a6c4 03bf 60e5 ee3e
000003d0: 1f6d 42bd 258e 3f3d dbe5 e93d a956 773d
000003e0: a2e2 ef3e 5ba0 533f 02ec 523e e27a 023e
000003f0: c4a9 443d 105f ecbd 2d2a 3c3e 8d17 bf3e
-0.23093109 0.7766508 0.1055558 0.14652236 -0.3529832 -0.5120155 0.21844642 -0.3382396
0.2175458 -0.5954728 -0.28394663 -0.7406846 -0.25323218 -0.705229 0.042354792 -0.040388413
0.2909441 -0.49662623 -0.17239979 -1.0447979 -0.6854402 0.25125262 -0.17901647 0.39189404
-0.14664362 0.31369174 -0.4889574 0.063899875 0.18829162 0.018289806 0.0747262 -0.10067751
-0.6934234 -0.17340058 -0.57389337 -0.32010308 0.6230759 -0.20611371 0.77746844 -0.05897311
0.17963552 0.31547123 0.5462546 -0.55153936 0.5681733 -0.4199543 0.1276628 -0.2660195
-0.07720855 -0.09960077 -0.55658686 -0.13087793 -0.51821065 0.19503415 0.41632172 0.022468276
0.2157831 0.509616 0.21903132 -0.29139104 -0.67119527 0.10535602 0.052834988 -0.09020623
0.020015998 0.1872506 -0.22868887 0.07481522 0.09536161 -0.13733222 -0.2618007 0.107379675
0.049384583 -0.24553263 0.28949085 0.024237804 0.07536593 -0.01852677 0.021576481 -0.071661286
-0.14868434 0.11084989 0.055478845 0.052355472 0.26201013 0.29091892 -0.055338603 -0.028805315
-0.20881113 0.003268166 0.117757335 -0.026209112 0.561889 -0.46723545 -0.56487364 0.49914747
-0.1186568 0.0795188 -0.048959423 0.111133285 -1.2871157 -0.24846706 -0.27673313 -0.08649888
0.04048274 -0.17208034 0.06262484 -0.15613009 0.9790867 -0.7361481 -1.414098 0.35993895
-0.17267744 0.38304135 0.8809285 -0.94579166 2.155679 -1.1550193 -0.30925015 1.2357876
-1.1200457 1.4281291 -0.6426896 0.37474623 -0.8076917 0.818725 -2.7481165 4.097713
-0.069764994 0.25259045 -0.3495047 0.22967555 -1.4293804 1.1409982 0.48887646 -0.9350104
1.0802824 -1.315644 0.46717224 -0.55764353 1.722408 -0.84818506 2.3265631 -4.0979414
0.017164662 -0.01776305 0.009600253 0.0071070204 -0.048352785 -0.013876164 -0.035347216 -0.07022633
0.07060164 -0.08234359 0.032004733 0.37071127 -0.3466781 -0.35753047 0.3815768 -0.014781246
-0.508268 0.43472335 0.58684075 -0.56070876 0.6470694 0.6790867 0.1354189 0.2814542
-0.6114283 -0.35471368 0.37968925 -0.3745863 0.02229443 -0.3639675 -0.7009554 -0.7951055
-0.5630888 -0.14091341 -0.48367998 -0.15865497 0.20502152 0.13733068 -0.8349171 -0.09088885
-0.3830117 -0.30784056 -0.73801136 -0.8471204 0.03383997 -0.019993093 -0.40204716 -0.36420834
-0.28899983 -0.5526015 -0.05590253 0.07880362 -0.11548235 -0.071174406 -0.48482862 0.0040306486
-0.2224706 0.10866302 1.0546228 -0.17071001 0.5357328 0.5894751 0.2421234 0.58498406
-0.2514718 -0.16870944 -0.10435639 -0.056906227 -0.35542938 -0.1447947 -0.8779304 0.7430087
-0.12895603 -0.07930824 -0.3184204 -0.7799563 0.780915 0.6205886 0.16076878 0.28091818
0.4129517 -0.1568334 -0.024959838 0.21381807 -0.14425819 0.2361967 -0.21609458 -0.06045959
-0.03467344 -0.10807278 -0.056178793 -0.04675229 -0.0021762745 -0.088829346 0.13571659 -0.053784218
0.009688711 0.009002585 -0.51471937 0.46659374 -0.047467347 0.04676642 0.114207946 0.06038538
0.46852595 0.8266656 0.20597842 0.12742189 0.048013464 -0.11541569 0.18375464 0.37322655

fc1.bias f4 [64]
00000000: d52b d3bf e303 6040 1323 c63f e62d 86bd
00000010: eae2 c23d c4db 0640 4e88 49bd 7f4d 5dc0
00000020: 378e 1bc1 c8a8 e940 d356 4ebf 7455 c3c0
00000030: 7e59 723f 4d37 63bf 4bca 073e af56 bac0
00000040: 2d02 18bf a4aa b5c0 c366 41c0 2943 4640
00000050: bed3 0241 ac19 52c0 0d04 47c0 49f6 e5bf
00000060: df15 0ebc 4e75 a140 51d4 bb3f ad58 29bf
00000070: ff6f f1c0 f81d a9c0 f1b4 16bc 04fa 9340
00000080: d0b6 20c0 5093 53be e2c7 0fc0 001d a33f
00000090: bce7 003f f119 d33f 93e4 9ec0 bfcc 6d40
000000a0: 5c43 2640 61d4 b3bd d923 e63e 2fa7 1a40
000000b0: 939e e1c0 963c 8840 deb3 27bf f2b1 aabf
000000c0: 9acc 2cbe 01a1 44c0 eeb3 f9c0 74ef 6fc0
000000d0: 849c 073f d901 eb3e b78c 8fbf 03b4 7b40
000000e0: 1e72 cebe 7337 7ec0 b1f6 e93f 08ca b73d
000000f0: 9138 f940 d7f3 3dc0 9b0e e3bf 98cc bcc0
-1.6497751 3.5002372 1.5479454 -0.06551723 0.09515937 2.1071634 -0.049202256 -3.457855
-9.72222 7.301853 -0.80601233 -6.1041813 0.94667804 -0.8875626 0.13260762 -5.8230815
-0.5937832 -5.67708 -3.021897 3.0978491 8.176695 -3.282817 -3.1096222 -1.7965785
-0.008672207 5.0455694 1.4674169 -0.66150934 -7.5449214 -5.2849083 -0.009198413 4.6242695
-2.511158 -0.20661664 -2.2465749 1.2743225 0.503536 1.6492292 -4.965402 3.7156217
2.5978613 -0.087807424 0.44949225 2.416454 -7.050607 4.2573957 -0.6550883 -1.3335555
-0.16874924 -3.072327 -7.803214 -3.74899 0.529732 0.45899847 -1.1214818 3.932862
-0.4032144 -3.9721344 1.8278409 0.08974081 7.788155 -2.9680078 -1.7738832 -5.899975

fc2.weight f4 [64, 64]
00000000: 89ad babf 8c6a e3bf 8b5e 803e 6a7e ebbf
00000010: 4a61 e93e d9da 70be a678 c8be ad24 d3bf
00000020: 1ace 88bf ef28 13bd a48c 9ebf 6e31 10c0
00000030: e0a3 703f c90e 93bf b8e8 c2bc 8b4c e7bf
00000040: c487 00bf c22a 1dbf bce2 41bf 9642 96bf
00000050: 5592 e4bc 30e6 abbe d76b c0bf 745d b0bf
00000060: 43b4 d3bb b775 e73e 555f 16bf 5e90 04c0
00000070: 5ff8 e1bf bd8b c5bf 69ab 07bf 4436 23bf
00000080: c53a 5dc0 3568 cbbf 2b6c 133f 1954 57be
00000090: d18d b9bf 601b 873f c451 04c0 c40d 4c3f
000000a0: 726f 563f 7350 9cbf edc9 8abf b6ea 5e3e
000000b0: d1e7 c03d eb00 d83e 3293 563f 9d48 72c0
000000c0: 3a0b 75bf 3c98 36c0 b49d 18c0 968c 1cbf
000000d0: 4ead 55bf 92cc 043f dda1 03bf 7bce 5bbf
000000e0: 4275 5b3f be7d b73c ab1d 87c0 1d0b 60bf
000000f0: e706 eabe 13dc 51bd e920 27c0 2ba6 47c0
00000100: 08c1 12c0 5c64 773e d497 053f b163 30bf
00000110: b55b 6bbf a0d7 a3bf 732b 3ebf ff16 e6bf
00000120: 900d 69be 12d1 91bf 9861 0a3e 5cf4 4ebf
00000130: a289 ef3e fc4f 813f 7376 b93f 97ef 75bf
00000140: 2bfc 8d3f 1b14 c1bf 54e5 0dbf b925 663e
00000150: 3f94 5d3f f7eb d73d e320 31be 2d2d 59bf
00000160: 72ad aa3e b8c1 c9be 1561 d0bf 3582 9ebf
00000170: dc5b 92bf 2b57 dc3e 4a9d 0dbf e9f7 5f3e
00000180: 68c2 053f 2a13 f7be 063d e9be b44a 90bf
00000190: 7154 293f a2c3 f2be 8251 d9be 707a 423f
000001a0: b14d 3a3e 1967 2ebd 098b 28c0 bbc4 ffbd
000001b0: 018a 393f f963 20be 2817 c43e 2b48 30bd
000001c0: 9f8e 5abe 9272 1a3f e3d3 1e3f 220a c8bf
000001d0: 03a4 063e 2a0e 29be 87bf 583f 5cde 72bf
000001e0: fe98 883f cf72 223f 193f 1dbf 160e 95bf
000001f0: b050 04c0 4118 88bf 313c d4be 7973 793e
00000200: d283 433e 6e74 1f3f e6ed 95bd fe72 c1be
00000210: 2237 663e d90d 523d 3731 e43e bf07 c83e
00000220: 27be ae3e 1d66 253f d77c f23d d627 5fbe
00000230: 922d e7bd 0c76 0fbb 8040 ad3d 34df 8e3e
00000240: a84b e73c 175f 9d3e 956e 593f e515 9fbd
00000250: ddfd ff3d e2a0 80be b245 883d 9003 643f
00000260: 62f8 7a3f 6e14 8dbf a6f4 0f3e 6119 303c
00000270: 713e 1e3f 6cd8 2d40 809b c1ba 1e69 0c3f
00000280: 5c2a 4cbd 0f49 ffbe 18b9 d2be 2578 713e
00000290: 63a8 933e ddaf 7cbe 80fa 78bf 9301 f03d
000002a0: e034 953d 6ace adbd c224 d23d a679 9e3f
000002b0: 7a3d 86bf d4e1 18c0 f17d 983d cec9 9abe
000002c0: 3984 c83e bc17 3e3f c7f5 edbe d3bd 74be
000002d0: 3be2 5bbe dbb8 a8be 877a edbe b6f4 57be
000002e0: ad3e afbd dddb 063f c1b0 d8be 3e95 73be
000002f0: 778e 723f b926 a2be 0a74 43be 8ad5 34bf
00000300: fb58 adbe 0326 e03d 57d7 e7bf b448 db3d
00000310: 1548 9fbe 5431 6c3f 9d08 cebe 7420 07be
00000320: b636 37bf 7e51 443f 5e20 2d3f 47ee 44bf
00000330: 5202 303d e623 32bf c316 3dbf 1bb8 7fc0
00000340: bd94 e8bd b14b 2cbf 059a 88bf eede aebe
00000350: db95 973e 8d09 9fbf b099 36c0 67db 48bd
00000360: e9db 7fbd e658 83bf 5bc7 0ebe a9ba 623e
00000370: 2e5f 3bbf ca3e df3f d802 febd 3c3a c6be
00000380: 846c 633f b0e7 0b3f bbf5 303f fee5 43bd
00000390: da57 a5bf 50d2 cabf c70a ad3e 6f11 80bf
000003a0: 4ff2 9fbf 6360 24c0 f015 dcbf 7ff3 053f
000003b0: 06bd 59bf e38d e73e aedb 91be 5752 93bf
000003c0: f7fc 08bf 2158 0fbf db8f 343e b731 84bb
000003d0: 1b1d 19bf de75 99be 3052 bf3e e4b7 5a3f
000003e0: ef1f 11c0 847d 5bbf d100 0b3f bcc2 ab3f
000003f0: 9ea4 80bf 4010 dabf 2150 863f 1bac fb3d
-1.4584209 -1.776689 0.2507213 -1.8397954 0.45582038 -0.23520984 -0.39154547 -1.6495568
-1.0687897 -0.03592771 -1.238667 -2.253017 0.94000053 -1.1488887 -0.02379261 -1.8070234
-0.5020716 -0.6139337 -0.75736594 -1.173907 -0.027901808 -0.33574057 -1.503291 -1.377852
-0.006460698 0.45206997 -0.58739215 -2.0713115 -1.7653922 -1.543327 -0.52995926 -0.6375468
-3.456712 -1.5891176 0.57586926 -0.21028174 -1.4496404 1.0555229 -2.0674906 0.79708505
0.837638 -1.2212051 -1.0842873 0.21769223 0.094192155 0.421882 0.8381835 -3.785682
-0.95720255 -2.8530416 -2.3846254 -0.6115202 -0.83467567 0.5187465 -0.5141886 -0.8586194
0.85725796 0.022398826 -4.2223716 -0.8751696 -0.4570839 -0.05123527 -2.6113837 -3.119517
-2.2930317 0.24159378 0.52184796 -0.68902117 -0.9193681 -1.2800179 -0.7428505 -1.7975768
-0.2275908 -1.1391928 0.13513792 -0.8084161 0.46784693 1.0102534 1.4489273 -0.9606871
1.109258 -1.5084261 -0.5542805 0.22475328 0.8655433 0.105430536 -0.17297702 -0.8483456
0.33335453 -0.39405608 -1.6279627 -1.2383486 -1.1434283 0.43035254 -0.5531813 0.21871914
0.52249765 -0.4825681 -0.4555437 -1.1272798 0.6614447 -0.4741488 -0.42444998 0.75968075
0.181937 -0.04257879 -2.633486 -0.12488695 0.724762 -0.15663137 0.38298917 -0.043037575
-0.21343468 0.6033107 0.62042063 -1.5628092 0.13148503 -0.1650931 0.8466725 -0.94870543
1.067169 0.63456434 -0.61424404 -1.1644924 -2.0674248 -1.0632402 -0.41452172 0.24360456
0.19093254 0.6228703 -0.07320766 -0.37783045 0.22481969 0.051282737 0.44568798 0.3906841
0.3412945 0.6460894 0.118402176 -0.2179254 -0.11287989 -0.002189043 0.08459568 0.27904665
0.028234318 0.3073661 0.8493436 -0.07767848 0.124995925 -0.25122744 0.06653918 0.89067936
0.9803525 -1.102186 0.1405817 0.010748238 0.6181403 2.7163343 -0.0014771074 0.54847896
-0.049845085 -0.49860427 -0.4115684 0.23580988 0.28839406 -0.24676462 -0.9725723 0.1171905
0.07285476 -0.08486636 0.10260917 1.2380874 -1.0487511 -2.3887835 0.074458964 -0.3023209
0.39163378 0.74254966 -0.46476576 -0.23900537 -0.21473019 -0.32953534 -0.46382543 -0.21089444
-0.08556876 0.52679235 -0.42322353 -0.237874 0.94748634 -0.31670168 -0.19087234 -0.70638335
-0.3385695 0.1094475 -1.8112592 0.107072264 -0.31109682 0.9226277 -0.40240946 -0.13195974
-0.7156786 0.7668685 0.67627513 -0.7692608 0.042970963 -0.69586027 -0.73862857 -3.995612
-0.113564946 -0.67302996 -1.0672003 -0.34154457 0.29606518 -1.242479 -2.8531303 -0.049037363
-0.062465582 -1.0261505 -0.13943236 0.22141518 -0.7319211 1.7441037 -0.12402886 -0.38716304
0.88837457 0.546504 0.69124955 -0.04782676 -1.2917435 -1.5845432 0.33797285 -1.000532
-1.2495822 -2.568383 -1.7194195 0.5232467 -0.8505405 0.45225438 -0.28487915 -1.1509503
-0.53510994 -0.5599385 0.17633002 -0.004034247 -0.59810036 -0.29972738 0.37367392 0.85436845
-2.267574 -0.85738397 0.5429812 1.3418803 -1.0050237 -1.7036209 1.0493203 0.12288686

fc2.bias f4 [64]
00000000: 8369 843f 2be8 6cbf dc1e 0740 76dc 263f
00000010: 3781 e2bf c373 e23f 3ba7 f73e 06c1 f9be
00000020: 6df1 ff3f e687 143f 641e d2be a6bf bc3e
00000030: c0e2 c9be 266f fd3e ce58 debf da15 fd3f
00000040: 6c70 363f 664a 4e40 cca5 543f 5e75 c73c
00000050: 2179 133f e2c4 b53f 5b1f 0340 6dc1 bf3f
00000060: cd9d b53f 9b6c 4a40 3228 cf3e cd8f c5bf
00000070: 6c8b 5d40 3c8a b7bf c509 c4bf 4d68 e73e
00000080: ca87 8d40 2a87 2cc0 58d3 f73f b2dc d13f
00000090: f28f 613f 2607 7f3e 9718 2b40 e060 cbc0
000000a0: 2ea4 cfbc cf94 0bbf aca1 4bc0 bc59 3abf
000000b0: 603b 84c0 0695 58be 26ea 8d40 9869 863f
000000c0: 30d8 c4bf fe1c a43f 6d7b 30bf 4277 873f
000000d0: ec9d 163f 4a99 f5bd e247 ea3e ae4a 0a3f
000000e0: 37cc 1e40 abea c73e 8e1e 9c3e fb66 babf
000000f0: ced6 abbf fdae 35bf 9d3c 5fc0 2b9a ddbf
1.03447 -0.9254176 2.1112585 0.65180147 -1.7695683 1.7691578 0.48369774 -0.48780078
1.9995552 0.58019865 -0.4103881 0.36864966 -0.3943081 0.49498862 -1.7370851 1.9772294
0.7126529 3.223291 0.83065486 0.024347957 0.57606703 1.4200709 2.0487888 1.4980904
1.4188782 3.1628788 0.40460354 -1.543451 3.4616346 -1.4339061 -1.5315481 0.45196763
4.422826 -2.6957498 1.9361372 1.6395476 0.8811027 0.2490507 2.6733758 -6.3555756
-0.025346842 -0.5452394 -3.1817427 -0.72793174 -4.132248 -0.21150598 4.4348326 1.0500975
-1.5378475 1.2821348 -0.6893833 1.058327 0.5883472 -0.11992128 0.45757967 0.540202
2.4812143 0.39046225 0.3049206 -1.4562677 -1.3424928 -0.70970136 -3.4880745 -1.7312673

fc3.weight f4 [64, 64]
00000000: 5b32 523f 1e91 1bbf e169 be3d 559e 36be
00000010: 6e9a aabf b381 66bd a873 bebf f23f 42bf
00000020: fa7b 5cbe 77a2 1abf 9aa1 97bf 3a8e a6be
00000030: 59f2 9abe 5122 c43e 6e42 e93e f482 1c3e
00000040: ceb1 66bf f57f 763e 725c 5ebe a32d a0be
00000050: 1a93 7abe 2641 3a3e 04f8 653f 653a b2bf
00000060: 021f 47bf e481 46bf d4ea bcbe fc97 853f
00000070: 3789 143f 6452 053f 4c5e 5f3e 018b 383f
00000080: 78c3 40be c119 14be 62e1 4cbf b4ad 0dbe
00000090: e840 d43f db8b 143d e26f 45be a2b3 fcbe
000000a0: 8143 923e 0ad3 093e 2feb 38bf f79a 82bf
000000b0: 8ed7 433e a0a5 573f 1e2b 183f c9ec 56bf
000000c0: 83f4 67bf d24a 69be 4507 23bf b9ab c0bf
000000d0: 97c3 c6bd 0eec 8b3f 4d35 ecbd bd62 4dbe
000000e0: 2431 a13b 6b12 00bf 6749 a83f 60a7 b83c
000000f0: a029 b63f 81ab 5dbd d469 8b3f c298 3dbf
00000100: ccbb f0bd 7580 0040 b3cc bcbe b527 4e3e
00000110: 3136 803f fbc3 f7be 938f 403e 6701 2c3f
00000120: fc18 bc3d ff8c d3be c522 3fbf e278 8f3e
00000130: 5b49 a6bf 0f60 e73e ca40 8abf 04e0 c9bf
00000140: 904c a9be a76a 95bf 5a19 40bf fe14 483f
00000150: 4c66 9cbf fc7a c2bf 23ac a8be f911 81be
00000160: 35bf 4bbe 40a7 f5be 849e 7abf b755 e83d
00000170: a93a f3be ea67 7d3e 98e0 e5bd cb78 e6bd
00000180: de25 803d a673 90bf cd75 78bf b2c4 b4be
00000190: ca03 ae3e d8fa 93be 7866 dbbe b132 4ebf
000001a0: 4029 f9bf f95c e53e f44f 59be 97ca 36be
000001b0: c7ac 45be 7f06 a7bf 6157 38be d65b dabd
000001c0: c583 80bf c185 32bf 8838 19bf 79ff 653d
000001d0: 9d53 2b3f 261f c73e 5842 5ebf c44e 55bf
000001e0: 420c 873d b8aa debd 910d 763e f58c 17bf
000001f0: b150 f43d b261 6cbe a4d8 1ec0 dea5 0ebf
00000200: 2cb2 acbf 3a9e 82bf 9207 cbbe 2d89 9cbe
00000210: ab47 103e a826 e0bf 2d90 82bf 7e48 a3bf
00000220: e572 98bf e102 b8bf 888e 50bf f77e 70bf
00000230: 3069 a9bf c0da bb3e e7dc 12c0 4ccf 72bf
00000240: 32af e1bd b826 b3bf f7f4 d83e 0d90 f4be
00000250: ee66 e33e 0b8a 42bf d0bb b3be ca0e debf
00000260: b80a 473e 7737 76bf 881e a1bf 1747 45bf
00000270: d86a c23e 5d68 f8bf bbd9 313f 9e77 25bf
00000280: ffc4 63bf 68d3 92bf 78f6 83be 1bb2 f2be
00000290: d8a9 3dbf ff41 203f feef 8bbf fd90 02bf
000002a0: 6f6b 06be d66d 873f d489 fb3e 8305 94be
000002b0: 3ad7 82bf d776 81bf b8fb 65bf a2a2 cebf
000002c0: e24a f7bf 3a9c 84be f849 15bf 8c05 2a3f
000002d0: 6aa4 423f b9dc 0ebf 9df8 2a3f ed9b b8bf
000002e0: f2ed 003f 8819 ecbe bca0 583f ca47 5e3f
000002f0: c85b 453e 63e0 4abf 1188 9dbf ebde dcbd
00000300: 8505 10c0 2899 83be fb7d 45be 4fae 1ebe
00000310: 8c4e 6ebe 1925 a3be 9972 743e c879 5abf
00000320: 9c64 74bc fc91 2ebe 3995 abbf 9c72 1fbe
00000330: 0241 39bf 1ca7 d13e 57cf ec3d fa86 e5be
00000340: aa88 773f cf22 3abe 9fea 933e e7d6 d7be
00000350: 2569 4e3e 1b9e 773e 82aa 40bd b568 8140
00000360: 84ce af3e 7c54 eb3c 4420 c2bd 4b05 00bd
00000370: 6b05 16bf c9da 87bf 8fec d2bc cb33 963e
00000380: b43a 543e 41bc 88bf b4ed 89be 8f4f d1bd
00000390: 2637 b9be e0c4 de3e 3941 91be a30e a23d
000003a0: 5f6b 30be f4cc 6b3d 6fb7 e3be 5d15 8dbe
000003b0: 19e9 4f3e 6260 b43e 8d9b 653e cf78 aebe
000003c0: 33a9 bdbc f053 74bf cab4 953e 85a7 843d
000003d0: 464f fc3f 2a43 a73e c7fa 1cbe b0d7 be3e
000003e0: c569 d2be 097a adbe 5f15 44bf 7a0e a6bf
000003f0: 85b5 7b3e 942a 98bd 5e2b 993e c618 c13e
0.82108086 -0.60768306 0.092975385 -0.17833836 -1.3328378 -0.056276035 -1.4879045 -0.7587882
-0.21531668 -0.6040415 -1.1846192 -0.32530385 -0.30263022 0.3830743 0.45558494 0.1528433
-0.9011506 0.24072249 -0.21714953 -0.31284818 -0.24470177 0.18188915 0.89831567 -1.3924071
-0.7778169 -0.7754195 -0.3689791 1.0437007 0.58021873 0.52078843 0.21813315 0.72087103
-0.18824565 -0.1446295 -0.80031407 -0.13835794 1.6582308 0.03626619 -0.19280961 -0.493558
0.28567126 0.13459411 -0.7223386 -1.0203542 0.19125196 0.842371 0.5944079 -0.83955055
-0.9060747 -0.22782448 -0.6368297 -1.5052406 -0.097052746 1.0931413 -0.11533604 -0.20057197
0.004919188 -0.50028104 1.3147401 0.022540748 1.4231453 -0.054118637 1.0891671 -0.74061215
-0.117545694 2.0078404 -0.36874923 0.20132335 1.0016538 -0.4839171 0.18804769 0.6718964
0.09184453 -0.4131851 -0.7466243 0.28021914 -1.2991136 0.45190474 -1.0801022 -1.5771489
-0.33066225 -1.1673173 -0.75038683 0.7815703 -1.2218719 -1.5193782 -0.3294383 -0.25209025
-0.19897158 -0.47979164 -0.97898126 0.11344474 -0.47505692 0.24746671 -0.112244785 -0.11253508
0.062572226 -1.1285293 -0.9705475 -0.35306317 0.33987266 -0.28902316 -0.42851615 -0.805461
-1.9465714 0.44797495 -0.21221906 -0.1785072 -0.1930419 -1.3048857 -0.18002082 -0.106620476
-1.0040213 -0.6973534 -0.59851885 0.05615184 0.6692446 0.38890952 -0.8681998 -0.8332331
0.06594135 -0.10872406 0.24028613 -0.5919946 0.11929453 -0.23084143 -2.4819727 -0.55721843
-1.3491874 -1.0204537 -0.39654213 -0.30573407 0.14089839 -1.7511797 -1.0200249 -1.2756498
-1.1910063 -1.4375879 -0.81467485 -0.9394373 -1.3235226 0.3669033 -2.2947328 -0.9484756
-0.11019744 -1.3996191 0.42374393 -0.47766152 0.44414467 -0.75991887 -0.35104227 -1.7348263
0.19437683 -0.9617838 -1.2587442 -0.770616 0.3797214 -1.9406849 0.69472855 -0.64635646
-0.8897247 -1.1470766 -0.25773978 -0.4740151 -0.74087286 0.626007 -1.0932615 -0.51002485
-0.1312692 1.0580394 0.49128592 -0.28910455 -1.0221932 -1.0114392 -0.8983722 -1.6143382
-1.9319727 -0.2590044 -0.5831599 0.66414714 0.76032126 -0.55805546 0.66785604 -1.4422585
0.50363076 -0.4611323 0.8462026 0.8682829 0.19273293 -0.79248637 -1.2307149 -0.10784706
-2.250337 -0.25702786 -0.19286339 -0.15496181 -0.23272151 -0.3186424 0.2387184 -0.85342073
-0.014916565 -0.17047876 -1.3404914 -0.15571064 -0.7236482 0.40947807 0.115629844 -0.4482954
0.9669291 -0.18177341 0.2888994 -0.42156145 0.20157297 0.24181406 -0.04703761 4.0440316
0.34337246 0.028726809 -0.094788104 -0.031255048 -0.5860202 -1.0613643 -0.025747566 0.2933639
0.20725518 -1.068245 -0.26939166 -0.10220253 -0.36174887 0.4350958 -0.28370073 0.07912948
-0.17228459 0.057568505 -0.44475886 -0.2755536 0.20303763 0.35229784 0.22422619 -0.34076545
-0.02315197 -0.9544058 0.29239494 0.06477264 1.9711692 0.3266843 -0.15330039 0.37273932
-0.4109632 -0.33882168 -0.7659511 -1.2973168 0.24580963 -0.07429996 0.299159 0.37714213

fc3.bias f4 [64]
00000000: 4e3f bc3f 7c3e f83e 0ac4 99be c54c 2dc0
00000010: 67e3 25c0 9ec7 4dbf 3449 bfbf 73ee fcbe
00000020: 64af 5940 bfff dbbf 4db1 fa3d d28a aac0
00000030: 329d eb3e cf81 0d40 ca8b a8bf 86b5 1c40
00000040: 7988 b5bf e088 1bc0 4096 e83e 9bc5 e23c
00000050: ec3b 85bf 8d5d e5bf 7796 97bf 05d9 d33e
00000060: 8187 e13f 66d0 303f 4952 23c0 9478 b2bf
00000070: 12c7 c2be 3900 e1bf bafb 12c0 3c3a 3940
00000080: 8228 6dbf 31aa 9cbf e2d1 02c0 c862 d83f
00000090: 3959 3f3f 5b75 86bf ff0b 6d3f 9c76 d13f
000000a0: fc5e 24c0 5e39 5d3e 2e8d 523f 5711 3d40
000000b0: 0de9 4dc0 e13d c6be 2633 60bf bbe0 5bbf
000000c0: 7012 5cbf 141d 28be ba95 7f40 c194 d13e
000000d0: 08f2 7240 25fc 11be 84dd 33c0 eb8d e6be
000000e0: 9f4a f3bf bcf6 bc3e de3f e4bf 3a5d 22bf
000000f0: cdad 03c0 efc3 9fbf f73b f43f d3e5 16bf
1.4706819 0.48485172 -0.30032378 -2.7078106 -2.5920045 -0.80382717 -1.4944215 -0.49400672
3.40133 -1.7187423 0.12240849 -5.329446 0.46018368 2.211048 -1.316766 2.4485793
-1.4182273 -2.4302292 0.45427132 0.027682116 -1.0408912 -1.7919174 -1.1842793 0.4137651
1.7619478 0.6906799 -2.5518973 -1.3943048 -0.38042504 -1.7578193 -2.2966142 2.8941793
-0.92639935 -1.2239438 -2.0440602 1.6905146 0.7474552 -1.0504564 0.9259643 1.6364322
-2.5682974 0.21603915 0.82246673 2.9541833 -3.2173493 -0.38719085 -0.87578046 -0.85889786
-0.85965633 -0.16417342 3.9935136 0.40933803 3.7960224 -0.14256342 -2.8103952 -0.4503015
-1.9007148 0.36906993 -1.7831991 -0.634235 -2.057483 -1.2481669 1.90808 -0.58944434

value.weight f4 [1, 64]
00000000: f43e 063e 22ed d9bd a4d1 e7bb 4af7 893d
00000010: 5e3d b4bd 8e3e 22bb 05eb f1bc fa63 563d
00000020: ce07 423d fe6c 65bd 9d5f e5bd 0ba1 65bd
00000030: 7a92 293e f026 293d 566b cabc 4b13 703d
00000040: ab1d b23e ea4a da3c 1296 93ba 8634 cfbc
00000050: 013c 3cbd 5b12 813c 9116 babc 14cc a53c
00000060: 2bbe 5a3d b298 b83d 6dc3 d83d 1db4 e93d
00000070: 2ece 37be 3d69 283d 90a3 ea3c ab86 713d
00000080: d24b 86bd 9b19 bebc 01bf 693e c01a e0bd
00000090: b3e7 143e fd39 9bbd 88f3 013d 323f 78bd
000000a0: 932b 4cbe fc93 bbbc 22e2 0d3e fc2e cb3b
000000b0: 755f 26bd 1aaa cb3e dd60 d3bc 8ccf 23bd
000000c0: 1b9f 3d3e c33d 363e fbfa 8e3d cd48 05bd
000000d0: 0ec4 d53d 7763 fdbd cc66 8d3c dec1 4abc
000000e0: a085 b7bc 37c3 063e 60f8 c83e b0fb 9ebb
000000f0: e4d3 56bd 327e 973d eabd 523d 1075 343d
0.13109952 -0.106409326 -0.0070745517 0.0673662 -0.08800767 -0.0024756524 -0.029531011 0.05234144
0.047370724 -0.056012146 -0.111998774 -0.056061786 0.16559783 0.0412969 -0.024709385 0.05861215
0.3478826 0.02664705 -0.0011259934 -0.0252936 -0.04595566 0.015755823 -0.022715839 0.020238914
0.053404015 0.09013499 0.105841495 0.11411307 -0.17949745 0.041115988 0.028642446 0.05896632
-0.0655743 -0.023205569 0.22826768 -0.10942602 0.14541511 -0.0757942 0.03172639 -0.060607143
-0.19938497 -0.022897713 0.13855794 0.0062006693 -0.04061838 0.39778215 -0.025803024 -0.039992854
0.18517725 0.17796998 0.069814645 -0.03254013 0.10437785 -0.12372487 0.017260931 -0.012375323
-0.022402585 0.13160406 0.39251995 -0.004851781 -0.05244817 0.07397117 0.051450647 0.044056952
