maddpg_v7_over/model/simple_tag/agent_1/423_critic_params.pth (torch, 57783 bytes, 7 tensors)

fc1.weight f4 [64, 82]
0.382561 0.30920407 0.8327041 0.44531226 -0.65422857 -0.34385607 -0.5447659 -0.17941841
-0.22216338 -0.30872902 -0.373816 -0.5602466 -0.7356757 -0.6104772 -0.1258348 0.0023442702
0.00815227 -0.03977133 -0.19065998 -0.18073143 -0.2564643 0.023017159 -0.34630045 0.24103028
0.29306358 0.026945323 -0.034516443 -0.07079763 0.33747312 -0.39647654 -0.093463585 -0.057945516
-0.24134654 -0.2645936 -0.04207191 0.14892296 0.45036727 -0.2599917 0.15770775 -0.07308678
0.26950777 0.13504708 0.09181404 -0.41684332 0.17982674 -0.48792735 -0.040526982 -0.2232881
-0.24539918 -0.05686874 -0.21905175 0.55569595 -0.22009782 0.24791634 -0.01761815 0.11169098
0.6982254 0.41486958 0.069850765 0.12337684 -0.28284454 0.17332697 -0.042752873 0.2336154
-0.29477885 0.17504 -0.13513753 0.074242234 0.10666413 0.16252775 0.013193034 0.055582117
0.030588996 -0.05244499 0.09473759 0.06007307 0.079962075 -0.0026463056 -0.31655824 0.13070565
-0.25480637 0.17628396 0.09697882 0.011894632 0.31233838 0.2704198 -0.043456 -0.16860746
-0.16826023 -0.039328653 0.104121655 -0.057856545 0.65774894 -0.4398673 -0.6236193 0.4611976
-0.15382019 0.08554525 -0.09777431 0.11076018 -1.2245791 -0.3031091 -0.24245997 -0.16826208
0.10830008 -0.17724687 0.0762598 -0.12448228 1.1494442 -0.66988695 -1.4668542 0.3858518
-0.20784059 0.3890678 0.94404274 -1.0438654 2.5190344 -1.1256334 -0.4690157 0.988013
-1.2180336 1.319757 -0.73854953 0.34737918 -0.97803664 0.7524638 -3.6203249 3.7668586
-0.10492998 0.25861418 -0.38467538 0.23570159 -1.4457698 1.0455663 0.60161996 -1.0774853
1.2479094 -1.32652 0.5259212 -0.51969576 1.7751642 -0.87409973 3.1987715 -3.767087
0.01749353 0.0090541 0.007958446 0.060650453 -0.031455304 0.020350657 -0.030572442 -0.045972962
0.025143668 -0.030177 0.019308763 0.46667 -0.36171612 -0.44380474 0.38844678 0.009400672
-0.554696 0.50615734 0.5614975 -0.573873 0.8562762 0.64205414 0.40265128 0.10314644
-0.29862192 0.031463012 0.3512706 0.29117924 -0.10962555 -0.18443328 -0.49573925 -0.3533127
-0.24446705 0.39899358 -0.28808063 -0.09459012 0.2706448 0.3418825 -0.69607115 -0.058560632
-0.07012766 -0.06204059 -0.6753377 -0.37204158 0.1657587 -0.1995256 -0.10826046 -0.068568476
0.08404666 -0.36751482 0.13969621 0.1428705 -0.31132618 -0.020830644 -0.04952431 0.42746478
-0.20503116 -0.041005287 0.81169105 -0.07809051 0.33052048 0.14768167 -0.051666003 0.28934607
-0.25831214 -0.3795478 0.09124045 0.0071592703 -0.15983216 -0.08072991 -0.21024106 1.0893478
-0.1013365 -0.014092557 -0.63555044 -0.38800853 0.4622843 0.08068116 -0.21227399 0.095830984
0.4197915 0.05401204 0.04778582 0.33057567 -0.19836257 0.17816037 -0.24670348 0.021303283
0.197651 -0.032975957 0.095747896 -0.047361605 0.12843212 -0.052552953 0.19744621 0.05256903
-0.06745237 0.08855645 0.022703666 -0.21340795 0.13885374 -0.06584334 0.22166045 0.0073864567
0.96766555 1.4872308 -0.2993169 0.16053748 -0.035362292 -0.037758395 -0.17359886 0.53627
00000000: 09df c33e ff4f 9e3e 192c 553f f8ff e33e
00000010: 867b 27bf e70d b0be c775 0bbf 76b9 37be
00000020: cc7e 63be bb11 9ebe d064 bfbe 526c 0fbf
00000030: 3e55 3cbf 3c48 1cbf d6da 00be 54a2 193b
00000040: 1991 053c 43e7 22bd 5f3c 43be a911 39be
00000050: 4a4f 83be 7b8e bc3c 4b4e b1be a4d0 763e
00000060: 6e0c 963e 70bc dc3c 1d61 0dbd 59fe 90bd
00000070: 47c9 ac3e f9fe cabe d669 bfbd 4758 6dbd
00000080: 8c23 77be d078 87be 9853 2cbd 437f 183e
00000090: 8a96 e63e a21d 85be 247e 213e 86ae 95bd
000000a0: ecfc 893e c849 0a3e 0009 bc3d 7d6c d5be
000000b0: 8024 383e 9dd1 f9be 9fff 25bd a3a5 64be
000000c0: ec49 7bbe 32ef 68bd 1a4f 60be 1742 0e3f
000000d0: 5361 61be c8dd 7d3e f053 90bc 3ebe e43d
000000e0: e6be 323f c969 d43e eb0d 8f3d ffac fc3d
000000f0: 00d1 90be a07c 313e a31d 2fbd e038 6f3e
00000100: 41ed 96be b03d 333e 7e61 0abe 500c 983d
00000110: b972 da3d ad6d 263e 9827 583c 13aa 633d
00000120: c695 fa3c 8fd0 56bd c805 c23d 2e0f 763d
00000130: 28c3 a33d a46d 2dbb ec13 a2be b4d7 053e
00000140: fb75 82be c883 343e d59c c63d b4e1 423c
00000150: d1ea 9f3e 7774 8a3e ebfe 31bd 6fa7 2cbe
00000160: 694c 2cbe 1517 21bd bc3d d53d fcfa 6cbd
00000170: 3c62 283f 4936 e1be 84a5 1fbf 1822 ec3e
00000180: 0a83 1dbe 5932 af3d e63d c8bd 3cd6 e23d
00000190: 02bf 9cbf 1e31 9bbe 6d47 78be e54c 2cbe
000001a0: 6fcc dd3d 3480 35be 192e 9c3d 91f0 febd
000001b0: fd20 933f b67d 2bbf e1c1 bbbf 5e8e c53e
000001c0: 2ad4 54be e533 c73e c9ac 713f 629d 85bf
000001d0: dc37 2140 c114 90bf d322 f0be 6cee 7c3f
000001e0: 86e8 9bbf cced a83f 9511 3dbf afdb b13e
000001f0: 9c60 7abf 78a1 403f 67b3 67c0 3614 7140
00000200: 88e5 d6bd 1469 843e 2cf4 c4be c25b 713e
00000210: fc0e b9bf 1ed5 853f c403 1a3f 0aeb 89bf
00000220: 7fbb 9f3f 68cb a9bf c6a2 063f c80a 05bf
00000230: 9538 e33f 00c5 5fbf acb8 4c40 f417 71c0
00000240: 974e 8f3c a657 143c 2464 023c 9c6c 783d
00000250: 47d7 00bd 6cb6 a63c 0f73 fabc 254e 3cbd
00000260: 18fa cd3c c235 f7bc 692d 9e3c 5fef ee3e
00000270: db32 b9be 603a e3be 7fe2 c63e 4705 1a3c
00000280: 8f00 0ebf 8793 013f 4dbe 0f3f 57e9 12bf
00000290: eb34 5b3f a95d 243f 4f28 ce3e 713e d33d
000002a0: f9e4 98be 5cdf 003d bdd9 b33e 7215 953e
000002b0: 5c83 e0bd 14dc 3cbe 89d1 fdbe 67e5 b4be
000002c0: 9255 7abe e348 cc3e 4e7f 93be 77b8 c1bd
000002d0: f591 8a3e 390b af3e b831 32bf 46dd 6fbd
000002e0: 179f 8fbd 461e 7ebd eee2 2cbf 3c7c bebe
000002f0: a6bc 293e 7050 4cbe a9b7 ddbd a16d 8cbd
00000300: a820 ac3d e72a bcbe 860c 0f3e a54c 123e
00000310: 2566 9fbe 07a5 aabc 01da 4abd aadc da3e
00000320: b0f3 51be 29f5 27bd fcca 4f3f ebed 9fbd
00000330: fb39 a93e dd39 173e bb9f 53bd 2b25 943e
00000340: 7d41 84be 1754 c2be 46dc ba3d 5098 ea3b
00000350: 0bab 23be b955 a5bd 6f49 57be c06f 8b3f
00000360: 8389 cfbd 78e4 66bc 6fb3 22bf 0ea9 c6be
00000370: 87b0 ec3e 2a3c a53d 5a5e 59be 0943 c43d
00000380: e9ee d63e bb3b 5d3d 10bb 433d 3741 a93e
00000390: 8f1f 4bbe ac6f 363e d69f 7cbe 3984 ae3c
000003a0: 0665 4a3e cc11 07bd 7917 c43d 3efe 41bd
000003b0: b683 033e c441 57bd 572f 4a3e a052 573d
000003c0: 7824 8abd 165d b53d 0afd b93c 9d87 5abe
000003d0: ad2f 0e3e dfd8 86bd f5fa 623e 170a f23b
000003e0: eeb8 773f 945d be3f 1140 99be f063 243e
000003f0: 0dd8 10bd 8ca8 1abd e6c3 31be fe48 093f

fc1.bias f4 [64]
-3.0840528 3.5280843 2.0791302 -0.35243246 1.2530491 2.8014174 0.09469587 -3.723543
-10.127854 7.5758553 -0.07003077 -6.408109 1.2791164 -0.13148156 0.21464355 -5.1192164
-0.48971346 -7.716483 -2.2583878 3.4706328 8.819873 -3.8970568 -3.2149193 0.8812852
-0.051057946 5.0723486 2.3858826 0.48106748 -8.460152 -5.7319794 0.2799638 4.8526998
-1.9660347 -0.35101512 -3.0976753 1.483652 1.207877 0.52278745 -5.3779473 3.9062629
1.9389386 0.009318336 -0.8817781 3.1471205 -5.659102 4.763441 0.24070518 -2.553967
0.00017323859 -4.080941 -7.6766276 -2.8167834 0.1712151 0.24458736 -1.9113016 4.254562
-1.0591892 -3.121221 2.8151665 -0.09716624 8.383983 -2.3481724 -0.94268775 -7.1086082
00000000: 1f61 45c0 22cc 6140 7810 0540 0772 b4be
00000010: ea63 a03f 6c4a 3340 e9ef c13d 874e 6ec0
00000020: b10b 22c1 686d f240 4b6c 8fbd 3b0f cdc0
00000030: 16ba a33f 1aa3 06be 85cb 5b3e 9fd0 a3c0
00000040: b9bb fabe 6eed f6c0 6d89 10c0 d91e 5e40
00000050: 331e 0d41 6169 79c0 3dc1 4dc0 e89b 613f
00000060: 2322 51bd ae50 a240 4db2 1840 7a4e f63e
00000070: c85c 07c1 606c b7c0 6a57 8f3e 5149 9b40
00000080: 06a7 fbbf 41b8 b3be 5040 46c0 4fe8 bd3f
00000090: b79b 9a3f 66d5 053f 2518 acc0 3600 7a40
000000a0: 242f f83f efab 183c 36bc 61bf 6c6a 4940
000000b0: 5d17 b5c0 1c6e 9840 6b7b 763e 3274 23c0
000000c0: 61a7 3539 1297 82c0 efa6 f5c0 2e46 34c0
000000d0: 0353 2f3e 1c75 7a3e 88a5 f4bf 5f25 8840
000000e0: 8393 87bf 16c2 47c0 b02b 3440 18ff c6bd
000000f0: cb24 0641 7548 16c0 fc53 71bf b879 e3c0

fc2.weight f4 [64, 64]
-1.1805787 -1.916924 0.787253 -2.5877569 0.6246714 -0.41776705 -0.24552399 -1.6750482
-1.0633651 0.123365514 -2.2884777 -1.9661101 0.998811 -1.6859568 -1.0757278 -0.9744408
0.3088252 -1.2705146 -1.6923473 -1.4832307 0.24375942 -0.17268668 -2.4103758 -2.4903543
0.25183904 -0.3749465 0.6358559 -1.5397431 -1.7103555 -0.873618 0.015938984 -0.93088627
-2.741076 -1.4238389 1.1711375 -0.2574849 -1.5821537 1.4026511 -0.012594154 0.6959239
1.4999667 -0.5021272 -0.782063 0.25027663 -0.032531105 0.99880314 1.2270833 -4.005672
-1.4235706 -0.54538274 -2.3399742 -0.42769635 -0.32939076 0.83002937 -1.0316188 -1.2187482
0.226065 -0.06804806 -3.81055 -2.265701 -0.4415729 0.38062918 -2.162488 -1.944601
-0.930791 0.41014975 0.95368475 -0.2978991 -0.75128293 -0.7099171 -0.40864366 -0.43127102
-0.3920947 -1.0227072 -1.6971122 -0.030474592 0.7127854 0.0152860265 1.7540659 0.6039084
0.3059936 0.49408677 -0.39516562 0.47801846 1.1077363 0.090148866 -1.2019418 0.113394976
-1.6009951 0.18905546 -2.3099751 -1.5954608 0.4950593 -0.3872033 -0.08774298 0.042572018
1.147875 -2.0042384 -0.5254114 -0.96556693 1.0909493 -0.89390004 -1.3224372 0.7115067
0.1870827 -2.8926146 -1.784516 -0.33908 0.34948325 -1.1184322 -0.076590925 0.19328235
0.020127956 -0.92216134 0.45369595 -2.055742 0.010569262 -0.90457594 1.3935319 -1.463767
0.6475555 0.0033858365 -2.1560175 -1.1110669 -2.4287734 -0.7760542 0.2594395 0.14414808
0.45805812 0.78511125 -0.5948916 -0.500472 0.56784797 0.3140512 0.035864897 0.23420402
-0.6375117 1.1712322 0.42105508 -0.2829427 -0.12779923 0.71567315 -0.25910714 0.25079483
0.09785155 0.6537673 0.9326698 -0.27281463 0.077351265 -0.14590444 0.34552708 0.8917127
1.180715 -1.1857787 0.08686418 0.19890977 -0.46597248 2.5890124 0.30840707 0.81133693
-0.65166974 -0.3583987 -0.5375655 0.5951769 -0.016905 -0.06996565 -0.66767496 0.048917964
-0.24398708 -0.19506104 0.47828454 1.8747548 -1.6850154 -1.8464643 0.3628974 0.2683678
0.9730526 0.84858394 -0.042597175 0.14497563 -0.12510923 -0.26406997 0.4092261 0.31632736
-0.53138477 0.33873108 -0.7363775 -0.34496915 1.3674219 -0.0101433145 -0.17165993 -1.6072698
-0.31618676 0.04093215 -1.3108147 1.8492591 -0.11600676 1.4832449 0.32480952 -0.1235175
0.014970718 1.2500225 0.030390562 -1.9670528 -0.07604156 -1.3203887 -0.54357666 -2.8501215
0.28390858 -1.011914 0.2959823 -0.31168666 0.78421426 -2.1120334 -2.5565841 -0.13488413
-0.18563521 -1.1971811 0.5073474 0.40493095 -0.30470005 0.20353812 0.447038 -1.0075667
0.31294915 0.0040394287 1.7112166 0.516551 -2.3367062 -0.8459036 0.46949792 -0.8204362
-0.4531362 -0.7076588 -0.5298592 0.87399405 -0.7850313 0.13111128 0.092920765 -1.3588892
-0.2681915 0.09538851 -0.91804826 -0.043333527 -0.5577099 -0.076005116 -0.0040198364 0.89374477
-2.7038054 -1.2103332 -0.32245994 1.2752439 -0.381056 -1.655856 0.8834194 0.13254446
00000000: 341d 97bf c45d f5bf 6a89 493f cf9d 25c0
00000010: 77ea 1f3f 90e5 d5be a46a 7bbe fb67 d6bf
00000020: 591c 88bf 0fa7 fc3d 6b76 12c0 7fa9 fbbf
00000030: 14b2 7f3f 6fcd d7bf 73b1 89bf f474 79bf
00000040: 561e 9e3e 39a0 a2bf d69e d8bf 81da bdbf
00000050: 129c 793e c7d4 30be 9943 1ac0 f761 1fc0
00000060: 0cf1 803e fdf8 bfbe 74c7 223f 4d16 c5bf
00000070: eeec dabf 6ea5 5fbf 7992 823c 904e 6ebf
00000080: ca6d 2fc0 5a40 b6bf d5e7 953f 10d5 83be
00000090: 0384 cabf 128a b33f b657 4ebc 1228 323f
000000a0: e9fe bf3f 688b 00bf 4835 48bf 4224 803e
000000b0: 563f 05bd 90b1 7f3f 1111 9d3f 772e 80c0
000000c0: 9037 b6bf 349e 0bbf 23c2 15c0 04fb dabe
000000d0: e8a5 a8be ce7c 543f 160c 84bf f1ff 9bbf
000000e0: 957d 673e c85c 8bbd 0de0 73c0 3f01 11c0
000000f0: d815 e2be d4e1 c23e 3466 0ac0 b0e8 f8bf
00000100: 5248 6ebf 26ff d13e af24 743f 3b86 98be
00000110: 1454 40bf 21bd 35bf be39 d1be 8ecf dcbe
00000120: a3c0 c8be 12e8 82bf f93a d9bf daa5 f9bc
00000130: 1b79 363f 3e72 7a3c 3b85 e03f be99 1a3f
00000140: 31ab 9c3e f1f8 fc3e 2653 cabe d6be f43e
00000150: 4eca 8d3f f89f b83d 3bd9 99bf a03b e83d
00000160: 68ed ccbf c197 413e a2d6 13c0 0f38 ccbf
00000170: 6a78 fd3e 833f c6be 97b2 b3bd ff5f 2e3d
00000180: 91ed 923f 7145 00c0 5d81 06bf 652f 77bf
00000190: 3aa4 8b3f a2d6 64bf 9f45 a9bf 4e25 363f
000001a0: 9b92 3f3e 9920 39c0 056b e4bf e59b adbe
000001b0: 78ef b23e c928 8fbf b4db 9cbd cfeb 453e
000001c0: 62e3 a43c c412 6cbf d64a e83e 4791 03c0
000001d0: b32a 2d3c 4a92 67bf 415f b23f b85c bbbf
000001e0: 32c6 253f e9e4 5d3b 31fc 09c0 7137 8ebf
000001f0: 0671 1bc0 7dab 46bf 41d5 843e 8e9b 133e
00000200: 9886 ea3e 0dfd 483f d14a 18bf ef1e 00bf
00000210: 7c5e 113f 52cb a03e 12e7 123d 2ed3 6f3e
00000220: f733 23bf f0ea 953f 8894 d73e dedd 90be
00000230: cddd 02be 5b36 373f b1a9 84be 2e68 803e
00000240: 6566 c83d 4b5d 273f 73c3 6e3f 5cae 8bbe
00000250: 576a 9e3d f967 15be ede8 b03e 4947 643f
00000260: ab21 973f 99c7 97bf d9e5 b13d 01af 4b3e
00000270: f293 eebe 61b2 2540 88e7 9d3e c7b3 4f3f
00000280: d4d3 26bf 0980 b7be e59d 09bf 835d 183f
00000290: 5b7c 8abc 274a 8fbd bfec 2abf 345e 483d
000002a0: c0d7 79be 15be 47be b6e1 f43e f7f7 ef3f
000002b0: 96ae d7bf f158 ecbf b0cd b93e 8167 893e
000002c0: fa19 793f cc3c 593f 607a 2ebd 7e74 143e
000002d0: a21c 00be 2e34 87be 1586 d13e a9f5 a13e
000002e0: d508 08bf 296e ad3e 3c83 3cbf cc9f b0be
000002f0: ae07 af3f 2530 26bc 9fc7 2fbe 04bb cdbf
00000300: 3be3 a1be 78a8 273d c7c8 a7bf 86b4 ec3f
00000310: f494 edbd f8da bd3f 6f4d a63e bef6 fcbd
00000320: be47 753c bd00 a03f a1f5 f83c 63c8 fbbf
00000330: adbb 9bbd 7f02 a9bf d727 0bbf 6468 36c0
00000340: 775c 913e 6686 81bf fe8a 973e 6595 9fbe
00000350: 44c2 483f 8e2b 07c0 139f 23c0 111f 0abe
00000360: 2817 3ebe 3b3d 99bf 85e1 013f 1c53 cf3e
00000370: a501 9cbe 4c6c 503e 2ae2 e43e f2f7 80bf
00000380: df3a a03e 2f5d 843b 2509 db3f b03c 043f
00000390: 988c 15c0 238d 58bf 0862 f03e 1b08 52bf
000003a0: 7801 e8be 2129 35bf daa4 07bf 13be 5f3f
000003b0: d0f7 48bf 0942 063e 3e4d be3d 15f0 adbf
000003c0: 6550 89be 0d5b c33d 3605 6bbf 7f7e 31bd
000003d0: 13c6 0ebf 92a8 9bbd d5b8 83bb 75cc 643f
000003e0: 260b 2dc0 33ec 9abf 7819 a5be 313b a33f
000003f0: c619 c3be 17f3 d3bf c627 623f bcb9 073e

fc2.bias f4 [64]
1.1083151 -1.0445896 2.4061067 1.1543804 -2.518264 2.1019228 -0.5357195 0.15176137
2.2041373 0.7146607 -0.67893124 0.36864966 -0.4304875 -0.22774543 -0.9518441 2.3220742
0.7126529 3.3869467 0.83065486 0.6570685 0.8166472 0.8256602 2.14403 2.2458699
1.0296496 3.5103147 0.41303116 -2.14781 3.6591728 -1.4656546 -1.5292423 0.45196763
5.0090833 -2.6957498 1.6060139 2.0667706 -0.03950836 -0.047315493 2.5668304 -6.5436454
0.506358 -0.26411283 -3.2594333 -0.72793174 -4.4482994 -0.24324024 4.2809963 0.4498662
-2.329992 1.2960483 -0.40260792 1.1699947 0.47675586 0.0006340037 0.40112472 0.32748842
2.3776548 0.39046225 -0.1873492 -1.4562677 -0.8896662 -0.7414605 -3.6679287 -2.1398184
00000000: 45dd 8d3f 1db5 85bf a7fd 1940 bdc2 933f
00000010: 3d2b 21c0 e785 0640 ea24 09bf 5567 1b3e
00000020: 9610 0d40 01f4 363f 70ce 2dbf a6bf bc3e
00000030: dc68 dcbe 1936 69be 0eac 73bf dd9c 1440
00000040: 6c70 363f bcc3 5840 cca5 543f a435 283f
00000050: ca0f 513f 785e 533f ca37 0940 55bc 0f40
00000060: 8fcb 833f ffa8 6040 d278 d33e b875 09c0
00000070: e32f 6a40 929a bbbf 36be c3bf 4d68 e73e
00000080: 694a a040 2a87 2cc0 dd91 cd3f f845 0440
00000090: 85d3 21bd e4cd 41bd f346 2440 8b65 d1c0
000000a0: aea0 013f cc39 87be 8e9a 50c0 bc59 3abf
000000b0: 7858 8ec0 f813 79be ecfd 8840 dd54 e63e
000000c0: 971e 15c0 e9e4 a53f a022 cebe 63c2 953f
000000d0: 5819 f43e 4533 263a 3860 cd3e 90ac a73e
000000e0: 7f2b 1840 abea c73e 78d8 3fbe fb66 babf
000000f0: 2ac1 63bf 5bd0 3dbf 58bf 6ac0 c9f2 08c0

fc3.weight f4 [64, 64]
0.1926858 -0.03193702 0.094159625 -0.08952396 -2.1330576 -0.39822283 -0.4704993 -0.08002659
-0.44466868 -0.4958485 -0.5302892 -0.32530385 0.36366472 0.3862537 1.01958 -0.83688235
-0.9011506 0.71659654 -0.21714953 -0.44080803 -0.14789805 0.43363017 0.78136003 -0.6588276
-0.9217334 -0.85684615 -0.7006588 0.5631529 0.8829016 0.52078843 0.87739384 0.72087103
-0.07493467 -0.1446295 -1.1518383 -0.3612489 0.7233358 -0.4833665 -0.35972944 -1.2831182
0.50301915 0.26156336 -0.6625688 -1.0203542 0.9103906 0.842371 0.3731503 -1.434417
-1.2465402 0.12244914 -0.21913798 -1.1331149 -0.83009815 0.4340705 -0.11533604 -0.16971587
-0.5343582 -0.50028104 0.78280574 0.022540748 0.89633995 -0.054118637 0.7633448 -1.5303364
-0.117545694 1.9741539 -0.3049961 0.20132335 1.0115578 -0.47168216 0.18804769 0.6718964
0.09184453 -0.40280014 -0.7466243 0.28021914 -1.3503766 0.45190474 -1.0801022 -1.5771489
-0.33066225 -1.1265264 -0.75038683 0.7180399 -1.2218719 -1.474342 -0.3294383 -0.2838557
-0.26250273 -0.54727036 -1.0425113 0.12728642 -0.4964755 0.24746671 -0.112244785 -0.11253508
0.097570285 -1.1285293 -1.0154141 -0.35306317 0.33987266 -0.28902316 -0.46155223 -0.84256965
-1.9465714 0.4313056 -0.21221906 -0.1785072 -0.1930419 -1.3048857 -0.27531475 -0.106620476
-1.0040213 -0.7259962 -0.59851885 0.05615184 0.7138113 0.38890952 -0.8681998 -0.8430826
0.07626137 -0.10872406 0.24028613 -0.5919946 0.10466748 -0.23084143 -2.4423268 -0.6104339
-1.3491874 -1.0204537 -0.46006492 -0.30573407 0.14089839 -1.7829415 -1.0200249 -1.2756498
-1.1910063 -1.5328445 -0.81467485 -0.9394373 -1.3235136 0.36690208 -2.2947328 -0.98023987
-0.11019744 -1.3996191 0.42374393 -0.54118484 0.3806182 -0.75991887 -0.35104227 -1.7348263
0.16261159 -0.9617843 -1.2587442 -0.8023617 0.316198 -1.9406849 0.69472855 -0.64635646
-0.98495036 -1.1470766 -0.3212627 -0.4740151 -0.74087286 0.56251746 -1.0932615 -0.51002485
-0.19479398 0.9945135 0.49128592 -0.28910455 -1.0539479 -1.0114392 -0.8984194 -1.6143382
-1.9319727 -0.2907685 -0.64667124 0.6006217 0.7285639 -0.55805546 0.66785604 -1.505783
0.50363076 -0.4611323 0.8462026 0.8682829 0.12922338 -0.79248637 -1.2624797 -0.17136882
-0.91382617 -0.89706033 -0.26319376 0.032227147 -0.10046498 -0.4074489 0.58640975 -0.081931375
-0.0050815437 -0.12878132 -1.2684349 -0.15571064 -0.72966087 0.46740404 0.20808676 -0.29734933
0.9669291 0.16710323 0.2888994 -0.2237826 0.21727185 -0.06608044 -0.42909068 4.371709
-0.21992084 -0.3400322 -0.3646642 -0.07951134 -0.5364714 -1.0613643 -0.10183661 0.2933639
0.84055644 -1.068245 -0.51522404 -0.15294424 -0.7820003 0.24744338 -0.24986367 -0.10453116
-0.09540389 -0.152021 -0.42469752 -0.2755536 -0.8929904 0.35229784 0.07977461 -0.38432825
0.04851622 -0.6709993 -0.112075076 -0.22346309 2.2108374 0.14313546 -0.18506093 0.16387108
-0.24275757 -0.33882168 -0.48338407 -1.2973168 -0.19096196 -0.07429996 -0.016253639 -0.041987322
00000000: 6d4f 453e 65d0 02bd c3d6 c03d 5758 b7bd
00000010: 0484 08c0 dde3 cbbe 49e5 f0be fbe4 a3bd
00000020: 9dab e3be dbdf fdbe 08c1 07bf 3a8e a6be
00000030: 4332 ba3e 0cc3 c53e 9981 823f ec3d 56bf
00000040: ceb1 66bf df72 373f 725c 5ebe 97b1 e1be
00000050: 9672 17be c604 de3e 3607 483f eda8 28bf
00000060: b8f6 6bbf 455a 5bbf 605e 33bf ca2a 103f
00000070: d705 623f 6452 053f e29c 603f 018b 383f
00000080: 5977 99bd c119 14be 706f 93bf 9ef5 b8be
00000090: 892c 393f d07b f7be 752e b8be 383d a4bf
000000a0: ddc5 003f a2eb 853e 1c9e 29bf f79a 82bf
000000b0: 5c0f 693f a0a5 573f 8e0d bf3e fa9a b7bf
000000c0: a18e 9fbf 9dc6 fa3d b565 60be e909 91bf
000000d0: 5081 54bf 7d3e de3e 4d35 ecbd ffc9 2dbe
000000e0: b3cb 08bf 6b12 00bf f565 483f 60a7 b83c
000000f0: 8976 653f 81ab 5dbd 916a 433f 10e2 c3bf
00000100: ccbb f0bd 13b1 fc3f 7328 9cbe b527 4e3e
00000110: ba7a 813f 5380 f1be 938f 403e 6701 2c3f
00000120: fc18 bc3d d23b cebe c522 3fbf e278 8f3e
00000130: 24d9 acbf 0f60 e73e ca40 8abf 04e0 c9bf
00000140: 904c a9be 0432 90bf 5a19 40bf 76d1 373f
00000150: 4c66 9cbf 3db7 bcbf 23ac a8be 8955 91be
00000160: c266 86be e919 0cbf 0371 85bf 5f57 023e
00000170: 0932 febe ea67 7d3e 98e0 e5bd cb78 e6bd
00000180: eed2 c73d a673 90bf 17f9 81bf b2c4 b4be
00000190: ca03 ae3e d8fa 93be 9350 ecbe a5b2 57bf
000001a0: 4029 f9bf 16d4 dc3e f44f 59be 97ca 36be
000001b0: c7ac 45be 7f06 a7bf 0ef6 8cbe d65b dabd
000001c0: c583 80bf e3da 39bf 8838 19bf 79ff 653d
000001d0: 56bc 363f 261f c73e 5842 5ebf 43d4 57bf
000001e0: ec2e 9c3d b8aa debd 910d 763e f58c 17bf
000001f0: e75b d63d b261 6cbe 154f 1cc0 6545 1cbf
00000200: 2cb2 acbf 3a9e 82bf a18d ebbe 2d89 9cbe
00000210: ab47 103e 6d37 e4bf 2d90 82bf 7e48 a3bf
00000220: e572 98bf 4034 c4bf 888e 50bf f77e 70bf
00000230: e568 a9bf 97da bb3e e7dc 12c0 00f1 7abf
00000240: 32af e1bd b826 b3bf f7f4 d83e 178b 0abf
00000250: 64e0 c23e 0b8a 42bf d0bb b3be ca0e debf
00000260: a783 263e 7f37 76bf 881e a1bf 9467 4dbf
00000270: b4e4 a13e 5d68 f8bf bbd9 313f 9e77 25bf
00000280: b525 7cbf 68d3 92bf 8b7c a4be 1bb2 f2be
00000290: d8a9 3dbf 2501 103f feef 8bbf fd90 02bf
000002a0: 1378 47be 7098 7e3f d489 fb3e 8305 94be
000002b0: c4e7 86bf d776 81bf d0fe 65bf a2a2 cebf
000002c0: e24a f7bf 9cdf 94be 3f8c 25bf 58c2 193f
000002d0: 2a83 3a3f b9dc 0ebf 9df8 2a3f 7fbd c0bf
000002e0: f2ed 003f 8819 ecbe bca0 583f ca47 5e3f
000002f0: 2253 043e 63e0 4abf ef98 a1bf 4f7b 2fbe
00000300: 83f0 69bf bfa5 65bf 55c1 86be 9d00 043d
00000310: 95c0 cdbd 249d d0be f31e 163f a3cb a7bd
00000320: 1483 a6bb 40df 03be 135c a2bf 9c72 1fbe
00000330: 0ecb 3abf 954f ef3e b214 553e 2c3e 98be
00000340: aa88 773f 1c1d 2b3e 9fea 933e 4427 65be
00000350: 837c 5e3e 2f55 87bd c6b1 dbbe 0ae5 8b40
00000360: ee32 61be b318 aebe 44b5 babe d7d6 a2bd
00000370: 3156 09bf c9da 87bf b68f d0bd cb33 963e
00000380: b52e 573f 41bc 88bf b9e5 03bf 6a9d 1cbe
00000390: 2c31 48bf cc61 7d3e 43dc 7fbe 6f14 d6bd
000003a0: 1d63 c3bd 65ab 1bbe f471 d9be 5d15 8dbe
000003b0: 059b 64bf 6260 b43e df60 a33d acc6 c4be
000003c0: f2b8 463d 9cc6 2bbf 9e87 e5bd 82d3 64be
000003d0: 5c7e 0d40 1a92 123e 9d80 3dbe d2cd 273e
000003e0: 7195 78be 097a adbe 1e7e f7be 7a0e a6bf
000003f0: 888b 43be 942a 98bd 5a26 85bc e6fa 2bbd

fc3.bias f4 [64]
1.7426639 0.45052963 -0.36384767 -2.7513235 -2.62183 -0.91498077 -1.762555 -0.5832032
3.2396216 -2.06711 0.1724278 -6.078497 0.3266443 2.6339955 -2.160462 2.7328513
-1.4182273 -1.9980069 0.8684475 -0.440831 -0.9447994 -1.9588608 -1.3148314 0.5167556
1.9258257 0.51001966 -2.5518973 -1.5920181 -0.54799074 -1.5231591 -2.2995248 3.3684363
-1.072461 -1.3603413 -2.066694 1.5485516 1.4768709 -1.9753754 0.9628397 1.0139359
-2.90741 0.199031 0.7302204 2.6014645 -3.0323637 -0.38719085 -0.9990893 -0.8956685
-0.85965633 0.11198476 4.5206037 0.111787125 4.2133603 -0.22762495 -3.0265493 -0.54161805
-2.3306046 0.21685039 -1.8552586 -0.7261459 -2.204194 -1.3236973 2.1091878 -0.63173217
00000000: 9c0f df3f d2ab e63e 3e4a babe af15 30c0
00000010: 10cc 27c0 2e3c 6abf 679b e1bf ce4c 15bf
00000020: f655 4f40 884b 04c0 ea90 303e 0c83 c2c0
00000030: ec3d a73e 6293 2840 0245 0ac0 09e7 2e40
00000040: 7988 b5bf b1be ffbf 9352 5e3f 9ab4 e1be
00000050: 60de 71bf f3bb fabf 654c a8bf 184a 043f
00000060: 7581 f63f a690 023f 4952 23c0 40c7 cbbf
00000070: 1f49 0cbf e1f6 c2bf 6a2b 13c0 7694 5740
00000080: 6746 89bf aa1f aebf b744 04c0 f036 c63f
00000090: 1b0a bd3f 1ad9 fcbf aa7c 763f a7c8 813f
000000a0: 0113 3ac0 c8ce 4b3e b9ef 3a3f 657e 2640
000000b0: 3f12 42c0 e13d c6be 51c4 7fbf 884a 65bf
000000c0: 7012 5cbf 4458 e53d c9a8 9040 a6f0 e43d
000000d0: d9d3 8640 8416 69be fcb2 41c0 7ba7 0abf
000000e0: a028 15c0 070e 5e3e 1d79 edbf b3e4 39bf
000000f0: 8411 0dc0 ea6e a9bf effc 0640 33b9 21bf

value.weight f4 [1, 64]
0.04390007 -0.08070066 -0.0062574004 0.058566764 -0.31746513 -0.0188156 -0.046206325 -0.00379504
0.13253637 -0.097353056 -0.09358781 -0.03488881 -0.27309474 0.046047427 -0.051663473 0.052544996
0.3478826 0.029936153 -0.046627626 0.0019211376 0.1296779 -0.13878538 -0.03365138 0.29787976
0.036497086 -0.0679728 0.10584134 -0.004800016 0.0033610966 0.13782024 -0.005245478 0.056232322
-0.052139174 -0.017951604 0.19867478 -0.06871041 0.029947726 -0.06510319 0.03798084 -0.06479065
0.02714804 -0.04343841 0.10039384 0.089174755 -0.055966154 0.39778215 0.060311142 -0.008215113
0.18517725 -0.05994978 0.062273648 -0.04387803 0.07575639 -0.013373633 -0.0024241053 -0.013280965
-0.0642021 -0.024572087 0.30159482 0.04621337 -0.049796432 -0.015833719 0.07893203 -0.010464626
00000000: 8fd0 333d 6346 a5bd e10a cdbb b4e3 6f3d
00000010: ca8a a2be 2c23 9abc d842 3dbd 35b6 78bb
00000020: 9db7 073e 0a61 c7bd f7aa bfbd 92e7 0ebd
00000030: 13d3 8bbe 3a9c 3c3d 149d 53bd 6c39 573d
00000040: ab1d b23e aa3c f53c 9cfc 3ebd aece fb3a
00000050: 49ca 043e c11d 0ebe 08d6 09bd b283 983e
00000060: f87d 153d 5335 8bbd 58c3 d83d 7449 9dbb
00000070: d845 5c3b c020 0d3e 42e2 abbb dd53 663d
00000080: e38f 55bd 3e0f 93bc 6771 4b3e 0bb8 8cbd
00000090: ef54 f53c d254 85bd cc91 1b3d f6b0 84bd
000000a0: 9165 de3c 79ec 31bd 499b cd3d 41a1 b63d
000000b0: c43c 65bd 1aaa cb3e d108 773d ae98 06bc
000000c0: 1b9f 3d3e e78d 75bd a712 7f3d 73b9 33bd
000000d0: 2b26 9b3d 151d 5bbc bddd 1ebb 6898 59bc
000000e0: 647c 83bd 674b c9bc a36a 9a3e 3b4a 3d3d
000000f0: 58f7 4bbd b7b5 81bc 1ea7 a13d d373 2bbc
