maddpg_v7_over/model/simple_tag/agent_1/736_actor_params.pth (torch, 41911 bytes, 8 tensors)

fc1.weight f4 [64, 16]
000000 86 fd e3 3c ef 6e 5c be b4 45 15 bd c5 aa 19 3d
       0.02783085 -0.21526693 -0.036443427 0.037516374
000010 5a 95 cd ba 71 d3 a7 3d 82 69 8f 3c df bf 5b 3d
       -0.0015684769 0.08194626 0.017506365 0.05364978
000020 a1 8d 39 3d da ff 24 3c d9 aa 24 bc 3f f5 4c 3d
       0.045301083 0.010070765 -0.010050499 0.050038572
000030 5a b0 34 be 57 a1 4c 40 7d de ea 3b 73 25 a2 3e
       -0.17645398 3.1973474 0.007167636 0.31669196
000040 21 84 92 be 58 d8 ab bc b0 c4 03 be 2e 78 ad bc
       -0.2861643 -0.020977184 -0.12867999 -0.02117547
000050 d7 47 c3 bb 97 62 4b ba 4f 00 99 3b 99 01 17 ba
       -0.0059594917 -0.00077585265 0.0046692262 -0.0005760431
000060 f6 32 3c 3d ab 5d 30 3d 2f ac 84 bd b5 17 75 3c
       0.045947038 0.04305808 -0.06478154 0.0149592655
000070 62 1a 4c 40 ce f7 97 3e 15 cb c6 3e a6 1c 6e 3d
       3.1891103 0.29681247 0.38826814 0.05813279
000080 2d 50 9f 3d 2f 44 59 bd df 92 30 bd 84 8d 98 be
       0.07778964 -0.05304354 -0.043108817 -0.29795468
000090 b7 5c e1 3c 8c e7 c1 3b 8e 56 ce 3c d1 a4 ae bc
       0.02751003 0.005917495 0.025187757 -0.021318825
0000a0 62 97 a8 be ca ec e2 bd 25 12 f3 3e 85 cf 2f bf
       -0.32927996 -0.1108032 0.4747478 -0.68676025
0000b0 4a 91 c1 bd 63 a4 6e be c9 a1 1c be dd df 94 3d
       -0.0945154 -0.23304896 -0.15296091 0.07269261
0000c0 1e aa 17 bd 8b 15 d3 bb 80 98 da 3d a1 09 1e bd
       -0.03702747 -0.006441777 0.10673618 -0.0385834
0000d0 c5 44 94 bb fa b3 9a 3c af ce 4d 3b cf 87 57 3c
       -0.0045247995 0.018884648 0.003140371 0.013154938
0000e0 76 5e 2d 3f 0f 0f 70 bf 74 38 1b 3d 5f ea 8c 3d
       0.6772226 -0.9377298 0.037895635 0.0688064
0000f0 ce 14 22 bf 67 46 80 3f c4 49 34 3c 42 42 cb 3d
       -0.63312995 1.0021485 0.011003915 0.09924747
000100 f6 8e 84 3e 3d be 8b be 28 d9 6e be 03 af 37 3e
       0.2589032 -0.27293578 -0.23325026 0.17937855
000110 39 bc d2 3b 6f c9 d5 3d e9 d8 31 bd 33 ef 2f 3d
       0.0064311293 0.10438811 -0.043419752 0.042952728
000120 ba e5 1a 3d 2c 0e 9e 3d 33 d8 65 bc c8 54 20 3e
       0.03781674 0.07717547 -0.014028597 0.15657341
000130 c5 c8 a5 3d 86 1e dd be bf 75 a3 bd 75 2d b9 bf
       0.080949344 -0.4318735 -0.07981443 -1.4466997
000140 0f 78 55 be f9 6a 63 3d c5 54 3e 3f 27 07 8c bd
       -0.2084658 0.05552194 0.743481 -0.06837302
000150 14 3c 98 bd d6 bc 05 3e ff e7 f9 3b e2 7d 0a be
       -0.07433334 0.13060316 0.007626533 -0.13524583
000160 a1 90 72 3d b1 f1 7e be 6e c6 25 bd 64 1e 36 bd
       0.05921996 -0.24896885 -0.04047244 -0.044462577
000170 c3 c6 87 3f 5d 28 0e 3f b0 a7 c8 3d 74 ae 2e 3c
       1.0607532 0.5553034 0.09797609 0.01066171
000180 09 4e 4b be f6 ac ac bd a9 88 00 3e b5 08 d4 3c
       -0.19853987 -0.08431427 0.12552132 0.025883058
000190 76 93 09 3d e2 22 9c 3d 8e 94 9a 3d e8 69 b3 3c
       0.033587895 0.07623841 0.07547866 0.021901086
0001a0 60 d4 95 3b 15 69 bc 3d 24 63 ed 3d 55 38 ee bd
       0.004572436 0.0919973 0.11591175 -0.11631838
0001b0 a4 f7 c6 3f b9 01 3b 3f a7 3b 6b 3e 11 52 29 3e
       1.5544324 0.73049504 0.22971974 0.16535212
0001c0 48 d8 ab 3d e9 1f 23 3e b5 3e 38 3e 2e ce 80 3e
       0.08390862 0.15930142 0.17992671 0.25157303
0001d0 30 41 00 3c 52 8c 7c bd 04 1d 16 3c e5 0e 6d bd
       0.007828042 -0.061657257 0.009162191 -0.057875533
0001e0 1b ac d9 be bd 85 ec be 16 47 11 3e f0 45 a0 be
       -0.4251412 -0.46195784 0.14187273 -0.31303358
0001f0 02 b4 0e bf ab ff 8b 3f 90 2f 0f bd ba 42 01 be
       -0.5574342 1.0937399 -0.03495747 -0.1262311
000200 31 6a 6f be 53 b0 89 be 78 f5 61 be 5d 61 02 bf
       -0.23380353 -0.26892337 -0.22066295 -0.50929815
000210 bf e0 56 3d a3 ff 91 3d 44 ed bc 3a 09 a9 af 3c
       0.05246043 0.07128837 0.0014413972 0.021442907
000220 2e 80 f3 3d d2 e9 00 3d 38 09 b3 bd d1 b2 2a be
       0.11889683 0.03147299 -0.08741993 -0.16669776
000230 30 e4 b0 bf f7 37 ae 3f e8 49 65 be 41 75 c5 3e
       -1.3819637 1.3610829 -0.22391474 0.3856602
000240 53 f0 a5 bd 67 5c c6 bd 0a a5 36 bf 13 21 bc 3e
       -0.08102479 -0.09685593 -0.7134558 0.36743984
000250 34 ed 28 3e 32 4a 0c 3d 99 46 28 3e fb 8f 09 bd
       0.16496736 0.034250446 0.16433181 -0.033584576
000260 3b f2 81 be 40 60 5e 3e 6b ba 6b be ce b2 3d be
       -0.2538012 0.21716404 -0.23020332 -0.1852524
000270 26 1a 41 3e 52 4d 42 3e 01 ed 24 3d 03 80 65 be
       0.18857631 0.18974808 0.040265087 -0.22412114
000280 a0 d1 44 bd f7 b3 54 be 0b cc a8 bd 03 47 1d be
       -0.048051476 -0.20771776 -0.08242043 -0.1535912
000290 1a 0d 19 3d 01 7a c1 bb 46 bf 10 3d 7f ac 83 3b
       0.03736601 -0.0059044366 0.035338663 0.004018366
0002a0 a6 92 0b 3c c7 8a b1 3c fd 90 18 3b c0 00 8a bc
       0.00851885 0.02167262 0.002327978 -0.01684606
0002b0 37 e6 7a 3f 06 ae 3d 40 97 3a 11 3e 2a 60 a3 3e
       0.9800753 2.9637465 0.14182507 0.31909305
0002c0 fc 1c f7 bb 37 cf 43 3e 07 82 97 3e ea e5 fe 3c
       -0.007541297 0.19122015 0.2959139 0.031115491
0002d0 38 fd 21 bd 4a 0e 28 3d c8 21 c3 bd 55 99 a0 bd
       -0.03954813 0.041029252 -0.09527928 -0.07841746
0002e0 3a c2 a2 bd 95 92 84 be 9e 28 fb be 58 2c df 3e
       -0.07947202 -0.25893083 -0.49054426 0.4358852
0002f0 8e 25 c6 bf 9d 9f cd be 0b 4b 7f 3e cb 77 87 3e
       -1.5480211 -0.40160838 0.2493097 0.26458582
000300 3a e3 a8 bd 6d 62 5d 3e 29 94 55 be 44 ec cb 3e
       -0.08246465 0.21619578 -0.208573 0.39828694
000310 5e 0d 7c 3c 46 c3 30 bd 82 7e 37 3d 4a 61 3e bb
       0.015384046 -0.043154977 0.04479838 -0.0029049688
000320 31 2a 52 3e ff 41 81 3e 26 bf b1 bd 34 d9 65 be
       0.20523907 0.25245664 -0.08679037 -0.22446138
000330 bf 1d 46 3f e3 9e 9e 3e c7 69 b0 3d a3 88 e9 3d
       0.7738914 0.30980596 0.086139254 0.114030145
000340 ef 85 e6 bb f2 90 bd bd b6 3a ac bd b8 76 64 bf
       -0.007035009 -0.09256162 -0.08409636 -0.8924365
000350 fe bb f3 3c e1 8d 3b 3e 5a 0a 8c 3a b7 c6 30 3e
       0.029752728 0.18315841 0.0010684237 0.17263304
000360 35 33 d4 3e b4 02 e2 be 76 ca 91 3d 1e 7b 70 be
       0.41445318 -0.44142687 0.071186945 -0.23484465
000370 c0 b3 84 3d 10 4b b8 3d c2 a8 07 be 7d 21 08 be
       0.06479597 0.08998692 -0.1324797 -0.13294025
000380 68 05 47 3d 68 07 b1 be e6 bf b7 3e da f1 9c 3e
       0.04858914 -0.34575963 0.35888594 0.30653268
000390 b1 3e 14 bd 93 22 7f bd 56 eb e9 bd c2 9c fa bc
       -0.0361926 -0.062288832 -0.1142184 -0.030592326
0003a0 aa f9 30 be c0 ec a4 3c 24 58 8a 3d 51 21 8f 3e
       -0.1728274 0.020132422 0.06755093 0.27955106
0003b0 e7 31 55 bf 02 09 1c 3f 95 7f 11 bf 53 9d 1a 3e
       -0.8327927 0.60951245 -0.568353 0.15099077
0003c0 91 a1 b9 bd 54 9c ca 3d a5 4d 06 3d d8 ad a4 3e
       -0.090640195 0.098930985 0.03278889 0.32163882
0003d0 76 3a 19 bd 3b 22 b8 3c 1d da bf 3c 52 5b 1a bd
       -0.03740927 0.02247726 0.023419434 -0.037684746
0003e0 a0 b9 bb 3d 9b 4e c9 3d cf de 0b 3e 25 eb 10 3e
       0.091662645 0.09829446 0.13659213 0.141522
0003f0 9e 99 f8 bf dd ad cb bf cf ba 77 be 73 b6 fa be
       -1.942188 -1.5912434 -0.24192356 -0.48967323

fc1.bias f4 [64]
000000 4e db f1 3e 68 a8 0b 3f 26 e5 d2 3b 7f 3b 4d 3e
       0.4723763 0.5455384 0.006436008 0.20042227
000010 59 44 1b bf 95 89 07 3f cb 83 f7 3e 30 b1 b7 3d
       -0.60651165 0.5294431 0.48342738 0.08969343
000020 1d 2e 81 be b7 e6 a2 3e 2f cc b9 3e e0 4c 8a 3b
       -0.25230494 0.31816646 0.36288592 0.00422059
000030 d1 b1 02 3f ef 11 72 bc fe 4e 12 bb 09 88 a4 be
       0.51052576 -0.0147747835 -0.0022324915 -0.32135037
000040 47 a4 6c 3f 5a 85 f9 3e 57 46 b1 3e d3 2a 81 3f
       0.9243817 0.48734552 0.34623978 1.0091194
000050 62 8d 16 3e 96 73 61 3f 22 a8 61 3e a6 1d 3e 3e
       0.14702371 0.88066995 0.22036794 0.18565997
000060 74 7a c2 3d 56 a3 45 be dd 5b ec 3e 92 0f 3c 3f
       0.09496012 -0.19300589 0.46163836 0.7346126
000070 16 14 15 be 37 7a 6d 3e 73 53 b5 3d 1c 66 5c bf
       -0.14558443 0.23191153 0.08853807 -0.86093307
000080 ff de 92 bc 87 d7 ba 3e 18 20 2d 3f 2f 76 59 3e
       -0.017928598 0.3649256 0.67627096 0.2123649
000090 d2 35 06 be 3f 11 12 be 9b 0d eb be 56 c2 fb 3e
       -0.13106468 -0.14264391 -0.45908818 0.49171704
0000a0 05 6d bb be b3 6b 11 3f d0 46 e2 3e ee dd 3d be
       -0.36606613 0.5680496 0.4419465 -0.1854169
0000b0 4a 2a b8 3d 48 26 1e bc 6f ef 49 3e af 73 43 3f
       0.08992441 -0.009652682 0.19720243 0.76348394
0000c0 97 b5 19 bf a8 9e ba be 31 a1 7d 3e 00 f2 45 3e
       -0.6004271 -0.3644917 0.24768521 0.19330597
0000d0 3c fb 05 3f d5 f4 02 3f 63 c7 b8 3e c9 ba 12 be
       0.5233648 0.51154834 0.3608962 -0.14329065
0000e0 d3 11 0d 3f fa 5e a4 bc 5b 50 05 3f 1e 28 38 3e
       0.5510532 -0.02006482 0.5207574 0.17984053
0000f0 38 d9 a0 3e 75 9d e2 3e f7 b7 b6 3e f6 d0 0b be
       0.31415725 0.44260755 0.3568723 -0.13653931

fc2.weight f4 [64, 64]
000000 33 59 a0 3d 51 75 67 bd 7d b0 87 3e 07 e0 07 3e
       0.078295134 -0.056508366 0.26501837 0.13269053
000010 ed b0 81 bd 14 6a ea 3e a2 b0 40 3e 9b 6f 45 3e
       -0.06332574 0.45784056 0.1881738 0.19280855
000020 9a ab 5d 3e 46 9d 28 3e 8c 34 c1 3e 61 7e a5 be
       0.21647492 0.16466245 0.37735403 -0.32322982
000030 44 07 46 3e 7f 81 ad 3c f7 69 c9 be 87 db 8e be
       0.19338709 0.021179913 -0.39338657 -0.2790186
000040 4e dc 56 be 20 3e 89 3e 56 36 ad be 71 47 b0 3e
       -0.20982477 0.2680521 -0.33830518 0.34429505
000050 f4 be 50 bd c5 0f a6 bd 54 6c 4b 3e 79 de c8 3d
       -0.050963357 -0.081084765 0.19865543 0.09808058
000060 a6 21 73 3e e1 f1 42 bf 55 87 72 3e 3a ab 12 bd
       0.23743305 -0.7615033 0.23684438 -0.035807826
000070 a6 ed 97 3e 02 11 09 3e 7a 8a a2 3e 88 19 8e bd
       0.296735 0.13385394 0.31746274 -0.069384634
000080 42 c7 d0 bd c8 e1 f2 3d 51 be 11 be 22 eb 83 3e
       -0.101942554 0.118594706 -0.14232756 0.2576533
000090 6c a8 f2 bd 3f 4c 89 3e 97 5d 17 3f f8 09 c7 3e
       -0.1184853 0.26815984 0.5912718 0.38874793
0000a0 45 17 cf 3d b5 e7 13 3e 6d 2f 95 3e 95 3d 51 bd
       0.1011186 0.14443858 0.29137745 -0.05108412
0000b0 b7 19 b6 bc 61 9a 3f be 5a 74 78 bd ac 3d 9c bd
       -0.022229059 -0.18711235 -0.060657836 -0.076289505
0000c0 e8 49 02 be 6b 27 d2 bd 7a 5c ab 3e b2 fe e4 bd
       -0.12723505 -0.10261425 0.33468992 -0.11181392
0000d0 30 d7 4e bf 11 30 d5 3b f0 d7 e7 be 13 76 88 3e
       -0.807971 0.006505974 -0.45281935 0.26652583
0000e0 cc ec 28 be 1e 84 13 3e b5 66 73 be 4a fc ad 3c
       -0.16496581 0.14405867 -0.23769648 0.021238465
0000f0 d0 08 9f 3e bf e7 9b be 6d 9a b3 be d1 34 4a 3e
       0.3106141 -0.30450246 -0.35078755 0.1974671
000100 30 69 39 bd bf 53 fc 3d 19 26 b6 3e 56 8f d3 bd
       -0.04526633 0.12320661 0.3557594 -0.103300735
000110 d5 4e 2c 3e bf 38 29 bf 79 f1 d3 3c 23 a8 a9 be
       0.16826947 -0.6610221 0.02587198 -0.3313609
000120 e8 9d f6 bd a6 de 8b be f7 7b 9a 3e ab 25 26 3e
       -0.12041837 -0.27318305 0.30172703 0.16225307
000130 5d 8c 5b be f5 f7 b1 3d 7f e4 55 be f1 e9 47 3f
       -0.21440263 0.08689872 -0.20887946 0.7809134
000140 61 15 8f 3e a1 e2 6f bf b5 c4 0e be 74 63 b1 bd
       0.27945998 -0.93705183 -0.13942225 -0.08661547
000150 7a 27 36 bf 08 a5 1f be 6f 36 08 3e 77 c0 2f 3e
       -0.71153986 -0.15590298 0.13302015 0.17163263
000160 35 37 f9 3e 52 fc b6 3e e8 f0 12 3f 16 31 04 bf
       0.48674932 0.3573938 0.57398844 -0.516374
000170 dc 49 63 bc c8 df 25 bf a2 5e 8c 3c 5f 5a 9e 3e
       -0.01387259 -0.6479459 0.017134968 0.30928323
000180 89 67 23 3c c2 e9 90 3c 42 bf 92 3d 98 02 33 bd
       0.009973415 0.01768959 0.07165386 -0.043703645
000190 c2 4f 89 3e 04 f1 21 be 71 b3 25 be ea d8 0c 3e
       0.26818663 -0.15814596 -0.16181733 0.13754621
0001a0 6a 2c 58 3e bb 05 16 bd ae 9f 8d 3d fb 6c 53 3e
       0.21110693 -0.03662656 0.06915222 0.20647041
0001b0 3f 61 96 be 55 ec 8e be 2c 2a 59 bf ea ec e9 3d
       -0.29371068 -0.27914682 -0.84829974 0.11422141
0001c0 f5 53 b1 3d 0d ee c8 be 55 8f d8 be 91 68 6a 3d
       0.08658592 -0.39244118 -0.42296854 0.05722863
0001d0 57 17 11 bd b4 03 b6 be 7f ae 06 3d a9 8b f9 bd
       -0.03542265 -0.355497 0.032881256 -0.12184841
0001e0 c1 c0 b6 3e e8 8b bd be ac b2 e5 bd 52 7d b6 3e
       0.35693935 -0.37020802 -0.112157196 0.35642487
0001f0 bf b5 b4 bc cd 91 a8 3d bc ce 92 be 37 fa c0 be
       -0.02205932 0.08230934 -0.2867335 -0.376909
000200 e8 a5 2b be 95 00 0f bd 87 51 4c be fa 5c a4 3d
       -0.16762507 -0.034912664 -0.19952975 0.08025546
000210 24 f6 84 be e9 60 70 bc 80 80 99 bd 1c 5e ec 3c
       -0.2596904 -0.014671543 -0.074952126 0.028853469
000220 49 94 f5 3d 30 a6 33 3e 1d 85 7a 3e 89 57 ce be
       0.11991174 0.17543864 0.24464841 -0.4030116
000230 2d a3 10 be b4 65 48 be 4d 2a ab 3e 0b 74 58 3e
       -0.14124747 -0.19570047 0.3343071 0.21138017
000240 90 4e ae bd 7c 05 c7 3e 77 7b 36 3e db e7 6f bd
       -0.08511078 0.38871372 0.17820536 -0.058570724
000250 47 48 da 3d 94 c2 63 be 5b 96 4b 3f 38 84 72 be
       0.10658317 -0.22242194 0.795263 -0.2368325
000260 16 d2 e0 bd 7c d7 b2 bd 1b 1f 3d 3e b7 c3 85 be
       -0.10977571 -0.08732507 0.18468897 -0.2612588
000270 c1 64 29 3e 97 37 87 3d 8e c9 4b 3d 47 c4 9c 3e
       0.16542341 0.066024 0.049752764 0.30618498
000280 4c 3f 88 be 8b 17 b3 3e bf 1d a2 be 07 d0 b0 3e
       -0.26610792 0.349789 -0.3166332 0.34533712
000290 4a 30 57 3e 27 40 d8 bd e2 15 7e 3e 81 bb 02 3f
       0.21014515 -0.10559111 0.24813035 0.5106736
0002a0 e2 a7 f3 be 2f 38 87 3e 02 7a 3b 3d 4c 27 06 be
       -0.47589022 0.26410052 0.045770653 -0.13100928
0002b0 7b 94 0a 3e c2 60 fd 3c ca 0e 84 3c fc 3c 45 3d
       0.13533203 0.030929927 0.016120333 0.048153862
0002c0 83 ae 47 be 65 b7 e0 3d 2d 0d 5c 3e fa f5 77 3e
       -0.19500165 0.1097248 0.21489401 0.24214926
0002d0 a4 6f cf be 09 1e fe bd cc d8 ed be 13 23 4c 3d
       -0.40514863 -0.124080725 -0.46454465 0.049838137
0002e0 55 57 84 3e ec a9 a6 3e 2d 37 6c 3d 40 0a 3a be
       0.2584788 0.32551515 0.057669807 -0.18167973
0002f0 d1 9c 4e bd 40 0e 29 3d 9c f7 a8 bc bd 70 3a be
       -0.05044252 0.041273355 -0.020625882 -0.18207069
000300 93 1e 8f 3e ba 30 59 bf 86 66 01 3e 54 e9 ca 3d
       0.27953014 -0.84839976 0.12636766 0.09907785
000310 26 21 3a 3d c4 1b 8a be e3 b2 30 3e 54 9b 41 3d
       0.04544177 -0.26974308 0.1725574 0.047267273
000320 95 97 dc be ae 27 b3 be a2 95 92 3e 4e 3b 04 bf
       -0.43084398 -0.3499121 0.28629786 -0.5165299
000330 eb 41 cf bc 63 19 e6 bd e0 9e c0 be f9 c9 24 3e
       -0.025299987 -0.11235311 -0.37621212 0.16092671
000340 60 e8 73 3e ee f9 c4 3e 75 e9 5d be 33 f9 65 3e
       0.23819113 0.3847193 -0.21671088 0.22458343
000350 9d ea 29 3c 77 c1 c2 bd dd 6a 73 3c c9 88 47 be
       0.010370878 -0.09509557 0.014857021 -0.19485773
000360 1b 6f 14 3e 1b ca db 3e 04 91 c8 3e 80 98 9a be
       0.14495508 0.42927632 0.39173138 -0.30194473
000370 47 cf cd 3e 8c 6a a6 3e de 2a 4d be 85 54 1f bd
       0.40197203 0.32503164 -0.20035884 -0.038898963
000380 77 1a 7f be b2 70 cf bd 33 c1 01 3f 2a cb 85 3e
       -0.2491244 -0.10128917 0.50685424 0.26131564
000390 95 b2 23 be f4 2f 94 3e e9 9c 73 be b5 85 aa 3e
       -0.15986092 0.28942835 -0.23790325 0.33305135
0003a0 a0 72 ce 3d 83 13 a4 be fd 23 cc be d0 58 92 bd
       0.10080457 -0.32046136 -0.39871207 -0.07145846
0003b0 76 30 c2 3e 08 ea e6 be 25 5d 4f bd 4e 53 2f be
       0.37927598 -0.45100427 -0.05062594 -0.17121622
0003c0 12 d7 e5 3d b6 33 15 bf 86 0f dc be 68 98 95 be
       0.11222662 -0.5828203 -0.42980593 -0.2921784
0003d0 98 4d a2 bd b6 05 3e bd fb 69 2c 3f c3 5d 29 bc
       -0.07924956 -0.046392165 0.67349213 -0.010337296
0003e0 a0 ee 49 be 95 a9 58 bc ad 38 df 3e 6a 7e ca 3d
       -0.19719934 -0.013224025 0.43597928 0.09887393
0003f0 73 c6 b1 3d 0c 96 62 3d bb fb f2 3d 99 fa a2 bd
       0.08680429 0.055318877 0.1186442 -0.07957954

fc2.bias f4 [64]
000000 f5 bc 05 3e bc 07 8f 3d a6 af e2 bd ad df 39 3e
       0.13060363 0.06983897 -0.110686585 0.18151732
000010 bc 04 f6 3e 0f 17 0d 3d a2 6c 82 be d2 8e 91 3c
       0.48050487 0.03444582 -0.25473505 0.017768297
000020 20 2b 91 3e 64 77 ed bd b2 34 41 3e ce f4 31 3d
       0.28353214 -0.115950376 0.18867758 0.043446355
000030 7f d0 6f be ae 4f b9 bd 65 80 21 bc 82 0f ef bd
       -0.23419379 -0.09048401 -0.009857272 -0.1167288
000040 15 9c dd 3e 17 ad 8d 3e 72 94 97 3d 47 60 c0 3d
       0.43283144 0.2767112 0.074013606 0.093933634
000050 24 a8 02 3f cf ad d0 3d 22 db 61 bd 5a 2d 42 3d
       0.5103781 0.10189401 -0.055140622 0.047406532
000060 6d f2 9d bd ec cd 0e 3f 7e 98 a7 3d 80 11 16 bd
       -0.07712255 0.5578296 0.081833825 -0.036637783
000070 c2 f7 d7 3c a4 d3 07 bf ae 31 eb bd 17 15 12 be
       0.026363257 -0.5305731 -0.11484085 -0.14265858
000080 0b a0 2e be 79 b8 22 3e 6a af 96 be d0 df 1c bd
       -0.17053239 0.15890683 -0.29430705 -0.03829938
000090 b1 ed 13 be 20 2e c5 bd 57 5f 6b 3d 16 ac 7b bd
       -0.14446141 -0.09627938 0.05746397 -0.06144341
0000a0 c3 ce 3f 3e 2d 89 80 3c 94 44 e1 3d 33 22 e9 bc
       0.18731217 0.01569041 0.10999408 -0.02845869
0000b0 ba 76 a4 3e e1 9d 97 3e 86 4e 86 3d 97 4b 86 3d
       0.3212183 0.2961264 0.06557946 0.06557386
0000c0 1a 0c 41 3e bb fa 35 be 5d 93 8d be 1e 3a 75 3d
       0.18852273 -0.17771427 -0.27651492 0.059869878
0000d0 3f 95 7b be c0 5c 71 3e 1a 10 f3 3d e0 c4 58 3e
       -0.24568652 0.23570538 0.118683055 0.21168852
0000e0 8a 38 a2 bd 19 a9 bf be 6f bf 75 3e d9 07 82 3e
       -0.0792094 -0.374337 0.23998807 0.25396612
0000f0 b2 c9 6b be 3d eb 97 3c 69 06 01 be 3e fc d8 3e
       -0.2302616 0.018544788 -0.12600102 0.42379946

fc3.weight f4 [64, 64]
000000 f2 2a 06 be 86 7c 86 3d f9 d0 5c 3d 0a f3 16 be
       -0.1310232 0.0656672 0.05391023 -0.1474115
000010 71 93 3f 3e 9b ef 1c bf 2a 45 99 3e 31 94 6a 3b
       0.18708588 -0.6130311 0.2993558 0.0035793895
000020 d1 21 ec 3d 2a 7b f0 3e 58 18 2c bf 53 16 5a 3e
       0.115298875 0.46968967 -0.67224646 0.21297579
000030 27 90 17 bc 44 0e 9c 3e 32 44 db bd 1e c7 2d 3e
       -0.009250677 0.30479634 -0.107063666 0.16970488
000040 66 2b 3d 3e 2b cc 60 3e 0d a0 8a 3e f3 ac a1 be
       0.18473586 0.21952884 0.27075234 -0.31577262
000050 55 a2 30 3e c4 a0 9e be 4f 98 9f 3d 9b 65 3f 3e
       0.17249425 -0.3098203 0.077927224 0.18691103
000060 58 a6 b5 3e fd c7 00 3e b0 2b 6c 3e 7e 19 96 3d
       0.35478473 0.1257629 0.2306354 0.07329081
000070 e0 3f c3 3e f8 94 03 bf df c4 0e bf 0e d5 01 bf
       0.3813467 -0.51399183 -0.5576915 -0.5071572
000080 8c 3a b5 3c 43 1c e9 be 5b 26 7c bd 7a 56 26 be
       0.022122644 -0.45529374 -0.061560016 -0.16243926
000090 77 27 e0 be ba 71 ae 3e 34 12 57 3e bf e0 47 3e
       -0.4378011 0.3407114 0.21003038 0.19519328
0000a0 63 35 77 3c 92 12 51 3e 5e 7c 98 bd f6 66 25 be
       0.015088412 0.2041724 -0.07445596 -0.16152558
0000b0 d1 76 a9 be c8 7b b1 3e ba 84 9b bd f8 0d fd 3e
       -0.33098462 0.3466475 -0.07593675 0.4942472
0000c0 b2 4b 47 bd 6a e3 c0 be 8c 0c 0b be 50 2a 24 3d
       -0.048656173 -0.37673503 -0.13579005 0.040079415
0000d0 9d 46 98 bd 4b ba a4 be 87 7f 75 3e 79 65 a6 3d
       -0.074353434 -0.3217338 0.23974429 0.08124823
0000e0 27 d7 cf 3e 58 51 ab be 4d 44 05 be f5 64 72 bf
       0.40593836 -0.33460498 -0.13014336 -0.946853
0000f0 e9 35 f6 3d b3 c8 12 3e ce 35 3e 3e 4f 0d 2d 3e
       0.12022001 0.14334373 0.18575212 0.16899608
000100 80 78 cc bc f8 e1 e7 be c0 38 54 bd 2a a8 37 be
       -0.024959803 -0.45289588 -0.051811934 -0.17935243
000110 e8 f3 03 bf 49 d0 97 bd 98 2f 54 bd f0 49 f2 3e
       -0.51544046 -0.07412774 -0.0518032 0.47322035
000120 59 83 ef 3d 35 43 f6 3d 91 df e2 3e ae 47 99 bd
       0.116949745 0.120245375 0.44311193 -0.07484375
000130 02 0e 8b 3e 06 79 2d 3e 76 01 99 3e f7 65 f9 3c
       0.27159125 0.16940698 0.29883927 0.030444128
000140 12 4a 75 bd ed af 90 be e9 7a 83 3e c6 92 5e 3b
       -0.059885092 -0.2825922 0.2567971 0.0033961996
000150 e6 3e 83 be c8 ef 80 3e 78 8c 79 3e 5d cd de 3e
       -0.25633925 0.2518294 0.24369991 0.43516055
000160 36 d6 08 be f0 8f 03 3f 54 01 83 be c6 8e 12 3e
       -0.13362965 0.51391506 -0.2558695 0.14312276
000170 15 ce 88 bb 5c 09 2f be 68 c7 b9 3c 1c 81 22 3e
       -0.0041749575 -0.17093414 0.022678092 0.15869564
000180 5e bc a4 bd 04 0e c5 3e be 6c 7a 3e 51 6e b7 be
       -0.08043741 0.38487256 0.24455544 -0.35826352
000190 bf eb c9 3e 89 08 07 3e f5 c0 cc 3d ce 09 8b 3e
       0.39437672 0.1318685 0.09997741 0.27155918
0001a0 b9 c9 7b be ec 16 af 3d 93 d3 77 be b3 53 e0 3c
       -0.2458867 0.08549294 -0.24201803 0.02738366
0001b0 00 f7 35 be 19 97 e4 bc e0 0d 54 be cb e8 38 bd
       -0.17770004 -0.02790408 -0.20708418 -0.045143884
0001c0 32 00 82 be 45 7c 0b 3f a4 99 78 bd 13 a0 48 3e
       -0.25390774 0.54486495 -0.060693398 0.19592313
0001d0 66 82 85 bf 2c b2 15 3e c1 47 1c be 54 68 fb 3d
       -1.043042 0.14618748 -0.15261747 0.122757584
0001e0 ca 1e b0 bd 61 a1 dd 3d f2 71 c7 3e 9f 42 a3 3e
       -0.085996225 0.10821796 0.3895412 0.31886765
0001f0 fd a3 70 be 6a 31 4c 3e ea e5 de bd e9 e2 c7 3d
       -0.23500057 0.19940725 -0.108836964 0.097600766
000200 f4 ee ec be 4e 42 3e bf a4 0b 4b 3e 5d 06 fb bd
       -0.46276057 -0.7431992 0.1982866 -0.12257073
000210 47 fa 70 be 34 de 6a be 7e f5 9c be 77 19 65 3e
       -0.23532973 -0.22936326 -0.30656046 0.22372995
000220 ab b8 7a 3e ae 7a c5 3d f3 02 28 bf 4c 8f 83 3e
       0.24484508 0.0964254 -0.656295 0.25695264
000230 26 c3 f3 3d d1 fb 23 be e1 8b 56 3f 11 d8 8e 3e
       0.11902456 -0.16014029 0.8380719 0.2789922
000240 b4 85 9a 3e 4e 30 0a be c2 4c 06 3e c5 d7 59 3c
       0.30180132 -0.1349499 0.13115218 0.013296072
000250 94 66 26 3e e5 d8 05 be a8 71 d6 3c d5 9d b2 3e
       0.16250068 -0.1307102 0.026177242 0.3488604
000260 1f 13 8f be 71 34 ca 3d 20 f1 8d 3d b1 05 a2 3d
       -0.27944276 0.09873284 0.069307566 0.07911242
000270 27 77 b6 3e ce 7c 0d bf 6c 05 de be 90 9a c1 bd
       0.3563778 -0.5526856 -0.43363512 -0.094533086
000280 4b a8 72 be 79 70 09 3d 5f 2c 9b be 15 02 95 bd
       -0.23697011 0.033554528 -0.3030729 -0.07275788
000290 62 cc 86 bb bc 9d 5b 3c ca a5 1f 3e b1 76 e5 3b
       -0.00411372 0.013404306 0.15590587 0.0070026745
0002a0 ef 9f c3 bc df ee 4e 3e 8c 50 2c be 15 86 5a 3e
       -0.023879973 0.2020831 -0.16827601 0.2134021
0002b0 cf f6 c3 3e 3e 50 75 be f9 19 a7 3d 80 85 a2 3d
       0.38274238 -0.23956391 0.08159251 0.07935619
0002c0 af c4 9a 3d d5 f7 42 ba 62 6d 8a 3c 71 bd 6d be
       0.07557046 -0.00074374425 0.01689786 -0.23216797
0002d0 ea 97 24 3e c9 95 85 be 89 19 19 be f8 49 55 3e
       0.16073576 -0.2609084 -0.14951147 0.20828998
0002e0 6d bb cb be 1b 05 f2 bd 1c fa 44 be 83 26 a3 be
       -0.39791432 -0.1181738 -0.19236034 -0.3186532
0002f0 34 b9 5a bf 67 db d5 3e f0 99 52 3e cb be 03 3e
       -0.8543885 0.41768953 0.20566535 0.1286575
000300 82 10 3f be f3 61 99 be 11 49 96 3e 4c 25 12 3d
       -0.18658641 -0.29957542 0.2935262 0.0356801
000310 77 6e 54 3e 68 bd bd be b8 5e 15 3f f6 20 38 3d
       0.20745264 -0.37058568 0.58347654 0.04495331
000320 ef 20 2f 3f 04 f7 31 be 2e c6 21 3e 5f 2e e6 3d
       0.6840963 -0.17379385 0.15798256 0.11239313
000330 95 7e d2 3e 7c 68 e7 3e 8c ab ca 3e 17 2d 90 3e
       0.411122 0.45196903 0.39584005 0.281594
000340 28 22 44 3e 67 a6 bf 3e 31 d3 c7 be d9 62 e9 be
       0.19153655 0.37431642 -0.39028314 -0.45583227
000350 b8 3b ac 3e 0e 33 c5 3d 8c 9e be 3e 29 45 14 3e
       0.33639312 0.096288785 0.37230337 0.14479508
000360 c9 ae e2 be 69 2b 90 3e 80 3c 10 3f d2 be 88 be
       -0.44273975 0.2815812 0.56342316 -0.26708084
000370 cb 02 07 3f 4e 52 ac be cd 5f 86 bd 0c 50 7e be
       0.52738637 -0.33656543 -0.06561241 -0.24835223
000380 3c 6a 9b 3d 29 71 17 bf 58 6f 40 be e7 79 54 be
       0.07588622 -0.59157044 -0.18792474 -0.20749627
000390 8b c3 45 3e 4e 78 3c bf fb 9a c5 3d 71 45 69 be
       0.19312875 -0.7362107 0.09648701 -0.22780396
0003a0 0a e0 0b bf b3 4d 71 be f1 1c 5e bd 86 3f 93 3e
       -0.5463873 -0.23564796 -0.05422682 0.28759402
0003b0 ae be 2b 3e 8b 30 b2 3e 3f 01 d9 bc 8d 97 af 3d
       0.16771957 0.3480266 -0.026489852 0.08573828
0003c0 79 3b d7 3c 8a 8a 10 3f a2 cf 56 be 16 4f b4 bd
       0.026273476 0.56461394 -0.20977643 -0.08804147
0003d0 eb b3 93 3d 52 df 54 3e 99 c8 e2 3d be 14 8e be
       0.07212051 0.20788315 0.11073417 -0.277502
0003e0 d5 2c c6 3d 5f 31 84 3e 0c 5d 02 3d 55 3c 8e 3e
       0.0967652 0.25818917 0.031827018 0.27780405
0003f0 60 59 01 3f 07 b7 78 3e 5b 6e cb 3d eb fb 37 be
       0.50527 0.2428857 0.09933158 -0.17967193

fc3.bias f4 [64]
000000 92 f2 11 be 90 60 8b 3e 1f fc bc 3e 6c 9c 1d bd
       -0.1425269 0.2722211 0.36911103 -0.038479254
000010 3b af 9a 3b 35 f5 f9 bd 43 0c a5 bc 34 65 d2 3e
       0.004720596 -0.12204973 -0.020147448 0.41092837
000020 f4 0d 90 bd 8b 17 0f bd 21 49 aa be 21 ca 37 3e
       -0.07033911 -0.03493456 -0.33258918 0.179482
000030 c5 58 cf 3d 0b 15 0b be eb 3c c4 ba f3 a2 7b 3d
       0.10124353 -0.13582246 -0.0014971768 0.061434697
000040 27 51 67 3e a9 38 25 3e 7c 2d cc 3d ad 2d de 3d
       0.22589551 0.16134895 0.09969613 0.10848556
000050 17 97 00 3e 47 05 37 be 47 12 88 bc 4c 2b 27 3e
       0.12557636 -0.17873107 -0.016610278 0.1632511
000060 c0 0d 3e bc c8 b0 f1 be 1a 65 25 be 7f 4b 5d be
       -0.011599958 -0.47205186 -0.16151848 -0.2161083
000070 6f 7a 91 3e ab 13 86 3d b3 c8 5a 3e cf 80 40 3d
       0.28413722 0.0654672 0.21365623 0.04699784
000080 01 67 e3 3e 31 a7 a2 bd 35 5e 8a 3e d2 a3 1a 3e
       0.44414523 -0.079420455 0.27025 0.15101555
000090 e1 53 65 3e 63 9d 18 bf dc 6a 15 bd b7 8d d7 3c
       0.22395279 -0.59615153 -0.036478862 0.026312692
0000a0 56 6a 06 bd eb e9 cf 3d 8d e4 c2 be 5d 30 e0 be
       -0.032816254 0.10152038 -0.38064995 -0.43786898
0000b0 6c 8d 14 be ac 0f 99 3e dc 01 b0 be 35 e0 2b 3e
       -0.14507073 0.2989477 -0.3437642 0.16784747
0000c0 7c fb 21 3e 7a e5 d5 3d de e2 87 3e 5c 61 71 3d
       0.1581859 0.1044416 0.26540273 0.05893074
0000d0 2c 9a 91 3d e3 d4 ca 3c 03 c7 6d 3e 68 04 b1 ba
       0.07109484 0.024759715 0.23220448 -0.0013505341
0000e0 2e d5 8a be 5d 57 53 be ad 54 bb bd 87 7c 93 bd
       -0.27115768 -0.20638795 -0.0914701 -0.07201486
0000f0 59 da bf bd dc 2f 8b 3d af 55 36 be 96 43 d0 3e
       -0.093678184 0.06796238 -0.17806123 0.40676564

pi.weight f4 [5, 64]
000000 97 4b 04 bf 21 13 eb 3e ff 00 2e b9 8a 9f 9b 3f
       -0.5167784 0.45913032 -0.00016594304 1.2158062
000010 00 a8 ac 3d 8b 1c dd bc 0b 9e e1 be c7 77 1a bf
       0.08430481 -0.02699115 -0.4406589 -0.60339016
000020 dd 9d 22 be 36 d9 c5 be 16 be cd 3e 28 62 17 bf
       -0.15880533 -0.3864228 0.40184087 -0.5913415
000030 ad d7 ad 3f dd 10 1d 3f d4 c2 b3 bd 4c 18 08 3f
       1.3581444 0.61353856 -0.08777395 0.53162074
000040 a1 99 80 bf 51 19 7d 3f 08 b6 c4 be 87 e7 53 3f
       -1.0046884 0.98866755 -0.3842013 0.8277516
000050 91 e7 d8 bc ec 26 bc bd 99 29 9a be 6c 16 da be
       -0.026477607 -0.09187111 -0.30109861 -0.42595232
000060 d1 d5 f1 3e 03 22 1e bf 72 ce 9d bf 51 76 cc be
       0.4723344 -0.6177065 -1.2328627 -0.39934018
000070 fa 28 0d 3e ad 00 6a be 8d 62 85 3f f9 27 02 3f
       0.13785163 -0.2285182 1.04207 0.50842243
000080 85 a1 3c 3f a6 47 a2 bf 55 8a de bc 18 53 a6 be
       0.7368396 -1.2678115 -0.027165571 -0.3248527
000090 00 d4 e5 3e 23 71 81 bf fb 2f 95 bf 37 1f 74 3e
       0.44888306 -1.0112652 -1.1655267 0.23840033
0000a0 36 d6 e0 be 3c 91 8e bf 43 ef 9d 3e 1a d4 49 bf
       -0.4391343 -1.1138072 0.30846605 -0.78839266
0000b0 fd 3b c3 bf 2f fd 23 3f 35 ff ca bd b9 e5 97 3c
       -1.5252682 0.640582 -0.09911958 0.018542157
0000c0 ac 65 86 bf 54 e3 a2 bf f0 6f 0e 3f 0f 63 00 3f
       -1.0499778 -1.2725625 0.55639553 0.5015115
0000d0 ae f5 f0 be ee 1d 24 bf f7 c5 09 3f 84 51 9f 3f
       -0.4706244 -0.6410817 0.53817695 1.2446752
0000e0 23 84 1d bf 36 74 8a bd ae 1e 88 bd 71 b6 f0 bd
       -0.6152975 -0.06760447 -0.06646477 -0.11753548
0000f0 f1 ae 87 be c5 bc 32 bd ab 7e ef be 45 a3 1b 3f
       -0.26500657 -0.043637056 -0.46776327 0.60796005
000100 54 bc cb 3e fd 4c 5a bd ca b5 02 3f 37 af bb bd
       0.3979212 -0.053296078 0.5105864 -0.09164279
000110 d6 8e 9e bf ff 78 9b be f3 40 43 bf 02 20 2e 3e
       -1.238734 -0.3036575 -0.7627098 0.17004398
000120 c6 cd 24 bf b0 44 41 be 69 f8 f1 3e 57 37 a5 3d
       -0.64376485 -0.18873858 0.47259834 0.08067196
000130 af 40 2d bf cd e1 e0 3e a9 6e 40 bd f3 02 8c 3e
       -0.67676824 0.43922272 -0.046980534 0.27346
000140 a6 a4 6d be 9a 9d 37 be 57 fb 2b bf 36 fa f1 bd
       -0.2320734 -0.17931214 -0.6718039 -0.11815302
000150 94 bf 16 3e 36 2c 17 3f ff a9 90 bf 8a 73 9b be
       0.14721519 0.59051836 -1.1301879 -0.30361587
000160 39 0e d0 3e 8b 87 91 3e 54 6b 36 3f 41 5c d7 3e
       0.4063585 0.28423724 0.7125752 0.42062572
000170 13 82 cd 3d f9 32 fd 3e d2 2a d4 3e 8e 51 44 bf
       0.10034575 0.49452952 0.4143892 -0.7668694
000180 1a 9e c6 be cf ab d4 3e d8 cf 20 bf c5 63 b4 be
       -0.38792497 0.4153733 -0.62817144 -0.35232368
000190 c1 b9 7f be 3a ed 4c bd a0 1e b4 bd 89 eb c9 3e
       -0.24973203 -0.050030924 -0.08794904 0.39437512
0001a0 6d 1c 68 3e 62 ec 06 bf 9a 94 4d 3e 2c 4b 27 3e
       0.22667094 -0.5270444 0.20076218 0.1633727
0001b0 25 fc a4 be 82 34 d5 3f 98 ca a7 3e 13 10 85 bf
       -0.3222362 1.6656649 0.32771754 -1.039553
0001c0 07 22 87 3e 2c b1 44 3c 7e 49 d5 be 28 f1 c5 bc
       0.26393148 0.012005132 -0.41657633 -0.024162844
0001d0 4e 86 08 3c 3e 43 ea 3e c3 5c 1a bf ec aa 13 3f
       0.008332802 0.45754427 -0.60297793 0.5768268
0001e0 85 74 e3 be ff f8 ba bf d8 4a 1d 3f a6 00 6b 3e
       -0.44424835 -1.4607238 0.6144233 0.22949466
0001f0 8c ff 90 be ce 65 b3 be 1e d7 44 3f 53 6e c7 be
       -0.28319967 -0.35038608 0.7689074 -0.38951358
000200 d4 11 b0 3e 07 a3 24 3c cc 4d 95 be 95 d5 ed 3d
       0.34388602 0.010048634 -0.29160917 0.11613003
000210 c5 61 5e 3f 53 8c 06 3f bf 61 ec 3e 77 5e 0f bf
       0.86867934 0.5255787 0.46168324 -0.56003517
000220 3c cf 0c 3f fc 8b ad 3e d9 1d 83 be 93 1a db bd
       0.55003715 0.33895862 -0.2560871 -0.10698428
000230 63 9f 3f 3f 71 70 31 3e f0 86 89 3e c0 2e 00 3f
       0.7485258 0.17328049 0.26860762 0.50071335
000240 7d db 93 be 4c ba a2 3e b9 98 62 3f 12 56 fe 3e
       -0.28878394 0.31782758 0.88514286 0.4967504
000250 fb cf a4 3e 7c 51 87 be fe 78 0b 3f ca fb 5d be
       0.32189927 -0.26429355 0.54481494 -0.21678081
000260 9a 88 00 bf 0f 3e 0a be e6 6c 5c bf e0 8c c1 3d
       -0.5020844 -0.13500236 -0.86103666 0.09450698
000270 78 87 21 bf 89 25 dc be 20 90 16 be 83 aa 43 3e
       -0.63097334 -0.42997387 -0.14703417 0.19108014
000280 5c 20 88 be 54 19 d9 bd 4c 6a 88 3c 2b 4b 06 bf
       -0.26587188 -0.10600534 0.016652249 -0.5245845
000290 63 04 95 be 5e f2 91 3e ee b1 84 3d e3 e0 73 be
       -0.2910491 0.28505224 0.0647925 -0.23816256
0002a0 a7 cc 6f bf 06 34 63 bf 42 e3 9d 3c 22 1f 65 be
       -0.9367165 -0.88751256 0.019273404 -0.22375157
0002b0 c3 0d 16 3f 8a 72 fc bf 01 7f 4b bf e3 97 54 3f
       0.5861475 -1.9722455 -0.7949067 0.8304426
0002c0 46 1b 28 be 21 45 15 3e 12 f7 16 3e eb 70 5a 3e
       -0.16416654 0.14577152 0.14742687 0.21332137
0002d0 f3 54 bb 3d 76 d8 c7 be 15 90 4c 3e 34 2c 0d bf
       0.09147062 -0.39032334 0.19976838 -0.55145574
0002e0 20 1d 16 3f 3e 2f d3 3f 4b 73 f0 3e 4d 85 83 3e
       0.5863819 1.6498792 0.46962962 0.25687638
0002f0 04 b1 70 3b 04 db 28 3e e4 69 86 bf 97 c4 9d bd
       0.0036726603 0.16489798 -1.0501065 -0.07703512
000300 c2 19 86 be 88 28 23 bf 81 e9 72 bc 2f 82 98 be
       -0.26191527 -0.6373372 -0.0148261795 -0.29786822
000310 e1 1f 2a bf 1e 9c a0 bf 7a b1 a2 be fc 00 ea 3e
       -0.66454893 -1.2547643 -0.3177603 0.45703876
000320 c8 be aa 3e 9a 5f 8c 3f fa 3d ad 3e ec 44 bd 3e
       0.3334868 1.0966675 0.33836347 0.36966646
000330 62 d6 1e 3f fb 8f 01 3f 53 4a 9f be a5 d6 66 be
       0.6204587 0.5061032 -0.31111392 -0.22542818
000340 1d 6f 11 be c4 d9 3b 3f 65 cb fa 3d 16 a1 cf 3e
       -0.14202543 0.7337916 0.12245826 0.40552586
000350 44 d8 f4 be 99 eb 09 3f 16 7b e3 3e 61 52 13 bf
       -0.47821248 0.5387512 0.44429845 -0.57547575
000360 65 1e be 3e f0 0f 49 3f a7 02 a3 3e 01 cf 18 be
       0.37132564 0.78539944 0.3183796 -0.14922716
000370 2c ca 24 3f 74 67 6e be 62 83 08 3f dd db f9 3e
       0.6437099 -0.23281652 0.53325474 0.48800555
000380 f1 85 f6 3e 32 97 df 3f fa 3d 5f 3f 59 72 d9 be
       0.48149064 1.7468016 0.87203944 -0.42470053
000390 d8 84 dd be 69 80 9b be 6a 23 96 3f 71 65 06 be
       -0.43265414 -0.30371407 1.1729558 -0.13124634
0003a0 79 4c 51 bf 98 b7 9c 3e 5b c7 50 3f 75 21 d5 3e
       -0.81757313 0.3060882 0.8155419 0.41627088
0003b0 f9 01 07 3c 74 78 8e be d8 f6 03 3e d8 f3 05 3f
       0.008240216 -0.27826273 0.12887132 0.523252
0003c0 17 93 35 be 05 65 5b 3e 04 fc ec 3e a6 0c 1d bf
       -0.17731892 0.21425255 0.46286023 -0.61347425
0003d0 fe 4d 2d bf 88 df f0 be f6 f4 52 bf 4f ae 5f 3d
       -0.6769713 -0.4704554 -0.8240503 0.054609593
0003e0 b5 86 d9 bd b9 e1 2d bf 6e c0 fd be f7 27 aa be
       -0.106213965 -0.6792255 -0.49560875 -0.33233616
0003f0 6b b3 2c be 46 27 ba 3e d9 6f 1c bf 31 d2 a2 bd
       -0.16865318 0.36358088 -0.61108166 -0.07950247

pi.bias f4 [5]
000000 2c 5f 0d 3e 40 8b 8e be 52 75 75 be 5d 62 17 be
       0.13805836 -0.27840614 -0.23970535 -0.14783616
000010 f4 b9 b3 be
       -0.35102808
