maddpg_v7_over/model/simple_tag/agent_1/74_critic_params.pth (torch, 57783 bytes, 7 tensors)

fc1.weight f4 [64, 82]
-0.053848494 -0.056085616 0.28519776 -0.3891593 -0.41419655 -0.58208543 0.8447606 0.14278212
0.1737225 -0.116918415 0.15581582 -0.29298696 -0.16292588 -0.35131383 -0.005714742 0.043009207
0.05644786 0.03500303 0.5444983 -0.5824533 -0.5040266 -0.75867015 1.0075483 0.40497667
-0.10281784 -0.16486467 0.057565626 -0.06625217 0.092176564 -0.25719842 0.026653912 -0.017278178
0.091037124 0.09613423 0.40343451 -0.41500315 -0.27725136 -0.6155358 1.0917569 -0.06441822
-0.26012948 -0.13222855 -0.00027041225 -0.4213761 0.11824377 -0.3907374 0.07958999 -0.18262148
-0.1252819 -0.016201666 0.44279423 -0.3195891 -0.4875372 -0.42905825 1.2842578 0.26062673
0.12547593 0.15570506 0.31514418 -0.015896084 -0.22126399 0.076122776 -0.042298667 -0.036723893
-0.0019186722 0.011032627 0.02198383 -0.008218805 0.012743875 -0.02064889 -0.074895866 -0.04625235
-0.014057976 0.017191535 -0.01510222 0.024171099 -0.04543788 -0.052112382 -0.036735564 0.06097602
-0.13749321 0.09625734 0.12806305 0.12819627 -0.24561152 0.6412052 0.021156197 -0.26505286
-0.8259375 0.07256371 0.24064821 0.0023551213 0.086038366 0.042206634 -0.23175906 -0.14755549
0.011474858 -0.112195835 -0.11877181 0.043275703 -0.7267495 0.6436944 0.4211944 0.2293492
-1.490906 0.16457142 -0.06025739 -0.18468858 0.057495225 -0.016433077 -0.02168728 -0.1691321
-0.042544298 0.19132492 0.014360815 -0.18058397 -0.49824837 0.355765 0.3729701 0.038143855
-1.2674224 0.41575807 -0.16683993 -0.13468938 0.113889545 0.09900464 -0.2153793 0.34284553
0.06036598 0.06086954 -0.21937361 0.037952516 -0.5617154 0.41472948 0.37809893 0.18728942
-1.2158415 0.0045276848 0.13406001 0.089057215 0.3299854 -0.31911084 -0.20617507 -0.34307414
-0.0009604063 0.042081483 -0.056521878 0.0775023 -0.044810463 0.08063002 -0.010596877 0.025593935
0.029883614 -0.07449159 -0.023151785 0.04240823 -0.01264925 -0.072292894 0.08211004 -0.11886781
0.045552183 0.10252441 0.094179325 -0.12471169 0.0037377477 -0.103675865 0.15218091 -0.8688329
-0.54872674 -0.5564776 0.98359054 0.1476742 0.23899949 -0.23453525 -0.17956701 -0.31352434
-0.04842171 0.2986304 -0.22472943 -0.10425755 -0.06134562 -0.07192011 -0.02469205 -1.0850303
-0.9652635 -0.80998105 1.2094747 -0.15394355 -0.18286265 -0.14943421 -0.027673395 -0.068113595
-0.0036770352 0.027434051 0.20305727 0.13319565 0.055200633 -0.19101213 0.014192714 -0.8547774
-0.8013098 -0.49926648 1.2586304 -0.148737 0.014333254 0.10789163 -0.13224559 0.28889185
-0.09717057 -0.26366046 0.15459898 -0.0025116666 -0.096472815 -0.09040022 0.20703171 -0.595423
-0.9635918 -0.57210755 1.10351 -0.11117413 0.26623985 0.18104409 -0.12455678 -0.29910937
0.25863177 -0.061881978 0.018303012 -0.03556105 0.00017943553 -0.0090669235 0.03899029 0.016940517
-0.023705374 0.029215524 -0.017782487 0.014589514 0.004420004 0.0035803455 -0.009263794 -0.06673729
0.020480866 0.03760782 0.006295133 0.014733579 0.043164074 0.0060971193 0.14811562 0.10542484
0.07072663 1.0871909 0.34005737 0.70492804 -0.43219867 -0.03181303 -0.07694482 0.05656479
00000000: 3d90 5cbd 08ba 65bd 7105 923e e33f c7be
00000010: 9211 d4be 8d03 15bf 3b42 583f 7a35 123e
00000020: 50e4 313e ec72 efbd 2f8e 1f3e 6302 96be
00000030: 0bd6 26be 68df b3be bb42 bbbb 6c2a 303d
00000040: df35 673d 565f 0f3d 3e64 0b3f a91b 15bf
00000050: e307 01bf 3538 42bf 58f7 803f 1a59 cf3e
00000060: 2992 d2bd 49d2 28be efc9 6b3d 38af 87bd
00000070: 11c7 bc3d 83af 83be 4e59 da3c f78a 8dbc
00000080: ac71 ba3d 06e2 c43d f88e ce3e 4b7b d4be
00000090: e4f3 8dbe c193 1dbf b1be 8b3f b3ed 83bd
000000a0: b12f 85be ec66 07be 1ec6 8db9 9cbe d7be
000000b0: ca29 f23d bc0e c8be 1400 a33d 2001 3bbe
000000c0: e649 00be 5bb9 84bc edb5 e23e 2fa1 a3be
000000d0: 7a9e f9be 86ad dbbe 8f62 a43f de70 853e
000000e0: c37c 003e 2671 1f3e 945a a13e 8138 82bc
000000f0: 0793 62be 42e6 9b3d 5e41 2dbd cb6b 16bd
00000100: f57b fbba 31c2 343c 6f17 b43c 2ba8 06bc
00000110: b0cb 503c dc27 a9bc 0163 99bd 1b73 3dbd
00000120: 6d53 66bc 43d5 8c3c 4d6f 77bc 7802 c63c
00000130: 121d 3abd cb73 55bd 0878 16bd fec1 793d
00000140: 05cb 0cbe 9122 c53d f622 033e e245 033e
00000150: 9681 7bbe 0626 243f c34f ad3c 02b5 87be
00000160: a470 53bf 489c 943d 7c6c 763e 6158 1a3b
00000170: e234 b03d dde0 2c3d 3f52 6dbe c918 17be
00000180: 0b01 3c3c eec6 e5bd a23e f3bd dd41 313d
00000190: 410c 3abf 28c9 243f cba6 d73e 84da 6a3e
000001a0: 02d6 bebf 6985 283e 74d0 76bd 011f 3dbe
000001b0: 1d80 6b3d a99e 86bc 86a9 b1bc f730 2dbe
000001c0: ee42 2ebd aeea 433e a049 6b3c 01eb 38be
000001d0: 691a ffbe d526 b63e f0f5 be3e bb3c 1c3d
000001e0: e63a a2bf 3ede d43e 16d8 2abe 03ec 09be
000001f0: ec3e e93d f2c2 ca3d 648c 5cbe 7389 af3e
00000200: 5142 773d 5752 793d 7aa3 60be 1974 1b3d
00000210: 95cc 0fbf 6c57 d43e 2f96 c13e ccc8 3f3e
00000220: b2a0 9bbf f95c 943b 0747 093e a163 b63d
00000230: d9f3 a83e 7f62 a3be 8f1f 53be 6aa7 afbe
00000240: c7c3 7bba a25d 2c3d 7c83 67bd 87b9 9e3d
00000250: 2d8b 37bd 5a21 a53d 869e 2dbc 5faa d13c
00000260: 7bce f43c 0c8f 98bd d0a8 bdbc 41b4 2d3d
00000270: cd3e 4fbc 4c0e 94bd 4f29 a83d f770 f3bd
00000280: ed94 3a3d 51f8 d13d 17e1 c03d d868 ffbd
00000290: 00f5 743b 0354 d4bd 50d5 1b3e d56b 5ebf
000002a0: 5b79 0cbf 5175 0ebf 97cc 7b3f e837 173e
000002b0: 48bc 743e 022a 70be 6ae0 37be 4386 a0be
000002c0: d855 46bd 15e6 983e 791f 66be fb84 d5bd
000002d0: 8b45 7bbd da4a 93bd fb46 cabc 46e2 8abf
000002e0: 821b 77bf eb5a 4fbf 11d0 9a3f 61a3 1dbe
000002f0: 5940 3bbe 4805 19be 51b3 e2bc 247f 8bbd
00000300: 6afa 70bb 60bd e03c 3fee 4f3e 7164 083e
00000310: 0f1a 623d af98 43be 8f88 683c b1d2 5abf
00000320: a422 4dbf db9f ffbe cd1a a13f 834e 18be
00000330: 06d6 6a3c 49f6 dc3d 636b 07be a2e9 933e
00000340: 5d01 c7bd 81fe 86be 324f 1e3e c69a 24bb
00000350: 8a93 c5bd c023 b9bd 1f00 543e a46d 18bf
00000360: f4ad 76bf a475 12bf d13f 8d3f 43af e3bd
00000370: 9750 883e 9f63 393e a017 ffbd dd24 99be
00000380: 626b 843e f577 7dbd 33f0 953c 77a8 11bd
00000390: dc26 3c39 6f8d 14bc 48b4 1f3d d7c6 8a3c
000003a0: c631 c2bc 6555 ef3c 94ac 91bc db08 6f3c
000003b0: aed5 903b 3ba4 6a3b 2bc7 17bc 8fad 88bd
000003c0: 7dc7 a73c a80a 1a3d 6747 ce3b 1c65 713c
000003d0: d0cc 303d 58ca c73b 9fab 173e fae8 d73d
000003e0: 20d9 903d 1229 8b3f 001c ae3e 2a76 343f
000003f0: 2549 ddbe 614e 02bd 3f95 9dbd 7bb0 673d

fc1.bias f4 [64]
0.6974049 1.1354648 0.8183088 0.74992055 1.1939204 1.1345025 0.2226286 -0.5058244
-1.7784562 1.2524365 0.81528854 -1.1902149 -0.43670264 -0.8920069 -1.102969 -0.47696567
0.69716746 -0.07710908 -2.3985193 0.7939902 0.035881914 -1.9298644 -2.470488 1.4686726
-0.6820304 1.6981882 0.25648764 -0.9048811 -0.25250545 -0.58518606 -0.6990901 1.3927169
1.1440723 -0.13321999 0.056097563 -0.80784065 0.8065449 1.6762223 -1.2048372 0.09420087
1.307606 0.042164635 1.906778 2.4487264 -2.0635371 2.1441019 1.2987227 0.76504976
-0.1364672 0.2632446 -1.3810159 -1.8160895 -0.100497074 -0.2796014 -0.09350041 -0.5334321
1.5373777 1.5866371 -0.67572796 -1.5906435 0.11730039 0.7443199 -1.010088 -2.4467258
00000000: 2189 323f e956 913f af7c 513f cbfa 3f3f
00000010: 62d2 983f 6137 913f c0f8 633e b57d 01bf
00000020: 74a4 e3bf d74f a03f c0b6 503f f658 98bf
00000030: 7d97 dfbe 905a 64bf 172e 8dbf d834 f4be
00000040: 9179 323f 5eeb 9dbd 5781 19c0 f142 4b3f
00000050: eaf8 123d cc05 f7bf 7a1c 1ec0 77fd bb3f
00000060: 8b99 2ebf 3b5e d93f 5952 833e 4aa6 67bf
00000070: 6548 81be c1ce 15bf 92f7 32bf 8c44 b23f
00000080: f670 923f d26a 08be 8fc6 653d a5ce 4ebf
00000090: ba79 4e3f 748e d63f 1b38 9abf 63ec c03d
000000a0: a25f a73f d3b4 2c3d 4d11 f43f efb7 1c40
000000b0: fe10 04c0 f738 0940 8c3c a63f 4dda 433f
000000c0: 0fbe 0bbe ffc7 863e 21c5 b0bf 9f75 e8bf
000000d0: 69d1 cdbd ea27 8fbe 257d bfbd 028f 08bf
000000e0: cbc8 c43f ed16 cb3f 82fc 2cbf 359a cbbf
000000f0: 303b f03d c08b 3e3f 904a 81bf 2897 1cc0

fc2.weight f4 [64, 64]
-0.98103064 -0.30419022 0.3393903 -0.34653062 -0.20198943 -0.12271877 0.37926129 -0.16699782
0.06038896 -0.93202734 -0.13616419 -1.8780541 -0.34488213 -0.4815544 -0.91115624 -0.3667708
-0.68341434 0.07248098 -0.12629893 0.65708876 -0.37819326 0.33596635 -0.042889755 -0.038128946
-0.32292002 0.16550072 -0.40845287 -0.4273113 -0.89927715 0.272752 -1.2694538 -0.024128333
-0.13720696 -0.36319417 0.4403018 0.1774866 0.56128 0.21303037 -0.23784395 0.5557031
-0.51656437 -0.11024897 0.19880725 0.3162611 -0.19420837 -0.1949842 0.27026522 -0.47969157
0.0862592 0.043649066 -0.40783262 0.10953902 0.001877654 -0.45197022 0.32809973 -0.51011854
-0.85913926 -0.8816552 -1.4905893 0.17440146 -0.27633548 0.0238587 -0.4553776 -0.47042698
-0.2620686 0.34227198 -0.5942853 0.14839724 0.05187518 -0.11975849 0.59925574 0.03502779
0.20833962 -0.27143377 0.41873333 0.39647755 0.2836384 0.48748893 -0.025241777 0.13794906
0.014952173 -0.2584473 -0.0032863542 -0.13586971 0.71539515 -0.4297678 0.8107408 -0.0503062
-0.54940134 -0.3228598 -0.30474654 -0.1314165 -0.8715993 0.039013296 0.093350396 -0.0984277
-0.24169078 -0.23666431 -0.84025514 0.12659162 0.18272123 -0.4032776 0.6749212 -0.23138861
-0.5189983 -0.19465518 0.1256691 -0.59533685 0.040483046 -0.019895019 -0.5469539 -0.28814423
0.59393716 0.21575582 0.18564838 -0.7717287 -0.6329817 0.03018662 -0.7762066 -0.14674631
-0.6785081 -0.4084404 0.20085485 0.70623523 -0.7179524 -0.014744944 0.042687055 -0.0469386
0.041565426 -0.7232253 0.5893781 -0.34853435 -0.23852326 -0.099133976 0.15883903 0.06627778
-0.35942155 -0.12289342 0.22582257 -0.2843752 -0.031123701 0.36655873 -0.1512276 0.104726106
-0.14820194 0.020114386 -0.4696855 -0.24488528 0.2532786 -0.25981975 -0.38162005 -0.13422653
-0.45083156 0.66392267 0.30319914 0.07004946 -0.22696467 0.38992536 0.3640162 -0.4475181
0.13614094 -0.18217753 -0.4146169 0.23216118 0.023250876 -0.5729981 -0.29803377 -0.11804894
-0.5514315 -0.45327005 -0.041504107 0.23040928 0.50897133 0.3602533 0.008979612 0.24607354
-0.20027743 0.326512 0.01895517 0.3555681 0.3866916 0.7583484 0.13523032 0.4139179
0.9394251 0.10184699 0.024423532 -0.0055488693 -0.07917996 -0.27496612 0.3023438 -0.4862967
0.09283687 0.091513425 -0.45562994 0.7436472 0.05620643 -0.025500273 0.17333257 -0.29014695
0.3712528 -0.19910923 0.55085856 0.22854435 -0.35270172 -0.080035485 -0.08108143 -0.52205044
0.302135 -0.12675378 -0.41924724 0.36137727 0.02114907 -0.41286346 -0.06110312 0.101947844
0.216109 0.107722595 0.30390927 0.14190333 -0.10121634 0.033179894 -0.7555586 -0.033918448
0.26593775 -0.304839 -0.44625697 -0.3391336 0.28073168 -0.28858113 -0.6443966 0.45912772
0.6754205 -0.44992757 -0.19791998 0.13127846 0.019175205 0.45282128 0.14357825 -0.2832885
-0.3790592 0.14580677 -0.07245678 -0.42602736 0.30540353 0.069256864 0.030213205 -0.61433697
0.036934484 0.32551205 -0.19486159 0.42571142 -0.8248824 0.53365177 0.62508345 0.15155722
00000000: d324 7bbf d2be 9bbe 91c4 ad3e 766c b1be
00000010: 51d6 4ebe fa53 fbbd 892e c23e 7a01 2bbe
00000020: 6a5a 773d 5899 6ebf a06e 0bbe 1464 f0bf
00000030: 6494 b0be 4c8e f6be 8941 69bf 62c9 bbbe
00000040: 3ef4 2ebf e870 943d 8254 01be f836 283f
00000050: 8ca2 c1be c803 ac3e 2bad 2fbd 192d 1cbd
00000060: c655 a5be 0579 293e bc20 d1be 8cc8 dabe
00000070: 0737 66bf 26a6 8b3e 767d a2bf c8a8 c5bc
00000080: fb7f 0cbe 96f4 b9be 3d6f e13e 0cbf 353e
00000090: 0cb0 0f3f a224 5a3e 5d8d 73be 8f42 0e3f
000000a0: 903d 04bf 36ca e1bd 2194 4b3e faec a13e
000000b0: 8fde 46be f0a9 47be 3460 8a3e 229a f5be
000000c0: aaa8 b03d 5dc9 323d 70cf d0be fe55 e03d
000000d0: 9d1b f63a a468 e7be b0fc a73e 2197 02bf
000000e0: 8df0 5bbf 28b4 61bf a1cb bebf 4c96 323e
000000f0: d87b 8dbe 5273 c33c 4127 e9be cedb f0be
00000100: db2d 86be 463e af3e 1523 18bf 72f5 173e
00000110: 127b 543d f043 f5bd d368 193f 4d79 0f3d
00000120: fb56 553e 5ef9 8abe 3764 d63e 1bff ca3e
00000130: 0d39 913e 2698 f93e d8c7 cebc 8542 0d3e
00000140: f6f9 743c 3453 84be e05f 57bb 6e21 0bbe
00000150: 2324 373f 860a dcbe b68c 4f3f e00d 4ebd
00000160: 91a5 0cbf e14d a5be bd07 9cbe 0c92 06be
00000170: 2221 5fbf 68cc 1f3d 7e2e bf3d 7694 c9bd
00000180: ca7d 77be 2158 72be f61a 57bf 3ca1 013e
00000190: 461b 3b3e 677a cebe a3c7 2c3f 23f1 6cbe
000001a0: 13dd 04bf b053 47be 67af 003e ff67 18bf
000001b0: 8dd1 253d e1fa a2bc 2c05 0cbf a487 93be
000001c0: 440c 183f 18ef 5c3e 9c1a 3e3e 0390 45bf
000001d0: 170b 22bf ee49 f73c 7ab5 46bf aa44 16be
000001e0: b5b2 2dbf 1a1f d1be e5ac 4d3e d5cb 343f
000001f0: bacb 37bf c794 71bc 9fd8 2e3d b042 40bd
00000200: 8240 2a3d 4b25 39bf 7ce1 163f 1873 b2be
00000210: 713f 74be c106 cbbd b3a6 223e a5bc 873d
00000220: 1a06 b8be 8caf fbbd 083e 673e a099 91be
00000230: 22f7 febc 96ad bb3e 68db 1abe a47a d63d
00000240: 40c2 17be edc6 a43c 9e7a f0be 35c3 7abe
00000250: bcad 813e 1807 85be b463 c3be ae72 09be
00000260: 65d3 e6be d6f6 293f eb3c 9b3e 1776 8f3d
00000270: 6d69 68be 4ca4 c73e 5560 ba3e 1821 e5be
00000280: 8868 0b3e bf8c 3abe ab48 d4be a9bb 6d3e
00000290: 9f78 be3c 01b0 12bf e297 98be a5c3 f1bd
000002a0: 9d2a 0dbf 0313 e8be 3600 2abd 69f0 6b3e
000002b0: f24b 023f 1f73 b83e 391f 133c b4fa 7b3e
000002c0: 8715 4dbe 952c a73e df47 9b3c 060d b63e
000002d0: 71fc c53e 1f23 423f d179 0a3e 0ced d33e
000002e0: 2a7e 703f 2895 d03d dc13 c83c 4ad3 b5bb
000002f0: 1a29 a2bd 5cc8 8cbe cecc 9a3e e2fb f8be
00000300: 4221 be3d 646b bb3d 5448 e9be aa5f 3e3f
00000310: b738 663d f3e5 d0bc 187e 313e 248e 94be
00000320: d914 be3e 4ae3 4bbe 1105 0d3f 8807 6a3e
00000330: 5295 b4be a5e9 a3bd 050e a6bd 19a5 05bf
00000340: 70b1 9a3e becb 01be 93a7 d6be 7106 b93e
00000350: d040 ad3c d762 d3be 4447 7abd 08ca d03d
00000360: ad4b 5d3e aa9d dc3d ff99 9b3e 1b4f 113e
00000370: 834a cfbd a4e7 073d 4a6c 41bf 12ee 0abd
00000380: fe28 883e db13 9cbe cb7b e4be eba2 adbe
00000390: 10bc 8f3e e8c0 93be 2df7 24bf ca12 eb3e
000003a0: 5ce8 2c3f e85c e6be 89ab 4abe dc6d 063e
000003b0: 5215 9d3c 31d8 e73e 2d06 133e 310b 91be
000003c0: 0c14 c2be 5f4e 153e 3864 94bd 4220 dabe
000003d0: da5d 9c3e 8bd6 8d3d af81 f73c 3045 1dbf
000003e0: 9d48 173d 84a9 a63e cc89 47be d9f6 d93e
000003f0: 7e2b 53bf 679d 083f 7805 203f d131 1b3e

fc2.bias f4 [64]
-0.29751423 -0.15976806 1.0296108 1.3910488 1.5253649 0.6858071 1.0054599 -0.4808671
1.12747 0.84437716 -0.11053165 1.3133311 -1.7165293 1.4243591 -0.5908688 0.013959438
1.0544204 1.6683401 1.4824637 -0.76027185 0.3818283 -0.23597786 1.4625503 -1.1235945
0.23766291 1.4105935 0.2828769 -0.715667 0.7231212 1.3265024 -0.902167 1.0591437
1.5053979 -2.1433673 1.1461581 0.88819766 1.1429149 0.8057642 1.6538501 -1.3950802
0.48124245 -1.1929531 -0.86643344 -0.4464347 -1.7578692 -0.39825097 1.064689 0.8663387
1.3364372 1.8187699 -0.81381184 0.41635984 1.6147112 -1.2347294 1.247954 1.8001057
0.9579945 0.8961984 0.88317674 -0.9311962 -1.1339624 -0.5962883 -0.56112134 -1.0352165
00000000: c953 98be 3d9a 23be 49ca 833f e30d b23f
00000010: 283f c33f 0e91 2f3f e9b2 803f 3634 f6be
00000020: f050 903f 1a29 583f 6b5e e2bd 3c1b a83f
00000030: 3bb7 dbbf 6651 b63f 2d43 17bf 20b6 643c
00000040: 3ff7 863f 2b8c d53f 5fc1 bd3f 2da1 42bf
00000050: 007f c33e 2ea4 71be d934 bb3f f2d1 8fbf
00000060: e85d 733e 548e b43f 3ed5 903e f435 37bf
00000070: 791e 393f d5ca a93f 6bf4 66bf 0592 873f
00000080: e1b0 c03f ee2c 09c0 4fb5 923f ec60 633f
00000090: 094b 923f 9046 4e3f 5cb1 d33f fd91 b2bf
000000a0: 6965 f63e b0b2 98bf 95ce 5dbf 1793 e4be
000000b0: dc01 e1bf 8de7 cbbe bb47 883f 5fc8 5d3f
000000c0: 6010 ab3f 74cd e83f f955 50bf 1e2d d53e
000000d0: dbae ce3f 9d0b 9ebf f5bc 9f3f dd69 e63f
000000e0: 213f 753f 426d 653f df17 623f e062 6ebf
000000f0: ae25 91bf 5aa6 18bf a6a5 0fbf f981 84bf

fc3.weight f4 [64, 64]
-0.4923043 0.12376115 0.39456013 -0.3756374 -0.9824719 -0.17981526 -0.37274498 -0.8707124
-0.3464946 0.34808293 -0.87766814 -0.21327792 -0.69082355 0.43762335 0.3100429 -0.42788595
-0.9582798 0.04119022 0.44419816 -1.2653787 -0.05605098 -1.2757399 -0.26994562 -0.80319554
-0.50951326 -0.46728498 0.09607492 -0.7209599 -0.334631 -0.21753442 -0.97166634 -0.1630224
0.31370056 -0.3364448 0.32182577 0.19026437 -0.15297414 0.18798442 0.4661451 -1.1747607
-0.38135737 -0.04108174 -0.27894053 -1.2458335 -0.20494014 -0.24942929 -0.17873618 0.021174548
0.41166806 -0.19066788 -0.49795008 -0.2283457 0.68514156 -0.30351403 -0.19406788 0.3037259
-0.0029253387 -0.39387664 0.46187556 -0.49964917 -0.67853725 -0.15771443 0.09810533 -1.2005446
-0.23619087 -1.1563681 0.41751263 -0.18441443 0.3069064 -0.10861888 0.4283367 0.67353183
0.07748558 0.009738058 -0.59190446 0.26890776 -1.073895 0.16661784 -0.22184458 -0.07633823
-0.32354337 -0.22186619 0.176276 0.36319095 0.33654296 -0.64061606 -0.36542675 -0.17337814
-0.0036175034 0.2854893 -0.32391238 0.24218528 -0.09781281 0.093273625 -0.08083061 0.17644596
0.50301313 -1.3530202 0.39533642 -0.06391849 -0.055334825 0.3501032 0.16040598 -1.3401911
-0.16865027 -0.1935377 -0.58639014 -0.21462332 -1.7191436 -1.2039039 0.47648165 0.04727202
-0.17725642 -0.062160563 -0.451634 -0.22543547 0.41483003 -0.28248996 -0.09919376 0.5384984
0.32560793 0.10700734 0.81960624 -0.4201933 -0.046384607 0.06732456 0.105238885 -0.39293778
-0.74027073 -0.0338064 0.33908603 0.26333857 -0.42226028 0.091575705 -0.0076834974 -0.9645802
-0.315174 -0.031236077 -1.2734816 -0.05952919 -0.4553728 0.18046048 -1.24854 -0.43023458
-0.23997615 -0.08101023 0.3769892 -0.88687986 -0.53864825 -0.6899583 0.04893794 -0.25642708
0.036547925 0.0053246315 -1.5894908 -0.75164974 0.0025834825 -0.18792641 -0.34471968 0.5483984
-0.2365988 -0.8132732 0.34482408 0.6442066 0.021160236 0.048932053 0.1390972 -0.07248529
-0.07728878 -1.1361167 -0.25069863 -0.42612913 -0.24470738 -0.998848 0.031866655 -0.07390647
-0.146382 -0.098216794 -0.5949328 -0.37366137 0.18743387 -0.93589205 -0.37199593 0.06321498
0.19209786 -0.18610941 0.4928427 -0.023721753 -0.18982205 -0.7173067 -0.5314003 -0.2849363
0.36833143 0.15090322 -0.05474036 -1.2603759 0.01707818 0.54615086 -0.8052175 -1.1118637
-1.5014111 -0.28117543 -1.3758357 0.041606 -0.713543 0.39645764 -0.63828707 0.44476533
0.24667664 0.74408084 0.769885 -1.0773143 -0.39794225 -0.61369383 0.4807914 -0.07591467
-0.3456023 0.36539334 -0.5768192 0.001073153 0.029204177 -0.6749988 -0.5581352 -0.41491443
-0.39622754 -0.7547043 -0.3235563 -0.2602932 -1.5272297 0.100606576 -0.1166571 0.13934329
-1.3495171 0.1419522 -0.8225435 -0.63714844 -0.65831554 0.03775168 0.18579513 -0.9716216
-0.10193116 -0.36563468 -0.092903726 0.21628655 -0.06825789 -0.8757562 -0.3538811 0.39239654
0.50961596 0.3576016 -1.1203142 -1.0103304 -0.8813489 -0.06566135 -0.15194763 0.387753
00000000: 4f0f fcbe 7c76 fd3d c903 ca3e 8c53 c0be
00000010: 4783 7bbf 7e21 38be 6ed8 bebe 02e7 5ebf
00000020: bd67 b1be ed37 b23e dcae 60bf 8765 5abe
00000030: d0d9 30bf 2b10 e03e f1bd 9e3e de13 dbbe
00000040: d351 75bf 13b7 283d f16d e33e eef7 a1bf
00000050: b695 65bd 724b a3bf 5036 8abe 399e 4dbf
00000060: 766f 02bf fa3f efbe edc2 c43d d490 38bf
00000070: c154 abbe 58c1 5ebe 20bf 78bf 58ef 26be
00000080: 5c9d a03e 7e42 acbe 59c6 a43e aad4 423e
00000090: 41a5 1cbe fd7e 403e 92aa ee3e 8f5e 96bf
000000a0: 4641 c3be 5445 28bd 4bd1 8ebe 7977 9fbf
000000b0: d4db 51be 646a 7fbe 9e06 37be 3f76 ad3c
000000c0: 28c6 d23e 713e 43be 50f3 febe 75d3 69be
000000d0: 7065 2f3f 3166 9bbe bbb9 46be f681 9b3e
000000e0: 0ab7 3fbb 33aa c9be f47a ec3e 04d2 ffbe
000000f0: 9eb4 2dbf e47f 21be 72eb c83d 72ab 99bf
00000100: 05dc 71be df03 94bf 37c4 d53e 23d7 3cbe
00000110: d622 9d3e 9373 debd f34e db3e 956c 2c3f
00000120: c3b0 9e3d 608c 1f3c 0d87 17bf 47ae 893e
00000130: 6475 89bf de9d 2a3e 3a2b 63be 3857 9cbd
00000140: 7aa7 a5be e430 63be b281 343e 2af4 b93e
00000150: 5c4f ac3e 6aff 23bf 3719 bbbe 0a8a 31be
00000160: a313 6dbb a72b 923e d8d7 a5be 6bff 773e
00000170: 1552 c8bd 3e06 bf3d 858a a5bd 40ae 343e
00000180: 78c5 003f c42f adbf 8969 ca3e b3e7 82bd
00000190: c5a6 62bd ba40 b33e 7741 243e 628b abbf
000001a0: a8b2 2cbe bf2e 46be aa1d 16bf 37c6 5bbe
000001b0: e60c dcbf 8619 9abf 67f5 f33e 4ea0 413d
000001c0: b582 35be 139c 7ebd 923c e7be 8ed8 66be
000001d0: 9a64 d43e 86a2 90be 1926 cbbd 08db 093f
000001e0: 15b6 a63e aa26 db3d b7d1 513f 9423 d7be
000001f0: c9fd 3dbd 75e1 893d 7c87 d73d 242f c9be
00000200: 6282 3dbf 9478 0abd af9c ad3e 50d4 863e
00000210: 8032 d8be 0b8c bb3d d9c5 fbbb baee 76bf
00000220: 7d5e a1be cde2 ffbc 7201 a3bf e1d4 73bd
00000230: a026 e9be a2ca 383e 29d0 9fbf b547 dcbe
00000240: 4fbc 75be b1e8 a5bd ba04 c13e 8f0a 63bf
00000250: dae4 09bf 1ba1 30bf 2673 483d 694a 83be
00000260: 47b3 153d 3f7a ae3b 6f74 cbbf 1e6c 40bf
00000270: a54f 293b c86f 40be 197f b0be d663 0c3f
00000280: f546 72be ac32 50bf c88c b03e b9ea 243f
00000290: 3b58 ad3c fa6c 483d 7f6f 0e3e 2b73 94bd
000002a0: 9449 9ebd 466c 91bf 925b 80be 992d dabe
000002b0: 9294 7abe 81b4 7fbf 9c86 023d 465c 97bd
000002c0: 2ae5 15be e325 c9bd 844d 18bf 8b50 bfbe
000002d0: aaee 3f3e 9f96 6fbf 4076 bebe db76 813d
000002e0: 4db5 443e 7793 3ebe e155 fc3e 1f54 c2bc
000002f0: b660 42be 69a1 37bf da09 08bf 2ce3 91be
00000300: f095 bc3e 6086 1a3e 6d37 60bd ff53 a1bf
00000310: 8ae7 8b3c 8bd0 0b3f bc22 4ebf 8d51 8ebf
00000320: 3d2e c0bf 3af6 8fbe 621b b0bf 0e6b 2a3d
00000330: c1aa 36bf 7ffc ca3e c866 23bf 48b8 e33e
00000340: cd98 7c3e 157c 3e3f 2f17 453f 6fe5 89bf
00000350: 16bf cbbe 0a1b 1dbf 4a2a f63e 2779 9bbd
00000360: c9f2 b0be d614 bb3e 6caa 13bf 0aa9 8c3a
00000370: 993d ef3c b9cc 2cbf f3e1 0ebf aa6f d4be
00000380: 56de cabe 4d34 41bf 2ca9 a5be 2645 85be
00000390: 437c c3bf d20a ce3d ebe9 eebd 02b0 0e3e
000003a0: fabc acbf eb5b 113e 3692 52bf 291c 23bf
000003b0: 5e87 28bf 81a1 1a3d 1441 3e3e 31bc 78bf
000003c0: 49c1 d0bd 7834 bbbe 4f44 bebd 397a 5d3e
000003d0: cbca 8bbd 8f31 60bf e72f b5be 33e8 c83e
000003e0: 3176 023f 8f17 b73e 7566 8fbf 8252 81bf
000003f0: 15a0 61bf 7579 86bd 2998 1bbe 9087 c63e

fc3.bias f4 [64]
0.7269258 1.1008679 0.98716486 -0.9174983 -0.9115198 1.3186177 -0.8035304 0.5724843
0.88051593 -0.6061587 0.9032446 -0.8682806 0.9457298 0.7963496 -0.3795333 1.107132
-0.9336934 -0.4266643 0.84256184 0.47415596 -0.47618902 -0.74031526 -1.0524246 0.97775406
0.917429 0.49652594 -0.55209285 -1.0143607 0.59277296 0.06477464 -0.74759156 0.75113785
-0.38135362 0.50304806 -0.76361555 0.021813262 0.8407111 -1.0062556 1.3848684 1.2074273
-0.89920324 0.5947697 1.1826392 1.3776408 -0.45382723 0.7294296 -0.77700704 0.22571976
0.9451525 0.6958213 0.89722997 -0.32053584 1.0936224 0.9330142 0.25549784 0.99189186
-0.80324924 -0.12233478 -0.38096178 0.58391196 -0.36825654 -0.75471234 0.5776724 0.63062316
00000000: cf17 3a3f 3de9 8c3f d6b6 7c3f 2be1 6abf
00000010: 5d59 69bf 77c8 a83f 2bb4 4dbf 558e 123f
00000020: 7e69 613f 372d 1bbf 0a3b 673f a347 5ebf
00000030: 591b 723f 91dd 4b3f 3052 c2be 80b6 8d3f
00000040: 8806 6fbf be73 dabe 22b2 573f 92c4 f23e
00000050: 0ccf f3be 4d85 3dbf d9b5 86bf 174e 7a3f
00000060: a0dc 6a3f a638 fe3e f555 0dbf 92d6 81bf
00000070: f8bf 173f 91a8 843d 2962 3fbf 924a 403f
00000080: c840 c3be c2c7 003f 4f7c 43bf bab1 b23c
00000090: d838 573f fccc 80bf 5e43 b13f fa8c 9a3f
000000a0: 2f32 66bf d442 183f b960 973f 8956 b03f
000000b0: 0b5c e8be e6bb 3a3f efe9 46bf 1523 673e
000000c0: 84f5 713f 5821 323f ddb0 653f 461d a4be
000000d0: d2fb 8b3f 05da 6e3f 9dd0 823e a0ec 7d3f
000000e0: bea1 4dbf a88a fabd 6c0d c3be 417b 153f
000000f0: 1f8c bcbe d434 41bf 57e2 133f 8570 213f

value.weight f4 [1, 64]
0.38603273 0.17985502 0.29554582 -1.1693891 -0.7219308 0.19203317 -0.4941938 0.2701081
0.6374623 -0.80258214 0.6396667 -0.75777817 0.34103537 0.45364338 -0.65189606 0.29662114
0.6879562 -0.6112101 0.38943028 0.766695 -0.34963968 -0.9801683 -1.0927476 0.53920233
-0.36750492 -0.2722617 -0.6804971 -1.1221613 0.5363746 1.6420666 -0.5181585 0.2862378
-0.62733203 0.49294502 -1.2655785 -1.0236292 0.45566097 -1.4015075 0.50953764 0.042311728
-0.16367543 0.55614084 0.49658173 0.23552907 -0.9000644 0.42380935 -0.5962577 1.0380336
0.34530854 0.25528044 0.5546791 -0.8980527 0.39310682 0.29387218 -0.49200714 0.26820803
-1.1357437 -0.92555225 -0.5189007 0.30178887 -0.2298126 -0.74335104 0.67367417 0.74546766
00000000: 15a6 c53e ea2b 383e c851 973e 8bae 95bf
00000010: 75d0 38bf 58a4 443e f806 fdbe 9c4b 8a3e
00000020: bb30 233f 0676 4dbf 32c1 233f c0fd 41bf
00000030: 309c ae3e f243 e83e a9e2 26bf bade 973e
00000040: e61d 303f 4478 1cbf 6863 c73e 2046 443f
00000050: f903 b3be 4fec 7abf 27df 8bbf 2a09 0a3f
00000060: 9b29 bcbe e365 8bbe 0f35 2ebf fba2 8fbf
00000070: d94f 093f 3d2f d23f 09a6 04bf c38d 923e
00000080: d598 20bf 4a63 fc3e 7afe a1bf 4806 83bf
00000090: 654c e93e 9964 b3bf 0f71 023f 104f 2d3d
000000a0: 889a 27be 3f5f 0e3f f63f fe3e 882e 713e
000000b0: 9f6a 66bf 8afd d83e 58a4 18bf 49de 843f
000000c0: 48cc b03e 1eb4 823e 73ff 0d3f c8e6 65bf
000000d0: 4c45 c93e 6a76 963e 5ce8 fbbe 9052 893e
000000e0: 0d60 91bf fef0 6cbf add6 04bf 1284 9a3e
000000f0: ff53 6bbe 414c 3ebf e975 2c3f f8d6 3e3f
