maddpg_v6/model/simple_adversary/agent_1/44_actor_params.pt (torch, 23141 bytes, 6 tensors)

fc1.weight f4 [64, 10]
0.024973687 0.090360835 0.38523683 0.3911467 0.1310715 0.16663444 0.27589723 0.09564086
-0.25350833 0.11406621 0.17849156 0.254144 0.38749966 0.46677217 0.057082526 -0.08555674
-0.18244803 -0.017815642 -0.11665978 0.1582046 -0.05025701 0.28542998 -0.041791756 -0.35382694
-0.26927015 0.4271719 -0.23427643 0.24880059 -0.4361413 0.23435953 0.33677095 -0.005543978
0.22126016 0.3042982 -0.32831064 0.3671392 -0.33618572 0.18706894 0.28013268 -0.0014537111
-0.33763283 0.00042309522 -0.23744586 0.33930048 0.2644294 0.24717611 -0.1908658 0.2604288
-0.061177462 0.25879243 0.0039320304 -0.13490383 0.0530664 0.023211963 -0.42529613 -0.19881448
0.2429524 -0.37410548 0.059661202 0.08653592 -0.038663603 -0.0872331 0.38133776 -0.080665015
0.14789605 -0.015766755 -0.037697442 -0.30296046 0.1599 0.037700567 0.08467926 0.08162718
0.17909817 -0.43779707 -0.3402467 -0.5046462 -0.10548722 -0.0073209 0.030305332 0.052682944
0.43145525 -0.31025878 0.18283673 0.36599058 -0.2708173 -0.39904088 -0.29627687 -0.13879128
0.46579552 0.06485203 0.29182687 -0.3047033 0.3023987 0.06561818 0.012990321 -0.08197815
-0.1369775 0.19098675 0.17009665 -0.0222405 -0.27532518 0.36864728 -0.4062833 -0.03732038
-0.3263898 -0.08496589 -0.11816758 -0.07549392 0.38424355 0.31411555 0.2797652 -0.29772052
0.12176678 0.05331553 -0.041402902 -0.3029238 0.34749958 0.22901657 -0.28551218 -0.016375128
0.3608081 -0.4243248 0.30584317 0.011149582 0.2997233 -0.418381 0.034938343 0.22799361
-0.20432031 -0.07247717 -0.40644425 0.22323403 -0.05282724 -0.0034452444 0.2362365 0.18465732
-0.09318984 -0.10709908 0.23358156 -0.19511205 -0.23826279 -0.40100348 -0.1678214 -0.262759
-0.058352888 -0.003602614 -0.15920156 0.16686025 -0.09811555 0.13938235 -0.41710588 -0.14121322
0.23858751 -0.37180957 -0.2536759 0.033565547 0.32949266 -0.35804513 -0.39980528 -0.46957412
0.33770135 -0.40075633 0.07467385 -0.20854159 0.17373893 0.24976616 -0.231183 -0.14800079
-0.01487833 0.4162231 -0.084191784 0.3620463 0.20345503 -0.040502522 0.012175793 0.2794187
-0.09877689 -0.20126702 -0.39336264 0.3615902 -0.25953907 -0.44488445 0.100598395 -0.45479578
0.22312577 0.09348216 -0.327956 -0.3123239 0.28129378 -0.034595866 -0.22921206 -0.20655777
-0.3060361 0.33204314 -0.093683496 0.21748151 0.13872959 -0.068034686 0.0010343249 -0.24417809
0.34075883 0.30787066 -0.21128735 0.13895257 0.14964396 0.14910454 -0.029377589 0.44629958
-0.026189925 -0.4200977 0.05646379 0.28092963 -0.09832847 0.1896197 -0.23836192 0.22005084
0.0663156 0.2895033 -0.06275554 0.10094228 0.051145665 -0.18416202 -0.43136793 0.17203374
-0.1711583 0.09372144 0.3116389 -0.34970117 0.30454183 0.052966703 0.24557815 -0.34439418
0.2462697 -0.123011135 -0.14674938 0.21212743 0.31987783 0.16423269 0.014058622 -0.3028601
-0.050149616 0.38074556 -0.012066228 0.17318147 0.19954666 -0.23643397 0.3140411 0.074737765
0.25578612 0.08481521 0.22813083 -0.09304757 -0.045500476 0.08555737 0.37309298 0.020731334
00000000: 9e95 cc3c 1a0f b93d c33d c53e 6144 c83e
00000010: 9b37 063e 38a2 2a3e 6742 8d3e 5bdf c33d
00000020: d8cb 81be 8c9b e93d 7ec6 363e 2a1f 823e
00000030: 5b66 c63e c3fc ee3e 5ecf 693d 5f38 afbd
00000040: a8d3 3abe 1cf2 91bc 53eb eebd 6300 223e
00000050: 4bda 4dbd e123 923e d52d 2bbd ce28 b5be
00000060: c7dd 89be 46b6 da3e 29e6 6fbe 95c5 7e3e
00000070: ea4d dfbe f2fb 6f3e 3e6d ac3e 42aa b5bb
00000080: 0692 623e f9cc 9b3e 5518 a8be abf9 bb3e
00000090: 8920 acbe 008f 3f3e 8d6d 8f3e 738a beba
000000a0: 36de acbe e1d2 dd39 0225 73be cbb8 ad3e
000000b0: 4a63 873e bc1b 7d3e 5372 43be ec56 853e
000000c0: 3895 7abd 7180 843e 43d8 803b 3b24 0abe
000000d0: 275c 593d 0427 be3c 6ac0 d9be 0696 4bbe
000000e0: 84c8 783e c18a bfbe 4e5f 743d bf39 b13d
000000f0: ba5d 1ebd 44a7 b2bd b43e c33e b333 a5bd
00000100: 1072 173e 4829 81bc a268 1abd a21d 9bbe
00000110: d3bc 233e e96b 1a3d 526c ad3d 272c a73d
00000120: 8365 373e f026 e0be d134 aebe 7e30 01bf
00000130: af09 d8bd 29e4 efbb e342 f83c 12ca 573d
00000140: b4e7 dc3e 3dda 9ebe 8d39 3b3e 1e63 bb3e
00000150: 91a8 8abe 164f ccbe 9ab1 97be 4d1f 0ebe
00000160: c07c ee3e 24d1 843d 556a 953e 1202 9cbe
00000170: 01d4 9a3e d362 863d 5bd5 543c 29e4 a7bd
00000180: d443 0cbe 0892 433e d12d 2e3e b631 b6bc
00000190: 6cf7 8cbe 56bf bc3e 5d04 d0be 41dd 18bd
000001a0: 901c a7be 9902 aebd d801 f2bd 8e9c 9abd
000001b0: 92bb c43e c1d3 a03e 623d 8f3e d36e 98be
000001c0: dd60 f93d 6361 5a3d 1796 29bd d418 9bbe
000001d0: 77eb b13e 5283 6a3e a72e 92be 2225 86bc
000001e0: d7bb b83e 1a41 d9be 7a97 9c3e bdac 363c
000001f0: 5575 993e 0936 d6be 821b 0f3d 2877 693e
00000200: 5839 51be e96e 94bd 7619 d0be 7697 643e
00000210: 6061 58bd 9cc9 61bb fbe7 713e cf16 3d3e
00000220: 51da bebd c356 dbbd 0130 6f3e 74cb 47be
00000230: 29fb 73be 5450 cdbe 60d9 2bbe 5988 86be
00000240: 7003 6fbd d519 6cbb bc05 23be 6add 2a3e
00000250: cef0 c8bd 3fba 0e3e e78e d5be 339a 10be
00000260: 4950 743e d35d bebe cfe1 81be 077c 093d
00000270: 43b3 a83e b151 b7be 47b3 ccbe 056c f0be
00000280: 31e7 ac3e ef2f cdbe 9aee 983d ed8b 55be
00000290: 9ee8 313e b3c2 7f3e 3dbb 6cbe 858d 17be
000002a0: 3dc4 73bc 321b d53e be6c acbd 225e b93e
000002b0: 8456 503e f9e5 25bd fa7c 473c f80f 8f3e
000002c0: 8a4b cabd f118 4ebe d466 c9be 5a22 b93e
000002d0: 4ee2 84be e5c7 e3be 8806 ce3d feda e8be
000002e0: 157b 643e 9373 bf3d d9e9 a7be ebe8 9fbe
000002f0: bd05 903e 65b4 0dbd 91b6 6abe e183 53be
00000300: c4b0 9cbe 8f01 aa3e 22dd bfbd 79b3 5e3e
00000310: 210f 0e3e c555 8bbd 2f92 873a d209 7abe
00000320: f177 ae3e 39a1 9d3e b65b 58be 9549 0e3e
00000330: 443c 193e dcae 183e 45a9 f0bc 6181 e43e
00000340: 418c d6bc 0c17 d7be 9346 673d 02d6 8f3e
00000350: 7060 c9bd ab2b 423e 2615 74be 0255 613e
00000360: 79d0 873d c739 943e fa85 80bd d3ba ce3d
00000370: 1e7e 513d f894 3cbe 42dc dcbe 9d29 303e
00000380: 1f44 2fbe 07f1 bf3d 228f 9f3e 080c b3be
00000390: e8ec 9b3e 9df3 583d d778 7b3e 6f54 b0be
000003a0: 202e 7c3e 43ed fbbd 7845 16be ef37 593e
000003b0: 07c7 a33e 9d2c 283e 2256 663c 7b10 9bbe
000003c0: af69 4dbd 15f1 c23e 6eb1 45bc 7c56 313e
000003d0: f655 4c3e bf1b 72be ffc9 a03e 1d10 993d
000003e0: 66f6 823e 99b3 ad3d 219b 693e b98f bebd
000003f0: b55e 3abd b438 af3d 0b06 bf3e c2d4 a93c

fc1.bias f4 [64]
0.07376556 0.45417386 0.32387096 0.24609157 -0.09133079 0.4722053 0.08668566 0.47027266
0.0031406756 0.4945922 0.24166821 -0.21204703 0.13521416 0.45429212 -0.11489449 -0.107987426
0.74826527 0.36782664 -0.07144833 0.03509832 0.23514406 0.73436326 0.33124667 0.46472228
0.11865519 0.38132784 -0.04701419 0.5163047 -0.059672143 -0.06629495 -0.04172386 -0.15471163
0.08700435 0.6254261 0.0063363346 0.5559353 0.5314045 0.3985956 -0.13207512 0.6281777
-0.23198815 0.05559639 0.36503315 0.06784264 -0.11145372 0.33202925 -0.1852081 -0.12754208
-0.03813016 0.043701556 0.4108681 0.6151739 0.4871433 0.41726094 -0.285299 0.37017548
0.5059083 0.48236084 0.4822961 0.35579395 0.14940773 0.61308736 0.72212183 0.18142551
00000000: 6612 973d 7a89 e83e 6ad2 a53e 6eff 7b3e
00000010: a30b bbbd e5c4 f13e 4088 b13d 94c7 f03e
00000020: cbd3 4d3b 303b fd3e df77 773e db22 59be
00000030: 9575 0a3e fa98 e83e cd4d ebbd 8328 ddbd
00000040: 508e 3f3f c653 bc3e 8153 92bd 42c3 0f3d
00000050: 9bc9 703e 3bff 3b3f 2a99 a93e 14f0 ed3e
00000060: 7e01 f33d 673d c33e f491 40bd 8b2c 043f
00000070: c76a 74bd a6c5 87bd a3e6 2abd ba6c 1ebe
00000080: 562f b23d ed1b 203f 07a1 cf3b c751 0e3f
00000090: 200a 083f b914 cc3e b33e 07be 41d0 203f
000000a0: 4d8e 6dbe 0ab9 633d a0e5 ba3e 15f1 8a3d
000000b0: d941 e4bd bdff a93e 31a7 3dbe 649a 02be
000000c0: 5f2e 1cbd 6700 333d 4e5d d23e 097c 1d3f
000000d0: d96a f93e 3aa3 d53e b612 92be a487 bd3e
000000e0: 3583 013f 00f8 f63e 84ef f63e a02a b63e
000000f0: 57fe 183e 4bf3 1c3f fadc 383f 9cc7 393e

fc2.weight f4 [64, 64]
-0.06345797 0.36772642 -0.119108506 0.21542123 -0.10441443 0.2639013 -0.15631849 0.07616271
-0.05055107 0.09305272 -0.1170163 0.0082554715 -0.13469169 0.2823254 -0.010314478 0.040390547
0.031652562 -0.092342936 -0.18934473 -0.07135284 0.21715146 0.26451862 0.37886235 0.23399262
0.04763982 -0.12497114 -0.09170199 0.3122017 0.020269187 -0.071672134 -0.24176899 0.0856583
0.05088039 0.226366 0.22004773 0.13706361 0.28780043 0.16862595 -0.047687758 -0.07624985
-0.16358335 -0.05096781 0.24806212 0.05299936 0.073562406 0.20841461 0.05345934 -0.22045824
-0.100065544 -0.15786757 -0.1173339 0.017980007 -0.049848203 0.40926024 -0.14828014 0.14721821
-0.16942741 0.22733524 0.10192914 0.09682207 0.082324415 0.17519103 0.34758034 0.01851147
0.31522924 -0.12888333 0.10146206 0.0061661643 0.2729664 0.3305941 0.08242266 0.22270319
0.22553454 0.14286844 -0.04820299 -0.062946245 0.058503684 0.22140896 -0.24216218 -0.17589456
0.030544423 0.0067298613 -0.21068318 0.040666558 -0.057123575 0.007897788 0.295897 0.107760035
0.064670265 0.2769458 -0.16500635 0.13644879 0.1386634 -0.042428363 -0.1425559 0.12248318
0.31538308 0.23047224 -0.1739446 -0.03510531 -0.05707639 -0.14800806 0.14136663 0.13515559
0.065842025 -0.0372512 0.27752423 0.056078576 0.14301343 -0.11428308 -0.1666605 0.24186014
-0.21543083 0.20439336 0.033006087 0.09076664 -0.1565633 -0.13684961 0.16963768 -0.18504962
-0.048918612 -0.028140247 0.3653248 0.0017759391 0.30091375 -0.0033232535 0.27405712 -0.022101922
-0.011001635 0.37624568 0.07578383 -0.10271037 0.052039582 0.33921522 0.12530607 -0.047186226
0.19761829 -0.12942694 0.06659867 0.23740685 -0.060883056 0.101892516 0.25032732 -0.2105329
0.1843935 -0.029756404 -0.07841998 -0.025912063 -0.10339051 0.1427589 0.3868648 0.26791698
-0.14014548 0.015537224 -0.12776212 0.046340503 -0.07038618 -0.11063251 -0.017907025 0.28572038
-0.17679939 -0.24072307 0.15674701 0.18687281 0.38568085 -0.045000687 0.34562236 -0.07347096
-0.057651594 0.26706484 -0.08617442 0.23069915 0.31332082 0.27878463 -0.1247369 -0.089506656
0.2953455 -0.12212353 0.21860561 0.17301032 -0.07087959 0.29691076 0.3281892 -0.14633961
-0.25029242 -0.025003815 0.05533634 0.13926402 0.3427984 0.17255352 0.13557374 -0.18132733
0.0614686 0.14755127 -0.113552265 -0.27907336 -0.15507239 0.03497517 -0.14327954 0.17613381
0.12096696 -0.0019418566 -0.19185108 -0.3719717 0.17527093 -0.22537972 -0.06264404 -0.14116506
0.18456686 -0.14061156 -0.023532672 0.0017287986 -0.056892015 -0.24496354 -0.28955448 -0.16360596
-0.27956414 0.13042553 -0.025078978 0.22815561 -0.19438758 -0.16446263 0.1657854 -0.06890293
-0.02456869 0.1414302 -0.16975032 -0.15186204 -0.10751263 0.11352588 -0.0466542 -0.28137442
0.073917724 -0.3217504 -0.3170823 0.03992754 -0.15851155 0.20359093 -0.03552491 -0.2841041
-0.35512677 -0.24281429 -0.25708815 0.16704638 0.08678345 -0.04010184 -0.33107328 -0.11386999
-0.105204694 -0.31857485 0.062354874 -0.06904187 0.18622293 -0.2910908 -0.12958981 -0.2356181
00000000: 41f6 81bd a346 bc3e 29ef f3bd 6297 5c3e
00000010: 3cd7 d5bd 121e 873e f411 20be 32fb 9b3d
00000020: a40e 4fbd 6d92 be3d 3ea6 efbd f541 073c
00000030: 9eec 09be f48c 903e 0efe 28bc 8f70 253d
00000040: 1ea6 013d 4b1e bdbd 96e3 41be 7021 92bd
00000050: f45c 5e3e fc6e 873e 3ffa c13e c39b 6f3e
00000060: f921 433d def0 ffbd 41ce bbbd e7d8 9f3e
00000070: 910b a63c d7c8 92bd 4a92 77be 9e6d af3d
00000080: f567 503d 7dcc 673e 3154 613e 675a 0c3e
00000090: 945a 933e 48ac 2c3e 3d54 43bd e228 9cbd
000000a0: 6582 27be 9fc3 50bd ff03 7e3e db15 593d
000000b0: e3a7 963d a46a 553e 2ef8 5a3d cebf 61be
000000c0: 2aef ccbd 09a8 21be c14c f0bd cf4a 933c
000000d0: a12d 4cbd 8f8a d13e c0d6 17be 5fc0 163e
000000e0: 617e 2dbe 92ca 683e 3ac0 d03d a64a c63d
000000f0: b499 a83d 4765 333e 0df6 b13e 5ea5 973c
00000100: ba65 a13e fef9 03be 57cb cf3d 890d ca3b
00000110: 41c2 8b3e a143 a93e 36cd a83d 4e0c 643e
00000120: 87f2 663e 1b4c 123e 8070 45bd f6e9 80bd
00000130: 8fa1 6f3d 08b9 623e 5df9 77be b41d 34be
00000140: 4c38 fa3c 2b86 dc3b 55bd 57be fa91 263d
00000150: 69fa 69bd b965 013c d07f 973e 4bb1 dc3d
00000160: d871 843d d7cb 8d3e 6df7 28be 3bb9 0b3e
00000170: c7fd 0d3e 5dc9 2dbd 2dfa 11be 76d8 fa3d
00000180: e479 a13e ea00 6c3e 891e 32be 96ca 0fbd
00000190: efc8 69bd 6d8f 17be 6ac2 103e 3a66 0a3e
000001a0: 2fd8 863d b794 18bd a817 8e3e a6b2 653d
000001b0: 1d72 123e 3f0d eabd 0da9 2abe 2faa 773e
000001c0: e699 5cbe 7e4c 513e 6431 073d dce3 b93d
000001d0: 2152 20be 4e22 0cbe 80b5 2d3e a67d 3dbe
000001e0: e25e 48bd 6086 e6bc da0b bb3e a1c6 e83a
000001f0: 5e11 9a3e f1ca 59bb 3751 8c3e 170f b5bc
00000200: 3440 34bc 46a3 c03e 8d34 9b3d d159 d2bd
00000210: 7527 553d 9ead ad3e 3c50 003e 5846 41bd
00000220: 735c 4a3e 7f88 04be e264 883d c81a 733e
00000230: 8360 79bd 06ad d03d e72a 803e f095 57be
00000240: a6d1 3c3e b4c3 f3bc a89a a0bd 8945 d4bc
00000250: 67be d3bd 642f 123e 2513 c63e 6a2c 893e
00000260: 4c82 0fbe d78f 7e3c 13d4 02be 8acf 3d3d
00000270: a126 90bd 4c93 e2bd c1b1 92bc f149 923e
00000280: e60a 35be 1c80 76be 4a82 203e 965b 3f3e
00000290: f677 c53e a452 38bd 6af5 b03e f177 96bd
000002a0: 1424 6cbd b9bc 883e 377c b0bd 663c 6c3e
000002b0: 966b a03e dcbc 8e3e 0f76 ffbd 444f b7bd
000002c0: 8637 973e e71b fabd 26da 5f3e 9e29 313e
000002d0: 5229 91bd b004 983e 6a08 a83e 0dda 15be
000002e0: 5426 80be cdd4 ccbc 5ca8 623d 3a9b 0e3e
000002f0: 4683 af3e dfb1 303e d8d3 0a3e dfad 39be
00000300: 80c6 7b3d ae17 173e 178e e8bd b4e2 8ebe
00000310: 4ccb 1ebe 2042 0f3d dfb7 12be 6c5c 343e
00000320: 87bd f73d e585 feba 9c74 44be 1373 bebe
00000330: 397a 333e f1c9 66be 854b 80bd 938d 10be
00000340: 18ff 3c3e 7afc 0fbe 97c7 c0bc db98 e23a
00000350: 9a07 69bd b9d7 7abe 7c40 94be 5288 27be
00000360: 0823 8fbe 458e 053e 6e72 cdbc a0a1 693e
00000370: 8a0d 47be e468 28be a6c3 293e fb1c 8dbd
00000380: 4744 c9bc 14d3 103e 07d3 2dbe b981 1bbe
00000390: 952f dcbd 4280 e83d 7918 3fbd 4f10 90be
000003a0: 2d62 973d 78bc a4be 9c58 a2be 0f8b 233d
000003b0: da50 22be 247a 503e 9182 11bd 1876 91be
000003c0: 2dd3 b5be 4fa4 78be 0fa1 83be 350e 2b3e
000003d0: 85bb b13d d441 24bd 7082 a9be ab34 e9bd
000003e0: 8f75 d7bd 3e1c a3be d367 7f3d d365 8dbd
000003f0: 39b1 3e3e da09 95be 31b3 04be df45 71be

fc2.bias f4 [64]
0.11625395 0.116841905 0.10179396 -0.110544436 0.111221 -0.0808522 -0.143193 0.036539212
-0.039599735 0.08242714 0.2909936 0.19186361 0.21457933 0.06933428 0.10342651 0.03514542
-0.04129398 0.19527863 0.16242492 0.14286213 0.090553954 0.14102069 0.054452494 0.37432188
-0.18241505 0.32421514 0.30052564 0.18093282 0.10563869 0.104166165 0.016478017 0.030001499
0.037068214 0.07896005 0.05786543 0.11883257 0.0857456 0.017162079 0.08736192 0.06560949
0.081826225 0.024167405 0.05739831 0.18009333 -0.056360774 0.09711787 0.006959405 0.1068001
0.20582496 -0.15239546 0.23960903 0.21940169 0.11489559 0.07787996 0.23506911 0.098894075
0.23315428 0.12919077 0.19089177 0.2564961 0.13736854 -0.13556719 0.23034245 -0.017630296
00000000: 8d16 ee3d cf4a ef3d 5a79 d03d 1f65 e2bd
00000010: d6c7 e33d d795 a5bd 30a1 12be 24aa 153d
00000020: 5533 22bd 8fcf a83d 1dfd 943e e577 443e
00000030: afba 5b3e 22ff 8d3d 47d1 d33d a5f4 0f3d
00000040: e023 29bd 1ff7 473e b852 263e 734a 123e
00000050: 5a74 b93d ba67 103e 9409 5f3d 1ea7 bf3e
00000060: 03cb 3abe 87ff a53e 7fde 993e 7446 393e
00000070: 1959 d83d 1255 d53d e8fc 863c b4c5 f53c
00000080: d7d4 173d cfb5 a13d 4d04 6d3d 7e5e f33d
00000090: 649b af3d 7d97 8c3c ceea b23d 455e 863d
000000a0: 8294 a73d b9fa c53c 7e1a 6b3d 636a 383e
000000b0: 8eda 66bd bce5 c63d b80b e43b 03ba da3d
000000c0: c7c3 523e 8e0d 1cbe 125c 753e d6aa 603e
000000d0: 614e eb3d 877f 9f3d f5b5 703e fa88 ca3d
000000e0: ffbf 6e3e 964a 043e 2279 433e 7553 833e
000000f0: 57aa 0c3e 20d2 0abe e4de 6b3e 696d 90bc

pi.weight f4 [5, 64]
-0.10912883 -0.30269635 -0.07125497 0.4208855 -0.31740448 -0.25020033 -0.15768361 -0.03036883
0.0504411 -0.08593205 0.1756296 -0.19839008 0.12824057 0.08091003 0.16521095 -0.23823789
-0.31707016 -0.38152483 -0.17952195 -0.4857999 0.03743202 -0.16196524 0.2114447 -0.5378878
0.43069607 0.078160614 -0.49898815 -0.3243507 -0.18048272 0.15056625 -0.16395764 -0.35727605
0.21632585 -0.4989271 -0.04528575 0.10205057 0.10808952 0.1575518 0.26908872 -0.2980865
-0.47828218 -0.3090104 0.20603377 -0.08451097 0.32227615 -0.40720296 -0.44034955 -0.09119793
-0.12792668 0.42573148 -0.39134318 -0.56476766 0.19891308 -0.08524603 0.17626408 0.001492132
-0.57466626 -0.16649887 -0.5062584 -0.012454364 0.1523432 0.4286362 -0.42534834 0.16775224
-0.33762267 0.2132683 0.04311534 -0.6534845 0.0057560895 -0.091955386 0.20323522 0.30585116
0.08614316 0.15172952 -0.18926601 -0.061037127 -0.31861126 -0.04542164 -0.08375898 0.20404756
0.13049728 0.2700365 0.3605187 -0.22937043 -0.40309793 0.19445536 -0.32772338 0.07563523
-0.5576553 -0.21165472 -0.29854304 -0.06310831 0.08129454 -0.6285831 0.23904689 0.22621797
0.3452312 0.3389619 -0.04772893 0.073030576 -0.0038833644 0.02308198 -0.2599606 0.03239308
-0.27284113 0.05700954 -0.005290177 0.19172458 -0.4929803 0.06191375 -0.06723797 -0.44255337
0.36398897 0.2601651 0.2540967 -0.23531084 0.1411668 -0.47325996 0.2422252 0.3660619
0.14582856 0.25073737 0.046061013 -0.27096877 0.24313319 -0.33611235 -0.41162643 -0.03871425
-0.260753 0.19427513 -0.29081216 0.5550508 -0.14408833 0.073032424 0.15455726 -0.19726275
0.003474042 -0.667951 -0.5115541 -0.027698368 0.18769468 0.26199198 -0.5342579 -0.8177923
-0.3184848 -0.16255529 -0.72219485 -0.515437 0.30134976 -0.010657294 -0.20503408 -0.05547749
0.28012073 -0.18615279 0.11425588 0.14935102 -0.18070379 -0.39185664 -0.6658351 -0.08796667
0.014200689 0.2175895 -0.22652127 -0.19470902 -0.24127777 -0.065489635 0.0136512695 0.09303153
-0.14280482 -0.17953038 0.06868045 -0.41613507 0.33878568 -0.11451538 0.085009776 0.026747845
-0.14981112 0.38974875 -0.18381937 -0.35819042 -0.6219902 -0.2350395 -0.08472244 0.029095184
0.08367312 -0.39480373 0.039464917 -0.15840794 -0.49303633 0.4779156 -0.02811771 -0.5189622
-0.5033474 -0.22830315 -0.33847874 0.29650086 0.2012131 -0.24312475 -0.16107856 0.20528917
-0.11918562 -0.1075678 -0.37042958 -0.17524923 0.36984017 0.2224124 -0.3249253 0.101882495
0.2221198 0.11553148 -0.18897487 -0.25393826 0.43792236 -0.112236075 -0.005663496 -0.30360124
-0.058431473 0.18133341 0.30392647 -0.1810346 0.11404951 0.38055754 -0.13999642 -0.041352402
-0.16778965 0.1944341 -0.19603127 0.15910521 0.059731357 -0.40981293 -0.24291067 -0.33689782
-0.02945762 0.015059882 -0.24651656 0.15720429 0.15646456 -0.14599799 -0.2722361 -0.20462744
-0.4096785 0.14001617 -0.036311332 0.22269161 -0.41639706 0.34253484 -0.39310667 -0.37483785
-0.3540396 -0.30972385 -0.19896577 0.115807354 -0.025585366 0.03548288 -0.22809383 0.036007553
00000000: f07e dfbd 04fb 9abe 20ee 91bd 4e7e d73e
00000010: d782 a2be 421a 80be d077 21be 0dc8 f8bc
00000020: 549b 4e3d 25fd afbd 3fd8 333e c526 4bbe
00000030: 7f51 033e 28b4 a53d 0f2d 293e a2f4 73be
00000040: 0557 a2be 3957 c3be 9ad4 37be c4ba f8be
00000050: 5152 193d 37da 25be f684 583e 04b3 09bf
00000060: 3284 dc3e ac12 a03d 607b ffbe 4c11 a6be
00000070: 76d0 38be 0a2e 1a3e 83e4 27be e3ec b6be
00000080: 8684 5d3e 5f73 ffbe 8d7d 39bd e4ff d03d
00000090: 0a5e dd3d 4255 213e ffc5 893e cb9e 98be
000000a0: 67e1 f4be 9c36 9ebe 84fa 523e 1614 adbd
000000b0: 6101 a53e e87c d0be 7f75 e1be fbc5 babd
000000c0: 36ff 02be 7af9 d93e 225e c8be 9d94 10bf
000000d0: dfaf 4b3e 7895 aebd 927e 343e a493 c33a
000000e0: 541d 13bf ae7e 2abe 279a 01bf 640d 4cbc
000000f0: dbff 1b3e 3476 db3e 42c7 d9be 3ec7 2b3e
00000100: e1dc acbe 0163 5a3e b699 303d c34a 27bf
00000110: 949d bc3b 1b53 bcbd e51c 503e 8698 9c3e
00000120: d36b b03d fc5e 1b3e f3ce 41be 1102 7abd
00000130: 0421 a3be 0b0c 3abd d489 abbd d8f1 503e
00000140: 14a1 053e 3942 8a3e e895 b83e 15e0 6abe
00000150: da62 cebe 4e1f 473e 5ccb a7be a5e6 9a3d
00000160: 7fc2 0ebf 04bc 58be a2da 98be ee3e 81bd
00000170: c07d a63d d2ea 20bf b5c8 743e afa5 673e
00000180: 25c2 b03e 6a8c ad3e 697f 43bd 0e91 953d
00000190: 0b80 7ebb 6c16 bd3c 8e19 85be 9bae 043d
000001a0: d5b1 8bbe d682 693d 3959 adbb 7353 443e
000001b0: ea67 fcbe 4699 7d3d 10b4 89bd 5b96 e2be
000001c0: c35c ba3e 5c34 853e f618 823e 53f5 70be
000001d0: 088e 103e 214f f2be e209 783e 776c bb3e
000001e0: 1554 153e a660 803e 79aa 3c3d 6bbc 8abe
000001f0: e8f7 783e eb16 acbe b3c0 d2be d592 1ebd
00000200: 6b81 85be 0ff0 463e 55e5 94be cf17 0e3f
00000210: e48b 13be 0692 953d 4244 1e3e 3fff 49be
00000220: c1ac 633b d6fe 2abf 36f5 02bf b0e7 e2bc
00000230: 0933 403e d023 863e 20c5 08bf d65a 51bf
00000240: 7110 a3be e574 26be c3e1 38bf aef3 03bf
00000250: 844a 9a3e ee9b 2ebc 74f4 51be 5d3c 63bd
00000260: fc6b 8f3e d69e 3ebe fdfe e93d 79ef 183e
00000270: 6a0a 39be 6fa1 c8be 2b74 2abf df27 b4bd
00000280: 02aa 683c c8cf 5e3e 31f5 67be cd61 47be
00000290: 8511 77be 6e1f 86bd 93a9 5f3c 5187 be3d
000002a0: 6d3b 12be d0d6 37be 56a8 8c3d a80f d5be
000002b0: 5175 ad3e 0a87 eabd 9b19 ae3d 4c1e db3c
000002c0: 1668 19be 268d c73e 253b 3cbe bc64 b7be
000002d0: c03a 1fbf 32ae 70be f582 adbd 0659 ee3c
000002e0: d05c ab3d b723 cabe f7a5 213d b135 22be
000002f0: 426f fcbe 5bb1 f43e 1d57 e6bc b5da 04bf
00000300: 60db 00bf 4dc8 69be 164d adbe f6ce 973e
00000310: cf0a 4e3e b2f5 78be c7f1 24be 5337 523e
00000320: 9717 f4bd 824c dcbd f2a8 bdbe 8974 33be
00000330: b15b bd3e 14c0 633e 9c5c a6be c5a7 d03d
00000340: 5f73 633e c59b ec3d a182 41be 3204 82be
00000350: 5c37 e03e 07dc e5bd d994 b9bb 9f71 9bbe
00000360: d755 6fbd 77af 393e 409c 9b3e 2261 39be
00000370: ca92 e93d 70d8 c23e 395b 0fbe 2361 29bd
00000380: 0dd1 2bbe bc19 473e 6cbc 48be 7aec 223e
00000390: dea8 743d 00d3 d1be 93bd 78be df7d acbe
000003a0: 1b51 f1bc b9bd 763c d66e 7cbe 29fa 203e
000003b0: 3f38 203e 7f80 15be 8862 8bbe db89 51be
000003c0: 61c1 d1be 6660 0f3e 31bb 14bd 4509 643e
000003d0: ff31 d5be ba60 af3e 4745 c9be bfea bfbe
000003e0: ae44 b5be 2094 9ebe afbd 4bbe 682c ed3d
000003f0: 6798 d1bc 7f56 113d 6e91 69be a87c 133d

pi.bias f4 [5]
-0.26076913 0.014748174 -0.27808425 0.021797033 0.09039157
00000000: 8883 85be 53a2 713c 0f61 8ebe b18f b23c
00000010: 371f b93d
