matd3/model/simple_tag/agent_0/81_actor_params.pth (torch, 41911 bytes, 8 tensors)

fc1.weight f4 [64, 16]
0.07035111 0.35015422 -0.1691988 0.09742784 -0.13396622 -0.2143652 -0.118572325 0.38353646
0.28415957 -0.18319438 -0.30378643 0.9160035 -0.58952063 -0.7279916 0.042957775 -0.2124004
-0.0141155645 -0.028801145 0.24653967 -0.5283374 -0.29588732 -0.15521717 -0.30055425 0.7996359
0.067283094 0.1534825 0.047038633 0.11980179 -0.047070187 -0.78853744 0.18197875 -0.064142585
0.040870328 -0.0759846 0.3678465 -0.1693302 0.023652203 -0.35128245 0.02797083 -0.22570771
0.36508703 0.41577405 0.10004645 -0.33072436 -0.66036206 -0.5090963 -0.1060008 0.110867515
-0.0344416 0.09525284 0.0016292224 -0.011256687 0.11262417 -0.23523025 0.24851939 -0.06386606
-0.14640749 -0.10067553 -0.2359644 -0.47386673 0.93746614 0.46490017 -0.09431587 -0.027076107
0.023218527 -0.014916626 0.104670584 0.16159374 0.2432799 0.06537915 -0.024269994 0.0016979856
0.22138618 0.07672882 -0.081301324 0.51167005 0.118142344 -0.15198652 -0.18846135 0.14892739
0.15080665 0.15991701 -0.16601269 -0.10372874 -0.060073417 -0.20829093 -0.36414328 0.114504546
0.12413377 0.12642354 -0.17695096 -0.16210847 -0.48565438 -0.42058572 -0.017063187 0.053186912
-0.06277868 -0.22266507 -0.081856124 -0.21716045 0.41632983 -0.03950267 0.03990073 -0.15594666
-0.35517547 -0.49803573 0.026156915 0.017717542 0.37258688 0.0428817 -0.39262512 0.37901953
-0.09502871 0.006154173 -0.30636278 -0.46119612 0.32926005 -0.019895041 0.42218238 0.18817723
-0.032673124 -0.07745845 -0.39698854 -0.19374116 -0.221706 1.0108823 -0.042562515 0.478372
-0.112601265 0.060531233 -0.17327347 0.11934638 0.06124092 0.16956706 -0.013088805 -0.0031720595
-0.2646707 -0.09768766 0.41839066 -0.047259845 -0.12466751 -1.9139557 0.06943113 -0.17543483
0.0982871 0.04935596 0.08353601 0.09363627 -0.056248754 0.14765625 0.01845459 -0.04452982
-0.4400282 -0.12544806 0.3596364 0.3590861 0.17728467 0.75395095 0.038999017 0.016478013
-0.28520668 -0.1981242 -0.05925179 -0.2061344 0.14874925 0.11420566 -0.013059992 -0.28624272
0.11040281 0.38224205 0.1279673 -0.28497374 1.980487 0.15516284 0.32430446 -0.0677518
-0.032850716 -0.3101974 -0.37423873 -0.6438119 0.07131354 0.2759322 -0.29025874 0.5922628
-0.46324325 -0.006793002 -0.031725947 0.13079515 -0.10806228 1.7918375 0.12984367 0.046357978
0.17001441 -0.04078046 -0.042712886 -0.57402897 0.40358108 -0.39820632 -0.025653645 -0.31018054
-0.017763063 -0.076934166 -0.20719007 -0.14477992 0.44681844 -0.45771924 -0.20690103 -0.08078919
0.05040479 -0.20363922 -0.3130782 0.40022364 -0.23482668 -0.06278684 -0.10930383 0.07380146
-0.097902246 -0.48166475 -0.5964875 0.40843466 0.26157987 -0.6032998 -0.229254 -0.072182514
-0.2558455 -0.17024682 0.12567808 -0.3380013 -0.067408085 -0.16461584 0.40504116 -0.18776016
-0.15672524 -0.22584718 0.13046534 0.14887391 1.3147942 -0.23438501 0.16596906 -0.1871194
0.07377795 0.115944795 0.28737295 0.43286335 0.011631011 -0.05978458 -0.35106587 0.06486822
0.048424486 -0.08971411 -0.045276564 -0.22588849 0.521522 -1.7642655 0.060481686 0.082982905
00000000: 3e14 903d 6a47 b33e 7342 2dbe 3f88 c73d
00000010: 712e 09be 8d82 5bbe 0cd6 f2bd e45e c43e
00000020: 5d7d 913e 4f97 3bbe e589 9bbe 357f 6a3f
00000030: d3ea 16bf a85d 3abf 7ef4 2f3d 7e7f 59be
00000040: f844 67bc 61f0 ebbc e574 7c3e 1f41 07bf
00000050: 8b7e 97be 40f1 1ebe 3fe2 99be f0b4 4c3f
00000060: b8cb 893d 842a 1d3e 95ab 403d a45a f53d
00000070: abcc 40bd 97dd 49bf a358 3a3e 305d 83bd
00000080: a567 273d d09d 9bbd 6056 bc3e e564 2dbe
00000090: 44c2 c13c 4bdb b3be 1523 e53c ec1f 67be
000000a0: b0ec ba3e 56e0 d43e 27e5 cc3d b454 a9be
000000b0: 7d0d 29bf 2354 02bf f316 d9bd 820e e33d
000000c0: a312 0dbd ec13 c33d a28b d53a f86d 38bc
000000d0: 80a7 e63d 33e0 70be de7b 7e3e 35cc 82bd
000000e0: d8eb 15be f92e cebd a7a0 71be a99e f2be
000000f0: c8fd 6f3f 6507 ee3e ae28 c1bd b6ce ddbc
00000100: c834 be3c dd64 74bc 885d d63d d478 253e
00000110: 5e1e 793e 81e5 853d ded1 c6bc f18e de3a
00000120: 0fb3 623e 0024 9d3d 4f81 a6bd cffc 023f
00000130: 9df4 f13d 5ba2 1bbe 03fc 40be 6c80 183e
00000140: 0f6d 1a3e 49c1 233e 3bff 29be bc6f d4bd
00000150: 8b0f 76bd 384a 55be fd70 babe 5c81 ea3d
00000160: d939 fe3d 2c75 013e a232 35be c3ff 25be
00000170: b1a7 f8be 0357 d7be 19c8 8bbc 85da 593d
00000180: 1c92 80bd 5002 64be 2fa4 a7bd 4f5f 5ebe
00000190: 2f29 d53e 8dcd 21bd f36e 233d 7bb0 1fbe
000001a0: 8fd9 b5be 8afe febe 0747 d63c 6124 913c
000001b0: b5c3 be3e b9a4 2f3d 2906 c9be d90e c23e
000001c0: 6a9e c2bd f2a8 c93b 95db 9cbe e621 ecbe
000001d0: c694 a83e edfa a2bc 4a28 d83e 88b1 403e
000001e0: 41d4 05bd 89a2 9ebd 1542 cbbe 1564 46be
000001f0: e606 63be 9764 813f 0856 2ebd 2ded f43e
00000200: 7e9b e6bd 99ef 773d 9a6e 31be e06b f43d
00000210: c2d7 7a3d fda2 2d3e 6d72 56bc 54e2 4fbb
00000220: eb82 87be 7810 c8bd 4d37 d63e 8a93 41bd
00000230: ae51 ffbd 80fc f4bf e931 8e3d 30a5 33be
00000240: bf4a c93d 7a29 4a3d ed14 ab3d 5fc4 bf3d
00000250: 1865 66bd 3333 173e 152e 973c e764 36bd
00000260: 604b e1be 7575 00be 4322 b83e 22da b73e
00000270: 1d8a 353e ee02 413f 6fbd 1f3d e6fc 863c
00000280: 9c06 92be 12e1 4abe 01b2 72bd e514 53be
00000290: b951 183e a8e4 e93d 94f9 55bc 688e 92be
000002a0: de1a e23d 3bb5 c33e dc09 033e 14e8 91be
000002b0: 9980 fd3f 02e3 1e3e 3c0b a63e 75c1 8abd
000002c0: 798e 06bd 32d2 9ebe 389c bfbe dbd0 24bf
000002d0: d50c 923d fc46 8d3e cb9c 94be 899e 173f
000002e0: 382e edbe d597 debb 11f3 01bd 2aef 053e
000002f0: c24f ddbd ee5a e53f bdf5 043e dde1 3d3d
00000300: 4218 2e3e 6909 27bd b5f3 2ebd 90f3 12bf
00000310: 2ea2 ce3e b3e1 cbbe 9827 d2bc fccf 9ebe
00000320: d883 91bc a98f 9dbd a229 54be 3041 14be
00000330: 63c5 e43e 2d5a eabe dddd 53be ce74 a5bd
00000340: 4175 4e3d cd86 50be c94b a0be 1dea cc3e
00000350: 6876 70be 6396 80bd b0da dfbd 3825 973d
00000360: f980 c8bd c39c f6be 68b3 18bf 591e d13e
00000370: cced 853e db71 1abf 90c1 6abe 6dd4 93bd
00000380: 2efe 82be 2f55 2ebe c1b1 003e 820e adbe
00000390: 400d 8abd 0e91 28be 8e61 cf3e 3344 40be
000003a0: 957c 20be 7c44 67be b598 053e 6772 183e
000003b0: 2d4b a83f a002 70be cbf3 293e 3a9c 3fbe
000003c0: e518 973d 7774 ed3d 8c22 933e 44a0 dd3e
000003d0: ff8f 3e3c ade0 74bd e8be b3be a1d9 843d
000003e0: c158 463d 08bc b7bd eb73 39bd 504f 67be
000003f0: 7782 053f 74d3 e1bf a5bb 773d f1f2 a93d

fc1.bias f4 [64]
0.019574126 -0.116969794 0.00062190375 0.32359228 0.68595266 0.24393852 0.17307425 0.44218177
0.47963214 -0.0024213095 0.14529954 -0.2039645 0.4319083 0.23583412 -0.1710593 0.19519038
0.48148483 -0.16076119 0.14636289 -0.15524814 -0.2869256 -0.31243357 0.2933605 0.2634127
-0.15765433 0.5109405 0.01974021 0.071457475 0.37375072 -0.12558141 0.2553782 0.2835964
-0.17634344 -0.24069543 0.47641036 0.12532634 0.13815205 -0.094065286 0.2585679 -0.20089562
0.17336 0.0014748783 0.20793837 -0.042589054 -0.30360407 -0.0044577764 0.32540828 0.31794864
0.27962455 0.3126958 0.24088103 0.30431354 -0.28280336 0.5798087 0.33236304 0.3610262
0.34050795 0.14154851 0.32238296 0.086319916 -0.025135893 -0.12266537 0.12406121 0.04099846
00000000: eb59 a03c dc8d efbd 4107 233a e3ad a53e
00000010: 989a 2f3f 05cb 793e 603a 313e a665 e23e
00000020: 5892 f53e d5ae 1ebb 67c9 143e 12dc 50be
00000030: 1623 dd3e 807e 713e 2b2a 2fbe fddf 473e
00000040: 2e85 f63e 959e 24be 27e0 153e 5ef9 1ebe
00000050: eae7 92be 4bf7 9fbe 5933 963e 08de 863e
00000060: 2370 21be ffcc 023f 39b6 a13c 4c58 923d
00000070: 415c bf3e 6a98 00be eec0 823e 8c33 913e
00000080: 6093 34be dd78 76be 0fec f33e 8c55 003e
00000090: bb77 0d3e 4da5 c0bd 0363 843e 95b7 4dbe
000000a0: 4985 313e b450 c13a cced 543e dc71 2ebd
000000b0: fe71 9bbe 8a12 92bb ea9b a63e 2aca a23e
000000c0: f32a 8f3e aa19 a03e 84a9 763e fcce 9b3e
000000d0: 9acb 90be 586e 143f 7d2b aa3e 6dd8 b83e
000000e0: 0f57 ae3e 18f2 103e 610f a53e 7fc8 b03d
000000f0: cae9 cdbc fb37 fbbd ce13 fe3d 00ee 273d

fc2.weight f4 [64, 64]
0.034901142 0.03282892 -0.1234602 0.08716638 -0.033683106 0.25846827 0.18219455 -0.14302316
0.06962679 0.12812078 -0.08831518 -0.14744686 -0.29669273 -0.24086975 0.24237989 0.2678621
0.1085272 -0.00034925897 0.20567694 0.07254324 0.014853624 -0.12521021 0.09499007 -0.014906363
0.10559818 -0.25741833 -0.24074014 -0.104848325 0.23047839 0.04285388 -0.076528445 0.3492494
-0.18381943 0.22745587 -0.103426196 -0.066371456 0.23239672 -0.12447628 -0.24993327 -0.08526542
-0.08911552 -0.22929756 0.4620686 -0.02603678 0.4923028 0.23597562 -0.22394364 -0.41474894
0.4980256 0.067326635 0.2781982 -0.47761303 -0.11245156 0.29065585 0.18412873 0.085897274
0.25476983 -0.01050005 -0.103276245 -0.34650856 -0.28050295 -0.33388317 0.38921776 0.044256806
-0.034805894 0.12128855 0.19432685 -0.17065036 0.11184849 0.5016266 0.18698446 -0.13030542
0.35197663 0.16553971 0.0153262615 -0.5785698 0.07234964 0.2206102 -0.284856 -0.21401587
0.19834621 -0.18763065 -0.05946036 0.19495098 0.2557408 -0.38529998 0.05443317 0.35125032
-0.30938378 0.43213728 0.086489156 -0.06809079 0.22371852 0.25500822 -0.2119503 0.549817
-0.18675292 0.06010578 -0.04460031 0.10976441 0.43221536 0.14454323 -0.038926553 0.2822709
0.24490781 0.14910087 0.0062468033 0.2754487 0.05828279 -0.13442592 0.07480563 0.05843715
0.18670717 0.34304118 -0.24987535 -0.13626343 -0.120446354 0.4470509 0.31080914 0.30242357
-0.14473712 -0.19457516 0.28230053 0.02123157 -0.16172545 -0.4607486 0.044518147 -0.25976312
0.30464643 0.4188613 0.25873604 0.11560736 -0.14922598 0.18781139 -0.27470315 0.18777783
-0.17724058 -0.08530823 0.043374475 -0.18853635 0.008586718 0.2926197 -0.01770609 -0.18956009
-0.08348015 -0.008252547 0.13676803 0.159208 -0.026604896 -0.24715666 -0.43248904 0.48545492
0.07342522 0.26459718 0.24643865 -0.026514728 0.24815735 -0.15168095 0.15452519 -0.12658831
0.12287481 0.32257313 -0.0031191208 0.31356457 0.020495972 0.20848122 -0.27128214 0.23508373
0.56479776 0.017549831 -0.111629084 -0.18048196 0.05638843 0.088484205 0.21071309 -0.0986494
-0.23473519 -0.064031065 0.25694737 0.120399974 0.14187069 0.3753332 0.06717714 0.09492697
-0.20350903 -0.3423229 -0.26864114 -0.241628 -0.04985843 -0.22657953 0.41834933 0.10852971
0.21606581 0.37034026 0.24671578 -0.23463784 0.14392932 0.24033952 -0.067564316 -0.03186683
-0.010162976 0.13197511 -0.19489813 -0.42385253 0.13967831 0.44219834 -0.42423424 0.19508697
-0.3290475 -0.16499998 -0.09946294 0.49733672 0.53443235 0.12681367 -0.2696536 -0.3457618
0.14815523 -0.089480534 0.16430706 -0.013558482 -0.11090903 -0.282389 0.1948109 0.03553363
0.3285715 -0.038957473 -0.23262574 0.004133423 0.21179819 0.1989061 -0.20199771 -0.13623431
0.30445164 0.15822543 0.036953326 0.098310575 0.2866455 0.41153395 0.06695765 0.17459846
-0.13805823 -0.3366718 0.2451001 0.019738505 -0.6371833 -0.35899538 0.6613319 0.3304084
-0.29113516 0.11275171 0.14450344 -0.20948222 -0.41531312 0.020360995 -0.20495667 -0.24402761
00000000: 80f4 0e3d 9e77 063d b4d8 fcbd 4984 b23d
00000010: 4cf7 09bd f455 843e 3591 3a3e aa74 12be
00000020: 7e98 8e3d 1832 033e 97de b4bd 4ffc 16be
00000030: 1ce8 97be 8fa6 76be 6f32 783e 3925 893e
00000040: 8243 de3d bf1c b7b9 fa9c 523e 8d91 943d
00000050: 9d5c 733c 1b37 00be 278a c23d d139 74bc
00000060: dc43 d83d 56cc 83be 9584 76be b8ba d6bd
00000070: 8702 6c3e 8d87 2f3d f2ba 9cbd d1d0 b23e
00000080: 293b 3cbe 31ea 683e 1dd1 d3bd c2ed 87bd
00000090: 68f9 6d3e 6bed febd 82ee 7fbe a39f aebd
000000a0: 3382 b6bd fbcc 6abe 4194 ec3e 164b d5bc
000000b0: 1d0f fc3e 98a3 713e 7b51 65be f959 d4be
000000c0: 36fd fe3e 8ce2 893d ff6f 8e3e b289 f4be
000000d0: 014d e6bd d8d0 943e 3e8c 3c3e e9ea af3d
000000e0: 3171 823e 6708 2cbc 7f82 d3bd 9269 b1be
000000f0: 159e 8fbe bcf2 aabe 8d47 c73e a046 353d
00000100: a090 0ebd 2266 f83d 9efd 463e f8be 2ebe
00000110: d210 e53d 9a6a 003f db78 3f3e c96e 05be
00000120: 4836 b43e 3e83 293e 001b 7b3c 271d 14bf
00000130: 0c2c 943d a4e7 613e a5d8 91be fa26 5bbe
00000140: 451b 4b3e 4022 40be b58c 73bd 3ba1 473e
00000150: 75f0 823e 0a46 c5be 51f5 5e3d 15d7 b33e
00000160: 8d67 9ebe 1941 dd3e 3a21 b13d 2f73 8bbd
00000170: 7816 653e 7090 823e 8009 59be cfc0 0c3f
00000180: 283c 3fbe 7a31 763d d1ae 36bd 2acc e03d
00000190: 554b dd3e 2403 143e 7371 1fbd d085 903e
000001a0: 1dc9 7a3e e6ad 183e fcb1 cc3b 9d07 8d3e
000001b0: efb9 6e3d f3a6 09be b233 993d cb5b 6f3d
000001c0: 2a30 3f3e 18a3 af3e 53df 7fbe a488 0bbe
000001d0: 94ac f6bd dbe3 e43e 6022 9f3e 43d7 9a3e
000001e0: f835 14be b63e 47be b289 903e d4ed ad3c
000001f0: 5b9b 25be 3ee7 ebbe a958 363d acff 84be
00000200: 9efa 9b3e fd74 d63e 0d79 843e 8dc3 ec3d
00000210: b2ce 18be a151 403e e4a5 8cbe d548 403e
00000220: 8e7e 35be 15b6 aebd 6fa9 313d ac0f 41be
00000230: 4eaf 0c3c 40d2 953e 5d0c 91bc 0a1c 42be
00000240: a4f7 aabd b135 07bc eb0c 0c3e 6c07 233e
00000250: 83f2 d9bc a316 7dbe 346f ddbe 8c8d f83e
00000260: f65f 963d 4879 873e 6a5a 7c3e 6a35 d9bc
00000270: f61c 7e3e 4052 1bbe da3b 1e3e 5ea0 01be
00000280: caa5 fb3d 4e28 a53e 2a6a 4cbb 898b a03e
00000290: 2be7 a73c 1a7c 553e 7ee5 8abe cab9 703e
000002a0: 9696 103f aac4 8f3c ca9d e4bd 43d0 38be
000002b0: 8ef7 663d 3537 b53d 2cc5 573e b208 cabd
000002c0: 6c5e 70be b822 83bd 9b8e 833e 4394 f63d
000002d0: 8d46 113e ac2b c03e 2b94 893d 1269 c23d
000002e0: ac64 50be f244 afbe 558b 89be 556d 77be
000002f0: 5a38 4cbd 7704 68be e231 d63e d344 de3d
00000300: 5b40 5d3e 3d9d bd3e 10a3 7c3e e744 70be
00000310: 3562 133e 901b 763e 295f 8abd cb86 02bd
00000320: 9c82 26bc 7c24 073e 6093 47be 3303 d9be
00000330: d507 0f3e d267 e23e 3b35 d9be e1c4 473e
00000340: ea78 a8be c1f5 28be 3ab3 cbbd eba2 fe3e
00000350: 8fd0 083f 71db 013e 0910 8abe b107 b1be
00000360: 01b6 173e 9241 b7bd 1c40 283e 6524 5ebc
00000370: 4624 e3bd 4a95 90be 827c 473e b68b 113d
00000380: 863a a83e df91 1fbd 7135 6ebe aa71 873b
00000390: a0e1 583e 0aae 4b3e 7dd8 4ebe 0281 0bbe
000003a0: 16e1 9b3e d905 223e 5f5c 173d 0e57 c93d
000003b0: 33c3 923e 94b4 d23e 1821 893d f0c9 323e
000003c0: 235f 0dbe 3f60 acbe 85fb 7a3e a5b2 a13c
000003d0: 721e 23bf 3ece b7be 0c4d 293f 4a2b a93e
000003e0: ab0f 95be 5eea e63d b6f8 133e 8282 56be
000003f0: eca3 d4be 1acc a63c 29e0 51be 60e2 79be

fc2.bias f4 [64]
0.14117207 0.032559272 -0.027584573 -0.17555422 0.024265524 -0.45880583 0.2046014 0.068651
0.059368942 -0.20961978 0.07954392 -0.082395926 -0.017530888 0.18449506 -0.060812157 0.12163464
0.019761993 0.07626016 0.20535572 -0.070135415 0.1955428 0.017738732 0.14901538 0.14913864
0.09407927 0.15509571 -0.024141217 0.012076305 -0.13841188 -0.083023906 0.09291255 0.11233452
0.34321544 -0.0057468386 0.21674278 -0.042873334 -0.043157812 0.2901466 0.03915394 -0.07851359
-0.050195616 -0.023171443 0.26480624 0.11653753 0.10716627 0.13900107 0.11258729 -0.11523098
-0.28095284 -0.019913435 0.15386903 0.30539268 -0.055932213 0.085445 0.103431374 0.15262446
0.2623298 -0.037541453 0.23275 -0.04643896 0.022989664 0.02286932 -0.26800245 -0.18028615
00000000: 698f 103e df5c 053d 0bf9 e1bc 7cc4 33be
00000010: 7ec8 c63c 99e8 eabe 0883 513e e598 8c3d
00000020: d92c 733d 91a6 56be ece7 a23d 32bf a8bd
00000030: f09c 8fbc 46ec 3c3e 2b16 79bd 951b f93d
00000040: e7e3 a13c 492e 9c3d c548 523e 28a3 8fbd
00000050: 5f3c 483e d150 913c 7d97 183e cdb7 183e
00000060: a2ac c03d 69d1 1e3e cdc3 c5bc b2db 453c
00000070: d8bb 0dbe 7008 aabd ef48 be3d a40f e63d
00000080: efb9 af3e fa4f bcbb d2f1 5d3e f39b 2fbd
00000090: 3fc6 30bd 188e 943e e25f 203d bccb a0bd
000000a0: eb99 4dbd 0ad2 bdbc af94 873e 3bab ee3d
000000b0: fd79 db3d 4c56 0e3e 2a94 e63d 38fe ebbd
000000c0: 0dd9 8fbe 8021 a3bc d88f 1d3e 6e5c 9c3e
000000d0: 2d19 65bd cafd ae3d d4d3 d33d 9649 1c3e
000000e0: 1750 863e 11c5 19bd 0456 6e3e c736 3ebd
000000f0: d254 bc3c 7158 bb3c 9e37 89be ef9c 38be

fc3.weight f4 [64, 64]
-0.21153967 -0.08012758 0.116587244 0.02578529 -0.0042432086 0.57451797 0.120300256 -0.017691564
0.21634363 -0.06299272 0.20118956 -0.3943329 0.15735532 -0.46509808 -0.5149211 -0.40444914
0.21326044 -0.051056772 -0.300962 -0.2403241 0.5015734 0.040282298 0.60123247 -0.19532321
0.09929476 0.10421584 -0.00828561 0.2949235 0.41161954 -0.0058984226 -0.27638707 0.01959577
0.08996091 0.41138116 0.056148447 0.23118322 0.20523705 -0.15143721 0.14321494 -0.2624693
-0.14745425 -0.3758529 0.117382176 -0.20591584 0.24473122 0.24439187 0.11538499 -0.0504877
-0.51109266 0.1533594 -0.21008477 0.2757352 0.39328432 0.021575902 -0.12304391 0.012426962
-0.21344389 0.3195362 -0.4243662 0.24308608 -0.29523307 -0.30139154 -0.049339067 -0.017229605
-0.0103361 -0.088664606 -0.33463696 -0.36753452 -0.09218841 -0.24879576 0.07824864 -0.10083316
-0.07163809 0.05964128 0.2329561 0.29782528 0.02417162 0.16037013 0.028302103 0.40160254
-0.7566442 0.11686515 0.5505783 -0.117789686 -0.017254792 0.20064574 -0.37009707 -0.34902447
-0.04764916 0.14425603 -0.29772997 0.11213075 -0.613834 0.12987643 -0.005416074 0.12103034
0.34485525 -0.019156191 0.22556658 -0.03415641 0.106055394 -0.07314271 0.14425342 0.14952508
0.19179699 0.10920514 -0.12956528 0.27809212 -0.012391239 -0.422587 -0.78016424 -0.13690786
-0.10684531 0.29132015 0.1392066 0.2859728 0.14117257 -0.33496308 0.15774752 -0.10871992
-0.030415084 0.20138663 0.43617895 -0.56693435 -0.14643322 -0.5601563 -0.31884527 0.47735417
-0.39179024 -0.2298282 0.15765393 0.098102026 0.020539703 -0.6660467 0.135718 0.20540491
0.26199278 0.33394223 0.4139076 -0.7111565 -0.14092927 0.24141756 -0.11360115 -0.40750572
0.13343164 -0.40715587 -0.4956915 -0.29516688 -0.7231844 0.28993896 0.7268396 0.1596952
0.08646109 -0.20662405 0.16785225 0.16909628 0.4859737 -0.09718757 -0.4145416 0.50809234
-0.014946854 -0.45237914 0.07709913 0.2211669 -0.05107095 0.57575136 0.25741827 0.06991267
-0.26459986 -0.21276656 0.23636188 -0.28842413 -0.42476672 -0.08033431 -0.10564208 -0.3304558
-0.18582012 -0.048648994 -0.03927856 -0.36595288 -0.09615217 0.58458984 0.23853776 -0.260724
0.52033925 0.26667777 -0.156695 0.14475018 -1.0459838 -0.23268926 0.38960016 0.057148073
-0.020850329 -0.23686074 0.29667148 -0.022814997 -0.1927755 0.17135303 0.15501511 -0.5154696
0.4134136 0.3665448 0.14815623 0.059633262 -0.37813213 -0.23232451 -0.25764924 0.00078914396
-0.022392968 0.08360983 -0.068892375 0.019727461 0.15143941 0.29618633 0.08750946 -0.66047925
-0.18125181 0.029137235 0.014155247 -0.37946987 -0.4334042 0.1618902 0.2707534 -0.17746387
-0.049410425 0.3303371 0.27245238 0.044254906 -0.14846125 -0.050984688 -0.009164293 -0.21254537
0.25323486 0.15496461 -0.17736104 -0.14660995 0.20605305 0.22158438 -0.24726464 0.21053056
-0.35980266 0.5383756 0.020408163 -0.17302407 0.16603956 -0.20420717 0.0672744 -0.50651276
-0.720813 0.24544391 0.05415985 0.1741545 0.07918892 0.014344184 0.34665233 -0.18117282
00000000: db9d 58be ee19 a4bd 4bc5 ee3d ac3b d33c
00000010: 9d0a 8bbb 9c13 133f fb5f f63d e6ed 90bc
00000020: 2f89 5d3e 5402 81bd a304 4e3e 00e6 c9be
00000030: c121 213e 5621 eebe dfd1 03bf f513 cfbe
00000040: f260 5a3e e820 51bd b117 9abe 8517 76be
00000050: 1d67 003f 0dff 243d 5fea 193f cf02 48be
00000060: 0d5b cb3d 1d6f d53d 5ec0 07bc 3700 973e
00000070: ccbf d23e 8e47 c1bb 9b82 8dbe 4f87 a03c
00000080: 6d3d b83d 8da0 d23e eafb 653d 4bbb 6c3e
00000090: a929 523e 5b12 1bbe f0a6 123e 6062 86be
000000a0: 3ffe 16be cb6f c0be 1166 f03d 9adb 52be
000000b0: d29a 7a3e dd41 7a3e f74e ec3d 31cc 4ebd
000000c0: f8d6 02bf 3f0a 1d3e 7620 57be 2a2d 8d3e
000000d0: 905c c93e f2bf b03c 72fe fbbd 759a 4b3c
000000e0: 0991 5abe 409a a33e 8746 d9be 8feb 783e
000000f0: ca28 97be fe4f 9abe c317 4abd 1a25 8dbc
00000100: bf58 29bc ca95 b5bd 8955 abbe 7c2d bcbe
00000110: 47cd bcbd 51c4 7ebe d340 a03d 9e81 cebd
00000120: feb6 92bd 6a4a 743d 0b8c 6e3e 8e7c 983e
00000130: 9003 c63c 1138 243e d0d9 e73c d99e cd3e
00000140: 6fb3 41bf ff56 ef3d b3f2 0c3f b83b f1bd
00000150: ec59 8dbc 1476 4d3e 5d7d bdbe 56b3 b2be
00000160: c42b 43bd dab7 133e 1070 98be cfa4 e53d
00000170: 3a24 1dbf 54fe 043e 5279 b1bb c1de f73d
00000180: de90 b03e 72ed 9cbc edfa 663e 97e7 0bbd
00000190: 9233 d93d d8cb 95bd 2bb7 133e 1a1d 193e
000001a0: 6e66 443e f2a6 df3d c3ac 04be 1762 8e3e
000001b0: a004 4bbc 535d d8be d8b8 47bf 9331 0cbe
000001c0: b7d1 dabd ea27 953e 2d8c 0e3e 076b 923e
000001d0: 8b8f 103e 4880 abbe 9188 213e 8da8 debd
000001e0: 0e29 f9bc 4c38 4e3e d952 df3e 9c22 11bf
000001f0: 97f2 15be 6766 0fbf b03f a3be c467 f43e
00000200: bb98 c8be 1558 6bbe 0870 213e b7e9 c83d
00000210: e142 a83c 0982 2abf a9f9 0a3e aa55 523e
00000220: eb23 863e 7afa aa3e b2eb d33e 5a0e 36bf
00000230: c34f 10be 2a36 773e b8a7 e8bd 97a4 d0be
00000240: 4ea2 083e bc76 d0be 47cb fdbe 1d20 97be
00000250: 9d22 39bf e172 943e 2912 3a3f 2387 233e
00000260: 8312 b13d 4195 53be 76e1 2b3e 9327 2d3e
00000270: 8bd1 f83e 470a c7bd cc3e d4be 5712 023f
00000280: a6e3 74bc 3d9e e7be 26e6 9d3d 9379 623e
00000290: c62f 51bd 7164 133f 54cc 833e 602e 8f3d
000002a0: a279 87be 7adf 59be d908 723e 54ac 93be
000002b0: 067b d9be 5186 a4bd e05a d8bd 8131 a9be
000002c0: a147 3ebe 2b44 47bd 8ee2 20bd 2d5e bbbe
000002d0: 6eeb c4bd aea7 153f 3e43 743e 9e7d 85be
000002e0: f434 053f fd89 883e a774 20be 6439 143e
000002f0: cce2 85bf 1846 6ebe ac79 c73e 1914 6a3d
00000300: 4fce aabc 9f8b 72be 53e5 973e 84e6 babc
00000310: f166 45be 2b77 2f3e 48bc 1e3e d1f5 03bf
00000320: f3aa d33e c3ab bb3e 44b6 173e 0242 743d
00000330: 899a c1be 7ae6 6dbe 9aea 83be 8ede 4e3a
00000340: 7571 b7bc a13b ab3d 7217 8dbd 7c9b a13c
00000350: ef12 1b3e bca5 973e 2938 b33d 2b15 29bf
00000360: 139a 39be 36b1 ee3c 69eb 673c e049 c2be
00000370: 28e7 ddbe 8bc6 253e 31a0 8a3e 17b9 35be
00000380: 9662 4abd f221 a93e e17e 8b3e a244 353d
00000390: 3a06 18be 52d5 50bd d525 16bc 7ea5 59be
000003a0: 00a8 813e 0baf 1e3e 229e 35be eb20 16be
000003b0: 92ff 523e 04e7 623e f132 7dbe 5395 573e
000003c0: 0e38 b8be fcd2 093f 052f a73c 392d 31be
000003d0: 4606 2a3e af1b 51be 29c7 893d d2aa 01bf
000003e0: 3387 38bf a655 7b3e b8d6 5d3d 8f55 323e
000003f0: cd2d a23d de03 6b3c 6a7c b13e 5e85 39be

fc3.bias f4 [64]
-0.019555744 0.2793077 0.33634964 0.12326851 -0.10617885 0.2876858 -0.0468419 0.11160234
-0.06397456 -0.10685001 -0.05464608 0.07408262 0.13839234 0.16725978 -0.06129353 -0.105885446
0.112354934 0.10997509 0.040782228 -0.004460705 0.053221855 0.15863831 -0.18933955 -0.019058874
0.16865666 0.19266972 -0.0059865275 0.14703837 -0.0012998059 0.37962016 -0.058268014 -0.08129353
0.031558145 0.2324631 0.117612585 -0.040356822 -0.1695841 -0.1611685 0.25846717 -0.0033332726
-0.52694863 0.009884479 0.167345 0.1628885 -0.08081477 0.16564941 0.0017950548 -0.15215835
0.049799107 0.044501036 -0.011341501 0.09448659 0.28680718 0.053141065 0.12753615 0.063388154
0.016260449 -0.017247224 0.10070142 7.878134e-06 -0.33234373 0.15076566 -0.01778918 -0.27978975
00000000: 5e33 a0bc 6b01 8f3e 0536 ac3e 3374 fc3d
00000010: 4c74 d9bd 8e4b 933e 4bdd 3fbd c58f e43d
00000020: 1805 83bd 2ed4 dabd 91d4 5fbd a1b8 973d
00000030: b9b6 0d3e 2646 2b3e ed0e 7bbd 78da d8bd
00000040: 581a e63d 9f3a e13d 440b 273d 1b2b 92bb
00000050: 29ff 593d 1572 223e 3ae2 41be 5b21 9cbc
00000060: 55b4 2c3e 364b 453e a22a c4bb 3a91 163e
00000070: 405e aaba 935d c23e 71aa 6ebd 397d a6bd
00000080: 1d43 013d cf0a 6e3e dede f03d 324d 25bd
00000090: 74a7 2dbe 5b09 25be cf55 843e 0973 5abb
000000a0: 1be6 06bf 83f2 213c 7d5c 2b3e 3ecc 263e
000000b0: 3782 a5bd 00a0 293e 0b48 eb3a 66cf 1bbe
000000c0: 26fa 4b3d b846 363d b4d1 39bc 2f82 c13d
000000d0: 64d8 923e 72aa 593d d698 023e a6d1 813d
000000e0: a234 853c 0d4a 8dbc 8c3c ce3d 542c 0437
000000f0: f528 aabe 5062 1a3e 9dba 91bc 9a40 8fbe

pi.weight f4 [5, 64]
0.58935004 0.710826 -0.60094106 0.028434064 0.4171675 -0.2626852 0.115630016 0.19588353
1.2397494 0.52150476 -0.153446 0.64284265 0.45021787 -0.70256186 -0.8117382 -0.28951773
-0.507957 0.16348672 -0.34445012 1.0797017 0.1337947 -0.5227047 0.10205376 -0.038094305
-0.50187606 1.4205455 -0.48905054 0.34994924 -0.73113436 -0.21685758 0.09891598 -0.35922825
-0.15335229 -0.7176696 0.10275996 0.32874164 -0.20456623 -0.89321923 0.18565965 -1.01884
-0.4740088 -0.6518462 0.40347636 -0.42446145 -0.36712477 0.29444256 0.08440694 0.7632854
0.332963 0.89354235 -0.598818 0.63049287 -0.7424064 -0.35082301 0.64313173 -0.8320007
0.87194496 0.40969977 0.31458977 0.20935705 -0.43956313 -0.20003262 -0.28352147 0.26383305
0.2834545 0.07640499 0.6025177 -0.047905292 -0.3516755 0.67415 0.24874192 -0.022359423
0.06494399 0.20848729 0.0034465773 -0.06854879 0.5682543 -0.6603208 -0.30359736 -0.8517772
0.43815807 -0.3428166 -0.5419489 0.13144195 0.4365213 -0.07543386 -0.23684561 0.32541418
0.11025134 -0.5422721 -0.059972487 0.0750925 0.19514684 0.5152793 0.040996242 -0.6111855
-0.35443208 0.29663944 0.3454175 -0.39909518 -0.98417777 -0.3413391 -0.81260616 0.20467435
-1.335848 -0.94841486 0.098628536 0.6850476 0.37352875 0.33195952 -0.3567823 -0.5267898
0.14951055 -0.028919717 -0.16102974 -0.17325161 0.23888007 0.4608779 0.39102256 -0.36019182
0.4170912 -1.1660826 -0.59646934 -0.028289543 -0.5946511 -0.61863106 -0.2778074 -0.41562715
0.556371 -0.59148055 0.82707334 -0.7718029 0.64033806 0.9852597 -0.4429752 0.49061203
0.4751015 0.3699391 0.3978323 0.44989222 0.04786308 -0.18555059 0.14941593 0.12887284
0.45414448 -0.18828225 0.60918796 -0.73281693 -0.571232 -0.23851098 -0.25100556 -0.09232712
0.3546581 -0.091465324 0.2876264 0.5720252 -0.17358676 -0.82447326 0.5387577 -0.04950023
-0.014116948 0.3323716 -0.24988629 -0.26275867 -0.37501568 -0.480448 0.44493946 0.020912623
0.53402805 -0.36926633 0.045976926 -0.7301994 -0.44229558 0.055559095 -0.19354515 -0.6637956
0.4158697 0.0038200521 -0.6693353 0.39439282 0.37633833 -0.2759689 0.14433564 0.78599846
-0.03783321 0.16706373 0.06970578 -0.3808999 -0.42176375 0.008612684 0.15670046 -0.7434081
-0.49485734 -0.4935805 0.15794629 0.22255492 -0.5171972 -0.5794406 -0.13608982 0.09052022
0.27468666 -0.51811975 0.4919899 0.3451285 -0.41551918 0.010291819 0.41176596 0.043112617
-0.8243373 0.52545005 -0.3171834 0.47510046 0.02650082 -0.26649904 -0.6744891 0.8003728
-0.38229918 0.33513233 -0.5139763 -0.1487269 0.028431557 -0.35083026 -0.16960774 -0.028357493
-0.33246794 0.009398625 -0.4870663 0.4569383 0.38568735 -0.7002045 -0.6061384 0.58213663
0.3242621 -0.20484 -0.06047867 0.51449543 0.30407655 -0.49122834 -0.74994755 0.09473761
0.24558736 0.32904005 0.7799261 0.29458234 0.4978217 -0.55266243 -0.3714552 0.08730643
0.54448515 -0.4774572 0.07231844 0.52159417 0.95428604 -0.17657249 -0.3851932 0.111520335
00000000: a5df 163f b1f8 353f 46d7 19bf 8eee e83c
00000010: fb96 d53e ad7e 86be 6ecf ec3d b195 483e
00000020: 1cb0 9e3f 5681 053f f320 1dbe 5691 243f
00000030: f582 e63e 18db 33bf 13ce 4fbf ab3b 94be
00000040: 7809 02bf 1069 273e c45b b0be aa33 8a3f
00000050: 7a01 093e facf 05bf 9001 d13d c608 1cbd
00000060: f37a 00bf 6fd4 b53f d564 fabe 8c2c b33e
00000070: 9f2b 3bbf ea0f 5ebe 7694 ca3d c4ec b7be
00000080: 6208 1dbe 32b9 37bf d073 d23d d350 a83e
00000090: cf79 51be 04aa 64bf 901d 3e3e 5969 82bf
000000a0: 48b1 f2be 64df 26bf 7494 ce3e 0353 d9be
000000b0: c7f7 bbbe 2dc1 963e 8cdd ac3d ac66 433f
000000c0: 207a aa3e 31bf 643f 234c 19bf fb67 213f
000000d0: 590e 3ebf 139f b3be 48a4 243f fffd 54bf
000000e0: c937 5f3f 2bc4 d13e e911 a13e b261 563e
000000f0: 6b0e e1be 5ad5 4cbe ba29 91be 2015 873e
00000100: f320 913e 387a 9c3d 9a3e 1a3f 5738 44bd
00000110: d00e b4be 1895 2c3f 34b6 7e3e 1c2b b7bc
00000120: 5b01 853d b17d 553e f9df 613b 4f63 8cbd
00000130: 1d79 113f c90a 29bf 1d71 9bbe 120e 5abf
00000140: 4156 e03e a885 afbe 2abd 0abf b898 063e
00000150: b87f df3e 117d 9abd a887 72be b09c a63e
00000160: 74cb e13d 58d2 0abf b6a5 75bd 19ca 993d
00000170: 93d4 473e 58e9 033f adeb 273d a776 1cbf
00000180: 1f78 b5be 20e1 973e 90da b03e 3456 ccbe
00000190: 13f3 7bbf 00c4 aebe f506 50bf 2796 513e
000001a0: 11fd aabf 51cb 72bf c2fd c93d 485f 2f3f
000001b0: 293f bf3e 99f6 a93e 2bac b6be b2db 06bf
000001c0: 4b19 193e 0be9 ecbc fbe4 24be df68 31be
000001d0: fa9c 743e 30f8 eb3e 1c34 c83e 106b b8be
000001e0: fa8c d53e 3242 95bf 37b2 18bf 79bf e7bc
000001f0: 0e3b 18bf 9b5e 1ebf c63c 8ebe 15cd d4be
00000200: 546e 0e3f 456b 17bf 14bb 533f e094 45bf
00000210: 32ed 233f fb39 7c3f a5cd e2be 8031 fb3e
00000220: 8140 f33e a868 bd3e adb0 cb3e 4658 e63e
00000230: 140c 443d f900 3ebe 7d00 193e 3ef7 033e
00000240: a085 e83e 10cd 40be bef3 1b3f e499 3bbf
00000250: 433c 12bf 393c 74be cd83 80be 0016 bdbd
00000260: bf95 b53e 2c52 bbbd c443 933e 3e70 123f
00000270: bac0 31be ae10 53bf 06ec 093f c1c0 4abd
00000280: c54a 67bc 9c2c aa3e 31e2 7fbe 4e88 86be
00000290: 0e02 c0be 48fd f5be 1bcf e33e f350 ab3c
000002a0: 10b6 083f 7a10 bdbe 4d52 3c3d 59ee 3abf
000002b0: 9174 e2be ef91 633d b330 46be 82ee 29bf
000002c0: e0ec d43e d759 7a3b 8f59 2bbf dbed c93e
000002d0: 6baf c03e cc4b 8dbe b9cc 133e 3237 493f
000002e0: fff6 1abd c112 2b3e e7c1 8e3d 5005 c3be
000002f0: 6bf1 d7be 371c 0d3c 1676 203e fe4f 3ebf
00000300: f15d fdbe 95b6 fcbe acbc 213e 70e5 633e
00000310: 0967 04bf 3856 14bf 215b 0bbe aa62 b93d
00000320: bba3 8c3e 7fa3 04bf 1ae6 fb3e afb4 b03e
00000330: eebe d4be 059f 283c fdd2 d23e db96 303d
00000340: c507 53bf e583 063f dd65 a2be 5e40 f33e
00000350: 3f18 d93c 9072 88be 51ab 2cbf 3be5 4c3f
00000360: b8bc c3be 7796 ab3e f393 03bf dd4b 18be
00000370: 4ce9 e83c 06a0 b3be a7ad 2dbe f94d e8bc
00000380: 3d39 aabe b1fc 193c c160 f9be d1f3 e93e
00000390: d078 c53e 9a40 33bf e32b 1bbf e806 153f
000003a0: af05 a63e 94c1 51be 7bb8 77bd f9b5 033f
000003b0: ecaf 9b3e 4882 fbbe 90fc 3fbf cb05 c23d
000003c0: 417b 7b3e f077 a83e 3da9 473f 7fd3 963e
000003d0: 7ce2 fe3e 497b 0dbf 602f bebe b7cd b23d
000003e0: 6163 0b3f 4575 f4be b11b 943d 3287 053f
000003f0: 174c 743f 6bcf 34be 0b38 c5be c664 e43d

pi.bias f4 [5]
-0.009286105 0.053314183 0.07362444 -0.07494443 -0.062372018
00000000: bf24 18bc f95f 5a3d 69c8 963d 777c 99bd
00000010: cd79 7fbd
