masac/model/simple_tag/agent_3/188_actor_params.pth (torch, 43401 bytes, 10 tensors)

feature.0.weight f4 [64, 14]
0	0x3da4c77f	0.08045863
1	0x3e0d71ed	0.1381299
2	0x3e9bf7cc	0.30462492
3	0x3d452367	0.048129465
4	0x3e6e4e30	0.23272014
5	0x3d03bbb3	0.032161426
6	0xbebc7181	-0.36805347
7	0xbefe6a1f	-0.4969034
8	0x3c427ffe	0.011871336
9	0x3d1c5f13	0.038176607
10	0x3c51cc3a	0.012805039
11	0xbdfff65d	-0.12498162
12	0xbeccd071	-0.40002778
13	0xbce10798	-0.027469441
14	0x3becb0f9	0.007223245
15	0x3ccf0716	0.025271934
16	0x3dcd319a	0.10019226
17	0x3e072ff1	0.13201882
18	0x3cde3f8b	0.027129909
19	0xbdd1348d	-0.102151014
20	0x3eb0af6f	0.34508845
21	0x3e31b7b3	0.17355232
22	0xbdc8db9e	-0.09807514
23	0x3e299000	0.16558838
24	0xbea53c55	-0.32272592
25	0xbe427a92	-0.1899207
26	0xbc81cfde	-0.01584619
27	0xbe888844	-0.26666462
28	0x3de2fab8	0.11082977
29	0xbcc26b0a	-0.02373268
30	0xbe1d6f39	-0.1537446
31	0xbe59b42d	-0.21260138
32	0x3dfbbc61	0.1229179
33	0x3e9821c5	0.29713264
34	0xbea00c65	-0.31259456
35	0x3e561afc	0.20908731
36	0xbea4483e	-0.32086366
37	0xbe79e6db	-0.2440447
38	0xbdc6d99b	-0.09709474
39	0x39a4d08e	0.00031435903
40	0x3ec82d7f	0.3909721
41	0xbf151939	-0.5824161
42	0xbdb5f711	-0.08885015
43	0x3bfbc711	0.0076836427
44	0xbebd6945	-0.36994377
45	0x3e9a848c	0.3017925
46	0x3e81b4d2	0.25333267
47	0xbcee80cb	-0.029114148
48	0xbeb27f67	-0.34862825
49	0xbd46a5d4	-0.04849799
50	0x3e586dc1	0.21135618
51	0x3e631eef	0.22179769
52	0xbe4f085c	-0.20218033
53	0x3e05fe50	0.13085294
54	0x3d48d3fb	0.049030285
55	0x3f07fa99	0.53116757
56	0x3d1a02a2	0.037600167
57	0xbb176ef8	-0.0023106914
58	0x3de263b2	0.110541716
59	0xbe346181	-0.1761532
60	0x3e8c7761	0.2743483
61	0x3ea60ad9	0.3243015
62	0xbe7e1059	-0.24810924
63	0xbf1f5714	-0.62242246
64	0xbd5b9d6b	-0.053616922
65	0xbe42ba5c	-0.19016403
66	0xbe176437	-0.14784323
67	0xbd079c33	-0.033107948
68	0x3e09855b	0.13429777
69	0xbdaab554	-0.08335367
70	0x3e181fc1	0.14855863
71	0x3df71fd4	0.120666176
72	0x3e8240af	0.25439975
73	0x3ea8e26f	0.32985255
74	0xbe60df53	-0.21960191
75	0xbdd33e10	-0.10314572
76	0x3e643856	0.22287115
77	0xbecfc646	-0.40580958
78	0xbdbaf896	-0.09129445
79	0x3cc3390e	0.023830917
80	0xbd47de1b	-0.0487958
81	0x3e329d3a	0.1744279
82	0x3df3f211	0.11911405
83	0xbda7fd6f	-0.082026355
84	0x3d8087c6	0.06275897
85	0x3d79247b	0.060825806
86	0xbab02d0e	-0.0013441162
87	0x3d44f1ed	0.04808228
88	0xbd7c6af4	-0.061625436
89	0xbc07cc9e	-0.008288531
90	0x3e050628	0.1299063
91	0xbe43f171	-0.19135071
92	0x3cdbfa0d	0.026852632
93	0x3e0a51de	0.13507792
94	0xbcba83f3	-0.022767996
95	0xbd9c9186	-0.07644944
96	0xbe43c072	-0.19116381
97	0x3f5a7521	0.85334975
98	0x3cd9df1f	0.02659565
99	0xbe0da774	-0.1383341
100	0xbcfff6cb	-0.03124561
101	0xbee6f36b	-0.45107588
102	0x3e65441d	0.22389264
103	0x3d825139	0.06363148
104	0xbe8cb696	-0.27483052
105	0x3e5c342d	0.21504278
106	0x3e0bb3a9	0.13642754
107	0x3d5ef893	0.054436278
108	0xbe1b1bf3	-0.1514738
109	0x3d972088	0.07379252
110	0x3dfd2e12	0.12362303
111	0x3acb738b	0.0015522105
112	0xbcb718f0	-0.022350758
113	0x3d18cebf	0.037306543
114	0xbe4ea819	-0.20181312
115	0x3e31b7b7	0.17355238
116	0x3e7ef45d	0.24897905
117	0xbe031804	-0.1280213
118	0xbe6f0b59	-0.23344173
119	0x3e77fe9d	0.24218221
120	0xbe784afe	-0.24247357
121	0x3cfec0a1	0.031097712
122	0x3cb33dab	0.021879992
123	0x3d12470b	0.035712283
124	0xbe8536f2	-0.26018482
125	0xbf06fb57	-0.52727264
126	0xbb82bed5	-0.003990034
127	0xbd881fdc	-0.06646702
128	0x3e7d14fd	0.24715038
129	0xbedf3814	-0.43597472
130	0xbd6f62a2	-0.058443673
131	0x3f108ece	0.564679
132	0x3e86eeed	0.2635416
133	0xbf0bd948	-0.5462842
134	0xbe1b7f7a	-0.15185347
135	0x3dcbf690	0.099591374
136	0xbd936ea5	-0.07198838
137	0xbd820462	-0.06348492
138	0x3e2bbb9a	0.16770783
139	0x3ca5f333	0.020257568
140	0x3dd95ed5	0.10613791
141	0x3dd94ac2	0.10609962
142	0x3f2398bc	0.6390493
143	0x3f23e5c3	0.64022464
144	0xbeaad8b2	-0.3336845
145	0xbe4c8122	-0.19971135
146	0x3ee30e00	0.4434662
147	0xbd511d98	-0.051053613
148	0xbd231aba	-0.03982041
149	0x3d92a73d	0.071608044
150	0xbc5cdf76	-0.013481012
151	0x3e04e24c	0.1297695
152	0xbd3748dd	-0.044747222
153	0x3f103508	0.5633092
154	0xbd0f74dd	-0.03502356
155	0x3dc54fc8	0.09634358
156	0x3e191161	0.14948036
157	0x3e8776fc	0.26457965
158	0xbd9d2efe	-0.07674979
159	0xbeea9133	-0.45813903
160	0x3e06b1f2	0.13153818
161	0x3de532ef	0.111913554
162	0x3e2ec228	0.17066252
163	0x3e40b0b9	0.18817414
164	0x3e12db8a	0.1434156
165	0xbe08072b	-0.13283984
166	0x3cad0612	0.021121059
167	0xbf1e6a5c	-0.6188104
168	0xbdfc6f36	-0.12325899
169	0x3db8d704	0.09025386
170	0x3e92b888	0.2865641
171	0x3d4eefda	0.05052171
172	0xba8e8b40	-0.001087524
173	0x3e50a031	0.20373608
174	0xbe70bfe8	-0.23510706
175	0x3ddc93cd	0.10770378
176	0x3e1b91e8	0.15192378
177	0x3c9a66d6	0.018847864
178	0xbebb0187	-0.36524603
179	0xbe048400	-0.12940979
180	0x3f30f7d8	0.6912818
181	0x3e510ea5	0.20415743
182	0xbdbc4a54	-0.091938645
183	0x3c705a0f	0.014669909
184	0xbf0fedc4	-0.56222177
185	0xbe1d0c04	-0.15336615
186	0x3e84f11e	0.25965208
187	0x3ef3fdb4	0.47654498
188	0xbe080ffe	-0.1328735
189	0xbe5bb595	-0.21455987
190	0xbe0c33cb	-0.13691632
191	0x3dc98b36	0.098410055
192	0xbdb98c04	-0.09059909
193	0xbebc08be	-0.3672542
194	0xbeebfd0d	-0.460915
195	0x3c97d2f5	0.01853321
196	0xbcdf8662	-0.027285758
197	0x3ce9cbf9	0.028539645
198	0xbea56eb0	-0.3231101
199	0x3e0dd6e8	0.13851511
200	0xbd3e6f06	-0.0464926
201	0xbe7869c0	-0.2425909
202	0xbd010b64	-0.031505004
203	0x3e9ba261	0.30397323
204	0x3cc5a2d2	0.02412549
205	0xb9dd4a54	-0.00042207784
206	0xbd43dc68	-0.047817618
207	0xbdc85fb3	-0.09783878
208	0xbd7da29c	-0.061922655
209	0x3d0d2e4d	0.034467984
210	0xbd0f3026	-0.034958027
211	0x3de9c637	0.114147596
212	0x3e82f922	0.25580698
213	0x3e8bf7b3	0.27337417
214	0x3d0d1a12	0.03444869
215	0xbdb30034	-0.08740273
216	0x3e387cd4	0.18016368
217	0xbce6167c	-0.028086893
218	0xbe3c9e14	-0.18419677
219	0x3dcded0d	0.100549795
220	0x3d888595	0.06666104
221	0x3d6bcac6	0.057566427
222	0x3ef17703	0.4716111
223	0xbe7d67ce	-0.2474663
224	0xbdd0b650	-0.10191023
225	0xbddb2ad0	-0.10701525
226	0x3d2ea6f9	0.042639706
227	0xbbf7647c	-0.0075498205
228	0xbea69929	-0.32538727
229	0x3e12ae60	0.14324331
230	0x3f22ee21	0.63644606
231	0x3e98628c	0.29762685
232	0xba81455c	-0.000986259
233	0x3e15d513	0.14632063
234	0xbd7e2bc8	-0.06205347
235	0xbd19d613	-0.037557673
236	0xbc08af29	-0.008342543
237	0xbdf39ab8	-0.11894745
238	0x3e1ede18	0.1551441
239	0x3dfdf865	0.12400893
240	0x3eb97164	0.36219323
241	0x3ca4e8c3	0.02013052
242	0x3e6b9989	0.23007788
243	0xbedfc53b	-0.43705162
244	0xbe718ed5	-0.23589642
245	0x3d8d50c8	0.069001734
246	0xbead6922	-0.33869272
247	0x3e14f7ee	0.14547703
248	0x3d888496	0.06665914
249	0xbe8299dd	-0.25508013
250	0x3ecdf3ce	0.4022507
251	0x3ce2f843	0.027706271
252	0x3dd94a09	0.10609824
253	0xbceb005e	-0.028686699
254	0x3e46e93d	0.19424911
255	0xbe28c012	-0.16479519

feature.0.bias f4 [64]
0	0x3dbff314	0.09372535
1	0xbdc85098	-0.09780997
2	0xbd8723fb	-0.065986596
3	0x3e2b7b87	0.1674634
4	0x3e58f8ad	0.21188612
5	0x3ece9792	0.40350014
6	0x3f076764	0.52892137
7	0x3eb11ad4	0.3459078
8	0xbdf293a7	-0.11844569
9	0x3e874d0f	0.2642598
10	0x3e913159	0.28357962
11	0xbef64ac6	-0.48103923
12	0xbf13055c	-0.5743005
13	0xbe38d897	-0.18051372
14	0x3eff70f3	0.4989086
15	0x3ef5b82f	0.47992083
16	0x3edec0e2	0.43506533
17	0xbeaee9f1	-0.34162858
18	0x3e9072d6	0.28212613
19	0x3e7d062a	0.24709383
20	0x3f038d20	0.51387215
21	0x3d982dbf	0.074306004
22	0x3e8fb4ce	0.2806763
23	0x3ec6349d	0.38712016
24	0x3f3fb120	0.74879646
25	0xbea212f2	-0.3165508
26	0x3c800f95	0.01563243
27	0x3d952edf	0.072843306
28	0x3de2e61d	0.11079047
29	0x3e92dff2	0.28686482
30	0x3ed57cda	0.41696817
31	0x3e349f3b	0.17638867
32	0xbe1fb2ca	-0.15595546
33	0x3f190cba	0.59785044
34	0xbefd18ad	-0.4943289
35	0xbee8f83a	-0.45501882
36	0x3f219973	0.6312477
37	0x3e1ae268	0.1512543
38	0x3ed516b3	0.4161888
39	0x3d7bd04f	0.061477955
40	0x3f0afd50	0.54292774
41	0x3e47b09f	0.1950097
42	0xbe6594dd	-0.22420068
43	0x3f3175cd	0.69320375
44	0x3e4285b3	0.18996315
45	0x3e58908f	0.21148895
46	0x3e625432	0.2210243
47	0x3f448507	0.76765484
48	0x3ee859a2	0.45380884
49	0xbd8c21ff	-0.06842422
50	0xbf2d7b37	-0.67766136
51	0x3ebc17d0	0.36736917
52	0xbf30e4ec	-0.6909931
53	0x3d7cf8e6	0.061760806
54	0x3e982440	0.29715157
55	0x3ebf1de2	0.37327486
56	0xbf2851c2	-0.6574975
57	0x3e2da473	0.16957264
58	0x3e9af4a8	0.30264783
59	0xbe948c0c	-0.29013097
60	0x3ea25813	0.3170782
61	0x3f36a82a	0.7135035
62	0xbf6adc33	-0.9174225
63	0xbeae832b	-0.34084448

feature.2.weight f4 [64, 64]
0	0x3dd9e380	0.10639095
1	0x3e899316	0.2687003
2	0x3e965dc2	0.29368407
3	0x3e084319	0.13306846
4	0xbe194176	-0.14966378
5	0xbd0db05f	-0.03459203
6	0x3eaa9793	0.33318767
7	0x3e32157c	0.17391008
8	0x3dea792c	0.11448893
9	0xbedf674b	-0.43633494
10	0xbe86404f	-0.2622094
11	0xbca31b74	-0.019910552
12	0x3e2222bf	0.15833567
13	0xbdd41793	-0.10356059
14	0xbe959756	-0.29217023
15	0xbe4a568c	-0.19759578
16	0xbe999b75	-0.30001417
17	0xbdb1a1a9	-0.08673412
18	0x3dd561c7	0.1041904
19	0xbee41cf6	-0.44553345
20	0x3e98e8b6	0.29865044
21	0xbe3f4831	-0.18679883
22	0x3dbcd785	0.092207946
23	0xbe2fa14d	-0.17151375
24	0x3d175bd2	0.0369528
25	0xbea60eb3	-0.3243309
26	0xbe1b5206	-0.15168008
27	0xbd90f5b9	-0.07078118
28	0xbe0fdca3	-0.1404901
29	0x3da7c768	0.081923306
30	0x3f104eeb	0.5637042
31	0xbe80faa5	-0.25191227
32	0xbe260da0	-0.16216135
33	0x3e31ebfb	0.17375176
34	0xbb60ae7a	-0.0034283684
35	0x3d904dfd	0.07046125
36	0xbe9c95aa	-0.30582935
37	0xbd84451e	-0.064584956
38	0x3e915b9d	0.28390208
39	0xbe8adc90	-0.271214
40	0x3d2e0d47	0.04249313
41	0x3e13aef0	0.14422202
42	0x3e223b84	0.15843016
43	0x3e75afdd	0.23992868
44	0x3ebc558c	0.36784017
45	0x3c8d2cc0	0.017233253
46	0xbe2aec50	-0.16691709
47	0xbe3f797c	-0.18698686
48	0x3d8e04f6	0.0693454
49	0x3b8a2ca7	0.0042167488
50	0xbde52f5d	-0.111906745
51	0xbe460f4f	-0.19341777
52	0x3da79d9c	0.081843585
53	0x3d677da2	0.056516297
54	0xbd83ef77	-0.06442159
55	0xbd127d87	-0.035764243
56	0x3e1b311a	0.1515545
57	0xbe830ae9	-0.2559426
58	0x3e1a7118	0.15082204
59	0xbc462da7	-0.012095845
60	0xbd79490c	-0.06086068
61	0x3e1e6eb1	0.15471913
62	0xbdb976bf	-0.09055852
63	0xbbd2f91c	-0.0064383876
64	0x3d49f331	0.04930419
65	0xbf0b67f8	-0.5445552
66	0x3e5811bb	0.21100514
67	0xbe087a8e	-0.13328001
68	0xbf3c3c1f	-0.7352924
69	0xbeada9ea	-0.33918697
70	0xbbc6c084	-0.00606543
71	0x3c64aef6	0.01395773
72	0xbed2a75e	-0.41143316
73	0x3c429c0d	0.011878026
74	0x3ed66f1f	0.41881654
75	0xbd5e6802	-0.05429841
76	0xbe094f87	-0.13409244
77	0xbe5c0e0d	-0.21489735
78	0x3e576c57	0.21037422
79	0xbdfdd4ff	-0.123941414
80	0x3ea08952	0.31354767
81	0x3d8a0d6e	0.06740843
82	0xbea2d951	-0.31806424
83	0x3d8acb14	0.06777015
84	0xbd89c3ad	-0.06726775
85	0x3e6d99d8	0.23203218
86	0x3ef1916a	0.47181255
87	0xbee16cd9	-0.44028357
88	0x3e87822c	0.264665
89	0x3e82ad07	0.25522634
90	0xbec654a7	-0.3873646
91	0xbe8e46c8	-0.27788377
92	0xbed7c319	-0.42141035
93	0x3ca73c7c	0.020414583
94	0xbd0e8029	-0.03479019
95	0x3e19c2ad	0.15015669
96	0xbd6434fa	-0.055714585
97	0x3cec7b11	0.028867276
98	0xbdefc35a	-0.11707182
99	0xbf2916d0	-0.66050434
100	0xbebd1e29	-0.36937073
101	0xbcca1e90	-0.024672776
102	0xbc004a64	-0.007830236
103	0x3eb14bef	0.34628245
104	0x3de09cbf	0.10967397
105	0x3e198e90	0.1499579
106	0xbece46f6	-0.40288514
107	0xbe9b2895	-0.303044
108	0xbeb407f4	-0.35162318
109	0xbd76f4ed	-0.060292173
110	0xbe98d96e	-0.29853386
111	0x3e0f9af3	0.14023952
112	0xbd8576d0	-0.06516802
113	0x3e25ec22	0.16203359
114	0x3e3873e4	0.18012959
115	0x3e6bd009	0.23028578
116	0xbeb625a1	-0.35575584
117	0x3dbbda29	0.0917247
118	0xbe3a0a2d	-0.18167944
119	0xbcc3ae2a	-0.023886759
120	0xbbfab441	-0.0076508825
121	0xbed9e176	-0.42554826
122	0x3dda2583	0.10651686
123	0xbd100682	-0.035162456
124	0xbef65341	-0.48110393
125	0x3ee0eab5	0.43929067
126	0x3d94708d	0.0724803
127	0xbe9fc683	-0.3120614
128	0x3ef4255a	0.47684747
129	0x3e1742e6	0.14771613
130	0x3e652ac2	0.22379592
131	0xbd96aab5	-0.073567785
132	0x3e17bf55	0.14819081
133	0xbd819666	-0.06327514
134	0xbf164cd9	-0.5871101
135	0xbdf3e7d0	-0.11909449
136	0xbe0b727e	-0.13617894
137	0x3db8facd	0.090322115
138	0x3f2c52d8	0.6731391
139	0x3ea72b9c	0.3265046
140	0x3ec9ac16	0.39389104
141	0xbe8aa1a8	-0.2707646
142	0xbf0d7601	-0.55258185
143	0xbeaf8c1f	-0.3428659
144	0x3ccc4f30	0.024940103
145	0xbdbbdd8d	-0.09173117
146	0x3cffbe5a	0.031218696
147	0xbe5ff3f6	-0.21870407
148	0x3e1749f6	0.14774308
149	0xbd1fbf2c	-0.039000675
150	0x3c3ea995	0.011637111
151	0xbe5e5536	-0.21712193
152	0x3e37af10	0.17937875
153	0xbe8023b4	-0.2502724
154	0xbd072d62	-0.033002265
155	0x3eb22f6a	0.348018
156	0x3d9ecec0	0.07754278
157	0x3d8958b0	0.06706369
158	0xbe8ea556	-0.27860516
159	0xbd484079	-0.04888961
160	0xbdf0f457	-0.11765354
161	0xbf345a4c	-0.7045028
162	0xbddd9c26	-0.108207986
163	0x3dcd0838	0.10011333
164	0xbdfc0888	-0.12306315
165	0x3e4dcd24	0.20097786
166	0x3e2577c8	0.16158974
167	0x3e8face5	0.28061596
168	0x3e5ff0cb	0.21869199
169	0x3e78d552	0.24300125
170	0x3eab87a7	0.33501932
171	0xbd8dd6a0	-0.06925702
172	0xbd2c0af4	-0.042002633
173	0x3d2bb40b	0.04191975
174	0x3ec24a03	0.3794709
175	0x3e58a79b	0.21157686
176	0xbe4fe99c	-0.20303959
177	0xbd6e68f6	-0.058205567
178	0x3bdd8a45	0.006760868
179	0x3e147821	0.1449895
180	0xbcf2fadc	-0.029660635
181	0xbca70a0e	-0.020390537
182	0x3e031fdd	0.12805124
183	0x3ca0f1e8	0.0196466
184	0xbf14b04f	-0.58081526
185	0x3e974863	0.29547414
186	0xbe98669d	-0.29765788
187	0xbe3d91bf	-0.18512629
188	0x3eaa9b5a	0.3332165
189	0xbe8f70ff	-0.28015897
190	0xbef1cd5f	-0.47226998
191	0x3cd9f887	0.026607765
192	0x3f05a682	0.52207196
193	0x3ea6cd84	0.3257867
194	0xbe929715	-0.2863089
195	0xbdb1e117	-0.086855106
196	0x3d98fb21	0.07469774
197	0xbe503456	-0.20332465
198	0x3ce54f5b	0.027991941
199	0xbdfef5a2	-0.124491945
200	0xbec653ba	-0.38735753
201	0xbf05808f	-0.5214929
202	0xbe1cc26c	-0.15308541
203	0x3e3b79ec	0.18308228
204	0x3dc6e9ef	0.09712588
205	0x3df01557	0.1172282
206	0xbeb035ec	-0.3441614
207	0x3dbd7830	0.092514396
208	0xbefc1d0d	-0.49240914
209	0x3f01a9d5	0.5064977
210	0xbd8093e4	-0.06278208
211	0x3dd8c00a	0.105835035
212	0xbf0cdda1	-0.5502568
213	0x3e9269fe	0.2859649
214	0x3e8c9a87	0.27461645
215	0x3df23887	0.11827188
216	0xbdab3797	-0.08360212
217	0xbe7226ac	-0.23647565
218	0x3d9c9296	0.076451465
219	0xbe7a1d42	-0.24425223
220	0xbf2d9416	-0.67804086
221	0xbed20140	-0.4101658
222	0xbe4d1e78	-0.20031154
223	0xbd6b28eb	-0.05741207
224	0x3dcb4518	0.09925288
225	0x3e860bb6	0.2618081
226	0x3e3453d1	0.17610098
227	0xbe030370	-0.1279428
228	0xbe7987d5	-0.24368222
229	0xbcf0b4e4	-0.02938313
230	0x3d2b5a2f	0.041834053
231	0x3ecac63b	0.39604363
232	0x3e268159	0.1626028
233	0xbbd69803	-0.006548883
234	0x3de64335	0.112432875
235	0xbed90f3e	-0.4239444
236	0x3e7c66c9	0.24648584
237	0x3dfe85eb	0.124278866
238	0xbda5830e	-0.08081637
239	0xbef7e4d2	-0.48416764
240	0xbe01e840	-0.12686253
241	0x3dc3b791	0.09556497
242	0xbea12766	-0.3147537
243	0x3e2ffe02	0.1718674
244	0x3d3770b5	0.04478522
245	0x3d4e72fe	0.050402634
246	0xbee588ef	-0.44831035
247	0x3e9fb903	0.3119584
248	0x3ec79a68	0.3898499
249	0x3e6fa62b	0.23403232
250	0x3e818e37	0.25303814
251	0x3d38c8d2	0.045113392
252	0x3dc1d9cb	0.09465369
253	0xbecfd809	-0.4059451
254	0x3def0451	0.11670745
255	0x3e478ae2	0.19486573

feature.2.bias f4 [64]
0	0x3eca50c9	0.3951476
1	0x3ef18651	0.47172788
2	0xbe4ff024	-0.2030645
3	0xbecfb2e0	-0.40566158
4	0x3e8002cf	0.25002143
5	0x3eb27522	0.3485499
6	0x3e437310	0.19086862
7	0x3e05c0c1	0.13061811
8	0x3eaec88f	0.3413739
9	0xbe99c683	-0.30034265
10	0x3e4e8f4c	0.20171851
11	0xbdb7a36c	-0.08966717
12	0xbf40d9da	-0.75332415
13	0x3e8b2b23	0.27181348
14	0x3f1114cd	0.56672364
15	0xbc587d50	-0.013213471
16	0xbd3a1c33	-0.04543705
17	0x3ec27de1	0.37986663
18	0x3ef611e3	0.4806052
19	0x3e995f86	0.2995569
20	0x3e3dd569	0.18538441
21	0x3dfded26	0.12398748
22	0x3e87a745	0.26494804
23	0x3e984c10	0.2974553
24	0x3ec6571b	0.3873833
25	0x3e766c88	0.24064839
26	0x3d5c68fe	0.053811066
27	0xbf2ab63d	-0.66684324
28	0x3e8693ba	0.2628458
29	0x3d9761e7	0.0739172
30	0x3edc571f	0.43035218
31	0x3ce48d7b	0.027899494
32	0xbd7cb16c	-0.06169264
33	0xbe90d649	-0.28288487
34	0xbd927673	-0.07151499
35	0x3e311dc3	0.1729651
36	0x3efe8f8f	0.49718902
37	0x3e011ac3	0.12607865
38	0x3e322ff6	0.17401108
39	0x3e994a9d	0.29939738
40	0x3ec09bce	0.3761887
41	0x3ebb2ad8	0.36556125
42	0x3f065d5d	0.5248621
43	0xbf6cc74c	-0.924916
44	0x3e237981	0.15964319
45	0xbf071423	-0.527651
46	0x3ec35267	0.38148805
47	0x3e34296f	0.1759393
48	0x3e2c7a38	0.16843498
49	0x3e219723	0.1578031
50	0x3db2160d	0.08695612
51	0x3eeab2f3	0.45839652
52	0xbf2903db	-0.6602151
53	0xbe61c640	-0.22048283
54	0x3e925d2a	0.28586704
55	0x3e9d7976	0.3075673
56	0x3e999a2e	0.30000442
57	0x3e80c49f	0.2515001
58	0xbf7e3648	-0.99301577
59	0x3e9e8d7e	0.30967325
60	0x3da79f3d	0.08184669
61	0xbd0b0a8d	-0.03394561
62	0x3e903bf6	0.28170747
63	0x3ec8de76	0.39232224

feature.4.weight f4 [64, 64]
0	0x3efb2a07	0.49055502
1	0x3f1c692e	0.6109799
2	0xbd82dd1e	-0.06389831
3	0xbedc1e9f	-0.42992112
4	0xbe013ef0	-0.12621665
5	0xbef5ccb8	-0.4800775
6	0x3d1eb5a1	0.038747434
7	0x3e681c5f	0.22667073
8	0xbe62cf71	-0.22149445
9	0xbd3f0bcb	-0.046642106
10	0xbdae703f	-0.08517503
11	0x3daf8aff	0.08571433
12	0xbebbf098	-0.36706996
13	0xbe12fa1b	-0.1435322
14	0xbede8435	-0.4346024
15	0x3dcebe72	0.10094918
16	0xbd05360d	-0.03252225
17	0xbeb458b1	-0.35223916
18	0x3e04a4f4	0.1295355
19	0x3df6923b	0.1203961
20	0xbd99c26b	-0.075077854
21	0x3e365279	0.17804898
22	0xbeee563e	-0.46550173
23	0xbda4f260	-0.08054042
24	0x3ef9cf00	0.4879074
25	0xbddb50da	-0.107087806
26	0xbee212e0	-0.44155025
27	0x3d86a2b9	0.06574006
28	0x3e0da19e	0.13831183
29	0x3e706e70	0.23479629
30	0xbea43d7f	-0.32078168
31	0xbee27a63	-0.44234
32	0x3cb46bad	0.022024
33	0xbe3f4c8b	-0.18681543
34	0xbdcd9483	-0.10038092
35	0x3f387126	0.7204765
36	0xbe3c82dd	-0.18409295
37	0xbe2800f4	-0.16406614
38	0x3d7f87a2	0.06238521
39	0x3eaf1bc9	0.34200886
40	0x3e0b65cd	0.13613053
41	0xbe8b5903	-0.27216348
42	0x3ebbf390	0.3670926
43	0xbedfc10a	-0.43701965
44	0x3ef150f4	0.47132075
45	0xbf3f5a9b	-0.7474763
46	0x3ca3b9c9	0.01998605
47	0x3e732555	0.2374471
48	0xbccfb19f	-0.025353251
49	0x3eba50ed	0.36389866
50	0xbe0b8c00	-0.13627625
51	0x3f0185ee	0.50594985
52	0x3de1fe72	0.1103486
53	0x3daada43	0.08342411
54	0x3e852fb8	0.2601297
55	0x3e84b596	0.2591979
56	0xbf217ce1	-0.63081175
57	0xbe14d1c0	-0.14533138
58	0xbe72c1d8	-0.23706758
59	0xbf35d60e	-0.71029747
60	0x3d35b35d	0.044360507
61	0xbe3aca6e	-0.18241283
62	0xbe05fa7b	-0.13083832
63	0x3d866fa3	0.06564262
64	0xbcf85f47	-0.03031887
65	0xbcaf1127	-0.021370484
66	0xbdb739d8	-0.0894658
67	0xbec28a3e	-0.37996095
68	0xbd98c019	-0.07458515
69	0xbe8d370e	-0.27581066
70	0xbd96fb69	-0.073721714
71	0xbee9a9e7	-0.45637438
72	0xbef508d1	-0.4785829
73	0xbea259ca	-0.3170913
74	0x3d9426c3	0.07233956
75	0xbf8d62ae	-1.104574
76	0xbeea8d48	-0.45810914
77	0xbd05c1f8	-0.032655686
78	0xbd7fa8c8	-0.06241682
79	0x3e752391	0.23939349
80	0x3d31082e	0.04322069
81	0x3f30940a	0.6897589
82	0x3db42384	0.087958366
83	0x3ef6f5ba	0.4823435
84	0xbe5d0c25	-0.21586664
85	0xbdf5f2a1	-0.120091684
86	0xbf3ce5fe	-0.7378844
87	0xbe59a783	-0.21255307
88	0xbee8e619	-0.4548805
89	0xbef42f04	-0.4769212
90	0xbe4ae66b	-0.1981446
91	0xbdd00976	-0.101580545
92	0xbc1d2aec	-0.009592753
93	0xbe40591c	-0.18783993
94	0x3d41fbc8	0.047359258
95	0x3d9d7307	0.07687955
96	0x3e56b081	0.20965768
97	0xbec54bce	-0.38534397
98	0xbf5172c3	-0.8181574
99	0x3ebf118a	0.3731807
100	0xbe2474ad	-0.16060133
101	0xbe80fb70	-0.25191832
102	0xbeb7b009	-0.35876492
103	0xbe5ab400	-0.21357727
104	0x3f1385f7	0.5762629
105	0xbe256fcc	-0.16155928
106	0xbf1690d3	-0.58814734
107	0x3e4b3329	0.19843735
108	0x3d034a77	0.032053437
109	0xbe21520a	-0.15753952
110	0xbbd5b038	-0.006521251
111	0x3ebb9f02	0.3664475
112	0xbd91aeab	-0.071133934
113	0xbea53247	-0.3226492
114	0xbe4620cf	-0.19348453
115	0x3d047fa4	0.03234829
116	0xbe6ea8a9	-0.23306526
117	0xbe5d90bf	-0.21637248
118	0x3df32ecd	0.11874161
119	0xbe056e72	-0.13030413
120	0x3d01e2be	0.03171038
121	0x3e65aaa1	0.22428371
122	0x3d50e2ab	0.050997417
123	0xbd088481	-0.03332949
124	0x3e3cc19a	0.18433228
125	0x3c4fd854	0.012685854
126	0xbeb43f4d	-0.35204545
127	0xbeae48e2	-0.3403998
128	0x3d382e0e	0.044965796
129	0x3dd46ca1	0.10372282
130	0x3c85aeb8	0.016318664
131	0x3e68d9b5	0.22739299
132	0x3dcd4cef	0.100244395
133	0x3e17f96f	0.14841245
134	0x3eccb4cf	0.39981696
135	0xbed033a2	-0.40664393
136	0x3e888650	0.26664972
137	0x3e4e2e90	0.2013495
138	0x3e2c80dd	0.16846032
139	0xbec71bcd	-0.38888398
140	0xbde21a10	-0.11040127
141	0x3c301a6f	0.01074849
142	0xbe02d6a5	-0.12777193
143	0xbed5dcd3	-0.41770038
144	0xbe36b616	-0.17842898
145	0xbe5ec3d5	-0.21754391
146	0x3e7d9dea	0.2476727
147	0xbe4fe038	-0.20300376
148	0x3dfa6d23	0.122278474
149	0x3dc39b9d	0.09551165
150	0xbf11cf40	-0.56956863
151	0xbe49a210	-0.19690728
152	0xbe9a4181	-0.301281
153	0xbd253d7c	-0.04034184
154	0xbe3df7c0	-0.1855154
155	0x3e8893dc	0.26675308
156	0x3f0e5a0e	0.5560616
157	0x3ea83c4b	0.328585
158	0xbe52107c	-0.20514101
159	0x3cc88170	0.024475783
160	0xbe9f3fda	-0.31103402
161	0x3e0f380c	0.13986224
162	0x3dbfc008	0.09362799
163	0xbe2c6b58	-0.16837823
164	0xbd6be513	-0.05759151
165	0x3e190d68	0.1494652
166	0x3dcf7592	0.10129847
167	0x3ebc0c4d	0.36728135
168	0xbe9b21f2	-0.30299336
169	0xbd7d4388	-0.06183198
170	0x3ec55b91	0.38546422
171	0xbdf40a4b	-0.11916026
172	0x3e87e51d	0.26541987
173	0xbdc14b91	-0.09438241
174	0x3e8d0154	0.27540076
175	0x3dda1571	0.10648621
176	0x3e735b7a	0.23765364
177	0xbeb1d0fa	-0.3472975
178	0xbe3f1321	-0.18659641
179	0x3ec31d0c	0.38108099
180	0x3eba5e48	0.36400056
181	0x3e176f9d	0.14788671
182	0x3c1a41b0	0.009415075
183	0xbe2a3b1d	-0.16624112
184	0x3f19fe39	0.6015354
185	0xbed8bc9a	-0.42331392
186	0x3dc7b414	0.09751144
187	0xbd232706	-0.039832138
188	0x3e6eee7a	0.23333159
189	0xbe2b08e7	-0.16702615
190	0xbe1a86ec	-0.15090531
191	0x3c490697	0.012269638
192	0xbece05ec	-0.40238893
193	0xbe253d44	-0.16136652
194	0xbe413ec8	-0.18871605
195	0xbf06306f	-0.52417654
196	0xbe99ad5c	-0.30015075
197	0x3ee0c0db	0.43897137
198	0x3ede0e06	0.43370074
199	0x3dae5516	0.085123226
200	0xbe6b2673	-0.22963886
201	0x3a9862fb	0.0011626178
202	0xbe84e728	-0.25957608
203	0x3de66214	0.11249176
204	0xbe0e46a0	-0.13894129
205	0xbe16cb6e	-0.1472604
206	0x3da5b30e	0.080907926
207	0x3d95747d	0.07297609
208	0xbeec7572	-0.46183354
209	0xbf03117f	-0.5119857
210	0xbe2d301a	-0.1691288
211	0xbec59320	-0.3858881
212	0x3d5e5d98	0.054288477
213	0xbe73539e	-0.23762366
214	0x3f120147	0.570332
215	0xbd832bd6	-0.064048454
216	0xbe986619	-0.29765394
217	0xbe33dabc	-0.1756391
218	0xbea8436a	-0.32863933
219	0x3e1f08f8	0.15530765
220	0xbf55d700	-0.8353119
221	0x3ec3b019	0.3822029
222	0x3e13a62e	0.14418861
223	0x3cf1c638	0.029513463
224	0xbd9d253a	-0.07673116
225	0x3b9a4514	0.004707942
226	0x3e97c22e	0.29640335
227	0x3e3eedc5	0.1864539
228	0xbf9b2ec6	-1.2123649
229	0xbf198485	-0.59967834
230	0x3ea62a61	0.32454208
231	0xbe839374	-0.25698435
232	0xbf17bdea	-0.5927416
233	0x3e8236db	0.25432476
234	0x3c8c8d8a	0.017157335
235	0xbe8744ed	-0.26419774
236	0x3f0d25cd	0.55135804
237	0x3d6cbda0	0.057798028
238	0xbe1e0218	-0.15430486
239	0x3e4ce437	0.20008932
240	0xbf1937b5	-0.5985063
241	0xbf240f56	-0.640859
242	0x3eeb4901	0.45954135
243	0x3df8ca8f	0.1214801
244	0xbf3a2e4f	-0.7272691
245	0xbea4939b	-0.32143864
246	0xbe35e697	-0.17763744
247	0x3e2536e2	0.16134217
248	0xbf13a191	-0.57668406
249	0xbed25566	-0.4108078
250	0x3dd802d3	0.10547414
251	0xbed8ce26	-0.4234478
252	0x3de53dd0	0.111934304
253	0xbe220527	-0.15822278
254	0xbf84c6e0	-1.0373192
255	0x3eebae38	0.46031356

feature.4.bias f4 [64]
0	0x3f019ea2	0.5063268
1	0x3eea1100	0.45716095
2	0x3ef03e8f	0.46922728
3	0x3f13b62a	0.57699835
4	0x3dda291e	0.10652374
5	0x3f19174c	0.59801173
6	0x3f3c29b6	0.73501146
7	0x3ed85e45	0.42259422
8	0x3ee37c79	0.44430903
9	0x3deedee8	0.1166361
10	0x3ea3df07	0.32006094
11	0x3e6a634c	0.22889441
12	0x3e84d63b	0.25944695
13	0x3e756fee	0.23968479
14	0x3e391458	0.18074167
15	0x3f082750	0.53184986
16	0x3e98f1aa	0.29871875
17	0x3ec044e9	0.37552574
18	0x3ed25535	0.41080633
19	0x3e456935	0.19278415
20	0x3ee5c58b	0.44877276
21	0x3e93611c	0.28785026
22	0x3eb66658	0.35624957
23	0x3f18fb17	0.5975813
24	0x3f0d1118	0.5510421
25	0x3ebbe2c2	0.3669644
26	0x3e56b1f2	0.20966318
27	0x3eafa925	0.34308735
28	0x3f0395a9	0.5140024
29	0x3e2a0094	0.16601783
30	0x3f0164d5	0.5054448
31	0x3ebcec38	0.3689897
32	0x3e80189c	0.25018775
33	0x3ea7b3e0	0.3275442
34	0x3ee79d15	0.45237032
35	0x3edc1c95	0.42990556
36	0x3eb5f504	0.35538495
37	0x3ebbd929	0.36689118
38	0x3d5d31ba	0.0540025
39	0x3de5ae86	0.11214928
40	0x3ea609c4	0.32429326
41	0x3eb82c9f	0.35971543
42	0x3f09d20d	0.5383614
43	0x3e3bb676	0.18331322
44	0x3d45973b	0.048239928
45	0x3f469388	0.77568865
46	0x3cf49bcb	0.029859444
47	0x3ec15e08	0.37767053
48	0x3f52e42e	0.82379425
49	0x3ee28e86	0.44249362
50	0x3e8a611d	0.27027217
51	0x3e1b5deb	0.15172546
52	0x3e4033da	0.1876978
53	0x3ec7f58a	0.3905452
54	0x3f106b34	0.5641358
55	0x3e1f011f	0.15527771
56	0x3f0113d9	0.5042091
57	0x3ef0b5f8	0.4701383
58	0x3f6f97e8	0.93591166
59	0x3ecb9fa5	0.39770237
60	0x3e09b0b9	0.1344632
61	0x3efc43ef	0.4927058
62	0x3f0ed443	0.55792636
63	0x3e06786c	0.13131875

log_std.weight f4 [5, 64]
0	0x3c70073a	0.01465016
1	0x3b86b0d2	0.004110434
2	0xbc55fb7d	-0.013060448
3	0xbd24942f	-0.04018038
4	0x3d0dbd64	0.034604445
5	0x3d082eea	0.033247866
6	0x3c6ddfeb	0.014518718
7	0x3bb4797c	0.005507646
8	0x3d5cc667	0.05390015
9	0xbc7c46ed	-0.015397769
10	0x3cead57c	0.02866625
11	0x3c66f951	0.014097528
12	0xbc6e3b29	-0.014540472
13	0xbd059ee7	-0.032622244
14	0xbcf1f253	-0.029534495
15	0x3d9b3c97	0.07579916
16	0xbd58c700	-0.052924156
17	0x3c10f00e	0.008846296
18	0x3d90b0f4	0.07065001
19	0x3c40db36	0.011771014
20	0xbe425818	-0.18978918
21	0x3cf61b45	0.0300423
22	0xbc8e7b84	-0.017392881
23	0xbbcff3cd	-0.006346202
24	0x3c1fd436	0.009755185
25	0xbcb355ac	-0.021891437
26	0x3cb120e7	0.021622134
27	0xbc1fe6b2	-0.009759592
28	0x3b6fb462	0.0036576022
29	0x3d468c7d	0.048473824
30	0x3caff99b	0.021481326
31	0xbd0c92ff	-0.034319874
32	0xbc6412ff	-0.013920545
33	0xbd69d03c	-0.057083353
34	0xbc53ea0d	-0.01293422
35	0xbc4f8d3c	-0.01266795
36	0x3c09657f	0.008386015
37	0x3cc178e4	0.023617215
38	0xbccb322c	-0.024804197
39	0xbc30193a	-0.010748202
40	0xbc3c7078	-0.011501424
41	0xbc07f7c6	-0.00829882
42	0x3d818a81	0.06325246
43	0x3e09fe21	0.13475849
44	0x3c9c95aa	0.019114334
45	0x3d4df7e8	0.05028525
46	0x3b0b2194	0.002122973
47	0x3d2e9d87	0.0426307
48	0xbc20c254	-0.009811956
49	0x3d6019b4	0.054712012
50	0xbd1fe0a1	-0.039032582
51	0x3d7a3736	0.06108781
52	0x3d274c9a	0.040844537
53	0xbca04601	-0.01956463
54	0x3ce70144	0.028198846
55	0x3b5b0892	0.0033421856
56	0xbc876eb9	-0.016532289
57	0x3c29036f	0.01031576
58	0x3a95419a	0.0011387349
59	0xbafea335	-0.0019427302
60	0xbd1b2bc0	-0.03788352
61	0xbd731766	-0.059348486
62	0xbcb26d7c	-0.021780722
63	0x3c755c6b	0.014975647
64	0xbc81aaf5	-0.015828589
65	0x3d8040cd	0.0626236
66	0x3cbcf2aa	0.02306493
67	0xbd139c89	-0.036037955
68	0x3de163bd	0.11005352
69	0x3d8bb52a	0.06821664
70	0x3db912a6	0.0903676
71	0x3c240736	0.010011485
72	0x3d47ff34	0.048827365
73	0x3cc305b9	0.02380644
74	0x3d249867	0.040184405
75	0xbced1690	-0.028941423
76	0x3caf7e33	0.021422481
77	0x3d51ac4e	0.051189713
78	0x3cded188	0.027199522
79	0xbcc3001d	-0.023803765
80	0xbc9b34ca	-0.01894607
81	0x3d14eec1	0.036360506
82	0x3c8132c1	0.015771272
83	0x3c6074fc	0.013699766
84	0xbbead1ad	-0.0071661086
85	0x3cfd3c6e	0.030912604
86	0x3de788c1	0.113053806
87	0xbba0cd0a	-0.004907255
88	0x3cb4ebb8	0.022085056
89	0xbd312d2e	-0.043255977
90	0x3b61d63c	0.003445997
91	0xbb2553b2	-0.0025226888
92	0x3c63a1f4	0.013893593
93	0x3d24848e	0.040165477
94	0x3d108615	0.03528412
95	0x3d5188b1	0.05115575
96	0x3d0a9086	0.033829235
97	0x3c92b89d	0.017910296
98	0x3ce6eada	0.028188158
99	0x3d26a661	0.040686015
100	0xbcb9852d	-0.022646511
101	0xbccafdd7	-0.024779243
102	0x3d6967cd	0.056983758
103	0xba7d7ce8	-0.00096697966
104	0x3d334325	0.043765206
105	0xbc2a4836	-0.010393193
106	0x3d48bb19	0.049006555
107	0x3e6b0f87	0.22955142
108	0x3d882ff4	0.06649771
109	0x3d18ff3b	0.03735278
110	0x3da15e71	0.078793414
111	0xbc35cb15	-0.011095782
112	0x3c4e1ce7	0.012580133
113	0x3d3cd3dd	0.046100486
114	0xbd689707	-0.056784656
115	0xbced56d9	-0.028972076
116	0xbc217495	-0.0098544555
117	0xbd9f404e	-0.07775937
118	0xbad8f8e4	-0.0016553667
119	0x3db62674	0.08894053
120	0x3c7b4ee7	0.015338636
121	0x3b8fa9b0	0.004384242
122	0x3be1857a	0.0068823667
123	0x3d8c29c9	0.068439074
124	0x3b19257f	0.0023368297
125	0xba8e40a7	-0.0010853008
126	0xbd90716e	-0.07052885
127	0x3d65d4e6	0.05611124
128	0xbb6db8d0	-0.0036273487
129	0x3be16509	0.0068784994
130	0x3d554936	0.052071773
131	0x3d7fb241	0.062425856
132	0x3df5fbd7	0.12010925
133	0x3cea9116	0.028633635
134	0xbd5daed0	-0.054121792
135	0xbc7eebee	-0.01555918
136	0x3cd5f87f	0.026119469
137	0x3ce99f1d	0.028518254
138	0x3ce0c272	0.027436469
139	0xbdba3fe0	-0.090942144
140	0xbcb0be36	-0.021575075
141	0x3cef504e	0.029213097
142	0x3d6f0796	0.058356844
143	0x3cef19a4	0.029187031
144	0xbb532693	-0.0032219037
145	0x3cb74069	0.02236958
146	0x3d0e93ec	0.034809038
147	0x3cdc2546	0.026873242
148	0x3e27071a	0.16311303
149	0x3d9f8a83	0.07790091
150	0xbbb77946	-0.0055991737
151	0xbd1e7c7d	-0.03869294
152	0x3cdbcfe8	0.026832536
153	0xbd906ba4	-0.07051781
154	0x3d947cd6	0.07250373
155	0x3ca84f19	0.02054553
156	0x3d449442	0.047992952
157	0x3d024640	0.031805277
158	0x3d819fa9	0.06329281
159	0x3b143a53	0.0022617772
160	0x3c5bc9df	0.013414829
161	0x3ce6339f	0.028100787
162	0x3e2a48e2	0.16629365
163	0x3d1481a6	0.036256455
164	0xbd0bdc2b	-0.034145515
165	0xbba3b07d	-0.0049954043
166	0x3d2e4cc0	0.042553663
167	0xbd4c8dbe	-0.049939863
168	0x3d6827a1	0.056678418
169	0xbc16e125	-0.009208952
170	0x3d8151cf	0.06314432
171	0x3e0d8f6c	0.13824242
172	0xbda89876	-0.082322046
173	0xbe0987ff	-0.13430785
174	0x3d4f9b05	0.050684948
175	0x3c89fe7d	0.016844982
176	0x3b8405c5	0.004029008
177	0x3dafb2c6	0.0857902
178	0xbcf14afa	-0.029454697
179	0xbd12fb1d	-0.03588401
180	0x3c5e651e	0.013573913
181	0xbd83adc8	-0.064296305
182	0x3ca3a144	0.019974358
183	0x3e207c5c	0.1567244
184	0x3c96eaa6	0.018422436
185	0xbc0bfb4f	-0.008543803
186	0x3c86209a	0.016372968
187	0x3d927c95	0.071526684
188	0x3d2a4c14	0.04157646
189	0xbc823dc0	-0.015898585
190	0xbd195b1d	-0.037440408
191	0x3d27e2ce	0.040987782
192	0x3daddc93	0.08489337
193	0x3d64a5e3	0.055822264
194	0xbb4881d4	-0.0030594962
195	0x3dcc9a31	0.09990347
196	0x3d8cceea	0.06875403
197	0x3b7ff9a2	0.0039058705
198	0xbd6358f3	-0.05550475
199	0x3c001525	0.007817541
200	0x3dd3bf22	0.1033919
201	0xbd86bd1b	-0.06579038
202	0x3c738a57	0.014864526
203	0x3dc1d061	0.09463573
204	0x3d27301d	0.04081737
205	0x3bffb7a5	0.0078038746
206	0xba863fc8	-0.0010242397
207	0x3d693590	0.056935847
208	0x3d0b916b	0.03407423
209	0x3cc80ac3	0.024419194
210	0x3d9c3605	0.07627491
211	0x3d6342af	0.055483516
212	0x3d12f1b9	0.035875056
213	0x3dba490c	0.09095964
214	0xbd94dff9	-0.07269282
215	0x3c3e2e44	0.01160771
216	0x3c9d4b7d	0.019201035
217	0xbcee4e02	-0.029089931
218	0xbd96645f	-0.07343363
219	0x3c3a06ab	0.011354129
220	0x3cc22019	0.023696946
221	0x3dc26707	0.09492307
222	0x3cc4dbfb	0.024030676
223	0x3c23cf53	0.00999816
224	0xbdbfb91d	-0.093614794
225	0x3d11f9dd	0.03563868
226	0xbd4e23f4	-0.050327256
227	0xbb7bcd77	-0.0038422027
228	0xbc86666a	-0.016406257
229	0xbd007fe9	-0.031371985
230	0xbb395726	-0.0028280704
231	0xbd8ef193	-0.069796704
232	0x3d923ca9	0.07140476
233	0x3cf2b2d2	0.029626284
234	0x3cb5306d	0.022117818
235	0x3e50fad0	0.20408177
236	0xbe6a5bfa	-0.22886649
237	0xbd1418b4	-0.03615637
238	0x3d70bb28	0.058772236
239	0x3cc15cfb	0.023603907
240	0x3d0d434d	0.03448801
241	0x3d447b76	0.047969304
242	0xbcb987ff	-0.022647856
243	0xbd2792ce	-0.04091149
244	0xbcd0554c	-0.025431298
245	0xbc95a784	-0.018268354
246	0x3d030cb8	0.03199455
247	0xbb2839d3	-0.0025669232
248	0x3c999c26	0.018751215
249	0x3d644074	0.05572553
250	0xbc150497	-0.009095333
251	0x3c00e3c3	0.007866803
252	0x3d653a28	0.055963665
253	0xbbaec0b7	-0.005333032
254	0x3ba54c06	0.005044463
255	0x3d10b61d	0.035329927

log_std.bias f4 [5]
0	0xbee22a53	-0.44172916
1	0xbf6e60d9	-0.9311653
2	0xbf7225d8	-0.94588995
3	0xbf689e2f	-0.9086637
4	0xbf5f1cc5	-0.87153274

mu.weight f4 [5, 64]
0	0xbdea911c	-0.11453459
1	0x3ec03d38	0.37546706
2	0xbea311e5	-0.3184959
3	0xbe8b86df	-0.27251336
4	0x3e013b7f	0.12620352
5	0x3e41d932	0.1893051
6	0x3ea3e2d0	0.32008982
7	0x3f50ff44	0.81639504
8	0x3bcbe34a	0.0062221633
9	0xbd7322b9	-0.059359286
10	0x3d96acac	0.07357153
11	0x3e78527c	0.24250215
12	0xbf04b98f	-0.5184564
13	0x3e8936f0	0.26799726
14	0x3e920e23	0.2852641
15	0x3eead334	0.4586426
16	0xbe6ea0e7	-0.23303567
17	0xbce19b43	-0.027539855
18	0xbe9acd9e	-0.30234998
19	0x3c5e2978	0.013559692
20	0xbea5a486	-0.32352084
21	0x3e6a45db	0.2287821
22	0xbdbd9c9e	-0.09258388
23	0xbc91c9b0	-0.017796367
24	0xbd4c40a9	-0.049866352
25	0xbf15ea2f	-0.5856046
26	0xbe779e66	-0.24181518
27	0x3d8c2166	0.06842308
28	0xbd91b5c9	-0.07114751
29	0xbec70e53	-0.38878116
30	0x3f12a010	0.57275486
31	0x3d1910d7	0.037369575
32	0xbdbcfdc8	-0.092280924
33	0x3d6adbbc	0.05733846
34	0xbd98c7eb	-0.07460006
35	0xbe0f7bc6	-0.1401206
36	0x3ce42dfd	0.02785396
37	0x3f38b9e2	0.72158635
38	0x3ef176fd	0.47161093
39	0x3dc280e7	0.094972424
40	0xbe3f35f4	-0.18672925
41	0xbebbb72c	-0.36663187
42	0x3ebdc8c6	0.3706724
43	0xbf340345	-0.7031749
44	0x3eae6d4e	0.34067768
45	0xbdc9a55f	-0.09845995
46	0x3e4ad7b1	0.19808842
47	0x3ea99598	0.33121943
48	0xbe6c6c31	-0.23088147
49	0xbeb173d5	-0.34658685
50	0x3e2a64f2	0.1664007
51	0x3dd7d68f	0.10538971
52	0xbe0e5b76	-0.13902077
53	0x3cb6c611	0.022311242
54	0x3f2bc870	0.6710272
55	0x3cd4a745	0.025958667
56	0xbee56e49	-0.44810703
57	0x3d0b459b	0.034001928
58	0x3ec47b20	0.38375187
59	0x3cc3a20e	0.023880985
60	0xbedc3d0c	-0.43015325
61	0xbe8bb040	-0.27282906
62	0xbd2a0dc7	-0.041517045
63	0x3d8f218e	0.06988822
64	0xbee557f2	-0.4479366
65	0x3eae3dcb	0.3403152
66	0xbeb6d477	-0.35708973
67	0x3e526986	0.20548066
68	0x3ec91c38	0.39279342
69	0x3ecec290	0.40382814
70	0x3fbf53e6	1.4947479
71	0x3e01f533	0.12691192
72	0x3e0c9f2c	0.13732594
73	0x3d9216e5	0.07133273
74	0xbf219bea	-0.6312853
75	0x3ec8b7ea	0.39202815
76	0x3d60b974	0.054864362
77	0xbdfdefed	-0.12399278
78	0xbe12619c	-0.14295048
79	0x3ea4823c	0.3213061
80	0xbcaa2353	-0.020768797
81	0x3ea0bfa8	0.31396222
82	0x3e32f051	0.17474486
83	0xbed56014	-0.41674864
84	0xbe6a99a2	-0.22910169
85	0x3d1323f4	0.03592296
86	0xbe3687d9	-0.1782526
87	0x3e6d482d	0.23172064
88	0xbe23807e	-0.15966985
89	0x3ea54197	0.32276604
90	0x3d8de45b	0.06928321
91	0x3db6551d	0.08902953
92	0xbeb2f256	-0.34950513
93	0x3ee0a19e	0.43873304
94	0xbeb7afd1	-0.35876325
95	0xbc64cda3	-0.013965043
96	0xbd1d8c0c	-0.038463637
97	0xbf155617	-0.5833449
98	0x3f3a5193	0.7278072
99	0xbeb982d0	-0.36232615
100	0x3f2371c7	0.63845485
101	0xbe8229ba	-0.2542246
102	0x3e80dcfb	0.25168595
103	0xbe281e23	-0.16417746
104	0xbf178412	-0.591859
105	0xbe6c3428	-0.23066771
106	0xbef3c259	-0.47609213
107	0x3ee6a2f7	0.45046207
108	0x3f0686af	0.5254926
109	0x3fdd7113	1.7300133
110	0xbe0ce8be	-0.13760659
111	0x3e23a23a	0.15979853
112	0xba7fe556	-0.0009761652
113	0x3f440eed	0.76585275
114	0x3f07696d	0.5289524
115	0x3cf71ef5	0.030166129
116	0xbe77df2e	-0.2420623
117	0xbd85606d	-0.065125324
118	0xbd882907	-0.0664845
119	0x3f8cce68	1.100049
120	0xbe0876c7	-0.1332656
121	0x3da76447	0.08173423
122	0xbe8b10e6	-0.2716133
123	0x3ee5e84a	0.44903785
124	0x3f0c7f48	0.54881716
125	0xbcd93c1d	-0.026517922
126	0x3eab166a	0.33415538
127	0xbe37d97b	-0.17954056
128	0x3eabadee	0.33531135
129	0x3e351af9	0.1768607
130	0x3ea2cc03	0.31796274
131	0xbf001e08	-0.50045824
132	0xbeb5e40e	-0.35525554
133	0xbf14d376	-0.58135164
134	0xbfac0ab6	-1.3440769
135	0xbdd77e7b	-0.10522171
136	0xbd8490c5	-0.06472925
137	0x3def5017	0.11685198
138	0x3eca97e4	0.39569008
139	0xbe603033	-0.21893387
140	0xbe3ac259	-0.182382
141	0x3dc5833c	0.096441716
142	0x3e8d5646	0.27604884
143	0x3ecbd165	0.39808193
144	0x3d09aea6	0.033613823
145	0xbd318fd6	-0.043350063
146	0x3d841fa8	0.064513505
147	0x3eda7752	0.4266916
148	0x3ee76362	0.4519301
149	0xbd4ea872	-0.05045361
150	0x3f0bd9b4	0.54629064
151	0xbea9cfa9	-0.33166245
152	0x3e44db1d	0.1922421
153	0xbed24848	-0.4107077
154	0x3e15e2fb	0.14637367
155	0xbe53efc9	-0.2069694
156	0x3e8f3f7a	0.27978116
157	0xbf1f970d	-0.6233986
158	0x3e9d1930	0.3068328
159	0xbd96c36c	-0.073614925
160	0xbd9f975f	-0.077925436
161	0x3f07580d	0.5286873
162	0xbfc5e18f	-1.545946
163	0x3e815ee5	0.2526771
164	0xbed8e3f5	-0.42361417
165	0x3bd787f4	0.006577486
166	0xbd5802f0	-0.052737176
167	0x3e29be1d	0.16576429
168	0x3eab199a	0.3341797
169	0x3e945e8c	0.28978384
170	0x3ea67838	0.32513595
171	0xbf17262b	-0.59042615
172	0xbd38e2ed	-0.04513829
173	0xbf5cce47	-0.86252254
174	0x3e53d16f	0.20685361
175	0xbe3475b0	-0.17623019
176	0x3c2ff65f	0.010739892
177	0xbf65a0ac	-0.8969829
178	0xbe5035d0	-0.20333028
179	0xbd6a17f0	-0.057151735
180	0x3e6eb52e	0.23311302
181	0x3d8b3dc0	0.06798887
182	0x3dc38876	0.09547512
183	0xbfdd1516	-1.727206
184	0x3da31c91	0.07964433
185	0xbc81ac7d	-0.01582932
186	0x3e8adbf5	0.2712094
187	0xbf371b96	-0.7152647
188	0xbf20d462	-0.6282407
189	0x3dff9442	0.1247945
190	0x3c9976e7	0.018733455
191	0x3dbc2871	0.09187401
192	0xbe7ca9e3	-0.24674182
193	0xbf1c4a1b	-0.61050576
194	0xbea5c33b	-0.32375512
195	0x3fa35867	1.2761353
196	0x3f85d1b5	1.0454623
197	0xbe05b066	-0.13055572
198	0x3e113bdb	0.1418299
199	0x3a409816	0.00073468813
200	0xc005b93a	-2.0894303
201	0x3f3feb19	0.74968106
202	0x3e6476dc	0.22310966
203	0xbf715b62	-0.94280064
204	0xbe84dd05	-0.25949875
205	0xbe88af55	-0.26696268
206	0x3d55613b	0.05209468
207	0x3e1b3070	0.15155196
208	0xbede4a06	-0.4341585
209	0xbea9ca04	-0.33161938
210	0xbede1ec4	-0.43382847
211	0x3dec44e4	0.11536577
212	0xbe0cd033	-0.13751297
213	0xbf532b1a	-0.8248764
214	0x3e85fb74	0.26168406
215	0x3d0874e7	0.03331461
216	0x3ecc5a25	0.39912525
217	0x3e0977a6	0.13424549
218	0x3f6274f0	0.8845968
219	0xbefe8c74	-0.49716532
220	0xbe835b55	-0.25655618
221	0x3cfd418a	0.03091504
222	0x3e3a065e	0.18166491
223	0x3eeb683f	0.4597797
224	0xbf8c272b	-1.0949453
225	0x3d9f44bf	0.07776784
226	0x3e0107ef	0.12600683
227	0xbeeccffe	-0.46252435
228	0x3cce4a97	0.025182052
229	0xbea531d1	-0.3226457
230	0xbeba24cc	-0.363562
231	0x3f1bed1b	0.6090867
232	0xbe9a82cf	-0.30177924
233	0x3de5f4ef	0.11228358
234	0x3d8983b0	0.067145705
235	0x3f8b106f	1.086439
236	0x3f4eb6ff	0.8074798
237	0x3e207e4e	0.15673181
238	0xbed83f08	-0.4223559
239	0x3ecd1ff6	0.40063447
240	0x3f10c5d2	0.5655185
241	0x3d686041	0.05673242
242	0xbd786c5e	-0.060650222
243	0x3f21cc04	0.6320193
244	0xbe784f6e	-0.2424905
245	0xbfdc2c63	-1.7201046
246	0xbe7b3c75	-0.24534781
247	0x3e1e21d5	0.15442593
248	0x3e17c643	0.14821725
249	0xbf0b7fbb	-0.54491776
250	0x3e150688	0.14553273
251	0xbcd456b7	-0.025920255
252	0x3e9e2684	0.3088876
253	0x3e93e040	0.28882027
254	0xbe72f278	-0.23725307
255	0x3ee1804e	0.440432

mu.bias f4 [5]
0	0xbf002791	-0.50060374
1	0xbea2c4fc	-0.31790912
2	0x3f491986	0.7855457
3	0x3e2d6dfd	0.16936488
4	0xbedf1460	-0.43570232
