masac/model/simple_tag/agent_3/234_critic_params.pth (torch, 115263 bytes, 14 tensors)

critic1.0.weight f4 [64, 82]
-0.43057618 -0.22726396 -0.3738195 -0.24155813 0.4660912 0.13525368 0.12403128 0.28953603
0.51325774 0.32058293 0.32625237 0.08202697 0.28639984 0.14029518 0.00432703 -0.108758055
0.02113315 0.011214841 0.024816003 0.16241246 0.08279596 -0.033059467 -0.058868453 -0.12193101
-0.51939964 -0.20262475 -0.0075791064 -0.014896925 -0.056375988 0.00299492 -0.032772694 0.0075563444
0.15239039 0.093736924 0.105182886 0.02137804 0.21686335 0.23285054 -0.04866864 -0.16015874
-0.081747726 -0.23208998 0.061854243 0.09880202 -0.10401928 -0.10383068 0.14489463 0.024964022
0.12111994 0.05003408 0.32007796 0.51060945 0.11157127 -0.13283059 0.10746738 -0.095941335
-0.5611616 -0.34718657 0.0022168614 -0.0028448831 -0.19199589 0.056257877 -0.014120292 -0.13049002
0.23119377 -0.07697239 0.03157575 -0.047741845 0.037689965 -0.028393544 0.060717423 -0.07630894
0.06724456 0.07535391 -0.037387602 0.037775464 -0.02328494 0.038596563 0.13130154 -0.026841044
0.0009552369 -0.032124937 0.1154994 -0.076577336 0.28529656 0.08818493 -0.61660475 -0.5948767
0.5268045 0.5555109 0.16747935 0.16775857 -0.056409 -0.019436713 -0.020742143 0.1417814
0.0049352986 -0.013623852 0.086168095 -0.031695068 0.052072573 0.34899932 -0.5845995 -0.23195419
0.70370096 0.5437943 -0.25738358 -0.014223357 -0.29131365 -0.013625185 0.020981848 0.025062008
0.021841187 0.09033041 -0.045523733 0.058582734 0.055606518 -0.09516104 -0.5972487 -0.1879176
0.66437227 0.6316392 0.20435031 -0.20686905 0.02133021 0.13524623 -0.08985164 -0.14175692
0.056824192 -0.038639955 -0.17172971 0.050394773 0.3608663 0.54462713 -0.7012532 -0.73392725
0.9674922 0.87030584 -0.14892086 -0.046930373 0.1354889 0.18082726 -0.12295223 0.24949998
0.044064183 0.1198987 0.09457485 0.049405426 0.011617323 0.059557583 0.0842131 0.016109215
0.028131692 0.039730452 0.00940098 -0.102390364 -0.04178073 0.0052375067 0.021822069 -0.0021114512
0.069187894 0.023136713 0.07329442 -0.066002026 0.10599207 -0.12386089 0.49951926 -0.09290342
-0.017519508 -0.18544804 -0.16661045 -0.08848835 -0.023812084 0.00850792 0.142186 -0.24560572
-0.049302407 -0.10121963 0.19809698 0.09284531 0.21184003 0.158181 0.8436317 -0.07204374
-0.1180601 -0.16509499 -0.20851086 -0.14433347 -0.102335684 0.11838468 0.0007825173 -0.17107114
-0.17497978 -0.15184242 -0.13705294 -0.19484906 0.10166247 0.08242766 0.79392457 -0.23804855
-0.19497693 0.36931625 -0.08022441 0.22607516 -0.09767769 0.24814136 -0.18841666 0.03164041
0.029092586 0.25578243 0.024993893 0.11405045 0.057837524 -0.11826496 0.8639973 -0.1816507
-0.019147951 -0.10315909 -0.07682624 -0.2725506 -0.08567888 0.077760056 0.020515308 0.32431495
0.11860812 -0.23701721 0.012799778 0.18103942 -0.062308818 -0.094490394 -0.02362761 0.08384982
0.05460748 -0.06517564 -0.016567895 0.04235565 0.09366061 0.10966055 -0.099778295 0.05369278
-0.1080826 0.113722034 0.04973185 -0.19907336 0.036126364 0.15049402 -0.2671861 -0.16116376
-0.08327199 0.20493573 0.11250342 0.20491518 0.5048934 -0.0547988 0.19651742 0.03516662
00000000: 7b74 dcbe e2b7 68be 4565 bfbe 045b 77be
00000010: 81a3 ee3e f17f 0a3e 1d04 fe3d 113e 943e
00000020: dc64 033f 7223 a43e 8d0a a73e c2fd a73d
00000030: 00a3 923e 8aa9 0f3e c2c9 8d3b 8bbc debd
00000040: 6e1f ad3c 74be 373c ee4a cb3c 744f 263e
00000050: ee90 a93d 5d69 07bd 0c20 71bd f7b6 f9bd
00000060: 60f7 04bf dd7c 4fbe 275a f8bb 3b12 74bc
00000070: 82ea 66bd 6b46 443b a93c 06bd 369b f73b
00000080: 3a0c 1c3e 25f9 bf3d 206a d73d 0021 af3c
00000090: 6d11 5e3e 5f70 6e3e c558 47bd a700 24be
000000a0: 5a6b a7bd ffa8 6dbe e05a 7d3d b758 ca3d
000000b0: 0f08 d5bd 2ea5 d4bd 425f 143e 5981 cc3c
000000c0: bb0d f83d 89f0 4c3d 42e1 a33e 4db7 023f
000000d0: 7a7f e43d be04 08be dc17 dc3d e47c c4bd
000000e0: 49a8 0fbf 70c2 b1be c348 113b 3871 3abb
000000f0: 929a 44be a96e 663d cc58 67bc 2d9f 05be
00000100: 0fbe 6c3e b3a3 9dbd 9355 013d f48c 43bd
00000110: cb60 1a3d 9499 e8bc d5b2 783d dd47 9cbd
00000120: 84b7 893d 2753 9a3d be23 19bd 72ba 1a3d
00000130: 0fc0 bebc 6e17 1e3d e973 063e c0e1 dbbc
00000140: dd68 7a3a 7095 03bd f38a ec3d 94d4 9cbd
00000150: 6412 923e 4d9a b43d cfd9 1dbf d749 18bf
00000160: a9dc 063f f635 0e3f b57f 2b3e e7c8 2b3e
00000170: 200d 67bd be39 9fbc 6deb a9bc 252f 113e
00000180: 49b8 a13b 9436 5fbc e678 b03d b0d2 01bd
00000190: 0d4a 553d 0ab0 b23e 50a8 15bf 6685 6dbe
000001a0: bf25 343f 1a36 0b3f c8c7 83be 1509 69bc
000001b0: 1027 95be 2b3c 5fbc 20e2 ab3c d74e cd3c
000001c0: 4aec b23c 26ff b83d 1877 3abd 73f4 6f3d
000001d0: a9c3 633d cbe3 c2bd 4ae5 18bf 796d 40be
000001e0: 4d14 2a3f 1bb3 213f 3541 513e 7bd5 53be
000001f0: b1bc ae3c fd7d 0a3e 2304 b8bd ba28 11be
00000200: 7cc0 683d ee44 1ebd ead9 2fbe c06a 4e3d
00000210: 78c3 b83e af6c 0b3f 5485 33bf a8e2 3bbf
00000220: 92ad 773f 5dcc 5e3f b67e 18be 103a 40bd
00000230: 9abd 0a3e c82a 393e 61ce fbbd ec7c 7f3e
00000240: a57c 343d 738d f53d 75b0 c13d 585d 4a3d
00000250: 9656 3e3c a7f2 733d eb77 ac3d 79f7 833c
00000260: 6f74 e63c 66bc 223d 9106 1a3c 0ab2 d1bd
00000270: 4522 2bbd 649f ab3b 32c4 b23c 4660 0abb
00000280: 62b2 8d3d 3489 bd3c 631b 963d 122c 87bd
00000290: 5f12 d93d c7aa fdbd fdc0 ff3e 2644 bebd
000002a0: 1285 8fbc 17e6 3dbe ee9b 2abe 6139 b5bd
000002b0: 8f11 c3bc ce64 0b3c 3599 113e 1180 7bbe
000002c0: 52f1 49bd 3d4c cfbd efd9 4a3e af25 be3d
000002d0: 98ec 583e 33fa 213e 3ff8 573f ab8b 93bd
000002e0: 7ec9 f1bd a90e 29be df83 55be 27cc 13be
000002f0: 5f95 d1bd ab73 f23d d921 4d3a 462d 2fbe
00000300: e62d 33be 947c 1bbe 9b57 0cbe 8386 47be
00000310: 6a34 d03d d5cf a83d a43e 4b3f 00c3 73be
00000320: 08a8 47be 0517 bd3e b24c a4bd 3f80 673e
00000330: 3e0b c8bd c518 7e3e 4cf0 40be 6099 013d
00000340: 9353 ee3c eaf5 823e febf cc3c 4893 e93d
00000350: 0ae7 6c3d e634 f2bd ed2e 5d3f a402 3abe
00000360: 2adc 9cbc 1345 d3bd 1357 9dbd c18b 8bbe
00000370: 6978 afbd aa40 9f3d b80f a83c 9c0c a63e
00000380: d0e8 f23d a4b4 72be 29b6 513c 6662 393e
00000390: 8837 7fbd 2e84 c1bd b18e c1bc 74b9 ab3d
000003a0: 18ac 5f3d ce7a 85bd 65b9 87bc 1e7d 2d3d
000003b0: 22d1 bf3d b695 e03d 9058 ccbd f6ec 5b3d
000003c0: 695a ddbd 19e7 e83d a0b3 4b3d e3d9 4bbe
000003d0: 3df9 133d 1b1b 1a3e 9ecc 88be 1d08 25be
000003e0: 818a aabd acda 513e 3168 e63d 49d5 513e
000003f0: b240 013f b574 60bd dd3b 493e e00a 103d

critic1.0.bias f4 [64]
-0.86389464 1.5211316 0.05640065 -1.5314511 0.95363563 1.93329 2.1155624 2.3731527
-1.2110043 2.203376 -2.2831697 -0.36482793 -0.7595666 -0.09807724 -0.09839465 -0.45192227
0.8053117 -0.4982999 0.5815772 -0.21929418 1.8949741 1.7751235 0.057198614 -0.3429379
-0.46009234 -0.82131654 2.0870676 1.006175 -1.2702013 -0.08188821 3.2698421 2.9063277
2.7516146 1.9897723 1.2966466 2.7921 -0.37758422 0.32861504 -0.037015844 -0.10822085
-0.21151735 0.8366352 0.95053905 3.2930481 -0.14115363 -0.29263657 -0.76240575 0.110104874
-0.5081373 1.4654555 -0.6644257 -1.3953041 -0.09625508 1.483955 0.2725099 1.272852
2.6922648 1.3946354 -0.6011558 -1.652926 0.554266 -3.0680342 -0.36932886 -0.25724578
00000000: 3328 5dbf 71b4 c23f 5e04 673d 9706 c4bf
00000010: 7721 743f 0c76 f73f 6065 0740 bce1 1740
00000020: 3002 9bbf 1d04 0d40 741f 12c0 baca babe
00000030: f572 42bf b8dc c8bd 2283 c9bd 5b62 e7be
00000040: e828 4e3f 2a21 ffbe 3ee2 143f a78e 60be
00000050: 838e f23f 3f37 e33f 1849 6a3d 8e95 afbe
00000060: 3991 ebbe cd41 52bf 8492 0540 58ca 803f
00000070: f595 a2bf 01b5 a7bd 1845 5140 4601 3a40
00000080: 741a 3040 dcb0 fe3f 84f8 a53f c4b1 3240
00000090: b852 c1be 3b40 a83e ed9d 17bd e5a2 ddbd
000000a0: 0198 58be b92d 563f 8756 733f 4dc1 5240
000000b0: 948a 10be 76d4 95be 062d 43bf aa7e e13d
000000c0: 4915 02bf 0c94 bb3f cd17 2abf 5399 b2bf
000000d0: 6221 c5bd 3df2 bd3f 6b86 8b3e d0ec a23f
000000e0: 114e 2c40 6a83 b23f 59e5 19bf 1493 d3bf
000000f0: 60e4 0d3f ac5a 44c0 ac18 bdbe b8b5 83be

critic1.2.weight f4 [64, 64]
-0.4442648 0.19603829 -0.31886867 0.24725999 0.38083273 0.21489307 0.30212283 0.053749517
0.42682925 -0.24852687 -0.07356145 -0.07490545 -0.30560005 -0.21538918 0.030370217 -0.023691686
0.24633586 -0.082913086 0.008094529 0.20682809 -0.19004597 0.06672912 0.48395637 0.11121431
-0.17472202 0.05838832 0.2403601 0.10419796 0.22005858 0.12689583 -0.10484177 0.19107097
-0.10954897 -0.09692581 -0.48876613 0.16832945 -0.26771596 -0.14466463 -0.13683705 0.1811794
-0.080543265 -0.02447094 0.5833279 0.2905015 -0.06798888 0.016386934 0.11155468 -0.121074714
-0.053150382 -0.034983523 0.3682043 -0.122614816 -0.47775453 -0.3909082 0.18222381 0.045416642
0.2798216 -0.009300208 0.5053705 -0.39689502 -0.01825551 0.2161335 -1.1781888 0.40869224
0.12332288 -0.503495 0.24596797 0.39658016 0.28942934 -0.08718818 0.42253777 -0.16567813
0.4981937 0.5069099 0.18541476 0.23995991 -0.0839107 -0.24809939 -0.32391876 0.10068617
-0.44397607 0.05589309 -0.4118831 -0.8398421 -0.06267588 -0.35106495 -0.13153484 0.16707781
0.22041847 -0.092287265 0.06951581 -0.28383297 0.29498518 -0.30807817 -0.13528533 -0.18531802
-0.02849917 -0.1582584 -0.33272263 0.43089828 0.24387406 0.47321296 -0.16219835 -0.084277645
0.24302258 0.07147117 -0.3261886 -0.06099537 0.50547385 -0.23404862 -0.23876238 -0.23458314
-0.18477647 -0.35294098 0.5161671 0.23712492 0.41039887 0.022903856 -0.23356773 0.49303445
-0.9689998 0.5268174 0.26330376 -0.43674278 0.032275397 0.048380937 -1.9115332 -0.20115867
0.022914361 0.08535501 -0.25550336 -0.07623269 -0.16877371 0.4142354 -0.05717278 0.57478005
-0.35247242 0.5452232 -0.6643125 -0.21765712 0.16449724 0.14700603 0.38253525 0.015402936
0.43845856 0.1908302 -0.22147611 0.16286397 -0.0952686 0.059077304 -0.098407894 0.07875521
0.13011648 -0.33379313 0.10808038 0.3011143 -0.15164083 0.28773794 0.30763313 -0.12962578
0.47461858 0.45980436 -0.18066758 0.124111004 0.30088502 0.05653733 0.2330336 -0.23057677
0.082440935 0.61203194 0.14931154 -0.084283076 -0.42082784 0.08823344 -0.5917224 0.03886359
0.0672204 0.25578207 0.22427896 -0.55845034 -0.114573844 0.323281 0.023562219 0.16339603
0.60596216 0.3357036 0.03676139 -0.16948447 -0.0933095 0.068887345 -0.06305105 -0.39572436
-0.0577781 0.10840484 -0.23443049 -0.08456508 0.29124424 0.47823468 0.16354501 0.1584597
0.32283223 0.70257556 -0.8188428 -0.16350187 0.16437955 -0.4580316 -0.06046374 0.20070751
-0.39534262 0.35487175 0.09536192 0.21069948 0.2830079 0.2719231 0.17044786 -0.16117166
0.26335216 -0.10862125 0.4945018 -0.36189836 -0.0561838 0.08607077 0.597824 0.25785598
-0.3011279 0.15690133 0.21807422 0.13143787 -0.399756 0.40392765 -0.109796725 -0.03795078
-0.4587345 0.04505069 0.0902108 0.22712201 0.18543509 -0.1199737 0.27772602 -0.2297683
0.02158185 0.08065765 0.42925367 -0.16616742 -0.5233756 -0.19244266 0.30544686 -0.22505316
0.3387582 0.22957289 0.11625359 -0.04281369 0.41505814 -0.24094881 0.08221342 0.45502117
00000000: ad76 e3be 43be 483e c142 a3be b931 7d3e
00000010: 82fc c23e ee0c 5c3e d8af 9a3e 7428 5c3d
00000020: 5d89 da3e d47d 7ebe 63a7 96bd 0768 99bd
00000030: 9c77 9cbe fb8e 5cbe f6ca f83c 1115 c2bc
00000040: 783f 7c3e 56ce a9bd ea9e 043c beca 533e
00000050: 699b 42be 47a9 883d 21c9 f73e 54c4 e33d
00000060: 54ea 32be 9728 6f3d f520 763e bd65 d53d
00000070: 0957 613e fbf0 013e 48b7 d6bd 1ca8 433e
00000080: 365b e0bd 0a81 c6bd 8e3f fabe 8e5e 2c3e
00000090: 1112 89be f722 14be 031f 0cbe 1887 393e
000000a0: def3 a4bd 4877 c8bc fa54 153f 9dbc 943e
000000b0: c13d 8bbd e43d 863c c876 e43d 05f6 f7bd
000000c0: 37b4 59bd e24a 0fbd 4685 bc3e 7a1d fbbd
000000d0: 3e9c f4be 1f25 c8be e198 3a3e cd06 3a3d
000000e0: c744 8f3e e65f 18bc f65f 013f d335 cbbe
000000f0: 948c 95bc 1a52 5d3e e4ce 96bf 1c40 d13e
00000100: b590 fc3d 0ce5 00bf 07df 7b3e 8e0c cb3e
00000110: 1530 943e b78f b2bd df56 d83e 87a7 29be
00000120: 3f13 ff3e d9c4 013f 5edd 3d3e 0db8 753e
00000130: 60d9 abbd c40d 7ebe aed8 a5be 8d34 ce3d
00000140: d550 e3be 27f0 643d 57e2 d2be e4ff 56bf
00000150: 365c 80bd c9be b3be 12b1 06be 7216 2b3e
00000160: 61b5 613e 1b01 bdbd 4e5e 8e3d 8e52 91be
00000170: 4c08 973e 6cbc 9dbe 3d88 0abe 02c4 3dbe
00000180: 1777 e9bc 7d0e 22be 9f5a aabe b39e dc3e
00000190: 1fba 793e f848 f23e 5317 26be c299 acbd
000001a0: e9da 783e 7a5f 923d 3102 a7be 48d6 79bd
000001b0: bc66 013f 71aa 6fbe 207e 74be 9036 70be
000001c0: 0b36 3dbe aeb4 b4be 8723 043f e0d0 723e
000001d0: cd1f d23e dea0 bb3c 612c 6fbe 036f fc3e
000001e0: 5f10 78bf 81dd 063f c0cf 863e c09c dfbe
000001f0: 3533 043d 172b 463d 1fad f4bf 8afc 4dbe
00000200: e6b6 bb3c 9cce ae3d 56d1 82be e21f 9cbd
00000210: 04d3 2cbe aa16 d43e 012e 6abd c924 133f
00000220: 4477 b4be bf93 0b3f 6210 2abf 82e1 5ebe
00000230: f771 283e c088 163e a9db c33e 995c 7c3c
00000240: a47d e03e fe68 433e a2ca 62be d0c5 263e
00000250: 2f1c c3bd 0bfb 713d 148a c9bd 694a a13d
00000260: 413d 053e efe6 aabe 3f59 dd3d a72b 9a3e
00000270: bc47 1bbe 6352 933e 1782 9d3e 9fbc 04be
00000280: 3501 f33e 7a6b eb3e ec00 39be e92d fe3d
00000290: 9a0d 9a3e b093 673d 5ca0 6e3e 511c 6cbe
000002a0: cbd6 a83d 20ae 1c3f 20e5 183e 9b9c acbd
000002b0: bf76 d7be bcb3 b43d 1f7b 17bf 6e2f 1f3d
000002c0: d9aa 893d def5 823e 62a9 653e 9af6 0ebf
000002d0: b1a5 eabd 1685 a53e 8e05 c13c 4a51 273e
000002e0: 5620 1b3f 58e1 ab3e 1c93 163d 568d 2dbe
000002f0: 0d19 bfbd cf14 8d3d e920 81bd 629c cabe
00000300: bba8 6cbd 5b03 de3d 8c0e 70be 7530 adbd
00000310: f71d 953e 2ddb f43e 5878 273e 4243 223e
00000320: 444a a53e fedb 333f af9f 51bf 096d 27be
00000330: 1d53 283e 1e83 eabe d4a8 77bd 4586 4d3e
00000340: 596a cabe c0b1 b53e 1c4d c33d 9bc1 573e
00000350: 69e6 903e 8139 8b3e e289 2e3e 2f0a 25be
00000360: 18d6 863e d174 debd 572f fd3e be4a b9be
00000370: fc20 66bd df45 b03d fe0a 193f b305 843e
00000380: 702d 9abe beaa 203e d94e 5f3e a697 063e
00000390: d2ac ccbe 9bcf ce3e 1bdd e0bd 4772 1bbd
000003a0: 40df eabe 1387 383d 71c0 b83d ac92 683e
000003b0: b2e2 3d3e c5b4 f5bd 1b32 8e3e 6248 6bbe
000003c0: 6bcc b03c d72f a53d 23c7 db3e cb27 2abe
000003d0: f1fb 05bf b00f 45be 8863 9c3e 5674 66be
000003e0: b771 ad3e 2815 6b3e 5d16 ee3d 685d 2fbd
000003f0: 8082 d43e 49bb 76be 825f a83d 89f8 e83e

critic1.2.bias f4 [64]
-0.120529875 0.28925332 0.56953436 0.25067127 0.4833233 0.94307137 -1.2713494 0.32576928
-1.130511 -0.518943 -2.2368555 0.21019237 -0.676088 -0.44906154 -0.56925124 0.7656679
-0.41044685 -0.027037468 -0.27172294 -1.6772461 -0.12694545 -0.44777814 -0.18926871 0.36065507
-0.5933443 -1.5595177 0.595415 -0.37249517 -0.39178258 -1.3087134 0.60760283 -0.6249402
0.19175373 0.15979452 0.027506443 0.03469438 -0.43114287 -1.2162329 -0.48554698 0.30549252
-0.22043899 0.23585467 0.5574758 0.5930784 -1.0294701 0.63083065 0.15072337 0.54431456
-0.060322177 0.031871807 -0.4972404 0.09559583 0.21752194 -2.2344894 1.2722032 1.3281871
1.8938634 1.0112244 0.9592445 -1.5217663 0.27077335 0.56496006 2.1230557 -0.91412044
00000000: 5ed8 f6bd 0319 943e 01cd 113f fc57 803e
00000010: 2776 f73e 206d 713f 94bb a2bf 3bcb a63e
00000020: 96b4 90bf 73d9 04bf a428 0fc0 ab3c 573e
00000030: 1a14 2dbf 65eb e5be 73ba 11bf d002 443f
00000040: 1726 d2be ae7d ddbc 451f 8bbe 00b0 d6bf
00000050: fdfd 01be 2d43 e5be a8cf 41be c8a7 b83e
00000060: 69e5 17bf 479e c7bf 1e6d 183f b0b7 bebe
00000070: ba97 c8be ec83 a7bf dc8b 1b3f 15fc 1fbf
00000080: 175b 443e 2da1 233e 3155 e13c b21b 0e3d
00000090: c2be dcbe 85ad 9bbf 9d99 f8be 8469 9c3e
000000a0: c2ba 61be e383 713e bcb6 0e3f fcd3 173f
000000b0: adc5 83bf 1e7e 213f 3a57 1a3e 3358 0b3f
000000c0: 6314 77bd 038c 023d 4b96 febe bfc7 c33d
000000d0: 12be 5e3e e001 0fc0 8ed7 a23f 0902 aa3f
000000e0: 1e6a f23f cd6f 813f 0c91 753f 3dc9 c2bf
000000f0: cea2 8a3e 39a1 103f 25e0 0740 cc03 6abf

critic1.4.weight f4 [64, 64]
0.51118124 0.5468634 -0.01320581 -0.1870583 0.016203638 -0.11465682 0.97804624 -0.004053337
0.5426524 0.24050689 0.37515786 0.22001906 -0.56567866 -0.27917683 -0.06308511 -1.7941463
-0.2559624 0.5405178 0.2054599 0.097844385 0.3197449 0.50789136 -0.34196082 0.04373552
0.3708958 0.047399197 -0.2714821 -0.08544736 -0.30271754 -0.35235438 -0.12015929 0.5090568
-0.37352568 -0.8394372 0.26459473 1.8203583 0.5014911 -0.21535361 0.25417957 -0.0734922
0.08246162 -0.3786772 -0.47328767 -0.27758798 0.32181573 0.4729853 -1.0272804 0.39096814
-0.18594995 0.1089258 -0.02445784 -1.0136787 -0.85865057 0.03103573 -0.56090456 -0.36386976
0.4194631 -0.13185093 0.24144293 0.2280135 0.04894424 -0.61007655 -0.34267467 -0.25733584
0.17907436 -0.012402063 0.5339145 0.5424892 0.046782117 0.29502416 0.22295052 0.44082275
-0.05952143 0.675606 0.5189947 0.5634541 -0.23862088 0.28179985 0.31766564 0.5255674
0.27531174 0.5607035 0.1578625 1.2343404 -0.10995849 0.015100841 0.24072163 0.17023577
0.51092017 0.512113 0.74355835 0.37609753 0.9553943 0.50003874 0.18832617 0.43521392
0.19742267 0.061492234 0.29258734 0.27289143 0.06426459 0.089369126 0.3361118 0.7242541
-0.24008237 -0.009537948 -0.2930531 0.81839836 0.6730283 -0.15738834 -0.05919396 0.43863332
0.4113749 0.8291107 0.55177164 0.13583876 -0.11525103 0.875239 -0.2156642 -0.16877002
0.1895053 0.40855795 0.03375734 0.59749687 0.24154863 0.6696945 0.33253214 0.26706973
0.2189668 0.06624323 0.56644136 -0.08082961 0.25704855 -0.35963723 -0.21128531 0.184657
0.34231022 -0.38240513 -0.0055513084 0.6893049 0.1813628 -0.11411789 -0.088677235 -0.56709313
-0.21747053 -0.55971915 0.15646963 -0.8402292 0.47812784 -0.15808198 -0.070925795 0.18840502
0.061911877 -0.1261718 0.4101631 -0.1514159 -0.2984683 -0.32203305 0.17034987 -0.074698046
0.14191996 -0.4073868 0.22281393 0.2666848 -0.034068126 -0.06320006 0.18030585 0.42377186
0.24941885 0.03847674 0.05455204 -0.36908266 -0.24599303 0.21138105 0.3158965 0.2160285
-0.029734531 -0.68361473 0.011118859 0.08889798 -0.018546041 -0.37155208 0.2040845 0.21733245
-0.010155466 0.22766289 0.23218074 -0.2365517 -0.014273874 -0.2592813 -0.30040118 0.0414601
0.063682035 0.009085901 -0.23795094 0.23359895 -0.16653715 0.024445152 0.008500253 0.0070755067
0.15157883 -1.1956654 0.35990098 1.2613915 0.027441874 -0.13942845 -0.327697 -0.39210415
-0.11019147 -0.26062545 -0.55569875 0.6601456 0.20260298 0.3054871 0.3509696 -0.3655811
0.15993682 0.6309276 -0.38326976 -0.12866147 -0.30073655 0.50227225 -0.5463962 0.15784357
-0.8161737 -1.0343521 0.18799578 -0.3203589 0.16067478 -0.24160685 -0.0054736105 -0.27591637
0.18302718 -0.7410544 -0.18183973 0.064035475 -0.250127 -0.010233986 -0.46570203 0.04101926
-0.45093614 -0.03646771 0.15534654 -0.119530015 0.26706848 0.13042384 -0.79140157 -0.51826906
-0.1605614 -0.24528755 -0.15442124 0.1746966 -0.4143653 -0.38802886 -0.65433353 0.1354091
00000000: c6dc 023f 3dff 0b3f 2f5d 58bc 368c 3fbe
00000010: 7ebd 843c 32d1 eabd 3d61 7a3f dbd1 84bb
00000020: 45eb 0a3f 7047 763e b114 c03e ad4c 613e
00000030: 51d0 10bf 44f0 8ebe c432 81bd 96a6 e5bf
00000040: 810d 83be 605f 0a3f 1464 523e a362 c83d
00000050: 9bb5 a33e 2b05 023f 7d15 afbe 0424 333d
00000060: 0ee6 bd3e a925 423d b4ff 8abe 07ff aebd
00000070: cbfd 9abe cb67 b4be 1316 f6bd 8c51 023f
00000080: c23e bfbe 5be5 56bf f678 873e 8001 e93f
00000090: b961 003f a885 5cbe d323 823e 1483 96bd
000000a0: a3e1 a83d fae1 c1be c352 f2be 0320 8ebe
000000b0: 08c5 a43e 212b f23e ed7d 83bf fa2c c83e
000000c0: aa69 3ebe 7d14 df3d cf5b c8bc 39c0 81bf
000000d0: 86d0 5bbf a53e fe3c 7197 0fbf 234d babe
000000e0: dec3 d63e ee03 07be d13c 773e 5f7c 693e
000000f0: c179 483d fa2d 1cbf 0e73 afbe 86c1 83be
00000100: 455f 373e 0632 4bbc 9fae 083f 92e0 0a3f
00000110: 9b9e 3f3d 680d 973e 244d 643e 85b3 e13e
00000120: becc 73bd 84f4 2c3f d6dc 043f 873e 103f
00000130: 0859 74be 1248 903e 12a5 a23e 968b 063f
00000140: a9f5 8c3e 448a 0f3f b5a6 213e defe 9d3f
00000150: eb31 e1bd 8569 773c bb7f 763e 4952 2e3e
00000160: aacb 023f d619 033f d759 3e3f db8f c03e
00000170: b994 743f 8a02 003f 93d8 403e 5cd4 de3e
00000180: 2b29 4a3e 48df 7b3d 02ce 953e 6db8 8b3e
00000190: 279d 833d 2907 b73d d916 ac3e b768 393f
000001a0: 27d8 75be 0e45 1cbc 0e0b 96be 8e82 513f
000001b0: 954b 2c3f 692a 21be 5e75 72bd 8c94 e03e
000001c0: bb9f d23e 9940 543f e840 0d3f 5119 0b3e
000001d0: bb08 ecbd aa0f 603f 13d7 5cbe 0cd2 2cbe
000001e0: ad0d 423e 822e d13e 2345 0a3d 8ef5 183f
000001f0: 8658 773e 1971 2b3f a741 aa3e 5dbd 883e
00000200: d538 603e 88aa 873d 4d02 113f ff89 a5bd
00000210: de9b 833e 5f22 b8be 2d5b 58be b916 3d3e
00000220: 4943 af3e 9bca c3be c0e7 b5bb 4976 303f
00000230: 2bb7 393e a4b6 e9bd 699c b5bd 042d 11bf
00000240: 98b0 5ebe c149 0fbf 9339 203e 4319 57bf
00000250: 2ccd f43e 3ee0 21be 8b41 91bd 3fed 403e
00000260: 4f97 7d3d 2e33 01be e600 d23e c50c 1bbe
00000270: d6d0 98be 84e1 a4be 3270 2e3e 4afb 98bd
00000280: 7753 113e 0195 d0be 5629 643e e98a 883e
00000290: 058b 0bbd 086f 81bd 19a2 383e a0f8 d83e
000002a0: a867 7f3e c999 1d3d f671 5f3d 67f8 bcbe
000002b0: 99e5 7bbe 4674 583e 30bd a13e 9336 5d3e
000002c0: d595 f3bc 6001 2fbf e02b 363c 2510 b63d
000002d0: deed 97bc 133c bebe 87fb 503e 668c 5e3e
000002e0: 1d63 26bc 7620 693e cac0 6d3e 9c3a 72be
000002f0: f8dc 69bc 85c0 84be 2fce 99be 11d2 293d
00000300: ba6b 823d 08dd 143c 69a9 73be 9034 6f3e
00000310: b788 2abe 3341 c83c a544 0b3c a7d9 e73b
00000320: 7b37 1b3e 900b 99bf f144 b83e 4775 a13f
00000330: c8cd e03c 55c6 0ebe e7c7 a7be e0c1 c8be
00000340: 11ac e1bd b370 85be 4642 0ebf 4dff 283f
00000350: 2877 4f3e ce68 9c3e 4ab2 b33e 722d bbbe
00000360: 7ac6 233e 7984 213f ef3b c4be d5bf 03be
00000370: 24fa 99be ea94 003f 9fe0 0bbf bfa1 213e
00000380: c2f0 50bf a665 84bf f781 403e 1506 a4be
00000390: ee87 243e c967 77be f95b b3bb e944 8dbe
000003a0: 7a6b 3b3e beb5 3dbf 3234 3abe 0825 833d
000003b0: a510 80be 73ac 27bc 7f70 eebe d003 283d
000003c0: 1ae1 e6be 2a5f 15bd 2a13 1f3e 27cc f4bd
000003d0: 33bd 883e d48d 053e 4b99 4abf 48ad 04bf
000003e0: 356a 24be a92c 7bbe 9a20 1ebe aae3 323e
000003f0: b027 d4be b8ab c6be 6782 27bf afa8 0a3e

critic1.4.bias f4 [64]
-1.8331854 0.8134618 -0.52153635 -2.3660228 0.6273977 -0.11840469 -1.8423855 -2.1840525
-0.25219283 -0.08309516 0.83755213 -0.6928761 0.46251243 1.0747707 0.8993568 -0.33104628
-0.36111513 0.07652703 -1.5358144 -1.9708948 -0.59797126 -0.4810729 -1.4885045 0.83132017
-2.275295 -1.7873163 -0.42273477 -1.8352057 -0.58581215 -1.1197149 0.42154518 -1.7913423
-0.9260464 0.2100058 -0.15119332 0.75066715 -1.1105716 -0.23881793 -1.5371776 -2.2036033
-0.024862181 -0.20674764 -0.5055149 0.79102606 -1.5261381 -1.8530916 -1.8473681 -0.43226242
-1.516404 0.19267626 0.73877704 0.6683048 0.012959625 -1.3531876 0.7861749 -1.525339
-0.37669495 0.8758241 -1.6541334 -1.6331617 0.051355507 -1.0129783 -1.018163 -0.4475599
00000000: d2a5 eabf 083f 503f 6883 05bf eb6c 17c0
00000010: 239d 203f 287e f2bd 4ad3 ebbf 84c7 0bc0
00000020: 6b1f 81be cc2d aabd d169 563f 5460 31bf
00000030: 6ece ec3e 1692 893f 3f3c 663f e67e a9be
00000040: 15e4 b8be 34ba 9c3d 9195 c4bf 4846 fcbf
00000050: a514 19bf 304f f6be 5187 bebf 66d1 543f
00000060: 6f9e 11c0 c8c6 e4bf b170 d8be 05e8 eabf
00000070: c9f7 15bf d152 8fbf c5d4 d73e b44a e5bf
00000080: 6011 6dbf c30b 573e 6cd2 1abe b92b 403f
00000090: 3627 8ebf b08c 74be 3cc2 c4bf d607 0dc0
000000a0: c6ab cbbc a7b5 53be 6d69 01bf af80 4a3f
000000b0: 7e58 c3bf 1b32 edbf 8f76 ecbf 8051 ddbe
000000c0: 8719 c2bf ed4c 453e 7e20 3d3f 0616 2b3f
000000d0: 9b54 543c 4035 adbf c242 493f 4f3e c3bf
000000e0: 29de c0be 0236 603f a5ba d3bf 710b d1bf
000000f0: 275a 523d 46a9 81bf 2a53 82bf 9226 e5be

critic1.6.weight f4 [1, 64]
1.3197929 -0.47656646 0.45028543 0.7234421 -0.62191993 -1.0613567 1.2457826 0.6585135
-2.8449714 -2.6908922 -0.47358572 0.7981197 -3.2122068 -0.7417964 -0.7609392 -0.934024
-1.2600644 -1.6661983 1.1566535 0.7416224 0.4639448 0.6849883 0.26460135 -0.52959025
0.7481866 1.4116676 -1.759291 1.0423731 -1.4342123 0.8829572 -2.6045604 0.8407207
1.0992013 -1.4596316 -1.998988 -0.6056371 -1.2325939 -1.8472934 0.90676385 0.80998284
-0.18156666 -1.721478 -1.890272 0.69590044 1.0027016 0.6491459 1.2339332 1.7653561
0.73044926 -2.9730241 -0.5064198 -3.6714666 -1.6632413 1.1802716 -0.5212288 0.95465016
-1.5026996 -0.6946004 0.8865685 0.8618433 -3.576517 0.6787537 -1.0956792 -1.1026318
00000000: f9ee a83f 8500 f4be d08b e63e 8033 393f
00000010: 2536 1fbf 89da 87bf ce75 9f3f 5794 283f
00000020: 0314 36c0 9437 2cc0 d479 f2be 9351 4c3f
00000030: cc94 4dc0 5ee6 3dbf e9cc 42bf 321c 6fbf
00000040: ca49 a1bf fc45 d5bf 390d 943f f7da 3d3f
00000050: 2c8a ed3e 655b 2f3f d479 873e 3a93 07bf
00000060: 2889 3f3f 86b1 b43f 7330 e1bf 7b6c 853f
00000070: 4594 b7bf 7c09 623f 1eb1 26c0 7939 573f
00000080: a1b2 8c3f 35d5 babf d7de ffbf 080b 1bbf
00000090: a3c5 9dbf 1c74 ecbf ad21 683f 095b 4f3f
000000a0: 9cec 39be 6459 dcbf 6ff4 f1bf 8826 323f
000000b0: 8758 803f 6d2e 263f 86f1 9d3f 30f7 e13f
000000c0: b9fe 3a3f 0746 3ec0 baa4 01bf 4ff9 6ac0
000000d0: 17e5 d4bf 2413 973f 406f 05bf f463 743f
000000e0: 7658 c0bf 55d1 31bf 27f6 623f c3a1 5c3f
000000f0: a8e5 64c0 cdc2 2d3f 373f 8cbf 0a23 8dbf

critic2.0.weight f4 [64, 82]
-0.051022418 -0.10654752 0.16239052 0.1465812 -0.09683159 0.032937065 0.5084092 0.2441943
0.13886116 -0.025607627 -0.0330122 0.05993467 0.01872076 0.2724984 0.05006769 0.04700712
-0.10417392 0.035157923 0.37222117 0.2373926 -0.2009596 -0.21752895 0.40435258 0.068075165
0.19089651 0.19511075 -0.03794998 0.2683851 0.08936923 -0.11052315 -0.13219692 0.017653476
0.0015984513 0.12295697 0.21742593 0.09547888 -0.13341719 -0.21179596 0.27586064 0.25295508
-0.24045438 -0.10046532 0.11214118 0.030531997 0.104289055 0.030186621 -0.008649837 -0.17949136
0.056656398 0.020546332 0.39200774 0.30070168 -0.088355646 -0.38303453 0.38585138 0.39821753
0.18181558 -0.09787874 -0.01716296 -0.18666449 0.06133463 -0.027689734 0.027746642 -0.056035254
-0.00038465273 -0.004619574 0.030064886 -5.83272e-05 -0.042317234 0.00074041093 -0.057214778 -0.007826532
-0.0031482242 0.047543325 0.04529199 0.022593524 -0.042668443 0.011818902 0.014611671 -0.013985484
0.02974174 -0.016830537 -0.1769008 0.14062291 -0.08821994 -0.24757758 0.2603695 0.20083094
0.009314942 -0.42795905 0.1312219 -0.07440511 0.2397129 0.113126755 0.06354365 -0.055545054
-0.026292598 0.046083488 -0.07494729 -0.024658918 -0.050462354 -0.1450534 0.35825115 0.34891105
-0.16083096 -0.6888699 -0.25196624 0.08057799 0.1907851 -0.060395036 0.16081223 -0.090936385
0.07454772 0.057083856 -0.07288866 0.15209942 -0.14117368 0.11801034 0.38440832 0.045818973
-0.1212734 -0.40611434 -0.100923195 -0.21771929 0.009692074 -0.07162826 -0.08103632 -0.07148052
0.10621877 0.017546043 -0.09521842 -0.050195493 -0.13251092 -0.4876935 0.68732965 0.5414364
-0.42422825 -0.25375253 -0.07960407 0.13444023 -0.017263705 0.00928607 0.051555067 0.34620476
-0.004648052 -0.059072163 0.073213436 0.012362088 -0.045517385 0.08469968 0.046199802 0.09513502
0.0009785523 0.05263461 -0.045572203 0.029717926 -0.038133897 0.06091247 -0.041679088 -0.042568907
-0.08677608 0.18896414 -0.068556614 0.06636489 -0.010616246 -0.08723602 -0.4444737 -0.29618627
0.34408215 -0.19003561 -0.3522503 0.11457365 -0.024185555 -0.18128036 0.13881138 0.056186017
-0.020594 -0.19053595 -0.09025729 -0.0122361295 -0.113183506 0.121419065 0.03375098 -0.24971747
0.16038822 -0.25482565 -0.28960136 0.23324029 -0.11866591 -0.08256559 0.039018236 0.15185454
0.22439757 -0.08770769 0.009148716 -0.09762012 0.13788646 -0.032409113 -0.3258412 -0.11772776
0.11352688 -0.08110483 -0.38177824 0.1817137 -0.13292246 -0.1344179 -0.04952345 -0.032763034
0.0049792114 -0.18706876 0.1111087 -0.13666587 -0.024587447 -0.060515698 -0.4757984 -0.34066305
0.38353288 -0.45429793 -0.62346053 0.36665797 0.0528062 -0.0065802964 -0.07830301 0.080384076
0.04981389 -0.0705863 -0.02855802 0.004137706 0.014626181 -0.016563743 0.114449695 -0.010240148
-0.0636528 -0.030064365 0.042579073 -0.0855912 -0.019163523 0.09483431 -0.06458653 0.016148664
-0.009488205 0.053946793 0.042027514 0.029352222 -0.09680928 0.23660222 -0.33427 0.16660891
-0.2668633 0.38156405 0.17934012 -0.3134548 0.0007912962 -0.17176005 0.03932666 0.03461469
00000000: e2fc 50bd 9635 dabd b349 263e 6219 163e
00000010: a44f c6bd 04e9 063d 1b27 023f 120e 7a3e
00000020: 9f31 0e3e 16c7 d1bc cd37 07bd 0e7e 753d
00000030: 475c 993c e984 8b3e c713 4d3d 8a8a 403d
00000040: 2359 d5bd c101 103d c693 be3e 0c17 733e
00000050: 5ac8 4dbe e9bf 5ebe 4d07 cf3e fe6a 8b3d
00000060: 607a 433e 1dcb 473e 7071 1bbd c669 893e
00000070: 3707 b73d f659 e2bd a15e 07be 069e 903c
00000080: 2083 d13a ddd0 fb3d e7a4 5e3e 6e8a c33d
00000090: 849e 08be 0ae1 58be 9b3d 8d3e 5483 813e
000000a0: ac39 76be c3c0 cdbd 46aa e53d 3d1e fa3c
000000b0: 8095 d53d ef49 f73c 0cb8 0dbc 95cc 37be
000000c0: 8a10 683d c850 a83c 3db5 c83e 92f5 993e
000000d0: cef3 b4bd 1a1d c4be 508e c53e 2be3 cb3e
000000e0: dd2d 3a3e a674 c8bd 5699 8cbc fa24 3fbe
000000f0: 053a 7b3d 95d5 e2bc ed4c e33c 3985 65bd
00000100: 37ab c9b9 cc5f 97bb a34a f63c 5ba4 74b8
00000110: d654 2dbd 2318 423a 0b5a 6abd db3a 00bc
00000120: 7052 4ebb cabc 423d 1884 393d 0e16 b93c
00000130: 1bc5 2ebd 11a4 413c ca65 6f3c 5f23 65bc
00000140: f3a4 f33c 32e0 89bc 7c25 35be 74ff 0f3e
00000150: a8ac b4bd fa84 7dbe 274f 853e a0a6 4d3e
00000160: b39d 183c 731d dbbe 095f 063e b561 98bd
00000170: 4c77 753e 00af e73d 2c23 823d 3683 63bd
00000180: 9363 d7bc 0ac2 3c3d f77d 99bd 8001 cabc
00000190: 9db1 4ebd e188 14be b26c b73e 78a4 b23e
000001a0: dfb0 24be c759 30bf b801 81be 1306 a53d
000001b0: 2b5d 433e c960 77bd f6ab 243e db3c babd
000001c0: 7aac 983d c3d0 693d a646 95bd f3bf 1b3e
000001d0: d58f 10be 68af f13d 2bd1 c43e adac 3b3d
000001e0: 305e f8bd 38ee cfbe d2b0 cebd cef1 5ebe
000001f0: 81cb 1e3c d6b1 92bd 5ff6 a5bd 6164 92bd
00000200: 3a89 d93d b8bc 8f3c e001 c3bd ca99 4dbd
00000210: f1b0 07be f6b2 f9be d6f4 2f3f 939b 0a3f
00000220: 7234 d9be daeb 81be 7507 a3bd b3aa 093e
00000230: 9d6c 8dbc 9a24 183c 682b 533d c041 b13e
00000240: b04e 98bb a7f5 71bd edf0 953d 5b8a 4a3c
00000250: 7070 3abd 0777 ad3d 013c 3d3d 26d6 c23d
00000260: c442 803a 6497 573d eba9 3abd 0273 f33c
00000270: 4a32 1cbd 5b7f 793d b1b7 2abd bc5c 2ebd
00000280: a8b7 b1bd d17f 413e 6967 8cbd 51ea 873d
00000290: c3ef 2dbc cca8 b2bd 0f92 e3be baa5 97be
000002a0: 892b b03e b298 42be 275a b4be 97a5 ea3d
000002b0: c920 c6bc 8fa1 39be 9224 0e3e 4f23 663d
000002c0: c0b4 a8bc db1b 43be d0d8 b8bd 0c7a 48bc
000002d0: c1cc e7bd 8faa f83d 783e 0a3d f0b5 7fbe
000002e0: cf3c 243e 8278 82be a146 94be 8bd6 6e3e
000002f0: 1d07 f3bd 2618 a9bd 96d1 1f3d c27f 1b3e
00000300: 7ac8 653e 17a0 b3bd 7fe4 153c 0fed c7bd
00000310: 1c32 0d3e 6bbf 04bd a8d4 a6be 401b f1bd
00000320: c880 e83d 4a1a a6bd 7078 c3be 2813 3a3e
00000330: d31c 08be d9a4 09be 1ad9 4abd 8832 06bd
00000340: a728 a33b f48e 3fbe f58c e33d 23f2 0bbe
00000350: 9d6b c9bc 4fdf 77bd d99b f3be 636b aebe
00000360: 6c5e c43e bd99 e8be 1c9b 1fbf 98ba bb3e
00000370: 504b 583d 879f d7bb 545d a0bd 68a0 a43d
00000380: a609 4c3d 8d8f 90bd 82f2 e9bc 9895 873b
00000390: a6a2 6f3c b0b0 87bc 9a64 ea3d 4bc6 27bc
000003a0: 665c 82bd 8b49 f6bc 6567 2e3d 704a afbd
000003b0: d2fc 9cbc 7e38 c23d f145 84bd 344a 843c
000003c0: 6b74 1bbc 50f7 5c3d 0b25 2c3d 1274 f03c
000003d0: f243 c6bd da47 723e 7025 abbe 879b 2a3e
000003e0: 4ea2 88be 5d5c c33e f0a4 373e 267d a0be
000003f0: fd6e 4f3a dee1 2fbe fe14 213d 22c8 0d3d

critic2.0.bias f4 [64]
2.9260418 0.6345932 2.072244 -0.40874037 1.6941507 0.6032067 1.9015793 -0.20883168
-2.0849283 -1.0843269 -1.7018732 2.0647526 1.1347394 1.554597 -0.83504 -1.5486575
0.08265111 -1.3881663 0.6236169 0.3747562 -1.3489513 2.42249 -0.12035958 2.7222853
1.4795511 -0.7301358 1.4393235 -0.3748349 0.59178585 -0.87344146 0.4770856 -0.044071604
-0.10498245 -0.19491865 0.6130657 0.18097383 0.75569916 -0.24568202 1.6778172 1.1873326
0.55010366 -0.5921772 -0.71716523 -0.84095514 -0.059056655 1.027874 3.6061904 0.15337081
-0.5938884 -1.3637339 0.4044098 2.984065 3.6724477 0.36027765 -0.8233383 0.85947627
0.7638057 -0.62456703 0.35827395 0.41572407 0.008584979 0.2625767 -0.5362139 -0.26903704
00000000: 4544 3b40 b374 223f a59f 0440 6b46 d1be
00000010: eed9 d83f c16b 1a3f f366 f33f f9d7 55be
00000020: 776f 05c0 39cb 8abf fbd6 d9bf e824 0440
00000030: 243f 913f 09fd c63f 2ec5 55bf 693a c6bf
00000040: fc44 a93d 6faf b1bf 5ba5 1f3f 0be0 bf3e
00000050: 70aa acbf 130a 1b40 157f f6bd ec39 2e40
00000060: ee61 bd3f 2eea 3abf c13b b83f 5cea bfbe
00000070: 477f 173f dc99 5fbf 9044 f43e 6d84 34bd
00000080: 0a01 d7bd c198 47be e0f1 1c3f 3451 393e
00000090: 8075 413f 1194 7bbe b7c2 d63f 84fa 973f
000000a0: 98d3 0c3f ed98 17bf 2498 37bf d648 57bf
000000b0: 64e5 71bd 6091 833f d3cb 6640 3d0d 1d3e
000000c0: 1209 18bf d58e aebf cd0e cf3e ecfa 3e40
000000d0: 6209 6b40 5076 b83e 4dc6 52bf a306 5c3f
000000e0: c588 433f a0e3 1fbf af6f b73e c9d9 d43e
000000f0: 03a8 0c3c 7470 863e 5045 09bf 39bf 89be

critic2.2.weight f4 [64, 64]
0.0064935326 -0.40652427 -0.52965933 0.17292427 0.368526 -0.122304246 -0.27445632 0.5214984
0.27325556 -0.18531162 0.2280785 0.11977276 -0.3924567 0.25793213 0.07883684 0.66747415
0.3040589 0.17528053 -0.055955574 0.38931862 -0.25010544 -0.53625005 0.021868953 0.06800109
-0.098233625 -0.060054548 0.016647533 -0.009696191 -0.013096585 -0.29544526 0.024099855 0.38177627
0.3220976 0.16667049 0.036362827 0.08681604 -0.27419564 -0.0041087596 -0.044693373 -0.4202686
0.3652754 0.35221177 0.09486146 -0.04419841 -0.022208087 -0.20472345 -0.22801419 0.40741837
0.08244634 -0.0366805 0.025109855 -0.92896754 -0.26613757 0.009662389 0.8097524 -0.036317904
0.36323088 -0.019799832 0.51634127 0.20287248 0.014476936 0.035026126 -0.27789095 0.46376282
0.6018888 -0.050494876 -0.090427645 0.3060576 0.25105852 -0.14223933 0.18891376 0.39347395
0.021522796 0.041209884 -0.19052933 0.22464448 -0.15078323 0.27275527 0.25171 -0.42687565
-0.22995386 -0.3034779 0.0015743674 0.29910943 0.1763877 -0.039584506 0.0989192 0.22116025
0.351807 0.057280183 -0.0440163 0.34691253 0.29456687 0.25360546 0.3970818 0.2027875
-0.17494245 -0.53605896 -0.62295574 -0.44742358 -0.23531452 -0.06686625 -0.004267852 0.06674226
-0.21155795 -0.032881618 -0.38760543 0.08511276 -0.1539843 0.022459043 1.136138 0.08481251
0.04022715 -0.06515667 0.06454592 0.41352633 0.35908422 0.026289877 -0.010254475 -0.092021674
-0.18829754 0.12596157 -0.41273803 -0.65731806 0.18889362 0.013640779 -0.069254965 -0.23742305
0.33793795 -0.0071292324 0.22139488 -0.1715024 0.31535435 0.36449414 -0.24231324 0.32364175
-0.058885444 0.17712386 0.024506385 0.15833117 0.14166841 0.083039194 0.09387193 -0.19248559
-0.2640839 0.24761681 0.29077786 -0.016295927 0.115059204 0.48479798 -0.11111054 0.00096376316
0.19338241 -0.3820385 -0.30089948 0.2221728 -0.19092311 0.20313135 0.062968545 -0.054480575
-0.020918723 0.028730217 0.23562777 -0.15242419 0.17790562 0.0558057 0.56484014 -0.13472208
0.007158787 -0.31261757 -0.20571053 0.06910102 0.024973756 0.050373632 1.2179008 -0.39199314
-0.16344127 -0.02851652 -0.0626249 -0.19271863 0.5211772 0.31793678 0.5482435 -0.3627235
-0.12138707 0.035517618 0.29779357 0.047142286 0.08819304 0.10333156 0.17752567 0.13452542
-1.363014 -0.84837514 -0.5580448 -0.7737686 -0.0058260174 -0.2145491 -0.5338022 -0.65170324
-0.17857894 -0.35791516 0.82707196 0.19718793 -1.2951877 -0.33636257 -0.7086072 0.54194623
0.13538143 0.14604923 -0.8445786 0.4025607 -0.07198807 -0.9080978 -0.53889316 -0.28284204
0.15976757 -0.036315028 -0.08043724 0.5429833 -0.6420866 -0.20250286 0.02721388 -0.49670666
-0.058299396 0.21817595 -0.17928392 0.55898297 -0.032074746 -0.9153525 -0.03428679 0.2715481
0.028582942 -0.3305908 -0.61244524 0.009947513 0.6741516 -0.65120465 -0.8119741 -0.017654179
0.67487943 -2.0415695 0.46770746 -0.7935709 -0.57268786 -0.06985083 -0.14941826 -0.30016452
0.7168599 -0.4970728 0.2505992 -0.21768174 -0.2722076 0.060942646 0.48607257 -0.12186264
00000000: b3c7 d43b f323 d0be c197 07bf 0f13 313e
00000010: 71af bc3e a67a fabd 8a85 8cbe eb80 053f
00000020: 27e8 8b3e 54c2 3dbe 698d 693e 6c4b f53d
00000030: 16f0 c8be ae0f 843e 3675 a13d 96df 2a3f
00000040: 9cad 9b3e bd7c 333e ac31 65bd c554 c73e
00000050: d20d 80be af47 09bf 8526 b33c 2844 8b3d
00000060: b62e c9bd c2fb 75bd 6860 883c c6dc 1ebc
00000070: 0f93 56bc 9a44 97be 0f6d c53c 2e78 c33e
00000080: fae9 a43e abab 2a3e 30f1 143d 9ccc b13d
00000090: 5f63 8cbe c6a2 86bb 6610 37bd 722d d7be
000000a0: 6105 bb3e 1a55 b43e ba46 c23d 6409 35bd
000000b0: bced b5bc 06a3 51be 8d7c 69be 2499 d03e
000000c0: a0d9 a83d 4b3e 16bd 2fb3 cd3c d1d0 6dbf
000000d0: 2f43 88be ff4e 1e3c ef4b 4f3f 15c2 14bd
000000e0: 66f9 b93e 4233 a2bc f12e 043f cebd 4f3e
000000f0: ac30 6d3c 8e77 0f3d b947 8ebe 5272 ed3e
00000100: 6215 1a3f b7d3 4ebd 2132 b9bd 95b3 9c3e
00000110: be8a 803e 30a7 11be 9c72 413e 6b75 c93e
00000120: 9350 b03c b2cb 283d 1f1a 43be 3409 663e
00000130: eb66 1abe 94a6 8b3e 22e0 803e 728f dabe
00000140: 0679 6bbe 7561 9bbe 015b ce3a df24 993e
00000150: fa9e 343e 5d23 22bd 2696 ca3d d577 623e
00000160: 0c20 b43e a09e 6a3d 704a 34bd 859e b13e
00000170: 78d1 963e 93d8 813e 4e4e cb3e 87a7 4f3e
00000180: 1d24 33be 293b 09bf 077a 1fbf b414 e5be
00000190: 4af6 70be 2cf1 88bd 56d9 8bbb 2ab0 883d
000001a0: a6a2 58be e0ae 06bd 3874 c6be 994f ae3d
000001b0: 0fae 1dbe 07fc b73c f86c 913f 2eb2 ad3d
000001c0: 39c5 243d dc70 85bd a730 843d b9b9 d33e
000001d0: e3d9 b73e de5d d73c 6302 28bc dc75 bcbd
000001e0: 12d1 40be 12fc 003e 6652 d3be ff45 28bf
000001f0: 546d 413e 937d 5f3c 8cd5 8dbd 071f 73be
00000200: 3406 ad3e 569c e9bb 57b5 623e 539e 2fbe
00000210: 2076 a13e fa9e ba3e f620 78be 5fb4 a53e
00000220: dd31 71bd f55f 353e 9dc1 c83c 9121 223e
00000230: 8611 113e 7410 aa3d ed3f c03d f11a 45be
00000240: 0136 87be 438f 7d3e d6e0 943e 097f 85bc
00000250: 29a4 eb3d 7137 f83e ec8d e3bd 0da5 7c3a
00000260: 0a06 463e 8d9a c3be 7f0f 9abe 4481 633e
00000270: 5981 43be aa01 503e a7f5 803d 0627 5fbd
00000280: be5d abbc a25b eb3c 6848 713e 1615 1cbe
00000290: e42c 363e 8594 643d 5d99 103f 96f4 09be
000002a0: 4294 ea3b 690f a0be c8a5 52be d684 8d3d
000002b0: c395 cc3c 9554 4e3d 2ce4 9b3f 53b3 c8be
000002c0: 265d 27be 7a9b e9bc 7c41 80bd 0858 45be
000002d0: de6b 053f 9cc8 a23e b059 0c3f e5b6 b9be
000002e0: c999 f8bd ec7a 113d 6678 983e 4518 413d
000002f0: 8d9e b43d 7f9f d33d 4ac9 353e 08c1 093e
00000300: 3e77 aebf 1d2f 59bf 06dc 0ebf b315 46bf
00000310: 2de8 bebb c2b2 5bbe 43a7 08bf 06d6 26bf
00000320: 66dd 36be a840 b7be fdba 533f a2eb 493e
00000330: b6c8 a5bf b737 acbe 4867 35bf fdbc 0a3f
00000340: 6ea1 0a3e ee8d 153e 4e36 58bf 701c ce3e
00000350: 7b6e 93bd 1979 68bf e7f4 09bf acd0 90be
00000360: 1c9a 233e 11bf 14bd 48bc a4bd f400 0b3f
00000370: ca5f 24bf e95c 4fbe a5ef de3c 5650 febe
00000380: 59cb 6ebd 8469 5f3e 3496 37be 8219 0f3f
00000390: cf60 03bd 8b54 6abf 4e70 0cbd 5a08 8b3e
000003a0: c626 ea3c 3343 a9be 36c9 1cbf e5fa 223c
000003b0: 3395 2c3f 59b5 26bf 89dd 4fbf 7f9f 90bc
000003c0: e6c4 2c3f 13a9 02c0 5a77 ef3e 7627 4bbf
000003d0: ac9b 12bf f40d 8fbd 1a01 19be 2aaf 99be
000003e0: 2184 373f 5380 febe 8a4e 803e f6e7 5ebe
000003f0: cb5e 8bbe ff9e 793d 81de f83e 1f93 f9bd

critic2.2.bias f4 [64]
-0.97003067 0.6841994 1.4731921 -0.11243012 -2.3366644 0.21500461 1.2269297 0.31155938
-0.23793334 0.15451764 0.79178315 0.29973984 -0.5084501 0.9397063 0.39169553 0.26810342
-0.39154395 0.48276925 -0.37200275 1.3218621 0.6013219 -0.17589396 -0.19129315 -0.20810984
-0.23528911 -1.1059612 -1.1589894 -1.1957864 1.1298455 0.40256184 0.23373587 -0.28008702
0.40639812 0.33032522 -0.90706515 1.1120784 0.5090831 -0.13104424 0.84048253 0.78638786
-0.092938244 -1.4334621 -0.78518033 -1.1947616 -0.60967016 0.04842093 1.0278623 0.6237808
2.1022387 -0.059389893 -0.42328548 -0.63436747 -1.6422961 -1.1873775 -0.46792546 -1.6717561
-0.297909 -0.115717255 -0.03988079 -1.5866858 1.954074 -0.37903997 -0.34483474 -0.46360707
00000000: ee53 78bf b127 2f3f 8f91 bc3f c341 e6bd
00000010: e98b 15c0 2b2a 5c3e 080c 9d3f b684 9f3e
00000020: cca4 73be df39 1e3e 4db2 4a3f 8077 993e
00000030: c929 02bf 9890 703f 518c c83e da44 893e
00000040: 7378 c8be 882d f73e 2577 bebe c732 a93f
00000050: 3bf0 193f 8c1d 34be 5ae2 43be bf1a 55be
00000060: a1ef 70be 2390 8dbf c459 94bf 870f 99bf
00000070: c79e 903f 961c ce3e 7558 6f3e 9167 8fbe
00000080: 6a13 d03e 6320 a93e 6c35 68bf 9658 8e3f
00000090: 4553 023f 7630 06be dd29 573f b750 493f
000000a0: 6856 bebd b07b b7bf 9401 49bf f3ed 98bf
000000b0: 5813 1cbf 0655 463d fe90 833f 19b0 1f3f
000000c0: 148b 0640 d142 73bd e0b8 d8be e865 22bf
000000d0: c236 d2bf fcfb 97bf ed93 efbe 1bfc d5bf
000000e0: 8787 98be 2bfd ecbd 0a5a 23bd 8518 cbbf
000000f0: 191f fa3f 8711 c2be 2e8e b0be e85d edbe

critic2.4.weight f4 [64, 64]
-0.2612328 0.40829998 0.21007065 -0.24398722 -0.17793517 0.2791772 0.11560765 -0.11243676
0.16689308 0.2912478 0.3250217 0.38489977 -0.6717996 -0.3832453 0.7465664 -0.3921329
-0.046557896 -0.7601144 0.15822724 0.28943402 -0.040927086 -0.5213508 -0.76661676 -0.94499516
-0.49296108 -0.80523765 0.12780085 -0.3830241 0.5767104 -0.2940272 0.13086414 0.28026637
0.7299511 -0.45915392 -0.29623774 -0.7551025 0.30991083 -0.6310683 -0.30098116 0.20517474
-0.24337491 -0.018108595 0.1871503 -0.8714998 -0.6642478 0.14966768 -0.022413187 -0.0971402
0.3569191 -0.3617087 0.22394694 -0.5127902 -0.5656346 0.53499293 0.33033705 -0.8371331
0.08460462 -0.63515174 -0.1389295 -0.32795972 0.20828632 0.68318623 0.34972906 -1.085676
-0.15546466 -0.5475583 0.22332571 1.1267911 0.32058984 -0.69448066 -0.6992294 -0.16225742
0.08530753 0.004474157 0.39294004 0.44682813 -0.3722307 0.45852444 -0.29651842 -0.22272126
0.26097938 0.22938208 0.08016043 0.06702307 -0.050891582 1.0051714 0.15170139 -0.2291564
0.206494 -0.159173 0.41168684 -0.5881199 -0.20000213 -1.8189653 0.15569793 -0.6298903
0.23537529 -0.09998702 0.38940215 0.16862586 0.47947663 0.55343467 0.14502186 -0.17040485
0.543491 0.3052579 0.13067062 -0.02456434 0.082289524 -0.27741358 -0.0077559096 -0.18610099
-0.36252663 0.09088278 -0.61254364 0.16315067 0.38309696 0.018118458 -0.5618084 0.22993071
-0.06188293 -0.25207773 -0.046281558 0.16029865 -0.2852394 -0.4582149 0.4585427 0.21482927
0.09521466 0.1555589 -0.49136332 -0.35257232 -0.046885654 -0.6747076 0.2794294 0.07211579
-0.047600903 0.19663042 0.32137337 0.18942335 0.14161596 0.36897936 -0.16958265 -0.9427234
0.1548634 0.12190963 -0.024890298 0.027049685 0.24813214 0.26843092 -0.6048614 -0.37720028
-0.34797478 -0.39561915 -0.013061123 0.09953011 0.30052993 0.5307397 -0.94560325 0.22242844
0.5212198 -0.41067058 -0.76815134 0.27356094 -0.22646116 -0.2098241 -0.51202375 0.1870755
-0.3759689 -0.22650547 0.27240956 0.16061129 0.09396432 -0.02021603 0.05570451 0.5925832
0.16402869 0.08872284 -0.6437525 -0.11424395 0.6352262 -0.005793053 -0.42747918 -0.10616589
0.05231626 -0.20843074 0.098485515 -0.12110594 0.0827664 -0.066011034 0.3811035 -0.34633258
-1.5864702 -0.03895161 0.6919292 -0.11448763 -0.0878657 0.7351574 0.3850393 -0.20716591
-0.8167608 -0.035898875 0.27752662 0.35458118 -0.83256686 -0.91597027 1.5510325 2.0177562
-0.5113598 -0.13734709 -1.7195107 -0.8462296 -0.048922315 0.62165236 0.85209113 -0.11085292
1.0666596 0.05161621 -0.5901043 -1.0703201 -0.4184473 0.53864753 2.1006348 -1.336609
2.168035 0.28332236 0.27008662 -0.6616786 -0.74360126 -0.6471031 0.59452635 0.2862539
0.8358367 -1.9268162 -1.1643405 0.008722936 -0.5038816 0.041978892 -0.4982415 -0.22306077
-0.25135988 1.3427893 0.50036764 -1.3224612 -0.18178704 -1.7643867 0.30628073 -0.22699939
-0.8812303 0.57627076 -0.4565102 -0.20661691 -0.2573206 -1.0063685 1.420995 0.4872352
00000000: 4ec0 85be b20c d13e c31c 573e c9d7 79be
00000010: a334 36be 50f0 8e3e b4c3 ec3d 3e45 e6bd
00000020: 05e6 2a3e 6f1e 953e 3f69 a63e 9511 c53e
00000030: 0ffb 2bbf ba38 c4be fa1e 3f3f a5c5 c8be
00000040: 7eb3 3ebd db96 42bf 5206 223e b230 943e
00000050: 29a3 27bd 3f77 05bf ff40 44bf 34eb 71bf
00000060: 6565 fcbe 0e24 4ebf 3ade 023e bc1b c4be
00000070: 4ba3 133f bc8a 96be 4001 063e 137f 8f3e
00000080: 13de 3a3f 3916 ebbe 79ac 97be 664e 41bf
00000090: a2ac 9e3e b18d 21bf 341a 9abe 5419 523e
000000a0: 4637 79be 7a58 94bc 54a4 3f3e 9c1a 5fbf
000000b0: 250c 2abf 7c42 193e dc9b b7bc 71f1 c6bd
000000c0: 1abe b63e e231 b9be 5952 653e 3846 03bf
000000d0: 6ecd 10bf 4cf5 083f f021 a93e 5b4e 56bf
000000e0: 3045 ad3d 4e99 22bf 8943 0ebe 56ea a7be
000000f0: 0249 553e 4be5 2e3f b00f b33e 6ef7 8abf
00000100: 2132 1fbe c82c 0cbf 7faf 643e b13a 903f
00000110: 5a24 a43e 7cc9 31bf b300 33bf cf26 26be
00000120: b7b5 ae3d f39b 923b 702f c93e a8c6 e43e
00000130: 0695 bebe b7c3 ea3e 43d1 97be 0b11 64be
00000140: 179f 853e 23e3 6a3e 272b a43d 6443 893d
00000150: b173 50bd 75a9 803f 9c57 1b3e faa7 6abe
00000160: 2a73 533e 3ffe 22be 9ec8 d23e 078f 16bf
00000170: 5ccd 4cbe dbd3 e8bf 476f 1f3e 7e40 21bf
00000180: 3806 713e ffc5 ccbd b85f c73e 42ac 2c3e
00000190: f67d f53e e5ad 0d3f 9c80 143e 9c7e 2ebe
000001a0: 3a22 0b3f c34a 9c3e 85ce 053e 283b c9bc
000001b0: 6987 a83d 2709 8ebe 4925 febb 4291 3ebe
000001c0: 179d b9be c020 ba3d a9cf 1cbf f810 273e
000001d0: 4925 c43e 296d 943c add2 0fbf f572 6b3e
000001e0: f578 7dbd 5510 81be bb91 3dbd 5425 243e
000001f0: e60a 92be 259b eabe 1cc6 ea3e 34fc 5b3e
00000200: e7ff c23d d54a 1f3e f993 fbbe 5c84 b4be
00000210: 2c0b 40bd a3b9 2cbf 5f11 8f3e 71b1 933d
00000220: 2af9 42bd 7c59 493e 0d8b a43e 32f8 413e
00000230: c603 113e ddea bc3e 13a7 2dbe 5256 71bf
00000240: 8394 1e3e c2ab f93d bde6 cbbc 4d97 dd3c
00000250: 5a16 7e3e c76f 893e 32d8 1abf 6520 c1be
00000260: c029 b2be 988e cabe 52fe 55bc 71d6 cb3d
00000270: 0fdf 993e 8fde 073f 0e13 72bf 48c4 633e
00000280: a96e 053f 6a43 d2be 91a5 44bf 2e10 8c3e
00000290: 6fe5 67be 21dc 56be fd13 03bf b890 3f3e
000002a0: ff7e c0be 0df1 67be 4479 8b3e 4977 243e
000002b0: 5e70 c03d 169c a5bc 6a2a 643d 88b3 173f
000002c0: 23f7 273e 52b4 b53d f7cc 24bf bbf8 e9bd
000002d0: 2f9e 223f a7d3 bdbb 8dde dabe 816d d9bd
000002e0: 9349 563d de6e 55be c6b2 c93d 6406 f8bd
000002f0: 6e81 a93d cb30 87bd ff1f c33e 8152 b1be
00000300: 7511 cbbf b98b 1fbd 4622 313f 7e78 eabd
00000310: eff2 b3bd 4633 3c3f df23 c53e 4d23 54be
00000320: 3c17 51bf b30a 13bd f817 8e3e aa8b b53e
00000330: 1a23 55bf 077d 6abf 3c88 c63f eb22 0140
00000340: 7ae8 02bf b7a4 0cbe ed18 dcbf 81a2 58bf
00000350: c462 48bd 9c24 1f3f a522 5a3f db06 e3bd
00000360: 4d88 883f 856b 533d 1311 17bf 4000 89bf
00000370: b93e d6be cee4 093f cd70 0640 0116 abbf
00000380: 16c1 0a40 a10f 913e cb48 8a3e c563 29bf
00000390: a75c 3ebf 8ca8 25bf e132 183f df8f 923e
000003a0: 65f9 553f eaa1 f6bf 1c09 95bf a5ea 0e3c
000003b0: 62fe 00bf 0ff2 2b3d 8319 ffbe 0b6a 64be
000003c0: 3eb2 80be 85e0 ab3f 1818 003f 6946 a9bf
000003d0: 6226 3abe 6cd7 e1bf d4d0 9c3e 8772 68be
000003e0: 4f98 61bf 7b86 133f b4bb e9be 6293 53be
000003f0: 87bf 83be afd0 80bf 2ae3 b53f e476 f93e

critic2.4.bias f4 [64]
-1.177298 -0.30888662 -0.4563508 0.6114166 -0.17443165 1.1807568 -1.0219253 1.0434113
-2.4171383 -0.7167777 0.93187916 -0.41487485 -0.5162539 -0.26539218 0.050141335 0.21624129
0.03583055 -0.9825916 -0.04078416 0.27280772 -0.8430437 1.1734377 0.15006985 0.08749621
-1.0546311 -1.4510051 -1.2071074 -0.036499646 -0.0070994757 -0.24873564 -0.037705865 1.100059
-0.12962979 -0.056570012 0.067337 0.08552846 -0.7928702 1.1389103 0.24940234 -0.33697343
-2.7828708 -2.347035 -0.41710603 0.07071244 0.06581272 -0.2665721 1.0486197 1.1838291
-0.31184146 -0.52654517 -2.332166 0.017351808 0.16459434 -0.8567628 -1.3809668 0.15879019
-0.18237717 -1.960596 0.9214394 0.39863214 -0.36986578 0.06255213 1.0138087 -0.16602966
00000000: b3b1 96bf 6326 9ebe d0a6 e9be cc85 1c3f
00000010: 369e 32be 0a23 973f 73ce 82bf 808e 853f
00000020: 65b2 1ac0 be7e 37bf a28f 6e3f 7a6a d4be
00000030: 3729 04bf 7ce1 87be 0061 4d3d 5b6e 5d3e
00000040: 0ec3 123d 208b 7bbf 4b0d 27bd 74ad 8b3e
00000050: b6d1 57bf 3533 963f e9ab 193e 3731 b33d
00000060: 27fe 86bf 89ba b9bf 7f82 9abf a780 15bd
00000070: b8a2 e8bb 8eb4 7ebe 7771 1abd bcce 8c3f
00000080: acbd 04be f5b5 67bd fbe7 893d 8c29 af3d
00000090: 8bf9 4abf d0c7 913f 5463 7f3e c887 acbe
000000a0: 8e1a 32c0 d235 16c0 ec8e d5be afd1 903d
000000b0: d2c8 863d 237c 88be 2c39 863f b687 973f
000000c0: afa9 9fbe aacb 06bf 3542 15c0 6125 8e3c
000000d0: 6b8b 283e cf54 5bbf 85c3 b0bf e599 223e
000000e0: 15c1 3abe cff4 fabf 74e3 6b3f 8319 cc3e
000000f0: 0c5f bdbe 551b 803d 7cc4 813f ae03 2abe

critic2.6.weight f4 [1, 64]
1.1572734 0.58813363 0.51053596 -2.6392212 -1.1544523 -0.5101044 1.0116802 -0.7152582
1.1460097 1.5986408 -0.8595043 -1.7462089 -1.1390408 0.67823786 -2.710189 -1.1804713
-2.4344802 1.0561447 0.0850105 -2.2523222 0.6563662 -0.5249128 -2.164378 -1.1566057
0.7519869 0.82412875 1.296833 -3.034051 -2.7648547 0.7207639 -2.4138184 -0.53786254
-1.4155048 -1.827456 -2.0309997 -1.9446157 -0.7832447 -0.80056036 -2.2513177 -1.7610265
1.2907739 1.1098821 0.7103302 -2.4024456 -0.50038075 0.59605205 -0.44249606 -0.5675688
-1.0186914 1.6988188 0.6407474 -3.033446 0.7831372 0.93111473 1.279122 -1.7346067
0.482789 1.0242442 -0.5190357 -2.447404 -1.8667402 0.58357114 -1.8497359 -1.6031982
00000000: 8921 943f ed8f 163f 7cb2 023f 00e9 28c0
00000010: 18c5 93bf 3496 02bf bd7e 813f 291b 37bf
00000020: 72b0 923f 43a0 cc3f 7908 5cbf c683 dfbf
00000030: 17cc 91bf ffa0 2d3f bd73 2dc0 af19 97bf
00000040: 86ce 1bc0 c02f 873f fc19 ae3d 0c26 10c0
00000050: 9e07 283f af60 06bf 2b85 0ac0 a80b 94bf
00000060: 3782 403f 1afa 523f a0fe a53f e42d 42c0
00000070: 61f3 30c0 fc83 383f 007c 1ac0 5cb1 09bf
00000080: 432f b5bf 14ea e9bf e6fb 01c0 2be9 f8bf
00000090: ba82 48bf 86f1 4cbf 9715 10c0 5169 e1bf
000000a0: 1438 a53f 9e10 8e3f 33d8 353f abc1 19c0
000000b0: f418 00bf de96 183f d88e e2be 304c 11bf
000000c0: 7b64 82bf e572 d93f 0608 243f fb23 42c0
000000d0: ae7b 483f 895d 6e3f 45ba a33f 9807 debf
000000e0: 1f30 f73e 6f1a 833f 86df 04bf 44a2 1cc0
000000f0: 58f1 eebf eb64 153f 25c4 ecbf 9935 cdbf
