masac/model/simple_tag/agent_3/704_critic_params.pth (torch, 115263 bytes, 14 tensors)

critic1.0.weight f4 [64, 82]
00000000: 755f 0ebf 6b4c e3be a27c 31bf fefd 52bf
00000010: ece2 e43e 824c a73e b466 ae3e 3d00 d23e
00000020: 6da3 fe3e 82d6 eb3e 7127 fd3e ad9f 5c3e
00000030: 8280 323f 3d9f 3f3f ab33 d73d 8475 583d
00000040: 09e1 58bb b184 c1bc f9da a4be d2fc 26be
00000050: f93e 6fbd 6b7b 5a3c 4b02 a33c e56b ca3d
00000060: 39e4 00bf 9b70 afbe 5366 0d3e a868 5eba
00000070: 7bd1 a03e 7a76 f23e ca38 8b3d fe38 2d3e
00000080: 0bb9 d2bc ebf0 24b9 a50c 67be 0835 9dbe
00000090: 4038 213e 53b3 7a3e 95f3 063d 2933 c1bd
000000a0: 3df0 7fbe 7625 bbbe d4a5 abbd bd92 ad3d
000000b0: 5fd2 773e cbf0 3c3e 108d 7b3e c50b 3f3e
000000c0: f633 633e 57b8 583e 49b8 933e 31ce 173f
000000d0: 73ac 0abf 57be 17bf 1723 91be 3323 d1be
000000e0: 69d7 78bf 9996 74bf 1a8c bcbe da62 f2be
000000f0: 08be 09bf 2fa7 6dbe eed8 1c3d f138 5dbe
00000100: a5e3 643e d60f 43be 15ab 3c3e eb1b a53b
00000110: b7b6 d73c 1184 883c bf8f 02bc b72f b33c
00000120: 77bc e0bb ca96 63bc 0459 ccbc 6a68 283d
00000130: 01e5 29bd cb4f 733c 1376 d73e 3986 c8be
00000140: 23fa c53e 37da cdbe 5681 033e 5ef7 393d
00000150: eb8a e63d b1cb dd3d e48d 96be 590b 19be
00000160: 8eb0 c23c a284 ba3e 88c3 5cbd 04e9 333e
00000170: b950 f63d 0902 733b f8fc 093d 5059 ab3e
00000180: ec22 c63c c2b7 05be ea8c 40be c0a4 b83d
00000190: 8e56 c4be 40e8 e03e e9cd 7f3d dd02 f63d
000001a0: 3445 0f3f 50c5 253e 7875 13bd 2c92 b5bc
000001b0: d084 223e f8f9 12be 6044 bd3e 8406 b63d
000001c0: c550 283d 4a27 dabc 1997 8e3e 1ab7 a63e
000001d0: b7d7 643e 26bd 67be 619a e5be dc34 a53e
000001e0: 7941 273e 8aea ef3e b39b e23c 2288 6bbe
000001f0: 0b7d dbbe 53c0 873e 902c 9cbe b5ca 2c3d
00000200: f4ce 9b3d 2855 1fbe 4322 1cbe e452 88bd
00000210: f1dd e83c 3506 463f ce4a 43bd 8cad 0fbf
00000220: 65a7 1b3e 4aae 6f3e c43a 50be ab92 75be
00000230: 6150 5abe 91a3 ef3d b7e4 bc3d 8141 863d
00000240: c0f1 1f3d 350d 87bd f735 503d 150f e7bd
00000250: 8eb9 383d 8132 b0bd 52a8 abbd edcc 673d
00000260: 1192 88bc 80f9 2ebe d291 9cbd b167 5abd
00000270: 1317 9abd 2494 32bd c811 89bd 8bf5 84bc
00000280: f167 e13b 5eef 183d b8e5 c6bd e095 103e
00000290: 030b d1bd d7db 3cbf 6c48 86be 8e65 b0be
000002a0: e967 d53d 28e5 dfbe fdd1 f83d 8d17 77be
000002b0: b811 893e 2cb1 b9be 4b65 193e d96a adbe
000002c0: a800 1a3f 3772 78bf 16c1 7e3d 95f0 b23e
000002d0: bbf5 193e 4478 f63d a28c 783e d8fb 0fbf
000002e0: 76df 363d b9f9 1cbd ecd2 af3c 955f 0bbe
000002f0: 3ba8 c9be e7a9 fa3e 38d2 26be 9929 0d3e
00000300: f018 b2bd 770b babd f7c1 8bbe 1c25 7d3d
00000310: 58c0 923d 6f55 e63d 5622 193e 527e e6be
00000320: 97fe bd3c ba49 0f3e aca6 463c aee7 e53d
00000330: 80a6 d7bd 2eb7 ae3e ea90 cabc dbf7 8dbe
00000340: 9cc8 e03e 3cd2 02be 062d e3bd 5dcc bd3e
00000350: 55ea 9fbd 76b4 0d3e b683 5b3d c12c 56bf
00000360: 2b4a f03d be93 b9bb 6ba3 51be 085c 2cbd
00000370: 148f 3cbf b270 723f e040 8abd 26d1 863e
00000380: 2b29 95be 9909 163e 0ae8 9bbd 0c00 57bc
00000390: 1e10 61be 8414 18be 99cc bb3e 3ea2 cc3d
000003a0: fcc7 a53d 8f1b 20bd e5d5 e4bc 5820 25bc
000003b0: 9ebb 65bd 0be5 8bbd 038f 84bd e8bb db3d
000003c0: de7b f53c 17bf 3a3b d582 5bbe 352f 553e
000003d0: cc9d 103f 8044 d3be d357 98be 6d2e 8c3e
000003e0: b4d3 0fbf d9c0 df3e cd87 093f 6970 7dbe
000003f0: f037 393f d658 8cbe dfc9 fd3e c896 8fbe
-0.55614406 -0.4439424 -0.693308 -0.8241881 0.44704378 0.32675558 0.3406273 0.41015807
0.4973406 0.46062094 0.49444154 0.21545286 0.6972734 0.74852353 0.10507902 0.052846447
-0.0033093116 -0.023622843 -0.32198313 -0.16307381 -0.058409665 0.013335089 0.019898554 0.098838605
-0.5034824 -0.342656 0.13808565 -0.0008484223 0.3140982 0.47356015 0.06797941 0.16916272
-0.025723001 -0.00015730008 -0.22563417 -0.30704522 0.15744114 0.2448247 0.03294714 -0.09433586
-0.24993987 -0.36552018 -0.083812386 0.08475254 0.24201344 0.1845123 0.2456553 0.18656833
0.2218779 0.2116407 0.28851536 0.59299 -0.54169387 -0.5927481 -0.28347084 -0.40847167
-0.9720369 -0.95542294 -0.3682564 -0.47341043 -0.5380559 -0.23208307 0.038292818 -0.21603753
0.22352464 -0.1904901 0.18424638 0.0050387285 0.026332242 0.016664537 -0.007968842 0.021873338
-0.0068584043 -0.013890931 -0.02494479 0.041115202 -0.04147816 0.014850567 0.4208227 -0.39164904
0.38667402 -0.40205547 0.12842306 0.045401923 0.11256965 0.10829867 -0.2940513 -0.14945735
0.023765828 0.36429316 -0.05389741 0.17569357 0.120271154 0.003708007 0.033688515 0.33466578
0.024186574 -0.1305838 -0.18803754 0.090157986 -0.38347286 0.43927193 0.06245223 0.12012265
0.5596497 0.1618855 -0.0360007 -0.022164427 0.15870976 -0.14353168 0.36966228 0.088879615
0.041092653 -0.026630063 0.27849653 0.3256157 0.22347914 -0.22630748 -0.44844344 0.3226689
0.1633357 0.46858627 0.027662134 -0.2300115 -0.42868838 0.2651392 -0.30502748 0.042185504
0.076078326 -0.15559828 -0.15247445 -0.06656435 0.028426142 0.7735322 -0.04767876 -0.56124187
0.15200575 0.2340633 -0.20334917 -0.2398173 -0.21319725 0.1170112 0.092233114 0.06555463
0.03904891 -0.06594316 0.050832715 -0.112821735 0.045098834 -0.08603383 -0.08381714 0.056591917
-0.016671212 -0.17087364 -0.076450005 -0.053321544 -0.07523932 -0.04359831 -0.06692845 -0.016230365
0.006878846 0.037337653 -0.09711784 0.14119673 -0.102071784 -0.7377295 -0.26227129 -0.3445248
0.1042021 -0.4372952 0.12149427 -0.24130078 0.2677133 -0.36267984 0.14980046 -0.3387058
0.6015725 -0.9704928 0.06219586 0.34949175 0.15035145 0.120346576 0.24272397 -0.5624366
0.044646703 -0.03832409 0.02146288 -0.1361068 -0.39386162 0.4895775 -0.1629113 0.137854
-0.08696163 -0.09084218 -0.2729642 0.06180297 0.07165593 0.11246764 0.14954504 -0.4501825
0.023192687 0.13992968 0.012124699 0.1122583 -0.10529804 0.3412413 -0.024727304 -0.2772816
0.43903053 -0.1277551 -0.11092572 0.3706998 -0.07808367 0.13838372 0.053592406 -0.8366204
0.117328964 -0.005663364 -0.20472495 -0.042079955 -0.7365582 0.9470321 -0.06750655 0.26331443
-0.2913297 0.14652099 -0.07612617 -0.01312257 -0.21978804 -0.14851576 0.36679533 0.09991883
0.080947846 -0.039088782 -0.027934024 -0.010078512 -0.05608713 -0.06830796 -0.0647259 0.107292
0.029966291 0.0028495246 -0.21436627 0.2081879 0.5649078 -0.412632 -0.29754505 0.2737917
-0.5618241 0.4370182 0.5372284 -0.24749912 0.7235098 -0.27411526 0.49568078 -0.28044724

critic1.0.bias f4 [64]
00000000: d01e 143d f150 2040 3f5f e63d ec29 a93d
00000010: 127f 773e 1bec c23f dbb3 5640 ff34 5840
00000020: 3ed4 54bf 6d2e 2d40 f8f9 2cc0 830f e7be
00000030: 86cc 003d 3668 b9bb 0873 93bc 98ac 1ebe
00000040: 9ca7 253f 96cb f3bf 5f0d 2b3d a97a c2be
00000050: 3b58 3540 1f62 3340 d84c 4d3f 3157 2fbc
00000060: edc5 743f aa67 fcbf fb53 3340 53c4 d43e
00000070: 51c0 c2bf 5b78 be3e 45ef 7b40 345c 3440
00000080: 64f9 5240 9bec eb3f d8e6 813f 93cb 4d40
00000090: 651d b4bd b385 a2be b9fe c23f a208 bb3c
000000a0: 51ef 613a 6c0e cd3f c9da 863f cb3a 8440
000000b0: 2513 3a3f aeac 99bd 9f7b 38c0 e4d2 ce3d
000000c0: 7d48 b5be 5d80 1840 4ef7 9abd 82c7 20bf
000000d0: 74d4 433b 158d fb3f 1788 57be 0242 073f
000000e0: e58f 6540 1d80 e13f 4339 7ebf 05cd 77bd
000000f0: d1e9 b1bc 6a7a c0c0 6df5 c0bf dff6 0a3e
0.036162198 2.5049403 0.112486355 0.08259949 0.24169567 1.5228304 3.3547275 3.3782346
-0.83136356 2.7059586 -2.702757 -0.45129022 0.03144505 -0.005658175 -0.017999187 -0.15495527
0.64708877 -1.9046504 0.0417608 -0.37984207 2.8335102 2.8028638 0.8019538 -0.01070194
0.9561451 -1.9719136 2.8020008 0.41556033 -1.521494 0.372012 3.9364789 2.8181276
3.2964716 1.8431581 1.0148573 3.2155502 -0.08794669 -0.3174263 1.5233985 0.022831265
0.000861873 1.6020026 1.0535518 4.132177 0.7268546 -0.07503639 -2.8825452 0.10098818
-0.35406867 2.3828347 -0.07566701 -0.62804425 0.002988127 1.965243 -0.21048008 0.52835095
3.5869076 1.7617222 -0.99306124 -0.060498256 -0.021717938 -6.014943 -1.5074898 0.13570736

critic1.2.weight f4 [64, 64]
00000000: d8ff 06bf 9cdc 0d3e 6f5a d1bd c0b0 3bbe
00000010: fb69 023f e2c5 253e ef53 fa3e 46d0 a13e
00000020: 4edf f63e 61b8 2f3d 0363 62be 6d6d 35bf
00000030: 4c0d 6ebd 2da6 d33d 2dbd afbe ce4d 1d3d
00000040: 7d6d f53e a897 6ebf 7211 a13c 1663 2f3e
00000050: bc1f bebe edef a13d 08f9 b23e d509 e7bd
00000060: af6d 7f3d 7f05 c03d 284f d43e dc4c 483e
00000070: 84f0 a23d ce5c ddbd 82c9 e33c b481 7a3e
00000080: 2499 6bbe 6b45 54be 46b3 3bbe 4245 853e
00000090: bc89 a0be 8dbf 163e 4158 cc3e 6d44 e93e
000000a0: eb46 16be 3c11 e1bd 3e9e d03e addb ad3e
000000b0: 0f31 9bbe a497 d13d b388 febf 3c9b 71be
000000c0: d8ad a5be 8d40 0c3e 5ad1 093e 0482 debd
000000d0: b3d6 4abf b1d1 e93d de4e 12bc a305 df3e
000000e0: 640a 4c3f 561d b93e f1a5 893c 95b9 763b
000000f0: 09bf 0ebc 6962 f43e b379 cfbd dba8 433f
00000100: 78ff 423f f7b1 8f3e 696d db3e df77 d73e
00000110: b8e1 98be ade1 27bf c7ae c0be 009b 46bf
00000120: b2fc 37be c1ef 133e 361a 993f a7f6 683f
00000130: 977a e8be 2e63 4fbe 6b57 17be 76d4 febd
00000140: afe3 bcbe 9ccf 173f e874 ee3b d012 6b3e
00000150: 5c81 413d 9709 cb3b de24 e8be 24ed df3e
00000160: bd20 08bf 642d 97bd 8890 cb3e 9d6d 5abe
00000170: a153 b73e 1b85 a3bf 559d a7bf a50e 993d
00000180: 0fc6 8bbf 5eea c4be a713 373d 2399 433c
00000190: 213d c2bc 6c42 b6be 6017 37bf 866c 8cbe
000001a0: 78f0 04bf 8d81 003d 5173 92be 5333 01bf
000001b0: 8bf7 753f 774f 183e 1f6f 293f 7cb7 56bf
000001c0: 2c32 2b3f a55a 01bf 1c05 383e e1bf eb3e
000001d0: 8161 203f 6450 31bf 5b6d b2be fcf6 0b3e
000001e0: 1fd3 19bf 46b1 14be 39c0 bf3e bf5f 2dbe
000001f0: bb76 6bbe 4419 813f d54f 4bbf 7b98 3ebe
00000200: cffb 1f3e 9b0b 8d3e 6e73 dbbe d34b 50bd
00000210: daba 09be b661 9c3e b491 e8bd 13cc 043f
00000220: 70f7 4cbf 93a7 253f 24e0 14bf 2ad4 8dbe
00000230: 7619 933e c14f 233e 3b98 0e3f 68d8 083e
00000240: 37b3 f83e 3fb2 db3e d297 bebe fce6 5a3e
00000250: c3bb d83d 8d5e 6cbb 937e fc3d f66d 713e
00000260: df20 a93e 3070 a1bd 4de3 00be 4b62 ffbd
00000270: 7643 0e3e 39dc a33e 09f2 aa3e a1bf 11bf
00000280: 8622 6a3e 12d7 113f 116e c0bd 8410 0abe
00000290: 257e 883e 95c0 df3d 8bfe ac3e 8d89 78be
000002a0: 8423 d23e 3914 1b3f 4cd6 593d bf52 46be
000002b0: 5853 80bf 8d3a 493e 2f0f 16bf b811 4a3e
000002c0: 08ac 2b3e 89a0 8d3d 9698 0a3e 2ed5 ebbd
000002d0: 7a44 033e 9aff ab3d 15ea d7bd 1d2d 953d
000002e0: 5a33 353f aee6 ba3e 4b6a a13d 387d 7c3e
000002f0: 7564 ad3b 6384 21bf dc43 c03e ca9c 9bbe
00000300: f0ec 2b3d 98bc a23d 3406 b73d c4ce 06be
00000310: 06cc fa3d 65ee f73e 5772 d13d a621 f33d
00000320: d53f 5b3d cc52 0b3f e592 84be b0ab 9abe
00000330: 5db2 5e3e 7f20 b1be c6e1 423d 5ea7 ca3e
00000340: debc babd 3c74 263f 8df9 c5bd 662d 8e3e
00000350: 9d96 0a3f 8326 133e de52 de3d 97b9 40be
00000360: f1b0 283e 9585 ee3e c1c0 e83e da6e eabe
00000370: 8e3e 213d 27f9 8d3d 0f1b 253f af0d 853e
00000380: 9a91 91be d02e fe3d 5eb3 893e c55c 263e
00000390: 293c eabd 1f94 f83e e436 54bd 007b 4a3e
000003a0: aec7 6fbe 52e4 cb3c 4375 01be 6ebb 1c3e
000003b0: 5538 c53e b165 dc3d f02e 163f 3594 853d
000003c0: 98f2 e8bb 7ab8 a93e 4be3 023e d1a9 54bd
000003d0: 87e6 fcbe ca1a b2bd fb5e af3d ce94 32be
000003e0: 48a5 b73e 1147 843e a741 c23d 6c54 83bc
000003f0: 57e3 053e 535c c43e ea66 6d3e d47a b43e
-0.52734137 0.13853687 -0.10222327 -0.18329144 0.50942963 0.16188768 0.4889216 0.31604213
0.48217243 0.042900447 -0.22108082 -0.70870095 -0.05811815 0.1033443 -0.34324017 0.03840428
0.47935095 -0.9320016 0.019661639 0.17127642 -0.37133586 0.0790709 0.3495562 -0.11281172
0.06236046 0.09376048 0.4146664 0.1956057 0.07956031 -0.10808717 0.027806047 0.2446354
-0.23007637 -0.20729606 -0.18330106 0.26029402 -0.31355083 0.14721508 0.39911082 0.45560017
-0.1467549 -0.10989615 0.4074573 0.33956662 -0.30310866 0.10234001 -1.9885467 -0.23594373
-0.32359195 0.13696499 0.13458768 -0.10864642 -0.79233855 0.114169486 -0.008929936 0.43558988
0.79703355 0.36155194 0.01680276 0.0037647237 -0.0087125385 0.4773133 -0.10130634 0.7642953
0.76171064 0.28065464 0.4285691 0.42083642 -0.2985971 -0.6557873 -0.37633345 -0.7758026
-0.1796749 0.14446928 1.1961124 0.9100136 -0.4540603 -0.20252678 -0.14779441 -0.124428675
-0.3689246 0.5930116 0.00727712 0.22956395 0.047242507 0.0061962116 -0.45340627 0.4373561
-0.53174955 -0.073817044 0.39758706 -0.21330877 0.3580599 -1.2774996 -1.3094889 0.07473496
-1.0919818 -0.38460058 0.044696476 0.011938366 -0.02371079 -0.3559755 -0.7152004 -0.27426547
-0.51929426 0.03137355 -0.28603604 -0.5046894 0.96080846 0.14874063 0.6618518 -0.83873725
0.6687343 -0.5052894 0.17970699 0.4604483 0.6264878 -0.6926329 -0.34849057 0.13668436
-0.6008777 -0.1452075 0.37451342 -0.16931055 -0.22994511 1.0085835 -0.7941869 -0.18612854
0.15623401 0.27547917 -0.42861503 -0.05085356 -0.13450184 0.30543298 -0.11355916 0.5187389
-0.8006506 0.6470882 -0.5815451 -0.2770093 0.28730363 0.15948392 0.55701035 0.13363802
0.4857423 0.42909428 -0.37225205 0.21377176 0.10582688 -0.00360671 0.123288296 0.23577103
0.3303289 -0.07882726 -0.12586708 -0.1246992 0.13892922 0.32003954 0.33387783 -0.5693303
0.22864732 0.56968796 -0.093959935 -0.13482863 0.2665874 0.10925404 0.3378795 -0.24271221
0.4104272 0.6057773 0.053182885 -0.19367503 -1.0025434 0.19651242 -0.5861692 0.19733322
0.16764843 0.06915385 0.1353477 -0.1151527 0.1281909 0.083983615 -0.105426945 0.07283995
0.7078148 0.3650412 0.07881602 0.24657142 0.0052915164 -0.6309263 0.37551773 -0.30393058
0.041974008 0.07946128 0.0893673 -0.13164812 0.12245946 0.48424068 0.10226887 0.11871652
0.05352767 0.54423213 -0.25893322 -0.30209112 0.21747728 -0.34595105 0.047578596 0.39580816
-0.09118055 0.6502111 -0.09666739 0.2776901 0.5413607 0.1437016 0.108556494 -0.18820797
0.16473748 0.4658629 0.4545956 -0.45787698 0.039366297 0.06932288 0.64494413 0.25987002
-0.28431398 0.124112725 0.2689466 0.16246326 -0.11437256 0.48550507 -0.05181016 0.19773483
-0.23416016 0.024889145 -0.12642388 0.15305874 0.3851954 0.107615836 0.5866537 0.06522409
-0.0071089976 0.33148557 0.12782018 -0.051919762 -0.49394628 -0.08696516 0.08563038 -0.17439577
0.35868287 0.2583547 0.094851784 -0.016031466 0.13075005 0.38351688 0.2318379 0.3524996

critic1.2.bias f4 [64]
00000000: 8eeb 4d3e 3cbe 28bf c72d 233f ccdc 983e
00000010: 116d 3b3e a22a 463f 071d 14c0 946f b1bf
00000020: e7bf b6bf 28f5 5ebf 5a07 7fc0 86c0 ad3e
00000030: 3b95 febf c914 e6bd 908d ddbf 0a2f 3cbf
00000040: ce9e b5bf 19f5 8ebd 6bbb 52be 2854 ecbf
00000050: e036 833e 2fa6 c8be e86a fbbe b4bd 61be
00000060: a515 4fbf 9637 0bc0 921c 5c3f fe7d bebb
00000070: ba97 c8be c83a 0fc0 d7fd fe3e ad32 0fc0
00000080: 4259 b23e 5c2a ba3e 8d01 973b cfe2 3abe
00000090: 90fc edbe 2934 abbf 8e1f 3cbf 3e3b bd3e
000000a0: 3f72 86be ae82 303f 549e 023f 7ec5 5a3f
000000b0: 6019 e7bf c2f4 bd3e 2ee9 493d 9c19 6abf
000000c0: bf8d 22bf 32e5 953e cc2c db3d ba9d ddbc
000000d0: 259e 81ba 8220 5ec0 684f 8d3f 9de9 a23f
000000e0: 56d4 f73f 3ccf 9b3f 8b11 883f a11a 1cc0
000000f0: 2fc7 a23e 78e0 4c3f 8401 0c40 a7ec 19bf
0.20109388 -0.65915275 0.63741726 0.29855955 0.18303324 0.774088 -2.3142717 -1.3862176
-1.4277314 -0.8709283 -3.9848237 0.33935946 -1.9889292 -0.11234433 -1.7308826 -0.73509276
-1.4189088 -0.069803424 -0.20579307 -1.8463182 0.25627804 -0.39189288 -0.49105 -0.22045022
-0.808924 -2.1752677 0.85981095 -0.0058133593 -0.39178258 -2.2379627 0.4980304 -2.237468
0.34833723 0.36360443 0.004608339 -0.18250583 -0.46481752 -1.3375293 -0.7348565 0.3695926
-0.26259038 0.689494 0.5102284 0.854576 -1.8054619 0.37100798 0.049294643 -0.91445327
-0.6349754 0.29276425 0.10701904 -0.027052749 -0.000988905 -3.4707341 1.1039858 1.2727543
1.9361675 1.2172618 1.0630354 -2.4391253 0.3179259 0.8003001 2.1875925 -0.6012673

critic1.4.weight f4 [64, 64]
00000000: 4faf 0abf b19f 2c3f dc23 3fbe 55c8 b9be
00000010: f372 34be 3874 633f 132c 613f 10bf 19be
00000020: bfdc 243d e14c b03e d5a7 193f fd0f 383e
00000030: c4b4 8abe ed5d adbe 38c4 46be 541d e3bf
00000040: 9de9 ecbe 605f 0a3f fe3e 8c3d 712a d03e
00000050: c4a6 873e 4f9f aa3e 1d4e 433d 28b6 fdbc
00000060: dc43 2f3f afd1 03be 23e2 2bbd 7e81 3cbf
00000070: cbfd 9abe 0b10 d4bd ba4e 8fbc 1f39 6b3d
00000080: 5507 62be 31fb 21bf b674 393e 527b 923f
00000090: 2d1a 183f a885 5cbe 8c3a 693d cd9f d23e
000000a0: 91b8 203e b454 bcbe eb9d 99be db6b 82ba
000000b0: b966 4c3e caa0 ea3e 69d1 80bf 1094 b43e
000000c0: 0f23 a8be c136 093f b52f 11be ea08 d4bf
000000d0: cde1 8cbf 39b5 903e f248 50bf b7cd e9be
000000e0: 9e28 8a3e 58f9 a8be 9a82 0c3e 560b 13bf
000000f0: 70f4 02bf 503e 3ebf 1e0c e9be 309d 8fbe
00000100: 1d88 d13e cec4 853e 5752 e93e 44da bb3e
00000110: bece 793e f0af b93e 1757 433e db75 4c3f
00000120: 53c1 3b3e b6da f23e f602 293f 922b e63e
00000130: 4150 903e 6254 633e 982e ff3e a407 8f3e
00000140: ae2d 963e 9cbf b73e da4c 043e 4674 7c3f
00000150: f009 473e ce91 0d3c 5fba fb3d fcd7 433f
00000160: 6471 663f ca89 d73e 9bcd 2c3f 37e8 993e
00000170: b994 743f 53ca 1c3f dca6 f33d 42b1 3d3f
00000180: c5e3 da3e bbcd 083c 94c6 193e eb7a 953e
00000190: 5b5a 323e 7955 a9bd 0410 d63e 0a09 663f
000001a0: e577 90be eee5 403e 1933 983e 39b8 2e3f
000001b0: aff8 173f 8172 f9bd bae6 19be adc1 103f
000001c0: 7f26 b03e 8fad 353f 466f fa3e 568f 113e
000001d0: 85a5 843d 5b21 233f f42f 34be f507 16be
000001e0: 4cb0 2cbb 3b2e c73e 92c6 893c 737c 2a3f
000001f0: 350f 8b3e 15db 993e 9109 453e 1dbe 923d
00000200: 32fa 0bbd 867c aebd e181 113f 5872 8d3d
00000210: fdc2 433d 21fc 81be ed83 c5be 740f 54be
00000220: ad6f ab3d 7c4f 38be 6286 2bbf ace5 4c3f
00000230: 74eb d0be ba92 a2bd f19c a1be 1373 77be
00000240: 8b8b c3be faa4 d9be d3ba 873e 029a 54be
00000250: bf31 233c 4283 4fbe 123a b13e fd48 a13d
00000260: f5c1 a7be c976 5bbe babe ca3e 2e0a 86bd
00000270: d6d0 98be e705 30bf 51c4 2c3e a79d 1bbe
00000280: 8060 f3bd 8922 25bd 73a4 a33e df46 5d3e
00000290: 1af7 32be 92a6 de3d 4e75 c73d 04bc 5e3e
000002a0: c68a ff3e e235 54be e88f 15bf 448d 98be
000002b0: 1e25 a7be 2d12 593e f6bf a13e 09e1 85bf
000002c0: 5945 8c3c 1a8b 3cbf debc ac3c a379 263d
000002d0: d976 68be 8c20 34bf 15a2 f03d c005 353e
000002e0: 8917 113e 4d12 173e 11a0 403e 16df e8be
000002f0: fba3 b2bd 3675 eabd 25ce 57be c7be 6d3e
00000300: 0ceb 213f 3ecc 543e 38fe f0bd 0c62 aa3e
00000310: 6e8b bebc ae4f 933e 024a 14bf 3de6 843e
00000320: 74b3 ca3e 900b 99bf c81e 563f af40 923f
00000330: cfc1 233f e8b3 e43d 9a42 73bd b3bc 5ebd
00000340: fd35 55be b370 85be 7c28 debe 9960 343f
00000350: 2108 fc3e 9038 12be c491 e73e 7634 77be
00000360: f397 2c3e 1bb6 e83e 8418 e83c 3d49 c13b
00000370: 24fa 99be 9490 113f 0527 48bf 5109 373f
00000380: 6e9c 86bf fd46 96bf ae5e a63f 90db abbe
00000390: f35c 033f c967 77be f95b b3bb 131a f9bd
000003a0: 1179 99be a0da ffbf a434 21bf 4d84 e6bd
000003b0: 9cd2 eebe 763f 9f3e 0016 77bf 2c6d 993e
000003c0: ce37 953e 1f47 9a3f 7b22 07be 4f00 51bf
000003d0: af40 dd3d 4c20 563f 68dd 9fbf 3773 46bf
000003e0: eaf9 07bf cf1a aa3e ea80 b8bd b47a 55bd
000003f0: b7e3 ccbf 7825 d4be 7dea e5be fd3f 3e3e
-0.5417375 0.6743117 -0.18666023 -0.36285654 -0.17621975 0.8884921 0.87957877 -0.15014291
0.040249582 0.34433654 0.60021716 0.17974849 -0.27091038 -0.33860722 -0.19410789 -1.7743325
-0.46271983 0.5405178 0.06847952 0.4065738 0.2649442 0.33324668 0.047681917 -0.030970648
0.6846292 -0.12872957 -0.041963708 -0.7363509 -0.30271754 -0.103546225 -0.017493594 0.05742752
-0.2207311 -0.6327391 0.18110928 1.1443884 0.5941494 -0.21535361 0.0569406 0.41137543
0.15695406 -0.36783373 -0.30003294 -0.0009950356 0.1996106 0.45825797 -1.0063907 0.35269213
-0.32839248 0.5359917 -0.14178355 -1.656522 -1.1006409 0.28263262 -0.81361306 -0.4566476
0.26984113 -0.33002734 0.13721696 -0.5743917 -0.5115423 -0.7431383 -0.45517057 -0.28049612
0.4092416 0.26126713 0.45570633 0.3668996 0.24395272 0.36267042 0.19076191 0.79867333
0.18335466 0.47432488 0.66020143 0.44955117 0.2818623 0.22200158 0.49840236 0.27935517
0.29331726 0.35888374 0.12919942 0.9861492 0.19437385 0.00864072 0.12291407 0.7650144
0.9001677 0.42097312 0.6750123 0.30059978 0.9553943 0.6124622 0.1189706 0.740986
0.427519 0.008349831 0.15017158 0.2919534 0.1741728 -0.08268256 0.41809094 0.8985754
-0.28216472 0.18837711 0.29726484 0.6824985 0.59363836 -0.12180043 -0.15029421 0.56545526
0.3440437 0.70967954 0.4891302 0.14214835 0.06476883 0.6372277 -0.17596418 -0.14651473
-0.0026350198 0.3890246 0.016818319 0.66596144 0.2716004 0.3004996 0.1924193 0.071651675
-0.03417415 -0.08519845 0.56838804 0.06906575 0.047793377 -0.25387672 -0.38577214 -0.2070902
0.0837091 -0.17999071 -0.67001927 0.8003795 -0.40804636 -0.07938142 -0.3156505 -0.24164991
-0.381924 -0.4250868 0.26509723 -0.20761874 0.009960591 -0.20264915 0.34614617 0.078752495
-0.32765165 -0.21432032 0.39598638 -0.0654491 -0.2984683 -0.68759006 0.16871764 -0.15196858
-0.1188364 -0.04031614 0.31961402 0.21609066 -0.17477074 0.108716145 0.09739171 0.2175141
0.49910563 -0.2072368 -0.5842271 -0.29795277 -0.32645506 0.2119834 0.31591767 -1.04593
0.017122911 -0.7364975 0.021086153 0.040643346 -0.22701587 -0.7036216 0.11749665 0.17677975
0.14169134 0.14753075 0.1881106 -0.454827 -0.08722683 -0.114481375 -0.21074732 0.23217307
0.6324928 0.20781037 -0.117672384 0.3327793 -0.023259845 0.28771728 -0.57925427 0.25956908
0.39590037 -1.1956654 0.8364072 1.142599 0.63967603 0.11167127 -0.059389688 -0.054379176
-0.20821376 -0.26062545 -0.43390262 0.70459896 0.49224952 -0.1427939 0.45228398 -0.24141106
0.16854839 0.45451435 0.028332002 0.0058986233 -0.30073655 0.56861234 -0.7818454 0.7149859
-1.0516489 -1.1740414 1.2997644 -0.3356595 0.51313704 -0.24160685 -0.0054736105 -0.121631764
-0.2997518 -1.9988594 -0.6297095 -0.11255703 -0.46645057 0.31103104 -0.96517944 0.29966104
0.29144138 1.2052954 -0.13196747 -0.81641096 0.10803353 0.8364303 -1.2489443 -0.77519554
-0.53115714 0.33223578 -0.090089634 -0.052118972 -1.6006993 -0.41434836 -0.44905463 0.18579097

critic1.4.bias f4 [64]
00000000: eaa6 e4bf 4b55 613f 0a1c 21bf 50e4 15c0
00000010: 97f8 343f e168 64be c775 f3bf 2df5 16c0
00000020: 415b a1be d9e0 b6be e1e3 673f 4a50 62bf
00000030: d0ca ac3e 01af 943f 45b2 7b3f 2f6a 4bbf
00000040: 294a ddbe b887 73bc 9af5 cfbf 57f8 38c0
00000050: 6340 30bf 62a3 01bf 2130 c4bf 189d 673f
00000060: d3a3 23c0 a924 0dc0 0a7f 19bf 180a febf
00000070: eea4 30bf 0fc9 a6bf b9df ea3e 0b7d 32c0
00000080: 1677 ccbf 3101 eabd 002c ebbe aac3 533f
00000090: 1f9c 1cbf 25a2 adbe 3a74 0bc0 5787 12c0
000000a0: f8dc 0cbd 039a 80be 66cd 21bf 8691 3e3f
000000b0: 3b84 ddbf 0dd6 fcbf 6e07 0dc0 8a83 fcbe
000000c0: 02c2 efbf 1311 ac3d d9ec 483f 6e91 293f
000000d0: 1428 ecbd 50df 9abf 4072 5b3f f97d d7bf
000000e0: 8478 18bf 8510 763f 82fd 13c0 2727 d4bf
000000f0: bbd9 6c3d a182 95bf 6b8b 83bf 1345 07bf
-1.7863438 0.8802077 -0.6293341 -2.34206 0.7069182 -0.22305633 -1.9020318 -2.3587143
-0.31514934 -0.3571842 0.9058209 -0.8840376 0.33748484 1.1615907 0.9831889 -0.794589
-0.43220642 -0.014863901 -1.6246827 -2.8901575 -0.68848246 -0.5063993 -1.5327188 0.9047408
-2.556874 -2.2053626 -0.5995947 -1.984683 -0.6900166 -1.3030108 0.45873812 -2.788882
-1.5973842 -0.114260085 -0.45932007 0.82720435 -0.6117572 -0.3391277 -2.178969 -2.2895105
-0.03439042 -0.25117502 -0.6320404 0.744408 -1.7305979 -1.9752823 -2.2035785 -0.49319106
-1.8731081 0.08401694 0.784864 0.66237533 -0.11531082 -1.20994 0.85721207 -1.6835319
-0.5955889 0.96118957 -2.312348 -1.6574448 0.05782483 -1.168049 -1.0276922 -0.52839774

critic1.6.weight f4 [1, 64]
00000000: c26f 923f c589 b3be f059 343e 1d96 e73f
00000010: 8799 e4be 870b 78bf 0562 9c3f d5cf 273f
00000020: f969 33c0 a2ed 1bc0 398a b5be 80d1 be3f
00000030: 2514 37c0 2679 26bf c2b0 16bf e5b7 5abf
00000040: f884 3cbf 213c c8bf bb81 8c3f 8a4d b43f
00000050: 8606 423e de6f ea3e 26e1 643e c270 dabe
00000060: ea28 953f 63eb c13f 0dd6 c7bf b14b 9c3f
00000070: 5736 acbf fea3 2b3f d4e4 03c0 873e a53f
00000080: a7f0 993f 067c 92bf bd1b 9bbf 07cf f3be
00000090: 403e 81bf b8f4 e1bf 2e6c 693f 0e36 293f
000000a0: c12a 30be 03a4 d6bf 0b13 e1bf debb 5e3f
000000b0: e7c5 7e3f 7088 b03e 9b32 383f f6b1 d93f
000000c0: 0dd2 343f 0a64 36c0 cca5 a5be 2256 7dc0
000000d0: 5cc8 c2bf 6de3 373f e9f2 c3be 340c 803f
000000e0: 50c3 abbf afca 1abf 5ed8 903f 443e 4f3f
000000f0: 67e3 72c0 97d2 003f f606 8bbf e8fc 62bf
1.1440356 -0.35066047 0.17612433 1.8092686 -0.44648382 -0.9689259 1.2217413 0.655515
-2.803343 -2.436379 -0.35457018 1.4907684 -2.8606045 -0.6502861 -0.5886346 -0.8543685
-0.73640394 -1.564335 1.0977091 1.4086163 0.18947801 0.45788473 0.22351512 -0.42664152
1.1653111 1.5149959 -1.5612198 1.2210599 -1.3454083 0.6704711 -2.0608416 1.2909707
1.2026566 -1.1444099 -1.211784 -0.47618887 -1.0097122 -1.7652807 0.91180694 0.66098106
-0.1720381 -1.6768802 -1.7583936 0.8700541 0.99520725 0.34479094 0.7195222 1.7007434
0.7063301 -2.849856 -0.32353055 -3.9583821 -1.5217395 0.718314 -0.38271263 1.0003724
-1.341898 -0.6046552 1.131603 0.80954385 -3.7951295 0.50321335 -1.0861499 -0.88667154

critic2.0.weight f4 [64, 82]
00000000: c493 89bd f084 10be 001b 363e 2f61 883d
00000010: 2a92 52be 0569 e43d 1918 923e e19d ee3b
00000020: d37d f43c 4ea0 4bbd ecf7 d7bd 6106 fdbc
00000030: 02ae 74be 1235 a53c 3a00 a23c 1038 b43d
00000040: b5fa cf3b 08cf e13d 8873 703e fd78 1b3e
00000050: d92a 58be d654 04be b80f 903e c941 39be
00000060: 2a8e 993e 867c 603e 8093 2f3c b202 4f3e
00000070: ef8c 0fbd b264 b5be 6665 26be 0c33 703d
00000080: b4e8 823d 759f 903c 4381 e13d a90c b9bd
00000090: a023 5bbe a731 01bc 3b76 023e 7135 e23d
000000a0: ce0c 2cbe 6c01 1ebc 6dff 813d 0b28 c63d
000000b0: 6692 95bd 52bb 8ebd 7e81 1fbd ffd3 0dbe
000000c0: 20fa d73c 5e0c 7c3d f6b5 f1bb c2d0 1cbe
000000d0: 7db5 0a3e a00b 65bc ce23 9f3e 06ff 5b3e
000000e0: 8402 e13e 4529 1e3e 1ba9 db3d 37e1 693d
000000f0: 4863 743e 62d8 933d 7dd9 483d 08cb 06bd
00000100: 3897 a03d 644c d7bc aa82 4c3c 67f3 e6bc
00000110: fdee 03bd 2ba0 a7bd 5e72 273c 7d99 97bd
00000120: 0b96 c43c c292 473d a799 eabd 501c ad3d
00000130: 1b46 d3bb 658b bebc f352 003d f041 3d3d
00000140: 940c b63a 7cd5 173a 9a19 86bd ed70 b3bc
00000150: e67e bcbe 4532 a0be e66f 363e 3ef7 883e
00000160: be43 563d e839 56be e0b4 363e 2454 2dbe
00000170: 891b 033e c48f 55be d9ca 8d3e 9624 fbbc
00000180: f76d 8fbd fce3 b9bc b599 603d 7fb3 863d
00000190: 218d 99be f891 9abe 3599 793e 7a49 063f
000001a0: cdf1 4bbe a940 d9be dc2c 99be 20a6 333e
000001b0: e923 92bb 5103 9ebe d90e 9a3e 27b3 983c
000001c0: 655d fc3c 1693 3fbc e93c b8be 74dc 1bbd
000001d0: ed56 23bf 93f3 ddbe e467 163f 902c 003f
000001e0: 99a8 1d3d 1efa 2f3e 7137 303c 87ea d43d
000001f0: 57db 513e 89d6 343e 594b 4f3e a626 ad3d
00000200: 30e8 7f3d e7d4 51bd 0c4c 0ebe 5ea5 f3bd
00000210: 06aa babe 938f 1fbf d239 113f a018 113f
00000220: 573a 77bf b7ec c0bd d303 96be 875c e03d
00000230: 451e 21be a666 cdbd e87b 6dbe f8bb 423e
00000240: 6f2b b63d 8f7e e9bd 92f6 50bd 985e 33bd
00000250: 1c46 37be b13f 27bd 4e55 7cbd 7276 74bd
00000260: a631 36bd d31b 46bd 20a5 153d e064 81be
00000270: 3bda 433e 25f5 4e3d a79c 713d 4826 65bd
00000280: 13f1 383d cd89 5cbd 4c0e d2bd a5cc 353c
00000290: b94e 2fbe 972a 00be 6e31 44be 2506 a5bd
000002a0: 9c33 03be 0aa3 cabd d989 d53d 8e1c 883d
000002b0: 6873 0b3c 27bf 93bd c532 b1bc 2a66 363d
000002c0: 1822 33be 8d80 d1bd 17ff 14be e7f4 903d
000002d0: 8132 c13e efb4 9e3c 4a13 c73e 4919 003e
000002e0: 31cb edbe 49aa 63be 42d3 a33d c89d ee3d
000002f0: 0cfe 1abe 574b 44be 8634 dfbd d35c 853d
00000300: 95de 253e db54 d1bd 34d4 3cbd 5045 6fbc
00000310: cedb 30be 9e85 d4bc 5f03 99be a5df ad3d
00000320: fd4a 0dbe c84b e63d 1535 453e b352 2c3e
00000330: c470 e13c be6b fbbd e4b0 c93d 440f 5d3d
00000340: 48fd c33d f4b0 a6bd 5bc8 643d 61bf 5bbd
00000350: 8882 a3bd 2051 b83c 0b97 8dbe 5851 943e
00000360: d18e 4c3d 1bd9 8cbe d86f 4f3e 4d8e f23d
00000370: 5b1f 543e 5d30 c2bd e815 82bc 8055 c23d
00000380: 378c 27bd 097f 34be 3c46 01bd 762a 60bc
00000390: 1ba5 f33d 5b72 ddbd f8aa d13d 0b09 eabc
000003a0: 09a7 a63e a533 98be ede5 5bbd 7015 dc3d
000003b0: 9774 1c3c 5f10 d1bd 082b 2e3e 927a 67bd
000003c0: 9ce0 c23c 6300 62bb 25e6 803d dbaa d03b
000003d0: d15e abbd 2978 d03d 829d f5be a57c 853e
000003e0: 255f 55bf 1775 7d3e 3ae7 213f b884 94be
000003f0: 5310 153f 6165 a7be 1243 133f 1ae9 f43d
-0.06717637 -0.14113212 0.17783737 0.06659161 -0.2056357 0.111528434 0.2853401 0.007282004
0.029845154 -0.049713425 -0.10545334 -0.03088683 -0.23894504 0.020166907 0.019775499 0.087997556
0.0063470253 0.11025816 0.23481572 0.15182872 -0.21110095 -0.12922987 0.28136992 -0.18091501
0.29991275 0.21922502 0.010716319 0.20215872 -0.035046514 -0.35428387 -0.16249618 0.058642432
0.06392041 0.01765416 0.11010983 -0.09035618 -0.21400309 -0.007885373 0.12740414 0.110453494
-0.1680176 -0.009643894 0.06347547 0.09675606 -0.07303314 -0.06969322 -0.038941853 -0.13850401
0.026364386 0.06153523 -0.0073764278 -0.1531401 0.13545795 -0.013979822 0.31082004 0.21484002
0.43947232 0.1544543 0.10725614 0.057099547 0.23865998 0.07219006 0.049035538 -0.03290847
0.07841343 -0.026281543 0.012482325 -0.028192235 -0.03221034 -0.081848465 0.010220138 -0.074023224
0.023997327 0.048723944 -0.11455088 0.08452666 -0.006447566 -0.023259828 0.031329107 0.04620546
0.0013889247 0.00057920045 -0.06547852 -0.021904433 -0.36815566 -0.31288353 0.17816123 0.2675113
0.052310698 -0.20920527 0.17842436 -0.16926628 0.12803473 -0.20855623 0.27693823 -0.030657094
-0.07003396 -0.02269172 0.054834086 0.06577205 -0.29990485 -0.3018949 0.2437485 0.52455866
-0.19916458 -0.42432144 -0.29917037 0.1754384 -0.004459847 -0.30861905 0.30089453 0.018640114
0.030806253 -0.011692783 -0.3598397 -0.038052037 -0.63804513 -0.43349895 0.58752275 0.50067997
0.038490865 0.17185256 0.010755406 0.10396295 0.20493828 0.17659964 0.20243587 0.08454637
0.06247729 -0.05122843 -0.13896197 -0.11896776 -0.36457843 -0.6232845 0.5672885 0.566782
-0.96573395 -0.0942015 -0.29299793 0.10955148 -0.15734203 -0.10029344 -0.23191798 0.19017017
0.08895003 -0.11401092 -0.051016398 -0.043791384 -0.17897838 -0.040832225 -0.06160479 -0.05968327
-0.044480942 -0.04836638 0.03653443 -0.25272274 0.19126217 0.050526757 0.058987286 -0.05594471
0.04515178 -0.053842355 -0.10256633 0.011096154 -0.17119874 -0.12516247 -0.19159481 -0.080578126
-0.12812656 -0.098943785 0.10426683 0.066460714 0.008511402 -0.07214194 -0.021630654 0.044531025
-0.17493474 -0.10229597 -0.14550434 0.070779614 0.37733844 0.019373385 0.38881904 0.12509646
-0.46444085 -0.22232927 0.079992786 0.11651188 -0.15135974 -0.19169365 -0.1089869 0.065118454
0.1619819 -0.10221263 -0.04610081 -0.014603928 -0.17271349 -0.02594262 -0.29885384 0.084899224
-0.13798137 0.11244923 0.1925853 0.16828422 0.027519591 -0.122764096 0.09848192 0.053969637
0.09569794 -0.0813922 0.055855136 -0.05364931 -0.07983881 0.02249962 -0.276543 0.2896831
0.049940888 -0.27509388 0.20257509 0.11843548 0.20715086 -0.09481881 -0.015879586 0.09488964
-0.040905204 -0.17626585 -0.03156112 -0.0136819985 0.11896726 -0.10812827 0.10237688 -0.028568765
0.32549313 -0.29726902 -0.05368607 0.107462764 0.009549282 -0.10208201 0.17008603 -0.056513377
0.023788743 -0.0034485094 0.062938966 0.006368024 -0.08367694 0.10179169 -0.4797173 0.2607166
-0.83348304 0.24751697 0.6324345 -0.29007506 0.58228034 -0.32694533 0.57524216 0.11958523

critic2.0.bias f4 [64]
00000000: 5f04 6440 5cd6 d33e 63ef 2c40 3b20 453d
00000010: 5c38 2c40 4dc9 eb3f ee3a 0c40 2281 f8bf
00000020: e353 8abf 45f7 afbf ca1f 2cbe 26d0 3540
00000030: 0a8c b33f 4efa bf3f 8d86 3b3f a0d7 82bf
00000040: aca7 7c3d dfb4 4dbf 7801 a13f 0a49 163e
00000050: 76b6 1cc0 e01f 4740 c626 babb 81da 4040
00000060: c67b 9a3f 4bee b93d 9800 e63f ba36 9dbd
00000070: 2859 723f d606 ad3c d72a 953d 80b8 6cbf
00000080: 36df 92bf d1e8 c0bd 2f70 37bd 7897 c83b
00000090: 9175 0740 01df eb3e bfbc cb3f f324 e4bd
000000a0: dbfb 9abd 36d6 1abe 1a67 1ac0 3dbf 4f3f
000000b0: a8ed 05be 463a 053e 7506 8c40 42af fb3d
000000c0: d439 50bf 1e54 c7bf 7e1f c43e bdc9 8c40
000000d0: 79be 8940 995f 6f3e 1c55 2ac0 bd34 d23f
000000e0: 664e 013f 3125 4abf 71a7 133d 485e a8bd
000000f0: 8254 0abe 2a3e 3dbf ca77 24bf 5298 c4bf
3.5627668 0.4137448 2.702111 0.04812644 2.69094 1.8420807 2.1910968 -1.9414408
-1.080685 -1.3747336 -0.16809002 2.8408294 1.4027112 1.4998262 0.73252183 -1.0222054
0.06168334 -0.8035411 1.2578573 0.146763 -2.4486365 3.1113205 -0.0056808917 3.0133364
1.2069023 0.09078654 1.7968931 -0.07676454 0.9466729 0.021121424 0.07283562 -0.92469025
-1.1474369 -0.09419406 -0.04478472 0.006121572 2.1165507 0.46068576 1.5916976 -0.1113986
-0.07567569 -0.15120777 -2.4125428 0.8115118 -0.1307894 0.13010511 4.375788 0.12289287
-0.8133824 -1.5572546 0.38305277 4.3996263 4.304501 0.23376311 -2.6614447 1.6422344
0.5051025 -0.78963 0.036048356 -0.08221108 -0.135088 -0.7392298 -0.64245284 -1.5358984

critic2.2.weight f4 [64, 64]
00000000: afa1 023e 030e 02bd db56 23bf 51b0 fb3d
00000010: 31d8 873f 8284 563d 9b54 8c3d c9ed 923e
00000020: 1674 17be 90ad 0bbe 3d98 05bd dbd8 143f
00000030: e456 9f3d 30e0 3a3e 99f5 c53e f6b6 bd3d
00000040: a557 afbf 5d75 953d 3f6b 6ebe f155 653e
00000050: 292e 90be 3da4 8fbe 9be0 92bf d8ce 073f
00000060: d45d 16bf d71c 1b3e efba 4d3e e6c9 11bf
00000070: 36af 8cbe 9595 223c cf8f 8a3c d3bd bd3c
00000080: 5855 e5bd b2ee ad3b 8b3e a0be 121e 8a3d
00000090: aa89 a73e 5a1c d03d 1626 94be a324 aebc
000000a0: ab72 b7bd 2d51 fa3d 7c9a d4bd 5e5f 2dbb
000000b0: 7034 88be 6198 acbd 2910 6b3e 1713 943e
000000c0: ad6f b13d b897 533e 6020 f03c 3e29 28bf
000000d0: 14a0 143e 51e5 12be eccc 163f 8711 833e
000000e0: 1fbb a03e 4e2b 17be 7b63 77be b08b 10be
000000f0: 3953 81bb 89db e7bd e41b 973d ccb1 6cbd
00000100: 5124 223f 74aa 86be 9a1d cdbd f491 29be
00000110: 28da 883e b90f 123f d0b2 03bd 7b26 ce3e
00000120: 1187 01be 53cc c5bd 5fa3 213e f761 643f
00000130: 0410 38be 882d a3be f5ab f63e d218 9abd
00000140: 623d 8aba 5d15 74bd 2806 6c3e e865 b13e
00000150: 1549 6b3d 4934 0cbd 435d 1abd 43cd 3d3b
00000160: dcd2 543e cd4c 2ebe 8d1e 97bc 890a ac3e
00000170: 73f2 253f 4d96 82be 0c94 243e ea81 133d
00000180: b6fe fcbe 13f0 28bd 3d60 e83d 018a 33be
00000190: 8b0f 9a3d 2a08 8e3c d6fb e1be 8630 d83d
000001a0: 949d 6dbe f4d7 96be 1726 03bf b564 d5bd
000001b0: cc40 97bd 42cf f5bc 33d1 a43f 45a4 513e
000001c0: b1b2 c83d 0c41 863d c9bc 63be bf13 283f
000001d0: d7dc 423f 6802 1dbf 27e1 f63e c793 79be
000001e0: bc6b 40bd f0a4 8abd fcee b83d e75b 4fbe
000001f0: 79ca 2d3e 0dbf 3a3d 14c0 3ebd ff24 ec3e
00000200: 447e 933e 05d8 63be 661a 583e 2604 71be
00000210: 3e11 c33e f1d2 f63e 40b6 bcbe 0242 a83e
00000220: 9073 babd 8d35 0b3f 61c8 b93d 4c84 9a3e
00000230: 37ff 523e 101a 84bd 8481 1cbd 998c 59be
00000240: aa15 acbe 6d00 3d3e 3141 d63e 8810 5bbe
00000250: c108 a73e 254b d53e 25e9 9ebe d5be 1d3e
00000260: 6158 15bc a609 78be f1a0 0dbe a9c9 843e
00000270: c1f1 11be 6c97 b43e b2c0 abbe 8834 433d
00000280: 2647 303e 5925 813d cee7 853e 220a bdbe
00000290: 8f30 f03b 57c3 5e3c a173 fd3e 92b0 54be
000002a0: 009d 20be b4d9 243d 308e 97bd 202f 0e3c
000002b0: 1dde 843e d9fc 94be 1a8b 943f 85f0 23be
000002c0: 461c 65be 197e a33b ddc9 1ebe 199c 76be
000002d0: 39cd 363f 1926 443e b767 213f 31aa 41be
000002e0: 3931 4e3e ebe1 18be 7873 103e b808 813c
000002f0: aed9 da3d 0da5 7d3e 4de6 f33d 0734 de3e
00000300: e7fe a5bf 9fbb a4bf 6513 7bbf 7b62 50bf
00000310: 51b8 7abc 3373 c6be e582 14bf 4e1f 8dbf
00000320: dfe4 6abe 3a02 f5be ab16 593f 96d9 8f3e
00000330: a5f8 93bf 5d5b 3dbe 6391 7ebf 4819 b93e
00000340: 42af 33bd a49b 4fbe 84ba 91bf ed3a 1f3f
00000350: 2f64 043e fa87 6fbf 90fd 22bf f3d5 37be
00000360: d1b2 05be 57f5 3cbe 675d e33c 58d3 213f
00000370: a101 43bf fdd8 67bf ab16 153f 2701 17bf
00000380: ca9d 1cbe e1a0 b1bb c68a c2be 4893 083f
00000390: 9deb adbe eb5a 74bf 2f2b e2be 44ff 8d3e
000003a0: aae4 103d 3983 15bf afa4 c5be 674a a6be
000003b0: 90ed 8d3e 1c3a a6bf 8de1 7abf d601 21bd
000003c0: 7396 fa3e 7528 c6bf e07d 893e cea4 44bf
000003d0: 9bbe 0ebf c2cc abbe 7651 aabe 4729 0fbf
000003e0: 0bee 5f3f 3f5b c6be 0403 cfbe f65f 03bf
000003f0: 93c6 57be 8b45 a03c ba96 b83e 9cd9 a5ba
0.1275699 -0.031751644 -0.63804406 0.12289489 1.0612851 0.052372463 0.06852075 0.2869704
-0.14790377 -0.13640428 -0.03261589 0.58143395 0.07780245 0.18249583 0.3866394 0.09263413
-1.3698622 0.07297776 -0.23283099 0.22396065 -0.28160217 -0.2805499 -1.1474794 0.53049994
-0.5873692 0.1514772 0.20090841 -0.569487 -0.27477425 0.009923358 0.016914276 0.023161804
-0.11197919 0.0053079957 -0.31297716 0.06744017 0.32722217 0.10161658 -0.28935307 -0.021257704
-0.08957418 0.12222514 -0.10381028 -0.0026454548 -0.26602507 -0.084275015 0.22955383 0.28920814
0.086638786 0.20663345 0.029312313 -0.6568793 0.1451419 -0.1434529 0.58906436 0.2559931
0.31392762 -0.14762613 -0.24159043 -0.14115787 -0.0039466885 -0.1132117 0.073783666 -0.057786748
0.63336664 -0.2630192 -0.10015412 -0.16559583 0.2672894 0.5705524 -0.03215295 0.40263733
-0.1264918 -0.096581124 0.15784977 0.8921198 -0.1797486 -0.31870675 0.48178068 -0.07524265
-0.0010546858 -0.059590686 0.23049223 0.3464806 0.057442743 -0.03422955 -0.037686598 0.0028961457
0.20783561 -0.17021485 -0.018447185 0.33601788 0.64823073 -0.25505295 0.160721 0.036012568
-0.4941308 -0.041244578 0.11346481 -0.17533113 0.07522496 0.017337877 -0.44137448 0.1055613
-0.23204643 -0.29461634 -0.51229995 -0.10419599 -0.07385406 -0.030006055 1.2876343 0.2047282
0.09799708 0.065553755 -0.22239985 0.6565513 0.76118225 -0.61331797 0.48218653 -0.24372779
-0.046977744 -0.067697406 0.09029958 -0.20249902 0.16971768 0.045592356 -0.0465699 0.46121976
0.2880727 -0.22250374 0.2110382 -0.23536739 0.38099092 0.4820781 -0.36857796 0.3286286
-0.09104073 0.54378587 0.09071422 0.3017906 0.20605169 -0.064502835 -0.038209453 -0.2124504
-0.33610278 0.18457194 0.41846612 -0.21393025 0.32623866 0.41658893 -0.3103725 0.15404828
-0.009115309 -0.2422243 -0.13830926 0.25935104 -0.14252378 0.35271776 -0.33545452 0.04765752
0.17214641 0.063059516 0.26153415 -0.36921793 0.0073300074 0.013596377 0.4950228 -0.20770481
-0.15684891 0.04024668 -0.07400167 0.008678228 0.2595071 -0.29099157 1.160495 -0.1600972
-0.22374067 0.0049893972 -0.15506692 -0.24082984 0.71406895 0.19155158 0.6304888 -0.18912579
0.20135964 -0.14929931 0.14106548 0.015751228 0.1068605 0.24769993 0.11909161 0.4339907
-1.2968415 -1.2869757 -0.9807647 -0.8140027 -0.0153027335 -0.38759765 -0.5801223 -1.1025178
-0.2293887 -0.4785326 0.84800214 0.28095692 -1.1560255 -0.18491884 -0.9944059 0.361521
-0.04386831 -0.20274216 -1.1385045 0.6219929 0.12928842 -0.9356686 -0.63668156 -0.17952709
-0.13056494 -0.18452965 0.027754499 0.6321311 -0.7617436 -0.9056547 0.58237714 -0.58986133
-0.15294567 -0.0054207896 -0.379965 0.53349733 -0.3396882 -0.9545123 -0.4417357 0.27733815
0.03537432 -0.58403355 -0.38602206 -0.3247864 0.27720308 -1.2986484 -0.98000413 -0.03930839
0.4894291 -1.5481097 0.26853848 -0.7681397 -0.5575959 -0.33554655 -0.33265275 -0.5592236
0.874726 -0.3874149 -0.40431988 -0.513183 -0.21071844 0.01956441 0.36052495 -0.0012653354

critic2.2.bias f4 [64]
00000000: 6251 3dbf 9cba 9f3f c0d5 c53f f4fe 01be
00000010: 7df4 7cc0 5cd0 243e 42e6 ab3f 913c 03bf
00000020: 8dbf 44bf dc6c b7bd da25 8b3f 48e3 7bbf
00000030: 24e2 26bf 6e0d 303f 29df b73e ef1b 9a3e
00000040: 702c 85bf 3ecb 8dbf 7afc 6fbe 96d5 cb3f
00000050: f4cb f93e 7b3d 32bf cd35 f8be 950a e6be
00000060: 3214 273c 34d1 34c0 3c30 a4be 98fa 3bbf
00000070: 1574 903f 0619 9d3e 0cbb 553e 604a 7ebe
00000080: 0190 803e 34c8 1d3e c654 80bf 2305 903f
00000090: 4832 383f 2752 88be bfbc 8e3e 3872 bd3e
000000a0: b500 16be 1ec6 15c0 9a88 08bf 29f8 e7bf
000000b0: 7849 11c0 4c83 36be eac8 9f3f ac68 113f
000000c0: c4ff 0340 78c3 eabd d0b1 08c0 ae1c 18bf
000000d0: 2e8a 1fc0 ebd4 05c0 60b6 2cbf 7b8d 13c0
000000e0: e5f6 d3be bd59 b9be 6eb7 753e 6fd2 4cc0
000000f0: 8e93 1040 add1 b5be d710 22be 3acf b0bf
-0.73952305 1.2478824 1.5455856 -0.12694913 -3.9524224 0.16095108 1.3429644 -0.5126429
-0.76854783 -0.0895631 1.0870926 -0.9839368 -0.65188813 0.6877049 0.35912445 0.30099437
-1.0404186 -1.107765 -0.23436156 1.5924556 0.48788416 -0.6962506 -0.48478547 -0.44929948
0.010197686 -2.8252687 -0.3206805 -0.7342925 1.1285425 0.30683154 0.20872134 -0.2483306
0.25109866 0.15408403 -1.0025871 1.1251568 0.71951723 -0.26625177 0.27878377 0.37001204
-0.14648707 -2.340217 -0.5333344 -1.8122607 -2.2701092 -0.17823523 1.2483189 0.5680034
2.0624857 -0.11463064 -2.1358528 -0.5941876 -2.4928088 -2.0911205 -0.6746578 -2.3055103
-0.41399303 -0.36201277 0.23995754 -3.2003438 2.259006 -0.35511532 -0.15826736 -1.381324

critic2.4.weight f4 [64, 64]
00000000: 9e54 a6be 7903 cc3e 2865 c73e 61d3 8c3e
00000010: a2fb 1dbf 6dbe ad3e c82b 143e 500d a0bd
00000020: 0ea6 9a3e 719c 423e 5e33 c43e ddac f73e
00000030: 752f 25bf 8163 a8be e82b 523f da8b 27bf
00000040: 2358 52be 80a0 58bf edb0 5b3e 1fac 8d3e
00000050: bd18 2abf 7ad2 2dbf 1de3 9abe 07f5 1fbf
00000060: a66c b2be f37a 72bf faf2 223f 01fd 70bd
00000070: 4dc8 0f3f 4290 bbbe 67dc 3abd c97c f43e
00000080: 1aae 183f 18e6 ecbe 840d f9be 3f81 0cbf
00000090: 05ee bc3e c0a2 2ebf b56e d6be 8db4 1e3e
000000a0: 30c8 80be 83c3 99be e576 9c3e 62e7 0fbf
000000b0: 31ea 30bf 6b9e c83d 1b29 4d3d 1d28 b13c
000000c0: 2d02 f23e 8623 3bbf 3bf5 463e d12e 9fbe
000000d0: e957 52be 04c4 733d 2426 353f f251 24bf
000000e0: 7033 58be 840a e0be 450e fabd ae22 c3be
000000f0: 9122 9e3e 0e7b 633e 7404 c03e 4699 99bf
00000100: 64bb 95be f862 14bf 0d9b 4f3e 276d 883f
00000110: 21cc c1bd 0f56 16bf 999d 89bf 20a8 053d
00000120: 2e00 713e dc3d af3e f1a2 9d3e a20f ee3d
00000130: c0fd fb3e 2d78 9cbd 190b 53be f94e 5abe
00000140: 6756 a03e 1a1f c2bd c930 f63d bb22 5abf
00000150: 4054 85be 8404 6e3f 7fba 7e3f c5cc fcbc
00000160: 20bf 3fbe 6021 573f f6c2 be3d c893 cfbb
00000170: c5c5 9dbe 3586 f1bf 476f 1f3e 5253 2e3e
00000180: 956e 72be 8ff4 97be 176e 653f 7bf4 153f
00000190: 9372 fa3e d50a 743e 0419 a9bc e3b0 64be
000001a0: d1ff 7bbe 0d32 3b3f 7aa1 413f 47ba b23e
000001b0: 6ffb 503f 063f 2fbd a505 96bf 3822 70bd
000001c0: f203 3cbf 5d70 e13e 75d6 16bf ab68 8dbe
000001d0: 61e8 573d a706 4e3f 8c51 f4be ffa4 733e
000001e0: 80c1 3e3e 45ca 523f 206a c8be b1e0 673e
000001f0: 2193 70bf 91b3 1ac0 9ce7 3ebe 1761 bf3e
00000200: 713c 4cbd db66 983d 0a63 bfbe e233 2ebe
00000210: 0711 b7be 7559 09bf 05f2 a03e 618d 7b3e
00000220: 4cb1 d5bd 5ab8 593d 7372 ac3e f600 703d
00000230: c56d 733e 5c65 c03e 7709 92bd 5e51 9abf
00000240: 8912 933d ebde 71bd 2d3e d9bd beb8 06bd
00000250: c005 aebe 059d fe3c c432 6cbf 9ac7 1cbe
00000260: 9cf6 e0be 68e6 0cbf 5274 c33d 74ac 5bbc
00000270: 69ff 163e 3bb1 e73e 8aa8 8fbf c4d5 d13e
00000280: 0734 d13e 2575 c3be 38bc 3dbf b867 ce3e
00000290: e34f 19be 33b3 b8be 6ed5 43bf febb adbc
000002a0: 36b1 dabe f812 04bf 097d 793e 2165 03bf
000002b0: 89f5 233e 3759 debd 8ea2 d13d 8fa7 013f
000002c0: 51c4 073e 9fce 8abe 9111 50bf 6507 2ebc
000002d0: 0722 1d3f 4948 b5be f6db ebbd 89ad 87be
000002e0: 3fc1 c4be f4f7 03bf dac5 9e3d 533e 6fbe
000002f0: 47f0 e03d a8f9 f3be 09d3 013f 6806 abbe
00000300: 2436 d9bf 701b b83c a179 353f 7e78 eabd
00000310: 616f 66be 4633 3c3f c6e0 993e c655 a2be
00000320: 4545 83bf 28d7 93be b7c2 403e 3e59 d13e
00000330: 0c97 bbbf 8119 60bf 5c15 ba3f 7fd2 f23f
00000340: 1a4d 32bf d3d0 95be 797f 03c0 eae5 50bf
00000350: 9253 0cbf e476 fd3e a522 5a3f 0612 06be
00000360: 250b 543f a3d4 20bd bac4 7cbf 1cdf 76bf
00000370: fa6d e4be d62a 203e cd70 0640 4cdc aebf
00000380: 0e32 f33f a10f 913e 987c 813e 0d16 2abf
00000390: 688b 39bf 7be2 39bf 3ea9 393e 3341 823e
000003a0: 00ca a83e 3ed3 fcbf 902d d9bf fcdb f43c
000003b0: 3dbe f6be fda4 cabd 0394 e3be 640c 7cbe
000003c0: 7414 99be 7ffd c03f 3a3a d13e e98f d4bf
000003d0: 4ede 85be d151 e8bf d4d0 9c3e d00d fdbe
000003e0: d961 abbf a545 2f3f ec14 88bf 956d 42be
000003f0: 5a90 9dbe ebaf cfbf dc91 e13f a133 ea3e
-0.32486433 0.398464 0.38944364 0.2750502 -0.61712086 0.33934346 0.14469826 -0.07815039
0.30204815 0.1900499 0.3832044 0.48374072 -0.6452554 -0.32888415 0.82098246 -0.6544777
-0.20541434 -0.84619904 0.2145421 0.2767038 -0.66444 -0.67899287 -0.302514 -0.6248326
-0.34848517 -0.94718856 0.63652 -0.058835033 0.5616501 -0.36633497 -0.04562035 0.47751454
0.5964066 -0.46269298 -0.48643124 -0.54884714 0.36900344 -0.68217087 -0.41881338 0.15498562
-0.2515273 -0.30031976 0.3055946 -0.5621244 -0.6910735 0.09795841 0.05008803 0.021625573
0.47267285 -0.7310108 0.19429485 -0.31090406 -0.20541348 0.059513107 0.7076132 -0.6418754
-0.21113372 -0.43758023 -0.12209753 -0.38112396 0.30885747 0.2221491 0.37503397 -1.19999
-0.2924453 -0.57963514 0.20273991 1.0658311 -0.094627626 -0.58725065 -1.075122 0.03263104
0.23535225 0.34226882 0.30788377 0.116240755 0.49217033 -0.07640109 -0.20609702 -0.21319188
0.3131592 -0.094785884 0.12021024 -0.85209244 -0.2604084 0.9297564 0.9950332 -0.03085936
-0.18725252 0.840353 0.093145296 -0.0063347556 -0.3081495 -1.8869082 0.15569793 0.17023972
-0.23674996 -0.2967877 0.8962111 0.5857617 0.48915538 0.23832257 -0.020641811 -0.22333102
-0.24609305 0.73123246 0.7563702 0.34907743 0.8163366 -0.042784713 -1.1720473 -0.058626384
-0.7344352 0.4403104 -0.58920985 -0.27618918 0.05271185 0.804789 -0.47718465 0.2379341
0.18628502 0.8233989 -0.39143467 0.22644307 -0.939745 -2.4172099 -0.1864304 0.3737876
-0.04986233 0.07441493 -0.37380248 -0.17011979 -0.35755178 -0.53652126 0.31434646 0.2456565
-0.10434207 0.053154327 0.33681068 0.058594666 0.23772343 0.3757733 -0.071307115 -1.2056081
0.0718127 -0.05905048 -0.10607562 -0.032891028 -0.33988762 0.031080732 -0.9226496 -0.15310517
-0.43938148 -0.5503907 0.09543671 -0.013407815 0.14745869 0.45252404 -1.1223309 0.40983403
0.40860006 -0.38175312 -0.74115324 0.40313506 -0.1497188 -0.36074218 -0.7649754 -0.021207806
-0.42713326 -0.51591444 0.24364103 -0.51326185 0.16011633 -0.1085686 0.10236083 0.506463
0.13258483 -0.27110764 -0.81276804 -0.01062188 0.61380047 -0.35406712 -0.115165636 -0.26499584
-0.38428685 -0.5155022 0.07752581 -0.23363619 0.10983329 -0.4765141 0.5071264 -0.33403325
-1.6969647 0.02247402 0.70888716 -0.11448763 -0.22503425 0.7351574 0.300543 -0.31706065
-1.0255514 -0.2887509 0.18824278 0.408884 -1.4655471 -0.87538916 1.4537768 1.8970488
-0.696489 -0.29260883 -2.0546553 -0.8160082 -0.5481502 0.4950477 0.85209113 -0.13092813
0.82829505 -0.039265286 -0.9873768 -0.9643419 -0.44615155 0.1564134 2.1006348 -1.3660979
1.899965 0.28332236 0.2529037 -0.66439897 -0.7247834 -0.72611207 0.18130967 0.25440368
0.32966614 -1.9751966 -1.696703 0.029890053 -0.48192015 -0.0989475 -0.4444886 -0.24614102
-0.29898417 1.5077361 0.40864736 -1.6606418 -0.26146168 -1.8149968 0.30628073 -0.494246
-1.3389236 0.68465644 -1.0631385 -0.18987115 -0.30774194 -1.6225561 1.7622638 0.45742515

critic2.4.bias f4 [64]
00000000: 0367 8ebf 6461 b1be 326f 0bbf 7adf 193f
00000010: ab50 67bd e866 993f b475 8dbf a278 993f
00000020: d2e9 1bc0 cbcb 90bf 2261 abbe cf5a dfbe
00000030: 0b0d 24bf 8c5d 9abe 136e 44bd 7b22 953d
00000040: f5fe 5fbe 281e dcbf 88d9 9bbe 5052 703e
00000050: bce6 73bf 5352 983f 1928 323e bd2b 48bf
00000060: 977f 97bf c595 dfbf 4496 e7bf 835c 00be
00000070: 1f75 1bbe 8799 d33b 0c9f f5bd a467 8f3f
00000080: 5867 5cbe 3050 ccbe eb92 a33d cef5 c2bd
00000090: 4858 56bf 5863 ac3f a7bc cb3d fcca 25bf
000000a0: 61c6 34c0 3416 50c0 b132 eabe 96ba 95bd
000000b0: 1b68 65be cb71 29bf f63f 873f 212d 9a3f
000000c0: 8c32 dfbe 9eda e6be 8f11 0ec0 d700 bdbd
000000d0: 36fa 90bd 54eb e9be eb4c bcbf 059a ec3c
000000e0: 15c1 3abe 6a2d 0ac0 d718 6f3f 204c 993e
000000f0: cfc6 cabe b0ff 2c3d f3fe 8c3f 3965 cbbe
-1.1125187 -0.34644616 -0.54466546 0.60106623 -0.056473415 1.198453 -1.1051545 1.1989939
-2.4361463 -1.1312193 -0.33472544 -0.4362397 -0.640824 -0.30149496 -0.047956537 0.07281967
-0.21874602 -1.7196703 -0.304394 0.234689 -0.9527395 1.1900123 0.17398109 -0.7819174
-1.1835812 -1.7467581 -1.8092732 -0.1253529 -0.15181397 0.006457511 -0.119932264 1.1203504
-0.21523798 -0.39904928 0.07987007 -0.0951954 -0.83728456 1.3467817 0.09948092 -0.64762855
-2.824608 -3.2513552 -0.457418 -0.07310979 -0.22402994 -0.6618926 1.0566394 1.2045022
-0.43593252 -0.45088667 -2.2198217 -0.09228676 -0.07078974 -0.45687354 -1.4710974 0.028882036
-0.18237717 -2.1590219 0.9339728 0.2994089 -0.39604804 0.04223603 1.1015304 -0.39725664

critic2.6.weight f4 [1, 64]
00000000: 8a3e 873f 1ca1 9b3f f78f 923e 291a 2fc0
00000010: eb10 72bf 7c2a debe d7b4 573f f809 1abf
00000020: 2f40 903f 3340 893f b501 07bf 0eb0 5bbf
00000030: c5ac 67bf ecec 2d3f 1baf 27c0 0035 88bf
00000040: 0e0a 1ac0 ceca c03f 78ed 7b3f 90b5 0dc0
00000050: 52ba ed3e e6a5 d8be dda4 c3bf bd6b f9bf
00000060: 8970 b43f fae7 6e3f f423 523f 16bc fdbf
00000070: b84c 31c0 f84a 473f 115e 14c0 e1ca e0be
00000080: ff37 aabf 4a39 82bf da10 0ac0 b4ba e7bf
00000090: 18d9 40bf 8029 35bf de29 02c0 ea9e c7bf
000000a0: 84a3 9a3f db64 833f 915c f93e 47a5 0ec0
000000b0: 880f 6cbf d362 a03f 86a4 b2be 14f9 f2be
000000c0: 3773 48bf 979e 343f 82ad 213f b95a 38c0
000000d0: 9cb6 6f3f 693b 353f c702 ab3f 6626 a1bf
000000e0: 1f30 f73e 2fd6 a23f 5663 96be acdf 1ac0
000000f0: ad86 ecbf 6d9b 483e 13f6 d2bf 798e abbf
1.056596 1.2158542 0.2862546 -2.7359717 -0.94557065 -0.43391788 0.84260315 -0.6017146
1.1269587 1.0722717 -0.5273698 -0.85815513 -0.90498 0.6793964 -2.6200626 -1.0641174
-2.4068637 1.5061891 0.98409224 -2.2142067 0.46431214 -0.4231407 -1.5284687 -1.9486004
1.4096843 0.9332272 0.8208611 -1.9823024 -2.7703075 0.7784877 -2.3182414 -0.43904784
-1.3298339 -1.0173733 -2.1572785 -1.8103852 -0.7533126 -0.7076645 -2.0338054 -1.5595372
1.2081151 1.0265154 0.48703435 -2.2288377 -0.922112 1.2530159 -0.34891146 -0.47455657
-0.78300804 0.7055449 0.63155377 -2.8805373 0.93638015 0.7079378 1.3360223 -1.2589843
0.482789 1.2721614 -0.29372662 -2.4199018 -1.84786 0.1959054 -1.6481346 -1.3402854
