masac/model/simple_tag/agent_3/828_critic_params.pth (torch, 115263 bytes, 14 tensors)

critic1.0.weight f4 [64, 82]
-0.43139917 -0.563006 -0.6005365 -0.9282927 0.38148698 0.45364717 0.24748018 0.5382537
0.42822796 0.62249184 0.34680644 0.32488474 0.45464945 1.1011256 0.07271299 0.112618804
0.051132273 -0.03843288 -0.30828726 -0.1503838 -0.060429357 0.043241344 -0.013056192 0.13136356
-0.434372 -0.5045246 0.08919437 -0.031892143 0.20012936 0.62018424 0.035613902 0.22893444
-0.08082065 -0.13888942 -0.2714052 -0.30397487 0.19504884 0.28988168 0.040644564 -0.048357088
-0.10230889 -0.47495463 -0.034917515 0.11579706 0.19284227 0.35082203 0.21329339 0.2463397
0.18951017 0.27141133 0.20707268 0.6869768 -0.46449992 -0.63537985 -0.23515366 -0.45191693
-0.7294134 -1.3080013 -0.25428462 -0.62003446 -0.48889157 -0.39839146 0.02688821 -0.14950332
0.19022776 -0.26044208 0.1806787 -0.042088836 0.051140897 0.024412185 0.012687866 0.061187264
0.0081598405 -0.005551098 0.034688715 0.048946913 0.009551293 -0.0020282508 0.35422117 -0.30665606
0.5206813 -0.4841994 0.2510443 -0.05259349 0.32355365 -0.15912548 -0.1866572 -0.072711185
-0.2388126 0.0801812 -0.16456096 0.23534681 0.018655 -0.011878498 -0.07900838 0.24359705
-0.017834367 -0.06316728 -0.55956733 0.2888037 -0.3090772 0.23996182 0.27029848 0.14169514
0.4080821 -0.17339188 0.07466212 -0.08181843 0.15075451 -0.14656302 0.44008502 -0.12782234
-0.00092729204 0.040786285 0.31342408 0.2509364 0.26202935 -0.37094092 -0.28940693 0.37271586
0.057386342 0.26213306 0.12927806 -0.21442866 -0.42073295 0.26818255 -0.25865 -0.033247963
0.03405719 -0.08818064 -0.19449735 0.0008516642 0.15239044 0.462333 0.12867554 -0.43477926
-0.05514131 0.015619179 -0.09064975 -0.14874919 -0.28362584 0.33371338 0.045855787 0.14098631
0.0034137443 0.034542557 -0.09151612 -0.16458666 -0.039231792 -0.13152008 -0.1547768 0.29841784
0.1531747 -0.11151383 -0.09531648 -0.050506998 -0.0863179 -0.053651735 0.19164748 -0.058672242
0.01476212 0.018993163 0.06551423 -0.0785148 0.066107474 -0.25896037 -0.28811988 0.20965306
0.18740031 -0.44860724 0.23735903 -0.29688144 0.37244755 -0.48744532 0.3551122 -0.5805233
1.092986 -1.7186149 0.07972445 0.31552565 -0.05832702 -0.0057427725 0.34991673 -0.06528449
0.034909904 0.01748859 0.04460104 -0.124450214 -0.49859494 0.6143364 -0.10067201 -0.0030724697
0.07836937 -0.5010967 -0.255431 0.027837763 -0.15836972 -0.16418631 0.30323696 -0.18091539
-0.03783166 0.29210344 -0.019455716 0.22548857 -0.31060973 0.58305895 -0.08696589 -0.13635765
0.5110238 -0.22547479 -0.093396775 0.3367337 -0.060554806 0.10441914 0.28419426 -0.64051604
0.0013511764 0.23986785 -0.29358956 0.15862647 -1.2279626 1.6951556 -0.23283757 0.67358434
-0.3633203 0.24424165 -0.019831367 -0.21916871 -0.028392868 0.14424656 -0.015505542 0.042104192
-0.04459635 0.025137264 0.014690309 0.0037684569 0.01151635 -0.0068511767 0.123308 0.05485446
0.022564678 -0.026853453 -0.24228078 0.11005149 0.34697402 -0.31133717 -0.42847776 0.07615255
-0.71919304 0.31697586 0.65334874 -0.16112618 0.8280853 -0.18378025 0.6315671 -0.11902874
00000000: 5ae0 dcbe 2921 10bf c3bc 19bf 97a4 6dbf
00000010: 4352 c33e 7144 e83e 726b 7d3e ffca 093f
00000020: b240 db3e a05b 1f3f 9d90 b13e 4b57 a63e
00000030: d0c7 e83e aff1 8c3f 8cea 943d b0a4 e63d
00000040: 1370 513d cc6b 1dbd d4d7 9dbe 36fe 19be
00000050: c684 77bd d61d 313d a3e9 55bc 2b84 063e
00000060: 0266 debe 8628 01bf 8aab b63d 56a1 02bd
00000070: b6ee 4c3e 65c4 1e3f e2df 113d ca6d 6a3e
00000080: 4c85 a5bd 0739 0ebe 9ff5 8abe 98a2 9bbe
00000090: e2ba 473e 5f6b 943e ea7a 263d 1512 46bd
000000a0: 5387 d1bd 412d f3be ab05 0fbd 0227 ed3d
000000b0: 7278 453e f29e b33e 9569 5a3e 7940 7c3e
000000c0: f40e 423e 6df6 8a3e dc0a 543e b6dd 2f3f
000000d0: efd2 edbe 41a8 22bf 1fcc 70be a861 e7be
000000e0: d6ba 3abf 966c a7bf 9831 82be 94ba 1ebf
000000f0: ff4f fabe f7f9 cbbe aa44 dc3c 6617 19be
00000100: 11cb 423e aa58 85be d603 393e 5865 2cbd
00000110: 1e79 513d 10fc c73c c4e0 4f3c 7f9f 7a3d
00000120: dab0 053c fce5 b5bb c115 0e3d 8f7c 483d
00000130: 077d 1c3c 67ec 04bb 7a5c b53e 0602 9dbe
00000140: 5f4b 053f fce8 f7be e188 803e 456c 57bd
00000150: d3a8 a53e caf1 22be 1123 3fbe 9ae9 94bd
00000160: 4a8b 74be 0a36 a43d ab82 28be c1fe 703e
00000170: 5fd2 983c 089e 42bc 25cf a1bd 8171 793e
00000180: 6119 92bc d95d 81bd ce3f 0fbf 14de 933e
00000190: 5e3f 9ebe 8db8 753e 9064 8a3e 8818 113e
000001a0: 23f0 d03e a48d 31be 74e8 983d 6c90 a7bd
000001b0: 645f 1a3e 9e14 16be d352 e13e dce3 02be
000001c0: 8415 73ba 850f 273d 1f79 a03e bc7a 803e
000001d0: b628 863e f8eb bdbe 252d 94be 9dd4 be3e
000001e0: f10d 6b3d 4e36 863e 7861 043e 3093 5bbe
000001f0: 4f6a d7be 394f 893e c66d 84be 042f 08bd
00000200: 8d7f 0b3d 0d98 b4bd 502a 47be 3842 5f3a
00000210: 3d0c 1c3e e9b6 ec3e 85c3 033e 639b debe
00000220: dbdb 61bd 96e7 7f3c 93a6 b9bd b551 18be
00000230: 6837 91be 7bdc aa3e 47d3 3b3d b75e 103e
00000240: 20b9 5f3b 7f7c 0d3d ce6c bbbd 6889 28be
00000250: 84b1 20bd 33ad 06be cf7d 1ebe 39ca 983e
00000260: d4d9 1c3e 5d61 e4bd 4935 c3bd 6de0 4ebd
00000270: 70c7 b0bd ecc1 5bbd 3d3f 443e 4e52 70bd
00000280: d2dc 713c 8d97 9b3c 532c 863d 5ecc a0bd
00000290: 5b63 873d 7496 84be 7384 93be 4baf 563e
000002a0: dee5 3f3e d9af e5be 3f0e 733e d800 98be
000002b0: 72b1 be3e 6f92 f9be 44d1 b53e 2d9d 14bf
000002c0: f7e6 8b3f 93fb dbbf 9346 a33d 948c a13e
000002d0: 50e8 6ebd de2d bcbb 4928 b33e e0b3 85bd
000002e0: b0fd 0e3d 3b44 8f3c 95af 363d c1df febd
000002f0: d647 ffbe 2645 1d3f 202d cebd 7d5b 49bb
00000300: 1f80 a03d e047 00bf dac7 82be 050c e43c
00000310: ac2b 22be 7520 28be e041 9b3e e241 39be
00000320: 5ff5 1abd 958e 953e 9861 9fbc 7ae6 663e
00000330: 3d08 9fbe 5a43 153f 2c1b b2bd 57a1 0bbe
00000340: 75d2 023f dde2 66be cf46 bfbd 5c68 ac3e
00000350: 5108 78bd b4d9 d53d e981 913e dcf8 23bf
00000360: f519 b13a eb9f 753e 5f51 96be fa6e 223e
00000370: e12d 9dbf dcfa d83f f96c 6ebe 0670 2c3f
00000380: 1e05 babe 7c1a 7a3e 6475 a2bc c36d 60be
00000390: 2998 e8bc 5fb5 133e f50a 7ebc 7275 2c3d
000003a0: aaaa 36bd aaec cd3c 9faf 703c 37f8 763b
000003b0: 13af 3c3c d67f e0bb e888 fc3d 12af 603d
000003c0: 8fd9 b83c c6fb dbbc 7418 78be ad62 e13d
000003d0: 94a6 b13e 9667 9fbe 7061 dbbe def5 9b3d
000003e0: 091d 38bf a94a a23e dd41 273f 43fe 24be
000003f0: 66fd 533f e430 3cbe 62ae 213f 57c5 f3bd

critic1.0.bias f4 [64]
-0.10586335 2.2124233 -0.021790933 0.019849401 0.29082993 1.4857806 3.4262435 3.555245
-0.26320332 2.8640313 -2.5991263 -0.79394126 -0.016430305 0.10360359 0.081853755 -0.09165478
0.108296074 -1.9176599 0.56305605 -0.13967112 2.983239 2.9580088 0.56495345 -0.1010539
1.5807945 -2.3802142 2.9100738 0.5398032 -1.867066 0.47052845 4.0910697 2.7602527
3.4517615 1.969232 0.6651798 3.3834827 -0.1317294 -0.19150998 1.9698682 -0.0018739293
0.04403337 0.51975703 1.342058 4.264012 1.1518688 -0.15635917 -2.949849 -0.8242757
-0.22805265 2.574447 -0.09286759 -0.8256553 0.11504883 1.8737787 -0.14896601 0.79831177
3.74173 2.01823 -0.38194254 -0.30582833 -0.060474854 -6.2747793 -1.6705736 0.16705853
00000000: e2ce d8bd 5898 0d40 e682 b2bc 369b a23c
00000010: a9e7 943e 0f2e be3f 9347 5b40 2289 6340
00000020: 96c2 86be 4a4c 3740 1658 26c0 bc3f 4bbf
00000030: d998 86bc 1e2e d43d f1a2 a73d 80b5 bbbd
00000040: 55ca dd3d e175 f5bf 7124 103f f205 0fbe
00000050: 63ed 3e40 0450 3d40 caa0 103f 59f5 cebd
00000060: 7957 ca3f 6e55 18c0 a63e 3a40 8b30 0a3f
00000070: 05fc eebf 1be9 f03e 0bea 8240 fba7 3040
00000080: a9e9 5c40 cb0f fc3f 3949 2a3f fb8a 5840
00000090: 12e4 06be 311b 44be a424 fc3f a29e f5ba
000000a0: 565c 343d cc0e 053f 8ec8 ab3f c972 8840
000000b0: 7070 933f 9e1c 20be 53ca 3cc0 bb03 53bf
000000c0: a286 69be bdc3 2440 5d31 bebd 255e 53bf
000000d0: b99e eb3d fbd7 ef3f 8c8a 18be 295e 4c3f
000000e0: 8178 6f40 ae2a 0140 f98d c3be 8895 9cbe
000000f0: 7bb4 77bd feca c8c0 5bd5 d5bf 6411 2b3e

critic1.2.weight f4 [64, 64]
-0.28473404 0.10799573 -0.12230338 -0.297044 0.29081258 0.042676605 0.51977146 0.3602097
0.59053105 0.15054101 -0.33296245 -0.77399087 0.03643437 0.21674404 -0.4732034 0.0805862
0.27253813 -0.90057415 -0.119190484 0.17580129 -0.41668984 0.123405635 0.2815092 0.09513116
-0.0062577883 0.08477144 0.4645171 0.38818553 0.0036100848 -0.10168733 0.16596074 0.107355
-0.2245937 -0.22482574 -0.050578423 0.2862172 -0.02829689 0.16943966 0.50866234 0.56162834
-0.10343665 -0.008592525 0.3737805 0.36996478 -0.42963257 0.1626047 -2.2803338 -0.16630816
-0.2814889 0.18273792 0.14499374 -0.100159094 -0.6716623 0.18546426 0.053570718 0.41584226
0.89391494 0.37265915 0.057526216 -0.04840171 0.044925064 0.57649535 0.45549423 0.7077545
0.281365 0.38598165 0.03522191 -0.062425163 -0.9049424 -0.95922196 -0.6868251 -0.75398546
-0.3876154 0.110556476 1.5733263 0.4750524 0.32726234 -0.42347282 0.31171897 0.2843565
-0.27398938 0.5438926 0.2945651 0.4727067 0.60175145 -0.048962373 -0.3702648 0.26922208
-0.5400881 0.4883836 0.42112875 -0.42730856 -0.64922184 -0.14142847 -1.3972487 0.2928376
-0.17997225 -0.09687651 -0.35323066 0.29007754 -0.25476444 -0.47531372 -0.42431355 -0.29443535
-0.09328424 -0.3220265 -0.24735095 -0.4232196 1.0857021 -0.110382386 0.82953256 -0.37675864
-0.20818219 -0.49414718 -0.07000948 0.36441696 0.6546571 0.013230793 -0.3858173 0.08529632
-0.95499885 -0.23882979 0.0920565 -0.640018 -0.33954212 1.3636477 -0.85269594 -0.22037634
0.26267132 0.1789428 -0.27548212 0.078128345 -0.15021111 0.20828657 -0.17836393 0.39263073
-0.7209215 0.54465437 -0.20921142 -0.14154102 0.30125698 0.24754226 0.6700733 0.13768631
0.5169818 0.33535996 -0.18667832 0.10168886 -0.00012197568 -0.09767576 0.12736185 0.489757
-0.020842172 -0.06983217 -0.09406895 -0.2646026 0.4981536 0.3428333 0.38438848 -0.62782955
0.23744798 0.81590873 -0.02634574 -0.11743689 0.20796922 -0.0699781 0.24977507 -0.14704554
0.5992062 0.69777256 -0.058986183 -0.21906258 -0.81167996 0.25478822 0.50755304 0.1983828
0.110802405 0.16043198 0.1237183 -0.02509361 0.17252038 0.07708341 -0.07188072 -0.04591988
0.7010676 0.21974295 0.056379918 0.21741998 0.21250863 -0.83969307 0.46934485 -0.32586047
0.081687234 0.03683467 0.101830795 -0.10055877 0.120261446 0.40412208 0.10074029 0.19367547
0.0035798135 0.60334474 -0.21005107 -0.45172265 0.22787519 -0.25333163 0.124394596 0.315451
-0.06678477 0.73573697 0.013136414 0.27550885 0.5413028 0.14064911 0.023472374 -0.15126118
0.24519238 0.5367371 0.4219103 -0.45901492 -0.019124525 0.18256654 0.7195362 0.2238855
-0.24805471 0.080343395 0.19051853 0.18003918 -0.16478181 0.46108127 -0.075951405 0.1653395
-0.11824764 0.06888759 -0.12261027 0.1995286 0.42616755 0.03851202 0.5156339 0.08620152
0.019552018 0.38085076 0.159465 -0.053139612 -0.52664685 -0.15736441 0.10864478 -0.21385324
0.44489694 0.2727343 0.10434684 -0.12871845 0.089856885 0.4620895 0.51088595 0.30621716
00000000: a9c8 91be de2c dd3d 327a fabd 2716 98be
00000010: 63e5 943e aacd 2e3d be0f 053f 686d b83e
00000020: 0b2d 173f 6c27 1a3e 0e7a aabe 4424 46bf
00000030: 353c 153d 26f2 5d3e b747 f2be 610a a53d
00000040: 1e8a 8b3e 078c 66bf 241a f4bd 4105 343e
00000050: 5f58 d5be 18bc fc3d f921 903e 20d4 c23d
00000060: 220e cdbb a69c ad3d 2fd5 ed3e 41c0 c63e
00000070: 2c97 6c3b 7241 d0bd 9df1 293e f0dc db3d
00000080: e4fb 65be b838 66be 522b 4fbd 108b 923e
00000090: e1ce e7bc 9781 2d3e b237 023f e0c6 0f3f
000000a0: 98d6 d3bd a9c7 0cbc 2860 bf3e 066c bd3e
000000b0: cdf8 dbbe d981 263e fdf0 11c0 b04c 2abe
000000c0: 501f 90be a61f 3b3e 3d79 143e 3620 cdbd
000000d0: 0ff2 2bbf 58ea 3d3e f86c 5b3d 47e9 d43e
000000e0: 9cd7 643f 2ecd be3e 9ca0 6b3d df40 46bd
000000f0: 5803 383d 3395 133f 8a36 e93e 662f 353f
00000100: 130f 903e 639f c53e d944 103d 87b1 7fbd
00000110: 4eaa 67bf 928f 75bf c5d3 2fbf 3105 41bf
00000120: 8775 c6be 6f6b e23d c262 c93f 113a f33e
00000130: ee8e a73e 6ed1 d8be a199 9f3e 2d97 913e
00000140: 5648 8cbe 8c3c 0b3f 3dd1 963e 9d06 f23e
00000150: 620c 1a3f c58c 48bd 5993 bdbe 7ad7 893e
00000160: 3743 0abf 6a0d fa3e 309e d73e 30c8 dabe
00000170: 6733 26bf a0d2 10be 0cd9 b2bf cfee 953e
00000180: a54a 38be 3167 c6bd a6da b4be 0b85 943e
00000190: 7c70 82be 525c f3be a03f d9be 3bc0 96be
000001a0: cf0b bfbd a8e0 a4be 9149 7dbe 3db0 d8be
000001b0: 49f8 8a3f 2910 e2bd 3f5c 543f 82e6 c0be
000001c0: b62d 55be dc00 fdbe 2161 8fbd dc94 ba3e
000001d0: 9c97 273f f8c5 583c d889 c5be d6af ae3d
000001e0: ce7a 74bf cc8f 74be 1e88 bc3d 38d8 23bf
000001f0: 77d8 adbe 028c ae3f 484a 5abf 56aa 61be
00000200: db7c 863e c83c 373e fe0b 8dbe c101 a03d
00000210: f1d0 19be 1349 553e 09a5 36be e506 c93e
00000220: 508e 38bf 786e 0b3f 853b 56be 21f0 10be
00000230: 5b3e 9a3e b87b 7d3e ec89 2b3f a4fd 0c3e
00000240: eb58 043f 4db4 ab3e 9a28 3fbe 4042 d03d
00000250: 32cd ffb8 3b0a c8bd 256b 023e 6ec1 fa3e
00000260: 34bd aabc 2b04 8fbd 39a7 c0bd fe79 87be
00000270: fd0d ff3e d987 af3e 91ce c43e 70b9 20bf
00000280: 9025 733e 65df 503f 05d3 d7bc c182 f0bd
00000290: e2f5 543e ae50 8fbd 09c5 7f3e 1b93 16be
000002a0: 9465 193f 39a1 323f 7f9b 71bd f151 60be
000002b0: 42ca 4fbf 9a73 823e ffee 013f dc24 4b3e
000002c0: 5fec e23d 4848 243e 0560 fd3d 1d91 cdbc
000002d0: 2fa9 303e e8dd 9d3d 3336 93bd 7c16 3cbd
000002e0: 2b79 333f 4c04 613e a1ee 663d 58a3 5e3e
000002f0: dd9b 593e 20f6 56bf f84d f03e 2fd7 a6be
00000300: a34b a73d f3df 163d aa8c d03d c2f1 cdbd
00000310: a24b f63d 17e9 ce3e ed50 ce3d dd52 463e
00000320: 4e9b 6a3b cd74 1a3f a117 57be 3148 e7be
00000330: 1d58 693e afb4 81be 98c2 fe3d cb82 a13e
00000340: 74c6 88bd 4259 3c3f 1d3a 573c 7f0f 8d3e
00000350: d292 0a3f 5206 103e 2349 c03c 36e4 1abe
00000360: b613 7b3e 9a67 093f a004 d83e 0104 ebbe
00000370: 09ab 9cbc b9f2 3a3e 8633 383f 3e42 653e
00000380: 0e02 7ebe 148b a43d 4a17 433e 315c 383e
00000390: 90bc 28be d812 ec3e 698c 9bbd c24e 293e
000003a0: d22b f2bd f014 8d3d 181b fbbd 3a51 4c3e
000003b0: a232 da3e c8be 1d3d 9500 043f 6c8a b03d
000003c0: 8e2b a03c dffe c23e cb4a 233e eca8 59bd
000003d0: 54d2 06bf 2324 21be 2881 de3d 58fc 5abe
000003e0: 88c9 e33e d5a3 8b3e ccb3 d53d c5ce 03be
000003f0: e306 b83d ff96 ec3e 6cc9 023f 7fc8 9c3e

critic1.2.bias f4 [64]
0.3829575 -0.7039662 0.71083534 0.46307662 0.23375183 0.771751 -2.3142717 -1.3774595
-1.4130425 -0.92384017 -4.135756 0.042663343 -1.9663106 -0.04997769 -1.7404118 -0.75415164
-1.4189088 -0.069803424 -0.17408423 -1.835316 0.42387626 -0.26421067 -0.58726263 -0.22044413
-0.808924 -2.1752677 1.0385739 -0.0015299979 -0.39178258 -2.3984764 0.4931083 -2.235006
0.39093626 0.43973976 0.04639304 -0.14964022 -0.32958257 -1.3375293 -0.7539053 0.40089488
-0.32923153 0.86695355 0.51595813 1.0398638 -1.843576 0.2311368 -0.20249161 -0.91445327
-0.66291654 0.30310637 0.27607235 -0.20858094 -0.23563187 -3.4707341 0.88318944 0.97436756
2.111249 1.3947412 1.2271799 -2.300432 0.43679988 0.83897173 2.3741686 -0.49608096
00000000: 0113 c43e 2137 34bf 4ef9 353f 6118 ed3e
00000010: a45c 6f3e 7991 453f 071d 14c0 9850 b0bf
00000020: 94de b4bf ca80 6cbf 1d58 84c0 c2bf 2e3d
00000030: 11b0 fbbf 68b5 4cbd d0c5 debf 1510 41bf
00000040: ce9e b5bf 19f5 8ebd 2343 32be a2eb eabf
00000050: 4f06 d93e 9f46 87be d856 16bf 1bbc 61be
00000060: a515 4fbf 9637 0bc0 fdef 843f 368a c8ba
00000070: ba97 c8be a380 19c0 b178 fc3e 570a 0fc0
00000080: cc28 c83e 9225 e13e a106 3e3d 493b 19be
00000090: 0cbf a8be 2934 abbf f0ff 40bf 1842 cd3e
000000a0: 0991 a8be abf0 5d3f d515 043f 421a 853f
000000b0: 4cfa ebbf 20af 6c3e f659 4fbe 9c19 6abf
000000c0: e6b4 29bf c230 9b3e 5b59 8d3e 3e96 55be
000000d0: 7b49 71be 8220 5ec0 b418 623f 2770 793f
000000e0: b41e 0740 e186 b23f 3b14 9d3f 473a 13c0
000000f0: 3ca4 df3e dac6 563f 61f2 1740 53fe fdbe

critic1.4.weight f4 [64, 64]
-0.5417375 0.6743117 -0.18666023 -0.36285654 -0.17621975 0.8884921 0.87957877 -0.15014291
0.040249582 0.34433654 0.60021716 0.17974849 -0.27091038 -0.33860722 -0.19410789 -1.7743325
-0.46271983 0.5405178 0.06847952 0.4065738 0.2649442 0.33324668 0.047681917 -0.030970648
0.6846292 -0.12872957 -0.041963708 -0.7363509 -0.30271754 -0.103546225 -0.017493594 0.05742752
-0.2207311 -0.6327391 0.18110928 1.1443884 0.5941494 -0.21535361 0.0569406 0.41137543
0.15695406 -0.36783373 -0.30003294 -0.0009950356 0.1996106 0.45825797 -1.0063907 0.35269213
-0.32839248 0.5359917 -0.14178355 -1.656522 -1.1006409 0.28263262 -0.81361306 -0.4566476
0.26984113 -0.33002734 0.13721696 -0.5743917 -0.5115423 -0.7431383 -0.45517057 -0.28049612
0.43401682 0.10161602 0.44492352 0.3818235 0.19369502 0.3224338 0.19076191 0.7120789
0.23473208 0.40461788 0.7292971 0.43664962 0.09108909 0.29392678 0.48887455 0.26029673
0.29331726 0.35888374 0.15053107 0.99696124 0.18829723 0.0012490113 0.05182588 0.76500463
0.9001677 0.42097312 0.7171744 0.3394307 0.9553943 0.46201837 0.14835905 0.7404692
0.44740337 0.03516488 0.14333324 0.25282854 0.13184704 -0.08268256 0.3990959 0.8976152
-0.320783 0.21623704 0.29593346 0.7232858 0.5556326 -0.2103747 -0.18356185 0.56545526
0.35900822 0.6396517 0.48488557 0.121846795 0.0075834184 0.6372277 -0.20014635 -0.040722545
0.047442913 0.41785064 0.014128647 0.50884557 0.25095177 0.4571883 0.22938006 0.0776212
-0.11098452 -0.21889243 0.41074958 0.116475515 0.09162536 -0.18630862 -0.38577214 -0.13184075
-0.09363418 -0.11010772 -0.76323825 0.7990662 -0.22712697 -0.42370164 -0.30612373 -0.22259265
-0.381924 -0.4250868 0.21648577 -0.217148 -0.03563247 -0.2375881 0.6735072 0.07877636
-0.32765165 -0.21432032 0.36974126 -0.27604648 -0.2984683 -0.5521522 -0.34518594 -0.15397881
-0.5220405 -0.6039362 0.22996612 0.10858555 -0.2329243 0.108716145 0.11631618 -0.45809838
0.4041128 -0.14422548 -1.2317034 -0.29399264 -0.2885838 0.40243083 0.3169825 -1.04593
0.018102199 -0.70678484 0.118508585 0.65509075 -0.24268526 -0.7036216 0.23025917 0.17383401
0.11327952 0.081547186 0.16375802 -1.3679018 -0.19820091 -0.27515057 -0.21107973 0.4362895
0.41486415 0.18457253 -0.095375285 0.2477574 0.04857003 0.053598236 -0.57925427 0.3568923
0.43178996 -1.1956654 0.8057634 0.9563173 0.61642736 -0.12317643 -0.059389688 -0.054379176
-0.20821376 -0.26062545 -0.5963341 0.70459896 0.27580705 -0.13842547 0.2733145 -0.24141106
0.16854839 0.45451435 -0.13536064 0.0058986233 -0.30073655 0.5367912 -0.8601808 1.1948856
-1.2793462 -0.75136733 1.1238958 -0.32837495 0.4352727 -0.24160685 -0.0054736105 0.3144729
0.04824897 -2.3768797 0.039684787 -0.20109032 -0.46645057 0.15106638 -1.0930598 0.29966104
0.1653178 0.9702843 -0.414263 -0.7028273 -0.100651026 0.8364303 -1.0248283 -0.9660269
-0.5231309 0.36372408 0.04481002 0.1826106 -1.4059731 -0.41434836 -0.5417021 0.04334469
00000000: 4faf 0abf b19f 2c3f dc23 3fbe 55c8 b9be
00000010: f372 34be 3874 633f 132c 613f 10bf 19be
00000020: bfdc 243d e14c b03e d5a7 193f fd0f 383e
00000030: c4b4 8abe ed5d adbe 38c4 46be 541d e3bf
00000040: 9de9 ecbe 605f 0a3f fe3e 8c3d 712a d03e
00000050: c4a6 873e 4f9f aa3e 1d4e 433d 28b6 fdbc
00000060: dc43 2f3f afd1 03be 23e2 2bbd 7e81 3cbf
00000070: cbfd 9abe 0b10 d4bd ba4e 8fbc 1f39 6b3d
00000080: 5507 62be 31fb 21bf b674 393e 527b 923f
00000090: 2d1a 183f a885 5cbe 8c3a 693d cd9f d23e
000000a0: 91b8 203e b454 bcbe eb9d 99be db6b 82ba
000000b0: b966 4c3e caa0 ea3e 69d1 80bf 1094 b43e
000000c0: 0f23 a8be c136 093f b52f 11be ea08 d4bf
000000d0: cde1 8cbf 39b5 903e f248 50bf b7cd e9be
000000e0: 9e28 8a3e 58f9 a8be 9a82 0c3e 560b 13bf
000000f0: 70f4 02bf 503e 3ebf 1e0c e9be 309d 8fbe
00000100: 7437 de3e 0f1c d03d 04cd e33e 5f7e c33e
00000110: fd57 463e 0b16 a53e 1757 433e ce4a 363f
00000120: 9b5d 703e 132a cf3e 37b3 3a3f 8a90 df3e
00000130: eb8c ba3d 927d 963e c44d fa3e 9d45 853e
00000140: ae2d 963e 9cbf b73e d124 1a3e da38 7f3f
00000150: fdd0 403e ddb5 a33a 6047 543d 58d7 433f
00000160: 6471 663f ca89 d73e be98 373f dcc9 ad3e
00000170: b994 743f ac8d ec3e 6feb 173e 648f 3d3f
00000180: 0e12 e53e 0d09 103d f3c5 123e be72 813e
00000190: e902 073e 7955 a9bd 4c56 cc3e 1cca 653f
000001a0: ab3d a4be 3e6d 5d3e 9784 973e 4229 393f
000001b0: f03d 0e3f 776c 57be a3f7 3bbe adc1 103f
000001c0: edcf b73e 37c0 233f ec42 f83e d08a f93d
000001d0: 537e f83b 5b21 233f 2af3 4cbe afcc 26bd
000001e0: 8053 423d 85f0 d53e d77b 673c b443 023f
000001f0: c07c 803e 9614 ea3e 9be2 6a3e ddf7 9e3d
00000200: da4b e3bd 5625 60be c54d d23e b78a ee3d
00000210: 14a6 bb3d b0c7 3ebe ed83 c5be 4301 07be
00000220: 47c3 bfbd 2880 e1bd 9563 43bf 9a8f 4c3f
00000230: f993 68be 6cef d8be 40bc 9cbe 54ef 63be
00000240: 8b8b c3be faa4 d9be 72ae 5d3e 0c5c 5ebe
00000250: 5af3 11bd 4b4a 73be f86a 2c3f 8055 a13d
00000260: f5c1 a7be c976 5bbe ba4e bd3e f755 8dbe
00000270: d6d0 98be d959 0dbf 36bc b0be 9fac 1dbe
00000280: 72a4 05bf 909b 1abf 3d7c 6b3e 1a62 de3d
00000290: b583 6ebe 92a6 de3d 2d37 ee3d df8b eabe
000002a0: dfe7 ce3e d8af 13be 75a8 9dbf 3486 96be
000002b0: 41c1 93be 6a0b ce3e 884b a23e 09e1 85bf
000002c0: 104b 943c daef 34bf a1b4 f23d 07b4 273f
000002d0: 7c82 78be 8c20 34bf 0fc9 6b3e 8b01 323e
000002e0: 18ff e73d 3602 a73d 2fb0 273e 6817 afbf
000002f0: 2ef5 4abe 89e0 8cbe 4925 58be 5661 df3e
00000300: 1369 d43e 9500 3d3e 1e54 c3bd 1eb4 7d3e
00000310: 5ef1 463d d389 5b3d 024a 14bf 96ba b63e
00000320: 9313 dd3e 900b 99bf 8346 4e3f 36d1 743f
00000330: 2fce 1d3f ed43 fcbd 9a42 73bd b3bc 5ebd
00000340: fd35 55be b370 85be 5aa9 18bf 9960 343f
00000350: 9536 8d3e 68bf 0dbe e1ef 8b3e 7634 77be
00000360: f397 2c3e 1bb6 e83e fb9b 0abe 3d49 c13b
00000370: 24fa 99be 266b 093f cf34 5cbf 03f2 983f
00000380: 9ec1 a3bf 9c59 40bf d1db 8f3f c320 a8be
00000390: 10dc de3e c967 77be f95b b3bb 9802 a13e
000003a0: b6a0 453d cc1e 18c0 848c 223d 9fea 4dbe
000003b0: 9cd2 eebe 25b1 1a3e 62e9 8bbf 2c6d 993e
000003c0: 1249 293e 8d64 783f 481a d4be 7dec 33bf
000003d0: 2022 cebd 4c20 563f 932d 83bf 8a4d 77bf
000003e0: e8eb 05bf 0b3a ba3e b68a 373d 46fe 3a3e
000003f0: edf6 b3bf 7825 d4be fdac 0abf 348a 313d

critic1.4.bias f4 [64]
-1.7863438 1.0807244 -0.7874316 -2.4671485 0.9101007 -0.2516033 -1.9020318 -2.3587143
-0.31514934 -0.3571842 1.1063919 -0.9656051 0.3184549 1.3679479 1.1889235 -0.794589
-0.4494385 -0.042351406 -1.6246827 -2.8901575 -0.88620853 -0.7277148 -1.5327188 1.1075633
-2.636693 -2.2775838 -0.5995947 -1.9942122 -0.6900166 -1.5125023 0.3817844 -2.788882
-1.5928754 -0.114260085 -0.45932007 1.0283272 -0.66320187 -0.3391277 -2.178969 -2.2895105
-0.03439042 -0.25117502 -0.6320404 0.73487854 -1.7305979 -2.0124795 -2.2398057 -0.49319106
-1.9689703 0.08401694 0.9841224 0.57843685 -0.11531082 -1.2162715 1.0587081 -1.7229819
-0.5955889 1.1669346 -2.3391178 -1.6574448 -0.0012618103 -1.3925785 -1.0276922 -0.52839774
00000000: eaa6 e4bf 2d55 8a3f 1e95 49bf c3e5 1dc0
00000010: 5cfc 683f 26d2 80be c775 f3bf 2df5 16c0
00000020: 415b a1be d9e0 b6be 409e 8d3f e531 77bf
00000030: 850c a33e eb18 af3f a52e 983f 2f6a 4bbf
00000040: ce1c e6be ab78 2dbd 9af5 cfbf 57f8 38c0
00000050: 90de 62bf 844b 3abf 2130 c4bf a2c4 8d3f
00000060: 94bf 28c0 efc3 11c0 0a7f 19bf 5842 ffbf
00000070: eea4 30bf ad99 c1bf 3f79 c33e 0b7d 32c0
00000080: 57e3 cbbf 3101 eabd 002c ebbe 3aa0 833f
00000090: 99c7 29bf 25a2 adbe 3a74 0bc0 5787 12c0
000000a0: f8dc 0cbd 039a 80be 66cd 21bf 0021 3c3f
000000b0: 3b84 ddbf 77cc 00c0 fa58 0fc0 8a83 fcbe
000000c0: 3807 fcbf 1311 ac3d 72ef 7b3f 7014 143f
000000d0: 1428 ecbd c9ae 9bbf bf83 873f ac8a dcbf
000000e0: 8478 18bf 1d5e 953f 1bb4 15c0 2727 d4bf
000000f0: 5463 a5ba 0340 b2bf 6b8b 83bf 1345 07bf

critic1.6.weight f4 [1, 64]
1.1440356 -0.3693821 0.27303433 1.2926624 -0.4609623 -0.937373 1.2217413 0.655515
-2.803343 -2.436379 -0.36883482 1.3544109 -2.8415527 -0.6677275 -0.6163236 -0.8543685
-0.67417943 -1.5393751 1.0977091 1.4086163 0.2022867 0.3746521 0.22351512 -0.4516267
1.2609569 1.4519975 -1.5612198 1.2115322 -1.3454083 0.6128431 -1.9677624 1.2909707
1.2028586 -1.1444099 -1.211784 -0.49329323 -1.0468011 -1.7652807 0.91180694 0.66098106
-0.1720381 -1.6768802 -1.7583936 0.8605247 0.99520725 0.66790164 0.9886925 1.7007434
0.7356667 -2.849856 -0.33262706 -3.8867493 -1.5217395 0.4871439 -0.39496213 0.91423064
-1.341898 -0.61570734 1.1032078 0.80954385 -3.7367365 0.43635735 -1.0861499 -0.88667154
00000000: c26f 923f a71f bdbe 28cb 8b3e f675 a53f
00000010: 4003 ecbe adf7 6fbf 0562 9c3f d5cf 273f
00000020: f969 33c0 a2ed 1bc0 ebd7 bcbe 565d ad3f
00000030: 00dc 35c0 30f0 2abf 62c7 1dbf e5b7 5abf
00000040: 0697 2cbf 3e0a c5bf bb81 8c3f 8a4d b43f
00000050: 3f24 4f3e 66d2 bf3e 26e1 643e 9d3b e7be
00000060: 0967 a13f 0edb b93f 0dd6 c7bf 7d13 9b3f
00000070: 5736 acbf 49e3 1c3f a3df fbbf 873e a53f
00000080: 45f7 993f 067c 92bf bd1b 9bbf ee90 fcbe
00000090: 94fd 85bf b8f4 e1bf 2e6c 693f 0e36 293f
000000a0: c12a 30be 03a4 d6bf 0b13 e1bf 594b 5c3f
000000b0: e7c5 7e3f 9afb 2a3f f41a 7d3f f6b1 d93f
000000c0: a754 3c3f 0a64 36c0 184e aabe 80c0 78c0
000000d0: 5cc8 c2bf ed6a f93e 7a38 cabe 050b 6a3f
000000e0: 50c3 abbf ff9e 1dbf ea35 8d3f 443e 4f3f
000000f0: b126 6fc0 3b6a df3e f606 8bbf e8fc 62bf

critic2.0.weight f4 [64, 82]
-0.0041389833 -0.07963413 0.17723022 0.0039512417 -0.16187647 0.16106392 0.22086525 -0.029550636
0.05080752 -0.037073083 -0.056310937 -0.011428174 -0.23502485 0.049126014 0.067568794 0.08698737
-0.016572313 0.14572904 0.25878748 0.100824215 -0.18747085 -0.08949247 0.19989757 -0.22915712
0.2789549 0.20658596 0.04088945 0.21024844 -0.062252466 -0.34002507 -0.11470201 0.05763043
0.032524686 -0.106300026 0.16588342 -0.12741628 -0.21198389 0.02614164 0.0192652 0.06513893
-0.21715437 -0.029102938 0.033302624 0.08866666 -0.13890554 -0.062676854 0.0088518 -0.13951255
0.074157536 0.060523313 -0.008605136 -0.19040321 0.18021658 0.015072072 0.24579424 0.16384313
0.43555376 0.12549603 0.13446575 0.042838246 0.3045316 0.065173715 0.017236188 0.04968893
0.046674185 -0.06133682 0.00047903394 -0.010741127 0.017620098 -0.0677116 -0.03345098 -0.06740908
-0.042271614 0.07019736 -0.12581785 -0.013254681 0.031981353 -0.0073086163 0.07123405 -0.019387748
-0.002912447 0.03875268 -0.13065939 -0.23188876 -0.11647397 -0.42410412 -0.23637901 -0.0855477
0.20690623 0.056128178 0.060367104 -0.07205355 -0.018472388 -0.44511285 0.1304552 0.53358257
-0.019664304 0.14137116 -0.30476287 -0.1713949 -0.17903414 -0.32435566 -0.17003413 0.06881797
0.13838771 -0.22656836 -0.18111882 0.07822629 0.039915666 -0.6474481 0.3727916 0.6037134
0.08117554 0.15237115 -0.66303957 -0.7066919 -0.46439022 -0.7209136 0.15863761 0.40886495
0.35225716 0.5730882 0.15726423 0.34052068 0.16056143 0.51543397 0.2082295 0.9022841
0.11285056 0.11283398 -0.08859173 0.045093466 -0.19950747 -0.30564237 0.1341948 -0.19587393
-0.70109063 -0.18268082 -0.14651574 -0.45468137 -0.22922833 -0.68536586 -0.23771091 -0.62757224
0.00042142306 -0.023540499 0.017336627 -0.016923834 0.13471545 0.0028256215 -0.07137493 0.11941246
-0.120057136 -0.04226008 0.051237814 -0.31709406 0.31825888 -0.3107497 0.38846597 -0.02610271
-0.104840815 0.038080126 0.35841858 -0.32871607 -0.20072083 -0.19315892 -0.119977154 -0.054879095
-0.048121564 -0.07708112 0.08667714 -0.07391496 -0.05608142 -0.09302913 -0.044692375 0.07316087
-0.11295632 -0.123557195 -0.036181528 0.06965523 0.2759556 0.01301822 0.3937605 0.13702011
-0.33197936 -0.18572906 0.112659074 -0.012995638 -0.08677074 -0.17080438 -0.065129966 0.102774486
0.42392328 -0.097506285 0.06322126 -0.01572915 0.022271516 0.029008986 -0.24982369 0.13928548
-0.03771951 0.114070795 0.19338565 0.018810805 0.050581433 -0.15139334 0.0546242 0.01631496
0.1856965 -0.1373527 0.16517885 -0.054774765 0.029482953 0.021374732 -0.14577368 0.29748192
0.08688688 -0.23967177 0.14221282 -0.0022875036 0.14517406 -0.0735563 -0.27781734 0.090183504
-0.13090463 -0.120308705 0.017940868 -0.09421027 0.08331137 -0.13958858 0.09507474 -0.015567426
0.25862116 -0.29107967 -0.04143024 0.1793597 0.0054463353 -0.059002224 0.04987115 0.0333914
-0.0104004415 0.019794213 0.16215046 -0.17206956 -0.10034114 0.07099359 -0.50709784 0.03713903
-0.9249444 0.25312522 0.6979217 -0.25331044 0.6300894 -0.30306488 0.6378796 0.15887202
00000000: 4fa0 87bb 3817 a3bd d77b 353e 6b79 813b
00000010: f2c2 25be f1ed 243e 802a 623e 2d14 f2bc
00000020: 8c1b 503d f2d9 17bd 4ca6 66bd 3c3d 3bbc
00000030: 5baa 70be 5c38 493d 8261 8a3d 6f26 b23d
00000040: a9c2 87bc fe39 153e cb7f 843e ed7c ce3d
00000050: 5cf8 3fbe d447 b7bd f3b1 4c3e 2aa8 6abe
00000060: 2dd3 8e3e 458b 533e b27b 273d 5e4b 573e
00000070: 71fc 7ebd c417 aebe e3e8 eabd e30d 6c3d
00000080: 9b38 053d d4b3 d9bd 58dd 293e 6a79 02be
00000090: 4e12 59be fe26 d63c 0dd2 9d3c 8f67 853d
000000a0: b75d 5ebe 4969 eebc 5568 083d de96 b53d
000000b0: 413d 0ebe b95c 80bd 2407 113c 61dc 0ebe
000000c0: e8df 973d 4be7 773d 8efc 0cbc 0ff9 42be
000000d0: b28a 383e daf0 763c 7cb1 7b3e 7ec6 273e
000000e0: e700 df3e 0882 003e 64b1 093e 2877 2f3d
000000f0: 91eb 9b3e cc79 853d e832 8d3c 9f86 4b3d
00000100: 6e2d 3f3d 513c 7bbd d926 fb39 8dfb 2fbc
00000110: 0658 903c 61ac 8abd e503 09bd c60d 8abd
00000120: 0025 2dbd a2c3 8f3d 65d6 00be 292a 59bc
00000130: e1fe 023d 1e7d efbb 28e3 913d 0ed3 9ebc
00000140: c1de 3ebb 21bb 1e3d 93cb 05be 3f74 6dbe
00000150: e889 eebd 2d24 d9be 570d 72be a233 afbd
00000160: 3adf 533e a9e6 653d 7f43 773d d090 93bd
00000170: 6853 97bc d5e5 e3be 0c96 053e de98 083f
00000180: 0917 a1bc 9ac3 103e e109 9cbe 2582 2fbe
00000190: ba54 37be f211 a6be 6d1d 2ebe 70f0 8c3d
000001a0: 82b5 0d3e 8901 68be 3677 39be 1b35 a03d
000001b0: 9c7e 233d 29bf 25bf 8ade be3e f68c 1a3f
000001c0: 5d3f a63d 2f07 1c3e f6bc 29bf c3e9 34bf
000001d0: 8ec4 edbe cb8d 38bf e671 223e bf56 d13e
000001e0: 0d5b b43e e9b5 123f e009 213e ba58 ae3e
000001f0: 376a 243e 7bf3 033f 1d3a 553e 17fc 663f
00000200: 321e e73d 8015 e73d 956f b5bd edb3 383d
00000210: b04b 4cbe 287d 9cbe 5d6a 093e 2d93 48be
00000220: ad7a 33bf ae10 3bbe 3908 16be ffcb e8be
00000230: d5ba 6abe 2374 2fbf 7d6a 73be 93a8 20bf
00000240: 72f2 dc39 01d8 c0bc 8b05 8e3c daa3 8abc
00000250: d9f2 093e 102e 393b 052d 92bd 858e f43d
00000260: 84e0 f5bd e818 2dbd bede 513d 275a a2be
00000270: d4f2 a23e 961a 9fbe 03e5 c63e 5ad5 d5bc
00000280: c8b6 d6bd e8f9 1b3d a482 b73e 794d a8be
00000290: c389 4dbe 74cb 45be 95b6 f5bd e7c8 60bd
000002a0: 1e1b 45bd b5dc 9dbd c983 b13d ba60 97bd
000002b0: a2b5 65bd 0e86 bebd 5a0f 37bd 5ed5 953d
000002c0: a555 e7bd 8e0b fdbd 1533 14bd 67a7 8e3d
000002d0: 0d4a 8d3e 5f4a 553c fa9a c93e 004f 0c3e
000002e0: 33f9 a9be c22f 3ebe cdb9 e63d a8eb 54bc
000002f0: dcb4 b1bd 58e7 2ebe dc62 85bd 6e7b d23d
00000300: 790c d93e 60b1 c7bd 267a 813d 6bda 80bc
00000310: c172 b63c 41a4 ed3c c8d1 7fbe daa0 0e3e
00000320: c67f 1abd f39d e93d e306 463e 1e19 9a3c
00000330: 7a2e 4f3d db06 1bbe a0bd 5f3d f3a6 853c
00000340: 3927 3e3e 30a6 0cbe a524 293e 815b 60bd
00000350: 3c86 f13c 101a af3c b245 15be 8d4f 983e
00000360: c0f1 b13d 846c 75be 3da0 113e f1e9 15bb
00000370: 82a8 143e afa4 96bd 133e 8ebe 21b2 b83d
00000380: dd0b 06be 6964 f6bd baf8 923c 50f1 c0bd
00000390: 279f aa3d 4ff0 0ebe 8cb6 c23d 840e 7fbc
000003a0: fe69 843e 6508 95be c1b2 29bd 12aa 373e
000003b0: 2c77 b23b 51ac 71bd b145 4c3d 6cc5 083d
000003c0: 9d66 2abc 7927 a23c c50a 263e 0133 30be
000003d0: a87f cdbd 1665 913d 2ad1 01bf 181f 183d
000003e0: 28c9 6cbf a199 813e ffaa 323f e8b1 81be
000003f0: 8a4d 213f 522b 9bbe 144c 233f 59af 223e

critic2.0.bias f4 [64]
3.7145464 0.10158825 2.8460584 -0.015140651 2.8527262 2.0772133 1.7672179 -1.5461899
0.033676155 -1.0800971 -0.1696494 2.9879928 1.1121562 1.7313726 0.005083635 -0.87446344
-0.10997838 -0.9377696 1.1716946 -0.18934786 -2.5051334 3.2765324 -0.06469947 3.09733
0.6143344 0.17051235 1.6551807 -0.0068994514 -0.044690218 -0.081415474 0.01134207 -0.7496919
-0.707201 -0.2447561 -0.039263126 0.107679114 2.2653794 0.7907717 1.489229 0.41884056
-0.0031557712 0.08571567 -2.5473309 1.9213511 -0.2962168 -0.22083384 4.531933 0.38135168
-1.1994189 -1.6683255 0.3054475 4.587106 4.4380245 0.17571019 -3.0996714 1.7859395
0.22010219 -0.7503126 0.15608785 -0.001083479 -0.26504895 -1.0671878 -0.91706115 -1.7068183
00000000: 21bb 6d40 800d d03d d225 3640 7e10 78bc
00000010: 1193 3640 10f1 0440 3234 e23f 8de9 c5bf
00000020: 02f0 093d 9f40 8abf 93b8 2dbe 463b 3f40
00000030: 225b 8e3f 9e9d dd3f 9f94 a63b d6dc 5fbf
00000040: 583c e1bd ab11 70bf 17fa 953f 68e4 41be
00000050: 1b54 20c0 b5b2 5140 2881 84bd a83a 4640
00000060: 0545 1d3f ca9a 2e3e f6dc d33f cb14 e2bb
00000070: 170d 37bd 28bd a6bd 17d4 393c cfeb 3fbf
00000080: 200b 35bf 58a1 7abe 5fd2 20bd de86 dc3d
00000090: fafb 1040 0470 4a3f 0e9f be3f 4572 d63e
000000a0: 0ed1 4ebb b28b af3d 7807 23c0 d5ee f53f
000000b0: baa9 97be 4422 62be 9805 9140 8740 c33e
000000c0: 8f86 99bf b18b d5bf 9d63 9c3e 93c9 9240
000000d0: 4c04 8e40 5fed 333e 0461 46c0 aa99 e43f
000000e0: 7862 613e 7d14 40bf 7ed5 1f3e 8603 8eba
000000f0: 7fb4 87be 9c99 88bf 85c4 6abf 0679 dabf

critic2.2.weight f4 [64, 64]
0.1391499 -0.3338914 -0.61263937 0.013651646 1.0584921 -0.006283234 0.112047605 -0.0074960645
-0.29471266 -0.14724311 -0.1936608 0.60150504 0.114088304 0.22741926 0.47360218 0.052028097
-1.2541374 0.16086125 -0.27945834 0.2887768 -0.33577654 -0.3434389 -1.4638933 0.56014127
-0.52569574 0.08114689 -0.012788168 -0.80254155 -0.37375084 0.10357109 -0.016079059 0.13143067
-0.2278265 -0.023268068 -1.0670624 0.01804137 0.45185685 0.21601292 -0.1305294 -0.13080285
-0.05873438 0.1848621 -0.010397044 -0.034509674 -0.09258399 -0.08286041 0.22573014 0.15021448
-0.0059919003 0.28410497 -0.12536399 -0.7017204 0.10316572 0.16851996 0.17396344 0.15716825
0.3775556 -0.043641277 -0.22482902 -0.050390147 0.10392571 -0.15490359 0.20383056 0.026272794
0.6953974 -0.34758747 -0.0773882 -0.06714219 0.30869398 0.5298035 -0.005130259 0.43657103
-0.22661176 -0.05999729 0.10514493 0.936771 -0.083789974 -0.32212833 0.41114384 -0.11769294
0.06619594 0.06855053 0.17628784 0.3536731 -0.010567283 -0.014222551 0.008641794 0.012975295
0.14674161 -0.12946631 0.009444102 0.29400492 0.45859882 -0.17730774 0.2023735 -0.018647233
-0.40990648 -0.012256524 0.17492497 -0.107971914 0.16051137 0.022017797 -0.4419752 0.22980662
-0.14609124 -0.30728528 -0.4342183 0.014714688 -0.12991714 -0.013139226 1.3583755 0.2340975
0.19868371 0.071526326 -0.15202253 0.7380552 0.8011051 -0.5755451 0.42536893 -0.30768442
-0.0020609917 -0.11730953 0.07528025 -0.24711359 0.2759469 0.13073653 -0.082868755 0.675923
0.3538837 -0.28968585 0.24077325 -0.21367918 0.3983496 0.45035076 -0.40390092 0.33783734
-0.15193501 0.5440035 -0.037837174 0.36794928 0.25393453 -0.13324271 -0.09460783 -0.29330906
-0.32803804 0.22485903 0.36626428 -0.24382669 0.21102671 0.44468504 -0.27471367 0.154835
-0.12299906 -0.17470244 -0.11327194 0.10599716 -0.34209546 0.35871142 -0.30490452 0.08499002
0.18179895 0.047830567 0.22636046 -0.28038165 0.052587137 0.03907504 0.49458966 -0.13848501
-0.072564095 0.039557766 -0.06030248 0.062545665 0.16353364 -0.30276644 1.2356466 -0.061928358
-0.13072266 0.016778093 -0.15012217 -0.16426195 0.7820725 0.16272208 0.8214596 -0.19480613
0.29215816 -0.20674598 0.13574056 0.023100208 0.07589029 0.35446677 0.064279996 0.67231387
-1.1959031 -1.3214495 -1.1591332 -0.8140027 -0.092014335 -0.38759765 -0.3627936 -0.9513619
-0.2861389 -0.4785326 0.8994714 0.29722646 -1.1560255 -0.122194745 -1.0819223 0.30623645
0.18819453 -0.008227617 -0.9268462 1.1813393 -0.014679292 -1.3827904 -0.9626901 -0.11926713
0.038518008 -0.17361662 -0.04965479 0.53919804 -0.8633573 -0.9056547 0.58237714 -0.80261654
-0.06324298 -0.0054207896 -0.20685144 0.53349733 -0.081345275 -0.78125316 -0.4417357 0.39015824
0.09707035 -0.58403355 -1.0333502 -0.49320507 0.15901174 -1.2986484 -0.955017 0.020305209
0.6461169 -1.0545048 0.3347685 -0.7596532 -0.5179473 -0.16075885 -0.12541276 -0.9162562
0.8858366 -0.66361123 -0.9313779 -0.4044284 -0.2037299 0.01956441 0.38667262 -0.0012653354
00000000: 507d 0e3e d0f3 aabe efd5 1cbf 27ab 5f3c
00000010: ab7c 873f 96e3 cdbb 3779 e53d 8ca1 f5bb
00000020: 94e4 96be e6c6 16be 044f 46be 3cfc 193f
00000030: 21a7 e93d 98e0 683e fc7b f23e 6a1b 553d
00000040: 9387 a0bf d0b8 243e 2a15 8fbe 8dda 933e
00000050: e7ea abbe 39d7 afbe db60 bbbf 6b65 0f3f
00000060: ff93 06bf 5730 a63d 7785 51bc 5d73 4dbf
00000070: 455c bfbe 141d d43d 3bb8 83bc c395 063e
00000080: 5a4b 69be ad9c bebc 8095 88bf 7fcb 933c
00000090: c859 e73e 7e32 5d3e 80a9 05be 2ff1 05be
000000a0: 7693 70bd 7e4c 3d3e 5d58 2abc 045a 0dbd
000000b0: ad9c bdbd b8b2 a9bd cd25 673e d3d1 193e
000000c0: b457 c4bb 3576 913e 6b5f 00be f3a3 33bf
000000d0: 8d48 d33d 7f90 2c3e 7923 323e b7f0 203e
000000e0: f84e c13e 32c1 32bd 9439 66be e665 4ebd
000000f0: 01d7 d43d 0c9f 1ebe f5b8 503e 0b3a d73c
00000100: 9005 323f fcf6 b1be b47d 9ebd d881 89bd
00000110: 230d 9e3e 34a1 073f bb1b a8bb 3d86 df3e
00000120: ea0c 68be b8bf 75bd 3a56 d73d 39d0 6f3f
00000130: 149a abbd 01ee a4be 7281 d23e ff08 f1bd
00000140: bd91 873d 3864 8c3d cd84 343e a414 b53e
00000150: 6622 2dbc b405 69bc 5096 0d3c 5596 543c
00000160: 6f43 163e d192 04be 6fbb 1a3c d087 963e
00000170: 77cd ea3e 2990 35be 003b 4f3e 15c2 98bc
00000180: 43df d1be 96cf 48bc 881f 333e 6120 ddbd
00000190: 185d 243e ab5e b43c 934a e2be 6d52 6b3e
000001a0: f198 15be 7f54 9dbe dc51 debe e015 713c
000001b0: 0009 05be e845 57bc 40df ad3f 41b7 6f3e
000001c0: be73 4b3e 657c 923d cbab 1bbe 30f1 3c3f
000001d0: 3915 4d3f ec56 13bf f5c9 d93e d088 9dbe
000001e0: b411 07bb fb3f f0bd 882c 9a3d 580b 7dbe
000001f0: e948 8d3e ccdf 053e 18b7 a9bd 4a09 2d3f
00000200: 3f30 b53e b451 94be 438d 763e b7ce 5abe
00000210: 7bf4 cb3e 6094 e63e 1acc cebe 04f9 ac3e
00000220: da94 1bbe d043 0b3f 27fb 1abd d963 bc3e
00000230: b503 823e c770 08be c0c1 c1bd 9b2c 96be
00000240: 9af4 a7be 7241 663e fe86 bb3e b4ad 79be
00000250: 6317 583e c2ad e33e 45a7 8cbe 118d 1e3e
00000260: eee6 fbbd 32e5 32be 1efb e7bd 0a15 d93d
00000270: 2327 afbe 06a9 b73e 721c 9cbe 3f0f ae3d
00000280: 8129 3a3e fce9 433d 09cb 673e 2f8e 8fbe
00000290: 9c65 573d 260d 203d db3a fd3e 04cf 0dbe
000002a0: 7c9c 94bd 5307 223d bcff 76bd f117 803d
000002b0: 5d75 273e 3404 9bbe ab29 9e3f 97a8 7dbd
000002c0: 29dc 05be 3672 893c a0b9 19be 4934 28be
000002d0: e735 483f 9ea0 263e 2d4b 523f 427b 47be
000002e0: c195 953e 38b5 53be 93ff 0a3e a63c bd3c
000002f0: 5e6c 9b3d ab7c b53e 3ba5 833d c31c 2c3f
00000300: 5a13 99bf 4225 a9bf 7a5e 94bf 7b62 50bf
00000310: 0372 bcbd 3373 c6be 15c0 b9be 748c 73bf
00000320: cc80 92be 3a02 f5be c243 663f 112e 983e
00000330: a5f8 93bf 3d41 fabd 6e7c 8abf 06cb 9c3e
00000340: 11b6 403e 20cd 06bc cb45 6dbf 2036 973f
00000350: 6a81 70bc 47ff b0bf dc72 76bf 5342 f4bd
00000360: 0fc5 1d3d 8ec8 31be d262 4bbd e208 0a3f
00000370: fc04 5dbf fdd8 67bf ab16 153f 4778 4dbf
00000380: 8985 81bd e1a0 b1bb ddd0 53be 4893 083f
00000390: 5a98 a6bd 3500 48bf 2f2b e2be d2c2 c73e
000003a0: d2cc c63d 3983 15bf d244 84bf 6085 fcbe
000003b0: f9d3 223e 1c3a a6bf fe7b 74bf 1c57 a63c
000003c0: eb67 253f 03fa 86bf c766 ab3e a278 42bf
000003d0: 3298 04bf f89d 24be 346c 00be c48f 6abf
000003e0: 30c6 623f 6de2 29bf c86e 6ebf 3d11 cfbe
000003f0: 929e 50be 8b45 a03c f4f9 c53e 9cd9 a5ba

critic2.2.bias f4 [64]
-0.72321016 1.3917782 1.6969708 -0.119247235 -4.075341 0.16095108 1.4699669 -0.40290773
-0.81304204 0.01115758 1.2387416 -1.1266652 -0.6712984 0.7652261 0.4250665 0.30099437
-1.032504 -1.1408826 -0.3298014 1.7579165 0.5411338 -0.57814133 -0.48478547 -0.44929948
0.13161153 -2.8642545 -0.33001566 -0.61005664 1.1939604 0.33581233 0.20872134 -0.26876622
0.24401295 0.15408403 -1.0025871 1.2685317 0.8474672 -0.3211975 0.31149456 0.32876435
-0.0010641714 -2.4409428 -0.366467 -1.8614948 -2.279638 -0.18776488 1.3712112 0.38117006
2.1332414 -0.11463064 -2.1358528 -0.46183813 -2.4804056 -2.0045438 -0.66618043 -2.3478272
-0.64801955 -0.38270807 0.32564017 -3.2003438 2.2986887 -0.38677338 -0.17051056 -1.3908529
00000000: 4d24 39bf ca25 b23f 5736 d93f e537 f4bd
00000010: 3269 82c0 5cd0 243e e027 bc3f ec49 cebe
00000020: 8623 50bf 48ce 363c 168f 9e3f 9136 90bf
00000030: 36da 2bbf dce5 433f 51a2 d93e ef1b 9a3e
00000040: 1729 84bf 7108 92bf bbdb a8be 6803 e13f
00000050: bf87 0a3f 1201 14bf cd35 f8be 950a e6be
00000060: 2cc5 063e f24f 37c0 d0f7 a8be ac2c 1cbf
00000070: b2d3 983f 98ef ab3e 0cbb 553e ba9b 89be
00000080: 88de 793e 34c8 1d3e c654 80bf 3f5f a23f
00000090: 9cf3 583f 0074 a4be 377c 9f3e cd53 a83e
000000a0: ab7b 8bba 6838 1cc0 90a1 bbbe 7645 eebf
000000b0: 97e5 11c0 7045 40be d983 af3f b928 c33e
000000c0: 0787 0840 78c3 eabd d0b1 08c0 0c76 ecbe
000000d0: f7be 1ec0 724a 00c0 cd8a 2abf cd42 16c0
000000e0: 9ce4 25bf 50f2 c3be 4fba a63e 6fd2 4cc0
000000f0: b71d 1340 2907 c6be 529a 2ebe 7807 b2bf

critic2.4.weight f4 [64, 64]
-0.38975805 0.3293304 0.34496576 0.205927 -0.43236196 0.33934346 0.12179456 -0.09560422
0.34570524 0.1480381 0.3373465 0.5243587 -0.66238415 -0.34588692 0.81126 -0.6544777
-0.18946415 -0.5110978 0.20098107 0.20655033 -0.63991654 -0.56796163 -0.302514 -0.6248326
-0.39224854 -0.9343356 0.6313696 -0.07909628 0.5419126 -0.34230003 -0.04562035 0.4896355
0.606132 -0.46269298 -0.48643124 -0.5937721 0.32968828 -0.6421136 -0.48794022 0.15046878
-0.23130774 -0.34184384 0.25197238 -0.52304864 -0.70060277 0.107471585 0.011183545 0.0888956
0.4247813 -0.7310108 0.19429485 -0.3615263 -0.21617486 0.16038033 0.5688764 -0.66030556
-0.1486947 -0.20291509 -0.11887252 -0.38112396 0.30639967 0.15521535 0.42611498 -1.1904616
-0.2924453 -0.57226944 0.16867934 1.0658311 -0.094627626 -0.58725065 -1.1461047 0.14435472
0.23815145 0.34226882 0.30182892 0.036934983 0.40535754 0.07412668 -0.5422286 -0.21319188
0.24173972 -0.094785884 -0.05510197 -0.88882446 -0.3287101 0.9951486 0.9950332 -0.03085936
-0.18725252 0.840353 0.093145296 -0.0028374826 -0.46441767 -1.9276515 0.15569793 0.17023972
-0.23674996 -0.2967877 0.8962111 0.62405103 0.19184698 0.23832257 -0.020641811 0.06459901
-0.32775658 0.73123246 0.61017424 0.34907743 0.8163366 -0.042784713 -1.4117498 -0.09284525
-0.99856883 0.4403104 -0.58920985 -0.10008496 -0.029524684 0.6898724 -0.47718465 0.30589113
0.18628502 0.8233989 -0.4726262 0.22644307 -0.9585862 -2.3363013 -0.1864304 0.3737876
-0.13650538 0.022323351 -0.40494916 -0.23947185 -0.5154506 -0.53652126 0.28686965 0.084876776
-0.059005648 -0.037776295 0.29831362 0.09898909 0.18361941 0.33758917 -0.02686319 -1.2056081
0.14623117 -0.036655717 -0.029915137 -0.09225511 -0.39154807 0.07794939 -0.9226496 -0.15310517
-0.3914702 -0.5422843 0.15574151 -0.0074460916 0.13015632 0.4567385 -1.1223309 0.5294464
0.42132983 -0.38175312 -0.74115324 0.3573983 -0.18655069 -0.31081885 -0.7768297 -0.017402152
-0.3409249 -0.53291404 0.15815814 -0.47427416 0.15058795 -0.09911379 0.079247415 0.5309301
0.08645871 -0.27110764 -0.81276804 0.029041952 0.6057494 -0.2372261 0.0777577 -0.2736248
-0.61099744 -0.28066817 0.112406306 -0.23363619 0.09916544 -0.5475338 0.552214 -0.32450607
-1.7064936 0.006097831 0.6925992 -0.11448763 -0.22503425 0.7351574 0.2932643 -0.31706065
-1.0409876 -0.2976071 0.17198673 0.408884 -1.5008401 -0.87538916 1.4394742 1.8970488
-0.70473677 -0.30213845 -2.0657518 -0.8318856 -0.5290916 0.48551804 0.85209113 -0.13092813
0.8187655 -0.039265286 -0.9778474 -0.9922815 -0.46281785 0.1495127 2.1006348 -1.3660979
1.8907222 0.28332236 0.2529037 -0.6671948 -0.7413115 -0.72075933 0.17143764 0.23811999
0.3201365 -1.9751966 -1.684513 0.029890053 -0.48192015 -0.0989475 -0.46075752 -0.24614102
-0.31296632 1.5077361 0.40864736 -1.6606418 -0.26146168 -1.8149968 0.30628073 -0.494246
-1.3389236 0.68465644 -1.080446 -0.18987115 -0.3151368 -1.6320853 1.7622638 0.45742515
00000000: 5e8e c7be ff9d a83e 5a9f b03e 87de 523e
00000010: 8c5e ddbe 6dbe ad3e 6d6f f93d 25cc c3bd
00000020: 4700 b13e 4d97 173e aeb8 ac3e 5f3c 063f
00000030: 0292 29bf 1718 b1be bcae 4f3f da8b 27bf
00000040: e402 42be 4ed7 02bf fbcd 4d3e ee81 533e
00000050: 92d1 23bf ef65 11bf 1de3 9abe 07f5 1fbf
00000060: cdd4 c8be 9e30 6fbf 70a1 213f 3bfd a1bd
00000070: c9ba 0a3f f341 afbe 67dc 3abd 81b1 fa3e
00000080: 772b 1b3f 18e6 ecbe 840d f9be 7301 18bf
00000090: e7cc a83e 8f61 24bf 4dd3 f9be 7d14 1a3e
000000a0: f0db 6cbe 2806 afbe 8602 813e 84e6 05bf
000000b0: b45a 33bf 101a dc3d 303b 373c e50e b63d
000000c0: ef7c d93e 8623 3bbf 3bf5 463e fa19 b9be
000000d0: f15c 5dbe be3a 243e e2a1 113f c909 29bf
000000e0: 6c43 18be f9c8 4fbe 7073 f3bd ae22 c3be
000000f0: 6be0 9c3e c6f0 1e3e be2b da3e 0c61 98bf
00000100: 64bb 95be 4080 12bf 47ba 2c3e 276d 883f
00000110: 21cc c1bd 0f56 16bf 8fb3 92bf b9d1 133e
00000120: f9dd 733e dc3d af3e 5289 9a3e 2349 173d
00000130: 068b cf3e bbcf 973d 7ecf 0abf f94e 5abe
00000140: 9e8a 773e 1a1f c2bd 9ab2 61bd 008a 63bf
00000150: b14c a8be 0fc2 7e3f 7fba 7e3f c5cc fcbc
00000160: 20bf 3fbe 6021 573f f6c2 be3d 0ff5 39bb
00000170: 27c8 edbe 49bd f6bf 476f 1f3e 5253 2e3e
00000180: 956e 72be 8ff4 97be 176e 653f cfc1 1f3f
00000190: 8973 443e d50a 743e 0419 a9bc 7c4c 843d
000001a0: b6cf a7be 0d32 3b3f 6134 1c3f 47ba b23e
000001b0: 6ffb 503f 063f 2fbd 38b4 b4bf a725 bebd
000001c0: 35a2 7fbf 5d70 e13e 75d6 16bf 58f9 ccbd
000001d0: c0dd f1bc 7a9b 303f 8c51 f4be c39d 9c3e
000001e0: 80c1 3e3e 45ca 523f 10fc f1be b1e0 673e
000001f0: e865 75bf f685 15c0 9ce7 3ebe 1761 bf3e
00000200: 11c8 0bbe 76df b63c 7f55 cfbe 1c38 75be
00000210: 92f4 03bf 7559 09bf 94e0 923e e0d3 ad3d
00000220: e8af 71bd 51bb 1abd 90bc 983e cbba ca3d
00000230: ba06 3c3e 7dd8 ac3e 3110 dcbc 5e51 9abf
00000240: a0bd 153e 4e24 16bd 9710 f5bc 3ff0 bcbd
00000250: fd78 c8be eea3 9f3d c432 6cbf 9ac7 1cbe
00000260: c86e c8be 25d3 0abf b47a 1f3e 58fe f3bb
00000270: b347 053e a1d9 e93e 8aa8 8fbf cd89 073f
00000280: 8bb8 d73e 2575 c3be 38bc 3dbf e9fc b63e
00000290: 2507 3fbe a623 9fbe 50de 46bf f58e 8ebc
000002a0: b58d aebe 0e6d 08bf 35f4 213e 10d4 f2be
000002b0: ba33 1a3e 2cfc cabd 784c a23d 09eb 073f
000002c0: 4411 b13d 9fce 8abe 9111 50bf 63e9 ed3c
000002d0: 6512 1b3f 66eb 72be 6e3f 9f3d 8d18 8cbe
000002e0: 546a 1cbf bdb3 8fbe 4735 e63d 533e 6fbe
000002f0: 4017 cb3d 2d2b 0cbf e65d 0d3f a925 a6be
00000300: 626e dabf 50d0 c73b 2e4e 313f 7e78 eabd
00000310: 616f 66be 4633 3c3f bd26 963e c655 a2be
00000320: 153f 85bf f55f 98be 4a1d 303e 3e59 d13e
00000330: 871b c0bf 8119 60bf b140 b83f 7fd2 f23f
00000340: a169 34bf e4b1 9abe 4735 04c0 74f6 54bf
00000350: 8c72 07bf d295 f83e a522 5a3f 0612 06be
00000360: 9e9a 513f a3d4 20bd 3554 7abf 2906 7ebf
00000370: 76f6 ecbe db19 193e cd70 0640 4cdc aebf
00000380: 2f03 f23f a10f 913e 987c 813e 47cd 2abf
00000390: 97c6 3dbf af83 38bf 598d 2f3e bad5 733e
000003a0: eee8 a33e 3ed3 fcbf 1f9e d7bf fcdb f43c
000003b0: 3dbe f6be fda4 cabd 69e8 ebbe 640c 7cbe
000003c0: 1f3d a0be 7ffd c03f 3a3a d13e e98f d4bf
000003d0: 4ede 85be d151 e8bf d4d0 9c3e d00d fdbe
000003e0: d961 abbf a545 2f3f 0e4c 8abf 956d 42be
000003f0: 9c59 a1be 2ce8 d0bf dc91 e13f a133 ea3e

critic2.4.bias f4 [64]
-1.3062177 -0.4393107 -0.72652 0.5846535 0.1320604 1.3794935 -1.2124846 1.3617803
-2.4361463 -1.1407484 -0.34674963 -0.27118832 -0.640824 -0.37319824 -0.047956537 0.07281967
-0.21874602 -1.7925029 -0.31090146 0.234689 -1.1373725 1.3708217 0.16445139 -0.7903404
-1.1931103 -1.7729992 -2.0020158 -0.14573075 -0.16134366 -0.080083065 -0.119932264 1.3015012
-0.21523798 -0.39904946 0.070340365 -0.0951954 -0.83728456 1.5320965 0.09948092 -0.64762855
-2.769235 -3.368748 -0.657331 -0.07310979 -0.1411598 -0.57661873 1.235257 1.3864205
-0.42138034 -0.48952863 -2.2198217 -0.111346185 -0.21480787 -0.50783896 -1.5016526 0.028882036
-0.18237717 -2.1590219 1.1096683 0.2994089 -0.39604804 -0.118952826 1.2862666 -0.39725664
00000000: 2432 a7bf 55ed e0be 37fd 39bf daab 153f
00000010: d73a 073e 3e93 b03f b232 9bbf d14e ae3f
00000020: d2e9 1bc0 0b04 92bf 2b89 b1be 32d9 8abe
00000030: 0b0d 24bf d713 bfbe 136e 44bd 7b22 953d
00000040: f5fe 5fbe bc70 e5bf 7a2e 9fbe 5052 703e
00000050: 6c95 91bf 1677 af3f f265 283e c053 4abf
00000060: d7b7 98bf a3f1 e2bf 0721 00c0 713a 15be
00000070: 4637 25be 9702 a4bd 0c9f f5bd 9797 a63f
00000080: 5867 5cbe 3650 ccbe 9c0e 903d cef5 c2bd
00000090: 4858 56bf bd1b c43f a7bc cb3d fcca 25bf
000000a0: 253b 31c0 9199 57c0 d846 28bf 96ba 95bd
000000b0: 328c 10be 499d 13bf e71c 9e3f 3a76 b13f
000000c0: 2abf d7be 7fa3 fabe 8f11 0ec0 7809 e4bd
000000d0: 98f6 5bbe bc01 02bf 2736 c0bf 059a ec3c
000000e0: 15c1 3abe 6a2d 0ac0 9c09 8e3f 204c 993e
000000f0: cfc6 cabe 8a9d f3bd 62a4 a43f 3965 cbbe

critic2.6.weight f4 [1, 64]
0.9902846 1.1134796 0.18911307 -2.7180212 -0.91964257 -0.45180365 0.76568913 -0.6281446
1.1269587 1.0627428 -0.5198644 -0.74684757 -0.90498 0.8071458 -2.6200626 -1.0641174
-2.4068637 1.5307994 0.77878267 -2.2142067 0.39143747 -0.4451661 -1.5189395 -1.9299418
1.4001554 0.91214204 0.697572 -1.9412882 -2.7607787 0.8024663 -2.3182414 -0.45604888
-1.3298339 -1.0173715 -2.1477501 -1.8103852 -0.7533126 -0.74421173 -2.0338054 -1.5595372
1.0775605 0.90091246 0.40760428 -2.2288377 -0.9347067 0.6267072 -0.37188306 -0.49335435
-0.762566 1.0546824 0.63155377 -2.8614795 1.0317122 0.67822516 1.315241 -1.2589843
0.482789 1.2721614 -0.28919512 -2.4199018 -1.84786 0.100834265 -1.6890736 -1.3402854
00000000: 4b83 7d3f 8086 8e3f dba6 413e 0ff4 2dc0
00000010: b26d 6bbf cf52 e7be 3404 443f 16ce 20bf
00000020: 2f40 903f f507 883f d515 05bf 6731 3fbf
00000030: c5ac 67bf 1ba1 4e3f 1baf 27c0 0035 88bf
00000040: 0e0a 1ac0 3cf1 c33f 4d5e 473f 90b5 0dc0
00000050: 7e6a c83e d0ec e3be 9c6c c2bf 5508 f7bf
00000060: 4b38 b33f 2482 693f 1494 323f 227c f8bf
00000070: 99b0 30c0 6e6e 4d3f 115e 14c0 3d7f e9be
00000080: ff37 aabf 3b39 82bf bd74 09c0 b4ba e7bf
00000090: 18d9 40bf a984 3ebf de29 02c0 ea9e c7bf
000000a0: 81ed 893f 33a2 663f 82b1 d03e 47a5 0ec0
000000b0: f048 6fbf e26f 203f 7567 bebe f198 fcbe
000000c0: 8637 43bf d5ff 863f 82ad 213f 7b22 37c0
000000d0: 250f 843f 2aa0 2d3f d159 a83f 6626 a1bf
000000e0: 1f30 f73e 2fd6 a23f 6211 94be acdf 1ac0
000000f0: ad86 ecbf 3282 ce3d 9033 d8bf 798e abbf
