masac/model/simple_tag/agent_3/864_critic_params.pth (torch, 115263 bytes, 14 tensors)

critic1.0.weight f4 [64, 82]
000000 fc 45 e2 be 93 c6 11 bf 7f 01 1c bf 10 c2 7d bf
       -0.4419402 -0.56943625 -0.6093978 -0.9912424
000010 a9 69 d6 3e 2c 0b ed 3e 2b e5 8b 3e 1f 43 0d 3f
       0.41877487 0.46297586 0.2732328 0.55180544
000020 99 ea de 3e c7 a4 26 3f 0b ae c9 3e 2f 12 ba 3e
       0.4353836 0.6509518 0.39390597 0.36341998
000030 b1 21 0c 3f 31 65 91 3f c8 2a 9b 3d 42 09 08 3e
       0.5473891 1.1359006 0.07576519 0.13284782
000040 8d 83 50 3d 1b 16 93 bd 4a 84 9e be 08 06 47 be
       0.050906707 -0.07181951 -0.30960304 -0.19435894
000050 4c 30 ca bc f2 2a 19 3d 36 e1 21 3c 18 00 05 3e
       -0.024681233 0.03739447 0.009880355 0.12988317
000060 e9 0f e2 be 9d 71 08 bf bd f3 e7 3d 12 50 dd bc
       -0.44152763 -0.5329836 0.11325786 -0.02701572
000070 b7 de 82 3e bd 34 1e 3f b3 60 1e 3d 3b 24 7f 3e
       0.25560543 0.6179922 0.03866644 0.24916165
000080 c9 e9 bb bd 56 36 1b be d5 35 7c be d3 18 af be
       -0.0917545 -0.15157446 -0.2462991 -0.34198627
000090 14 dd 57 3e 1e 8d 90 3e e3 05 2f 3d 1d 9a 51 bd
       0.21080428 0.28232664 0.042730223 -0.051172365
0000a0 2b fe 18 be 44 74 03 bf 01 96 71 bd b8 2a e3 3d
       -0.14940707 -0.5134928 -0.058980945 0.11092132
0000b0 61 54 81 3e 87 dc b0 3e cb 89 5d 3e 4b 7b 88 3e
       0.25259688 0.3454325 0.21634595 0.26656565
0000c0 2a 2f 45 3e 71 51 95 3e 8f 0c 84 3e 49 30 26 3f
       0.19256273 0.29163697 0.2579083 0.6491743
0000d0 07 3d f2 be 77 a3 23 bf 1a 72 83 be 09 4f e7 be
       -0.47312185 -0.639213 -0.2567299 -0.45177487
0000e0 13 79 52 bf 18 e0 ab bf ca 98 9e be ec 2a 1e bf
       -0.82215995 -1.3427763 -0.30975944 -0.61784244
0000f0 4c 74 0c bf 8c 37 c9 be a7 3f 8f 3c 83 36 12 be
       -0.54864955 -0.3930019 0.017486406 -0.14278607
000100 90 aa 5d 3e 89 6f 8c be 3f 19 43 3e e8 6b 2e bd
       0.21647096 -0.27428845 0.190526 -0.042583376
000110 05 d4 1c 3c ab ee c6 3c 05 69 a2 3a f4 0f 58 3d
       0.009572034 0.024283728 0.0012390917 0.05274959
000120 d6 e7 73 bc 5b 7f bd 3b 40 8b 68 bb 06 00 cd 3c
       -0.014886817 0.005783004 -0.003548339 0.025024425
000130 26 16 3c 3c 14 80 86 3c 12 91 c0 3e 65 d6 9f be
       0.01147989 0.016418494 0.3761068 -0.31218258
000140 e8 89 02 3f 8c 92 ec be 56 1a 73 3e b2 ce 16 bd
       0.5099168 -0.46205556 0.23740515 -0.036818214
000150 ed bb 9c 3e de 8c 52 bd eb ff 38 be c0 6c f7 bd
       0.30612126 -0.051403873 -0.18066375 -0.12081289
000160 1b 01 8b be 09 30 af 3c a8 da 1f be da 33 1e 3e
       -0.2714928 0.02138521 -0.15610754 0.15449467
000170 58 b3 d9 bb c8 49 bc bc 2a cf ea bd 80 2e 38 3e
       -0.006643694 -0.0229844 -0.11465295 0.17986488
000180 1e 97 65 3b 7d f9 c4 bd 33 3a 2b bf e8 da 99 3e
       0.00350327 -0.096178986 -0.6688568 0.30049825
000190 5a d7 a2 be 59 75 98 3e 8e d4 89 3e 08 d1 0e 3e
       -0.31804925 0.2977703 0.2691998 0.13946927
0001a0 71 67 bd 3e 0e 47 3f be d5 96 87 3d d4 92 7d ba
       0.36992982 -0.18679449 0.06620566 -0.0009673063
0001b0 f7 40 fb 3d a2 75 ab bd 63 52 c5 3e 86 c8 d8 bd
       0.122682504 -0.08372046 0.3853942 -0.10585122
0001c0 c0 33 a7 3c 62 bc fe 3b 0b 68 72 3e 6e d0 90 3e
       0.020410419 0.007773922 0.23672502 0.2828402
0001d0 01 57 6c 3e 3d 15 8e be cd 62 86 be 49 e2 a9 3e
       0.23080064 -0.2775058 -0.26247254 0.33180454
0001e0 a7 11 59 3d c8 d5 58 3e 2a 49 1e 3e 71 33 50 be
       0.05299535 0.21175301 0.15457597 -0.20332123
0001f0 d3 0a c9 be 4a 45 52 3e de 34 84 be 78 3c aa bd
       -0.3926607 0.20534244 -0.25821584 -0.08312315
000200 b4 e5 62 3d 06 34 f8 bd 97 50 31 be d5 ba 03 bd
       0.055394843 -0.12119298 -0.17315899 -0.0321606
000210 c1 9d d7 3d 95 cc 04 3f 89 3d 21 3e 7a f5 e3 be
       0.10528136 0.5187467 0.1574613 -0.4452322
000220 a3 5e 81 bd 8c 4d 9a bb 97 4d 61 bd 6e 1e ae bd
       -0.06316879 -0.0047089513 -0.055005636 -0.08501898
000230 1d 6d 6a be 9c 9c 9f 3e 04 0b 3a 3d d7 70 43 3e
       -0.22893186 0.3117417 0.04542066 0.19086014
000240 49 e7 24 bd d3 7f b4 3d 27 cc 9c bd cb 5b 24 be
       -0.040259633 0.08813443 -0.076561265 -0.16050641
000250 c4 9c 0a bd 80 fc ac bd b8 63 55 be a4 66 cc 3e
       -0.03384091 -0.08446598 -0.20838821 0.3992206
000260 92 bc 4a 3e 88 4f 1d be f6 44 9d bd d4 3e ad bd
       0.19798496 -0.1536237 -0.07679169 -0.08459249
000270 d9 c9 22 bd 4c e6 a4 3d a4 6f 8f 3d c4 c2 f7 3b
       -0.03974328 0.08051738 0.07003716 0.0075610597
000280 90 3e b0 bb c8 ba f3 bc 8f b3 d3 3d f1 5e 45 be
       -0.005378552 -0.02975215 0.103369825 -0.19274499
000290 69 a5 a9 3d 09 ee 7e be f6 58 ae be 50 ed 8a 3e
       0.082835026 -0.2489549 -0.34052247 0.2713418
0002a0 63 43 40 3e f0 e9 f2 be 6b 40 8a 3e f4 46 90 be
       0.18775706 -0.47444105 0.27002272 -0.28179133
0002b0 f2 c6 c8 3e 45 ba fc be 81 09 ca 3e f5 48 08 bf
       0.39214283 -0.49360862 0.39460376 -0.53236324
0002c0 0b 8d 9b 3f 50 aa e3 bf 68 31 99 3d e1 98 96 3e
       1.2152418 -1.778635 0.074801266 0.29413512
0002d0 f9 11 95 bd 7d 47 89 bc e8 f7 a4 3e bd 35 62 bb
       -0.07278819 -0.016757721 0.32220387 -0.0034516894
0002e0 eb 7b 7c 3c f8 2b cf bb 95 50 77 3d d1 36 d8 bd
       0.015410404 -0.00632238 0.060379583 -0.105573304
0002f0 ae ae 04 bf 37 d9 1e 3f 9a 2e c4 bd 87 cd 1d 3d
       -0.5182904 0.62050194 -0.09579201 0.038526084
000300 83 f0 de 3d 2f f1 07 bf 44 4d 85 be 53 5a d3 3b
       0.10885718 -0.5310239 -0.26035511 0.0064499765
000310 eb 53 3a be 89 72 43 bd b8 40 90 3e 4a e2 c8 bd
       -0.18196075 -0.04771665 0.28174376 -0.09808786
000320 89 12 74 bd b5 32 7f 3e 4d be 11 bc 8d 5e 65 3e
       -0.05958799 0.24921687 -0.008895469 0.2239935
000330 7f 40 b3 be 22 ef 08 3f d6 19 bc bd 6d 3a 36 be
       -0.35010144 0.5348989 -0.09184615 -0.17795725
000340 9d 9f 10 3f 75 5e a0 be fe 5b c9 bd a9 74 a1 3e
       0.5649355 -0.31322065 -0.09831999 0.31534317
000350 02 19 86 bd 76 0c aa 3d 0a 0d 95 3e 0c de 19 bf
       -0.065477386 0.08303158 0.2911151 -0.6010444
000360 f9 41 20 bd 5e 0a 6b 3e 98 37 9b be 2e 77 3e 3e
       -0.039125416 0.22953174 -0.30315852 0.18600151
000370 f5 d3 ac bf 99 a9 e0 3f 46 d2 86 be 57 19 34 3f
       -1.3502184 1.7551757 -0.263323 0.70351166
000380 0a 9f d5 be 5e fa a9 3e 98 34 d3 3c 9e 50 51 be
       -0.417229 0.33198828 0.025781915 -0.2044091
000390 5f 46 96 bc 17 1c ca 3d f4 95 9d bd 0b d4 2d 3d
       -0.018344102 0.09868639 -0.07694617 0.042438548
0003a0 d4 87 6c bd 75 31 b0 3d 3e d1 dc bc f4 91 b3 3b
       -0.057746723 0.08603183 -0.026955243 0.0054800455
0003b0 3c 0b 87 bc 61 ad 6a bc 23 c0 b4 3d 2e 64 d6 3d
       -0.01648485 -0.014323563 0.0882571 0.104683265
0003c0 c8 0d 40 bc e1 53 1c bd 7e 4e 52 be 40 83 d9 3d
       -0.011722036 -0.03816593 -0.20537755 0.10620737
0003d0 77 30 a7 3e 74 f4 95 be 83 b3 af be 80 c1 c8 3c
       0.32654163 -0.29288065 -0.34316644 0.02450633
0003e0 c7 09 3b bf f4 7e 95 3e 16 df 28 3f 06 84 20 be
       -0.73061794 0.2919842 0.659654 -0.15675363
0003f0 ea d9 57 3f 1a 0b 2d be de 68 27 3f c5 64 d1 bd
       0.84316885 -0.16898766 0.6539439 -0.102242984

critic1.0.bias f4 [64]
000000 ab 0a 00 be 69 92 08 40 6f b3 c8 bc bd f2 93 bd
       -0.1250407 2.1339362 -0.024499623 -0.07224033
000010 c6 43 87 3e 0d 4a a8 3f 83 e2 59 40 73 43 64 40
       0.26418895 1.3147599 3.4044502 3.5666168
000020 38 16 5e be 5c f9 37 40 df f1 1a c0 26 b4 56 bf
       -0.21688163 2.8745947 -2.4210126 -0.83868635
000030 c5 5f 10 bd e7 fd 98 3d 48 9e d4 3d b5 12 b2 bd
       -0.035247583 0.07470303 0.10381752 -0.08694974
000040 4e ac ef 3c 91 c5 fb bf 2a cd 0c 3f a8 3f bb bd
       0.029256966 -1.9669667 0.55000556 -0.09143001
000050 6c ea 40 40 31 16 40 40 82 d1 02 3f 37 ff 57 bd
       3.014308 3.0013545 0.51100934 -0.052733626
000060 09 9b d6 3f c7 9d 21 c0 c8 7d 3b 40 a5 ce 36 3f
       1.6766063 -2.525255 2.929552 0.71409065
000070 65 c4 f6 bf 1e 8a 73 3e 74 62 83 40 b4 17 32 40
       -1.9278685 0.23783156 4.105768 2.7826967
000080 cf 2d 5c 40 29 69 fd 3f 17 68 13 3f 6b 52 59 40
       3.440296 1.9797717 0.57580703 3.3956554
000090 05 e5 df bd a7 02 3e be 1c 03 04 40 87 61 1e bd
       -0.10932354 -0.185557 2.0626898 -0.038667228
0000a0 af a3 0f 3d 2c e3 92 3e 00 68 b2 3f af fb 88 40
       0.03506821 0.28688943 1.3937988 4.280723
0000b0 d2 7b 99 3f 1c b7 04 be ad 96 32 c0 cd 0c 62 bf
       1.1990912 -0.12960476 -2.7904465 -0.8830078
0000c0 7d 74 87 be 0a d0 24 40 1a 6e 92 bd 10 6e 51 bf
       -0.2645606 2.5751977 -0.071499065 -0.8180857
0000d0 7d 2f 0d 3e 7c 06 ef 3f 49 7f d8 bd 68 af 5e 3f
       0.13787647 1.8673854 -0.10571153 0.869864
0000e0 b0 d0 70 40 83 a2 fb 3f e8 f0 63 be 41 0f bd be
       3.7627373 1.965897 -0.22259867 -0.369257
0000f0 f3 77 d4 bd 5b 39 c7 c0 91 27 cf bf 85 eb 4e bd
       -0.10374441 -6.2257514 -1.618395 -0.050517578

critic1.2.weight f4 [64, 64]
000000 4c c6 7e be 1c e3 03 3e 9a f0 a1 bd 03 b7 98 be
       -0.24880332 0.12879604 -0.07907219 -0.29827127
000010 5d 36 69 3e a7 69 f2 3c 22 f8 03 3f a4 fd b2 3e
       0.22774644 0.029591395 0.51550496 0.34959137
000020 9c bd 18 3f c4 b7 0d 3e 49 b9 ac be a3 36 30 bf
       0.5966432 0.13839632 -0.3373511 -0.6883337
000030 03 20 d6 3c 93 6e 61 3e f9 2d f9 be 17 d4 a5 3d
       0.026138311 0.22014837 -0.48667887 0.080970936
000040 42 7d 74 3e fd ca 5b bf 78 0e c9 bd 1b b4 37 3e
       0.23875907 -0.8585661 -0.09817213 0.17939799
000050 d3 b8 d6 be e7 d5 e5 3d 90 99 79 3e e3 d8 f8 3d
       -0.41937885 0.11222439 0.24374986 0.12150743
000060 13 46 cd 3b a4 19 57 3d e6 54 ed 3e 86 c4 cb 3e
       0.006264457 0.052514687 0.46353835 0.39798373
000070 d7 32 3e 3b 85 b7 1a be 54 9c 37 3e 83 64 c0 3d
       0.0029022002 -0.1510907 0.17930728 0.09394171
000080 15 dd 7f be e4 31 85 be 8f c1 14 3a ab 8a 90 3e
       -0.2498668 -0.26014626 0.00056745944 0.28230795
000090 11 8c e5 bc b7 4e 03 3e 9b 9f 04 3f b2 57 17 3f
       -0.02802089 0.12822996 0.5180604 0.5911819
0000a0 f9 d4 10 be 10 88 5d bd da 2a b1 3e 10 5d b5 3e
       -0.14143743 -0.054084837 0.34603006 0.35422564
0000b0 af 2a e1 be d6 d4 61 3e a5 b3 0f c0 b2 9a 05 be
       -0.43977877 0.22053847 -2.2453396 -0.13047293
0000c0 90 70 93 be 44 48 3c 3e 76 56 1e 3e 4d 75 a9 bd
       -0.28796816 0.18386942 0.1546267 -0.082743265
0000d0 5d bd 26 bf 94 71 25 3e db b6 db 3d 76 aa de 3e
       -0.65132695 0.16156608 0.10728236 0.43489426
0000e0 8e e6 63 3f 41 f1 b3 3e 5b 4f cd 3d c1 bc aa bd
       0.89023674 0.35145 0.100249015 -0.08336783
0000f0 3c d3 cf 3d 3b 1a ed 3e 0c 52 fd 3e bb 12 3c 3f
       0.10147712 0.46309075 0.4947666 0.7346608
000100 41 a9 e8 3e 73 37 7a 3e c9 b5 af 3d b6 70 ad be
       0.4544163 0.24435215 0.08579595 -0.33875054
000110 80 bc 7c bf 6c f4 25 bf c5 5b 39 bf fd 8c 40 bf
       -0.9872513 -0.64826083 -0.72405654 -0.7521513
000120 bc 55 1d bf 2b 2d aa 39 2e 7e b5 3f 91 e9 f0 3e
       -0.61458945 0.0003245858 1.4179132 0.47053197
000130 5d 95 a4 3c 1a c5 3f bf 00 21 20 3f 24 0e 21 3f
       0.020090753 -0.7491013 0.62550354 0.629122
000140 9d c1 ae be 16 ac bb 3e 96 fc ea 3e 8e 51 5a 3d
       -0.3413209 0.3665473 0.45895833 0.053300433
000150 13 83 24 3f 75 47 af ba 32 87 c7 be 9f ab 61 bc
       0.64262503 -0.0013372736 -0.38970333 -0.013773828
000160 64 34 12 bf f0 cb 80 3f 29 c0 05 3f 47 49 87 be
       -0.5711119 1.0062237 0.5224634 -0.26423094
000170 2c bb 00 bf 67 09 ec bd 40 a2 a2 bf 7a ba 6d 3e
       -0.502856 -0.11525231 -1.2705765 0.23215666
000180 7b 0e 32 be 84 76 f2 bc 61 ed a1 be 43 df 59 3e
       -0.17388336 -0.029597528 -0.31626418 0.21276574
000190 36 8a 92 be 5c 27 dc be 46 58 12 be b9 33 19 bf
       -0.28621072 -0.4299878 -0.14291486 -0.5984455
0001a0 de 1c 72 be 17 a8 ba be 65 77 67 bd 02 bd e8 be
       -0.23643824 -0.36456367 -0.056510348 -0.45456702
0001b0 11 51 8c 3f c2 cf 96 be cf ba 33 3f d5 bd c3 3c
       1.096224 -0.29455382 0.7020692 0.02389423
0001c0 58 cf 66 be c4 2c f4 be 76 91 fd bc f2 bb 93 3e
       -0.22540033 -0.47690403 -0.03095315 0.28854328
0001d0 09 db ea 3e 92 d3 00 3e 6d 93 84 be ca 93 ab 3d
       0.45870236 0.12580708 -0.25893727 0.08377798
0001e0 bb f1 8e bf e3 21 93 be d1 73 82 3d 2a cc 12 bf
       -1.116752 -0.2873679 0.063697465 -0.5734278
0001f0 29 e0 81 be 0d f6 c4 3f b8 3a 06 bf 68 27 15 be
       -0.25366333 1.5387589 -0.5243335 -0.14565814
000200 f2 f6 68 3e c5 cc 37 3e a4 9e 8a be 7c 5c 03 3e
       0.22750452 0.17949207 -0.27074158 0.12828249
000210 a9 57 48 bd 0d ea 20 3e ca 77 3a be d8 fe b5 3e
       -0.048911724 0.15714283 -0.18209758 0.35545993
000220 6b 2d 35 bf 54 b6 05 3f 08 7b 9d bd 23 99 93 bd
       -0.7077243 0.52231336 -0.07689482 -0.07206943
000230 8b e4 8f 3e a4 93 37 3e 8a b8 33 3f 08 06 06 3e
       0.28104052 0.17927414 0.7020346 0.13088238
000240 89 c4 08 3f e9 0e bb 3e c5 58 e4 bd 11 ec a5 3d
       0.5342489 0.36534813 -0.11149744 0.08101667
000250 1b 8b 6c 3c ec 7d 1b be 8b 14 d2 3d 7d a4 0c 3f
       0.014437462 -0.15184754 0.102578245 0.5493849
000260 17 c0 41 3c d6 e8 82 bd be 0c ff bd 6e b6 81 be
       0.011825583 -0.06392066 -0.12453602 -0.25334495
000270 b0 3c b7 3e a2 45 bd 3e 97 3a ae 3e c6 7e 2b bf
       0.35788488 0.36967188 0.34029076 -0.66990316
000280 3b dd 6c 3e ae ee 66 3f e2 2d 22 3d 52 ce 03 be
       0.23131268 0.90207946 0.03959454 -0.12871674
000290 f4 cb 8b 3e 05 84 65 bd fd b9 81 3e 5d ea 00 be
       0.2730404 -0.056034107 0.2533721 -0.12589402
0002a0 8c 68 21 3f c2 53 2a 3f 3a 30 90 bd 4d cd 7a be
       0.6305015 0.66534054 -0.070404485 -0.24492379
0002b0 66 c0 49 bf 05 f0 8c 3e f6 0c 14 3f e2 53 67 3e
       -0.788092 0.2752687 0.57832277 0.22590593
0002c0 9f 6c 15 3e 35 36 03 3e 04 33 9c 3d 32 15 0d 3c
       0.14592217 0.12813647 0.07626918 0.00861101
0002d0 58 02 fb 3d b6 bd 15 3d 1e e5 6c bd 2b bd 82 bd
       0.122563064 0.036557876 -0.05783569 -0.06383737
0002e0 2c cb 2e 3f 4e f8 64 3e 23 75 d3 3c 91 7e 18 3e
       0.68278766 0.22360346 0.025812691 0.14892031
0002f0 76 ae 6f 3e e8 50 cf be e7 84 8a 3e fc 89 ba be
       0.23406395 -0.40491414 0.2705452 -0.364334
000300 07 6e b9 3d 01 20 2e 3d 2b 3e bd 3d 20 e4 c3 bd
       0.09054189 0.04251099 0.09240373 -0.09564996
000310 26 03 18 3e 63 a9 c7 3e 96 be cc 3d f9 35 43 3e
       0.14844951 0.3899642 0.09997289 0.19063558
000320 9e d0 ad bb ba 20 1a 3f ad 90 61 be 93 ed cf be
       -0.00530441 0.60206187 -0.22027846 -0.40610942
000330 a4 80 65 3e 78 22 7f be 95 18 09 3e 3a a8 90 3e
       0.22412354 -0.24915493 0.13388284 0.28253347
000340 cc e5 d4 bd 2c 09 3e 3f 5a 2a 87 3d 69 04 91 3e
       -0.10395393 0.74232745 0.06599875 0.28323677
000350 f6 a3 0e 3f df d2 e7 3d d0 c8 d7 3b c8 0f 31 be
       0.55718935 0.11319517 0.006585218 -0.17291176
000360 cc 71 83 3e 2f cd 08 3f d3 7e ca 3e b8 9c e3 be
       0.25672758 0.53438085 0.39549884 -0.44455504
000370 ae f4 32 bb b2 cb 48 3e ca 39 35 3f 9b 66 62 3e
       -0.0027306485 0.19608954 0.70791304 0.22109453
000380 0a 4b 89 be 4b 76 0d 3d 41 e4 2a 3e 70 57 2d 3e
       -0.26815063 0.03453664 0.16688634 0.16927886
000390 bd 9f 29 be 10 50 ee 3e c2 1d b8 bd fc a4 29 3e
       -0.16564842 0.46545458 -0.08990051 0.16566843
0003a0 c8 f9 12 be 45 6b 4f 3d 77 a7 f4 bd 17 71 51 3e
       -0.14353096 0.05063941 -0.11946004 0.20453297
0003b0 64 f1 db 3e ff d1 27 3d 48 de 09 3f 8f 1d 02 3e
       0.42957604 0.040971752 0.538548 0.12706588
0003c0 53 a1 60 3d a5 99 be 3e b9 42 23 3e bb 52 38 bd
       0.05484135 0.37226596 0.15943421 -0.045000773
0003d0 8a 86 10 bf af 4a 36 be 36 3c cf 3d 84 9e 71 be
       -0.5645529 -0.17801927 0.10118906 -0.23595625
0003e0 88 d6 e1 3e a1 06 85 3e 1e 4b ea 3d 58 09 31 be
       0.44108987 0.2598162 0.11440109 -0.1728872
0003f0 5d a3 d9 3d 67 92 c5 3e 6c 6f 0d 3f b9 82 97 3e
       0.10626862 0.3858826 0.5524814 0.2959192

critic1.2.bias f4 [64]
000000 6e 4b cf 3e e5 2b 3a bf ee 29 35 3f ef 7c f7 3e
       0.40487236 -0.7272323 0.70767105 0.48337504
000010 a9 62 0c 3e d0 63 45 3f 07 1d 14 c0 11 8f a9 bf
       0.13709511 0.77105427 -2.3142717 -1.3246785
000020 30 11 b3 bf ca 80 6c bf 1d 58 84 c0 df 9a a1 3d
       -1.398962 -0.92384017 -4.135756 0.078908674
000030 19 57 02 c0 21 90 03 bd d0 c5 de bf 15 10 41 bf
       -2.036566 -0.032119874 -1.7404118 -0.75415164
000040 ce 9e b5 bf 19 f5 8e bd 4c 46 36 be 02 d4 eb bf
       -1.4189088 -0.069803424 -0.17800254 -1.8424075
000050 12 01 ed 3e c6 a3 88 be 67 ae 19 bf eb 41 70 be
       0.4628988 -0.2668745 -0.6003174 -0.23462646
000060 a5 15 4f bf 96 37 0b c0 76 5c 88 3f 30 49 a4 3c
       -0.808924 -2.1752677 1.0653217 0.02005443
000070 ba 97 c8 be a3 80 19 c0 86 c0 01 3f 7c 04 0f c0
       -0.39178258 -2.3984764 0.5068439 -2.2346487
000080 c6 2f cc 3e 54 36 e7 3e 64 79 2b 3d 40 76 13 be
       0.39880198 0.45158637 0.041863814 -0.14400578
000090 63 89 a8 be 29 34 ab bf f0 ff 40 bf 19 7d cd 3e
       -0.32917318 -1.3375293 -0.7539053 0.40134504
0000a0 3a 5f b6 be 5a 4c 64 3f 61 47 04 3f f6 5f 88 3f
       -0.35619527 0.89179003 0.51671416 1.0654285
0000b0 86 22 ec bf b9 bb 5f 3e 52 c4 71 be 9c 19 6a bf
       -1.8448036 0.21848954 -0.23610047 -0.91445327
0000c0 fa e8 15 bf ef 5a 9c 3e 8d da 94 3e c8 d8 76 be
       -0.5855862 0.30538127 0.2907299 -0.24106133
0000d0 22 92 8d be 82 20 5e c0 ea b8 5f 3f 2f f1 83 3f
       -0.27650553 -3.4707341 0.8739153 1.0307978
0000e0 ec 77 08 40 7c 9c b5 3f 7f 2f 9f 3f 7e 87 13 c0
       2.1323195 1.418838 1.243637 -2.3051448
0000f0 7a 45 e2 3e 73 60 50 3f 97 73 19 40 ba 58 f3 be
       0.4419363 0.8139717 2.39768 -0.4752863

critic1.4.weight f4 [64, 64]
000000 4f af 0a bf b1 9f 2c 3f dc 23 3f be 55 c8 b9 be
       -0.5417375 0.6743117 -0.18666023 -0.36285654
000010 f3 72 34 be 38 74 63 3f 13 2c 61 3f 10 bf 19 be
       -0.17621975 0.8884921 0.87957877 -0.15014291
000020 bf dc 24 3d e1 4c b0 3e d5 a7 19 3f fd 0f 38 3e
       0.040249582 0.34433654 0.60021716 0.17974849
000030 c4 b4 8a be ed 5d ad be 38 c4 46 be 54 1d e3 bf
       -0.27091038 -0.33860722 -0.19410789 -1.7743325
000040 9d e9 ec be 60 5f 0a 3f fe 3e 8c 3d 71 2a d0 3e
       -0.46271983 0.5405178 0.06847952 0.4065738
000050 c4 a6 87 3e 4f 9f aa 3e 1d 4e 43 3d 28 b6 fd bc
       0.2649442 0.33324668 0.047681917 -0.030970648
000060 dc 43 2f 3f af d1 03 be 23 e2 2b bd 7e 81 3c bf
       0.6846292 -0.12872957 -0.041963708 -0.7363509
000070 cb fd 9a be 0b 10 d4 bd ba 4e 8f bc 1f 39 6b 3d
       -0.30271754 -0.103546225 -0.017493594 0.05742752
000080 55 07 62 be 31 fb 21 bf b6 74 39 3e 52 7b 92 3f
       -0.2207311 -0.6327391 0.18110928 1.1443884
000090 2d 1a 18 3f a8 85 5c be 8c 3a 69 3d cd 9f d2 3e
       0.5941494 -0.21535361 0.0569406 0.41137543
0000a0 91 b8 20 3e b4 54 bc be eb 9d 99 be db 6b 82 ba
       0.15695406 -0.36783373 -0.30003294 -0.0009950356
0000b0 b9 66 4c 3e ca a0 ea 3e 69 d1 80 bf 10 94 b4 3e
       0.1996106 0.45825797 -1.0063907 0.35269213
0000c0 0f 23 a8 be c1 36 09 3f b5 2f 11 be ea 08 d4 bf
       -0.32839248 0.5359917 -0.14178355 -1.656522
0000d0 cd e1 8c bf 39 b5 90 3e f2 48 50 bf b7 cd e9 be
       -1.1006409 0.28263262 -0.81361306 -0.4566476
0000e0 9e 28 8a 3e 58 f9 a8 be 9a 82 0c 3e 56 0b 13 bf
       0.26984113 -0.33002734 0.13721696 -0.5743917
0000f0 70 f4 02 bf 50 3e 3e bf 1e 0c e9 be 30 9d 8f be
       -0.5115423 -0.7431383 -0.45517057 -0.28049612
000100 07 ea d0 3e da f6 87 3d d7 a9 dc 3e fd 2f c1 3e
       0.4080355 0.0663888 0.43098328 0.37731925
000110 84 79 88 3e 48 57 8f 3e 17 57 43 3e 5d f5 3e 3f
       0.2665521 0.27996278 0.19076191 0.74593145
000120 e4 d7 56 3e 13 2a cf 3e 37 b3 3a 3f 56 99 ef 3e
       0.20980793 0.40461788 0.7292971 0.46796674
000130 ea 01 d9 3d 3a df 68 3e c4 4d fa 3e 9d 45 85 3e
       0.10596068 0.22741404 0.48887455 0.26029673
000140 ae 2d 96 3e 9c bf b7 3e 38 bc 02 3e f6 dc 78 3f
       0.29331726 0.35888374 0.12767112 0.9721216
000150 fa 48 16 3e e0 3b 01 bc 1b 5f d4 3d 94 bd 3f 3f
       0.14676276 -0.0078878105 0.103697024 0.7489865
000160 64 71 66 3f ca 89 d7 3e f6 2a 35 3f cf 0d 9c 3e
       0.9001677 0.42097312 0.7076868 0.30479285
000170 b9 94 74 3f ac 8d ec 3e 30 17 d0 3d e2 6b 3a 3f
       0.9553943 0.46201837 0.10160673 0.72820866
000180 b6 5e cb 3e 96 cd e3 b9 fd aa 01 3e ed 65 89 3e
       0.39720696 -0.00043449987 0.12662883 0.26835576
000190 02 69 ec 3d 79 55 a9 bd 4c 56 cc 3e d3 cc 5f 3f
       0.11543466 -0.08268256 0.3990959 0.8742191
0001a0 26 d3 a2 be 5d b7 54 3e 8a f6 85 3e 4b 09 34 3f
       -0.31801718 0.20773073 0.26164657 0.7032668
0001b0 34 cc 13 3f 2c 89 49 be 59 88 43 be ad c1 10 3f
       0.57733464 -0.19681233 -0.19094981 0.56545526
0001c0 2d 1a bf 3e 38 ff 21 3f 17 41 f0 3e 5c 9d 2a 3e
       0.37324658 0.6328006 0.4692466 0.1666159
0001d0 0e 5c 20 bc 5b 21 23 3f f7 ca 52 be fa 69 f4 bc
       -0.009787573 0.6372277 -0.20585237 -0.02983569
0001e0 96 f5 19 3d 1d 6b d0 3e ad fd 9e 3b 87 92 fd 3e
       0.037587725 0.4070672 0.004852018 0.49525854
0001f0 18 87 62 3e b9 1b ee 3e 73 69 62 3e 4d de b7 3d
       0.22121847 0.46505526 0.22110538 0.089779474
000200 7a 0e cd bd c3 8d f8 be cd 71 c8 3e 01 e6 0f 3e
       -0.10012527 -0.48545656 0.39149323 0.14052583
000210 a1 20 3c 3d cc d1 c8 be ed 83 c5 be c6 96 2a be
       0.045929555 -0.39222562 -0.38577214 -0.16659078
000220 a5 7f e2 ba 28 80 e1 bd 95 63 43 bf 49 eb 43 3f
       -0.0017280473 -0.11010772 -0.76323825 0.7653089
000230 8b db 8d be 51 60 df be 40 bc 9c be 54 ef 63 be
       -0.2770656 -0.4362817 -0.30612373 -0.22259265
000240 8b 8b c3 be fa a4 d9 be bb db 3d 3e 0c 5c 5e be
       -0.381924 -0.4250868 0.18540852 -0.217148
000250 85 71 55 3c f9 58 8d be 0c 4a 28 3f 9b 1b c2 3d
       0.013027553 -0.27606943 0.65737987 0.094779216
000260 f5 c1 a7 be c9 76 5b be ae c2 d9 3e fe 0f 05 bf
       -0.32765165 -0.21432032 0.4253134 -0.5197753
000270 d6 d0 98 be d9 59 0d bf c2 86 d4 be f2 f8 10 be
       -0.2984683 -0.5521522 -0.41509062 -0.14157465
000280 f4 3e 4a bf d2 bb 5b bf 13 7f f2 3c 39 4f 93 bc
       -0.7900231 -0.85833466 0.02960161 -0.017982112
000290 9f 2a a0 be 92 a6 de 3d 2d 37 ee 3d 9f d0 8a bf
       -0.31282517 0.108716145 0.11631618 -1.0844916
0002a0 9d 56 c3 3e c9 77 14 be 7f f4 dc bf f5 c6 89 be
       0.38152018 -0.1449882 -1.7262114 -0.26909605
0002b0 c0 79 8d be 60 06 c2 3e 6d 9a 87 3e 09 e1 85 bf
       -0.2763195 0.3789549 0.26485005 -1.04593
0002c0 52 48 92 bc 4d 0b 50 bf 63 89 29 3e 12 16 40 3f
       -0.01785675 -0.81267244 0.16556315 0.75033677
0002d0 c3 c5 c9 be 8c 20 34 bf b1 65 80 3e dc 3b 23 3e
       -0.39408693 -0.7036216 0.25077584 0.15940803
0002e0 95 53 fb 3d 1c a8 99 3d 29 7d d7 3d cb ff a0 bf
       0.122718014 0.075027674 0.10521919 -1.2578062
0002f0 44 fc 1c be 26 dc 90 be bf 80 43 be ce 76 e0 3e
       -0.15330607 -0.2829296 -0.19092081 0.4384064
000300 df 99 c5 3e 95 00 3d 3e 30 8b fd bd 48 58 60 3e
       0.38593957 0.18457253 -0.123800635 0.21908677
000310 7c 93 a2 3c d3 89 5b 3d 02 4a 14 bf 5d 75 a8 3e
       0.019845717 0.053598236 -0.57925427 0.3290204
000320 93 13 dd 3e 90 0b 99 bf 83 46 4e 3f 22 90 74 3f
       0.43178996 -1.1956654 0.8057634 0.9553243
000330 2f ce 1d 3f ed 43 fc bd 9a 42 73 bd b3 bc 5e bd
       0.61642736 -0.12317643 -0.059389688 -0.054379176
000340 fd 35 55 be b3 70 85 be f1 17 18 bf 99 60 34 3f
       -0.20821376 -0.26062545 -0.5941153 0.70459896
000350 95 36 8d 3e 15 f2 2a be a8 aa 7a 3e 76 34 77 be
       0.27580705 -0.1669391 0.24479163 -0.24141106
000360 f3 97 2c 3e 1b b6 e8 3e fe c0 27 be 3d 49 c1 3b
       0.16854839 0.45451435 -0.16382214 0.0058986233
000370 24 fa 99 be 26 6b 09 3f cf 34 5c bf 03 f2 98 3f
       -0.30073655 0.5367912 -0.8601808 1.1948856
000380 9e c1 a3 bf c7 44 47 bf 4a 3e 8c 3f c3 20 a8 be
       -1.2793462 -0.7783932 1.0956509 -0.32837495
000390 97 ff ce 3e c9 67 77 be f9 5b b3 bb 46 d3 a0 3e
       0.40429375 -0.24160685 -0.0054736105 0.3141119
0003a0 ff e2 4f 3d cc 1e 18 c0 4e 4f 9d 3c 3e d1 6b be
       0.05075359 -2.3768797 0.019202854 -0.23029038
0003b0 9c d2 ee be a5 ce f9 3d ed 0a 8c bf 2c 6d 99 3e
       -0.46645057 0.121976174 -1.0940834 0.29966104
0003c0 17 b9 0c 3e 8d 64 78 3f b4 0b e3 be 7d ec 33 bf
       0.13742481 0.9702843 -0.44344866 -0.7028273
0003d0 50 e6 02 be 4c 20 56 3f 93 2d 83 bf 09 ac 77 bf
       -0.1278317 0.8364303 -1.0248283 -0.9674688
0003e0 de 35 0d bf 9a f4 ab 3e a3 44 8f 3c 46 fe 3a 3e
       -0.5516032 0.33585054 0.017488783 0.1826106
0003f0 85 2f b5 bf 78 25 d4 be 1f ea 11 bf 5e 37 7c 3c
       -1.4155127 -0.41434836 -0.56997865 0.01539406

critic1.4.bias f4 [64]
000000 ea a6 e4 bf 24 13 8e 3f dd 5b 4c bf 00 ba 1f c0
       -1.7863438 1.1099591 -0.7982767 -2.4957275
000010 ad a7 70 3f 26 d2 80 be c7 75 f3 bf 2d f5 16 c0
       0.9400585 -0.2516033 -1.9020318 -2.3587143
000020 41 5b a1 be d9 e0 b6 be ee 5b 91 3f e5 31 77 bf
       -0.31514934 -0.3571842 1.135618 -0.9656051
000030 85 0c a3 3e 90 0c b3 3f 53 1c 9c 3f 2f 6a 4b bf
       0.3184549 1.3988209 1.2196144 -0.794589
000040 ce 1c e6 be ab 78 2d bd 9a f5 cf bf 57 f8 38 c0
       -0.4494385 -0.042351406 -1.6246827 -2.8901575
000050 96 a5 67 bf 46 06 41 bf 21 30 c4 bf 64 98 91 3f
       -0.9048704 -0.754002 -1.5327188 1.1374631
000060 94 bf 28 c0 ef c3 11 c0 0a 7f 19 bf 4c 3d 00 c0
       -2.636693 -2.2775838 -0.5995947 -2.0037413
000070 ee a4 30 bf 14 5a c5 bf 3f 79 c3 3e a8 7d 33 c0
       -0.6900166 -1.5418115 0.3817844 -2.8045444
000080 57 e3 cb bf 31 01 ea bd 00 2c eb be 07 7c 87 3f
       -1.5928754 -0.114260085 -0.45932007 1.0584725
000090 c3 e7 39 bf 25 a2 ad be 3a 74 0b c0 57 87 12 c0
       -0.72619265 -0.3391277 -2.178969 -2.2895105
0000a0 f8 dc 0c bd 03 9a 80 be 66 cd 21 bf 00 21 3c 3f
       -0.03439042 -0.25117502 -0.6320404 0.73487854
0000b0 3b 84 dd bf ec 0e 01 c0 df 8d 0f c0 8a 83 fc be
       -1.7305979 -2.0165358 -2.2430341 -0.49319106
0000c0 b7 fa fc bf 13 11 ac 3d fa a7 81 3f 70 14 14 3f
       -1.9764012 0.08401694 1.0129387 0.57843685
0000d0 14 28 ec bd 61 29 9c bf f8 49 8b 3f ac 8a dc bf
       -0.11531082 -1.2200128 1.0881948 -1.7229819
0000e0 84 78 18 bf e9 4b 99 3f 1b b4 15 c0 27 27 d4 bf
       -0.5955889 1.1976291 -2.3391178 -1.6574448
0000f0 54 63 a5 ba 37 76 b5 bf 6b 8b 83 bf 13 45 07 bf
       -0.0012618103 -1.4176701 -1.0276922 -0.52839774

critic1.6.weight f4 [1, 64]
000000 c2 6f 92 3f bb 1e b5 be 24 65 dc 3e 3a 03 a2 3f
       1.1440356 -0.35375008 0.43045914 1.2657235
000010 81 1b e3 be ad f7 6f bf 05 62 9c 3f d5 cf 27 3f
       -0.4435692 -0.937373 1.2217413 0.655515
000020 f9 69 33 c0 a2 ed 1b c0 65 4b b4 be 56 5d ad 3f
       -2.803343 -2.436379 -0.3521377 1.3544109
000030 00 dc 35 c0 94 74 27 bf a2 7d 18 bf e5 b7 5a bf
       -2.8415527 -0.6541226 -0.595667 -0.8543685
000040 06 97 2c bf 3e 0a c5 bf bb 81 8c 3f 8a 4d b4 3f
       -0.67417943 -1.5393751 1.0977091 1.4086163
000050 7b 01 9d 3e 2f 15 ab 3e 26 e1 64 3e 15 e0 de be
       0.30665192 0.334146 0.22351512 -0.43530336
000060 09 67 a1 3f 0e db b9 3f 0d d6 c7 bf 3c db 99 3f
       1.2609569 1.4519975 -1.5612198 1.202003
000070 57 36 ac bf 74 f7 1c 3f a3 df fb bf a2 a7 a2 3f
       -1.3454083 0.61315084 -1.9677624 1.2707407
000080 45 f7 99 3f 06 7c 92 bf bd 1b 9b bf 96 9e f2 be
       1.2028586 -1.1444099 -1.211784 -0.47386616
000090 e4 54 82 bf b8 f4 e1 bf 2e 6c 69 3f 0e 36 29 3f
       -1.0182157 -1.7652807 0.91180694 0.66098106
0000a0 c1 2a 30 be 03 a4 d6 bf 0b 13 e1 bf 59 4b 5c 3f
       -0.1720381 -1.6768802 -1.7583936 0.8605247
0000b0 e7 c5 7e 3f 9e d9 14 3f 06 dd 4b 3f f6 b1 d9 3f
       0.99520725 0.5814456 0.7963413 1.7007434
0000c0 c3 da 34 3f 0a 64 36 c0 bf da a0 be 80 c0 78 c0
       0.70646304 -2.849856 -0.3141689 -3.8867493
0000d0 5c c8 c2 bf da db 03 3f d4 08 c1 be 05 0b 6a 3f
       -1.5217395 0.5150734 -0.37702048 0.91423064
0000e0 50 c3 ab bf 9c a7 19 bf ea 35 8d 3f 44 3e 4f 3f
       -1.341898 -0.60021377 1.1032078 0.80954385
0000f0 b1 26 6f c0 3a a5 d3 3e f6 06 8b bf e8 fc 62 bf
       -3.7367365 0.41336995 -1.0861499 -0.88667154

critic2.0.weight f4 [64, 82]
000000 66 b7 9e bc 07 25 8f bd a1 ff 44 3e cc 7c 59 3c
       -0.01937456 -0.06989484 0.1923814 0.013274383
000010 8a a4 34 be d9 f5 22 3e 91 6e 2e 3e 9b 4c 2a bc
       -0.17640892 0.15914096 0.17034365 -0.010394241
000020 bb d4 f8 3c 11 ef 6c bd 80 ab c8 bd fd 39 bd bc
       0.030374875 -0.05784518 -0.09798336 -0.02309894
000030 27 36 88 be 3b fc 27 3d 52 36 7a 3d a0 d0 97 3d
       -0.26603815 0.04101203 0.06108696 0.07412839
000040 2d d9 27 3c 99 de 09 3e a6 90 78 3e 47 39 c2 3d
       0.01024465 0.1346382 0.24273929 0.09483581
000050 54 6c 36 be 3f de a2 bd 98 8b 33 3e 7e 27 4b be
       -0.17814761 -0.07952546 0.1753372 -0.19839284
000060 3e 49 99 3e e5 d0 68 3e e5 1d 08 3d 10 de 5f 3e
       0.29938692 0.22735937 0.033231635 0.21862054
000070 05 a4 7b bd cd 21 a7 be 53 2f f8 bd 68 63 37 3d
       -0.061435718 -0.32642975 -0.121184014 0.044772536
000080 0e d0 96 3b c2 1e 06 be c9 da 0c 3e d4 7a 01 be
       0.004602439 -0.1309767 0.13755335 -0.12644511
000090 8f 7d 46 be 44 dc fc 3c 82 3a be ba 49 d7 b7 3d
       -0.19383834 0.03086675 -0.0014513286 0.08976609
0000a0 ba b1 33 be d0 cd 8e bc 1a c6 27 3d 8f 72 a4 3d
       -0.17548266 -0.017432123 0.04096041 0.08029663
0000b0 5f af 00 be cb 88 73 bd 32 52 1b 3b 30 07 1c be
       -0.12566899 -0.059456628 0.0023700115 -0.15237117
0000c0 78 99 8a 3d d0 3c 43 3d 6c 81 cd bc fd 16 40 be
       0.06767553 0.047665417 -0.025086127 -0.1875877
0000d0 24 bf 42 3e 17 03 90 3c 6d ae 60 3e db 53 3d 3e
       0.19018227 0.017579598 0.21941538 0.1848902
0000e0 c5 e1 ee 3e 21 d1 08 3e 57 db 08 3e ce 89 ef 3c
       0.46656623 0.13361026 0.13364922 0.029240515
0000f0 b7 24 95 3e df c2 7d 3d 26 9b da 3b 70 d6 f3 3c
       0.29129574 0.06195342 0.006671327 0.029765338
000100 b0 56 81 3d 43 28 03 bd e4 a7 25 b9 11 cc ef bc
       0.063153625 -0.03202082 -0.0001579817 -0.029272111
000110 d7 a4 1a 3d 86 a1 b7 bd dc 73 14 bd 08 a1 7e bd
       0.03775486 -0.08966355 -0.036243305 -0.06216529
000120 39 0a 26 bd aa 3d 39 3d c7 95 e2 bd 35 4d 32 bd
       -0.040537093 0.045224823 -0.11063724 -0.04353066
000130 28 6a 37 3c 99 7c d5 bb 0f b0 44 3d e2 25 31 bc
       0.011194743 -0.0065150973 0.048019465 -0.010812255
000140 b3 87 3c bc 0f 0c 74 3d 9e 71 69 be 7c b8 a9 be
       -0.011506963 0.059581812 -0.22797248 -0.33148563
000150 08 64 67 bc 50 25 dc be 47 e2 52 be 10 e2 6b bd
       -0.01412297 -0.42997217 -0.2059413 -0.057588637
000160 bd ef 32 3e bc a0 9f 3d 4f e7 4e 3d 33 5d da 3c
       0.17474265 0.077943295 0.05051356 0.026655769
000170 e9 dc 93 bd 9f 16 c9 be 59 57 0a 3e 17 c3 34 3f
       -0.0721987 -0.3927507 0.13509883 0.70610183
000180 3f 80 35 bc f9 84 23 3e 08 40 ad be 03 18 8e bd
       -0.0110779395 0.15968694 -0.33837914 -0.069381736
000190 f2 25 96 bd 28 26 87 be 19 a4 02 be ff 32 38 3d
       -0.07331456 -0.26396298 -0.12757911 0.04497051
0001a0 c4 02 f0 3d 61 31 83 be b1 60 2f be 63 cc a7 bc
       0.117192775 -0.2562361 -0.17126729 -0.020483201
0001b0 1d 03 7d 3c 38 3f 36 bf bb 46 c9 3e fe 0f 29 3f
       0.015442637 -0.71190214 0.39311776 0.6604003
0001c0 a2 d4 b7 3d 8e c8 2e 3e ad ab 1b bf 36 5a 3d bf
       0.08976103 0.17068693 -0.6080883 -0.73965776
0001d0 a5 c9 c3 be e0 39 33 bf 46 3a 64 3e 0a 09 d5 3e
       -0.3823978 -0.70010185 0.22287855 0.4160846
0001e0 2d c4 b2 3e 2a ff 12 3f 13 0e 58 3e 84 89 93 3e
       0.34915295 0.574206 0.21099119 0.28815854
0001f0 7a 79 3d 3e 8a 73 14 3f 00 7b a5 3e d0 89 8d 3f
       0.18503371 0.579888 0.32320404 1.1057682
000200 9b b4 f8 3d 12 4c 06 3e b1 d9 a3 bd bc dc 81 3d
       0.12143823 0.13114956 -0.08000506 0.0634093
000210 52 11 b3 bd d4 e1 66 be 53 ce 23 3e 3a 05 75 be
       -0.08743538 -0.22547084 0.15996675 -0.23927775
000220 52 8a 3c bf d3 86 6d be 90 c9 1a be 24 90 20 bf
       -0.7364856 -0.23195963 -0.15115952 -0.6271994
000230 e3 8a 7f be 2b f7 3d bf 2b 93 b4 be 3f c0 54 bf
       -0.24955325 -0.74205273 -0.3526853 -0.83105844
000240 99 98 11 bc 4f a3 af bd 48 ce 1a 3d 45 e6 ab bd
       -0.00888648 -0.085760705 0.03779438 -0.0839353
000250 41 37 1f 3e 06 f0 32 bd ee 6c 36 be 86 8f 02 3e
       0.15548421 -0.043685935 -0.17814991 0.12750062
000260 fa c3 1c bc 87 1f a8 bd 99 42 e7 bb 10 a2 94 be
       -0.009568209 -0.08209138 -0.0070574996 -0.29029894
000270 8e 86 83 3e a7 79 90 be 5f 4d b6 3e 81 6e 0f 3d
       0.25688595 -0.28217813 0.35605904 0.035017494
000280 f8 a1 33 bd f9 48 64 3c 72 63 e0 3e 97 e5 c0 be
       -0.043855637 0.013933414 0.4382587 -0.37675163
000290 82 f3 2e be d4 46 50 be cf 85 11 be 38 e4 dc bc
       -0.17085078 -0.20339519 -0.142112 -0.026964292
0002a0 80 65 e2 bc bc 8a 95 bd a5 8a aa 3d 0d 85 fb bd
       -0.02763629 -0.07301852 0.083272256 -0.12281237
0002b0 c8 e9 8f bd 49 cd 7c bd 3f f9 0a bc 25 de d6 3d
       -0.07027012 -0.061719213 -0.008482276 0.104915895
0002c0 84 f5 c5 bd 1d 51 11 be c3 e0 6e bb 87 cf 81 3d
       -0.09665969 -0.14191099 -0.0036449886 0.06338411
0002d0 e9 74 81 3e 78 20 c9 3d 72 a6 b5 3e c4 20 3f 3e
       0.25284508 0.09820646 0.3547855 0.18664843
0002e0 4f 0e 99 be 6b 08 4c be 1c d9 fa 3d 56 26 9f bd
       -0.2989373 -0.19925086 0.122484416 -0.07770984
0002f0 f5 a5 94 bd cb f6 4e be c5 17 e1 bb 70 d1 d4 3d
       -0.07258216 -0.20211332 -0.0068692886 0.103915095
000300 da 1d f6 3e 93 5d 46 be c4 1c c4 3d 5b 3a b4 bc
       0.4806965 -0.19371633 0.09575799 -0.022000482
000310 34 7c f0 3c d3 84 cf 3d d5 55 71 be 61 b0 3e 3e
       0.0293561 0.10132756 -0.23567899 0.1862197
000320 b8 ed 32 bd 15 90 cd 3d 7d 7c 27 3e 3e 16 3c bd
       -0.043683738 0.10037247 0.16356082 -0.04591965
000330 b2 75 6b 3c a3 8b 3b be 5a 4c 6e bb a7 98 78 3c
       0.0143713225 -0.18314986 -0.0036361427 0.015173114
000340 11 d6 24 3e d0 01 3e be 19 76 4a 3e 73 0b 7a bd
       0.16097285 -0.18555379 0.19771613 -0.061046075
000350 fe 07 7e 3d 37 74 77 3c 68 1d 1a be 25 70 9f 3e
       0.06201934 0.015103391 -0.1505028 0.31140247
000360 cc 04 c2 3d 55 6f 68 be 7f 10 02 3e 45 bd 20 bd
       0.09473571 -0.2269872 0.12701605 -0.039243
000370 44 f8 03 3e 40 1b 62 bd 74 4f ab be f4 dd 3e 3e
       0.12887675 -0.05520177 -0.33459055 0.18639356
000380 95 75 d9 bd 8f ac 93 bd 5f 4b d8 3b f0 ba e5 bd
       -0.1061813 -0.07210647 0.006600782 -0.11217296
000390 59 06 63 3d a2 62 14 be e5 0c e1 3c 9a 88 c4 3c
       0.055425975 -0.1449075 0.027471969 0.023990918
0003a0 17 38 80 3e d2 9c a7 be 83 de 93 bc 35 33 46 3e
       0.25042793 -0.32736832 -0.018050438 0.19355471
0003b0 af d8 1a bc ee 30 94 bd b1 4b b6 3c 17 6d a6 3d
       -0.009451075 -0.07235895 0.02225289 0.08126276
0003c0 33 1c 9c bc 0a 77 fd 3c dd 9b 37 3e 89 b9 41 be
       -0.019056415 0.030940551 0.17930551 -0.18918432
0003d0 a7 76 79 bd a9 36 09 3b ec 6f df be 3a a6 3c 3c
       -0.06090417 0.002093712 -0.43640077 0.011514241
0003e0 4e c6 72 bf 88 c3 4f 3e 2a 6d 34 3f 03 1b 81 be
       -0.9483384 0.20289433 0.7047907 -0.2521592
0003f0 18 dc 25 3f a7 dd 98 be 43 82 27 3f 73 8e 26 3e
       0.6478896 -0.29856607 0.6543314 0.16265278

critic2.0.bias f4 [64]
000000 d7 c2 6e 40 c8 b3 c5 bd cb 7b 36 40 bb 83 ae bd
       3.730642 -0.09653431 2.8513057 -0.08521219
000010 a7 64 36 40 97 09 00 40 dc 42 d7 3f 7f ba bb bf
       2.8498933 2.0005853 1.6817279 -1.4666289
000020 36 0b 8e bd 61 ef 9c bf f6 48 08 be 2b df 3f 40
       -0.06935732 -1.2260553 -0.13309082 2.997996
000030 bc 38 83 3f cb 8b ce 3f ff b6 ae bb 76 44 53 bf
       1.0251689 1.6136411 -0.0053318734 -0.8252634
000040 f2 22 ad bd 82 f7 6c bf 92 52 8e 3f 72 c0 d6 be
       -0.08453931 -0.92565167 1.1118948 -0.419437
000050 68 e4 25 c0 70 09 53 40 15 b8 4a bd 94 90 45 40
       -2.5920658 3.297451 -0.04949196 3.0869493
000060 05 bd c0 3e 21 b4 21 3e c8 98 d1 3f 21 ed 08 bd
       0.3764421 0.1579137 1.637475 -0.03342927
000070 c6 14 ca 3d 5a 4d e1 bc 4a 99 a7 bc ea cf 3d bf
       0.098672435 -0.027502704 -0.020458836 -0.74145377
000080 c1 b1 28 bf 9a 08 5d be c9 3c a1 bc 47 34 3c 3e
       -0.6589623 -0.21585312 -0.019682305 0.18379317
000090 8c 5d 12 40 37 5b 5f 3f c5 30 c3 3f 8c 7f d6 3e
       2.2869596 0.8724856 1.5249258 0.41894186
0000a0 9c 0b 7e 3a cf 74 e5 3d a1 2f 24 c0 e1 8f fe 3f
       0.0009691061 0.1120392 -2.565407 1.9887658
0000b0 91 7c 8c be ab 24 87 be 98 83 91 40 88 52 af 3e
       -0.27438787 -0.26395163 4.5473137 0.34242654
0000c0 16 b4 a8 bf b6 f0 c9 bf 6b 5b 4b 3e 87 62 93 40
       -1.3179958 -1.5776584 0.19859092 4.6057773
0000d0 e2 61 8e 40 60 d6 05 3e 8b 65 49 c0 31 70 e1 3f
       4.4494486 0.13070059 -3.1468227 1.7612363
0000e0 41 85 3f 3e 66 24 31 bf 91 b1 22 3e 0c cc 3c 3c
       0.18703176 -0.69196165 0.15888049 0.011523258
0000f0 0b 9e 9c be 8e e3 87 bf 1b fe 7e bf 3d 70 d3 bf
       -0.30589327 -1.0616319 -0.99606484 -1.6518627

critic2.2.weight f4 [64, 64]
000000 6a e9 14 3e 38 70 ba be 31 1c 15 bf 99 45 86 3d
       0.14542165 -0.3641374 -0.5824614 0.065562434
000010 64 7a 86 3f e4 54 a7 bc 7b df 8a 3d 23 b7 81 bd
       1.0506101 -0.020426221 0.06780907 -0.06333759
000020 1b dc bd be 81 a3 13 be 0a f4 41 be d8 ef 1d 3f
       -0.3708199 -0.1441784 -0.1894075 0.616941
000030 d9 7d f6 3d df 30 55 3e da a5 f2 3e 8d 08 38 3d
       0.12035722 0.20819424 0.4739216 0.04493003
000040 ce 9d ae bf 07 77 0a 3e 80 8a 96 be a7 d9 79 3e
       -1.3641908 0.13521968 -0.29402542 0.24399434
000050 d5 8c 1c be c5 55 be be 85 86 cc bf b7 c4 0f 3f
       -0.15288098 -0.37174812 -1.5978552 0.5615954
000060 f5 84 fb be a2 f7 7f 3d 49 7c 17 bd 08 29 4c bf
       -0.49124876 0.06249202 -0.036983762 -0.7975011
000070 b0 f8 b7 be 90 f8 e5 3d ca f4 51 3c ab 94 f4 3d
       -0.3593192 0.1122905 0.01281471 0.11942419
000080 6f 5a 76 be 84 d7 c3 bc 72 b0 8a bf 81 f9 ca bb
       -0.24057935 -0.023906477 -1.0835097 -0.006194294
000090 f4 d6 02 3f 99 da 8d 3e 33 f0 ef bd 6c d4 e2 bd
       0.5110924 0.2770584 -0.11715736 -0.110756725
0000a0 06 ec c0 bd 71 14 07 3e d2 74 5a bd a1 d4 63 bd
       -0.09420018 0.13191392 -0.053334065 -0.0556227
0000b0 df 22 12 bc 88 66 a1 bd 4f 48 60 3e 1e 9a 6c 3e
       -0.008919447 -0.078808844 0.21902584 0.23105666
0000c0 4f 82 ed 3c 94 d8 98 3e 10 59 0f be 6a 4d 32 bf
       0.0289928 0.29852736 -0.13998818 -0.69649374
0000d0 7a 4c d2 3d 45 4d 79 3e 81 88 26 3e 25 bd 10 3e
       0.10268493 0.24345882 0.1626301 0.14134653
0000e0 82 de b8 3e 51 09 c0 3c 37 4f 42 be 11 25 fc 3b
       0.3610726 0.023441942 -0.1897553 0.0076948483
0000f0 21 23 e5 3c ae 23 37 be 11 5d 29 3e b6 18 1d bd
       0.027970852 -0.17884704 0.16539408 -0.038353644
000100 a4 1f 30 3f cb de a5 be 83 4e b3 bd f3 42 2e bd
       0.6879828 -0.3239654 -0.08755209 -0.042544317
000110 81 19 a3 3e 2f 93 fb 3e 4a 87 85 3c d9 54 d3 3e
       0.31855395 0.4913573 0.016299862 0.4127567
000120 cd 95 80 be 00 13 53 bd d7 e6 fa 3d 79 f0 6d 3f
       -0.2511429 -0.05153179 0.122510605 0.9294506
000130 35 f9 a4 bd 4d 80 93 be 26 79 c2 3e e5 55 0e be
       -0.08055345 -0.28808823 0.37983054 -0.13899954
000140 8e d9 e9 3d 4c ff db 3d d6 38 24 3e d6 1d 9e 3e
       0.114184484 0.107420534 0.16037306 0.30882138
000150 29 cf 85 3d 9e 91 bd bc 51 93 68 3c af 96 aa 3c
       0.06533653 -0.023140725 0.014195279 0.020823805
000160 61 a2 07 3e 6c 8e f6 bd 88 ac 2a 3c 22 f1 8a 3e
       0.13245536 -0.120388836 0.010417111 0.27137095
000170 76 c6 e2 3e db ec 2d be 63 bf 4c 3e 79 b9 b4 bc
       0.4429204 -0.16984884 0.19994883 -0.022061097
000180 f0 56 cd be eb 1f 2f bb bb 0d 51 3e 2e 8f ba bd
       -0.4010539 -0.0026721905 0.20415394 -0.091093406
000190 99 69 1b 3e 2e 68 ad 3c b6 84 e3 be 1f 82 7b 3e
       0.15177001 0.02116784 -0.44437188 0.24561356
0001a0 d6 3b ce bd cb 71 91 be 42 22 c9 be 61 b1 73 3c
       -0.100700065 -0.2840713 -0.3928395 0.014873833
0001b0 6e 67 d4 bd 3c 13 a0 bc f5 8a ad 3f e4 f6 84 3e
       -0.1037129 -0.019540422 1.3558031 0.25969613
0001c0 9a 79 60 3e 06 c6 76 3d 05 fe 24 be 41 8f 40 3f
       0.21921387 0.060247444 -0.16112526 0.7521859
0001d0 38 8f 4b 3f 4f f2 11 bf 99 35 d1 3e ec 05 a5 be
       0.7951541 -0.5701036 0.40861204 -0.3223108
0001e0 0c a5 e5 3a 48 64 e0 bd e6 24 96 3d 90 12 82 be
       0.0017520501 -0.10956627 0.073312566 -0.25404787
0001f0 c2 31 8a 3e 5c a0 0a 3e 8c 1f c7 bd ae ec 23 3f
       0.26991087 0.13537735 -0.09722814 0.6403302
000200 df 77 af 3e e3 a8 92 be 6e 96 6a 3e 67 90 3f be
       0.34271142 -0.28644475 0.22908947 -0.18707429
000210 8b 4c cd 3e 04 ec db 3e 75 fb ca be 34 ab a2 3e
       0.4009746 0.42953503 -0.3964497 0.31771243
000220 ea 1c 1a be 82 81 07 3f 14 3b 3a bd ef 54 b5 3e
       -0.15050092 0.5293199 -0.045466498 0.35416362
000230 c7 af 7b 3e b4 53 08 be 0c ba c5 bd 86 fc 94 be
       0.24578772 -0.1331318 -0.09654626 -0.2909891
000240 99 23 a1 be 7a 87 6b 3e db 2d b4 3e 92 6e 89 be
       -0.3147247 0.23000899 0.35191235 -0.2684217
000250 f2 01 72 3e a2 2d df 3e 3c d7 70 be 8b 11 20 3e
       0.23633555 0.43589503 -0.23519605 0.15631692
000260 7c a8 1d be 12 f3 27 be 35 41 e5 bd 57 c9 a7 3d
       -0.15396303 -0.16401318 -0.11194078 0.081926994
000270 32 ab c0 be cd 7b b3 3e b5 56 9e be bb 65 b0 3d
       -0.37630612 0.3505539 -0.30925527 0.086131535
000280 3a ef 33 3e 5b 8c 49 3d 4f e3 5b 3e fa 8d 98 be
       0.17571726 0.04920612 0.2147343 -0.2979582
000290 89 53 29 3d ad 3f 50 3d 26 e2 fb 3e 6d 8e 09 be
       0.04133943 0.050841976 0.49195975 -0.13433237
0002a0 60 cd 81 bd c2 05 88 3c 94 ae 6c bd e3 21 66 3d
       -0.06338 0.016604308 -0.05778368 0.05618466
0002b0 db 51 34 3e 83 41 96 be 70 8a 9d 3f 7a a4 44 bd
       0.1760935 -0.29346856 1.2307873 -0.04800842
0002c0 3a c9 ee bd 90 9b a1 3c 57 ee 16 be f9 f3 28 be
       -0.11659475 0.019727498 -0.14739357 -0.16499318
0002d0 7a ee 46 3f 88 04 29 3e c3 20 4a 3f 6f df 54 be
       0.77707636 0.16505635 0.7895624 -0.20788358
0002e0 a3 b0 a1 3e 40 13 55 be e0 4a 13 3e 35 51 93 3b
       0.31580076 -0.20808125 0.14384031 0.0044957646
0002f0 5b 61 ac 3d cc 84 b8 3e 02 52 90 3d 6f 75 2c 3f
       0.084170066 0.36038816 0.07046892 0.6736669
000300 5a 13 99 bf 42 25 a9 bf 7a 5e 94 bf 7b 62 50 bf
       -1.1959031 -1.3214495 -1.1591332 -0.8140027
000310 03 72 bc bd 33 73 c6 be 15 c0 b9 be 74 8c 73 bf
       -0.092014335 -0.38759765 -0.3627936 -0.9513619
000320 cc 80 92 be 3a 02 f5 be c2 43 66 3f 11 2e 98 3e
       -0.2861389 -0.4785326 0.8994714 0.29722646
000330 a5 f8 93 bf 3d 41 fa bd 6e 7c 8a bf 06 cb 9c 3e
       -1.1560255 -0.122194745 -1.0819223 0.30623645
000340 11 b6 40 3e 20 cd 06 bc cb 45 6d bf 20 36 97 3f
       0.18819453 -0.008227617 -0.9268462 1.1813393
000350 6a 81 70 bc 47 ff b0 bf dc 72 76 bf 53 42 f4 bd
       -0.014679292 -1.3827904 -0.9626901 -0.11926713
000360 0f c5 1d 3d 8e c8 31 be d2 62 4b bd e2 08 0a 3f
       0.038518008 -0.17361662 -0.04965479 0.53919804
000370 fc 04 5d bf fd d8 67 bf ab 16 15 3f 47 78 4d bf
       -0.8633573 -0.9056547 0.58237714 -0.80261654
000380 89 85 81 bd e1 a0 b1 bb dd d0 53 be 48 93 08 3f
       -0.06324298 -0.0054207896 -0.20685144 0.53349733
000390 5a 98 a6 bd 35 00 48 bf 2f 2b e2 be d2 c2 c7 3e
       -0.081345275 -0.78125316 -0.4417357 0.39015824
0003a0 d2 cc c6 3d 39 83 15 bf d2 44 84 bf 60 85 fc be
       0.09707035 -0.58403355 -1.0333502 -0.49320507
0003b0 f9 d3 22 3e 1c 3a a6 bf fe 7b 74 bf 1c 57 a6 3c
       0.15901174 -1.2986484 -0.955017 0.020305209
0003c0 eb 67 25 3f 03 fa 86 bf c7 66 ab 3e a2 78 42 bf
       0.6461169 -1.0545048 0.3347685 -0.7596532
0003d0 32 98 04 bf f8 9d 24 be 34 6c 00 be c4 8f 6a bf
       -0.5179473 -0.16075885 -0.12541276 -0.9162562
0003e0 30 c6 62 3f 6d e2 29 bf c8 6e 6e bf 3d 11 cf be
       0.8858366 -0.66361123 -0.9313779 -0.4044284
0003f0 92 9e 50 be 8b 45 a0 3c f4 f9 c5 3e 9c d9 a5 ba
       -0.2037299 0.01956441 0.38667262 -0.0012653354

critic2.2.bias f4 [64]
000000 bb 8f 34 bf cf f5 b4 3f 94 9a db 3f e5 37 f4 bd
       -0.70531815 1.4137515 1.7156549 -0.119247235
000010 32 69 82 c0 5c d0 24 3e f6 73 be 3f 55 f6 c4 be
       -4.075341 0.16095108 1.4879138 -0.38469186
000020 15 ab 4c bf a6 f3 dc 3a 32 a4 a0 3f 37 36 95 bf
       -0.7994855 0.0016857281 1.2550108 -1.165717
000030 27 ff 24 bf 27 84 4a 3f f0 f3 ee 3e ef 1b 9a 3e
       -0.6445183 0.791079 0.46670485 0.30099437
000040 b7 96 84 bf 8d d0 90 bf ce 17 bc be 6f 79 e3 3f
       -1.0358495 -1.1313645 -0.36736912 1.7771434
000050 42 5b 0b 3f e4 b5 20 bf cd 35 f8 be 95 0a e6 be
       0.54436123 -0.62777543 -0.48478547 -0.44929948
000060 67 d2 df 3d f2 4f 37 c0 85 17 ab be 2b 5d 17 bf
       0.10928803 -2.8642545 -0.3341638 -0.5912654
000070 d0 5e 99 3f c1 af a4 3e 0c bb 55 3e fe 3f 94 be
       1.198206 0.3216534 0.20872134 -0.28955072
000080 12 03 8a 3e 34 c8 1d 3e c6 54 80 bf a6 68 a3 3f
       0.26955467 0.15408403 -1.0025871 1.2766311
000090 f0 ad 5b 3f 5e 1e a2 be 81 5d ac 3e 1b fb ab 3e
       0.8581228 -0.31663793 0.33665088 0.33590016
0000a0 8a 9e c0 3c 68 38 1c c0 aa a8 ad be 76 45 ee bf
       0.023513097 -2.4409428 -0.33917743 -1.8614948
0000b0 97 e5 11 c0 70 45 40 be 34 bb b1 3f 88 a9 b3 3e
       -2.279638 -0.18776488 1.3885255 0.3509028
0000c0 d6 d0 08 40 78 c3 ea bd d0 b1 08 c0 fe ff e3 be
       2.1377463 -0.11463064 -2.1358528 -0.44531244
0000d0 f7 be 1e c0 0f db 02 c0 f0 da 24 bf ed ad 17 c0
       -2.4804056 -2.0446203 -0.6439657 -2.3699906
0000e0 9c e4 25 bf 50 f2 c3 be d4 37 aa 3e 6f d2 4c c0
       -0.64801955 -0.38270807 0.33245718 -3.2003438
0000f0 b2 2c 14 40 7b 66 c7 be d3 45 4b be 78 07 b2 bf
       2.315228 -0.38945374 -0.19850855 -1.3908529
