masac/model/simple_tag/agent_0/63_actor_params.pth (torch, 43913 bytes, 10 tensors)

feature.0.weight f4 [64, 16]
000000 ca 2d 28 bd 6d a7 0b 3c 2a b3 b8 be 9a 95 32 3f
       -0.041059293 0.008523804 -0.3607419 0.69759524
000010 b7 36 10 3e fa 3f 97 3e 18 26 dd be 2a f7 58 3e
       0.14083372 0.29540998 -0.43193126 0.21188036
000020 85 ee 92 3e d6 31 fd bb cf 31 1a bd 3b b5 e9 3d
       0.286976 -0.007726888 -0.037645157 0.1141152
000030 ad a7 9b bd 7c ec e5 3d 61 9d 53 bc 60 60 8b 3d
       -0.07600341 0.112267464 -0.01291594 0.068054914
000040 d2 3a 61 3d c2 ce 74 bd 99 1b da be a9 0e 7c 3e
       0.054987736 -0.059767492 -0.4259918 0.24614967
000050 08 75 f4 bd 91 b9 af be 06 a4 b5 be 2c b9 1c 3f
       -0.119363844 -0.34321263 -0.35476702 0.6122005
000060 01 bb 00 3e 6d f8 a2 3c 74 9a 9e 3e c6 70 38 bd
       0.12571336 0.01989385 0.30977213 -0.045029424
000070 91 e0 3c bd 32 c0 14 bd db 60 84 3a ec 48 dd bc
       -0.0461126 -0.036316104 0.0010099666 -0.02701231
000080 8b a4 0f bd 0b 31 4d bd 35 1e 82 bd 75 13 64 3e
       -0.03506903 -0.0500956 -0.06353418 0.22273047
000090 f5 68 61 3d 87 cf 98 3e d9 8f 30 be 58 80 43 3d
       0.055031735 0.2984583 -0.17242374 0.04772982
0000a0 cf be d1 3d 36 fd 9b 3e a3 7b da 3e 18 ed e1 bd
       0.10241472 0.30466622 0.42672452 -0.1103155
0000b0 4b 75 24 be 05 96 aa be bd c1 e4 bc 6a f9 14 bd
       -0.16060369 -0.3331758 -0.027924413 -0.036370672
0000c0 0e 0f eb 3d 83 b3 9d 3d b5 4b ec 3e 25 ca 9d bd
       0.11477481 0.07700255 0.4615151 -0.07704572
0000d0 f2 7c 85 3d 76 62 d5 be 41 25 ab 3d 22 a4 b6 3d
       0.06517972 -0.41676682 0.08356715 0.089180246
0000e0 b1 ba 43 3e 19 db 30 be b6 dd 3f bd 2c d7 5c be
       0.19114186 -0.17271079 -0.0468423 -0.21566457
0000f0 e6 fe 14 be 6d 83 97 3d 8a 0c 86 bc 62 b4 b0 3c
       -0.14550361 0.07398114 -0.016363401 0.021570388
000100 8d c8 6f 3d 1c eb 5b bd 65 91 5d be 0a 35 cf bd
       0.05854087 -0.053691015 -0.21637495 -0.10117538
000110 c8 48 60 be a8 12 e5 bb 36 2d 44 3e 56 31 8e 3e
       -0.21902764 -0.0069907494 0.19157872 0.27772015
000120 80 93 41 be a8 82 59 bc d9 3a 77 bd 55 9f 8b 3d
       -0.18903923 -0.01327578 -0.060358856 0.068174995
000130 e4 2d 79 bd be a0 0a be 77 8f 4a bd 22 7d 81 bd
       -0.06083478 -0.13537881 -0.049453225 -0.06322695
000140 68 30 f9 bb 97 08 de 3d 16 d1 f4 bc 06 8b 94 3e
       -0.0076046474 0.10841482 -0.029884856 0.29012316
000150 3a cd 05 3e 0a 47 37 bb d8 c0 74 be 92 c4 54 be
       0.13066569 -0.0027965927 -0.23901689 -0.2077811
000160 60 fd b3 3d 70 d2 83 3e 3a d3 e7 bb 05 d4 96 be
       0.08788562 0.2574649 -0.0070747407 -0.29458633
000170 e4 dd 88 be 17 e7 c1 bd c1 7e e4 bc a5 7d 12 bd
       -0.2673179 -0.09467905 -0.027892472 -0.035764355
000180 7f 46 69 bd 9f 41 9f 3c 1e 38 f5 3e 61 86 48 be
       -0.056951996 0.01944047 0.47894377 -0.19582511
000190 2d 2d 21 3e e4 f1 0f 3d 86 8d af 3e 10 42 1d bc
       0.1573989 0.035142794 0.3428766 -0.00959827
0001a0 ba 8f 14 3e aa f0 3a be 2d 8a 95 bd a3 a7 0d be
       0.14507952 -0.18255869 -0.073017456 -0.1383348
0001b0 19 b2 44 3c 9b cc dd bc c1 9f 4f 3d 98 75 9d bc
       0.012005352 -0.027075103 0.050689463 -0.019221112
0001c0 5f 95 cd 3d 55 07 af ba df 63 9f 3e 54 25 80 3e
       0.10038256 -0.0013353626 0.31130883 0.2502848
0001d0 7b c8 6d be 83 d8 78 be f9 ef 30 be 7b ff 84 3e
       -0.23221008 -0.24301343 -0.17279042 0.25976166
0001e0 33 00 18 3e 83 da ac 3d 69 bd 63 3e 5e 06 37 3c
       0.14843826 0.08440115 0.22240223 0.011170952
0001f0 df 46 9d bd f2 a2 63 3e 95 cf b6 3c 05 8a 4a 3c
       -0.07679533 0.22230127 0.02231578 0.012362008
000200 09 69 6e 3e 81 32 a6 bc 6d 98 43 3e 2d 62 2b 3e
       0.23282255 -0.020287754 0.19101115 0.1673667
000210 ba a2 6e 3e 84 9d 59 be 1b e6 e2 be 4e 75 30 3e
       0.23304263 -0.21251494 -0.44316182 0.17232248
000220 3c 5c 58 be 30 7b 04 be 61 f3 76 3d 8c 41 19 3d
       -0.21128935 -0.12937617 0.060290698 0.037416026
000230 26 26 cd bd 6e d1 23 bd 8d 2f 3e bd cb 59 98 3d
       -0.10017042 -0.03999465 -0.046432067 0.07439002
000240 5f fe 87 bd 21 e9 ce bd b4 6d 2e be 04 1b a6 3d
       -0.06640314 -0.101030596 -0.17034036 0.081106216
000250 b5 9e af 3e db 23 2e 3f 46 e5 31 bf 14 c8 22 be
       0.3430077 0.6802346 -0.6949047 -0.15896636
000260 b7 f6 36 bd 80 7f 94 bc 12 f7 cb 3c 77 87 4e be
       -0.04466888 -0.018127203 0.024898086 -0.20168863
000270 9c 65 95 3e d3 51 e1 bd ba 02 90 3c 8c dd 9b 3d
       0.29179084 -0.11001935 0.017579425 0.07610616
000280 38 8a 61 bd a6 64 3a 3d a3 e5 7f bd 15 05 49 3d
       -0.055063456 0.045506142 -0.062474858 0.049077112
000290 35 32 66 be 73 45 e7 be 0a 19 b3 3e 22 d5 94 3e
       -0.2248009 -0.45170173 0.3498004 0.29068857
0002a0 20 ac 8c 3d c6 c2 df bc b4 d0 35 be 8f 1c 6c 3e
       0.06868768 -0.027314555 -0.17755395 0.23057769
0002b0 a6 b0 f5 3d 5c 66 3c be 42 45 a6 3c fd 58 d2 bc
       0.11996584 -0.18398422 0.020296697 -0.025677199
0002c0 46 c5 f9 bb bc 2e fa 3c 96 7a e6 3d 5b ca d1 3d
       -0.007622394 0.030539863 0.1125385 0.10243674
0002d0 cf ae 9d 3c 32 9f 9a bd ce 24 e6 bd ae f5 2a bd
       0.019248394 -0.07549895 -0.11237489 -0.041738205
0002e0 c6 e0 51 3e 92 99 6e bd c1 bc 9d 3e 0e 6a 0f 3f
       0.204959 -0.058251925 0.3080807 0.560212
0002f0 37 ff 93 be 4e 91 17 bf 55 fd e9 bc d9 c6 8b bd
       -0.2890565 -0.5920609 -0.028563181 -0.068250366
000300 d6 3c 87 3c 85 f0 e6 bc c3 20 5c be 93 bd 2c 3e
       0.016508501 -0.02819086 -0.21496873 0.16869192
000310 3a ff b6 3e d5 6c 10 be ce c9 12 bf 24 d7 df 3e
       0.35741597 -0.14104016 -0.5733918 0.43718827
000320 b7 32 d7 bd 90 ed 0f be 5d 24 82 3c 67 40 8e 3e
       -0.1050772 -0.14055467 0.01588648 0.2778351
000330 22 10 d5 3d ad d6 f0 bd 2a 88 8f 3c 88 d5 f5 b9
       0.10403468 -0.11759696 0.017520983 -0.00046889135
000340 6d 03 b2 3b a8 c4 2e bd 54 53 31 3d 32 99 24 bc
       0.0054325373 -0.042668015 0.04329236 -0.01004629
000350 29 00 c9 3c 62 5a 88 be 38 8b 19 be e5 35 14 bb
       0.02453621 -0.26631457 -0.14994514 -0.0022615131
000360 53 9a 44 bc 64 5c 82 bd 2e f3 7a 3d a0 bc 1b 3e
       -0.011999684 -0.06365278 0.06126707 0.15208673
000370 36 be 6e bc 0f de 60 3e 98 dd 30 bd 57 8b 48 bc
       -0.014571717 0.21959709 -0.04318008 -0.012240252
000380 9c da c4 3a 17 56 64 bd a4 bd 06 3c 73 bf 92 3d
       0.0015018764 -0.055746164 0.008223925 0.07165422
000390 57 ed b0 3e cd 1e 9f bc 74 da d2 be f1 36 d3 3d
       0.34556076 -0.019423867 -0.41182292 0.103132136
0003a0 40 64 8c be 11 b9 44 3e 47 e0 38 3e 37 16 b1 3d
       -0.27420235 0.19211222 0.18054305 0.08646815
0003b0 b8 d6 4f be 13 de 4b 3e 03 eb 64 bc 39 a4 42 bd
       -0.20296752 0.19908933 -0.013972047 -0.047519896
0003c0 1a 9d ad bc f4 3f 0b be b3 35 c1 3e 76 de 85 be
       -0.021193076 -0.13598615 0.37736282 -0.26146287
0003d0 d6 aa d7 3e 5f 47 2a 3e ec d0 96 3d cc 9c 62 be
       0.42122525 0.16628788 0.073640674 -0.22130126
0003e0 ac 67 d3 bd 78 df f4 bd 73 55 72 be b6 43 35 3e
       -0.10322508 -0.11956686 -0.23665409 0.17701611
0003f0 ee 9e d4 3d 98 bb 87 3e 3c 87 ec 3c 3e 51 1b 3d
       0.10381876 0.2651031 0.028873079 0.037919275

feature.0.bias f4 [64]
000000 3a bc 8a 3c cb 40 cc bd 0c 58 08 3e 81 91 a0 3e
       0.016935457 -0.09973296 0.13314837 0.3136101
000010 61 38 01 3d fd 4a 43 bf 96 2b b4 3e 5b da 83 3d
       0.031547908 -0.762863 0.35189503 0.064381324
000020 ca 03 f2 be 42 57 41 3d 95 65 5e 3e 9b 3b 48 3e
       -0.47268516 0.047202356 0.21718438 0.19553988
000030 40 af 4c 3e f8 b2 12 3e 96 fc 09 be 83 d8 82 3e
       0.19988728 0.14326084 -0.1347526 0.2555581
000040 a3 d8 98 be c2 11 c9 3e 5d fe 7d 3e 17 7c 0a bd
       -0.2985278 0.3927136 0.24804063 -0.033809748
000050 2a cf 20 3d 8a 43 18 3c 66 36 23 3e 44 27 9e 3d
       0.039260067 0.009293446 0.1593872 0.07722333
000060 1c ea e8 be 19 d9 ab 3e 95 9a 1a bc 6a b5 03 3e
       -0.4549111 0.3356407 -0.009436269 0.12862173
000070 4e 8b 96 bd 56 6f 35 3e 46 a8 df be dc a1 3d be
       -0.07350789 0.17718253 -0.4368307 -0.18518776
000080 1d c9 4a 3b 53 fd d4 3e ca 29 b5 3e 66 7b 94 3d
       0.0030942627 0.4159952 0.35383445 0.07250099
000090 d2 d4 74 3d c5 9e cb be e3 a3 de 3d 4a 42 53 3e
       0.059773274 -0.3976957 0.10871103 0.20630756
0000a0 e2 de 55 3e 98 9e 18 3d 69 be 81 3e ab 32 4f bd
       0.20885804 0.03726062 0.25340584 -0.05058543
0000b0 21 44 09 be 1d 00 be 3d 91 66 32 3e 72 95 b7 3e
       -0.13404895 0.09277365 0.17421938 0.35856205
0000c0 c3 9d 93 3e 55 21 9d 3e 05 60 07 3d 45 a0 3f be
       0.288313 0.30689493 0.033050556 -0.18713482
0000d0 91 d0 01 3e 88 ee 9a 3d 22 8f 9d 3d cc df e1 3e
       0.12677218 0.075650275 0.07693316 0.44116056
0000e0 e5 66 26 3c 30 b2 04 bf d1 5f 94 3e c4 d3 02 3e
       0.010156368 -0.5183439 0.28979352 0.12776095
0000f0 03 19 bd bd 6c 4c 7f bf e6 fa 32 3d 42 c1 2c 3e
       -0.09233286 -0.99725986 0.043696307 0.16870597

feature.2.weight f4 [64, 64]
000000 ea fc 01 3f c2 e3 08 3e 0d f0 5e 3e 00 65 1e bd
       0.5077654 0.13368133 0.2177126 -0.03867054
000010 e7 4d 99 be e2 7c 0a bd e0 21 28 be 88 08 5e 3e
       -0.29942247 -0.033810504 -0.16419172 0.21682942
000020 79 5d a0 3c 1a f1 ea bd 4b 5d b0 3d d4 15 4b be
       0.019575821 -0.11471768 0.08611544 -0.19832546
000030 62 0e a8 be 05 bb 82 be a3 7d 0f 3e 15 e1 fa bc
       -0.32823473 -0.2553331 0.1401277 -0.030624906
000040 b5 ad a1 bd 76 f2 3e 3e d2 98 e2 3d b1 3c b6 3d
       -0.0789446 0.18647179 0.110643044 0.08898295
000050 57 a6 11 3d 9e a9 b2 3d 6d cd 78 3e cf ff 94 3d
       0.035559025 0.08723758 0.24297114 0.07275354
000060 4f 51 13 be 51 71 69 3d 2c 59 35 be 16 d9 18 3e
       -0.14386486 0.056992833 -0.17709798 0.14926562
000070 06 5e 99 3e 45 50 45 3e bc f8 6f 3e 04 b8 29 3d
       0.29954547 0.19268902 0.23434728 0.041435257
000080 85 f5 98 3e 77 4a 3d be 47 60 d0 be 61 83 bc 3d
       0.29874817 -0.18485437 -0.40698454 0.09204746
000090 cb 0d c5 be a1 d3 c5 3d 09 3f 86 3e 6a 64 ae 3a
       -0.38487086 0.09659506 0.26219967 0.0013305072
0000a0 02 c0 6d be 76 58 2c 3e 40 97 be 3e f0 7d 95 3d
       -0.23217776 0.1683062 0.3722477 0.07299411
0000b0 3e 3d 48 be 50 5b 1b bc 49 6e 10 3e f7 c0 06 bf
       -0.19554612 -0.00948222 0.1410457 -0.5263819
0000c0 a7 94 32 3e 82 22 0f be a0 71 d9 3d 76 4b 9d be
       0.17439519 -0.13978007 0.106173754 -0.30721635
0000d0 46 15 0e bd 0e 70 40 be 8b 9d 96 3e 86 35 9e 3e
       -0.034688257 -0.18792745 0.2941707 0.3090021
0000e0 1d ec b7 be a3 fc ad bd ef 34 25 bc 46 9d 22 be
       -0.35922328 -0.08495452 -0.010083421 -0.15880308
0000f0 05 b0 28 3e 37 47 4c bd 94 0f 3f 3e ad 81 a8 3e
       0.16473396 -0.049872603 0.18658286 0.32911435
000100 d9 ce 24 3e 7e 60 a6 bc ce d4 0e bf 29 5a f4 3e
       0.16094531 -0.020309683 -0.55793464 0.47725037
000110 a0 0b 3d be f3 7e 98 bf 44 1d b7 3e e6 97 42 be
       -0.18461466 -1.1913742 0.35764515 -0.19003257
000120 0c 89 e7 be ca 7e a4 be 26 5c d2 bd 8b ad 9a 3b
       -0.45221746 -0.32127982 -0.10271482 0.004720395
000130 7f b9 08 be 5d de 65 3e 1c 5b 79 be 05 e8 8a 3e
       -0.13352011 0.22448106 -0.24351162 0.27130142
000140 fa 9f ed 3e e3 b6 8f 3e 86 23 1c 3e da 66 c7 be
       0.46411115 0.2806922 0.15247926 -0.38945657
000150 a7 49 e8 bd f1 77 96 be 36 7d 4e be 44 e3 8f bd
       -0.11342173 -0.29388383 -0.20164952 -0.07025769
000160 ba dd fd bd 58 16 b2 be be 6e 94 bd 19 3c 4c bd
       -0.123958066 -0.34782672 -0.07247685 -0.049862
000170 16 5e ad be ec 13 2d be 2e 39 28 be 17 19 9a 3e
       -0.33860844 -0.16902131 -0.16428062 0.30097267
000180 82 bd 9c bd 50 e3 48 3d a8 fd a4 be b8 cc 6c bd
       -0.07653333 0.049044907 -0.32224774 -0.057812423
000190 c5 fe cf 3c 45 bf 51 3e d5 c0 c7 3e 05 11 05 3e
       0.025390038 0.2048312 0.39014307 0.12994774
0001a0 7d 89 05 3e 9e 48 91 3d 2b ae 32 3d ea e1 84 be
       0.13040729 0.07093929 0.04362313 -0.2595361
0001b0 41 50 fd bd 3e 5d 8d 3c 93 c4 9e bb 89 be f8 3e
       -0.12368823 0.017256375 -0.004845211 0.48582867
0001c0 f2 cb 4b 3e 2a a5 cc be 2c 0b 34 3e 51 ac 4e 3e
       0.19902018 -0.3996976 0.17582387 0.20182921
0001d0 df 95 7c be 2d de 68 be 66 66 7f 3e 8a 86 89 3d
       -0.24666546 -0.22741003 0.24941406 0.067151144
0001e0 a8 49 ff bc a1 7a b2 bd 48 1f d3 bd 3d 47 c0 bd
       -0.031163052 -0.08714796 -0.10308701 -0.093885876
0001f0 73 24 de 3e 31 24 58 be 7f 5e 0f 3d e9 06 c5 be
       0.43387184 -0.21107556 0.035002228 -0.38481835
000200 8b 77 b0 bd 31 5a 49 bf 8d 54 a5 bd 3b d9 90 be
       -0.08616551 -0.78653246 -0.080727674 -0.28290734
000210 73 e3 b5 bd c5 53 39 3d a9 23 45 bc 41 10 01 bc
       -0.08881273 0.045245904 -0.012032428 -0.00787741
000220 0f aa 72 be 1d 94 dd 3e 07 d7 c0 be a3 fa d1 bb
       -0.23697685 0.43277064 -0.37664053 -0.006408052
000230 c3 45 b6 bd 7c 77 58 3e 4f 4c 22 be 70 36 3c bd
       -0.08900025 0.2113933 -0.15849422 -0.045950353
000240 6d 3a 6c be 17 72 ed 3e 3c df 62 bc eb 4b 82 3d
       -0.23069163 0.46376106 -0.013847169 0.063621365
000250 c2 0c 89 3d 46 27 51 3e 79 18 09 be 34 f1 0a 3d
       0.066918865 0.20425138 -0.13388242 0.033921435
000260 d6 95 95 bc 4c bb ce 3c 50 b3 db 3d e4 33 8a 3d
       -0.018259924 0.025235794 0.107275605 0.067481786
000270 db 2c 7f 3e 9a 5b 9a 3e 75 d6 13 bf 9a 33 77 be
       0.24919455 0.3014801 -0.5774911 -0.24140778
000280 fc 37 b7 bc b1 1d 90 3d 3d d9 8b 3e de 2d e3 be
       -0.022365563 0.07036913 0.27314177 -0.4437093
000290 d8 1b c4 3e a8 9b c3 be a9 cf 9e be a6 19 72 3e
       0.38302493 -0.38204694 -0.31017807 0.23642597
0002a0 19 f1 d0 be 9d 6c 21 3e 97 27 9e be 0e a4 f6 3d
       -0.40808943 0.15764089 -0.3088958 0.1204301
0002b0 ce 11 d9 bd 96 92 50 bf 21 96 99 3d 21 3e 27 3e
       -0.10599099 -0.8147367 0.07499338 0.16332294
0002c0 ce b9 9e 3d ac 18 2b be 5f eb 86 be a5 9a 57 be
       0.07750283 -0.1670863 -0.2635145 -0.21055086
0002d0 2e a9 72 3e 7c 1a fd bd 15 04 9b be 0e a3 9f 3e
       0.2369735 -0.12358567 -0.30276552 0.31179088
0002e0 87 12 a6 3d a9 f0 9d be 31 26 bc be 86 83 a9 be
       0.081090026 -0.30847672 -0.36747888 -0.33108157
0002f0 5f 69 08 bd 0c ad df bd b9 cb c3 3e 10 c0 de 3e
       -0.033303615 -0.10921678 0.38241366 0.43505907
000300 1e 7d 4e bf b8 d1 86 3e 90 2e 4d be e1 29 61 3d
       -0.80659664 0.26331878 -0.20037293 0.05497158
000310 66 8d c1 3d 9d 7d 1f bf 0e b9 38 bd ae 94 f8 3d
       0.09450798 -0.62301046 -0.045098357 0.121377334
000320 8d dd ec 3c e8 e0 72 be f1 4f ad bc 5a 40 30 3c
       0.028914237 -0.23718607 -0.021156283 0.01075753
000330 69 60 bf be 1e 46 a8 3d 49 98 e9 be c8 73 5c 3d
       -0.37378243 0.08216499 -0.45623997 0.053821355
000340 14 a4 f7 be 90 b3 ea 3b 03 f5 d7 bb de 1d 38 bf
       -0.4836737 0.007162519 -0.006590487 -0.71920574
000350 17 e9 12 3e 78 e4 5f be 01 0a b6 3e ec b3 ed 3d
       0.14346729 -0.21864498 0.35554507 0.11606583
000360 c9 ac 68 3e 85 40 6d 3d fd 86 40 bf 4f e2 2f 3e
       0.22722162 0.05792286 -0.75205976 0.17176174
000370 f0 14 ef 3d 26 8c ee 3d 13 34 ab be eb 55 cd be
       0.116739154 0.11647825 -0.33438167 -0.40104613
000380 81 c9 be be f3 c1 b3 be ee 02 e7 ba 87 0f 11 be
       -0.3726311 -0.3510891 -0.0017624774 -0.1416608
000390 99 4b a8 3d 17 b4 4d bf 76 5e 34 bd b9 20 99 3e
       0.08217544 -0.8035292 -0.044035397 0.29907778
0003a0 a5 18 90 be 43 db ac bd 05 53 84 3d ef 66 e3 3e
       -0.28143802 -0.08440258 0.06461147 0.4441447
0003b0 81 89 83 3e 00 39 0f be ca a3 02 be b6 89 28 3e
       0.25690845 -0.13986588 -0.12757793 0.16458783
0003c0 13 f4 b5 3d 44 71 d1 3e c6 90 c8 be 33 0b fe be
       0.08884444 0.40906727 -0.39172953 -0.4961792
0003d0 52 a0 03 3c bb d5 1b be 4e 0b 05 3d b8 e3 0e 3e
       0.008033829 -0.1521825 0.032481484 0.13954055
0003e0 f5 d0 75 bd e7 68 c8 bd e4 0c f8 be a5 da bb 3d
       -0.06001373 -0.097856335 -0.48447335 0.091725625
0003f0 c7 52 31 bd 78 3e 02 3e 87 f9 6f bc 16 ee 8f 3d
       -0.043291833 0.12719142 -0.014646894 0.07027833

feature.2.bias f4 [64]
000000 56 56 9e be 4c 0e 4a 3e e7 6e 36 3e c4 51 06 3e
       -0.30925244 0.19732016 0.17815743 0.13117129
000010 f4 74 23 3e 61 3b 66 be c6 d1 fb 3e 3f 07 e4 3e
       0.15962583 -0.22483589 0.49183482 0.44536778
000020 ee e9 73 3e 25 39 04 be 35 bf 11 be 70 c2 21 3d
       0.23819706 -0.12912424 -0.14233096 0.03949207
000030 01 f5 0b be f8 f3 b0 3e e9 ff 02 3d 9f 52 a7 be
       -0.1366768 0.34561133 0.031982336 -0.32680222
000040 c6 12 0e bf 43 41 93 3e b5 a1 a9 3e 22 1d 47 3e
       -0.55497396 0.28760728 0.33131185 0.19444707
000050 14 9c bd 3e b1 9a cb 3e 07 7d 0d be f0 13 1f 3e
       0.3703314 0.39766458 -0.13817225 0.1553495
000060 65 8f 73 3e 0e f3 e4 3d 8f 68 88 3e e2 8a b0 3e
       0.2378517 0.111791715 0.26642272 0.3448096
000070 29 86 d5 3e 1e 7b 83 3e a1 53 2f 3e 4c 87 52 3e
       0.4170392 0.25679868 0.17121746 0.20559424
000080 2e 63 ce 3d 86 0b 12 3e 4c d2 e7 b9 55 de 97 3e
       0.10077511 0.14262208 -0.00044216437 0.29661813
000090 01 3f 85 3e b9 73 3e be 79 60 13 bc 83 27 db bd
       0.2602463 -0.18598832 -0.008995169 -0.10700896
0000a0 d4 31 92 3d 5d 74 35 3e f6 09 54 3e 44 3b e6 be
       0.0713841 0.1772017 0.20706925 -0.4496709
0000b0 2e 8a d1 3d 78 42 64 3e 42 93 41 3d fe a8 01 3f
       0.10231434 0.22290981 0.047259577 0.50648487
0000c0 6c 9b 0c be c3 c7 08 3f 14 72 b5 3e ba 6a 07 bf
       -0.13731164 0.5342981 0.35438597 -0.52897227
0000d0 e2 5c 1c 3f 7c 60 17 3e 7c 27 a3 be 54 fe 56 3e
       0.6107923 0.147829 -0.31866062 0.20995456
0000e0 2b 33 ff 3e a7 58 f4 bd b0 cc d8 bd 45 d7 3e 3e
       0.49843726 -0.119309716 -0.10585916 0.18636806
0000f0 aa 39 51 3e 72 6a 9f 3e b8 98 25 3d b3 d0 21 3e
       0.20432153 0.311359 0.040428847 0.15802269

feature.4.weight f4 [64, 64]
000000 dd 25 1b 3d 48 07 35 3e 75 65 c3 3e 7f 01 88 3b
       0.037877906 0.17678559 0.38163343 0.004150569
000010 1c 23 5a bc 58 68 b0 be f4 6f 8f bd 92 e1 6a bd
       -0.013314035 -0.34454608 -0.07003775 -0.057344027
000020 65 a1 04 3e 3c 21 b1 be 91 2e 53 be fc 98 bc 3c
       0.12952192 -0.34595668 -0.20623232 0.023022167
000030 46 40 2b bf b4 14 b4 bd 98 d4 89 3c 41 0b c5 3d
       -0.6689495 -0.08793011 0.016825005 0.09621287
000040 47 3c 9d be 82 c5 ec 3e 8b 0a 8a 3e 83 bd 30 bc
       -0.3071005 0.46244437 0.2696117 -0.010787371
000050 67 de 86 3e ef d3 da bd ae ba e8 be 7f dc bc be
       0.26341555 -0.106849544 -0.45454925 -0.36886975
000060 7d 8f c6 be 83 2d 2c bf a3 ad de be 86 9b dd bd
       -0.38781348 -0.67256945 -0.4349185 -0.10820679
000070 7e 50 cb be 94 43 6d 3e 8a 63 44 bf 00 9f 32 bf
       -0.39709848 0.2317031 -0.76714385 -0.69773865
000080 1e d9 a9 bd d5 05 17 3e 01 ed 68 be 1c f8 a6 3e
       -0.08293365 0.14748318 -0.2274666 0.32611167
000090 34 60 f0 3d 02 f4 ac 3e d0 a3 97 3e ae d0 50 be
       0.11737099 0.33779913 0.29617167 -0.20392105
0000a0 dd c6 0a be c8 d4 0f 3e 6a 81 84 3e 89 24 25 be
       -0.13552423 0.14046013 0.25879985 -0.16127218
0000b0 1f 0e 23 be d2 83 ae 3e 1c 5b 16 bf 6c 17 29 3e
       -0.15923356 0.34084946 -0.5873277 0.16512841
0000c0 48 93 b7 3d 7d 6e 47 bf d3 81 c7 be 3b 95 0f 3e
       0.089636385 -0.77902967 -0.38966236 0.1402177
0000d0 bd 71 97 3e 4f 0c fc bd 15 c9 94 bd 5c 09 fb 3c
       0.29578963 -0.12307035 -0.07264916 0.030644111
0000e0 32 b1 19 3e 96 77 17 bf 17 2d aa bd 87 a3 62 3e
       0.15009001 -0.5916685 -0.083093815 0.22132693
0000f0 33 35 b9 bd a1 fb a7 3e 14 31 92 3c fd 94 6e be
       -0.0904335 0.32809165 0.017845668 -0.23299022
000100 6e bb cf bd e5 2e 36 3e 7e 30 df 3c ac a7 91 3c
       -0.10143171 0.17791326 0.027244803 0.017780147
000110 ec 48 2b bd 51 db 79 be 30 65 d5 3c 8d 05 30 3e
       -0.04181759 -0.24400069 0.026049227 0.17189617
000120 b1 88 8c bd c2 c3 70 be ed 86 dc be af cd 86 3d
       -0.06862009 -0.23512176 -0.4307169 0.065822
000130 48 95 b3 3e 9c c8 32 3e c6 9e ad 39 c8 ad 34 be
       0.3507483 0.17459339 0.00033115427 -0.17644417
000140 b9 88 a5 bb f5 71 81 3e 78 eb 30 3e dc 69 d1 be
       -0.005051699 0.25282255 0.17277324 -0.40901077
000150 bf 35 6e 3e bd b0 17 bd af e3 06 be e5 ae d2 bc
       0.2326269 -0.037033785 -0.13172792 -0.025718162
000160 e8 88 04 bd 76 03 4f bd 6d a6 bc bc c9 fd 11 3e
       -0.032357126 -0.05054041 -0.023028577 0.14256968
000170 05 46 63 bf a2 ec 95 be 89 75 2d be 9d c4 27 3e
       -0.88778716 -0.292821 -0.16939367 0.16383596
000180 e5 b3 45 be e9 3e 63 3e 8e 47 c7 bd 72 57 2b 3e
       -0.19306906 0.22191967 -0.09730445 0.16732576
000190 e5 2e d1 bd e8 05 a9 be 23 e8 b7 be 3e 01 c0 be
       -0.102140225 -0.3301232 -0.35919294 -0.37500948
0001a0 c4 7b c8 be be a4 7f bc c3 56 3d 3e 17 c8 3a bd
       -0.39156926 -0.015603242 0.18490128 -0.045600977
0001b0 fc 44 1e be 2d c1 06 bf 6f f1 af be 7d 54 48 be
       -0.15456003 -0.5263851 -0.34363887 -0.1956348
0001c0 09 3d d2 3d 06 e1 0f 3f 36 bf 8b 3e 37 e8 fd 3d
       0.10265548 0.56202734 0.2729432 0.12397807
0001d0 da db e3 bd bd 11 6b 3e b8 9b 16 be e8 fc a0 3e
       -0.11125918 0.22955985 -0.1470784 0.31442952
0001e0 4f 4f 20 bf f6 d5 fb bd bf c1 0f bf 0c 82 1f 3e
       -0.62621015 -0.12296669 -0.5615501 0.15576953
0001f0 d8 5f e3 3c 83 61 d0 3e bd 9e 42 3e b8 bf 16 bf
       0.027755663 0.40699396 0.19005866 -0.5888629
000200 9c 60 9c 3d 98 6d 88 3e b5 ad b2 3d 7c 81 9e 3d
       0.07635614 0.26646113 0.08724538 0.07739541
000210 47 fe 6a be ff 1c 71 bd d7 72 00 3e 76 28 f7 3d
       -0.22948562 -0.058865543 0.12543808 0.12068264
000220 b6 4c 2a be c4 c4 a4 3e 58 f5 08 bf 24 ea a0 be
       -0.16630825 0.3218137 -0.53499365 -0.31428635
000230 8f 45 d7 bd c6 47 05 bf 2a 19 b8 be 94 82 61 bf
       -0.10511314 -0.5206264 -0.359567 -0.8808987
000240 a4 7f 85 be 3a f3 2c 3f 4d 47 f9 bd 74 af 8f 3e
       -0.26073945 0.67558634 -0.12171803 0.28063548
000250 a3 77 22 3e 88 1c 05 bf f6 75 72 3e ae 71 82 be
       0.1586595 -0.5199666 0.23677811 -0.25477356
000260 71 ad 75 be c2 50 ee 3d c3 5a 37 3e 17 8d a0 be
       -0.23991944 0.11636497 0.17905717 -0.31357643
000270 4b e4 00 bf 18 2f e6 bd 23 cd 02 3e c6 f3 ee 3e
       -0.5034835 -0.11239451 0.12773566 0.4667036
000280 8a d9 1f 3e b8 40 61 be c9 19 99 3e c8 5e 23 bf
       0.15610328 -0.21997344 0.29902485 -0.638165
000290 35 02 9f bf 90 01 18 bf cf 8e 4f bf ff f5 27 bf
       -1.2422549 -0.59377384 -0.81077284 -0.65609735
0002a0 e2 38 fb 3b 6e be 33 3e f1 09 c5 be 1b d0 25 bf
       0.007666693 0.17553112 -0.38484147 -0.6477067
0002b0 0d 07 0c bf 4a 5e 21 bf 05 14 90 3e 70 fc 3e be
       -0.5469826 -0.630345 0.28140274 -0.18650985
0002c0 20 cd a0 be 05 d4 22 3e a2 11 4d bf 5e f5 0f 3e
       -0.31406498 0.15901192 -0.8010503 0.14058444
0002d0 0b d8 44 3e 66 5e 3d bf 77 bd a8 3e 90 6c 4c bf
       0.19223039 -0.73972166 0.3295705 -0.79853153
0002e0 3c 8d 68 bf fe f3 25 3b 78 06 33 bc 24 95 b8 3e
       -0.90840507 0.0025322433 -0.010926835 0.36051285
0002f0 13 5b 8f be b3 73 75 3e 51 95 a6 3e c4 94 32 be
       -0.27999172 0.23969917 0.32535794 -0.17439562
000300 92 40 7a 3d 85 4d 85 3d a6 f2 08 3f b1 07 2b bd
       0.061096735 0.06508926 0.5349525 -0.041755382
000310 06 47 eb 3e 83 b8 10 3e 56 74 04 be 25 df 6a 3e
       0.45952624 0.14132886 -0.12935004 0.22936685
000320 64 ee c9 bd bb 93 a9 be c2 11 fa bd 90 6f 77 3d
       -0.098599225 -0.33120522 -0.12210418 0.06040913
000330 a9 32 bb bd 64 0f 7d 3e cc d4 01 be 3f 0f 81 bd
       -0.09140522 0.24712902 -0.12678832 -0.06301736
000340 b0 da 28 bc 0a c2 5d 3e ec 7b b1 3d 5a 6e aa 3e
       -0.010306045 0.21656051 0.08666214 0.33287317
000350 06 db 3e 3d 9f d8 12 3d 4a 62 8c be 21 96 19 be
       0.046595596 0.035851117 -0.2741874 -0.14998676
000360 a2 81 22 3e 96 c0 f8 3d 55 6a 67 bd a1 83 e9 3d
       0.15869763 0.12146108 -0.05649789 0.11402059
000370 94 2d 5b 3e 4d 4c fd bd 6f b2 8c 3e 3a e8 d8 be
       0.21404105 -0.12368069 0.27479884 -0.42364675
000380 ca 32 e4 be 20 0a 9e 3d 4a 04 50 3e ba a4 01 3d
       -0.4457 0.07716775 0.20314136 0.031651236
000390 68 0e 62 be f9 a2 7b 3d 9e bb 1e 3f 70 2f e9 be
       -0.22075808 0.06143472 0.6200503 -0.45544004
0003a0 7a a9 0e bd 33 d5 86 3e 4b 6a 70 bd 61 32 28 be
       -0.034829594 0.26334533 -0.05869512 -0.16425468
0003b0 d8 0f fd be 73 83 ac be a9 91 0d bf 77 9c 47 3d
       -0.4942615 -0.33694038 -0.55300385 0.0487332
0003c0 40 b0 99 bd 92 39 21 3f 8a e6 7b be 36 ae e8 3d
       -0.0750432 0.6297847 -0.24599662 0.11361353
0003d0 34 dc 71 3e 62 d5 d8 bd 03 14 8f 3d 2a b9 a6 be
       0.23619157 -0.105875745 0.06986239 -0.32563144
0003e0 5a f5 51 3e df f3 ca be 41 47 08 be cf ee 95 3e
       0.2050375 -0.39639184 -0.13308431 0.2928376
0003f0 9a 5a 47 bf 1f 07 14 be 31 b6 64 bd f8 b6 e8 bb
       -0.7787262 -0.14455841 -0.055837814 -0.0071018897

feature.4.bias f4 [64]
000000 44 24 4b 3e 8f df b6 3e df 60 57 3e a4 f2 ee 3e
       0.19838053 0.35717437 0.21033047 0.46669495
000010 c1 da 59 3e e7 7e b1 3d 5d d3 4a 3e 21 7c 8d 3e
       0.21274854 0.08666783 0.19807191 0.27633765
000020 64 d0 85 bc 33 06 c8 3c 3e ac a3 3d 7e 31 c0 3e
       -0.01633472 0.024417019 0.07991837 0.3753776
000030 0a 79 58 3e b4 d8 8f 3e fd 11 90 3e 30 a5 14 3d
       0.21139923 0.2809502 0.28138724 0.036290348
000040 69 36 fc 3e c4 2b 0c 3e 6d 03 68 3e 19 4f af 3e
       0.49260262 0.1368857 0.22657557 0.34240034
000050 c9 49 89 3e f4 19 ab 3e dc 3c c4 3e 41 77 3c 3e
       0.26814106 0.33418238 0.38327682 0.18404867
000060 12 7c 3d 3d 7d 30 58 3e 05 aa 41 3e f9 9f 5d 3e
       0.0462609 0.21112247 0.18912514 0.21643056
000070 b9 0c ce 3d 73 4e a2 3e 68 20 d0 3e 77 cd ae 3d
       0.100610204 0.31700477 0.40649724 0.08535283
000080 a9 b5 18 3e d8 a9 80 3e 79 f6 d0 3d 1f 5d 19 3e
       0.14913048 0.2512958 0.10203261 0.14976929
000090 de 20 93 3e 8a ba c1 3e 6e 84 40 3e 62 93 6c 3e
       0.28736013 0.3783763 0.18800518 0.23103097
0000a0 6b b2 e1 3e ef e6 d3 3e 0b 6c 02 3e 43 9a 09 3e
       0.44081435 0.41387126 0.12736528 0.13437752
0000b0 f1 6a ac 3e 18 2f 65 3e ef f0 10 3e 46 b3 d9 3d
       0.3367534 0.22381246 0.14154409 0.10629897
0000c0 02 6a e0 3e 3f 98 9e 3d 4c 24 46 3e 2f ef c4 3e
       0.43830878 0.077438824 0.19349784 0.38463733
0000d0 6a 28 69 3d ec c3 6f 3e 2b c6 7c 3e 24 f0 b2 3e
       0.056923307 0.23414582 0.2468497 0.34948838
0000e0 12 ab a8 3e 5c 8c 88 3e 12 69 d8 3e fc c7 fb 3e
       0.32943016 0.26669586 0.42267662 0.49176013
0000f0 b2 f7 af 3e 6a c0 35 3e bc 7e ed 3d 8f 1e 0e 3e
       0.34368664 0.17749181 0.11596438 0.13878845

log_std.weight f4 [5, 64]
000000 8d 2b de 3c 44 02 c4 3c 2d fe 85 3d 1b 62 ee 3c
       0.027120376 0.023926862 0.06542621 0.029099515
000010 f8 0c a5 ba 3f 0d 88 bc 30 d6 cb bb f4 06 ec bb
       -0.0012592366 -0.016607879 -0.0062206015 -0.0072029773
000020 2a a5 88 bc e3 5e 34 3c 50 51 68 3d d2 51 39 3d
       -0.016680319 0.011008951 0.05671817 0.045244046
000030 60 b8 3c bd 86 5c f2 ba 3b 19 40 3d 41 53 68 3c
       -0.04607427 -0.0018490709 0.04689906 0.0141800055
000040 f1 36 a2 bc 2a 97 0f bb f9 bd 46 bd 56 d9 38 bc
       -0.019801589 -0.002191017 -0.048521016 -0.011282286
000050 c8 e4 59 3d 61 5e 01 3d ab 4d 0d bd 93 60 68 3d
       0.0531967 0.031584147 -0.034497898 0.056732725
000060 00 bc 3d bd 8c 7c 96 bc 58 b1 9c 3c 69 1f dd 3b
       -0.04632187 -0.018369935 0.019127533 0.006748129
000070 2e fa 40 3d ab 5a 9b 3b f4 77 0c 3d f0 bd e2 3b
       0.04711359 0.004741033 0.034294084 0.006919615
000080 83 c0 2a 3d 9f 6a 79 bc 61 17 3b bc 79 2f 2b 3d
       0.0416875 -0.015223174 -0.011419148 0.04179332
000090 c2 33 67 3c 62 6f 62 3c af 32 2e bc c8 3a 03 3d
       0.014111461 0.013820501 -0.010632201 0.03203848
0000a0 90 85 19 bd d3 77 dd bb c6 cd 9e 3c c9 11 d9 bb
       -0.03748089 -0.006758669 0.01938523 -0.0066244346
0000b0 bc 4c a0 3c 9b b8 9f 3d 4d 44 47 bc 20 f7 f6 bc
       0.01956784 0.077988826 -0.01216228 -0.030147135
0000c0 ab dc 83 bc 8d d9 d2 3c b4 a5 85 bc 90 15 8f bd
       -0.016096434 0.025738502 -0.016314365 -0.069865346
0000d0 3c 5a 93 3d f1 73 ac bc 70 54 e2 bb 61 51 5d bc
       0.07194945 -0.021051379 -0.0069070384 -0.013508172
0000e0 61 d9 48 3d 56 74 6e 3c 7e 20 05 3d 99 65 5e bc
       0.049035434 0.014554104 0.03250169 -0.013574027
0000f0 cc bb e0 3b c8 3f 97 3d 4f 3d 6b 3d ef fc a8 3a
       0.0068583246 0.07385212 0.057431515 0.0012892763
000100 b0 bc c4 3b 28 75 f8 3c e6 6c 5e 3d 3e 2a 10 3c
       0.0060039386 0.030329302 0.054303072 0.008799134
000110 88 58 8a 3d 23 18 de 3d a6 c3 75 3d b4 53 50 bb
       0.06755167 0.108444475 0.060001038 -0.0031788172
000120 75 5e 2a bc 2d ae 9c 3c 03 dc 91 3d 82 ff 8a 3d
       -0.010398497 0.019126022 0.07122042 0.067870155
000130 4a 42 8f bc 2b a4 bb 3d f4 9f 44 bd 9e 37 fd 3c
       -0.017487664 0.09162172 -0.048004106 0.03091031
000140 82 54 c9 bc 4e eb ae bc 1f 47 5b 3b c5 b8 e5 bc
       -0.02457643 -0.021352436 0.003345914 -0.028042207
000150 b5 fa 03 3d 01 82 ad 3c 83 e4 47 bd 0e 11 6e 3d
       0.032221515 0.021180155 -0.04880191 0.058121733
000160 c5 d9 9f 3d 9d d3 12 3d f1 27 94 3d b3 01 9d 3d
       0.07805208 0.03584634 0.07234181 0.0766634
000170 d2 22 0a 3d d0 12 f9 3a 48 18 14 3d 27 ee e6 3a
       0.033724613 0.0019002799 0.03615597 0.0017618582
000180 e9 41 db bc 59 31 32 bb fe 7b 1c 3d 37 e6 2a 3d
       -0.026764827 -0.0027190058 0.038204186 0.041723456
000190 42 81 37 3d ff 7e 0d bc b5 50 bf 3d 5a b7 12 3d
       0.044801004 -0.008636235 0.093415655 0.03581939
0001a0 b6 55 ee bd e7 0b a9 3c ff 32 3b 3d 3d 8d 40 bd
       -0.11637442 0.020635558 0.04570293 -0.047009695
0001b0 dd 57 d9 3d 07 33 2b bb f3 f3 51 3d 30 60 37 bd
       0.10612462 -0.0026122944 0.05125804 -0.044769466
0001c0 1b 2b 31 3b f2 09 0c bd 1e 8f 85 3d e6 26 8b bc
       0.002703375 -0.034189172 0.06521438 -0.016986322
0001d0 5a 25 b7 3d ba 1c 18 3d 53 fa dd 3b 8c 03 14 3d
       0.08942671 0.03713677 0.0067742257 0.036136195
0001e0 f5 82 53 3c 0a ec 61 bd aa 47 bb 3d 22 4e 72 bd
       0.012909641 -0.055156745 0.09144528 -0.059156545
0001f0 04 18 d1 3d 5b 61 1e bd 43 ab a4 3b 07 ef 2a ba
       0.10209659 -0.038667064 0.005025299 -0.0006520603
000200 3c 4c a7 3c f0 03 8a bd d4 2d 68 bd b8 76 c9 bc
       0.020422094 -0.06739032 -0.05668433 -0.024592742
000210 ce 35 d4 bc d3 6c 07 3e 4b 45 59 3c 0e b3 0e 3d
       -0.025904562 0.13225107 0.01326115 0.03483873
000220 c0 a7 86 bd c9 32 af 3a 6e 82 e5 3c a8 bd 5e 3d
       -0.065749645 0.0013366576 0.028016295 0.05438009
000230 0e 1b 94 3c 19 05 52 3e 43 d3 10 bc 01 16 c2 bc
       0.018079307 0.20509757 -0.008839431 -0.023692133
000240 5d 4b b9 39 72 73 81 bb 27 9b 48 3b 09 64 17 bd
       0.000353421 -0.0039505297 0.0030610056 -0.036960635
000250 16 ac b0 3d a2 52 01 3d de a1 2b 3e b4 30 a6 3d
       0.08626573 0.031572945 0.16760966 0.08114758
000260 4a bc 75 bd f0 81 01 be 7a f9 d2 bc 55 a5 22 bc
       -0.05999402 -0.12647223 -0.025753725 -0.009927114
000270 5a e8 89 3d c6 6b f0 bb d1 8d 09 bd a5 de ae 3c
       0.06733771 -0.0073370663 -0.033582512 0.0213464
000280 89 ce e2 3d ca ab 7b bd 45 ef 01 3d 2d 85 1e bc
       0.1107455 -0.061443128 0.031722326 -0.009675306
000290 61 b5 37 3d 87 00 7c 3d 00 98 91 bc fb 90 34 3d
       0.04485071 0.06152394 -0.017772675 0.044083577
0002a0 6b 41 2b bd 97 ea 88 bc ea 82 59 3c 9d 7d a1 bc
       -0.041810434 -0.016713424 0.013275841 -0.019713217
0002b0 90 61 45 3d fd ef 01 bd 72 28 ed bc d4 6a fa bc
       0.048188746 -0.03172301 -0.02894995 -0.030568518
0002c0 0b 81 bd bc 11 a5 6e 3d a6 60 a7 bc b8 f6 36 bc
       -0.023132822 0.05826289 -0.020431828 -0.011167221
0002d0 ce b7 1b 3d c0 39 02 3d a6 08 ad 3c 58 66 a4 3d
       0.038017087 0.031793356 0.021122288 0.08027333
0002e0 76 c8 86 ba 77 18 69 3d 83 56 9f 3c 0d 62 a3 3c
       -0.0010283131 0.056908097 0.019450432 0.019944215
0002f0 c5 da 61 bc c0 3c 83 bd 4d 52 1d bd 86 48 41 3d
       -0.013785069 -0.064080715 -0.038408566 0.047188304
000300 e9 9f 03 bd 26 a0 42 bd 2d d3 9a bc 72 02 d1 bb
       -0.032134924 -0.04751601 -0.018899525 -0.0063784653
000310 73 52 14 3d 58 e9 a9 bc b6 3f 11 bd 74 42 f6 3c
       0.036211442 -0.02074115 -0.03546115 0.030060984
000320 86 55 08 3e 0a ed f5 3c 0e d0 7d 3d f4 4f b8 3a
       0.13313875 0.030020256 0.061965995 0.0014061914
000330 ee b0 c3 bc 5e 8a 1b bd 92 9c c5 bd 70 0d 21 bd
       -0.023888078 -0.037973754 -0.09649004 -0.039319456
000340 6a 3a 96 bb 09 76 30 bd 84 5c fe 3d 98 f4 a0 3d
       -0.0045846 -0.043081317 0.1241999 0.078591526
000350 52 1f a8 3d 51 4c 52 3c b8 77 85 bd fa 97 f8 bc
       0.08209099 0.012835578 -0.06516975 -0.030345906
000360 0c 62 06 bd d9 f6 63 3d e2 a6 37 3e 80 55 5b 3b
       -0.03280835 0.055655334 0.17934754 0.003346771
000370 23 c2 29 3e e6 16 47 3c 74 a8 0e bc 53 4c ff bc
       0.16577964 0.0121514555 -0.008707155 -0.031164324
000380 a6 05 08 3c 7f 6b 11 3c 77 3e 06 3d 3f 4f ef bb
       0.008302128 0.008875727 0.032774415 -0.007303148
000390 c2 bd c0 3c 47 fa 2c bc eb 91 85 bd 02 8c 1b bb
       0.023527984 -0.010557718 -0.06521972 -0.0023734574
0003a0 25 42 f6 bd 7c a9 b1 3c d1 5d af bc 7b c4 88 3d
       -0.12024335 0.021687262 -0.02140704 0.06678101
0003b0 67 91 30 3b ca 0f ef bc fa de a1 bb 53 48 03 3d
       0.0026942135 -0.029182333 -0.004939911 0.032051396
0003c0 d8 bc 85 3c bb 4c 98 bc d6 f1 f3 3d 8c 1d 3e bd
       0.0163254 -0.018591275 0.11911361 -0.046414897
0003d0 1f 42 a5 3d 58 30 49 3d 53 f8 2d 3d 81 1d 92 3a
       0.08069252 0.04911837 0.04247315 0.0011147709
0003e0 ed 76 89 bc 32 09 18 3e 01 c4 d3 3c 91 83 af 3d
       -0.016780341 0.14847258 0.025850298 0.08570016
0003f0 75 8a b2 3c 66 48 bb bc cb 84 25 3c 4d 00 53 bd
       0.021794537 -0.02286167 0.010102461 -0.05151396

log_std.bias f4 [5]
000000 91 75 2c bf 1b f8 57 bf 4d 8a 59 bf ba 56 56 bf
       -0.6736689 -0.84362954 -0.84976655 -0.83726084
000010 5a 51 6d bf
       -0.9270226

mu.weight f4 [5, 64]
000000 29 ba e4 bd b8 ca d8 3e 91 3c 3c 3f 4d a1 33 bf
       -0.1116832 0.42342162 0.73529917 -0.70168
000010 c2 98 7c 3e 41 d2 57 be 64 c5 e4 be 9a ca 72 3d
       0.24667647 -0.21076299 -0.44681847 0.059275247
000020 69 ff 49 bf 56 47 03 3f 8a 70 eb 3d 62 f7 cb be
       -0.7890535 0.51280725 0.114960745 -0.39837176
000030 f1 38 a7 be d4 f4 08 3e e2 35 1a bf 07 e6 34 3e
       -0.3266063 0.13374645 -0.6023847 0.17665873
000040 9c db 5e bf 83 b1 88 be c7 32 d6 be 45 be d6 bd
       -0.8705385 -0.2669793 -0.41835615 -0.1048551
000050 c1 11 43 3d 67 d9 35 be 2a 0d 93 3e 98 9e 95 be
       0.047624353 -0.17758714 0.2872098 -0.2922256
000060 8b 8e 47 3f 61 ef d2 3e 5e 64 3a 3f 7a 5b 20 bf
       0.7795188 0.41198257 0.728094 -0.6263958
000070 08 be 80 3f 06 e2 77 be 3e a0 1b be 34 f6 01 3f
       1.0057993 -0.24207315 -0.15197846 0.507663
000080 fe d0 8b be 73 86 0e 3f 2e 53 c1 3d 22 e9 46 3f
       -0.27307886 0.55673903 0.094396934 0.7769948
000090 a3 d2 39 3f e4 a2 44 3d 48 ff 47 be f5 dd ac 3e
       0.7258703 0.048006907 -0.19530976 0.3376309
0000a0 0e 61 03 bf 32 c6 90 bd 3e 9f 81 3d 61 d3 95 3f
       -0.5131997 -0.07069053 0.06329201 1.1705133
0000b0 20 74 47 3e ad a5 94 bf 0a 51 0f bf 78 e7 91 3f
       0.19477892 -1.161306 -0.5598303 1.1398764
0000c0 a9 d9 f6 be 81 c4 55 3f 41 06 56 bc cf 23 03 3f
       -0.48212937 0.83502966 -0.0130630145 0.51226515
0000d0 86 5f 3a be ed e1 36 3f 46 45 61 3e 75 30 a6 bd
       -0.18200502 0.71438485 0.21999082 -0.08114711
0000e0 9e 46 33 bf 45 00 49 be b1 8a 9b 3e dc f3 21 bd
       -0.7002963 -0.19629009 0.3037925 -0.039539203
0000f0 0f 0d 11 3e c1 04 92 3f 00 b5 ea be c7 e8 37 bf
       0.14165138 1.1407701 -0.45841217 -0.71839565
000100 fd 1a ab bd 1a fa d5 be 74 6c 97 be 6b f9 87 be
       -0.08354757 -0.41792375 -0.2957493 -0.26557478
000110 77 f6 31 bf 54 52 57 3f d2 3e af be a1 af 9d 3f
       -0.695167 0.8411 -0.34227616 1.2319223
000120 47 93 1b bf 90 03 01 3f db 69 3c 3e 34 04 f4 be
       -0.607716 0.5039606 0.18399756 -0.47659457
000130 c9 15 43 3e 27 8d 52 3f cf 0c de be 92 4d 64 bf
       0.19051279 0.8224663 -0.43369147 -0.8918086
000140 1b d2 50 be 59 28 3b 3f 2c b5 46 3e 5e 6c 8d 3d
       -0.20392649 0.7310844 0.19405049 0.06905435
000150 6b 5d 07 bc 66 70 69 be 30 b9 d6 be 32 55 9d 3f
       -0.008262019 -0.22796783 -0.41938162 1.2291625
000160 74 31 2b 3f fa 08 ae 3e c0 3b 9c be ab 7b 8c bd
       0.66872334 0.33991224 -0.30514336 -0.06859525
000170 ac 80 e0 3c 0d c6 8f be a4 af 4e be c5 17 11 3e
       0.027405106 -0.28080788 -0.20184189 0.14169224
000180 88 c8 4d be 71 b4 22 3e bf e2 a8 3e d6 72 0b 3e
       -0.20096028 0.15889145 0.32985494 0.13618025
000190 52 60 3c bf 0b 2b 43 3f b7 ec 92 bf 54 40 04 bf
       -0.73584473 0.76237553 -1.147849 -0.51660657
0001a0 96 d4 09 3f af a0 1b be ae 0b 87 3f d2 a0 a1 3e
       0.53840005 -0.15198015 1.0550439 0.3156801
0001b0 d0 d4 74 bf 61 08 b3 be af 77 0f 3f 5b 41 04 3f
       -0.95637226 -0.3496733 0.56042 0.51662225
0001c0 d3 60 70 3e 87 05 78 be bb 9e bc be 50 43 9b 3e
       0.23474436 -0.24220859 -0.36839852 0.30324793
0001d0 22 1c 0d 3f e5 fa 83 bc 19 09 e1 3e 11 b3 0a bf
       0.5512105 -0.016110847 0.43952253 -0.54179484
0001e0 d4 b2 6e 3e bb b7 a5 3e 47 b9 56 bf 55 44 86 3e
       0.23310405 0.32366738 -0.8387646 0.26224008
0001f0 4e e3 0c bf 90 7a 8e 3c 1b 17 55 bf 35 34 4d 3f
       -0.5503434 0.017392427 -0.8323838 0.80157787
000200 ef bb 20 3f 92 e7 ff 3e 41 4f a3 3d 3c ea 3f 3e
       0.62786764 0.49981362 0.07974101 0.18741697
000210 3c fa 32 3e 79 4a 4c bf 83 f6 92 3e 76 3f ab be
       0.1747827 -0.79801136 0.287037 -0.33446854
000220 07 62 eb 3e 28 01 e2 3d 4c 88 89 3e be 9d 2f 3f
       0.45973226 0.11035377 0.268618 0.6860007
000230 7e 3c 86 bd b2 b5 28 bf da a3 f4 3e d0 88 5c 3d
       -0.06554507 -0.65902245 0.4778126 0.053841412
000240 44 26 17 be 80 98 00 be 00 4b 3b 3f 8d aa 67 3e
       -0.14760691 -0.12558174 0.73161316 0.22623654
000250 ca d1 00 bf c2 65 97 3e 6c 4d 92 3f 84 c2 c8 be
       -0.5032011 0.29569823 1.1429877 -0.39210904
000260 38 00 31 bb 22 87 2d 3e 3c 42 d9 bd 12 60 b2 3e
       -0.0027008187 0.1694608 -0.10608336 0.3483892
000270 6e a3 9b be fa 33 d6 bd ab 5e 61 be 37 0d ba be
       -0.30398124 -0.104591325 -0.22008769 -0.36338207
000280 ed ab 60 bf e5 92 c9 3e 4e 14 1f bf d8 31 1c 3e
       -0.8776234 0.39369884 -0.6214036 0.15253389
000290 e5 e3 b3 3e 01 3d 1d bf 5a 48 0c 3f e9 d0 9a 3f
       0.35134807 -0.6142121 0.547979 1.2095004
0002a0 b2 95 3d bf 27 7c 30 bd cd bb 4c bf fe 07 bc be
       -0.7405654 -0.04308715 -0.7997406 -0.36724848
0002b0 55 1f 15 bf a7 cc 9b bd e5 ba 2b be 39 b5 52 be
       -0.58250934 -0.07607394 -0.16770513 -0.20576943
0002c0 dc 99 0a be 68 57 ad be 1a e1 ad 3e 36 8b 20 bf
       -0.13535255 -0.33855748 0.339608 -0.6271242
0002d0 ea c3 7a 3d 02 4b c9 be d5 28 d9 be cb 9e 0d be
       0.061221994 -0.3931504 -0.42413965 -0.13830106
0002e0 65 65 42 be e8 ea e5 be 0e b3 34 3f da 29 15 bd
       -0.18983991 -0.44905782 0.70585716 -0.036416866
0002f0 8a 68 b7 3e 4e a5 b2 bd 58 ee aa 3e fe af 58 bf
       0.35821944 -0.087229356 0.33384967 -0.8464354
000300 d7 76 4f 3f 08 1f 0e bf 9e 74 8b 3d de 1b 29 bf
       0.8104071 -0.555161 0.06809352 -0.66058147
000310 64 e9 5d bd a1 26 60 be 12 69 b9 3e 13 12 15 3f
       -0.054177657 -0.21889736 0.36212975 0.58230704
000320 e1 c5 e8 be fa 9e d1 3e b0 07 1b 3f b5 50 af 3e
       -0.4546347 0.40941602 0.60558605 0.34241262
000330 4f 3c 29 3f bd e5 53 3e 92 db 32 be aa ad 84 3e
       0.6610765 0.20693107 -0.17466572 0.25913745
000340 6c 3f ed 3e 9f 19 9d 3d e5 d3 07 3e 82 60 41 3f
       0.4633745 0.076709025 0.13264425 0.75537884
000350 d3 56 17 be 49 57 12 bc dd 59 25 bd 5f 35 40 bd
       -0.14779215 -0.008931943 -0.040368903 -0.0469259
000360 62 38 b0 be 52 7c 6c bf b9 b7 87 bf 55 08 5c bf
       -0.34418017 -0.923772 -1.0602943 -0.85950214
000370 1d 84 14 bf c2 dd c7 be c9 25 b5 bd 0c fa 2c be
       -0.5801409 -0.39036375 -0.088450976 -0.1689226
000380 19 40 f8 3b 72 23 42 3f dc 42 e7 3e d2 9a 34 be
       0.0075760004 0.75835335 0.45168197 -0.17637184
000390 39 c4 c9 be 58 a0 76 3e a8 10 ef be a7 8c 76 3e
       -0.39407519 0.24084604 -0.46692395 0.24077092
0003a0 88 e3 c5 3e 4d 0c 02 bf 2b 32 ef 3e e9 d5 a7 bc
       0.38650155 -0.5080002 0.46717963 -0.020487742
0003b0 a0 d0 d1 bd e2 43 c4 be be 7c 76 bf b5 7e b9 be
       -0.1024487 -0.3833304 -0.9628409 -0.36229482
0003c0 32 4c 09 3f 46 60 1c be 79 69 58 bf 00 97 0a 3f
       0.5363189 -0.152711 -0.8453594 0.5413666
0003d0 31 a1 ad bd f4 f5 17 bf a6 e0 0c 3f 7f 40 83 3f
       -0.084780104 -0.5935967 0.55030286 1.0254058
0003e0 f9 04 07 3f f3 51 8d bf ae 5e c4 3e 21 d8 41 bf
       0.5274196 -1.1040634 0.38353485 -0.7572041
0003f0 77 fd 84 3e d4 0d 6a 3d 4b 75 0d bf 92 f1 e3 3d
       0.25974628 0.057142094 -0.552571 0.1113006

mu.bias f4 [5]
000000 aa 48 b8 bd 81 7f 32 be 8a e2 64 be bd 19 46 bd
       -0.089982346 -0.17431451 -0.22352043 -0.04836439
000010 e1 e5 5c 3d
       0.053930167
