masac/model/simple_tag/agent_0/657_actor_params.pth (torch, 43913 bytes, 10 tensors)

feature.0.weight f4 [64, 16]
0	0x3c9f4ef0	0.01944682
1	0xbd47a113	-0.048737597
2	0x3e7e7b2f	0.24851678
3	0x3e0453d9	0.1292261
4	0xbceb7c59	-0.028745817
5	0xbd364437	-0.04449865
6	0x3bfc93b0	0.0077080354
7	0xbb3174fa	-0.002707778
8	0x3f837788	1.0270853
9	0xbe8df7b1	-0.27728036
10	0xbdea9752	-0.11454643
11	0x3e45bfc6	0.19311437
12	0xbf231246	-0.6369976
13	0x3d84ef7f	0.06490993
14	0x3cf5f618	0.030024573
15	0x3c9a74ba	0.018854488
16	0xbba54efd	-0.0050448165
17	0x3c970a2d	0.01843747
18	0x3bf93bdb	0.0076060123
19	0x3e014417	0.1262363
20	0xbc86bbb9	-0.016446935
21	0xbbd497fe	-0.0064878454
22	0xbc905666	-0.017619323
23	0x3b9bf697	0.0047596204
24	0xbf8677a0	-1.0505257
25	0x3f14e244	0.58157754
26	0x398f2c5f	0.00027308144
27	0x3d12689e	0.035744302
28	0x3f937efb	1.1523126
29	0xbf1cef2b	-0.6130244
30	0x3dcc5a50	0.09978163
31	0xbd656aa0	-0.05600989
32	0x3d2002b6	0.039065085
33	0xbbc7ccd6	-0.0060974164
34	0xbd2911e0	-0.041276813
35	0x3f020d0b	0.5080115
36	0x3b90e107	0.0044213566
37	0xbc90c570	-0.01767227
38	0x3d1359c2	0.03597427
39	0xbb89af9e	-0.0042018434
40	0x3e19764e	0.14986536
41	0x3e7bcf8b	0.2459089
42	0xbc7264f6	-0.014794579
43	0x3da0add3	0.07845654
44	0xbd426c16	-0.04746636
45	0x3e3bd51c	0.18343014
46	0x3cd4daa5	0.025983164
47	0xbd942dda	-0.07235308
48	0xbda8bf81	-0.082396515
49	0x3d111a16	0.035425268
50	0xbd991d4b	-0.0747629
51	0x3e1bb55e	0.15205905
52	0x3ceb337f	0.028711079
53	0xbda8868a	-0.08228786
54	0xbc542553	-0.012948352
55	0x3b8881fa	0.004165885
56	0xbd6a9539	-0.057271216
57	0xbd4e6f7b	-0.050399285
58	0x3d87c7d0	0.06629908
59	0x3d397b80	0.045283794
60	0x3dcbc8d0	0.09950411
61	0x3d444453	0.04791672
62	0xbef0a0b8	-0.4699762
63	0xbc83c8d3	-0.016086971
64	0x3d59209b	0.05300961
65	0x3d57db9c	0.05269967
66	0x3d8cadbc	0.06869075
67	0x3da5841a	0.08081837
68	0x3c66fc7f	0.014098286
69	0xbd00af05	-0.03141691
70	0xbc5cf86e	-0.013486965
71	0x3c94d4a5	0.018167803
72	0x3f710375	0.941459
73	0x3ee61f3e	0.4494571
74	0x3d7e042c	0.062015697
75	0x3c91a460	0.017778575
76	0xbf6827fb	-0.90686005
77	0xbe99ffe5	-0.30078045
78	0xbdc2fa07	-0.09520345
79	0xbd2f583e	-0.042808764
80	0x3c73f95c	0.014890995
81	0xbe129d78	-0.14317882
82	0x3d231b04	0.039820686
83	0xbe1a7ec7	-0.15087424
84	0x3cd8ef00	0.026481152
85	0x3c382bbe	0.011240898
86	0xbcf8dd0f	-0.030378846
87	0x3c8d3f18	0.017242
88	0x3ca2f66e	0.019892897
89	0xbd2ca6fc	-0.042151436
90	0x3ccaffb3	0.02478013
91	0xbd15cade	-0.036570422
92	0xbfcd30c0	-1.6030502
93	0x3ff04506	1.8771064
94	0xbddc9688	-0.10770899
95	0x3e430523	0.19044928
96	0xbd348363	-0.044070613
97	0xbd3889f2	-0.04505343
98	0x3e84420e	0.25831646
99	0x3dadbd2c	0.08483347
100	0xbdb7463d	-0.08948944
101	0x3cbc30b7	0.022972448
102	0x3d67fb4f	0.05663615
103	0xbc5a7356	-0.013333162
104	0x3c182b9e	0.009287743
105	0x3dac0cc6	0.08400874
106	0xbe25e383	-0.1620007
107	0xbd9c0c67	-0.07619553
108	0xbdf3ec29	-0.11910278
109	0x3f283c96	0.65717447
110	0xbd124657	-0.035711613
111	0x3e758fe5	0.23980673
112	0x3c7b370e	0.01533295
113	0x3dac5ff6	0.084167406
114	0xbcfbb5fa	-0.030726422
115	0xbe0a3b37	-0.13499151
116	0xbc53a1d1	-0.012916998
117	0x3ca9ea46	0.020741593
118	0x3cdca3de	0.026933607
119	0xbc9572fd	-0.018243307
120	0xbcb8cc4c	-0.022558354
121	0xbcbcf5ad	-0.023066366
122	0x3d87301a	0.066009715
123	0xbf82dda1	-1.0223886
124	0xbe1022b5	-0.1407574
125	0x3f64a26f	0.89310354
126	0xbd641f17	-0.055693712
127	0x3e1eda67	0.15513001
128	0xbd815593	-0.0631515
129	0x3dbdcc30	0.09267461
130	0xbf1a006f	-0.6015691
131	0x3ebe2b65	0.37142482
132	0x3c89d2d4	0.016824163
133	0xbd44cf8c	-0.048049495
134	0xbbf5a241	-0.007496149
135	0xbd4e747c	-0.050404057
136	0xbe94270c	-0.2893604
137	0xbed72d86	-0.4202692
138	0xbcddf7a9	-0.027095633
139	0xbd746631	-0.05966777
140	0x3e93e89a	0.28888398
141	0x3f56f912	0.839738
142	0xbd41736a	-0.047229208
143	0x3e0dd4db	0.13850729
144	0xbcbc46a1	-0.022982897
145	0xbb313f61	-0.0027045833
146	0x3d5df972	0.054192968
147	0xbdbe0f3a	-0.09280248
148	0xbc3e34de	-0.011609284
149	0x3cd3b452	0.02584282
150	0x3c0d12d0	0.008610442
151	0x3c8ae20d	0.016953493
152	0xbf1e5a96	-0.61856973
153	0xbfa85cb4	-1.3153291
154	0x3d048c11	0.03236014
155	0x3c4f50bb	0.012653525
156	0x3f2c4963	0.6729948
157	0x3f989a0c	1.1922011
158	0x3d91aca2	0.07113005
159	0x3d7ff305	0.06248762
160	0xbcf3c8f1	-0.029758902
161	0x3eb59310	0.35463762
162	0xbe87c4f2	-0.26517445
163	0xbe5b6aba	-0.21427432
164	0xbd802574	-0.062571436
165	0xbbeb3dd1	-0.007179
166	0x3e194616	0.14968142
167	0x3cf8d08a	0.030372877
168	0xbf02798d	-0.5096672
169	0xbed721c5	-0.42017952
170	0x3e8f18c9	0.27948597
171	0xbe3c6bc5	-0.18400486
172	0xbe2b2693	-0.16713934
173	0xbcd59f5f	-0.02607697
174	0xbdec5c0e	-0.115409955
175	0xbe41e845	-0.1893626
176	0x3c6b8f71	0.014377461
177	0x3d306f3d	0.043074835
178	0x3bc3da81	0.0059769754
179	0x3dc636b6	0.09678404
180	0xbc66a7d5	-0.0140781
181	0xbbda49a9	-0.006661613
182	0x3c356335	0.011071016
183	0xbc41bbff	-0.011824607
184	0xbc5e2fa7	-0.013561166
185	0x3c08bc37	0.008345655
186	0x3e576db2	0.21037939
187	0x3f8ca8d8	1.0989027
188	0xbe425d01	-0.1898079
189	0xbf7fb0c7	-0.99879116
190	0xbc028053	-0.007965165
191	0xbd8181ab	-0.0632356
192	0x3ce45ead	0.027877176
193	0xbe79c5d0	-0.24391866
194	0xbaa3f30f	-0.001250835
195	0x3e544cd1	0.20732428
196	0xbc52e65a	-0.012872303
197	0xbd51c85c	-0.05121647
198	0xbc44f86e	-0.012022121
199	0x3bcf70ee	0.006330601
200	0xbd437d9c	-0.047727212
201	0xbd2d5acc	-0.04232292
202	0xbd44d5ce	-0.048055463
203	0x3c82a2fb	0.015946856
204	0x3e439431	0.190995
205	0x3e574adb	0.21024649
206	0xbb680e97	-0.0035409087
207	0xbf4e2d4d	-0.80537874
208	0xbcfc70c9	-0.030815499
209	0xbd4a0353	-0.049319576
210	0xbf0bb273	-0.54569167
211	0xbeb61be6	-0.3556816
212	0x3c84d4fd	0.016214842
213	0x3b0c9384	0.002145023
214	0x3cee8241	0.029114844
215	0x3d26c676	0.04071661
216	0x3ded7a1a	0.11595555
217	0x3eba506d	0.36389485
218	0xbe848c15	-0.25888124
219	0xbe318372	-0.17335299
220	0xbeccbd83	-0.39988336
221	0xbf210651	-0.62900263
222	0xbd66168b	-0.056173842
223	0xbe51d522	-0.2049146
224	0x3d3fdeba	0.046843268
225	0xbde2e925	-0.11079625
226	0x3ef5c406	0.48001117
227	0xbe45d1c7	-0.19318305
228	0xbce7a8c1	-0.02827871
229	0x3d4888c7	0.048958566
230	0xbc81c508	-0.015841022
231	0x3d3eb7da	0.046562053
232	0x3cd745cd	0.0262784
233	0x3cc3b924	0.023891993
234	0x3eba42b2	0.3637901
235	0xbef9102c	-0.4864515
236	0xbdf2f8c1	-0.11863852
237	0xbe29650e	-0.16542456
238	0xbd9cf69a	-0.07664223
239	0x3da4501b	0.080230914
240	0x3dc2ed68	0.09517938
241	0x3e0db6c3	0.1383925
242	0xbd61c3d2	-0.05511839
243	0xbb9d34ac	-0.0047975387
244	0x3c93067e	0.017947432
245	0xbb8b25c9	-0.0042464477
246	0xbcd5b0d3	-0.026085293
247	0x3a4726b9	0.00075970177
248	0xbb62e2ff	-0.0034620163
249	0xbd047e98	-0.03234729
250	0x3d38fc94	0.045162752
251	0x3d9fe6e8	0.07807714
252	0xbd79703a	-0.060898043
253	0xbc8d0a16	-0.017216723
254	0x3f0a3d62	0.5399991
255	0x3f251a3f	0.64493173

feature.0.bias f4 [64]
0	0xbe6d75da	-0.23189488
1	0xbe1f7c6e	-0.1557481
2	0x3ea1af75	0.31579176
3	0x3e893f5d	0.26806155
4	0x3d7ab531	0.061207954
5	0xbeeb1edd	-0.45921984
6	0x3e31b575	0.17354377
7	0x3e4d1030	0.20025706
8	0xbe98ef8e	-0.29870266
9	0xbdbf38ef	-0.09337031
10	0xbf1a0a1a	-0.60171664
11	0xbd9d82e7	-0.07690983
12	0xbee7c320	-0.45266056
13	0xbcda052e	-0.026613798
14	0xbe2246fa	-0.15847388
15	0xbf1b0219	-0.60550076
16	0xbe1d5a21	-0.15366413
17	0xbde51246	-0.11185126
18	0x3d907203	0.07052996
19	0x3e08c2c4	0.13355547
20	0x3c18fdde	0.00933787
21	0xbe10d3e2	-0.14143327
22	0x3e8afd19	0.27146223
23	0x3e970c92	0.29501778
24	0xbeb274a4	-0.34854615
25	0xbf0e0ac2	-0.55485165
26	0xbc8a26c5	-0.01686419
27	0x3b2c053a	0.0026248232
28	0xbc8e1f27	-0.017348839
29	0x3e800e48	0.25010896
30	0xbec5d1c6	-0.38636607
31	0xbe29d22a	-0.16584077
32	0x3d83bc9e	0.0643246
33	0x3ecd1aa3	0.40059385
34	0x3ebbe141	0.36695293
35	0x3c97c7ff	0.018527983
36	0x3c5f9ec0	0.013648689
37	0xbc56cbec	-0.013110142
38	0xbeabe4c2	-0.33572966
39	0x3e3f8c05	0.18705757
40	0x3db60b6c	0.08888897
41	0xbecf6476	-0.40506333
42	0x3cdc584f	0.026897578
43	0x3ddd3797	0.108016185
44	0xbea3c1d6	-0.31983823
45	0x3ece8805	0.4033815
46	0x3e96d7e7	0.29461595
47	0x3eab6716	0.33477086
48	0x3e1256d6	0.14290938
49	0xbd7b7af9	-0.061396573
50	0xbdfaa404	-0.12238315
51	0xbf016b4d	-0.50554353
52	0x3e82d69d	0.25554362
53	0xbe228bfc	-0.15873712
54	0xbf49ef55	-0.78880817
55	0xbd9d6421	-0.07685114
56	0x3eb154a0	0.34634876
57	0xbe4da52d	-0.20082541
58	0x3ce45d7d	0.02787661
59	0x3e830465	0.2558929
60	0x3da05155	0.07828013
61	0xc0151167	-2.3291872
62	0xbecf989b	-0.40546116
63	0x3db83c4f	0.08995878

feature.2.weight f4 [64, 64]
0	0xbf37d04a	-0.718022
1	0x3f16517a	0.58718073
2	0x3bdec46b	0.006798317
3	0xbeb21d14	-0.3478781
4	0xbdb70f4e	-0.08938466
5	0xbf2c021d	-0.67190725
6	0x3f1cfe4c	0.61325526
7	0xbe3292ca	-0.17438808
8	0xbe8db8dc	-0.276801
9	0x3edc0633	0.4297348
10	0xbd114f49	-0.035476003
11	0x3e8e0a51	0.27742246
12	0xbe81426a	-0.25245982
13	0x3ec62d89	0.38706616
14	0x3e85272f	0.26006457
15	0xbdad5813	-0.084640644
16	0x3e9f1f61	0.31078628
17	0x3f1efbc7	0.6210293
18	0xbecb2d0a	-0.396828
19	0x3f07c29c	0.53031325
20	0x3dc774a1	0.09739042
21	0x3e811ff1	0.25219682
22	0x3ea45fae	0.32104248
23	0x3e23e0d3	0.16003732
24	0x3e15a2df	0.14612912
25	0x3e2f750b	0.17134492
26	0xbeada902	-0.33918005
27	0xbd756d59	-0.059918735
28	0x3d89d07f	0.067292206
29	0x3dfcb9e5	0.12340144
30	0xbeaec913	-0.34137782
31	0x3e4ceb42	0.20011619
32	0xbf06f7e2	-0.5272199
33	0xbeb779e4	-0.35835183
34	0xbe8060ef	-0.25073954
35	0xbeb4db85	-0.3532373
36	0xbf0c3bd0	-0.54778767
37	0xbd7e038e	-0.06201511
38	0x3d413713	0.047171663
39	0x3f52e369	0.8237825
40	0x3ebb1533	0.3653961
41	0x3e567398	0.20942533
42	0xbdcc9e97	-0.09991186
43	0x3ed09344	0.40737355
44	0x3ebb23c2	0.3655072
45	0x3e58ddf8	0.21178424
46	0x3eb1bc82	0.34714133
47	0xbf1e143e	-0.6174964
48	0xbe47ef56	-0.19524893
49	0xbe8eec92	-0.27914864
50	0x3ea031a8	0.31287885
51	0xbde4740e	-0.11154948
52	0xbcb8486f	-0.022495477
53	0x3cb000e6	0.021484803
54	0xbe72197b	-0.23642533
55	0x3d0f9c07	0.03506091
56	0x3e5f6838	0.218171
57	0xbdb58536	-0.088632986
58	0xbe8e2729	-0.27764252
59	0xbf6ef12d	-0.93336755
60	0x3e78deeb	0.24303786
61	0x3b059b8c	0.0020386903
62	0x3e3b4053	0.18286256
63	0x3e85ac32	0.26107937
64	0xbdcb12d8	-0.099157035
65	0x3dd26a08	0.1027413
66	0xbb8d99d8	-0.004321318
67	0x3d71feef	0.059081014
68	0xbe029e4d	-0.127557
69	0xbe9f8cca	-0.311621
70	0xbd860f5b	-0.065458976
71	0x3efa90d8	0.48938632
72	0xbd892a5c	-0.066975325
73	0xbf6d5f1f	-0.9272327
74	0xbeaa862f	-0.333055
75	0xbcddf127	-0.02709253
76	0xbe927667	-0.2860596
77	0x3e0f357e	0.1398525
78	0xbc46dfec	-0.012138348
79	0xbe9cac6f	-0.30600306
80	0xbe9d6a0a	-0.30744964
81	0xbf7ed00d	-0.9953621
82	0xbf3edb4a	-0.7455336
83	0xbd67a3ad	-0.056552578
84	0xbebc9697	-0.3683364
85	0x3d7e171b	0.062033754
86	0x3ebfc683	0.3745614
87	0xbd543f41	-0.051818136
88	0xbefd1657	-0.49431106
89	0xbcc640a7	-0.02420075
90	0xbeacd28f	-0.33754393
91	0x3e519fb7	0.20471083
92	0xbdf5172b	-0.119673096
93	0x3ec5cabc	0.38631237
94	0x3ebd3ca0	0.36960316
95	0xbf4b60b7	-0.7944445
96	0xbfecc630	-1.8497982
97	0x3da6f24a	0.08151682
98	0xbebcab07	-0.36849234
99	0x3f03a092	0.51416886
100	0xbe7a46ab	-0.2444102
101	0x3f187caa	0.5956522
102	0x3e4e5fe8	0.20153773
103	0x3e47f81d	0.19528241
104	0x3f3be705	0.7339938
105	0x3d4548c4	0.048165098
106	0xbfb4c477	-1.4122456
107	0x3f28be6b	0.65915555
108	0xbe251d55	-0.1612447
109	0x3eaddcfc	0.3395766
110	0xbee76030	-0.45190573
111	0xbdd4ea83	-0.10396292
112	0xbf26ccd2	-0.6515628
113	0xbe068b26	-0.13139018
114	0xbfdce1db	-1.7256426
115	0xbead67c7	-0.33868238
116	0xbc133eab	-0.008987109
117	0x3e49d1b1	0.19708897
118	0xbe251231	-0.1612022
119	0xbec6e4a4	-0.38846314
120	0x3e5343ee	0.20631382
121	0x3c9dcc4b	0.019262454
122	0xbef93008	-0.48669457
123	0xbedbd22a	-0.4293378
124	0xbe8f857f	-0.28031537
125	0xbfd1c779	-1.6388999
126	0x3d388bc1	0.045055155
127	0xbf1535f7	-0.5828547
128	0x3e131327	0.14362775
129	0xbe7b1911	-0.24521281
130	0x3e48a1fe	0.19593045
131	0x3e51fe74	0.20507222
132	0xbe691093	-0.22760229
133	0xbf5f01bc	-0.8711202
134	0x3dd2b04b	0.102875315
135	0x3e2135a9	0.15743126
136	0xbab9be0a	-0.0014171016
137	0x3aad2b9c	0.0013211849
138	0xbe8eaaf3	-0.278648
139	0x3e215a07	0.15756999
140	0xbede1808	-0.4337771
141	0xbe1346b3	-0.14382438
142	0x3ee0bd81	0.4389458
143	0x3e46c710	0.19411874
144	0xbd3336fd	-0.043753613
145	0xbf34ab0a	-0.70573485
146	0xbc370766	-0.0111711975
147	0xbbc41795	-0.0059842565
148	0xbd341ce9	-0.043972883
149	0xbdbf8e51	-0.093533166
150	0x3f0e35e0	0.55550957
151	0xbdc6703e	-0.09689377
152	0xbe6ebe7f	-0.23314856
153	0x3f68f4ff	0.90998834
154	0x3e04f518	0.12984121
155	0x3e1c671e	0.15273711
156	0xbe58c560	-0.21169043
157	0xbe59364f	-0.21212123
158	0x3e168e63	0.14702754
159	0xbe9eb362	-0.30996233
160	0xbdac5ab0	-0.08415735
161	0x3ee58219	0.4482582
162	0x3eafa5a1	0.34306052
163	0xbecbe24e	-0.39821094
164	0xbdaee8da	-0.08540507
165	0xbea3b61f	-0.31974885
166	0xbf748e50	-0.9552965
167	0x3d05e8ae	0.032692604
168	0xbe1f6ee8	-0.15569651
169	0x3e93b3bf	0.28848073
170	0x3d82350b	0.063577734
171	0x3ceac30d	0.02865746
172	0xbfe43404	-1.7828374
173	0xbfed4f6f	-1.8539866
174	0x3e86c21e	0.26319975
175	0xbe66b3f3	-0.22529583
176	0xbc0e71a2	-0.008694084
177	0xbdcc473a	-0.09974523
178	0xbd998ceb	-0.07497581
179	0xbe47de31	-0.19518353
180	0x3d961624	0.07328442
181	0xbd9dee22	-0.07711436
182	0xbf361748	-0.71129274
183	0x3e8bafd9	0.272826
184	0x3e013ca0	0.12620783
185	0xbe8689f4	-0.26277125
186	0x3d820c1a	0.063499644
187	0x3e519066	0.2046524
188	0x3d8be58e	0.068308935
189	0x3de53882	0.11192419
190	0xbe2af7e9	-0.16696133
191	0x3deff098	0.117158115
192	0xbd6f9ebe	-0.058500998
193	0x3f1ba096	0.6079191
194	0xbf819b51	-1.0125524
195	0xbe9e2ec2	-0.30895048
196	0x3dc61780	0.09672451
197	0xbb5fd4b3	-0.0034153878
198	0xbdad9b18	-0.084768474
199	0x3e8c177c	0.27361667
200	0xbf8e96af	-1.1139735
201	0xbec6923b	-0.3878344
202	0xbc19e4b8	-0.00939291
203	0xbebf25fb	-0.37333664
204	0xbd718216	-0.05896195
205	0x3e8e7be4	0.27828896
206	0x3d4c731e	0.04991447
207	0xbec06671	-0.37578157
208	0xbe60e345	-0.21961696
209	0x3f01dc65	0.5072692
210	0xbf4abb1e	-0.7919177
211	0xbe8585c6	-0.26078624
212	0x3e8a55f2	0.27018696
213	0x3d7d0abd	0.06177782
214	0x3dda69d7	0.106647186
215	0x3e8710a8	0.26379895
216	0x3d8b45e1	0.06800438
217	0x3f1db747	0.61607784
218	0x3e0d9ca4	0.13829285
219	0x3e4c06d9	0.19924487
220	0x3e7e641c	0.24842876
221	0xbda268ed	-0.07930169
222	0x3da9d88f	0.082932584
223	0x3ca93d33	0.020659065
224	0x3e93b5be	0.28849596
225	0x3e8a4b38	0.27010512
226	0xbf412380	-0.75444794
227	0x3e2c91fb	0.16852562
228	0xbdcde12e	-0.10052715
229	0xbe8e877d	-0.27837744
230	0x3f3c461f	0.73544496
231	0xbcf47513	-0.029840982
232	0xbd02fc34	-0.0319788
233	0xbd0ecb2f	-0.03486174
234	0x3e1677ea	0.14694181
235	0x3f138725	0.5762809
236	0xbcd89eec	-0.026442967
237	0x3df0a08f	0.11749374
238	0xbef9d3a0	-0.4879427
239	0xbf215925	-0.6302665
240	0x3e8d53f8	0.27603126
241	0xbf2d9bd1	-0.6781588
242	0x3e80ad57	0.25132248
243	0x3ec2b119	0.3802574
244	0xbe81f688	-0.253834
245	0x3efa9b7f	0.4894676
246	0xbd915329	-0.0709594
247	0xbf59e6c3	-0.8511774
248	0x3dcb3027	0.09921294
249	0x3dcf5acd	0.10124741
250	0xbea7b618	-0.32756114
251	0xbe2f6145	-0.17126949
252	0xbdbdbf2a	-0.09264977
253	0x3f0ccd06	0.5500034
254	0xbc9dfdb0	-0.019286007
255	0x3cbe5022	0.02323157

feature.2.bias f4 [64]
0	0x3e568d07	0.20952235
1	0x3f315820	0.69275093
2	0x3f3f9336	0.74834
3	0x3e83177d	0.25603858
4	0x3f446bd1	0.76727015
5	0x3e6dfc79	0.23240842
6	0x3f55c1d6	0.83498895
7	0x3f8764a9	1.0577594
8	0x3eecd458	0.46255755
9	0x3e6bb51d	0.23018308
10	0x3e806ad1	0.25081494
11	0x3f3bc43f	0.7334632
12	0x3f344e3b	0.7043187
13	0x3f34a411	0.70562845
14	0x3f97ec32	1.1868956
15	0xbea3f39a	-0.3202179
16	0x3da93111	0.08261312
17	0x3f1affe0	0.60546684
18	0x3ef90c1e	0.48642057
19	0x3f11a65b	0.56894463
20	0x3f36f025	0.7146018
21	0x3f3aa3dd	0.72906286
22	0x3e8f6102	0.280037
23	0x3fa3d83c	1.2800364
24	0x3e91150d	0.28336373
25	0x3ead738a	0.33877212
26	0x3f6a55d6	0.91537225
27	0x3f10ddbc	0.5658834
28	0x3f032492	0.51227677
29	0x3f43d358	0.7649436
30	0x3e0217a8	0.12704337
31	0x3ea6e5ec	0.3259729
32	0x3f3d623f	0.73978037
33	0x3f15db04	0.58537316
34	0x3fb0db1c	1.3816867
35	0x3f526c97	0.82196945
36	0x3f5be2da	0.85893023
37	0x3f41eb77	0.75749916
38	0x3e5fa403	0.2183991
39	0x3e8ea26e	0.278583
40	0x3f3ee690	0.7457056
41	0x3f094d7f	0.53633875
42	0x3f199df2	0.6000663
43	0xbf3343cc	-0.70025325
44	0x3f035f32	0.5131713
45	0x3f3e835b	0.7441918
46	0x3e3603d3	0.17774896
47	0x3f10f5b9	0.56624943
48	0x3ef0c146	0.47022456
49	0x3f31975f	0.693716
50	0x3e9ca36e	0.30593437
51	0xbed4488e	-0.41461605
52	0x3fac29f4	1.3450303
53	0x3f4cd56a	0.80013144
54	0x3d71b246	0.059007905
55	0x3f53d04d	0.82739717
56	0x3f8a8a41	1.0823442
57	0x3e61ea41	0.22062017
58	0x3ed9f037	0.42566082
59	0x3f0d3982	0.55165875
60	0x3f13ee4a	0.57785475
61	0x3f342c38	0.7037997
62	0x3eb06c8d	0.34457818
63	0x3f34d9bf	0.70644754

feature.4.weight f4 [64, 64]
0	0x3e949982	0.29023367
1	0xbf0c69ab	-0.54848737
2	0x3dc46479	0.09589476
3	0xbe5cf415	-0.21577485
4	0xbd06c345	-0.032901067
5	0xbecc1557	-0.3986003
6	0x3edd51e2	0.43226534
7	0xbe70a844	-0.23501688
8	0x3f209f6e	0.6274327
9	0x3dee7969	0.11644251
10	0xbeacfc91	-0.33786443
11	0x3eafdf8c	0.3435024
12	0xbe91134c	-0.28335035
13	0xbefbcda3	-0.49180326
14	0xbdb932bb	-0.09042879
15	0xbbf1106f	-0.0073566954
16	0x3dcbfc30	0.0996021
17	0x3df492aa	0.119420364
18	0x3db7ffd9	0.08984346
19	0x3e7d156f	0.24715208
20	0xbe9f505f	-0.31116006
21	0xbe44cea4	-0.19219452
22	0xbe494069	-0.19653477
23	0x3f3825fc	0.7193296
24	0x3e247367	0.16059648
25	0xbe966a28	-0.29377866
26	0xbe93af52	-0.28844696
27	0xbe638691	-0.22219302
28	0x3d6bcfbd	0.05757116
29	0x3ecc320b	0.3988193
30	0x3c748152	0.0149234105
31	0x3e0344cc	0.12819213
32	0xbe6e93fb	-0.23298638
33	0x3f220985	0.63295776
34	0x3d8d7b26	0.06908254
35	0x3f17eab2	0.5934249
36	0x3ea36945	0.31916252
37	0xbe0fb8e6	-0.14035377
38	0x3e9a9ba7	0.30196878
39	0x3e3d022c	0.1845786
40	0xbe33ac10	-0.17546105
41	0xbf63f19c	-0.8904054
42	0x3d3eda1c	0.046594724
43	0xbea85325	-0.32875934
44	0xbdae1960	-0.08500934
45	0xb9c32c32	-0.00037226226
46	0xbe9cb7dc	-0.30609024
47	0xbe745a47	-0.23862563
48	0x3d01218b	0.03152613
49	0x3eedc778	0.46441245
50	0x3f17470f	0.590928
51	0x3e375608	0.17903912
52	0xbe00a985	-0.12564667
53	0x3de99b7a	0.11406608
54	0xbf00f5d6	-0.50375116
55	0xbe90fe0b	-0.2831882
56	0x3e990346	0.2988531
57	0x3f2ad6a7	0.66733783
58	0xbeaabb39	-0.33345965
59	0x3f8c8c4a	1.0980313
60	0xbf07e150	-0.53078175
61	0xbe776ab0	-0.24161792
62	0x3d16aebd	0.036787737
63	0xbc5c8f70	-0.013461933
64	0x3dd500ec	0.104005665
65	0xbe6be04c	-0.23034781
66	0xbfa8eaf1	-1.3196698
67	0xbebfb2a7	-0.37440988
68	0xbdfc9150	-0.12332404
69	0xbf1a7465	-0.60333854
70	0x3f2671c4	0.6501734
71	0x3f100abb	0.56266373
72	0xbdfbec61	-0.12300945
73	0x3c8182fa	0.015809525
74	0x3e70fc79	0.2353381
75	0xbf0a04cb	-0.53913563
76	0xbe8db6bf	-0.27678487
77	0x3e708d81	0.2349148
78	0x3f07e7d6	0.5308813
79	0xbe105016	-0.1409305
80	0x3db00e0c	0.08596429
81	0xbb6850d0	-0.0035448559
82	0x3f0db3b4	0.5535233
83	0x3b5ffd7f	0.0034178195
84	0x3f0abb67	0.54192203
85	0x3f6f1b2d	0.9340084
86	0xbe2c8bf6	-0.16850266
87	0xbe82485b	-0.25445828
88	0x3f0cb50b	0.5496375
89	0xbf493a1d	-0.786043
90	0xbd309d68	-0.043118864
91	0xbe1817c4	-0.14852816
92	0xbd956d55	-0.07296244
93	0xbf3d24e4	-0.73884416
94	0xbef586bb	-0.47954354
95	0x3ef6b8a6	0.4818775
96	0x3f5c95c3	0.8616602
97	0x3f586b41	0.84538656
98	0x3e938a88	0.28816628
99	0x3f470c71	0.7775336
100	0x3f02c81e	0.51086605
101	0xbdf1a40c	-0.117988676
102	0x3d053cb1	0.032528583
103	0xbe79b9a8	-0.24387228
104	0x3e6f4a09	0.23368086
105	0xbec286c5	-0.37993446
106	0x3ea4e01b	0.3220223
107	0xbd4a7e2d	-0.049436737
108	0x3a998ab4	0.001171431
109	0xbe507196	-0.2035583
110	0xbdb3eb88	-0.087851584
111	0x3da8e410	0.082466245
112	0xbe408f75	-0.18804725
113	0xbd9b5e6c	-0.07586369
114	0x3dc7b648	0.09751564
115	0xbdf8972e	-0.1213821
116	0xbf93874b	-1.1525663
117	0x3e5cefb5	0.21575816
118	0x3db12f1f	0.08651566
119	0x3eb12a0c	0.34602392
120	0xbe9ccd73	-0.30625495
121	0xbef83899	-0.4848068
122	0x3ba313bb	0.0049767173
123	0x3f12a890	0.57288456
124	0x3ed7f58b	0.42179522
125	0xbdc039a0	-0.09385991
126	0x3e85e075	0.2614781
127	0xbd9e381f	-0.07725548
128	0xbe91167e	-0.28337473
129	0xbeb011cf	-0.34388587
130	0xbe2495e8	-0.1607281
131	0xbce5705c	-0.028007679
132	0xbfc16735	-1.5109621
133	0xbf792d37	-0.9733462
134	0xbe4111f1	-0.188545
135	0xbec393a6	-0.38198584
136	0x3cea2960	0.028584182
137	0xbf27e98f	-0.6559076
138	0x3f04e498	0.51911306
139	0xbf91d18c	-1.1392074
140	0xbedee232	-0.43531948
141	0xbf0ab4d3	-0.54182166
142	0x3f42b7c2	0.7606164
143	0x3db2f7ed	0.08738694
144	0x3f38dc16	0.72210824
145	0xbfa3af6f	-1.2787913
146	0xbf87c03e	-1.0605543
147	0x3e1278a7	0.14303838
148	0xbe92ed41	-0.28696635
149	0x3dddbe51	0.108273156
150	0xbe002419	-0.1251377
151	0xbf874331	-1.056738
152	0x3ee047e2	0.43804842
153	0x3e140051	0.14453246
154	0xbe983db2	-0.2973457
155	0xbe96f2bc	-0.29482067
156	0xbf1acd1b	-0.60469216
157	0xbefada64	-0.48994744
158	0x3de1aa6d	0.11018834
159	0x3e8cb8d4	0.27484763
160	0xbf219763	-0.6312162
161	0xbd7b9b3c	-0.06142734
162	0xbde13316	-0.10996072
163	0x3e9f0d25	0.31064716
164	0xbf22ecd4	-0.6364262
165	0xbe7b9aa9	-0.24570717
166	0xbc85d606	-0.016337406
167	0xbdc43872	-0.095810786
168	0x3da68f17	0.08132761
169	0xbecbf811	-0.39837697
170	0xbe92a828	-0.28643918
171	0x3e3d174a	0.18465915
172	0xbe65a96c	-0.2242791
173	0x3eac9d10	0.3371358
174	0x3ee6ccfc	0.45078266
175	0x3ec2269c	0.37920082
176	0x3eaa362a	0.3324445
177	0xbf1e4301	-0.6182099
178	0xbe956c54	-0.2918421
179	0xbec7794c	-0.3895973
180	0x3dcc0f50	0.09963858
181	0xbf1fa04b	-0.6235396
182	0xbdbb15c0	-0.09135008
183	0xbc54eff4	-0.012996662
184	0xbe0bf50b	-0.13667695
185	0xbf48a756	-0.78380334
186	0x3edcd182	0.43128592
187	0x3f5563cb	0.83355397
188	0xbf12977b	-0.5726239
189	0x3bea6221	0.007152811
190	0x3d15493b	0.03644679
191	0x3e4f56c7	0.20247947
192	0xbf9647d9	-1.1740676
193	0xbfa784dc	-1.308742
194	0xbf38746e	-0.7205266
195	0xbe8a2cf3	-0.2698742
196	0xbeaa7ba5	-0.33297458
197	0x3ebea4fa	0.37235242
198	0x3f7b3df3	0.981414
199	0xbdb048ae	-0.086076126
200	0xbecb7fa6	-0.39745826
201	0xbda9e241	-0.08295108
202	0x3e9dc160	0.30811596
203	0xbf36870c	-0.71299815
204	0xbf77c269	-0.9678102
205	0xbf07b45a	-0.5300957
206	0x3f4d66b3	0.8023483
207	0xbcc80f77	-0.024421437
208	0x3ea96f10	0.33092546
209	0xbcfaaa88	-0.030598894
210	0xbcba197c	-0.02271723
211	0x3f03387e	0.51258075
212	0x3ec6a8ac	0.3880056
213	0xbe3dff30	-0.18554378
214	0xbed8a59e	-0.42313856
215	0xc0014652	-2.019917
216	0x3e895820	0.26825047
217	0xbf4734b9	-0.77814823
218	0x3ebeaeef	0.3724284
219	0x3f084bdb	0.53240746
220	0xbf04fd27	-0.5194878
221	0xbf5c42b2	-0.8603927
222	0x3ea958cc	0.3307556
223	0xbf8102d9	-1.0078994
224	0xbdc92c52	-0.098229066
225	0xbf274d3a	-0.65352213
226	0x3ec1580f	0.37762496
227	0x3db51517	0.08841913
228	0xbd85307c	-0.06503388
229	0xbea930ac	-0.33044946
230	0xbe163bbd	-0.14671226
231	0x3d98772a	0.07444604
232	0xbe4f5642	-0.20247748
233	0xbec760db	-0.38941082
234	0xbf02c2e4	-0.5107863
235	0xbf16a6ae	-0.58848083
236	0xbde2ff9e	-0.11083911
237	0xbe2db699	-0.16964187
238	0x3ee8bd64	0.45456994
239	0x3effe26e	0.4997744
240	0x3e2b0ecc	0.16704863
241	0x3f4782b4	0.7793381
242	0xbf38a706	-0.7212986
243	0x3eac81ff	0.3369293
244	0xbfb0ec50	-1.3822117
245	0x3c820dfd	0.01587581
246	0x3ef79867	0.4835846
247	0xbdf2a572	-0.118479624
248	0xbe8cc21e	-0.2749185
249	0xbdec4ed7	-0.11538475
250	0xbdf2bfa7	-0.11852961
251	0x3f5b7fb8	0.8574176
252	0xc015142d	-2.3293564
253	0xbd50cb4e	-0.050975136
254	0xbe6742d7	-0.22584091
255	0x3eafa745	0.34307304

feature.4.bias f4 [64]
0	0x3f7927ca	0.9732634
1	0x3f8b3589	1.0875713
2	0x3f17aee4	0.59251237
3	0xbdc99356	-0.09842555
4	0x3f266d5a	0.6501061
5	0x3f29e386	0.663628
6	0x3e7b1b33	0.24522094
7	0x3fa8379a	1.3141968
8	0x3ec44a38	0.38337874
9	0x3f208f94	0.6271908
10	0x3ef87665	0.48527828
11	0x3f5f110e	0.871354
12	0x3edcbe30	0.43113852
13	0x3f0c6791	0.5484553
14	0x3f3d3da8	0.73922205
15	0xbdf9efdd	-0.122039534
16	0x3f8bc4c4	1.0919423
17	0x3eaaab0d	0.33333626
18	0x3e1105cf	0.14162372
19	0x3f8a6c92	1.0814383
20	0x3f5f8c75	0.87323695
21	0x3f5407c3	0.82824343
22	0x3f76060c	0.96102977
23	0x3eddda2d	0.43330517
24	0x3ed74e08	0.4205172
25	0x3f3d8c6a	0.7404238
26	0x3df5550c	0.11979112
27	0x3f074716	0.52842844
28	0x3f2156fe	0.63023365
29	0x3f9f6a1c	1.2454257
30	0x3f11db56	0.56975305
31	0x3fa63015	1.2983423
32	0x3e4f49c3	0.20242982
33	0x3d803aa7	0.06261187
34	0x3f87b410	1.0601826
35	0x3f42dbe3	0.7611677
36	0xbd7cb16d	-0.061692644
37	0x3fcd8c7f	1.6058501
38	0x3f85e5ed	1.0460793
39	0x3f2aa1f4	0.6665337
40	0x3ee542b5	0.44777456
41	0x3f60dd75	0.87837917
42	0x3ed4fae6	0.4159767
43	0xbe617a50	-0.22019315
44	0x3f983b36	1.189307
45	0x3f6a3460	0.9148617
46	0xbe857b96	-0.2607085
47	0x3fd25502	1.6432192
48	0x3dcc85e0	0.09986472
49	0x3f7ca27d	0.9868544
50	0x3fa1defd	1.2646176
51	0x3e56218b	0.20911233
52	0x3f2918e0	0.6605358
53	0x3edbd520	0.4293604
54	0x3e4059be	0.18784234
55	0xbdcf9d6a	-0.10137446
56	0x3f6027cb	0.8756072
57	0x3fc977c5	1.5739676
58	0x3f1e540e	0.6184701
59	0x3fec2333	1.8448242
60	0x3f573130	0.8405943
61	0x3f8b7f58	1.0898237
62	0x3f3a6c66	0.7282165
63	0x3f879c2d	1.0594536

log_std.weight f4 [5, 64]
0	0xbbf19998	-0.007373046
1	0x3c2d1feb	0.010566692
2	0xbb44aacb	-0.0030009027
3	0x3d0310f0	0.031998575
4	0x3d248cda	0.04017339
5	0x3c8b52fb	0.017007342
6	0xbc55bfcf	-0.013046219
7	0xbb95e140	-0.004573971
8	0xbc87bc55	-0.016569296
9	0x3cea6e50	0.028617054
10	0xbd858cef	-0.065210216
11	0xbc2ab29f	-0.010418563
12	0xbc77e91b	-0.01513126
13	0xbc9b9bf1	-0.018995257
14	0xbd061f33	-0.032744598
15	0x3b7ab22d	0.0038253174
16	0xbcbffe73	-0.02343676
17	0x3ced8457	0.028993769
18	0xbc486f97	-0.012233636
19	0x3c98315f	0.01857823
20	0xbc8d754e	-0.01726785
21	0x3cb1f64b	0.021723887
22	0x3b51b45f	0.0031998379
23	0x3ac734aa	0.001519819
24	0xbc9bb640	-0.019007802
25	0x3c1ab866	0.009443378
26	0x3e512a1d	0.20426221
27	0xbcf1a455	-0.029497305
28	0x3bec487c	0.0072107892
29	0x3c1b4ef6	0.009479275
30	0xbbc98815	-0.0061502554
31	0x3ac0e95f	0.0014717988
32	0xbceb00a5	-0.02868683
33	0x3afd6b57	0.0019334358
34	0x3c1f51ce	0.009724094
35	0x3b62ba34	0.003459585
36	0x3cd8e966	0.02647848
37	0xbc778326	-0.015106952
38	0xbc6beddb	-0.014399971
39	0x3c22e452	0.009942131
40	0x3b2d9e96	0.002649223
41	0xbadc0bfa	-0.0016788237
42	0x3c9f1eb0	0.019423813
43	0x3d973c36	0.07384531
44	0x3d030b0b	0.031992953
45	0xbcdb5d3d	-0.026777858
46	0x3d1ff1fa	0.039049126
47	0x3c899e17	0.016799016
48	0xbc8e700a	-0.017387409
49	0x3d8d41f5	0.06897346
50	0xbced4738	-0.028964624
51	0x3d2446e4	0.04010667
52	0x3c2db4c0	0.010602176
53	0x3be8be90	0.007102795
54	0x3c76b80d	0.01505853
55	0xbc2e0469	-0.010621169
56	0xbb1a2b45	-0.0023524326
57	0xbc2a6b17	-0.010401509
58	0xbc3d845f	-0.011567204
59	0xbd3f89f6	-0.04676243
60	0xbd125d43	-0.035733473
61	0xbd045de2	-0.032316096
62	0xbd1e4b98	-0.03864631
63	0x3cbe469b	0.023227027
64	0xbaf07f5e	-0.0018348505
65	0xbcd22806	-0.02565385
66	0xb9217246	-0.00015396727
67	0x3d486c30	0.0489313
68	0x3d2df38d	0.042468596
69	0x3c2dc3fd	0.010605809
70	0xbcd62211	-0.026139291
71	0xbd643068	-0.055710226
72	0x3c3ca466	0.011513805
73	0xbb6a416b	-0.0035744559
74	0xbc55e4ac	-0.013055008
75	0xbbc81c34	-0.0061068777
76	0xbd00b738	-0.03142473
77	0xbd8c438a	-0.068488196
78	0x3ce47a07	0.027890218
79	0xbc810a0e	-0.015751865
80	0x3d509593	0.050923895
81	0x3bea5e73	0.0071523725
82	0x3d63a548	0.055577546
83	0x3cb82b93	0.022481715
84	0x3e15a5f1	0.14614083
85	0xbc5f260b	-0.01361991
86	0xbd28b331	-0.041186515
87	0x3dc120b5	0.094300665
88	0x3d20f444	0.03929545
89	0x3d5cec7a	0.05393646
90	0x3e444a98	0.1916908
91	0xbb88c6dd	-0.004174097
92	0x3d550f42	0.052016504
93	0xba28aaa7	-0.00064341206
94	0xbc528ea8	-0.012851395
95	0xbe3ccce6	-0.18437538
96	0xbcaf3e74	-0.021392085
97	0x3d1b44be	0.037907355
98	0x3da45820	0.08024621
99	0x3d1ba2b8	0.037996978
100	0x3ce22547	0.027605666
101	0x3d32c26e	0.043642454
102	0xbc739df4	-0.014869202
103	0x3c88fbb7	0.01672159
104	0x3bc6ca15	0.0060665705
105	0xbccc5ac9	-0.024945633
106	0xbca0b7d3	-0.019618904
107	0xbe01f094	-0.1268943
108	0x3c39b807	0.011335379
109	0xbc8448a0	-0.016147912
110	0x3ba882da	0.005142552
111	0xbc8105c9	-0.015749829
112	0xbd3454de	-0.04402625
113	0x3df38fc2	0.11892654
114	0xbd333c42	-0.04375864
115	0x3ddd65f0	0.10810459
116	0x3c34a8db	0.011026586
117	0x3c52d0f0	0.012867197
118	0x3d91bed3	0.07116475
119	0xbd06b79f	-0.03288996
120	0x3c5adf3b	0.013358886
121	0xbe623976	-0.22092232
122	0x3ea09793	0.31365642
123	0xbc29a597	-0.010354421
124	0xbd46f80a	-0.048576392
125	0xbdc9273f	-0.09821939
126	0xbcc45d20	-0.023970187
127	0x3d100893	0.035164427
128	0x3c9f007d	0.019409413
129	0xbc9f49ef	-0.019444434
130	0xbbb1ead6	-0.005429606
131	0x3de3f070	0.11129844
132	0x3d80c42b	0.06287416
133	0x3dde6ae2	0.1086023
134	0xbda59b75	-0.08086292
135	0xbc4039d3	-0.011732536
136	0x3b91525c	0.004434867
137	0x3e0de0b9	0.13855256
138	0xbcb2ddf1	-0.021834346
139	0x3d14e326	0.036349438
140	0xbce66fd0	-0.028129488
141	0xbd6dd6a6	-0.058066033
142	0x3d41dfe1	0.04733265
143	0xbbcd3b0e	-0.0062631434
144	0x3e121f50	0.14269757
145	0x3cc7a70d	0.024371648
146	0xbd45ea72	-0.048319288
147	0x3d018966	0.031625174
148	0x3e0ebe0c	0.13939685
149	0x3bd06b2f	0.0063604335
150	0x3cb69021	0.022285523
151	0x3c8993ca	0.016794104
152	0x3cc3d05b	0.023903063
153	0xbc822e3a	-0.015891183
154	0x3e500c01	0.20317079
155	0x3bed0b93	0.007234046
156	0x3d7e9e9c	0.06216298
157	0xbce0e063	-0.027450746
158	0xbce7bf0b	-0.028289339
159	0xbe10c2c6	-0.141368
160	0xbd004e97	-0.03132495
161	0xbb8b786b	-0.0042562983
162	0xbdd0b594	-0.10190883
163	0xbb9eacee	-0.004842392
164	0xbbfc2753	-0.0076951175
165	0x3d894028	0.0670169
166	0x3d260bb5	0.04053851
167	0xbcc3c7ee	-0.023899045
168	0x3a570c88	0.00082034664
169	0x3c222980	0.00989759
170	0xbd48fe6d	-0.049070764
171	0xbce13777	-0.027492268
172	0xbc2129d3	-0.009836632
173	0xbc917dc9	-0.017760174
174	0x3aa856d6	0.0012843262
175	0xbc449ba1	-0.011999995
176	0xbc4b1d7b	-0.012397165
177	0x3d656bca	0.056011
178	0x3c5d1b99	0.013495349
179	0x3d99099c	0.07472536
180	0x3d7f2dd2	0.062299557
181	0x3c87fa43	0.016598826
182	0x3d9c260c	0.07624444
183	0xbde4677a	-0.11152549
184	0x3c2478d2	0.010038571
185	0xbe6281f9	-0.22119893
186	0x3eac3a6f	0.3363833
187	0x3c119407	0.00888539
188	0x3c2f22c3	0.01068944
189	0xbdad5a72	-0.08464517
190	0xbd1b9c40	-0.03799081
191	0x3c36a7cd	0.011148405
192	0x3b4ae6ba	0.0030960278
193	0x3e7f212e	0.24915001
194	0x3b555c0a	0.003255608
195	0x3ce6774e	0.02813306
196	0x3d51cd74	0.051221326
197	0xbaac73e8	-0.0013157101
198	0xbbf3d9f5	-0.007441754
199	0xba59230a	-0.00082831143
200	0xbc10d6be	-0.008840261
201	0x3cb8b6b2	0.022548053
202	0xb96452d0	-0.00021774624
203	0x3da75508	0.08170515
204	0xbd8f6189	-0.07001025
205	0x3bcbbd0a	0.0062176036
206	0xbcda76a8	-0.026667908
207	0x3bf695f5	0.0075252005
208	0x3d1f6607	0.03891566
209	0xbc27e473	-0.010247338
210	0xbd6f42cf	-0.058413323
211	0x3d71ee55	0.05906518
212	0xbba8acb3	-0.0051475405
213	0x3caacda2	0.020850006
214	0x3c97adf2	0.01851556
215	0xbc361acb	-0.011114786
216	0xbdb3ebac	-0.08785185
217	0xbd8ca875	-0.06868068
218	0x3e9a7144	0.3016454
219	0x3a844bc0	0.0010093376
220	0x3d8502f5	0.06494705
221	0x3d774715	0.060370523
222	0x3bedba80	0.0072548985
223	0xbbaa731c	-0.0052017104
224	0x3daaa17f	0.08331584
225	0x3d6a599e	0.05721437
226	0xbc28a448	-0.010293074
227	0xbbfd6bf7	-0.0077338177
228	0xbd133e17	-0.035947885
229	0x3bb7b39f	0.0056061293
230	0xbc4bdcc0	-0.012442768
231	0x3ced3998	0.028958127
232	0x3c06b672	0.008222209
233	0x3c0771fa	0.00826692
234	0x3d4fb7a1	0.05071223
235	0x3daae597	0.08344572
236	0x3dcb6874	0.09932032
237	0xbb95918f	-0.004564471
238	0x3e067b69	0.13133015
239	0x3c00e952	0.007868128
240	0x3cd0f984	0.025509603
241	0x3e0f8633	0.14016037
242	0x3e8f1f8d	0.2795376
243	0x3c6aef02	0.01433921
244	0x3cf1b02c	0.02950295
245	0x3c866f9b	0.01641064
246	0x3bf83794	0.007574985
247	0x3d3ca073	0.046051454
248	0x3b628337	0.0034563073
249	0x3b99eb6f	0.0046972553
250	0xbcc6113e	-0.024178144
251	0xbef18279	-0.47169855
252	0x3d4568da	0.048195697
253	0xbd33dc5d	-0.043911327
254	0xbd4124a8	-0.0471541
255	0x3e709ff8	0.23498523

log_std.bias f4 [5]
0	0xbe916e6a	-0.28404552
1	0xbefb0763	-0.49029073
2	0xbf2703ce	-0.6524018
3	0xbf2bb01e	-0.6706561
4	0xbf441657	-0.7659659

mu.weight f4 [5, 64]
0	0xbc92de4e	-0.017928269
1	0x3d9ff6e3	0.07810762
2	0xbc904879	-0.017612683
3	0x3d714106	0.0588999
4	0xbeace33f	-0.33767125
5	0x3d1141c9	0.03546313
6	0xbd75804c	-0.059936807
7	0x3ef00783	0.4688073
8	0xbe14b8f4	-0.14523679
9	0x3de8030c	0.11328706
10	0x3e564e3b	0.2092828
11	0xbf0259a9	-0.5091806
12	0xbe56a9ee	-0.2096326
13	0x3d8a386d	0.067490436
14	0xbd630b78	-0.05543086
15	0xbe2c9000	-0.16851807
16	0xbe5570bc	-0.20843786
17	0xbdbe78c2	-0.093003765
18	0xbd54bce8	-0.051937968
19	0x3e2c0d85	0.16802032
20	0x3db02eba	0.086026624
21	0x3e286618	0.16445196
22	0xbdfd7513	-0.12375846
23	0xbd3d91c2	-0.046281584
24	0x3dad66d8	0.084668815
25	0x3de0bc4b	0.10973414
26	0xbf03692d	-0.5133236
27	0x3f08dd62	0.53462803
28	0xbe073d8c	-0.13207072
29	0x3dd9046e	0.10596548
30	0x3e7864b5	0.24257167
31	0xbde80807	-0.11329656
32	0x3cf0ae22	0.029379908
33	0xbd3d0b9f	-0.04615366
34	0xbc9adff9	-0.018905627
35	0x3e0f29d1	0.13980795
36	0xbda57c2f	-0.08080327
37	0xbe478cae	-0.19487259
38	0xbd966bf8	-0.07344812
39	0x3da4fae2	0.080556646
40	0xbf0eb1b5	-0.5573991
41	0x3e21821b	0.15772288
42	0x3c9f183d	0.019420737
43	0x3e48ac3b	0.1959695
44	0xbdaf466c	-0.08558354
45	0xbea9e5b4	-0.33183062
46	0xbe8f81bb	-0.28028664
47	0x3efdb11c	0.49549186
48	0x3cda4490	0.026644021
49	0x3b36078f	0.0027775501
50	0x3d38ae8c	0.045088336
51	0x3cc19973	0.02363274
52	0x3dabb3a7	0.08383875
53	0xbdb51aa7	-0.08842974
54	0x3e90a708	0.28252435
55	0xbe1651fd	-0.14679714
56	0x3ba262ae	0.004955611
57	0xbd8d271c	-0.06892225
58	0x3c2ed75f	0.010671466
59	0x3d93818c	0.072024435
60	0x3e9616ce	0.29314274
61	0xbeaa533a	-0.33266622
62	0x3e2c2448	0.16810715
63	0xbe64372e	-0.22286674
64	0xbec6def9	-0.3884199
65	0xbdb9e092	-0.090760365
66	0xbb7df059	-0.0038747995
67	0x3ed13058	0.40857196
68	0xbe42a882	-0.19009593
69	0xbf1eafa8	-0.6198678
70	0x3dbebf0d	0.09313784
71	0xbd23a34a	-0.039950646
72	0x3f5692c5	0.838177
73	0x3f21f61a	0.63266146
74	0xbc27f07c	-0.010250207
75	0x3dc8de85	0.09808067
76	0xbe18e41a	-0.14930764
77	0xbebb8087	-0.36621496
78	0xbf5612ce	-0.83622444
79	0xbe722a4a	-0.23648944
80	0xbf2b72ff	-0.66972345
81	0xbe3430ed	-0.17596789
82	0x3fbaca46	1.4592979
83	0xbca8e7f5	-0.020618418
84	0xbf19ac02	-0.6002809
85	0xbdcbde90	-0.0995456
86	0xbf0ea3c2	-0.55718625
87	0xbf28ed37	-0.6598696
88	0x3d80fdc2	0.062984005
89	0xbf9ca8b3	-1.2238983
90	0x3dd10d1e	0.1020758
91	0xbc55db63	-0.013052794
92	0xbf345b97	-0.70452255
93	0xbd60834d	-0.05481272
94	0xbe542164	-0.20715863
95	0x3ee5a1c4	0.4484998
96	0x3efc221c	0.49244773
97	0xbc9dea42	-0.019276742
98	0x3f07d43f	0.53058237
99	0xbf1f4838	-0.6221957
100	0x3e6a7228	0.2289511
101	0x3ee303c8	0.44338822
102	0x3d6f2f02	0.05839444
103	0xbe1d8090	-0.15381074
104	0x3e811136	0.25208443
105	0x3efe8697	0.4971206
106	0xbda477b6	-0.080306455
107	0xbeea8d1a	-0.45810777
108	0x3e4b4b85	0.19853027
109	0x3d994153	0.07483163
110	0x3e04f5bb	0.12984364
111	0xbcea46eb	-0.02859827
112	0x3d63481a	0.055488683
113	0xbe9f14a2	-0.3107043
114	0x3d415913	0.04720409
115	0x3f770c49	0.9650312
116	0xbd19e181	-0.037568573
117	0x3e223508	0.15840542
118	0x3ef3b17d	0.4759635
119	0x3fb0ee73	1.3822769
120	0x3d42feb9	0.047606204
121	0x3f8dfabc	1.1092143
122	0xbee91deb	-0.45530638
123	0xbd4eab85	-0.050456543
124	0xbece7c6a	-0.40329295
125	0x3e10263d	0.14077087
126	0xbcf710f4	-0.030159451
127	0x3e4264a5	0.18983705
128	0x3eb758ea	0.35810024
129	0x3d6693b1	0.056293193
130	0xbeee7c64	-0.46579278
131	0xbf3a6576	-0.7281107
132	0x3db6b49d	0.08921168
133	0x3f44ab06	0.7682346
134	0xbe06b37f	-0.1315441
135	0x3db472fc	0.08810994
136	0xbf0515a5	-0.5198615
137	0x3eafc062	0.34326464
138	0x3dd346a8	0.10316211
139	0xbef805e0	-0.48441982
140	0x3e58b949	0.2116443
141	0x3eb7ca7d	0.35896674
142	0x3eff8aa2	0.49910456
143	0x3e1b9476	0.15193352
144	0x3f4cfec6	0.80076253
145	0x3dc14dec	0.094386905
146	0xbf628aeb	-0.8849322
147	0x3d8800d4	0.06640783
148	0xbf0b6130	-0.5444517
149	0xbd260850	-0.04053527
150	0x3ef9fc78	0.4882543
151	0x3e3ef179	0.18646802
152	0xbdd02914	-0.10164085
153	0xbd10526a	-0.035234846
154	0xbcfc6c7a	-0.030813444
155	0xbd1b93b8	-0.037982672
156	0x3ed9880b	0.42486605
157	0x3db2a213	0.087223195
158	0xbd594547	-0.053044584
159	0xbed71869	-0.4201081
160	0xbcaa7883	-0.020809418
161	0x3e303310	0.17206979
162	0x3f08a32c	0.5337398
163	0x3d87cf7b	0.06631371
164	0xbe814c7d	-0.25253668
165	0xbf3c479c	-0.7354677
166	0x3e31f4b1	0.17378499
167	0x3cbcf57b	0.023066273
168	0x3d997b9a	0.07494278
169	0x3e56058f	0.20900558
170	0xbe0a0040	-0.13476658
171	0x3ef38447	0.47561857
172	0xbe0548bf	-0.13016032
173	0x3b8a8ac6	0.004227969
174	0x3ce5a11c	0.028030924
175	0x3c8a30d2	0.016868982
176	0x3be2c257	0.00692014
177	0x3f4dc785	0.8038257
178	0x3dfc4480	0.12317753
179	0xbf26b988	-0.6512685
180	0x3d9b35d8	0.07578629
181	0xbd60efbb	-0.054916125
182	0xbeae322b	-0.3402265
183	0xbf938623	-1.152531
184	0xbd68b337	-0.056811538
185	0xbeac5c01	-0.33663943
186	0xbf5604f2	-0.83601296
187	0xbd551cb9	-0.052029345
188	0x3f2c4796	0.6729673
189	0xbeaa8201	-0.3330231
190	0x3d85f0b2	0.065400496
191	0xbd15b68a	-0.036551036
192	0x3e04b178	0.12958324
193	0xbefd53a4	-0.49477875
194	0xbd0ce60f	-0.03439909
195	0xbe0b87a8	-0.13625968
196	0xbe30bf53	-0.17260484
197	0xbc13f262	-0.009029957
198	0xbf43e919	-0.76527554
199	0x3bfb76f7	0.007674094
200	0x3daddf7a	0.084898904
201	0x3d1befb9	0.038070414
202	0x3ebaff2c	0.36522806
203	0xbe2ef05d	-0.17083879
204	0x3d2c53d8	0.042072147
205	0x3f25d7d4	0.6478245
206	0xbcc97ccd	-0.024595642
207	0x3ec104a3	0.3769885
208	0x3e0c3ac9	0.136943
209	0xbe4e6816	-0.20156893
210	0x3d95d787	0.07316499
211	0x3f9fb0bc	1.247581
212	0xbdd5250c	-0.10407457
213	0x3e75c66b	0.24001472
214	0x3d0f9fb1	0.035064403
215	0xbe0de0e6	-0.13855323
216	0x3f3946de	0.7237376
217	0x3d916fc0	0.07101393
218	0x3f27ea38	0.65591764
219	0x3bf377ac	0.0074300375
220	0xbbd384c9	-0.006455038
221	0x3f4757b9	0.7786823
222	0xbf89cc64	-1.07655
223	0xbe2fb8c4	-0.17160326
224	0xbdd030cc	-0.10165557
225	0xbea53bd8	-0.3227222
226	0x3d597ebf	0.05309939
227	0x3e00febf	0.12597178
228	0x3eeabb30	0.45845938
229	0x3ca3e3b6	0.020006042
230	0xbed5c1c7	-0.41749403
231	0x3f0c102d	0.5471218
232	0xbe0b05c9	-0.13576426
233	0xbc9f89b6	-0.019474845
234	0x3f87ab7b	1.0599207
235	0xbe91f70c	-0.28508794
236	0x3f3cd32f	0.7375974
237	0xbcb91100	-0.022591114
238	0xbf8f802a	-1.1210988
239	0x3b7f2e3c	0.003893747
240	0x3e6aab2e	0.22916862
241	0x3e19be52	0.15014008
242	0xbf81fd1d	-1.0155369
243	0xbd9a31b4	-0.07529011
244	0xbe60dbea	-0.2195889
245	0xbe67fb79	-0.22654523
246	0xbe28d6f6	-0.16488251
247	0x3cf72507	0.030169023
248	0xbc9765a3	-0.018481081
249	0x3df39766	0.11894111
250	0x3d8168e8	0.063188374
251	0xbf6d6ef0	-0.927474
252	0x3e0501c4	0.12988955
253	0x3d1324aa	0.035923637
254	0xbde9c4fe	-0.114145264
255	0x3ec06368	0.3757584

mu.bias f4 [5]
0	0xbebeb805	-0.3724977
1	0xbf142eae	-0.5788373
2	0x3f439422	0.7639791
3	0x3f146a0f	0.5797433
4	0xbf024c42	-0.5089761
