masac/model/simple_tag/agent_0/987_critic_params.pth (torch, 115263 bytes, 14 tensors)

critic1.0.weight f4 [64, 82]
0.18846187 0.2579784 0.23810455 -0.05270946 0.026202045 -0.060555216 0.025680216 -0.03784932
-0.046389762 -0.014138296 0.006061732 0.08873586 0.019248229 0.019386528 0.037588704 0.10039423
0.48827273 0.076203585 0.13777606 -0.21564592 0.0746131 0.06308551 0.017489448 -0.075393535
0.13696936 -0.13496555 -0.008738886 0.1250997 -0.14653137 -0.023740586 0.042729672 0.025079297
0.055878777 -0.051545043 0.45187327 0.011068036 -0.08461964 0.18894143 -0.060307443 0.13096675
0.07190626 -0.24492903 -0.08884643 -0.12616104 -0.19672972 0.20575221 0.26838675 0.033107996
0.10044638 -0.08084836 0.34673852 -0.109680995 -0.2227073 -0.16054787 -0.036962647 -0.037454028
-0.0043981527 -0.17683777 0.040863425 -0.07830376 -0.14392847 -0.09691129 -0.027857922 0.010245718
-0.029564459 0.007697052 -0.100645356 -0.039972365 0.1301647 -0.122643 0.052370187 -0.0200039
-0.0005921986 0.03517999 -0.094728686 -0.0012333158 0.026934344 0.009746877 0.05919007 -0.031025466
-0.048027802 0.08636147 0.029874507 -0.009071885 0.15796539 -0.055374984 -0.11936222 -0.120308384
-0.1409157 -0.11736901 0.14292794 0.055385295 -0.25817212 -0.5142787 0.43640178 0.5118083
0.08899128 0.08685839 0.041140713 0.08198677 -0.007888048 -0.08621483 0.017476343 0.052202716
0.05260626 0.18838537 0.10040443 0.0019353942 -0.4346221 -0.74470425 0.45448086 0.5668012
0.17095226 0.09643966 -0.6326488 -0.9328463 -0.5590334 -0.6633219 0.56124455 0.609448
0.379563 0.26926145 0.33831033 0.4974351 0.4214237 0.6368329 2.2185078 3.1601071
0.12507294 0.079938285 0.17982247 0.3851177 0.35851583 0.73307127 -0.47182232 -0.5215195
-0.2929709 -0.34613475 -0.3210181 -0.5372001 -0.31556273 -0.5139772 -2.3392332 -3.2234998
-0.018674266 0.006380559 0.004010923 -0.020339288 -0.019888924 0.007000306 -0.0012472391 -0.0075272634
0.028078996 0.005315868 0.0072674775 -0.19776769 0.20478885 -0.21986322 0.3908468 0.00086304295
0.2944679 -0.2592067 0.32137543 -0.34487498 -0.16465513 0.010788509 -0.09455039 0.056240108
0.14836583 0.071987726 0.069090165 0.24255024 0.41524667 0.42455313 -0.12397198 0.1357862
-0.4676941 -0.34989148 -0.18517126 -0.07946141 0.6619561 0.50088954 0.64600724 0.30016932
-0.50716025 -0.24232183 -0.29867798 -0.16249843 -0.5553445 -0.19692387 -0.574491 -0.4481279
-1.6931252 -1.2937421 -0.06409896 -0.308538 -0.0001179632 0.063776925 -0.082185246 -0.035838835
0.036369704 -0.04367221 -0.095369 -0.10387986 -0.23411687 0.15570019 0.36235958 0.38226086
-0.5321558 -0.35652956 -0.21423417 0.052449696 -0.23187926 -0.26428017 -0.45315698 -0.28902018
0.32078472 0.21232213 0.31585497 0.030134158 0.45099992 0.5366876 1.5502949 1.3949505
0.3984621 0.4839909 -0.009522455 -0.084435716 0.050844915 -0.0100188255 -0.026249865 -0.017988905
0.30120137 -0.3285288 0.2674221 -0.16249219 0.018240666 0.042905934 0.044522732 -0.048573215
-0.035280973 0.05114359 -0.32166234 0.4508032 -0.42895842 0.39768547 -0.43234512 0.507688
-0.61093754 0.37124908 0.34712628 -0.3015504 0.23688658 -0.3528718 0.46267602 -0.55753756
00000000: 26fc 403e bf15 843e aed1 733e e0e5 57bd
00000010: aca5 d63c bf08 78bd 515f d23c e307 1bbd
00000020: 3103 3ebd 50a4 67bc 7ea1 c63b 26bb b53d
00000030: 76ae 9d3c 7fd0 9e3c 9df6 193d 7d9b cd3d
00000040: e2fe f93e a010 9c3d 2b15 0d3e 49d2 5cbe
00000050: c1ce 983d fa32 813d 0846 8f3c ed67 9abd
00000060: b241 0c3e 6934 0abe 8b2d 0fbc 231a 003e
00000070: 520c 16be 9e7b c2bc 4f05 2f3d 1973 cd3c
00000080: 25e1 643d e520 53bd ef5b e73e b556 353c
00000090: 104d adbd dd79 413e f004 77bd 261c 063e
000000a0: 9743 933d adce 7abe 1ef5 b5bd 5c30 01be
000000b0: 8473 49be b5b0 523e fd69 893e 409c 073d
000000c0: d5b6 cd3d d393 a5bd b687 b13e 6ea0 e0bd
000000d0: 620d 64be a966 24be 2566 17bd 6569 19bd
000000e0: 611e 90bb f614 35be 6860 273d b95d a0bd
000000f0: fc61 13be 6d79 c6bd 4c36 e4bc a8dd 273c
00000100: 2a31 f2bc 8d37 fc3b 271f cebd 10ba 23bd
00000110: e549 053e 412c fbbd 1f82 563d 38df a3bc
00000120: c63d 1bba e518 103d 1d01 c2bd 36a7 a1ba
00000130: 6aa5 dc3c 5db1 1f3c 4971 723d 1e29 febc
00000140: cdb8 44bd 48de b03d 62bb f43c 3ea2 14bc
00000150: aec1 213e e1d0 62bd 2e74 f4bd 3e64 f6bd
00000160: 354c 10be 2a5f f0bd b45b 123e b1db 623d
00000170: 232f 84be c5a7 03bf 0e70 df3e de05 033f
00000180: 0f41 b63d d0e2 b13d 2a83 283d aee8 a73d
00000190: df3c 01bc 6791 b0bd 8c2a 8f3c 84d2 553d
000001a0: a979 573d 18e8 403e d6a0 cd3d 0ead fd3a
000001b0: ca86 debe f0a4 3ebf b7b1 e83e e219 113f
000001c0: 1c0e 2f3e 2882 c53d 46f5 21bf 04cf 6ebf
000001d0: d01c 0fbf 77cf 29bf b9ad 0f3f c904 1c3f
000001e0: 1556 c23e a3dc 893e 0337 ad3e d0af fe3e
000001f0: d9c4 d73e 7b07 233f 08fc 0d40 323f 4a40
00000200: 1f13 003e afb6 a33d 6223 383e 262e c53e
00000210: 638f b73e 8faa 3b3f b292 f1be 4d82 05bf
00000220: 4800 96be 9338 b1be 7c5c a4be f285 09bf
00000230: 7091 a1be 0394 03bf ffb5 15c0 d24d 4ec0
00000240: c6fa 98bc 0214 d13b 106e 833b 949e a6bc
00000250: 19ee a2bc d362 e53b 667a a3ba 43a7 f6bb
00000260: ec05 e63c bc30 ae3b 0524 ee3b 9d83 4abe
00000270: 2bb4 513e d323 61be 121d c83e d53d 623a
00000280: 7fc4 963e beb6 84be 528b a43e 7493 b0be
00000290: 5b9b 28be 49c2 303c a3a3 c1bd 075c 663d
000002a0: 36ed 173e 4d6e 933d 257f 8d3d 175f 783e
000002b0: 369b d43e 075f d93e 05e5 fdbd 8a0b 0b3e
000002c0: 9a75 efbe fa24 b3be 899d 3dbe aabc a2bd
000002d0: f475 293f 4c3a 003f bb60 253f cbaf 993e
000002e0: 41d5 01bf 3723 78be 52ec 98be fd65 26be
000002f0: 0f2b 0ebf 69a6 49be d811 13bf 0571 e5be
00000300: 54b8 d8bf 5799 a5bf 5146 83bd b1f8 9dbe
00000310: 0363 f7b8 7a9d 823d bd50 a8bd becb 12bd
00000320: 66f8 143d a2e1 32bd d350 c3bd f7be d4bd
00000330: 55bc 6fbe df6f 1f3e 3287 b93e b2b7 c33e
00000340: 5d3b 08bf 0b8b b6be 3460 5bbe 7ed5 563d
00000350: c271 6dbe bb4f 87be 3104 e8be 74fa 93be
00000360: e53d a43e f96a 593e beb7 a13e e9db f63c
00000370: 76e9 e63e 5c64 093f 1070 c63f bd8d b23f
00000380: 3903 cc3e a8cd f73e 1204 1cbc a2ec acbd
00000390: c242 503d 0026 24bc f509 d7bc 785d 93bc
000003a0: 1137 9a3e ed34 a8be 8deb 883e 5a64 26be
000003b0: 736d 953c 22be 2f3d 785d 363d b5f4 46bd
000003c0: c882 10bd f17b 513d edb0 a4be adcf e63e
000003d0: 70a0 dbbe 6e9d cb3e 575c ddbe d7f7 013f
000003e0: 6766 1cbf 5c14 be3e 89ba b13e d064 9abe
000003f0: 6592 723e 9dab b4be dfe3 ec3e c8ba 0ebf

critic1.0.bias f4 [64]
2.9369593 -0.027037976 -0.11069344 -0.12436832 1.0868487 -0.098590486 -0.47449416 1.5425522
1.4821764 0.4248245 -0.3633309 0.18171747 0.052642643 1.339703 -0.98740786 1.024997
-0.20535731 1.2471108 1.2776111 0.2086596 -0.41669402 -1.9772141 -0.23228925 0.48906574
0.97886235 0.40595666 -0.32137036 -0.32695898 2.1913805 -2.0735662 -0.46144572 0.34752187
-0.9146248 -0.99769354 0.2975956 1.3210672 2.3775117 -0.26066864 0.2772272 1.464254
0.05723131 -0.57615805 0.49535862 -0.5283487 -1.7700759 -1.9618244 -4.954722 2.1128674
0.42115715 1.0638194 0.094132915 -0.19836591 2.4724603 -0.13668178 -1.6120487 0.09701462
2.7080765 -1.3423334 1.2178335 2.314611 0.14242087 -0.16283214 -2.4566627 2.5530953
00000000: 24f7 3b40 bf7e ddbc 3eb3 e2bd d1b4 febd
00000010: dc1d 8b3f cfe9 c9bd e6f0 f2be 5a72 c53f
00000020: f5b7 bd3f 9982 d93e 8206 babe 2514 3a3e
00000030: d09f 573d 637b ab3f c3c6 7cbf 1a33 833f
00000040: 3049 52be 54a1 9f3f c388 a33f ddaa 553e
00000050: eb58 d5be 5a15 fdbf 3cdd 6dbe d366 fa3e
00000060: b996 7a3f 8dd9 cf3e a88a a4be 2b67 a7be
00000070: 943f 0c40 4fb5 04c0 9d42 ecbe 63ee b13e
00000080: da24 6abf d868 7fbf 735e 983e bb18 a93f
00000090: 2729 1840 5c76 85be b9f0 8d3e ad6c bb3f
000000a0: 616b 6a3d 187f 13bf a59f fd3e dc41 07bf
000000b0: d991 e2bf 101d fbbf 158d 9ec0 3839 0740
000000c0: e9a1 d73e 3c2b 883f c2c8 c03d 6f20 4bbe
000000d0: ca3c 1e40 4ff6 0bbe 9d57 cebf 9aaf c63d
000000e0: 2051 2d40 95d1 abbf f8e1 9b3f 9622 1440
000000f0: c7d6 113e 78bd 26be f639 1dc0 ea65 2340

critic1.2.weight f4 [64, 64]
0.5780825 -0.19797768 -0.25120252 -1.8064606 -0.20565489 0.009870499 0.0751437 -0.3137411
-0.64920205 0.55314344 0.5132548 -1.2526947 -0.1961849 0.45175743 0.0367516 -0.06574257
1.2010729 0.15605459 0.16075994 -0.8214857 0.18798944 -0.38207886 -0.23092006 0.3991926
0.7965759 -0.33929282 0.33625552 -0.67385936 -0.30518755 0.102665156 0.0579942 -0.16722776
0.5595868 0.93180054 0.23552096 0.027285336 0.24559891 0.029830692 -1.1572337 0.05635827
0.67980313 0.3862038 -0.055221535 0.12612031 -0.4089185 0.20551953 -0.34990242 0.2065616
0.31010786 0.06256537 -5.420865 -0.17059393 -0.05712975 -0.22121815 -0.12432083 -0.54670286
0.17545564 -0.327044 0.47792536 0.11758368 -0.41901395 -0.25081694 1.1150804 0.56878495
0.7353494 -0.09829468 -0.075106345 0.10197657 0.06130495 -0.12412898 -0.127722 -0.07446429
0.03809388 -0.18813163 -0.042007737 0.007891622 0.08250652 -0.035721153 -0.12539133 -0.13149251
0.10596057 0.0615908 -0.009001986 0.008708852 0.25423244 -0.29874948 -0.09726456 0.086365804
0.2129235 0.2782954 -0.22765046 -0.09642422 0.18144472 0.032658488 -0.08240773 0.112239115
-0.12688331 0.5185449 0.06826575 0.24140213 0.360837 -0.2769332 0.079769626 0.005750304
0.024274072 0.18167315 0.17006682 0.14120832 -0.23931652 -0.12372537 0.9734839 0.16131903
-0.22814432 -0.28577307 0.02135098 -0.18256178 0.35042354 -0.04096061 -0.026459584 0.059208494
0.44552487 0.20485061 -0.033625323 0.36125144 -0.2912007 -0.13791403 -0.11410936 0.488646
0.55961704 -0.0976681 -0.023335582 0.16796952 -0.25840098 0.28110978 0.112755135 -0.58448625
0.28372732 -0.07713538 0.20591502 -0.28567526 -0.21989515 0.2188023 -0.43720445 -0.12936632
-0.21330447 -0.57613784 0.23084415 -0.34608656 0.24743623 -0.2678306 0.14559622 0.13174829
0.36877203 -0.17231973 0.000887801 -0.58837175 -0.2621639 0.5065418 -0.19538596 -0.08597472
0.53433496 0.5390442 -0.6712484 -0.43375385 0.48508844 0.057390608 0.5697804 0.1826228
0.08180706 0.15061164 -0.38684034 -0.031115463 -1.2801092 0.21140228 -0.6282901 -0.031683072
-0.9199333 0.040818874 0.5815467 -0.12947822 0.072044544 0.2302767 0.2968117 -0.51187986
0.022728132 0.19075927 0.5504798 0.17849948 0.09759933 -1.4220238 -0.38807976 0.7344798
-0.4254399 0.5474092 0.10368716 0.26624793 0.02450357 -0.13062227 0.27475443 -0.16482593
-0.11965691 -0.09367162 -0.086105905 0.33401015 -0.046267252 -0.0144944135 0.20611577 0.47400874
-0.12218388 -0.7731322 0.004713185 0.42907548 0.086800836 -0.26125714 0.26486257 -0.032672655
0.428726 0.09744934 -0.14519796 -0.36902195 -0.50166315 0.059704795 -0.0832552 -0.28017744
0.13587941 0.23383208 0.45863423 -0.49471146 -0.07916425 0.1693108 0.34870654 -0.019947898
0.55697715 0.21237996 0.12357131 -0.111889586 -0.12224369 0.531872 -1.3367451 -0.09640168
-0.13061485 0.11863932 0.3907505 -0.17841537 -0.17356323 0.43509045 0.06690858 0.29598573
-0.37324005 -0.19188805 -0.20822042 -0.35694647 0.47833055 0.2509669 0.77325016 -0.045308363
00000000: 37fd 133f a9ba 4abe 9e9d 80be 1a3a e7bf
00000010: 3297 52be e0b7 213c f1e4 993d aca2 a0be
00000020: 1b32 26bf cf9a 0d3f ab64 033f 4d58 a0bf
00000030: b2e4 48be c04c e73e d988 163d 0aa4 86bd
00000040: c2bc 993f c6cc 1f3e 419e 243e e34c 52bf
00000050: 4e80 403e d79f c3be 4f76 6cbe f962 cc3e
00000060: 66ec 4b3f cab7 adbe af29 ac3e 0c82 2cbf
00000070: 8b41 9cbe 1c42 d23d 548b 6d3d c13d 2bbe
00000080: 1541 0f3f 7b8a 6e3f 682c 713e 7f85 df3c
00000090: 487e 7b3e 7f5f f43c 3c20 94bf eed7 663d
000000a0: 9407 2e3f 81bc c53e fa2f 62bd af25 013e
000000b0: c45d d1be b673 523e 6926 b3be e284 533e
000000c0: 75c6 9e3e 4622 803d ba77 adc0 2db0 2ebe
000000d0: e200 6abd 0387 62be eb9b febd b8f4 0bbf
000000e0: a5aa 333e 5072 a7be a2b2 f43e b6cf f03d
000000f0: ff88 d6be 146b 80be f4ba 8e3f e49b 113f
00000100: dc3f 3c3f b94e c9bd 5bd1 99bd 18d9 d03d
00000110: e61a 7b3d 5637 febd 8ec9 02be bc80 98bd
00000120: 5408 1c3d 94a5 40be 4e10 2cbd dd4b 013c
00000130: 2ef9 a83d 5850 12bd 9666 00be f9a5 06be
00000140: db01 d93d a246 7c3d 117d 13bc 93af 0e3c
00000150: c12a 823e b1f5 98be a432 c7bd 8ee0 b03d
00000160: 9e08 5a3e bc7c 8e3e 341d 69be 107a c5bd
00000170: a5cc 393e e8c4 053d 62c5 a8bd 9fdd e53d
00000180: b3ed 01be 5cbf 043f eace 8b3d 1f32 773e
00000190: a1bf b83e 30ca 8dbe 425e a33d 0c6d bc3b
000001a0: 6bda c63c 8708 3a3e ff25 2e3e ea98 103e
000001b0: 640f 75be ba63 fdbd 3e36 793f d130 253e
000001c0: aa9e 69be d950 92be 40e8 ae3c 7af1 3abe
000001d0: b76a b33e 50c6 27bd c5c1 d8bc 9b84 723d
000001e0: d61b e43e 5cc4 513e b5ba 09bd f3f5 b83e
000001f0: 4218 95be 5639 0dbe 2bb2 e9bd cf2f fa3e
00000200: 1043 0f3f 3606 c8bd 432a bfbc 3400 2c3e
00000210: 224d 84be 9fed 8f3e 2aec e63d e4a0 15bf
00000220: b544 913e 27f9 9dbd 63db 523e 0744 92be
00000230: 322c 61be b60d 603e 43d9 dfbe 9b78 04be
00000240: 7d6c 5abe c57d 13bf 6962 6c3e 4232 b1be
00000250: ec5f 7d3e 1821 89be 2d17 153e 06e9 063e
00000260: b0cf bc3e 9574 30be 51bb 683a 889f 16bf
00000270: 593a 86be b9ac 013f 4213 48be 8413 b0bd
00000280: 2dca 083f cdfe 093f efd6 2bbf fc14 debe
00000290: 835d f83e 6a12 6b3d 21dd 113f 7901 3b3e
000002a0: 768a a73d f039 1a3e f00f c6be dbe5 febc
000002b0: 9eda a3bf d779 583e 9fd7 20bf 1cc6 01bd
000002c0: c080 6bbf b131 273d 3fe0 143f f095 04be
000002d0: 178c 933d a8cd 6b3e b4f7 973e 8f0a 03bf
000002e0: 5930 ba3c 6656 433e 3fec 0c3f 91c8 363e
000002f0: 28e2 c73d e004 b6bf 64b2 c6be de06 3c3f
00000300: 42d3 d9be 0223 0c3f ef59 d43d a651 883e
00000310: b6bb c83c d8c1 05be 9dac 8c3e 21c8 28be
00000320: af0e f5bd e8d6 bfbd 4b58 b0bd 6103 ab3e
00000330: bb82 3dbd fa79 6dbc 0310 533e 46b1 f23e
00000340: 8b3b fabd feeb 45bf 1071 9a3b c8af db3e
00000350: a3c4 b13d 7fc3 85be 119c 873e c3d3 05bd
00000360: f981 db3e 8593 c73d c6ae 14be 72f0 bcbe
00000370: ff6c 00bf 048d 743d b481 aabd 6b73 8fbe
00000380: f923 0b3e ad71 6f3e 1bd2 ea3e d24a fdbe
00000390: de20 a2bd cf5f 2d3e aa89 b23e c669 a3bc
000003a0: 0e96 0e3f 227a 593e f412 fd3d 5e26 e5bd
000003b0: e65a fabd c328 083f 771a abbf 3e6e c5bd
000003c0: e6bf 05be 2cf9 f23d 7310 c83e 85b2 36be
000003d0: 8fba 31be 2dc4 de3e 5e07 893d 718b 973e
000003e0: 5219 bfbe 4d7e 44be bc37 55be b0c1 b6be
000003f0: bee7 f43e bc7e 803e b9f3 453f 4395 39bd

critic1.2.bias f4 [64]
0.35662568 2.1284273 0.1848408 0.6311119 1.6111269 1.342064 1.2388905 1.2569239
1.4644483 0.96615726 -1.3634521 -0.042908587 0.7782867 -0.913268 0.5732942 1.5475254
-0.12194202 1.2856232 2.0994592 0.54163927 0.08807597 0.49972633 0.77438533 2.334173
0.17796281 1.0359079 1.1902527 0.83977044 -1.3592244 0.6336442 1.1314578 1.6393229
0.23767254 0.8179826 1.109972 1.2196722 1.0207757 -0.60199755 2.2675123 -1.1683958
1.0432144 2.133524 -0.85914457 -0.0937367 1.2175096 -1.3968207 1.9675071 0.5298602
-0.61297566 1.4131291 1.7563915 -0.5661766 1.3396527 -0.208492 0.9020201 0.61968046
0.13943955 -0.10707725 0.86462075 1.1961716 -0.8376952 1.1436844 0.96794474 1.074535
00000000: a497 b63e 2738 0840 e846 3d3e 8d90 213f
00000010: 6839 ce3f c1c8 ab3f f793 9e3f e2e2 a03f
00000020: 0b73 bb3f 1556 773f 9985 aebf eac0 2fbd
00000030: cc3d 473f efcb 69bf 69c3 123f 5015 c63f
00000040: bdbc f9bd 4d8f a43f 8a5d 0640 dfa8 0a3f
00000050: 2d61 b43d 21dc ff3e 1e3e 463f 1763 1540
00000060: e23b 363e a198 843f 335a 983f 32fb 563f
00000070: 11fb adbf 8236 223f 9cd3 903f 55d5 d13f
00000080: 6e60 733e 4f67 513f 9013 8e3f 381e 9c3f
00000090: c7a8 823f 831c 1abf ec1e 1140 fe8d 95bf
000000a0: 0d88 853f a88b 0840 e6f0 5bbf 07f9 bfbd
000000b0: 5bd7 9b3f 05cb b2bf 46d7 fb3f eba4 073f
000000c0: f9eb 1cbf 6ae1 b43f 70d1 e03f f3f0 10bf
000000d0: bd79 ab3f ed7e 55be caea 663f 61a3 1e3f
000000e0: 3ec9 0e3e 514b dbbd c957 5d3f 271c 993f
000000f0: 3173 56bf 4064 923f 3acb 773f 5d8a 893f

critic1.4.weight f4 [64, 64]
-0.58778745 0.34312296 0.08150105 0.097670645 0.079580374 0.11075413 0.061630048 -0.04466487
0.109393574 0.39982316 0.09379953 0.08267543 0.5402545 0.34345654 0.38344896 0.312081
-0.79771703 -0.5116303 -0.09061217 0.1937981 -0.15207946 -0.14236256 -0.3953219 -0.37919486
0.39289236 -0.5055045 0.20478281 0.025999611 0.0153338285 0.071904965 0.5153509 0.27470985
-0.48829344 -0.06908385 -0.06574227 0.45454383 0.35165453 0.36905795 -0.6263419 -0.101002164
0.9049695 0.59553677 0.2401593 -0.062008753 -2.6103497 -0.19690274 0.7147055 -0.1268324
0.057129167 -2.2303822 0.21169159 -0.9807382 0.11105814 0.104939744 0.22960985 0.00650429
0.8045892 0.69159114 -2.028566 0.21336472 -0.18871069 -0.912713 0.33994043 -0.17806758
0.29283985 0.32796296 0.3098592 0.49783972 0.096482135 0.10763322 0.15769154 0.3350529
0.39671022 0.07128634 -0.2829528 0.22408128 0.2919115 0.06691586 -0.07214487 0.35595536
-0.0047243345 0.03570656 0.20160182 0.5539976 0.3912139 0.21278085 0.010538541 0.5613117
0.4035755 0.29316372 0.22905381 0.1789645 -0.2361961 0.1972742 0.5061765 0.09126149
0.13768503 0.50536656 0.11348588 0.37058386 0.25950494 0.0658699 0.3674845 -0.08067055
0.31378582 0.0686083 0.008993612 0.13501209 0.44866896 0.16141005 0.5143807 0.05101283
0.2750173 -0.2884899 0.32607105 -0.25449654 0.22247894 0.11534608 0.00014405661 0.39355737
-0.2153113 -0.06666848 0.057202894 0.41167924 -0.22601181 -0.10687308 0.015405843 0.05314523
-0.1988192 -0.7778403 -0.7461355 -0.44530493 -1.316564 0.004746718 -0.14822428 0.12456606
0.402977 1.2755622 0.30996984 -0.04041042 0.04285962 -0.913872 0.12615497 -1.0515214
0.09102687 0.010549524 -0.51880366 -0.67047477 0.03962568 -0.28085968 0.31199834 -0.01172343
0.08441223 -0.97651875 -0.11171915 -0.16723266 0.008621411 0.29411814 -0.70647687 -0.07417248
0.5306812 0.20902158 0.19959308 -0.47115245 -0.11213827 0.08574017 -0.101211645 0.11205363
0.14783242 -0.13756633 -0.06369855 -0.29592872 -0.13967694 -0.508019 -0.35879382 -0.3118921
-0.265504 -0.014261704 -0.20576827 0.5520119 -0.75204676 0.06519667 0.13928849 0.29175407
-0.01596981 0.9241006 0.34025905 0.11213558 -0.4181783 -0.43051887 -0.4103558 0.2494522
0.09519212 -0.5691871 0.89561373 -0.3974672 -0.45556012 0.09057521 -0.5966194 0.33173302
0.049597647 0.055431783 -0.2622799 0.17296141 0.37538606 -0.41598815 -0.6267988 0.28047162
0.81175977 -0.10389346 0.55266124 -0.48085466 -0.06324049 -0.455536 0.605688 -0.13480195
0.61096734 0.6215293 0.2497944 0.52393603 -0.14961545 0.4826701 0.17920484 0.16957486
-0.7555061 -0.16682406 -0.13358346 -0.2856765 0.07482801 -0.06481595 0.21721698 -0.01852707
-0.21268481 0.33831093 -0.24648407 -0.4511825 0.079140715 -0.37908936 0.44240138 -0.6562915
-0.06606159 0.16678514 0.24434322 -0.16850865 0.23290886 0.33269873 0.28111777 0.613773
-0.23336135 0.11935706 -0.08045898 0.3456263 -0.33019835 0.1563405 0.00019874032 0.2336376
00000000: 3d79 16bf d0ad af3e 06ea a63d 8c07 c83d
00000010: 09fb a23d 10d3 e23d ca6f 7c3d 83f2 36bd
00000020: bd09 e03d 9fb5 cc3e f819 c03d bc51 a93d
00000030: 1e4e 0a3f 89d9 af3e 6c53 c43e 15c9 9f3e
00000040: 2f37 4cbf 34fa 02bf e092 b9bd 0273 463e
00000050: b8ba 1bbe 7ec7 11be a267 cabe d425 c2be
00000060: 3029 c93e be68 01bf 96b2 513e 23fd d43c
00000070: bd3a 7b3c e942 933d 09ee 033f c5a6 8c3e
00000080: 9901 fabe d57b 8dbd e2a3 86bd f8b9 e83e
00000090: 100c b43e 2af5 bc3e f157 20bf 39da cebd
000000a0: 15ac 673f 1975 183f 52ec 753e e4fc 7dbd
000000b0: f80f 27c0 dfa0 49be f1f6 363f 5ae0 01be
000000c0: 4600 6a3d 95be 0ec0 aec5 583e a911 7bbf
000000d0: 7372 e33d a6ea d63d d81e 6b3e f021 d53b
000000e0: 8ff9 4d3f 1e0c 313f 06d4 01c0 487c 5a3e
000000f0: 603d 41be 8fa7 69bf ac0c ae3e 5957 36be
00000100: 1bef 953e c3ea a73e dda5 9e3e d9e4 fe3e
00000110: 6d98 c53d ce6e dc3d e479 213e 0e8c ab3e
00000120: 9a1d cb3e 93fe 913d 30df 90be 9075 653e
00000130: 6d75 953e 2f0b 893d b1c0 93bd c83f b63e
00000140: 97ce 9abb 0b41 123d b570 4e3e c9d2 0d3f
00000150: 304d c83e 39e3 593e d8a9 2c3c 20b2 0f3f
00000160: 73a1 ce3e 8e19 963e 158d 6a3e 7842 373e
00000170: 64dd 71be 3f02 4a3e c894 013f 4ee7 ba3d
00000180: 4efd 0c3e b45f 013f 496b e83d 2bbd bd3e
00000190: d5dd 843e cce6 863d ee26 bc3e 9a36 a5bd
000001a0: 89a8 a03e 8282 8c3d f159 133c 9c40 0a3e
000001b0: f0b7 e53e ad48 253e 74ae 033f d4f2 503d
000001c0: 11cf 8c3e f3b4 93be c9f2 a63e 5f4d 82be
000001d0: 85d1 633e 913a ec3d e70d 1739 5a80 c93e
000001e0: 917a 5cbe 7c89 88bd 954d 6a3d 9fc7 d23e
000001f0: a46f 67be 46e0 dabd ca68 7c3c d0ae 593d
00000200: 4397 4bbe 8b20 47bf bc02 3fbf 02ff e3be
00000210: 2b85 a8bf 5b8a 9b3b 1bc8 17be 7e1c ff3d
00000220: 0053 ce3e 9f45 a33f 5eb4 9e3e 6685 25bd
00000230: 928d 2f3d 84f3 69bf c52e 013e 4198 86bf
00000240: 4c6c ba3d e9d7 2c3c 51d0 04bf 3ca4 2bbf
00000250: 894e 223d d7cc 8fbe 3fbe 9f3e a113 40bc
00000260: 52e0 ac3d 22fd 79bf 02cd e4bd 0a3f 2bbe
00000270: d240 0d3c a796 963e abdb 34bf bee7 97bd
00000280: b9da 073f c109 563e 2162 4c3e e53a f1be
00000290: c0a8 e5bd 8b98 af3d 0d48 cfbd 607c e53d
000002a0: 6261 173e 30de 0cbe 6374 82bd f883 97be
000002b0: 7907 0fbe 880d 02bf d3b3 b7be 52b0 9fbe
000002c0: 24f0 87be eca9 69bc ebb4 52be a750 0d3f
000002d0: 2386 40bf d585 853d a4a1 0e3e ca60 953e
000002e0: 1ed3 82bc db91 6c3f 6f36 ae3e 57a7 e53d
000002f0: 771b d6be f86c dcbe 281a d2be 6670 7f3e
00000300: 16f4 c23d 3fb6 11bf f146 653f d280 cbbe
00000310: 2d3f e9be 7f7f b93d 0dbc 18bf e9d8 a93e
00000320: e726 4b3d 700c 633d 8d49 86be cc1c 313e
00000330: 9a32 c03e 66fc d4be e375 20bf fa99 8f3e
00000340: 7dcf 4f3f 18c6 d4bd 357b 0d3f 9532 f6be
00000350: 3b84 81bd 043c e9be 5e0e 1b3f 8609 0abe
00000360: 5b68 1c3f 8b1c 1f3f 1aca 7f3e ac20 063f
00000370: cb34 19be 8920 f73e 7981 373e 08a5 2d3e
00000380: d968 41bf edd3 2abe 1aca 08be 3144 92be
00000390: 6d3f 993d 3abe 84bd 216e 5e3e 15c6 97bc
000003a0: 0cca 59be 1737 ad3e 5266 7cbe 6501 e7be
000003b0: 8714 a23d 0018 c2be 6f82 e23e b802 28bf
000003c0: 4d4b 87bd b9c9 2a3e 1c35 7a3e 888d 2cbe
000003d0: a97f 6e3e 7d57 aa3e abee 8f3e 3a20 1d3f
000003e0: 47f6 6ebe 7971 f43d adc7 a4bd eef5 b03e
000003f0: c20f a9be b917 203e f364 5039 b23e 6f3e

critic1.4.bias f4 [64]
-0.27114823 2.0181518 -0.6401997 -1.0527529 1.9697729 0.88519317 -0.42595574 1.9335191
-0.77712643 -0.98599637 1.805277 1.4598864 -0.21980274 -0.7449472 1.5933262 1.0411005
-0.6013613 -0.7018341 1.7016505 -0.6394609 -0.9462137 1.8222177 1.8444219 1.7107098
-1.6105896 1.9469035 -0.9778416 -1.0367178 2.1757672 1.9632975 1.8347226 1.4119039
1.4776157 -0.047415152 -0.60738367 1.2866102 0.023270234 -1.5887752 -0.27925974 1.8850636
-0.28758428 1.8291669 -0.6545836 -1.6632941 2.178196 1.9610112 0.43318644 2.0319493
-0.7490423 1.3752685 -0.11484648 -1.156279 1.7968647 -0.7867617 0.9391746 -1.3413323
-0.88555044 -0.04900364 1.6199257 -1.0893035 2.042067 -0.34983423 -1.2265347 -0.09003021
00000000: f1d3 8abe 6629 0140 21e4 23bf 9bc0 86bf
00000010: 8521 fc3f 059c 623f df16 dabe 8e7d f73f
00000020: c2f1 46bf 426a 7cbf 5113 e73f 8fdd ba3f
00000030: f813 61be dcb4 3ebf 1df2 cb3f c842 853f
00000040: d0f2 19bf 66ab 33bf afcf d93f b6b3 23bf
00000050: 103b 72bf 6e3e e93f 0416 ec3f 8af8 da3f
00000060: cd27 cebf 2234 f93f d453 7abf 2bb3 84bf
00000070: c53f 0b40 554d fb3f 31d8 ea3f 44b9 b43f
00000080: 8322 bd3f 6436 42bd 7f7d 1bbf a5af a43f
00000090: 38a1 be3c fc5c cbbf 22fb 8ebe c449 f13f
000000a0: 3f3e 93be 2422 ea3f ca92 27bf d2e6 d4bf
000000b0: 9067 0b40 6a02 fb3f 9dca dd3e 750b 0240
000000c0: 3cc1 3fbf cc08 b03f a234 ebbd f300 94bf
000000d0: aaff e53f 3769 49bf bf6d 703f c7b0 abbf
000000e0: 6fb3 62bf 0ab8 48bd ba59 cf3f 4c6e 8bbf
000000f0: 3ab1 0240 791d b3be 17ff 9cbf c261 b8bd

critic1.6.weight f4 [1, 64]
-0.5803832 0.32946795 -1.4897264 -0.38587487 0.1968532 0.51237744 -1.5720415 0.07310078
-0.40365595 -0.62341744 0.071284406 0.22481214 -1.4024787 -0.44052494 0.29652172 0.32446477
-1.1121144 -1.4601858 0.4288243 -1.7022192 -0.7985326 0.041781615 0.059326462 0.25451717
-0.4777729 0.16460918 -0.86670375 -1.0766965 0.20451933 0.23354357 0.16673458 0.77057517
0.3231794 -0.00096178515 -0.6482543 0.31889042 -0.21618845 -0.46379536 -1.3207719 0.23579468
-1.2308538 0.10689461 -0.22331025 -0.39502075 0.45401016 0.17306004 1.1625059 0.110734455
-0.7504685 0.3228103 -2.1014738 -0.45099545 0.1512145 -0.47968918 0.95842534 -0.6359037
-0.5782644 -0.51647943 0.3740363 -0.43449393 0.17510027 -1.9430746 -0.44676235 0.672315
00000000: fe93 14bf 06b0 a83e 5baf bebf 6491 c5be
00000010: e393 493e 2b2b 033f a838 c9bf ddb5 953d
00000020: feab cebe 4998 1fbf 8ffd 913d 2735 663e
00000030: 6c84 b3bf 7c8c e1be b2d1 973e 3f20 a63e
00000040: c459 8ebf 5ee7 babf dc8e db3e 52e2 d9bf
00000050: a26c 4cbf 3323 2b3d 4e00 733d 1350 823e
00000060: a69e f4be 4f8f 283e 4ce0 5dbf 31d1 89bf
00000070: 846d 513e 0c26 6f3e 78bc 2a3e 6a44 453f
00000080: c577 a53e 4f20 7cba fef3 25bf 9b45 a33e
00000090: 8160 5dbe 9676 edbe 0e0f a9bf 2974 713e
000000a0: 9e8c 9dbf 90eb da3d 71ab 64be 2940 cabe
000000b0: 0574 e83e a736 313e fecc 943f bfc8 e23d
000000c0: b41e 40bf 6447 a53e 8c7e 06c0 e0e8 e6be
000000d0: f9d7 1a3e d299 f5be 5d5b 753f 96ca 22bf
000000e0: 2309 14bf ff37 04bf b081 bf3e fd75 debe
000000f0: 7c4d 333e abb6 f8bf 09be e4be d61c 2c3f

critic2.0.weight f4 [64, 82]
0.006929592 0.06509478 -0.13237254 -0.058054645 -0.10247757 -0.16049594 0.07774835 0.25188148
-0.017681144 -0.14849097 -0.27280313 0.011777724 0.0030527818 0.041679606 -0.08228613 -0.029531533
-1.0963643 -1.755077 -0.017521048 -0.38618383 0.026400588 0.10799377 0.15789415 -0.024514003
-0.20439579 0.114961654 -0.034769148 -0.12541753 -0.021300927 0.06677724 -0.087387405 -0.104610905
-0.083693966 -0.097225875 -0.05486068 -0.1385887 -0.06905652 -0.22442411 -0.08512283 -0.03886431
0.13478217 -0.04932282 0.09716492 0.11352701 -0.10504006 0.31599918 -0.07762267 -0.18375288
-0.009699962 0.053368982 -0.017862594 -0.017920723 0.09800663 0.3098304 -0.117319174 -0.22484945
0.06686224 -0.23123938 0.2966375 0.032529682 0.104468055 -0.06814791 -0.02609506 -0.060397405
0.008856923 0.0015556249 -0.04255886 0.021680031 -0.2824786 0.3849849 -0.5661161 0.5676614
-0.028071597 -0.035495955 0.046930052 -0.05383445 0.019861937 0.022494776 0.037748102 0.06712551
-0.19250661 0.10797001 0.16112164 -0.15339573 -0.3832833 -0.011967333 -0.107590415 -0.104602054
0.25126773 -0.073109455 0.10800406 0.03612042 0.24894191 -0.12397341 0.20214976 0.16671617
0.051007602 -0.06295492 -0.018998502 -0.052469738 -0.21116772 0.102212615 -0.13506241 0.12652071
-0.177937 0.14216639 -0.1588373 0.101849064 -0.2723956 -0.0042451858 -0.13056514 0.008357247
-0.25818163 0.13732785 -0.5447046 -0.41085598 -0.29731756 0.020023406 0.15721834 0.06770113
-0.0070344363 0.05842411 -0.027097968 0.15246871 -0.097792715 0.07980078 0.011565783 0.02856069
-0.17596911 0.15306927 0.07626206 0.16703615 -0.23557124 -0.02909844 0.21805578 -0.17479803
-0.15325001 -0.08076068 -0.047116395 0.017104363 0.087728254 0.124197416 -0.3005684 -0.055174224
0.03762977 0.04899287 0.021371463 -0.09589663 0.074568786 0.05086484 0.031311836 0.04059241
-0.09384132 -0.015091163 -0.016841475 -0.116389796 0.11026774 -0.07069486 -0.06723424 0.008537887
-0.11890987 0.17263128 -0.041982062 -0.00233584 -0.3277192 -0.35432297 -0.46277428 0.3338162
-0.0042910147 0.16257347 -0.010298223 0.07541769 0.038475867 0.27421758 -0.08596361 0.058848377
0.107344106 -0.21926884 -0.011749322 -0.003197704 0.118033774 0.38391477 -0.7090354 0.7456946
0.10032577 -0.33873156 0.02907733 -0.02547808 -0.017679414 -0.1347316 -0.15649045 0.061140247
0.10795312 -0.3528903 0.048049394 -0.053904537 -0.61541575 0.32991517 -0.654575 0.49322373
0.11672576 -0.044544574 0.18765242 0.056037895 0.20551811 -0.1502679 0.36073294 -0.20488337
0.3758699 0.20409143 0.105235316 -0.25544435 0.22061612 -0.017778335 -0.467912 0.44984162
0.017639695 0.2384303 -0.062957905 0.09679193 -0.23455346 0.16296755 0.12259149 0.16827051
-0.65539014 0.0006921531 -0.020664647 0.03974582 0.024347136 -0.03368699 0.009724896 -0.0046911314
-0.032148674 0.05131284 0.13432565 -0.15505502 0.03141909 -0.1593496 0.08193057 0.0551343
-0.029086819 -0.035028182 0.08204883 -0.10329709 -0.1900786 0.18410327 -0.023175828 0.04747875
-0.31930566 0.17689732 -0.21643318 -0.004794247 -0.0047961753 0.20117463 -0.630208 -0.30708805
00000000: a211 e33b 6950 853d ab8c 07be b5ca 6dbd
00000010: c3df d1bd 0c59 24be 873a 9f3d 9cf6 803e
00000020: 0cd8 90bc 040e 18be daac 8bbe 5bf7 403c
00000030: 2e11 483b 3cb8 2a3d a185 a8bd 1dec f1bc
00000040: aa55 8cbf 5da6 e0bf 4d88 8fbc e3b9 c5be
00000050: 0c46 d83c d62b dd3d 01af 213e 97d1 c8bc
00000060: 214d 51be 0471 eb3d 186a 0ebd 746d 00be
00000070: 487f aebc 81c2 883d 2bf8 b2bd 3e3e d6bd
00000080: be67 abbd 5c1e c7bd 98b5 60bd 32ea 0dbe
00000090: 816d 8dbd 6fcf 65be e154 aebd 2f30 1fbd
000000a0: 5604 0a3e ba06 4abd 67fe c63d d980 e83d
000000b0: 3e1f d7bd a5ca a13e a2f8 9ebd b729 3cbe
000000c0: 97ec 1ebc 6f99 5a3d 9354 92bc 7bce 92bc
000000d0: b3b7 c83d 17a2 9e3e 0945 f0bd ef3e 66be
000000e0: 12ef 883d 04ca 6cbe dfe0 973e d83d 053d
000000f0: 59f3 d53d 2291 8bbd 4fc5 d5bc 4563 77bd
00000100: a11c 113c 1ce6 cb3a 3352 2ebd 529a b13c
00000110: 09a1 90be be1c c53e fcec 10bf 4252 113f
00000120: 68f6 e5bc 3564 11bd ba39 403d 8381 5cbd
00000130: 80b5 a23c f746 b83c c19d 1a3d 1979 893d
00000140: 7420 45be 611f dd3d 12fd 243e c513 1dbe
00000150: b53d c4be a212 44bc 5d58 dcbd 9a39 d6bd
00000160: 2aa6 803e 69ba 95bd 3c31 dd3d 01f3 133d
00000170: a1ea 7e3e c5e5 fdbd 5900 4f3e a5b7 2a3e
00000180: 59ed 503d 82ee 80bd bfa2 9bbc 82ea 56bd
00000190: 5a3c 58be d954 d13d cd4d 0abe a58e 013e
000001a0: 1e35 36be 1194 113e 3fa6 22be 3e96 d03d
000001b0: 7077 8bbe 331b 8bbb deb2 05be d6ec 083c
000001c0: 6230 84be ac9f 0c3e c371 0bbf b75b d2be
000001d0: 023a 98be 2008 a43c d8fd 203e e4a6 8a3d
000001e0: 2181 e6bb 1f4e 6f3d 8ffc ddbc c220 1c3e
000001f0: 8c47 c8bd 976e a33d 697e 3d3c 1cf8 e93c
00000200: 3f31 34be 31be 1c3e 482f 9c3d 860b 2b3e
00000210: 9639 71be da5f eebc 044a 5f3e 41fe 32be
00000220: 92ed 1cbe db65 a5bd 1ffd 40bd 731e 8c3c
00000230: dfaa b33d 375b fe3d 1ae4 99be 5efe 61bd
00000240: ac21 1a3d bfac 483d 3513 af3c 7465 c4bd
00000250: 85b7 983d a757 503d d740 003d 3a44 263d
00000260: e12f c0bd ed40 77bc 22f7 89bc c65d eebd
00000270: 0ed4 e13d 77c8 90bd 1bb2 89bd 7ee2 0b3c
00000280: 0587 f3bd 41c6 303e 62f5 2bbd e414 19bb
00000290: d0ca a7be d269 b5be c0f0 ecbe f5e9 aa3e
000002a0: a49b 8cbb a979 263e e1b9 28bc 9774 9a3d
000002b0: df98 1d3d 3f66 8c3e b00d b0bd ff0a 713d
000002c0: 3ad7 db3d 0388 60be 3a80 40bc 9290 51bb
000002d0: b1bb f13d 7a90 c43e 5883 35bf d7e5 3e3f
000002e0: 9977 cd3d 396e adbe 9533 ee3c 68b7 d0bc
000002f0: 6bd4 90bc 15f7 09be 083f 20be 326e 7a3d
00000300: 8616 dd3d 0aae b4be 71cf 443d 01cb 5cbd
00000310: e38b 1dbf a4ea a83e 3a92 27bf d287 fc3e
00000320: ea0d ef3d 5f74 36bd f527 403e fe87 653d
00000330: 5773 523e d4df 19be fdb1 b83e f2cc 51be
00000340: 0572 c03e 58fd 503e 9d85 d73d 9ac9 82be
00000350: 31e9 613e dfa3 91bc 2992 efbe a451 e63e
00000360: 1f81 903c 1327 743e 13f0 80bd d93a c63d
00000370: c82e 70be f7e0 263e 3f11 fb3d 1b4f 2c3e
00000380: a6c7 27bf 9c71 353a e848 a9bc 83cc 223d
00000390: a573 c73c 5ffb 09bd 2c55 1f3c 10b8 99bb
000003a0: 54ae 03bd 6a2d 523d aa8c 093e bec6 1ebe
000003b0: 4eb1 003d 8b2c 23be 37cb a73d 81d4 613d
000003c0: 7b47 eebc b679 0fbd 3809 a83d 6d8d d3bd
000003d0: f7a3 42be 9185 3c3e 3cdb bdbc 1479 423d
000003e0: 087c a3be 9224 353e a9a0 5dbe 0f19 9dbb
000003f0: 3c29 9dbb b900 4e3e 5055 21bf a53a 9dbe

critic2.0.bias f4 [64]
-2.183242 2.7244232 -0.30377275 -0.968624 -0.14897442 0.10505563 2.8581762 -0.33512953
0.047847502 1.5667216 0.095788896 -0.008125791 -0.061337333 0.030397624 -0.13660264 -0.04131906
0.018583566 2.264462 -2.2116945 -0.648264 0.058789045 1.2202268 1.3204144 1.6619062
1.719993 -0.047588337 0.06867443 3.3914878 -0.03850196 -0.059995297 2.0041559 2.098655
-0.44993323 1.2269248 -0.0262555 2.3137608 0.091062926 0.47850978 -0.003939276 0.09527004
1.8294656 0.9649111 -0.5445135 -0.42957884 -2.106578 1.0437273 0.989611 -0.21223855
0.5832279 -0.1339366 0.9852203 1.5723912 -0.0957311 -1.1256795 1.0523112 0.6358206
-0.02980748 -4.3949037 -0.13701238 0.104533195 3.02039 -1.790171 0.84374404 -0.32260746
00000000: 3dba 0bc0 f35c 2e40 1a88 9bbe bef7 77bf
00000010: c08c 18be 6827 d73d 5cec 3640 1996 abbe
00000020: befb 433d 558a c83f f82c c43d 0a22 05bc
00000030: db3c 7bbd 7004 f93c 90e1 0bbe 2d3e 29bd
00000040: 903c 983c f2ec 1040 678c 0dc0 a1f4 25bf
00000050: c8cc 703d 6430 9c3f 5703 a93f 58b9 d43f
00000060: bb28 dc3f fdeb 42bd 2ea5 8c3d 230e 5940
00000070: 3bb4 1dbd a1bd 75bd 1744 0040 5d50 0640
00000080: a65d e6be df0b 9d3f c615 d7bc a814 1440
00000090: 337f ba3d 3cff f43e 0b15 81bb f01c c33d
000000a0: ee2b ea3f 6a04 773f 3d65 0bbf c2f1 dbbe
000000b0: 2dd2 06c0 db98 853f 2657 7d3f 1055 59be
000000c0: 6c4e 153f ad26 09be 6637 7c3f 1d44 c93f
000000d0: ab0e c4bd 4416 90bf 22b2 863f 24c5 223f
000000e0: d12e f4bc 0da3 8cc0 f94c 0cbe 8015 d63d
000000f0: 124e 4140 5324 e5bf 9cff 573f ce2c a5be

critic2.2.weight f4 [64, 64]
-0.0354444 0.45515594 -0.83245957 -0.6735396 -0.13908592 -0.39598864 0.1991147 0.27735397
-0.74084383 0.12378064 -0.244465 0.1589414 -0.35160285 -0.19588318 0.07375501 -0.095141955
0.3221907 -0.17719907 0.24282804 -0.14780557 -0.11289048 -0.2559438 -0.6285066 0.2803582
0.2946595 -0.0026171543 0.081734225 0.3038919 -0.3328981 -2.6800187 0.24760722 -0.50928336
-0.41882074 0.35817426 0.04228648 0.5315689 -0.015613293 0.06141891 -0.39209706 -0.2454293
0.34278515 0.14571704 -0.05044189 0.74884444 0.2210242 -0.111347206 0.25729594 -2.2553859
-1.8127953 0.31068134 0.18108654 -0.0787647 0.14317513 0.7500653 0.5081945 -0.36728758
-0.281332 -1.0163066 -0.24547131 -0.31369275 -0.14553815 -0.2637355 0.31941435 -0.13053228
1.0866703 0.04380675 0.3409697 0.30313846 0.05920873 0.43617976 -0.16820498 -0.23288544
0.4423552 0.7045544 0.7660691 -0.18765046 -0.2702028 0.34793195 -0.13919306 -0.099297315
-0.02105987 -0.046665117 0.7901149 -0.6151463 -1.9517226 0.14393692 0.22429553 -0.66359
-0.41747737 -0.034077607 0.101897575 0.12768301 -0.0770681 -0.33227432 0.45938286 -0.2863276
0.13766274 0.07991254 0.54535395 -0.46521196 -0.31592718 -0.5002924 0.12967621 0.18736172
0.07340821 -0.09003891 -0.09908556 0.39482698 -0.21166262 -0.18992889 0.12985238 -0.01156853
-0.19706824 0.030112099 -0.44407418 0.55802155 -1.2986017 -0.19758655 -0.6500129 0.41556093
-0.020753816 -0.8521608 0.30078125 -0.6725384 0.39579597 0.3038267 0.8706757 0.21794857
-0.88618666 0.06657821 0.096711405 -1.0076317 -0.17379022 -1.9532354 -0.20450085 0.29736105
0.13672854 0.016054315 -0.16407906 0.065589055 -2.873884 -1.9993716 0.10326766 -0.46270585
-0.08467501 0.019258741 -0.04250095 0.2022926 0.25346905 0.1539297 0.029768337 0.13273829
0.42390203 0.016818488 0.13108674 0.5650277 -0.026551548 0.015659176 0.29619104 -0.2710996
-0.067864545 0.34917325 -0.102569416 0.32708564 0.9205385 0.6896085 -0.0072630574 -0.040019937
0.032607485 -0.285618 0.2577425 -0.23477167 -0.0694263 -0.087303065 0.2508186 0.0071929744
-0.20686208 0.465716 0.018926477 0.0009446645 0.89072156 -0.34037519 0.732051 0.13790897
-2.3122668 -0.14320453 -1.1741107 -0.50155914 0.25118178 -0.010892855 -0.7541185 -0.25251138
0.06461746 -0.018251201 -0.35073742 -0.018966729 0.22786629 -0.37584776 -0.5132916 -0.43765342
-0.02440554 -1.313245 -0.49870667 0.06740314 -0.52036965 -0.10140511 0.2194658 0.14366522
-0.6721326 -0.0170848 1.3929873 0.055204332 0.38891932 -0.18574856 -0.09314715 0.29771838
-0.4866964 1.2327889 -0.048499335 -0.5172321 0.24854876 0.32153454 0.57858264 0.15204875
0.09173011 -0.038761612 -0.76130915 0.08957489 -0.08430658 -0.56972224 0.43143272 0.12390572
0.2217723 -0.45816752 0.21035291 0.5538708 0.10560641 -1.4844187 0.8623405 -0.18793412
0.13522223 -0.17057408 -0.90399075 -0.45805877 -0.017446492 0.53421134 0.0644362 0.37160632
-0.057834588 -0.027970947 0.15445636 -1.6994202 0.54879934 -0.28415954 0.5190216 0.64202744
00000000: 262e 11bd 330a e93e 121c 55bf 176d 2cbf
00000010: 8a6c 0ebe 06bf cabe b9e4 4b3e 5701 8e3e
00000020: f1a7 3dbf b480 fd3d 0855 7abe 89c1 223e
00000030: 4a05 b4be 9a95 48be de0c 973d c9d9 c2bd
00000040: 2ef6 a43e ac73 35be eaa7 783e 585a 17be
00000050: 2033 e7bd 110b 83be cfe5 20bf 1c8b 8f3e
00000060: 9cdd 963e 9084 2bbb 4664 a73d b897 9b3e
00000070: 9f71 aabe 6d85 2bc0 bf8c 7d3e 6560 02bf
00000080: ac6f d6be 9e62 b73e 9734 2d3d e614 083f
00000090: e6ce 7fbc 6592 7b3d f2c0 c8be d251 7bbe
000000a0: 8981 af3e d936 153e 289c 4ebd 45b4 3f3f
000000b0: 2b54 623e 010a e4bd 4bbc 833e 3e58 10c0
000000c0: ad09 e8bf a011 9f3e c06e 393e 634f a1bd
000000d0: 809c 123e 4804 403f 0919 023f 1e0d bcbe
000000e0: bf0a 90be 5616 82bf d55c 7bbe 569c a0be
000000f0: f407 15be 5708 87be 478a a33e 41aa 05be
00000100: 0318 8b3f b56e 333d 9593 ae3e f734 9b3e
00000110: da84 723d f452 df3e ed3d 2cbe 8579 6ebe
00000120: 617c e23e ad5d 343f 1b1d 443f 7127 40be
00000130: 0558 8abe 2324 b23e a088 0ebe 645c cbbd
00000140: c085 acbc ec23 3fbd f844 4a3f 3a7a 1dbf
00000150: 0cd2 f9bf 3364 133e baad 653e 09e1 29bf
00000160: 98bf d5be f694 0bbd adaf d03d 56bf 023e
00000170: e1d5 9dbd dc1f aabe 3b34 eb3e 8899 92be
00000180: 76f7 0c3e 30a9 a33d 519c 0b3f 4330 eebe
00000190: 35c1 a1be 2a13 00bf d7c9 043e c0db 3f3e
000001a0: 0b57 963d 5266 b8bd 5fed cabd c326 ca3e
000001b0: 16be 58be b87c 42be 06f8 043e ef89 3dbc
000001c0: 42cc 49be a6ad f63c b15d e3be 80da 0e3f
000001d0: 9538 a6bf 2154 4abe 3f67 26bf 67c4 d43e
000001e0: e803 aabc 3627 5abf 0000 9a3e 7a2b 2cbf
000001f0: c5a5 ca3e 2c8f 9b3e 9ae4 5e3f e92d 5f3e
00000200: 21dd 62bf 285a 883d a110 c63d 13fa 80bf
00000210: 10f6 31be 9e03 fabf ac68 51be b53f 983e
00000220: 9102 0c3e 5784 833c 5704 28be 8e53 863d
00000230: b7ed 37c0 69eb ffbf ff7d d33d c8e7 ecbe
00000240: 176a adbd 82c4 9d3c 7a15 2ebd cb25 4f3e
00000250: b2c6 813e bf9f 1d3e badc f33c 8cec 073e
00000260: b009 d93e edc6 893c 9a3b 063e a8a5 103f
00000270: a282 d9bc ac47 803c 5aa6 973e 91cd 8abe
00000280: 91fc 8abd d6c6 b23e ea0f d2bd c577 a73e
00000290: 69a8 6b3f 2f8a 303f f1fe edbb f2eb 23bd
000002a0: 6d8f 053d 863c 92be d3f6 833e fc67 70be
000002b0: 602f 8ebd f3cb b2bd 4c6b 803e 0bb3 eb3b
000002c0: a7d3 53be 5472 ee3e b30b 9b3c 5da3 773a
000002d0: 5406 643f a845 aebe b267 3b3f 0238 0d3e
000002e0: 2efc 13c0 35a4 12be 4249 96bf 2e66 00bf
000002f0: e69a 803e f277 32bc e90d 41bf 2c49 81be
00000300: 2956 843d 8b83 95bc db93 b3be 1d60 9bbc
00000310: c855 693e 1e6f c0be 1467 03bf 1c14 e0be
00000320: 21ee c7bc 6a18 a8bf 7b56 ffbe a80a 8a3d
00000330: f236 05bf 7bad cfbd a5bb 603e fa1c 133e
00000340: e210 2cbf 6cf5 8bbc 684d b23f f01d 623d
00000350: 6f20 c73e df34 3ebe efc3 bebd 8b6e 983e
00000360: 4530 f9be 07cc 9d3f 3da7 46bd 5369 04bf
00000370: 9183 7e3e 2da0 a43e fe1d 143f abb2 1b3e
00000380: ffdc bb3d 7fc4 1ebd 28e5 42bf 0a73 b73d
00000390: eea8 acbd 51d9 11bf c0e4 dc3e 48c2 fd3d
000003a0: 4718 633e ef94 eabe c166 573e 7aca 0d3f
000003b0: 2c48 d83d 6f01 bebf 59c2 5c3f cd71 40be
000003c0: b277 0a3e f9aa 2ebe f06b 67bf ae86 eabe
000003d0: f2eb 8ebc 13c2 083f 20f7 833d 2f43 be3e
000003e0: f6e3 6cbd 5423 e5bc cf29 1e3e 9a86 d9bf
000003f0: 1d7e 0c3f 5c7d 91be 99de 043f e95b 243f

critic2.2.bias f4 [64]
-0.42338687 1.2444575 1.519825 0.15984662 0.7276849 -0.08258132 1.1784912 -0.25629783
0.41307443 1.7105778 0.82565874 -0.6865239 1.3688545 2.037298 1.204671 -0.22545433
1.3312473 -0.10214078 -0.7676458 0.25507176 0.6335885 1.4704375 1.0690125 1.1366085
1.021649 -1.0666742 1.909564 -0.40552974 2.289195 1.4633056 1.4481616 -0.19654039
1.8924847 0.2055009 0.9304571 -0.81784284 0.661899 -2.3388605 1.3936242 0.2925533
0.70871526 -0.7483375 0.6140102 -1.4419605 1.9199882 -0.5147473 1.3224566 -0.38715002
1.7105862 0.6666697 -0.78060186 0.2986837 0.8048975 1.3277457 1.4419218 -0.046300508
-1.2245488 1.191318 0.98235184 -0.7757688 -1.3933643 0.4396212 0.078107335 1.6814104
00000000: 2ac6 d8be 624a 9f3f a089 c23f d5ae 233e
00000010: 8f49 3a3f 6520 a9bd cdd8 963f 7839 83be
00000020: 7e7e d33e 37f4 da3f 5f5e 533f 08c0 2fbf
00000030: a036 af3f 1763 0240 a932 9a3f 80dd 66be
00000040: 5066 aa3f 2f2f d1bd 6f84 44bf c498 823e
00000050: db32 223f 4c37 bc3f 67d5 883f 637c 913f
00000060: 65c5 823f c888 88bf 986c f43f 98a1 cfbe
00000070: 2c82 1240 994d bb3f 5c5d b93f e241 49be
00000080: f03c f23f d46e 523e 7032 6e3f 265e 51bf
00000090: 3672 293f e4af 15c0 4762 b23f 8cc9 953e
000000a0: 5d6e 353f 0c93 3fbf c62f 1d3f 2992 b8bf
000000b0: 2cc2 f53f 7bc6 03bf 4246 a93f 8738 c6be
000000c0: 7df4 da3f deaa 2a3f 86d5 47bf 12ed 983e
000000d0: c30d 4e3f 92f3 a93f e590 b83f 9aa5 3dbd
000000e0: 04be 9cbf 1c7d 983f 697b 7b3f c998 46bf
000000f0: c359 b2bf 0816 e13e bdf6 9f3d 7538 d73f

critic2.4.weight f4 [64, 64]
0.37335557 -0.48424312 0.04275959 0.23027636 -0.5112119 -0.035394635 -0.2097172 0.5339468
0.138757 -0.563715 -0.12530266 0.40722948 0.2516716 -0.8644801 -0.47969678 0.21523888
-0.5625055 -0.1736292 -0.10580138 -0.4566309 -0.710164 -0.20327018 -0.74454534 -0.49493396
0.031112334 -0.124254085 -0.6004353 0.062079616 -1.2291434 0.26791358 -0.3018903 0.85295695
0.6870394 0.47026384 -0.38182652 0.15975823 -0.046129815 0.4401251 -0.65515363 0.5463168
0.2544311 -0.46983686 -0.2663775 0.05485091 -1.219975 -1.005862 -0.17497602 0.36251092
0.34082648 -0.12327128 0.10146308 -0.0079752905 -0.17177519 -1.3983548 -0.78133476 -0.15762952
-0.22927739 -0.34179923 0.027827341 -0.031079665 0.05015265 0.10518448 0.45702106 -0.9011979
-1.434332 0.09474383 0.021167856 0.28561485 0.37386674 -0.22971834 -0.905508 0.2535652
0.29539284 -0.12044637 0.2449428 -0.0004107907 0.2534797 -0.20137137 0.17420582 0.1764158
0.14009206 0.554935 -0.74484617 -0.68756837 0.055123974 -0.2351578 0.25947982 -0.1572563
-0.22678554 0.0022805713 0.24082287 0.067134045 -0.2923527 0.21330419 0.26978287 -0.12172441
0.31874046 -0.05442456 -0.41229212 0.11348436 -0.042056777 -0.35442877 0.5660604 -0.093181364
0.39726892 -0.69955826 -1.4040381 -0.36135948 -0.51975876 -0.30417708 0.25283816 -0.10624513
-0.067197256 -0.6555196 0.024257025 -0.27098468 0.29507574 -0.21945459 0.22526154 -1.0046138
-0.024398439 1.1537052 0.20265198 1.3632896 -0.2282324 -0.7811813 -2.15488 0.0036466734
0.16546877 -0.4175932 0.44617054 -0.5504985 -0.061954483 -0.10535157 0.9640965 -0.0030540759
-0.6453749 0.8247217 0.358106 -1.0717689 -0.0017063635 -0.3075867 0.54575765 -0.63768375
0.7421718 -0.3844145 -0.47374597 0.47559056 -0.50940716 -0.49776858 0.54533577 0.12849848
0.10979913 -0.055732965 -0.47440284 0.113664016 0.44181868 0.13947113 -0.4318667 1.3299574
0.27919614 0.26181793 0.4637149 0.022094078 -0.46511793 -0.18294981 -0.16579312 0.73868084
0.66693896 -0.19948523 -0.19079514 0.21050893 -0.6038724 -0.009401901 -0.09939022 -0.074606724
0.11575409 0.97911406 0.23622592 -0.29524258 0.34548423 -0.89426947 -0.20641683 -0.62017775
-0.28868362 -0.3827365 0.15704784 -0.8941698 -0.49669376 -0.8351329 0.7930252 0.11708108
-0.30392283 0.07657364 0.22770931 -0.01806502 0.22909413 -0.10404809 0.61190814 -1.8177582
-0.1986992 -0.27572852 0.094738744 -0.21301301 -0.047958158 -0.12538496 -0.35437393 0.11686437
-0.07777776 -0.11982897 -0.4193481 0.1856335 -0.053423714 0.0241915 -0.47192597 0.14954326
0.38393497 0.19379112 0.11785706 1.1684651 0.49509004 0.08799225 0.09000867 0.32186627
0.042480998 0.19917409 0.024794357 0.18198441 0.056141987 -0.6106155 0.23405032 0.016515603
-0.075503685 -0.6405586 -1.1849104 -0.3203223 -0.14910392 -0.82204026 -0.14702773 -0.339482
-0.4977403 -0.0566799 -0.40778914 -0.07445005 -0.035686918 0.46456343 0.114262715 0.17903067
-0.124491 0.31550863 -0.520711 -0.17196798 -1.1241187 0.10229806 2.1411517 -0.011740319
00000000: 7628 bf3e b7ee f7be ae24 2f3d 91cd 6b3e
00000010: c8de 02bf f7f9 10bd 1bc0 56be bdb0 083f
00000020: 5116 0e3e a04f 10bf 574f 00be 6280 d03e
00000030: 1adb 803e 914e 5dbf d19a f5be 9567 5c3e
00000040: 5c00 10bf dacb 31be 65ae d8bd 86cb e9be
00000050: 4fcd 35bf 0f26 50be 869a 3ebf fc67 fdbe
00000060: 4bdf fe3c ed78 febd 21b6 19bf 3247 7e3d
00000070: 9254 9dbf f82b 893e 5e91 9abe 635b 5a3f
00000080: d0e1 2f3f 6cc6 f03e c47e c3be a997 233e
00000090: 9ef2 3cbd 1458 e13e 26b8 27bf 6bdb 0b3f
000000a0: cb44 823e 758e f0be a262 88be 59ab 603d
000000b0: 2428 9cbf 16c0 80bf ea2c 33be 089b b93e
000000c0: cf80 ae3e a775 fcbd e0cb cf3d cbaa 02bc
000000d0: d6e5 2fbe 4afd b2bf 8e05 48bf a269 21be
000000e0: b1c7 6abe 4f00 afbe 2af6 e33c c89a febc
000000f0: dd6c 4d3d f66a d73d aafe e93e e8b4 66bf
00000100: 3198 b7bf 0e09 c23d 3668 ad3c 1c3c 923e
00000110: 766b bf3e 493b 6bbe 5fcf 67bf 4cd3 813e
00000120: bb3d 973e 96ac f6bd 49d2 7a3e 655f d7b9
00000130: 17c8 813e 4c34 4ebe 0363 323e 58a6 343e
00000140: 4b74 0f3e 3810 0e3f 3dae 3ebf 7b04 30bf
00000150: adc9 613d 35cd 70be 8ada 843e cc07 21be
00000160: 783a 68be a375 153b 459a 763e 937d 893d
00000170: 41af 95be 6a6c 5a3e fb20 8a3e a64a f9bd
00000180: f331 a33e 4aec 5ebd f417 d3be 7d6a e83d
00000190: ba43 2cbd b077 b5be 56e9 103f dfd5 bebd
000001a0: d566 cb3e 4016 33bf 85b7 b3bf 1c04 b9be
000001b0: e90e 05bf 19bd 9bbe 0174 813e 0c97 d9bd
000001c0: b79e 89bd 22d0 27bf abb6 c63c 81be 8abe
000001d0: 2b14 973e b4b8 60be f6aa 663e 2f97 80bf
000001e0: 3cdf c7bc 9dac 933f 0084 4f3e 4680 ae3f
000001f0: c1b5 69be 7ffb 47bf 8ee9 09c0 07fd 6e3b
00000200: a570 293e c7ce d5be 7770 e43e 78ed 0cbf
00000210: fcc3 7dbd 90c2 d7bd 07cf 763f e426 48bb
00000220: 4a37 25bf f620 533f ab59 b73e b92f 89bf
00000230: 0fa8 dfba 017c 9dbe c6b6 0b3f 3e3f 23bf
00000240: f9fe 3d3f fad1 c4be d58e f2be 9b80 f33e
00000250: 8268 02bf 86db febe 209b 0b3f 1b95 033e
00000260: 5ede e03d 4048 64bd eee4 f2be aec8 e83d
00000270: 0f36 e23e 85d1 0e3e a21d ddbe 0b3c aa3f
00000280: ccf2 8e3e 000d 863e 0a6c ed3e a4fe b43c
00000290: f023 eebe 3257 3bbe acc5 29be 301a 3d3f
000002a0: 83bc 2a3f db45 4cbe cd5f 43be a78f 573e
000002b0: 6297 1abf 6e0a 1abc 1a8d cbbd 69cb 98bd
000002c0: 7b10 ed3d 38a7 7a3f 35e5 713e 092a 97be
000002d0: 4fe3 b03e d8ee 64bf ef5e 53be f8c3 1ebf
000002e0: 57ce 93be 0af6 c3be 26d1 203e 50e8 64bf
000002f0: a54e febe 45cb 55bf b303 4b3f 35c8 ef3d
00000300: c69b 9bbe a4d2 9c3d a12c 693e 18fd 93bc
00000310: a797 6a3e 2a17 d5bd 03a6 1c3f 4dac e8bf
00000320: ce77 4bbe 4a2c 8dbe 6306 c23d 1520 5abe
00000330: c66f 44bd ea64 00be 8070 b5be 9656 ef3d
00000340: f249 9fbd e468 f5bd cbb4 d6be b516 3e3e
00000350: d3d2 5abd 412d c63c 48a0 f1be de21 193e
00000360: 2093 c43e 2e71 463e 0b5f f13d 4490 953f
00000370: 717c fd3e 4835 b43d 7756 b83d a8cb a43e
00000380: 8e00 2e3d 4bf4 4b3e 891d cb3c 1f5a 3a3e
00000390: 24f5 653d 4c51 1cbf e3aa 6f3e bb4b 873c
000003a0: ada1 9abd a6fb 23bf 25ab 97bf 4901 a4be
000003b0: b3ae 18be 3b71 52bf 708e 16be 96d0 adbe
000003c0: d1d7 febe 2f29 68bd bdc9 d0be 4579 98bd
000003d0: 722c 12bd 42db ed3e 9202 ea3d d153 373e
000003e0: 23f5 febd 598a a13e 514d 05bf 6018 30be
000003f0: 1fe3 8fbf a581 d13d a108 0940 785a 40bc

critic2.4.bias f4 [64]
0.306328 -1.3595395 0.98030835 0.8204422 2.2744823 -0.1552204 2.1306353 -1.082664
0.13635547 -0.3535075 -0.5182269 -1.6487654 -0.44342798 1.4756206 0.6222431 -0.17051256
-1.7066208 -0.017715931 0.16448453 2.0244527 -1.2541631 -0.72150093 0.39052266 0.60315955
-0.18843353 1.7610581 -0.57962286 0.5463747 -1.7818092 1.1397984 -0.0399404 -1.1377496
-0.3416632 -0.4279745 0.4618583 2.006825 -1.0234039 0.74850327 0.1753089 0.269738
1.8193041 -1.0217756 -0.13126828 -0.7664108 -1.340014 0.09292143 0.4649467 -2.003993
-0.29365695 1.6877357 -0.3007741 1.912076 -0.19262919 -0.48055845 0.26136163 1.7710708
0.004243723 -0.08959628 -0.6720846 1.5376077 -0.4367855 -0.4815951 -0.66625655 -1.2414947
00000000: 06d7 9c3e 6405 aebf 7df5 7a3f 8008 523f
00000010: 1e91 1140 19f2 1ebe 545c 0840 bc94 8abf
00000020: c5a0 0b3e effe b4be 85aa 04bf bf0a d3bf
00000030: fe08 e3be 23e1 bc3f 534b 1f3f d89a 2ebe
00000040: 8d72 dabf 0021 91bc a26e 283e a290 0140
00000050: 6b88 a0bf 49b4 38bf 96f2 c73e aa68 1a3f
00000060: b8f4 40be 5a6a e13f 2a62 14bf 36df 0b3f
00000070: 5312 e4bf eae4 913f 8b98 23bd c7a1 91bf
00000080: 7bee aebe 791f dbbe b178 ec3e d26f 0040
00000090: e6fe 82bf e99d 3f3f 2d84 333e 191b 8a3e
000000a0: f5de e83f 8bc9 82bf 316b 06be 8033 44bf
000000b0: 9485 abbf 974d be3d 7e0d ee3e 6c41 00c0
000000c0: 345a 96be b907 d83f 10ff 99be e8be f43f
000000d0: 9640 45be c20b f6be 31d1 853e 73b2 e23f
000000e0: ee0e 8b3b 417e b7bd bd0d 2cbf 54d0 c43f
000000f0: 59a2 dfbe a293 f6be ca8f 2abf 4ce9 9ebf

critic2.6.weight f4 [1, 64]
0.52284074 -0.27543578 0.43655816 -1.7922249 0.56432164 -0.47501394 0.27334228 -0.14193083
-0.4004294 -0.826969 -1.2432714 -0.27444512 -0.78038013 0.24190883 0.23750776 -0.38202947
-0.24684905 -1.9141492 -0.31606546 0.07658849 -0.38839194 -0.46665385 0.19472249 1.071693
-1.5598816 0.73685485 -0.69407314 -0.7524639 -0.2822523 0.21384636 0.85528016 -0.17658454
-0.95186687 -0.65471023 0.46257484 0.20361918 -0.36175612 0.318321 -1.2925111 0.6181797
0.21805482 -0.32533574 -0.24178351 -1.3601285 -0.4028951 0.58624256 -1.3488468 -0.3511828
-1.1686423 0.18411578 -0.66362804 0.25664327 0.858753 -0.31471965 0.5414921 0.20842397
0.5862275 -0.0784703 -0.12572977 0.38403702 -1.2982754 -0.3183741 -0.48340648 -0.18066894
00000000: e4d8 053f eb05 8dbe 8d84 df3e a067 e5bf
00000010: 6277 103f 0735 f3be 85f3 8b3e 5156 11be
00000020: 1505 cdbe 3eb4 53bf 8423 9fbf 1284 8cbe
00000030: fec6 47bf f3b6 773e 3c35 733e 5e99 c3be
00000040: ffc5 7cbe d702 f5bf 55d3 a1be 6dda 9c3d
00000050: 4fdb c6be 41ed eebe 5565 473e 3c2d 893f
00000060: 33aa c7bf 85a2 3c3f c7ae 31bf 79a1 40bf
00000070: 6083 90be 8afa 5a3e a4f3 5a3f 94d2 34be
00000080: 8cad 73bf 179b 27bf 9cd6 ec3e 8c81 503e
00000090: 1938 b9be f8fa a23e 0171 a5bf 0641 1e3f
000000a0: c349 5f3e 6892 a6be 1996 77be b118 aebf
000000b0: 4448 cebe fe13 163f 03a7 acbf 3bce b3be
000000c0: 1296 95bf d988 3c3e 87e3 29bf bf66 833e
000000d0: 3dd7 5b3f ef22 a1be 3a9f 0a3f 186d 553e
000000e0: 0113 163f 09b5 a0bd 4ebf 00be 80a0 c43e
000000f0: e32d a6bf ee01 a3be 0e81 f7be 4701 39be
