masac/model/simple_tag/agent_1/432_actor_params.pth (torch, 43913 bytes, 10 tensors)

feature.0.weight f4 [64, 16]
00000000: 41e2 083e 519a e03b 54d3 0b3e 6b31 13bd
00000010: f1d6 72bd 6c3c 82bc 6af6 80bb 8082 1fbd
00000020: 5fea 8abd acdf 443d bc45 ff3d becf b83d
00000030: beff c7bf a1b3 89be 9418 42be c401 8dbc
00000040: 5bfe f63c a9af c8bb 9666 eebc 2312 00bd
00000050: b1f0 a53d c609 803e 5a9d 15be fb77 75be
00000060: 20c2 e4bc b45f 8b3d a744 4ebc 0085 3e3c
00000070: 74f9 913e 6faa 83be d5dc 93bc 7845 443c
00000080: dcce 6ebd 5901 96bb a8b7 3bbe bdb1 373e
00000090: 1918 14be 8930 41be 020d 683e 62c2 993d
000000a0: 4beb fabd 6726 77be 2296 e9be 1786 a23d
000000b0: a632 5c3f bb3e 043e d34b af3d fd19 e13c
000000c0: 05a3 93bd 2ae8 ce3d 83e3 83be d709 9c3e
000000d0: 1aa5 923d 08ad 08be d3de 253e 06cd 42bd
000000e0: 2364 4f3d 5eaa 65be 00a8 2ebc e3e1 2fbd
000000f0: 42d5 cd3e db29 95bd 0f81 0e3d 1f1e 3fbd
00000100: e2a9 e73b 7304 cd3d 2581 cc3c 0160 19bd
00000110: 375d 15bc d3af 763c 5ce1 c83a db9b c3ba
00000120: ca87 5d3d 58c2 743d 4665 0abc d0a2 573c
00000130: b4d4 6dbe 0b56 dfbf ed8f f6bc 1b60 15be
00000140: 035f 863d 678b 2abd 1248 1a3e 643b c33d
00000150: 5221 d83d 61cb f8bc 1e9b d8bc 0ceb 97bc
00000160: cb5a de3e 3f78 293f 7054 a23d c6fe 793c
00000170: 5fb8 efbe 1ba0 23bf ec6c 9fbd fd99 9ebd
00000180: 4c39 8d3c 1bc7 7aba 9668 fbbc ab77 213e
00000190: 79c9 40bb 1338 9abc 0be3 f0bc 51df 0b3d
000001a0: e59f 073d 5c7d 473c 5584 10be 85f3 513f
000001b0: ffc3 d13d fefc 38bf 1c4e 053d 3aa7 97bc
000001c0: 256c 503e 9b2c 8bbd 0d82 923e 41a6 c9be
000001d0: 7e41 32be 0271 bb3d c8f3 8d3d 2d74 853c
000001e0: cc28 67be ad3e c93c 1b60 7e3d fe89 bbbc
000001f0: 91aa 32bf 6c0b ee3e 16b1 8a3e 2642 8e3d
00000200: cfd6 34bc 5d31 513d 0132 f43c 9e3c 7b3d
00000210: 7304 32bd 8767 b0bc b586 fcbb dde3 62bd
00000220: 4f4f 22bf 52a4 48bf 57e2 943d 8b27 c73d
00000230: 36be 0f3f 9d95 423f df3c c63c 0ac8 47bd
00000240: f7bd 873d 1c3b 80bd b4f1 a83d 4637 6e3d
00000250: 0df5 2b3c 5a64 50bc e4aa 25bc 52d4 233c
00000260: 9d30 203c 4545 b83d fafa 0bbc 15a2 f7b9
00000270: 0b5f 89bf 0c1e 983f bd6e dbbd 81a2 093e
00000280: 43f2 afbd 478e c83d 8275 6dbe dc64 773e
00000290: 2cdc 8b3d b6e4 89bd b7c4 50bd 62f3 ba3b
000002a0: 71db e13b 09f2 dc3c 6b3c 1abc cef0 ef3d
000002b0: 5ee8 5c3f 55a3 99bf 832e b03d e47f a6bd
000002c0: a7bd 213d 1520 d93d 213b cb3d 0494 0bbe
000002d0: 3f0a 693d 5bcf 323e fd01 afbd fdd9 fbbd
000002e0: 2832 34bc 0a6e 19bf 50be 103c 98c7 dd3a
000002f0: e014 6ebe 641d 5c3e eed6 d4bd e17d 593c
00000300: bc10 b73c eab5 9c3d e075 03be c494 a03d
00000310: 71b8 d93d d0c7 323e 1e8e 6cbe ce95 0fbe
00000320: 0995 06bd 6607 c73d cdfc 5c3d f748 473d
00000330: fde6 4bbe 5832 e1bd 1495 083d d220 f2bc
00000340: 8778 9b3b 2e8b d83d e682 503c 817e f53d
00000350: 5b7b 623c 61b0 583c aa22 15bc c3a4 803d
00000360: 4031 033f 1352 0c3f 72c6 8b3d a4db ef3d
00000370: 39bb 21bf ef2a 23bf 7b12 20bd 385b 65bd
00000380: 4780 cb3b c285 00bd 82f3 203d b9e3 c9bb
00000390: 6fbd 8ebc b48a c93c 7397 583c b78e e53c
000003a0: 301e 47bd 90ce 393c 7083 573f 24b5 823d
000003b0: 3d6b 4fbf c835 6bbd 23b5 8bbd ab96 6f3b
000003c0: f67e 88bc 29ee 0a3c 1e88 b5be 61c7 09bd
000003d0: b3dc 7c3d 82fb 283e 1c96 dcbc deed 27bd
000003e0: 6e28 e63c 94be 0ebe 5882 93bd c6c0 f4bd
000003f0: 7066 dcbc c205 2ebd b9d6 8f3c 969d 053d
0.13367559 0.0068543334 0.13654834 -0.0359358 -0.059287015 -0.015897952 -0.003935625 -0.038942814
-0.06782984 0.048064873 0.12464473 0.09023999 -1.5624921 -0.26894858 -0.18954688 -0.017212756
0.030150583 -0.006124456 -0.029101651 -0.031267297 0.08102549 0.25007457 -0.14610806 -0.2397155
-0.027924597 0.06805363 -0.01258961 0.011628389 0.2851063 -0.25715968 -0.018049637 0.011979453
-0.058302745 -0.0045777974 -0.18331778 0.17938896 -0.14462318 -0.18866171 0.22661212 0.07507779
-0.1225191 -0.24135743 -0.45622355 0.07935732 0.86014783 0.12914555 0.08559384 0.027478212
-0.07208828 0.101028755 -0.25759515 0.30476257 0.07160397 -0.13347256 0.16198282 -0.047558807
0.050632607 -0.22428271 -0.0106601715 -0.04294003 0.40201765 -0.07283374 0.03479105 -0.046659585
0.007069812 0.10010614 0.024963925 -0.037445072 -0.009116462 0.015056568 0.0015325951 -0.0014923768
0.054084577 0.059755653 -0.008446997 0.013161376 -0.23225671 -1.7448133 -0.030097926 -0.14587443
0.06561091 -0.04163685 0.15066555 0.09532812 0.1055323 -0.030370416 -0.026441153 -0.018544696
0.43428645 0.66199106 0.079262614 0.015258497 -0.4682035 -0.63916177 -0.07784447 -0.07744215
0.017239235 -0.0009566412 -0.030689519 0.15768306 -0.0029416962 -0.018825566 -0.029405138 0.034148518
0.03311147 0.012175884 -0.1411298 0.82012206 0.102424614 -0.72261035 0.032545194 -0.018512357
0.20353754 -0.06795617 0.28614846 -0.39384654 -0.17407796 0.09152414 0.06931263 0.016290748
-0.22574157 0.024566019 0.062103372 -0.022892948 -0.69791514 0.4649309 0.2708823 0.069462106
-0.0110375425 0.051072467 0.029809 0.061337106 -0.043461274 -0.02153374 -0.007706488 -0.05539309
-0.63402265 -0.7837573 0.072697334 0.09724339 0.56149614 0.7600954 0.024198947 -0.048774756
0.0662803 -0.06261274 0.08249226 0.05815818 0.010495436 -0.012719238 -0.010111544 0.009999352
0.009777215 0.08997587 -0.008543724 -0.00047232272 -1.073213 1.188417 -0.10714481 0.13440897
-0.0859113 0.09792762 -0.23189357 0.24159569 0.06829104 -0.06733076 -0.050968852 0.005705283
0.0068926145 0.02697088 -0.009413819 0.11715852 0.86292064 -1.200297 0.086026214 -0.08129862
0.039487507 0.10601822 0.09923387 -0.13630682 0.056894537 0.17461912 -0.08545301 -0.12297437
-0.010998286 -0.5993353 0.008834437 0.0016920445 -0.2325015 0.21495587 -0.10392557 0.013274641
0.022346847 0.07651885 -0.12837934 0.07840875 0.106308825 0.17459035 -0.23101088 -0.1402199
-0.032856975 0.09718208 0.053952027 0.04865357 -0.19912334 -0.109959304 0.033345297 -0.029556666
0.0047445926 0.105734214 0.012726521 0.11987019 0.013823356 0.013225646 -0.009102503 0.06281426
0.51247025 0.54812735 0.0682496 0.11711815 -0.63176304 -0.63737386 -0.039080124 -0.055995196
0.00621036 -0.03137756 0.039294727 -0.00616118 -0.017424313 0.024602272 0.013219702 0.028022153
-0.048612773 0.011340752 0.8418493 0.06382206 -0.8102301 -0.057424337 -0.068216585 0.003655831
-0.016662102 0.008479633 -0.35455412 -0.03363741 0.061733913 0.16502193 -0.026927046 -0.040998332
0.02809545 -0.13939887 -0.072025955 -0.11950831 -0.026904315 -0.04248596 0.017558442 0.03262099

feature.0.bias f4 [64]
00000000: 126d 223e 2c4f a2bc e345 a0be 8c6b 8cbe
00000010: d07d 77be 3f87 453c 73ba e43d 172d b2be
00000020: 34c1 56bd d23f 2a3c a247 0bbe 1240 dbbe
00000030: d393 e33d 88bb 0abe 5623 a73d e869 323e
00000040: bf3f 853e 9bf2 d43d 1c74 713e b329 093e
00000050: 71dc 313e e81e bebc 5677 a0bc 570f 623e
00000060: 2a5e 633e b214 91be 7dd9 073e 7625 593e
00000070: 8b85 513e fd76 e0bd 39d5 4dbe 2124 e0bd
00000080: ad9a 1a3e bd02 c53e b193 443e c090 24be
00000090: d5d5 85be c37d a0be adb3 953d e2c3 803e
000000a0: fb3e 18be 6fb4 9abe 13ea 103e 04b9 a23e
000000b0: 548c 8fbe 2f41 8abe 7f64 7fbe f494 86be
000000c0: fb40 d2be 71d0 2c3e 8457 efbe 3ec2 38bb
000000d0: 3cc6 13be 93d8 0b3e 8e5e 733d d3d1 b03d
000000e0: db50 963e 777e 8cbe 9073 8ebe 48bb 6f3d
000000f0: 5fe4 28be 8ca2 2e3d fe74 543e 97a2 a1be
0.1586192 -0.019813143 -0.3130332 -0.27425802 -0.24169087 0.012056171 0.11168375 -0.34800026
-0.052430347 0.0103911925 -0.13601544 -0.4282232 0.111121796 -0.135481 0.08161037 0.17423213
0.26025197 0.10397836 0.23579448 0.13394813 0.17369248 -0.023208097 -0.019588154 0.22076164
0.2220389 -0.28336102 0.13266559 0.21205696 0.20461099 -0.10960195 -0.20100869 -0.10944391
0.15098067 0.38478652 0.19196965 -0.16070843 -0.26139703 -0.3134595 0.07309661 0.25149447
-0.14867775 -0.30215785 0.14151792 0.3178178 -0.2803675 -0.27002856 -0.2494068 -0.26285517
-0.410652 0.16876389 -0.46746457 -0.002819195 -0.14431089 0.13656835 0.059416346 0.08633771
0.29358563 -0.27440235 -0.27822542 0.058528215 -0.16493367 0.042635486 0.20747754 -0.3156936

feature.2.weight f4 [64, 64]
00000000: 60b8 a7be 7566 1a3f b64d e4bf 7d6d 7bbf
00000010: 2c89 5dbd 6765 11be a189 f0be c8ce 7d3d
00000020: 1af5 f83d e487 03bf b2e1 143e ce04 1abf
00000030: 697a ab3d 086d 76be 02b0 c2bd defe b3be
00000040: f107 babe 0565 8e3e 44d1 13bf 9300 9ebe
00000050: bafa 09bd 476b 05be c2f1 4cbf 5e39 b23e
00000060: e3c8 e93d fee2 12be c2bc 0dbf 5467 aabd
00000070: 84fd 0abe 2324 a73d fb5b ee3e 6c44 a8bd
00000080: de86 05be f051 713e bddb c7bd 6a07 4dbf
00000090: 3e24 833e 3a72 53bf 5384 5b3d 6d08 b9be
000000a0: d527 33bf 9fca 7bbe 8a97 eabf 75bf 263e
000000b0: 87d5 043f ff30 d3bd 4712 c7be 1bf4 57bf
000000c0: 4366 9c3d 8c54 ed3e ecc0 aa3d ca99 04c0
000000d0: d536 69be 84ec 18bf 9050 bd3e 5344 453b
000000e0: 6920 803e a1ac 3ebe ba0b d8bc d094 a43d
000000f0: 2cd3 a3be b2dc 9e3d 9157 d1be b75e aabe
00000100: 54c9 1abf b909 683e 0a6c 11be 8e4f d83e
00000110: 2049 ed3d 4cac 693d 18a4 ebbe 7e90 9bbe
00000120: 73e5 c93e f252 603e b376 cfbe 88a6 99be
00000130: bea4 29be d45e ffbd eaf5 bf3c 32fb 8ebf
00000140: 6096 1a3b 4e6e d63c 946e 633e 9bb5 733e
00000150: 35f4 12be 83c1 85bd 12fa 003f cdda b7bd
00000160: 0559 c33e 1f6e 223e 33db 33be 34a8 67be
00000170: db72 debe 72b5 823d 923f 403e ea87 5d3e
00000180: 9768 83be 6bef f23e 1cb3 e23e ad66 c43e
00000190: f66b 91be a416 90be f68e 05bd 52f3 21bd
000001a0: 6a28 eebe 40e9 9abe 7f63 843e d507 d83d
000001b0: 6d03 40bd 4f95 943d 2bde 15bf 99da 073f
000001c0: 603c 0cbe 7bd8 eebe f7c8 a6bd 1f2a 17bf
000001d0: a8c8 793c ebed f33b 095e 8bbe c34c 8ebe
000001e0: 2d95 a8bd c16b 26bf 75c5 afbe cdaf 923d
000001f0: 5ba0 b3be 283d b03e aedf f13c 8638 053d
00000200: 68fe 0d3e 69b6 75be f1cb c1be 06f3 c9bd
00000210: f6cf 9c3d c126 62be 1a5d 10be 246e 113e
00000220: 3c19 ec3e 56a0 ed3d aebf 273e 9815 0bbe
00000230: 81d8 bb3e 7a50 2b3e 06f7 d3bf 1bc9 103e
00000240: 0a64 4e3e 566c 4d3d 533c 643e 264b 24bd
00000250: ee6a 1f3d 61b0 05c0 844d f83d 9615 c9bc
00000260: c752 653e 705b 113d fe9a ecbc c347 aebc
00000270: 2632 26be d8c1 243e 7ed2 41c0 b67d 3bbd
00000280: 4d47 e03d be77 363d bdbc 8dbd c645 983d
00000290: f71b 0cbe f8e8 b0bd 2f9f 73c0 6865 6abd
000002a0: 889a 87bd 3bd6 253e 2147 c53d 5ca8 9b3d
000002b0: 18b3 eb3e 9658 2fbd a902 a3bd 2d4c b73b
000002c0: ca17 e6bd c43d 833d 8f7b 2fbe 4a53 123e
000002d0: ba37 59be d82a 013e b4b6 adbd 2e7e c23c
000002e0: 22f2 c43e 8217 aebe c113 5e3d da9b 0ac0
000002f0: dd46 e8be cf76 9e3d a97e dd3d c431 793e
00000300: 8f86 0b3e 9362 10bf 6228 93be 2755 c33e
00000310: 4fa4 25bd 0864 1abe 273b ecbd 2d74 bb3e
00000320: ace5 b33d 0aab 95be 6415 e63e 4612 55be
00000330: 32a6 1abf ca91 2ebe 3615 e53d a4ed 8abe
00000340: 1854 00be fc7b 82bd 92e9 943e 6bcc 0b3e
00000350: 84e5 0f3e 44f9 6dbe 6429 30bf 1738 0e3f
00000360: e2e1 083f 6d2a ee3c 6563 c83e 3b86 febe
00000370: f4a7 9cbf d910 d0be 4a6c 1cbe ad39 14bf
00000380: d3da 7fbe e85d 3c3e a592 4dbf 4b0c 9bbe
00000390: 8fee 67bd 1bd4 4ebe f27b 2fbe 2513 9d3e
000003a0: 0363 56bf d938 a3bf 7d22 b9be 8a20 443e
000003b0: fab1 53bb 0cc6 a1be bd04 fcbd 4e0b 4bbf
000003c0: e8ed c4be f30f f73e 61e1 d0be 2290 80be
000003d0: c97f 45bf 4137 783d 7ec0 583e 9772 a0be
000003e0: 02bd 0d3f 257f 81be 8db7 eebc bd24 47bc
000003f0: 0172 463f aef6 2abd 31a7 88bd 7559 d3be
-0.32757854 0.6031259 -1.7836215 -0.9821394 -0.054085895 -0.14198838 -0.46980003 0.06196478
0.121561244 -0.5137923 0.14539221 -0.6016358 0.08372957 -0.2406503 -0.09506227 -0.35155386
-0.36334184 0.27811447 -0.5774119 -0.30859813 -0.033686377 -0.13029204 -0.80056393 0.34809393
0.11415269 -0.14344403 -0.55366147 -0.083204895 -0.13573271 0.081611894 0.4655455 -0.082161754
-0.13039729 0.23566413 -0.097587086 -0.8008944 0.25613588 -0.8259617 0.05359299 -0.3613924
-0.69982654 -0.24589013 -1.8327496 0.16283973 0.51888317 -0.1031208 -0.38881132 -0.8435685
0.076366924 0.46353567 0.08337578 -2.0718865 -0.22774823 -0.59735894 0.36975527 0.003010054
0.25024727 -0.1862054 -0.02637278 0.08036196 -0.3199705 0.07756938 -0.4088712 -0.33275387
-0.6046345 0.22659959 -0.1420137 0.42248195 0.11586213 0.05704908 -0.4602363 -0.30383676
0.39432868 0.21906641 -0.40520248 -0.30009866 -0.1656675 -0.12469259 0.02343269 -1.1170409
0.0023588166 0.026175644 0.22210151 0.23799746 -0.1435097 -0.0653105 0.50381577 -0.0897728
0.38153854 0.1586232 -0.17564087 -0.22622758 -0.43447003 0.06382264 0.1877425 0.21633878
-0.25665733 0.47448286 0.44277275 0.38359585 -0.2840268 -0.28142273 -0.03260704 -0.03953869
-0.46515208 -0.3025608 0.2585716 0.10548369 -0.046878267 0.07255041 -0.58542126 0.5306793
-0.13694906 -0.46649536 -0.081438 -0.59048647 0.015245594 0.0074441335 -0.2722018 -0.2779294
-0.08231578 -0.6500817 -0.34330335 0.071624376 -0.3508328 0.3442166 0.029525604 0.032524608
0.1386658 -0.23995365 -0.37850907 -0.09860806 0.07656853 -0.22085096 -0.14098015 0.14202172
0.46113002 0.11602847 0.16381714 -0.13582456 0.36688617 0.16729918 -1.655976 0.14139216
0.2015535 0.050152145 0.22288637 -0.04011073 0.038920335 -2.0888903 0.1212416 -0.024546426
0.22394858 0.035487592 -0.0288825 -0.021274453 -0.16230068 0.1608957 -3.0284724 -0.045774184
0.109510995 0.04454779 -0.069207646 0.07435183 -0.13682543 -0.08638185 -3.8065908 -0.057225615
-0.06621271 0.16195004 0.096327074 0.076004714 0.46035075 -0.04280909 -0.07959492 0.0055937977
-0.11235006 0.06408265 -0.17136978 0.14289585 -0.21212664 0.12614 -0.084821135 0.023741808
0.38465983 -0.3400231 0.054218058 -2.1657624 -0.45366564 0.07737505 0.10815174 0.2433539
0.13625549 -0.5640041 -0.28741747 0.38150904 -0.0404399 -0.15077221 -0.1153472 0.36612073
0.08784041 -0.29232055 0.44938195 -0.20807752 -0.60409844 -0.17047802 0.11185686 -0.2713443
-0.12532079 -0.063713044 0.2908445 0.13652198 0.14052397 -0.23239619 -0.6881316 0.55554336
0.5346967 0.029072965 0.39138332 -0.49711785 -1.2238755 -0.40637854 -0.15275684 -0.57900506
-0.24985819 0.18395197 -0.80301887 -0.30282816 -0.05662399 -0.201981 -0.17137125 0.3067867
-0.8374483 -1.2751724 -0.36159125 0.19153038 -0.0032302127 -0.3159641 -0.12305591 -0.79314125
-0.38462758 0.48254356 -0.4079695 -0.25109965 -0.7714811 0.06059957 0.2116718 -0.31337425
0.5536653 -0.25292316 -0.029140258 -0.012154755 0.77517706 -0.04173916 -0.06672514 -0.41279188

feature.2.bias f4 [64]
00000000: 4f79 403f a763 153f 4464 4d3f 1328 833e
00000010: ec1d 233f 5ed4 163f 4d0d 123f c670 393e
00000020: ad40 243f 541d 1b3f 6be7 3b3f d7a2 113f
00000030: bd71 163f c21a e43e 4bae 1d3f 8076 c4bf
00000040: f09b 893e fe70 ff3e 07f6 3e3f 01ed 1b3b
00000050: 779c 403f 986a 0b3f 9efc fe3e c8c9 893e
00000060: cc5c 063f 6f92 173f 98df 80bd 794c e8be
00000070: 4450 3c3f 3648 023f 6e77 1b3f 6fd9 0a3f
00000080: 4bca 103e 45ac 2f3e bf56 a03d 5a6c 013f
00000090: b13a d43e 689a 933e 49ac 6fbf a867 943d
000000a0: 9c11 1d3f ad3d b43e e562 0f3f eb18 4d3e
000000b0: 5b38 ad3e 2a7b 053f e5bc 3c3f 6219 343f
000000c0: 26cc 223f 162f 123f b93e 543f 4305 203f
000000d0: 4309 133f 9777 253f 0708 303f 5ce4 1a3f
000000e0: f7cf 153f e8c6 443f 883f 35bd 2892 123f
000000f0: 45ef a13f 2f24 073f 0925 593f 2c97 333f
0.751851 0.5835518 0.8023112 0.25616512 0.6371753 0.58917797 0.57051545 0.18109426
0.6416119 0.60591626 0.7339999 0.568891 0.587673 0.44551665 0.61594075 -1.5348663
0.26876783 0.49890894 0.7459416 0.0023792388 0.75238746 0.54459524 0.49802107 0.2691176
0.52485347 0.59207815 -0.06292647 -0.45370844 0.73559976 0.50891435 0.6072911 0.5423803
0.14139669 0.1715556 0.078290455 0.50555956 0.41451028 0.2882874 -0.9362226 0.07246333
0.61354995 0.35203305 0.56010276 0.20029037 0.33832058 0.5214106 0.7372573 0.7035123
0.63592756 0.571031 0.8290821 0.6250803 0.5743601 0.64635605 0.6876225 0.605047
0.58520454 0.76866007 -0.04425004 0.57254267 1.2651144 0.52789587 0.84822136 0.70152545

feature.4.weight f4 [64, 64]
00000000: a5ca 1abf 363b 9cbd 0875 e3bd 6351 6a3d
00000010: dcde 1f3f 0c8f 86be 7cf0 3c3d d3a2 19bf
00000020: 34de a43e 1969 433e a753 b9be 80c5 283f
00000030: 655b 123f caba ea3d f54a 863d f3b4 d3be
00000040: 0388 bbbd 345b 8abe 6f3c 91be 2613 b8be
00000050: 7bed a2bd a962 3bbe ffca dc3d 2e6d de3d
00000060: c2f6 28bf ccdf b53d c170 06bd 6023 13bf
00000070: 3570 3e3e 9fcf b03e b0e0 e7be dcf4 b1be
00000080: b156 973d ab25 b23d 9771 2e3d a982 c1be
00000090: 1f64 603e f830 a5be 2980 81bd f83a 8e3e
000000a0: 522f 3b3e 0dc5 b23d d039 2dbe 8fcd 8f3e
000000b0: 1884 523d 39d4 8dbd 3111 febe bf0a 1d3e
000000c0: 8c59 f2bd c634 c63e 48eb 2dbf 8857 80be
000000d0: a9ac 463e c24a 38bf 4bfb 15bf c962 ab3e
000000e0: 719b 99bd a3e8 86be 619a f13e 34db 48bf
000000f0: 8a97 d6bd 2cd5 cabd 6f0b 663d b33b 50be
00000100: 17d0 cd3c 70cb 853d 73c3 1dbe 1008 613e
00000110: 0b01 7d3e ddf2 c63e 719a 113d 1a26 4fbd
00000120: 033c 7dbf 774a 06bf 1658 42be e6f3 7b3e
00000130: f55e 8cbe 6407 54be d144 6cbe 5f6d 113e
00000140: 45b5 dc3c 437f f93e e37c 2e3f 63b8 8a3d
00000150: 0541 8d3d 9346 263e 4b90 913a 6dfa 47bf
00000160: ef63 4b3f 38b2 e9be 3ee1 bbbd e9ec f03d
00000170: 822b 27bf 3193 2b3d dd02 843e e70c f93d
00000180: 0a8e 123e 48fc 99be 0375 843d 4e97 4fbf
00000190: 0b04 89bc 4ce8 eebe bc6a 46be 916d e2bc
000001a0: 1593 b33e e573 783e b5a3 01bf b55b c7be
000001b0: f54e 0cbf ded9 b2be 9592 043d 6fe2 be3e
000001c0: 8fb2 afbe e7d2 56be 7ac5 df3e 965e 11bf
000001d0: 0e5d dc3d d37f 843e 1be0 1b3f 49d9 53be
000001e0: f6f5 cebe b711 adbe 72ec 0e3e 2744 723f
000001f0: 715e 09bf 3c9a b6bd a523 723e e7e7 603e
00000200: 2df5 073f 1bfb aabd bfb7 c0bd 9776 563a
00000210: af9c 83bd 247d a7be 6b9a 13be 672e d53e
00000220: e5e4 a3bf 9faa f03d 1426 a33d 7def 13bf
00000230: 0183 09be 6ad2 74bc 01e3 663d b7d0 c6be
00000240: 0371 87be 39c1 24bf 518f 6dbf 93af abbd
00000250: 4a27 25bf 60b1 efbd ef46 e2bd d2c0 1d3f
00000260: 17fd a53e 5439 4dbe cb53 773e 4d5d 8fbe
00000270: 1845 153d c583 913d 3d2a 20bf 1a64 103f
00000280: d8fa 123e 11c2 ecbf eb7f cc3e ea28 eebe
00000290: 1cb1 d6bd d369 2bbf 8dd8 0cbf f2b9 40be
000002a0: db63 b1bd 384d 773c 5ddd 54be 60b0 cebe
000002b0: df45 1fbe 0f75 15be b98f 82be 22fd 8fbd
000002c0: 62f0 033f e922 bfbe 74fb 44bf dad0 47be
000002d0: 65d9 81bf 3596 be3d 3a51 0ebf 8391 be3e
000002e0: f9c5 423e a9a4 35bf ccbf 84be d4f3 c1bd
000002f0: df1e 833c 5d52 7ebe 5bf7 e93e af72 2b3f
00000300: 4d65 83be 1d27 11bf ad3d 4bbf fbf1 31bf
00000310: 917b 2f3f cd6c e53e e9e4 f8bd 7813 2d3c
00000320: 05f2 4c3e 56a5 1cbe 5d93 9d3d cf8b efbe
00000330: ed18 d43e c835 a4be 49f8 553f 63d8 a1bd
00000340: e5d3 c0be 2016 35bf 1154 bebf 800b d63b
00000350: 078d 013f 99c7 61bf 385c 17bd 6f3e a53e
00000360: 10fd c9be e8ce b33e cbed 2abd b17b bebe
00000370: 155a 3cbe 82a8 3abf 474d 653e af1d a5bc
00000380: 0a71 d8bd bbde 1abf 7d3f f3bd 4206 ca3e
00000390: 7fe7 c13e b4c5 0ebf d9b0 efbe a077 8ebd
000003a0: 9a69 aabe dbd2 79be 6636 17be 4106 933e
000003b0: 5c24 c63d 024b 9e3d baf3 ae3e 78a6 00bf
000003c0: 4a41 373f aaae 2b3c 8a66 16bf cc97 363f
000003d0: 4e14 8fbd e1d2 e93c 33a4 1bbf 7fcf 93bf
000003e0: 1eaa dabc af56 083f 7721 333e 163c 99be
000003f0: c89d ffbf f3a9 e13e bcb7 e33d c7a4 973c
-0.6046546 -0.07628481 -0.11106306 0.057206523 0.6244943 -0.2628101 0.04612778 -0.60014075
0.32200778 0.1908306 -0.36196634 0.6592636 0.57170707 0.114614084 0.06557266 -0.4134899
-0.091568016 -0.27022707 -0.2836642 -0.3595211 -0.07955452 -0.18299355 0.10780906 0.10860668
-0.6600152 0.088805765 -0.032822374 -0.5747585 0.18597491 0.34533402 -0.4528861 -0.34757125
0.07389582 0.08698591 0.042588796 -0.37794998 0.21913193 -0.32263923 -0.06323273 0.27779365
0.1827977 0.08728991 -0.16916585 0.28086516 0.051395506 -0.06925244 -0.4962249 0.1533613
-0.11833486 0.38712138 -0.67937136 -0.2506678 0.19401802 -0.7198907 -0.5858657 0.33473805
-0.07500351 -0.26349363 0.47188094 -0.7845948 -0.104781225 -0.099039406 0.056163248 -0.20335273
0.025123639 0.06532943 -0.15406589 0.21975732 0.24707429 0.38857165 0.035547677 -0.050573446
-0.98919696 -0.52457374 -0.18978915 0.24604759 -0.27416196 -0.20705944 -0.23073126 0.14201878
0.026941905 0.48729905 0.6815931 0.0677345 0.06897167 0.1623786 0.0011105625 -0.78116494
0.7944936 -0.45643783 -0.09173821 0.11763937 -0.6530076 0.04188842 0.25783435 0.12160664
0.14311996 -0.30075288 0.06467631 -0.8109025 -0.01672556 -0.46661603 -0.19376653 -0.027640136
0.35073152 0.2426296 -0.5064042 -0.38937154 -0.5480798 -0.34931844 0.032366354 0.3728213
-0.34315917 -0.2097889 0.4370535 -0.5678495 0.10759936 0.25878772 0.6088883 -0.20688356
-0.40422028 -0.33802578 0.13957384 0.9463524 -0.5365973 -0.089161366 0.2364641 0.21963464
0.53108484 -0.08348676 -0.09410047 0.00081811234 -0.064263694 -0.32712662 -0.14414375 0.41636965
-1.2804228 0.117512934 0.07966247 -0.57787305 -0.1342888 -0.014942745 0.05636883 -0.38831112
-0.2645341 -0.64357334 -0.9279681 -0.083830975 -0.64513075 -0.117037535 -0.11048686 0.61622345
0.32419655 -0.200414 0.24153058 -0.2800087 0.036442846 0.07105211 -0.6256445 0.5640274
0.14353502 -1.8496724 0.39941344 -0.4651559 -0.10483 -0.6695835 -0.5501793 -0.18820933
-0.08661624 0.015094094 -0.20787568 -0.40368938 -0.15553997 -0.14595436 -0.25500277 -0.07030703
0.5153867 -0.37331322 -0.76946187 -0.19513264 -1.0144469 0.093059935 -0.5559269 0.37220392
0.19020833 -0.70954376 -0.2592758 -0.09470335 0.016005931 -0.24836107 0.4569653 0.6697187
-0.25663224 -0.5670031 -0.79390985 -0.6950986 0.6854792 0.4480957 -0.12153036 0.010563724
0.20014198 -0.15297446 0.07694123 -0.46786353 0.41425267 -0.32072282 0.8358198 -0.079026006
-0.37661663 -0.70736885 -1.4869405 0.0065321326 0.50605816 -0.88195187 -0.03695318 0.32274196
-0.39450884 0.35118794 -0.041730683 -0.37203744 -0.18393739 -0.7291337 0.2239276 -0.020155756
-0.105684355 -0.6049611 -0.11877344 0.394579 0.3787193 -0.5577042 -0.46814612 -0.069564104
-0.33283693 -0.24396841 -0.14766845 0.2871571 0.09674904 0.0772915 0.34170324 -0.5025401
0.71584 0.010478655 -0.5875021 0.71325374 -0.06986295 0.028542938 -0.60797423 -1.1547698
-0.026692446 0.5325727 0.17493235 -0.29928654 -1.9970026 0.44074973 0.11119029 0.01851119

feature.4.bias f4 [64]
00000000: a0f7 8c3f 84a3 6b3f 9f52 333f d37d 263f
00000010: 2a55 8b3e a630 763f dfb5 283f 8716 383f
00000020: c790 0a3f 4c09 123f bd47 1b3f f72a ad3f
00000030: e2ad 343e 88bd 033f c76c 443f 2521 f93d
00000040: 7c90 783f 8260 0d3f 3bd4 5d3f 6b15 4c3f
00000050: 025f 4c3f 2548 a13f a771 9f3e 59a8 213f
00000060: 9cce 723f e6bb bd3e a4df c13f dab0 723f
00000070: 7bae 9f3e dddd 373f a456 4a3f cd79 653f
00000080: 49bc 843f 2d73 6f3f f248 ea3d c088 ed3e
00000090: ba5e 803f 0b70 543f a3e3 6cbf 3054 463f
000000a0: d37c 1f3f 2008 cf3e aebb db3f ca06 893f
000000b0: fbd2 573f 40da 063f e6f4 fd3e a902 563f
000000c0: 3410 373f 8cfc 703f 6184 553f f3ff 133f
000000d0: 2cb2 993f 74b4 cb3e aa3a 303e 2b90 e13f
000000e0: 048c 8b3f 7741 6cbf 6863 223f 7a60 be3e
000000f0: 2843 8c3f 4883 423f 1463 873f 6395 9c3f
1.1013069 0.9204638 0.70047945 0.6503574 0.27213413 0.9616798 0.65902513 0.71909374
0.5412716 0.57045436 0.6065634 1.3528737 0.17644456 0.51461077 0.7672848 0.12164525
0.97095466 0.55225384 0.86651963 0.7972018 0.7983247 1.2600142 0.31141397 0.63147503
0.9484651 0.37057418 1.5146375 0.94801104 0.31187806 0.7182291 0.79038453 0.8963898
1.036996 0.9353512 0.114396945 0.46393394 1.0028908 0.82983464 -0.92534846 0.7747221
0.6229984 0.40435886 1.716665 1.0705197 0.84306306 0.52676773 0.49600905 0.8359781
0.715091 0.94135356 0.8340512 0.5781242 1.2007499 0.39786112 0.17209879 1.7622122
1.0902104 -0.9228739 0.6343293 0.3718298 1.0957994 0.7598157 1.0577111 1.2233089

log_std.weight f4 [5, 64]
00000000: 91da e8bc a728 5239 3dd9 d9bb c8c4 333d
00000010: 0123 ba3c 84d3 6e3c 9a98 4f3c fc48 96bc
00000020: 8031 3c3c 6fa1 aebb 570a 92bb 5d60 933c
00000030: ed15 f3bc 7703 913c 06ba 5fbb 5472 f63b
00000040: 7ade 60bc 2795 ef3c b7c6 eabc f795 b6bc
00000050: 80c9 31bb 3d28 38bc d18d 453c a37f 283d
00000060: 19b2 f93c 555b b3bb bff0 173c d72b 8f3b
00000070: f304 72b9 7e6e 98bc 4a18 b43a cb43 a23c
00000080: 5cc2 a33b e879 b4bc 654a 5bbb a3b7 863b
00000090: bb28 15bd cf93 d7bb 50be 713c 0583 993c
000000a0: 55a1 24bd 770a 48bc ea95 01bb 4cd3 d7bc
000000b0: 9804 2f3c a2b8 5d3c 4484 373c fb23 6c3c
000000c0: fd74 10bc 1a0d c1bb 8c99 eb3c af0c b3bc
000000d0: 06eb fd37 a61f 6e3b acaf cfb9 a558 393c
000000e0: 39e3 97bc 8a5b 1e3d 3fed 56bc 3ed8 8a3d
000000f0: c003 183c 49c9 7e3d 4e14 8e3c 93e4 c73c
00000100: 0aa0 34bc 6066 68bd 30e5 9e3d f8e9 28be
00000110: cd97 2abd 26b6 ea3c 301a 833d 9403 543e
00000120: 18b1 8f3c 9729 503d 0a37 c03c 940b 42bd
00000130: 6ffb 81bd 8f90 473e eee8 a03d 5fca 0c3e
00000140: d11b 02bd 0a64 853b 6992 2abd bdeb 8a3c
00000150: e3ac 923c c441 483c c8bb f83b 560f ac3c
00000160: a462 f03d 013e 24bc 35ef 293c 63f0 80bd
00000170: 578a 633d bbf4 34be a938 8b3d 2de3 883c
00000180: a13f 0abc 72ff 3e3d 9439 f4bd 6381 6fbe
00000190: 61f5 313d 38af 5bbd 4500 fb3b 48e3 563c
000001a0: bfbc 09bd 241f 163e 5f51 86bd 3457 3a3a
000001b0: 28e1 bb3d f4fe 0bbc 68ea 9e3d 51a8 9a3e
000001c0: 7574 6dbd 6b9f 0abe 6e61 77bd c3fd 193e
000001d0: ae96 203d ea42 a6bc d3b2 883d df5c 593a
000001e0: df56 e83d 9391 d1bd b9bf 78bb 5c4b a33c
000001f0: efd5 f13d c9fb a33d 19cb edbc b382 903d
00000200: c266 6f3c b139 94bd 2969 7ebc 0ef9 03be
00000210: a0a8 b8bc a737 743d e187 f33c 6125 2e3e
00000220: b54d 9b3c 52eb 0f3d c0eb 4f3c 1e15 c23c
00000230: 8652 aebd 775c 5ebc f335 8e3d 2d2f 0b3e
00000240: fdca 11be c895 4a3d f1e5 ef3c c520 1abc
00000250: ac41 72bc 1831 643c 1c75 1b3d 5ba2 a93d
00000260: 8bb4 533b b287 a73a 09e6 d53c 40e5 10bd
00000270: d269 9e3c 8216 b5bd dd33 85bc b590 3f3d
00000280: 5afb 773c 9980 fa3d 3954 bebd 87b1 87be
00000290: 65b7 b33c 3a91 5ebd b842 693b 5bc6 33bc
000002a0: 7798 8abd 33e6 8a3e 9f52 90bd 79ec 053b
000002b0: 0fde 6dbb 168c 4ebc 3922 d83d 4ad8 3b3e
000002c0: 61f8 a8bd b51b f83d cf4e c4bc 766b f33c
000002d0: a7ee d53c a1b6 d7bd 6905 493d 554d cf3b
000002e0: 09f4 d2bd 3ae4 00be d341 f53c f073 533d
000002f0: 6630 283e f88d 983d 9510 89bc bc4b 283e
00000300: fddf 32bc 90de 633e d8d0 8d3d 78c3 d73d
00000310: 2714 513d d55a 78bd daf4 313d b530 1f3e
00000320: 138f 8cbd 52f3 8a3d d8f7 2dbd 48ee 55bd
00000330: 919a 3dbd 2eb9 dabd 4dd1 68bd 514a 9c3d
00000340: 2849 8abd baaa 483c 2714 da3d 0394 be3c
00000350: 13bc 1b3c 5155 a53b 4915 6e3e 12fe 19bd
00000360: d857 c13c 472a d9bd 2ab2 42bd 56c5 3d3c
00000370: cd56 a23d 577d 68be 7d6d cf3d 3693 c13d
00000380: 23fa 37bd ad49 c63c c778 41bd 0818 a53d
00000390: 22bf c9ba 52fc 6e3a 640f 1c3e f50b 9dbd
000003a0: 9884 f1bb 47b2 7dbc 5de2 01bd 86b9 9e3c
000003b0: 2094 fabb 109c d43d c3ee b33b bcd6 d33d
000003c0: 12e9 513d 809e 61bd 6722 283e 4416 473d
000003d0: b48c 63bd b586 77bd a5af 77bd bfe4 803d
000003e0: 795d e8bb 1fe8 273e b0cf dfbc 0a7e 7dbd
000003f0: 06f1 02bc f37d ce3b 5af5 87bc b0d4 36bd
-0.028424533 0.00020042305 -0.0066482113 0.043888837 0.02272177 0.014576796 0.01267066 -0.018345349
0.011486411 -0.005329303 -0.004456799 0.017990286 -0.029673541 0.017701847 -0.0034137978 0.007520953
-0.013724918 0.029245926 -0.028659208 -0.022288306 -0.002712816 -0.011240062 0.012057737 0.04113735
0.030480431 -0.005473534 0.009273707 0.00436924 -0.00023080762 -0.018607374 0.0013740149 0.019807717
0.0049975347 -0.022030786 -0.003346109 0.0041112467 -0.036415797 -0.0065788995 0.014754847 0.018739233
-0.04019292 -0.012209526 -0.0019773194 -0.026345871 0.010682248 0.013532789 0.011200968 0.014412875
-0.008816955 -0.0058914544 0.02875974 -0.021856634 3.0269392e-05 0.0036334782 -0.00039613002 0.011312638
-0.018540965 0.038661517 -0.013118087 0.06779526 0.009278238 0.06220368 0.017343666 0.024400985
-0.011024484 -0.056738257 0.07758558 -0.16495502 -0.041648675 0.028651308 0.06401479 0.2070449
0.0175405 0.050820913 0.023463745 -0.047374323 -0.06346785 0.19488738 0.07856928 0.13749073
-0.03176481 0.0040707635 -0.041643534 0.016958112 0.017904704 0.012222711 0.0075907446 0.021003406
0.11737564 -0.0100245485 0.010371973 -0.0629585 0.055551853 -0.17671482 0.067979164 0.016709888
-0.008438022 0.04663033 -0.11925045 -0.23389201 0.043446902 -0.0536339 0.0076599442 0.0131157115
-0.033627268 0.14660317 -0.06558489 0.0007108331 0.091738045 -0.008544672 0.07759553 0.3020654
-0.05797239 -0.13537376 -0.06039565 0.15038209 0.0392062 -0.020295579 0.06674733 0.0008291732
0.11344694 -0.10232844 -0.0037956072 0.019933395 0.11808383 0.080070086 -0.029027509 0.07056179
0.014611902 -0.07237566 -0.015528002 -0.12887976 -0.022541344 0.059623387 0.029727878 0.17006446
0.018957952 0.03513653 0.0126904845 0.02369171 -0.08511834 -0.01357185 0.06943884 0.13592215
-0.1423759 0.04945925 0.02928445 -0.009407227 -0.014786165 0.0139277205 0.03795348 0.0828292
0.0032303657 0.0012781529 0.026110666 -0.03537488 0.019337568 -0.08842184 -0.016260082 0.046768863
0.0151356105 0.12231559 -0.09293408 -0.2650263 0.021938035 -0.054337718 0.0035592746 -0.010972585
-0.067673616 0.27128753 -0.07047009 0.0020435138 -0.0036295687 -0.012606641 0.105534025 0.18344226
-0.082504995 0.1211466 -0.02396336 0.029714327 0.026114775 -0.105328806 0.049077425 0.0063263574
-0.10300452 -0.12587062 0.029938614 0.05162424 0.16424713 0.074489534 -0.01673154 0.1643514
-0.010917661 0.2225287 0.069245994 0.105353296 0.05104461 -0.0606335 0.0434464 0.15545924
-0.06863227 0.06784691 -0.04247269 -0.052229196 -0.046289984 -0.106798515 -0.05684023 0.07631362
-0.06752235 0.012247736 0.10648375 0.023263937 0.00950529 0.005045571 0.23250307 -0.037595816
0.023601457 -0.10603767 -0.04753319 0.011582693 0.07926712 -0.22704063 0.10128305 0.094519064
-0.044916283 0.024205053 -0.047234323 0.08061224 -0.0015392045 0.0009116578 0.15240246 -0.07668296
-0.0073705427 -0.015484399 -0.031710017 0.019375574 -0.0076470524 0.10381329 0.005491109 0.10343692
0.051247664 -0.055082798 0.16419373 0.04860522 -0.055554107 -0.0604312 -0.060470242 0.0629363
-0.007091221 0.16397141 -0.027320713 -0.06188778 -0.007992035 0.0063016354 -0.016596485 -0.04463643

log_std.bias f4 [5]
00000000: 3e5c 92be b69c 37bf 876a 50bf 59ff 51bf
00000010: 90b7 41bf
-0.28586 -0.71723497 -0.8141255 -0.82030255 -0.7567072

mu.weight f4 [5, 64]
00000000: dd93 d4bd 94e1 613e fd8a 88bd 68f9 ed3d
00000010: edd5 99bd 3ba1 ccbd a7e4 96bd e647 20bb
00000020: 831a 99bd 9c5e a73e 9ae4 b2bd 7969 81be
00000030: a095 563e 1324 303e 847d d23d c716 8bbe
00000040: 7593 f6bd d4a3 303e 6eee a9be f802 7abd
00000050: 61ba c0bd baef da3e 4d81 16bd 0ae4 003e
00000060: f2db e53d 782f 60bd ca93 5a3d fcf0 0bbc
00000070: 7192 183e 04a3 cd3e 9157 673e 8f19 4ebe
00000080: 8004 923e 259f 573c 4d57 32bd d963 fcbd
00000090: d5e5 b33d e21f 0dbe bc8f 103e 37a2 9cbd
000000a0: f6f4 ba3e fc4c da3c bdfe 35bd 4003 a1be
000000b0: 601f 063e 6feb 92bd 6d0b 213e 1776 133e
000000c0: dfb2 eabd 11a6 22be 82db f1bd 652f 7e3e
000000d0: 2bbe 773d 85f7 8f3e 7693 c3bd 7952 263c
000000e0: bed7 ce3d 9986 a33e 7419 9dbd cfb6 dc3c
000000f0: ad6c 9f3d 9aec 16be 6043 393e 294c 6abe
00000100: b9fa 9f3e 5f3c 8d3c ef26 a43e ee09 14bf
00000110: 41ab 8dbd 0839 903a 259c 933d 7aa0 97be
00000120: a6e2 983d 34b0 3ebe 9744 2ebe ee5e 19bc
00000130: d902 aabd 2f06 37be 5558 823e c490 1bbe
00000140: 3325 72bf 1ab0 aabe 77ee b7ba 4154 09bf
00000150: 015c 403f 11b6 473b 6190 b63d f824 febe
00000160: b086 e5bd 05f4 583c 0e1b 9b3d f3b3 6bbe
00000170: 3b98 6cbd 2012 073e 824e 263e c2da d73e
00000180: 411d 973e 3eed 65be 5dca bf3d f7b9 7cbe
00000190: d612 1fbf f8a6 7c3d 1c2b 563d 2905 13be
000001a0: 7978 6abd f9c2 9c3d 7503 eb3e 8c72 88bd
000001b0: 66e2 1bbf 98ba 8a3e f25d 053f bb32 563f
000001c0: 8ec6 af3e b7b0 1dbf c96f 06bf 7488 05bf
000001d0: a6c8 ad3e 818a 9a3e c226 c83d 2110 29bd
000001e0: c57a b03e 625f 803f 80bc 9f3d 62d8 a1bc
000001f0: 4579 5ebf b6a2 183f e831 29bd 5ddf 5cbe
00000200: 8190 6fbe c823 74bc 5820 88bd 0b3b bb3e
00000210: 5c1f 2a3b 2df0 df3d aa46 b5bd 581c f63e
00000220: 9129 5fbc 96a2 773e 58e1 0b3e 2c4a 52be
00000230: a49e 933e 77e7 663d 537d bebe 08c6 2c3e
00000240: 34c0 ec3e 5e21 1b3e 4ad8 92bd fa19 cd3e
00000250: 324d bbbc edf4 4fbb 107c f4bd 5426 103f
00000260: ef9f 583e 17a6 19bc da87 253d a06b 863e
00000270: 77d8 1c3e dc39 b7be 6469 3dbe f9b3 85bd
00000280: 106d 35be 4e13 8e3e 9f5f edbc 0097 1d3e
00000290: c4d9 bf3e 4d31 a53c e3d0 123d 2a2f b23d
000002a0: 31cf 31bd 6a4f 2e3f b360 fcbe b571 23bd
000002b0: 1bb9 893e 8de9 89bc f75d 04bf 952d c9bd
000002c0: ff4c 34be e47c 1ebf 57f5 ef3e f248 713e
000002d0: df4b f5be 904b bdbe 9011 193d 5009 c43c
000002e0: 85a5 a63e 995e 8fbf 0517 4abd 9288 3c3c
000002f0: b5b9 9f3f cddf 05bf 6b22 023e 4b87 3a3f
00000300: 238c 5bbe f379 013f aac6 c1be f444 c1be
00000310: cbcd 87be 7d57 183d 7fd1 07be c998 683e
00000320: b91f 1e3f cfd4 883c 8065 f8bd 12aa dbbb
00000330: 66ab 9c3d cba5 b23e 5d3d e63d b661 9b3d
00000340: 8db2 e5bd 3e6a 4f3e 2ff0 d7be e178 f93d
00000350: 5100 06be df38 1fbd ba6e edbe 955d 683e
00000360: 6829 553e dc19 4a3e 6fcb 8abe c678 723e
00000370: a5a2 593e f537 3dbe f8a1 f5be 501d 813d
00000380: a263 0f3e 7c5e 863e 6e61 b2be a948 85bc
00000390: ddbd 77bd 26eb 93bd 6cad 9cbe a749 24be
000003a0: c6d4 0f3d 2f6e 3bbe 7330 733e acf9 9c3c
000003b0: 5d2d 2c3e 02fb a4bd 7869 cc3e 714d 2e3e
000003c0: 6441 893f 464c 0bbe f974 3f3f be58 903d
000003d0: 4df5 e03d 9809 97b9 da44 7abf 30c0 8e3f
000003e0: 5dbc 37bd 0dd2 703e 8289 cfbe 4c66 823e
000003f0: b66e 27be 47a4 c0bd cc46 70ba 8a33 29be
-0.10379765 0.22058707 -0.06667135 0.11619836 -0.07511506 -0.0999169 -0.07367831 -0.0024456917
-0.0747576 0.3268937 -0.087350085 -0.25275782 0.20955515 0.17201261 0.102778465 -0.27165815
-0.12039844 0.17249995 -0.3318972 -0.061037987 -0.09410549 0.42761022 -0.036744405 0.1258699
0.11223592 -0.05473277 0.0533636 -0.008541342 0.14899613 0.40163434 0.22591998 -0.20126937
0.28519058 0.013160502 -0.043540288 -0.12323732 0.08784071 -0.13781694 0.1411733 -0.076481275
0.36515015 0.026648037 -0.04443239 -0.31447792 0.13097906 -0.07173812 0.15727015 0.14400516
-0.11459898 -0.15883662 -0.11809446 0.24822767 0.060484093 0.2811853 -0.0954961 0.010151499
0.10099743 0.31938627 -0.076708704 0.026942639 0.077844 -0.14738694 0.18092108 -0.22880615
0.31245974 0.017240701 0.32060954 -0.5782765 -0.0691743 0.0011003325 0.072075166 -0.2961462
0.07465105 -0.18621904 -0.17018352 -0.009361012 -0.083013244 -0.17873453 0.25458017 -0.15191942
-0.9458801 -0.3333748 -0.001403286 -0.53644186 0.75140387 0.003047351 0.08914257 -0.4963758
-0.1120733 0.013241773 0.0757352 -0.23017864 -0.057762366 0.13190508 0.16240886 0.42159086
0.29514506 -0.22453782 0.093647696 -0.24680315 -0.62138116 0.06168267 0.052287206 -0.14357437
-0.057243798 0.076543756 0.45901075 -0.06662473 -0.6089233 0.27095485 0.52096474 0.8367116
0.34331173 -0.6159777 -0.5251432 -0.52161336 0.33942145 0.30183795 0.097730175 -0.041275147
0.34468666 1.0029109 0.077996254 -0.0197565 -0.8690379 0.5962328 -0.04130736 -0.21569581
-0.23394968 -0.014901109 -0.06646794 0.36568484 0.0025958633 0.10934482 -0.08851369 0.480685
-0.01362075 0.24183115 0.1366018 -0.20536107 0.2883197 0.056373086 -0.3720499 0.16872418
0.4624039 0.15149447 -0.0717016 0.4005888 -0.022863958 -0.003173168 -0.119377255 0.56308484
0.2115476 -0.009377978 0.04041276 0.26253986 0.1531695 -0.3578633 -0.18497235 -0.06528468
-0.17717385 0.27749103 -0.02897626 0.15389633 0.3747083 0.02016511 0.03584374 0.08700402
-0.043410484 0.68089926 -0.49292526 -0.03990336 0.26899037 -0.016834999 -0.5170588 -0.09823147
-0.17607497 -0.6190932 0.46866867 0.23562983 -0.47909448 -0.36971712 0.037370265 0.023930222
0.32548156 -1.1200744 -0.04933836 0.01150717 1.2478548 -0.5229462 0.12708442 0.7286269
-0.21440177 0.50576705 -0.3784688 -0.3774792 -0.26524195 0.03719281 -0.1326351 0.22714533
0.61767155 0.016703038 -0.121287346 -0.0067036236 0.07649879 0.34892115 0.11242173 0.07586996
-0.112156965 0.20255372 -0.42175433 0.12181259 -0.13086058 -0.038872596 -0.4637354 0.22691949
0.20816576 0.19736427 -0.27108333 0.23678884 0.2125345 -0.18478377 -0.47975135 0.06304419
0.1400285 0.2624396 -0.34839958 -0.016269999 -0.060483802 -0.072225854 -0.3060106 -0.16043721
0.035115026 -0.1830375 0.2374895 0.019162022 0.1681418 -0.080556884 0.39924216 0.17021729
1.0723081 -0.13603315 0.7478786 0.07048176 0.109842874 -0.00028808112 -0.9776131 1.1152401
-0.04485737 0.23517628 -0.40534598 0.2546867 -0.16350827 -0.094063334 -0.0009165823 -0.16523567

mu.bias f4 [5]
00000000: cda9 85bc 0681 9abe acbb 59bd cdde 23bf
00000010: 6d85 933e
-0.016316319 -0.30176562 -0.053157493 -0.6401184 0.28812733
