masac/model/simple_tag/agent_1/456_critic_params.pth (torch, 115263 bytes, 14 tensors)

critic1.0.weight f4 [64, 82]
-0.017046157 -0.028795615 -0.30692115 0.52357936 -0.08849384 0.11680883 0.0093080755 0.07177239
0.29968405 -0.041716497 -0.05585731 -0.015765898 0.11961112 0.18353572 0.09316032 0.010951084
-0.0073013017 0.017362364 -0.13918559 0.49789897 -0.056617193 0.22399764 -0.11132287 -0.022659117
-0.09043008 -0.18776263 0.29220808 0.039863434 0.018325597 0.04718372 -0.15660241 0.010548387
-0.0023978374 0.1693729 -0.46829402 0.5654554 0.07476451 0.1093049 -0.31313965 -0.41528767
0.021523995 -0.2579667 -0.0003894653 -0.08952378 -0.07797886 -0.13102101 0.002472569 -0.044702366
0.06353978 0.15563072 -0.43496135 1.0348524 0.35172892 -0.03816643 -0.18355767 -0.05892057
0.07103059 0.06069341 0.06521562 -0.10541888 -0.17081262 -0.06796828 -0.003348662 0.013153572
0.03171786 -0.0099872565 0.039392967 0.0059587294 0.0038777832 -0.067630276 0.003099187 0.010186014
0.03269062 0.045005493 0.06168752 -0.006641577 -0.055186912 0.0143986475 0.02589758 0.023538226
0.11188269 -0.10450581 0.2794207 -0.16140853 0.39970636 -0.35945812 -0.24145736 0.3285655
-0.5046985 0.4011462 -0.1722816 0.27620134 -0.4115836 0.12576924 -0.6400731 0.41481787
-0.20328782 0.04478806 0.03904832 0.03096776 -0.15989132 0.3128618 0.15763243 -0.12851007
0.26510444 -0.16653454 0.115527324 -0.4061693 0.00981699 -0.046818353 -0.27045783 0.017848842
0.124144904 -0.007970779 -0.014485779 -0.11631866 -0.045769535 -0.101010755 -0.14455025 -0.07831356
-0.101565935 -0.033887397 0.47634897 -0.21315889 -0.13428143 0.008306744 -0.30766752 0.21373214
-0.072834246 0.2030827 -0.26347214 0.16134377 -0.34590402 0.11799729 0.20913273 -0.22317101
0.2336559 -0.08594823 0.6586147 -0.29363734 0.2020016 -0.14834997 0.4552764 -0.10733606
-0.004163206 0.1306736 -0.1199735 -0.14028238 0.0713105 -0.014759894 0.06498812 -0.07420353
-0.072151035 0.058132038 0.026169607 -0.001751285 0.034207076 -0.010231543 0.0045644604 0.0028522657
-0.35235366 0.33189538 0.30264908 -0.32697913 -0.08733809 -0.43860993 -0.08098252 -0.4286699
0.06773478 0.43541887 0.052180998 0.35126013 0.23724794 0.41109273 0.25733352 0.47129604
-0.17095427 1.4824104 -0.08300993 0.10069929 -0.0023769357 -0.0072386703 -0.06072204 -0.18936491
0.0035008655 -0.10386364 0.10494157 -0.004705485 -0.204097 -0.54570913 0.064579844 -0.048759107
0.14384457 0.49546897 -0.05741013 0.1667901 0.011182162 -0.006234067 -0.08635246 0.0077407626
-0.0912099 0.037411697 0.0044334447 0.08592087 -0.14022347 -0.4481386 0.0025853675 -0.09805507
0.17192076 0.39321962 0.10974319 0.01718844 0.14257064 0.16164318 0.11759822 0.5951914
0.035162017 -0.39202052 -0.17751792 -0.44282505 0.04065758 -1.5082556 -0.07355003 -0.30041814
-0.30350035 -0.49136624 -1.8932151e-06 -0.040636294 0.0416003 -0.22060923 0.22336909 -0.00782319
0.001913826 -0.0071309675 -0.0026769838 -0.009788223 0.015960593 0.0043523465 0.0105006555 0.0030311833
-0.0105398595 -0.0014310896 0.054890707 -0.039406087 0.35083854 -0.32098258 0.033774123 -0.016117224
-0.18602574 0.16683684 0.060301244 0.10726071 -0.06447559 -0.06622926 -0.42573068 0.31397292
00000000: 62a4 8bbc c8e4 ebbc c524 9dbe 4c09 063f
00000010: 423c b5bd 7839 ef3d e680 183c 67fd 923d
00000020: 3070 993e ebde 2abd a2ca 64bd 7c27 81bc
00000030: adf6 f43d caf0 3b3e d6ca be3d 2d6c 333c
00000040: c23f efbb 843b 8e3c ab86 0ebe 9dec fe3e
00000050: 6ee7 67bd a35f 653e 3ffd e3bd 9d9f b9bc
00000060: 6833 b9bd d944 40be 4c9c 953e d747 233d
00000070: 901f 963c b743 413d 625c 20be 24d3 2c3c
00000080: 0925 1dbb 1770 2d3e 3cc4 efbe afc1 103f
00000090: 231e 993d 3fdb df3d d753 a0be 96a0 d4be
000000a0: 1753 b03c 3614 84be 2631 ccb9 3e58 b7bd
000000b0: 61b3 9fbd 5f2a 06be d30a 223b d419 37bd
000000c0: 2521 823d a95d 1f3e 41b3 debe 0b76 843f
000000d0: d015 b43e 6754 1cbd 8bf6 3bbe b256 71bd
000000e0: 7c78 913d a799 783d c48f 853d dbe5 d7bd
000000f0: 81e9 2ebe f432 8bbd 3a75 5bbb 1482 573c
00000100: 96ea 013d 97a1 23bc 855a 213d 7241 c33b
00000110: 6822 7e3b be81 8abd bb1b 4b3b 3de3 263c
00000120: 99e6 053d ae57 383d 0eac 7c3d 96a1 d9bb
00000130: ac0b 62bd 4ee8 6b3c 2927 d43c 3dd3 c03c
00000140: c022 e53d 2407 d6bd 3b10 8f3e 4748 25be
00000150: 50a6 cc3e e50a b8be 9940 77be bd39 a83e
00000160: ec33 01bf 0963 cd3e 966a 30be 436a 8d3e
00000170: 16bb d2be a7c9 003e d5db 23bf 0263 d43e
00000180: af2a 50be af73 373d 22f1 1f3d 1ab0 fd3c
00000190: 8dba 23be 6c2f a03e 656a 213e 2598 03be
000001a0: c5bb 873e 0888 2abe 9799 ec3d 6cf5 cfbe
000001b0: 71d7 203c 9ac4 3fbd 7379 8abe bc37 923c
000001c0: af3f fe3d df97 02bc c355 6dbc 7a38 eebd
000001d0: d678 3bbd bade cebd fb04 14be dc62 a0bd
000001e0: cd01 d0bd 83cd 0abd 03e4 f33e 5346 5abe
000001f0: 1281 09be 0219 083c 9986 9dbe 99dc 5a3e
00000200: 1f2a 95bd e9f4 4f3e d2e5 86be 4d37 253e
00000210: 551a b1be 90a8 f13d e426 563e f186 64be
00000220: 7e43 6f3e a005 b0bd f99a 283f a257 96be
00000230: 82d9 4e3e 0ee9 17be fd19 e93e 02d3 dbbd
00000240: 816b 88bb 4dcf 053e abb4 f5bd 2fa6 0fbe
00000250: 3d0b 923d 7cd3 71bc 7e18 853d 05f8 97bd
00000260: ecc3 93bd dc1b 6e3d a561 d63c 608b e5ba
00000270: b81c 0c3d 34a2 27bc 7891 953b 14ed 3a3b
00000280: b367 b4be 31ee a93e d2f4 9a3e cf69 a7be
00000290: 50de b2bd 7b91 e0be 2ada a5bd 9f7a dbbe
000002a0: 88b8 8a3d 39ef de3e bebb 553d 5ed8 b33e
000002b0: 20f1 723e bf7a d23e 38c1 833e b74d f13e
000002c0: a30e 2fbe a0bf bd3f 1c01 aabd 6e3b ce3d
000002d0: 5dc6 1bbb 5e32 edbb acb7 78bd e0e8 41be
000002e0: c76e 653b 76b6 d4bd 9beb d63d 7830 9abb
000002f0: cefe 50be 98b3 0bbf 7042 843d a1b7 47bd
00000300: fe4b 133e 1cae fd3e e226 6bbd 06cb 2a3e
00000310: 6335 373c 2547 ccbb 8fd9 b0bd 39a6 fd3b
00000320: 42cc babd 023d 193d 6e46 913b 48f7 af3d
00000330: be96 0fbe 6c72 e5be 456f 293b 19d1 c8bd
00000340: ff0b 303e 1554 c93e 0ac1 e03d c5ce 8c3c
00000350: 0afe 113e ca85 253e 56d7 f03d 775e 183f
00000360: 0c06 103d eab6 c8be 42c7 35be f7b9 e2be
00000370: 9088 263d 850e c1bf 66a1 96bd 68d0 99be
00000380: 6664 9bbe 5b94 fbbe 601a feb5 3e72 26bd
00000390: 1465 2a3d 63e7 61be deba 643e d62c 00bc
000003a0: 58d9 fa3a e4aa e9bb 5670 2fbb c85e 20bc
000003b0: cabf 823c 219e 8e3b f10a 2c3c d1a6 463b
000003c0: 60af 2cbc 6693 bbba 14d5 603d 4768 21bd
000003d0: 1ca1 b33e d457 a4be bc56 0a3d 4508 84bc
000003e0: 887d 3ebe 47d7 2a3e 70fe 763d 81ab db3d
000003f0: c70b 84bd 35a3 87bd 5ff9 d9be 0fc1 a03e

critic1.0.bias f4 [64]
-0.021595413 0.14134488 -0.004576268 0.9706678 -0.034903552 0.20204665 0.26674163 1.6188155
0.01552944 -0.48946437 -2.023944 0.45751986 -0.06517098 -0.6192913 0.5480602 -0.15450671
0.53391516 -1.7033094 1.8520211 0.39762488 2.400656 -1.0495354 0.037783287 0.060154285
1.2294779 -0.74741703 -0.33969137 0.9001802 -0.033877168 1.0668417 1.1390412 -0.63872683
0.7370254 0.25359574 0.41754392 0.07386042 -0.70895255 1.3475136 0.004911042 0.89629334
1.2307658 -1.1215554 0.90971017 -0.3916215 0.44707954 -0.2364331 0.0501448 1.203985
1.8158888 1.1496755 0.94096535 0.02882358 0.16737993 0.5751388 0.046996024 0.7192446
0.21591373 0.77218634 0.009956357 0.18532291 -0.057735737 1.8407955 -1.1538486 2.4585586
00000000: dde8 b0bc b6bc 103e 85f4 95bb af7d 783f
00000010: 07f7 0ebd 51e5 4e3e 5c92 883e 5935 cf3f
00000020: 316f 7e3c 139b fabe 4c88 01c0 0b40 ea3e
00000030: 5d78 85bd e089 1ebf ac4d 0c3f 0237 1ebe
00000040: aaae 083f 0b06 dabf 070f ed3f 7d95 cb3e
00000050: 59a4 1940 2d57 86bf a6c2 1a3d 5764 763d
00000060: 885f 9d3f b956 3fbf 07ec adbe 3672 663f
00000070: c9c2 0abd 458e 883f 1acc 913f 9a83 23bf
00000080: b2ad 3c3f 4dd7 813e 51c8 d53e 2244 973d
00000090: ea7d 35bf 537b ac3f ceec a03b 7b73 653f
000000a0: bc89 9d3f 218f 8fbf c4e2 683f 9d82 c8be
000000b0: 9ce7 e43e 851b 72be a264 4d3d 2e1c 9a3f
000000c0: 0b6f e83f 9128 933f 1be3 703f 6e1f ec3c
000000d0: a565 2b3e 4c3c 133f e77e 403d 6a20 383f
000000e0: 7d18 5d3e 01ae 453f fd1f 233c 4ac5 3d3e
000000f0: 4f7c 6cbd 309f eb3f 50b1 93bf 0659 1d40

critic1.2.weight f4 [64, 64]
0.2509221 -0.057106 -0.031245397 0.20628096 -0.21031855 0.042261798 -0.18381518 -0.01592957
-0.067419164 0.39495808 0.057501983 -0.36325243 0.5055904 0.31276515 0.1437214 -0.006175377
0.047062512 0.29297212 -0.035644863 0.6456894 0.4581364 -0.065522306 0.07709356 0.12067783
0.15901938 -0.06658199 -0.38368875 0.117973074 0.61840695 0.20041463 -0.040151786 -0.06389143
0.14087634 0.08094863 0.12851682 -0.1295905 -0.014028326 0.20211284 0.033539623 -0.14100917
0.13147554 0.2223797 0.08315629 -0.22687815 0.015595845 -0.20392078 -0.024352692 0.6054265
0.29540372 0.23153383 -0.18768483 0.15452027 0.04420509 -0.4064722 0.15148707 -0.09423652
-0.01215767 0.070271626 0.074786134 0.059064645 -0.1201486 -0.12657876 0.43432543 0.5354065
-0.46499553 -0.11948343 0.07028477 0.104970664 0.17180884 0.2573445 -0.2471514 0.4794144
-0.32676008 -0.49244907 -0.76002187 -0.04650685 0.261074 0.21486922 -0.09846239 0.20097959
-0.2140171 -0.6133427 0.19191402 0.18473563 0.39448842 -0.35389253 -0.23836787 -0.10292635
0.14343198 0.26906657 -0.040912993 -0.10169756 -0.5541954 -0.20382258 -0.33019593 -0.2660458
0.23919502 -0.38613456 0.02325817 0.6174336 0.2729419 0.3484417 -0.111875765 -0.30630693
0.24659367 -0.364679 0.2752332 0.36531854 0.34744167 0.3640444 0.0023850969 0.25406063
0.24392691 -0.21325308 0.23975618 0.19237386 -0.32314885 0.024701394 -0.121383555 0.40745467
-0.22529908 -0.21140558 -0.07368883 -0.0417985 -0.43722 0.097068086 0.40945128 0.52638924
0.5706849 -0.55385894 -0.0058430783 -0.21726377 -0.21280336 0.054447073 -0.33761376 0.079368286
0.11638813 -0.3715327 0.5737149 -0.021115946 -0.16183053 0.08318307 0.27775812 0.123548664
-0.56311893 0.6558371 0.19914278 -0.3168038 0.27596146 -0.48628435 -0.25064406 -0.04814722
-0.12733275 0.18180235 0.6542882 -0.19533513 0.19358622 -0.08372917 0.17900845 0.04180243
-0.12440944 0.07062945 0.074977495 0.37972566 0.10860535 -0.16002956 -0.053746685 -0.26130536
-0.18479916 -0.28282338 0.1444547 -0.003219614 -0.6725764 0.27890977 0.10069656 -0.397472
0.58729327 -0.002747377 -0.19709946 -0.02349548 0.27363652 -0.3555246 -1.4802074 0.165563
0.12396137 0.5052837 -0.021036256 -0.081248835 -0.14607024 -0.25671571 -0.18671547 0.27019432
-0.8135064 -0.087056614 0.36125606 -0.43288702 -0.65185314 0.607747 -0.09625812 0.48274338
0.2892257 -0.27887753 0.37947258 -0.46908635 -0.24404879 -0.90468884 -0.16129185 -0.81498355
-0.16612142 -0.9480857 -1.0444862 -0.32718885 -0.6658905 0.3970822 -0.3342672 -0.7028817
-0.48136628 0.0834985 -1.4774162 0.012284803 -0.6883804 0.013229636 -0.4555006 0.08321266
-0.019806664 -0.29335275 -0.6375756 0.017266255 0.0045256135 -0.45075077 -0.20772871 -0.5711127
-0.5453672 -0.8462145 0.36561188 -1.046486 -0.016448358 -0.99391896 -0.20906165 0.010607371
-0.25985518 -0.6901562 0.07529633 0.72361183 0.47485194 -0.5893926 -0.59945625 -0.0454478
-0.39388728 0.39011648 -0.07938782 0.40841886 -0.47286135 0.07311741 -0.6107867 -0.017693415
00000000: dd78 803e fbe7 69bd 59f6 ffbc 513b 533e
00000010: bf5d 57be b51a 2d3d 0c3a 3cbe bb7e 82bc
00000020: 0f13 8abd f237 ca3e 3387 6b3d 39fc b9be
00000030: 5f6e 013f c122 a03e b42b 133e d15a cabb
00000040: 9fc4 403d 7100 963e 5900 12bd e74b 253f
00000050: db90 ea3e 8f30 86bd 3ae3 9d3d f025 f73d
00000060: fad5 223e 235c 88bd da72 c4be de9b f13d
00000070: eb4f 1e3f 7e39 4d3e 3376 24bd 83d9 82bd
00000080: e341 103e 65c8 a53d ea99 033e 5fb3 04be
00000090: 10d7 65bc abf6 4e3e d860 093d b564 10be
000000a0: 86a1 063e 81b7 633e d84d aa3d bf52 68be
000000b0: b785 7f3c 9cd0 50be 4c7f c7bc 3bfd 1a3f
000000c0: 283f 973e 3417 6d3e 7430 40be 903a 1e3e
000000d0: 6510 353d 201d d0be 6d1f 1b3e 14ff c0bd
000000e0: f730 47bc 92ea 8f3d 7929 993d c5ed 713d
000000f0: 7810 f6bd dd9d 01be e75f de3e 6610 093f
00000100: e513 eebe bbb3 f4bd 76f1 8f3d dcfa d63d
00000110: a8ee 2f3e a9c2 833e 4215 7dbe ce75 f53e
00000120: 194d a7be 4922 fcbe cb90 42bf f77d 3ebd
00000130: 7eab 853e ad06 5c3e a6a6 c9bd 98cd 4d3e
00000140: 4c27 5bbe 0704 1dbf 1c85 443e 562b 3d3e
00000150: 63fa c93e 6731 b5be b516 74be 0dcb d2bd
00000160: d5df 123e 18c3 893e 6294 27bd cf46 d0bd
00000170: c0df 0dbf deb6 50be 710f a9be 2837 88be
00000180: 8aef 743e 6eb3 c5be eb87 be3c 2110 1e3f
00000190: 0abf 8b3e f366 b23e 1f1f e5bd 43d4 9cbe
000001a0: 0d83 7c3e 35b7 babe 5eeb 8c3e 080b bb3e
000001b0: e0e3 b13e 0764 ba3e 494f 1c3b 3c14 823e
000001c0: fac7 793e 045f 5abe a582 753e a7fd 443e
000001d0: c473 a5be 945a ca3c f197 f8bd e69d d03e
000001e0: cdb4 66be b47a 58be 2bea 96bd e734 2bbd
000001f0: 4ddb dfbe a2cb c63d 99a3 d13e 72c1 063f
00000200: 6818 123f b3c9 0dbf 4b77 bfbb 657a 5ebe
00000210: 20e9 59be e503 5f3d b6db acbe d78b a23d
00000220: e65c ee3d 8939 bebe fbde 123f 59fb acbc
00000230: e7b6 25be e35b aa3d 5036 8e3e 1507 fd3d
00000240: 9028 10bf f1e4 273f 16ec 4b3e 1c34 a2be
00000250: d24a 8d3e 43fa f8be 6b54 80be 0536 45bd
00000260: 8463 02be 652a 3a3e 6e7f 273f ef05 48be
00000270: 773b 463e 337a abbd fe4d 373e 0639 2b3d
00000280: 60ca febd 2ca6 903d cd8d 993d 676b c23e
00000290: 7b6c de3d cade 23be 7c25 5cbd d1c9 85be
000002a0: fe3b 3dbe 3ace 90be efeb 133e 2900 53bb
000002b0: f82d 2cbf 43cd 8e3e 003a ce3d 7381 cbbe
000002c0: da58 163f 560d 34bb 71d4 49be 9879 c0bc
000002d0: 161a 8c3e 5207 b6be 7077 bdbf 5989 293e
000002e0: 75df fd3d 465a 013f 3a54 acbc ca65 a6bd
000002f0: 7093 15be 3e70 83be 5732 3fbe e956 8a3e
00000300: f541 50bf bd4a b2bd 8ef6 b83e 5ea3 ddbe
00000310: d9df 26bf 4f95 1b3f fa22 c5bd 242a f73e
00000320: 6415 943e 09c9 8ebe 3b4a c23e 162c f0be
00000330: ede7 79be b099 67bf b129 25be c3a2 50bf
00000340: bc1b 2abe bfb5 72bf b9b1 85bf 4c85 a7be
00000350: cd77 2abf 5c4e cb3e 1225 abbe 0ef0 33bf
00000360: a475 f6be 4301 ab3d f91b bdbf 3346 493c
00000370: b339 30bf 1dc1 583c 6037 e9be 666b aa3d
00000380: 9641 a2bc 5532 96be 2838 23bf f671 8d3c
00000390: 994b 943b cec8 e6be d6b6 54be 7134 12bf
000003a0: 2f9d 0bbf 83a1 58bf 7b31 bb3e 41f3 85bf
000003b0: b5be 86bc 7971 7ebf 4214 56be 8aca 2d3c
000003c0: bd0b 85be 14ae 30bf f634 9a3d a03e 393f
000003d0: cb1f f33e 6fe2 16bf f775 19bf 7927 3abd
000003e0: 98ab c9be 59bd c73e 1596 a2bd 471c d13e
000003f0: e21a f2be 95be 953d 845c 1cbf c8f1 90bc

critic1.2.bias f4 [64]
1.5014052 1.3339915 0.9594032 0.7103246 -0.64328235 1.117159 0.38704106 0.49531516
0.8602348 1.1351501 1.113664 0.88072675 0.80448586 -0.7809039 -1.1972572 -1.0622218
0.7681 1.4290981 0.93197185 1.3695074 1.1166098 0.68257314 0.31620505 -0.8494582
0.37705812 -1.0615325 1.0620322 -0.5505425 -0.14626195 0.096019164 0.27579883 1.1486367
0.05763977 0.86000896 1.2394173 0.91902614 1.6116018 -0.037117973 1.3408718 0.38060886
0.8697071 -0.23230127 -0.49198347 0.8300834 -1.7570406 1.1697179 0.6070212 0.74317807
1.24355 1.1634127 1.6757637 1.3507371 0.82194597 0.8840186 1.3206915 -1.137099
0.75687134 0.19635673 1.417573 0.7856518 0.77072704 1.4392954 1.2575308 1.7635626
00000000: 0c2e c03f 3cc0 aa3f 739b 753f d5d7 353f
00000010: 27ae 24bf 11ff 8e3f 3f2a c63e f399 fd3e
00000020: 5938 5c3f 994c 913f 8b8c 8e3f 4f77 613f
00000030: c9f2 4d3f 51e9 47bf b93f 99bf e2f6 87bf
00000040: 34a2 443f b0ec b63f b595 6e3f 054c af3f
00000050: 12ed 8e3f 1dbd 2e3f a1e5 a13e 1876 59bf
00000060: c30d c13e 4ce0 87bf acf0 873f 5af0 0cbf
00000070: b1c5 15be b2a5 c43d 8135 8d3e 8706 933f
00000080: ae17 6c3d 8c29 5c3f 3aa5 9e3f 4c45 6b3f
00000090: f848 ce3f 0409 18bd b0a1 ab3f 2adf c23e
000000a0: 20a5 5e3f 62e0 6dbe 42e5 fbbe 5880 543f
000000b0: b5e6 e0bf 51b9 953f be65 1b3f eb40 3e3f
000000c0: a52c 9f3f b5ea 943f 6d7f d63f f4e4 ac3f
000000d0: 0d6b 523f 0b4f 623f 6b0c a93f 768c 91bf
000000e0: 52c2 413f bd11 493e 0873 b53f 7a20 493f
000000f0: 5e4e 453f d53a b83f c5f6 a03f 6bbc e13f

critic1.4.weight f4 [64, 64]
0.31192288 -0.12864894 0.9268587 0.6521669 0.12510493 0.05452811 -0.23885453 0.13373636
0.33928028 -0.37308037 -0.41629127 0.009739051 0.61794144 -0.016624212 -0.03417979 -0.023457516
0.2761638 -0.86327106 0.2621298 -0.2559368 0.034583326 0.36710212 -0.7686441 -0.8207659
-0.7187013 -0.20644933 0.17813179 -0.026899202 -0.6326885 0.22286905 -0.06516136 0.17987202
-0.21785009 0.9009201 0.22774433 -0.18100889 0.35282367 0.51722974 -0.008361691 0.15493119
0.52121353 -0.08449789 -0.282695 0.22006267 -0.4838806 0.58114874 0.28393424 -0.15934551
-0.26243728 0.34871212 0.502508 -0.47403762 0.034540433 0.46760997 0.5042845 0.056643616
0.32462955 -0.3280234 0.2665131 0.38788947 -1.0350403 -0.084789515 0.35997376 -0.22448266
0.16391881 -0.2103834 -0.80191165 -0.40880576 -0.32461005 -0.3779464 -0.07943887 -1.1410094
-0.58829284 -0.41009024 -0.6996298 0.19813772 -0.7841203 0.07750639 0.011430131 -0.7363351
0.5827427 -0.11458784 0.37873384 -0.5430906 0.23427929 0.27559415 -0.39381555 -0.6244824
-0.4374969 -0.6253562 -1.4205364 0.012168957 -0.22129203 0.9869976 -0.9221218 -0.046627954
-0.300331 0.06850803 0.12165073 -0.27070084 -0.21990106 -0.15335155 0.36012733 0.23733927
0.19080198 0.32413054 -0.18297356 -0.59838814 -0.17577842 0.16438177 -0.531297 0.88100797
0.33128926 -0.44833082 0.18854307 0.7295951 -1.178644 0.05670524 0.33159524 -0.018203609
0.29535636 0.78764814 -0.265505 -0.19061603 -0.48853412 0.32433784 -0.6667642 -0.103678964
-0.0051736636 -0.0150519125 0.69088197 0.15963112 -0.70157695 0.45155877 -0.7220394 -0.44031897
-0.034663104 0.13478948 -0.17000884 -0.066850595 -0.24897961 -0.32872587 -0.61859745 -0.8515881
-0.058033433 0.46967867 0.37643278 0.29729024 0.16695344 -0.04584674 -1.1424422 -0.40003237
-0.81035393 -0.8910748 0.6183508 -0.2426336 -0.47684175 -0.11345155 -0.95311046 0.018728632
0.75711906 0.67128664 0.2833461 -0.10638236 0.24704765 -0.09386519 0.18556921 -0.13258739
0.8611967 -0.34235117 -0.6765974 -0.08934003 -0.11373315 -0.0023239362 -0.830251 -0.8421856
0.023461537 -0.115991145 -0.38683596 -0.14939544 0.08067778 -0.3247239 -0.25190884 -0.51920664
0.24733898 -0.0220112 0.6905139 -0.016394472 0.91258764 -0.11507268 -0.5812746 -0.27522513
-0.022402002 0.42863682 -0.0151181305 0.29533958 -0.065840036 0.20408611 0.12114911 -0.031897284
-0.27847177 0.6894741 -0.28517982 -0.43304694 -0.076765 0.09107076 0.046741404 0.14084923
0.8069416 0.21464589 1.2871448 0.53081375 0.37881994 0.076916695 -0.026556576 0.4641863
-0.55257905 0.07583038 -0.04544491 0.48435012 0.11812534 0.13073821 0.022045592 0.18685608
1.4359915 0.6085474 0.05893769 -0.08935944 -0.19879408 -0.85849535 -0.5133025 -0.33491465
0.2589145 0.21838188 -0.0071236044 0.25156552 -0.059011955 -0.35936663 -0.013750203 0.3172176
0.3292778 -0.44959494 -0.2018343 -0.20149119 -0.4824944 -1.0633903 -0.15729119 -0.07227583
0.083703235 0.06549816 0.25365028 0.30516046 -0.38811696 0.37481907 0.060945217 -0.3528892
00000000: 5bb4 9f3e 8cbc 03be 9d46 6d3f 69f4 263f
00000010: 821b 003e de58 5f3d 4896 74be 2ff2 083e
00000020: 25b6 ad3e 6404 bfbe 2124 d5be 8a90 1f3c
00000030: 6931 1e3f 802f 88bc 1c00 0cbd fa29 c0bc
00000040: 5765 8d3e 55ff 5cbf e135 863e 260a 83be
00000050: 3fa7 0d3d cff4 bb3e dcc5 44bf b71d 52bf
00000060: cffc 37bf 7467 53be 2e68 363e b75b dcbc
00000070: e0f7 21bf c937 643e 5273 85bd 5f30 383e
00000080: 1814 5fbe b3a2 663f cf35 693e 655a 39be
00000090: 4ea5 b43e 2b69 043f 79ff 08bc 48a6 1e3e
000000a0: 406e 053f 3b0d adbd 66bd 90be 1c58 613e
000000b0: 33bf f7be 2ac6 143f d45f 913e 782b 23be
000000c0: 2e5e 86be 658a b23e 5da4 003f 0fb5 f2be
000000d0: 457a 0d3d 936a ef3e ca18 013f 2303 683d
000000e0: d835 a63e aff2 a7be 6874 883e 7399 c63e
000000f0: 337c 84bf 20a6 adbd 7b4e b83e c8de 65be
00000100: 55da 273e bf6e 57be 154a 4dbf fd4e d1be
00000110: 4a33 a6be 3182 c1be d9b0 a2bd 990c 92bf
00000120: 5c9a 16bf 59f7 d1be f01a 33bf 9de4 4a3e
00000130: 1cbc 48bf acbb 9e3d 7245 3b3c 7580 3cbf
00000140: a02e 153f 08ad eabd 67e9 c13e fc07 0bbf
00000150: e9e6 6f3e ad1a 8d3e 31a2 c9be 14de 1fbf
00000160: 98ff dfbe 5817 20bf 23d4 b5bf 4e60 473c
00000170: 619a 62be e0ab 7c3f 2d10 6cbf f4fc 3ebd
00000180: fcc4 99be f04d 8c3d 0524 f93d 4d99 8abe
00000190: be2d 61be 3008 1dbe 9c62 b83e 1109 733e
000001a0: 9861 433e 70f4 a53e 6c5d 3bbe f72f 19bf
000001b0: 42ff 33be b253 283e 1503 08bf bd89 613f
000001c0: bf9e a93e 9e8b e5be 6f11 413e bfc6 3a3f
000001d0: cedd 96bf c143 683d dac6 a93e bc1f 95bc
000001e0: f338 973e 4fa3 493f 45f0 87be d930 43be
000001f0: 2521 fabe 9c0f a63e 0fb1 2abf a355 d4bd
00000200: d687 a9bb 4c9c 76bc a4dd 303f 5776 233e
00000210: 8c9a 33bf b632 e73e 93d7 38bf 7d71 e1be
00000220: e6fa 0dbd 4106 0a3e cc16 2ebe f7e8 88bd
00000230: 83f4 7ebe c24e a8be 675c 1ebf ad01 5abf
00000240: 77b4 6dbd b979 f03e ccbb c03e 6d36 983e
00000250: d8f5 2a3e cbc9 3bbd 8c3b 92bf 0bd1 ccbe
00000260: 5b73 4fbf 7a1d 64bf 3d4c 1e3f f174 78be
00000270: 9a24 f4be 4959 e8bd 0cff 73bf ca6c 993c
00000280: 8ed2 413f 71d9 2b3f bd12 913e ffde d9bd
00000290: 0ffa 7c3e 653c c0bd db05 3e3e fdc4 07be
000002a0: 6377 5c3f a748 afbe 7d35 2dbf e8f7 b6bd
000002b0: edec e8bd 2e4d 18bb 548b 54bf 7a99 57bf
000002c0: 6932 c03c c48c edbd 5d0f c6be 1efb 18be
000002d0: 643a a53d 3642 a6be 32fa 80be baea 04bf
000002e0: 6e46 7d3e d550 b4bc 85c5 303f b34d 86bc
000002f0: 589f 693f 3aab ebbd 6ace 14bf 4fea 8cbe
00000300: 6784 b7bc 4976 db3e 09b2 77bc c036 973e
00000310: 24d7 86bd f3fb 503e 061d f83d baa6 02bd
00000320: da93 8ebe 6081 303f 1703 92be 54b8 ddbe
00000330: f836 9dbd 4e83 ba3d ea73 3f3d c83a 103e
00000340: ba93 4e3f 22cc 5b3e 29c1 a43f 69e3 073f
00000350: b0f4 c13e 8086 9d3d 2d8d d9bc d4a9 ed3e
00000360: d275 0dbf f54c 9b3d 7124 3abd bdfc f73e
00000370: b3eb f13d 3de0 053e f598 b43c 3357 3f3e
00000380: 92ce b73f c3c9 1b3f a668 713d 1502 b7bd
00000390: ad90 4bbe 5ac6 5bbf cb67 03bf ef79 abbe
000003a0: 7190 843e 809f 5f3e 206d e9bb 32cd 803e
000003b0: 85b6 71bd e7fe b7be 8848 61bc 586a a23e
000003c0: 1a97 a83e 4f31 e6be a7ad 4ebe b553 4ebe
000003d0: 8209 f7be 2c1d 88bf f110 21be 5a05 94bd
000003e0: 9a6c ab3d e623 863d 73de 813e fe3d 9c3e
000003f0: 44b7 c6be 49e8 bf3e b1a1 793d e5ad b4be

critic1.4.bias f4 [64]
-0.68307704 -0.5711894 0.59624183 -1.1985656 1.0762817 1.325562 1.426229 -1.0823499
-0.56038356 1.27712 -0.61870366 -1.1299688 0.36363882 -0.30568093 1.1768986 1.4772052
-0.77317196 -0.20942333 0.096916355 1.6882446 1.3397082 1.4013745 1.3323117 1.422766
-0.4229633 0.9861212 -0.8948838 1.2447927 0.75567144 0.7187325 -0.48510033 -1.648435
1.1338787 1.4327776 1.3857024 -0.6202469 1.3645943 -0.75567144 0.44801742 0.76446784
-0.23836716 0.27108476 1.1318873 1.508004 -0.44269016 0.3656194 -0.5766929 -0.6363306
-0.026941523 1.3662559 1.5240537 1.4065307 0.8105664 1.3271806 1.1186652 -0.76241404
0.86601406 -0.051213875 1.5836334 -0.5010549 1.0887014 -0.68587905 0.7780423 -0.84792787
00000000: 23de 2ebf 7839 12bf 4ea3 183f 996a 99bf
00000010: 99c3 893f 04ac a93f ac8e b63f 718a 8abf
00000020: 4c75 0fbf ab78 a33f 5d63 1ebf d1a2 90bf
00000030: de2e ba3e 3682 9cbe 9da4 963f 0f15 bd3f
00000040: 99ee 45bf 1273 56be 157c c63d 6618 d83f
00000050: 8f7b ab3f 3d60 b33f 3189 aa3f 321d b63f
00000060: a58e d8be 7072 7c3f 1b17 65bf 5e55 9f3f
00000070: af73 413f dafe 373f 125f f8be ebff d2bf
00000080: f022 913f 4265 b73f b25e b13f 80c8 1ebf
00000090: 07ab ae3f af73 41bf 8a62 e53e 2ab4 433f
000000a0: 8516 74be 9fcb 8a3e afe1 903f 4606 c13f
000000b0: 49a8 e2be 7732 bb3e 25a2 13bf 90e6 22bf
000000c0: 78b4 dcbc 79e1 ae3f 3114 c33f 3309 b43f
000000d0: 4881 4f3f 0ee1 a93f 6c30 8f3f 912d 43bf
000000e0: 19b3 5d3f a4c5 51bd 80b4 ca3f 2245 00bf
000000f0: 915a 8b3f c595 2fbf c82d 473f cd11 59bf

critic1.6.weight f4 [1, 64]
-0.44610164 -0.69570404 0.68831587 -0.8575827 0.35079524 0.1054422 0.03675818 -0.49215224
-0.48773354 0.14819303 -0.65766126 -0.6720402 1.4198283 -1.6115904 0.11326879 0.11307539
-0.33772317 -1.0205376 -0.3955899 0.45832917 0.19288018 0.097680315 0.1368344 0.07137324
-1.1173657 0.2563907 -0.37397984 0.103835925 1.3683078 0.2856572 -1.4755168 -0.18913631
0.14835396 0.16377778 0.31264248 -1.1583666 0.11246744 -1.5454829 0.78027827 0.5283203
-1.8611819 1.0482644 0.033339348 0.22226866 -0.30484855 1.2093954 -1.7904276 -1.4611113
-0.29897276 0.22164929 0.14443986 0.15799858 0.14248346 0.028478546 0.019937532 -0.30794403
0.6948968 0.0006885042 0.5222805 -0.7582561 0.5866646 -0.3612019 0.5099202 -0.46582848
00000000: 6f67 e4be a919 32bf 7835 303f 8a8a 5bbf
00000010: 6f9b b33e 15f2 d73d bf8f 163d 61fb fbbe
00000020: 36b8 f9be eabf 173e 7d5c 28bf d40a 2cbf
00000030: efbc b53f 9848 cebf 78f9 e73d 1294 e73d
00000040: 0dea acbe faa0 82bf c28a cabe 1faa ea3e
00000050: 6282 453e 9e0c c83d 511e 0c3e 222c 923d
00000060: d705 8fbf a445 833e 497a bfbe eea7 d43d
00000070: b624 af3f a941 923e bcdd bcbf f3ac 41be
00000080: 1aea 173e 5db5 273e ad12 a03e 5b45 94bf
00000090: 5455 e63d 62d2 c5bf 51c0 473f 0040 073f
000000a0: 353b eebf 872d 863f d78e 083d 659a 633e
000000b0: 1c15 9cbe 78cd 9a3f bb2c e5bf b205 bbbf
000000c0: f512 99be 08f8 623e 0be8 133e 61ca 213e
000000d0: 2fe7 113e d74b e93c 0954 a33c d7aa 9dbe
000000e0: c2e4 313f bc7c 343a 2db4 053f 121d 42bf
000000f0: a72f 163f 75ef b8be 218a 023f 1281 eebe

critic2.0.weight f4 [64, 82]
-0.11968933 -0.017842574 0.13582534 0.1978598 0.027711378 0.0036982715 -0.285841 -0.06559418
-0.043865938 0.021893427 -0.08511969 0.026450641 0.029480163 -0.22833294 -0.110727124 -0.037398987
0.06444786 0.052173916 -0.05274442 0.09464415 0.04897685 -0.09087724 -0.023098214 0.08693481
0.015377664 -0.08026292 0.013464569 -0.17248373 -0.16974047 0.03091002 -0.07155792 -0.018309083
-0.08830944 -0.036472827 -0.06685847 0.19980845 -0.030668639 -0.18341355 0.05475706 -0.09162338
-0.0033029062 -0.23861165 -0.0002857916 0.02069782 0.09135539 0.20736177 -0.0127134705 0.020048536
0.024175514 -0.17677683 -0.39938903 0.3493645 0.08682546 0.24909072 0.009721158 -0.27989814
0.0049181012 0.09100589 0.08422358 0.1438164 0.25619859 -0.044161957 0.035943963 -0.030336104
0.087727584 0.05136876 0.025552532 -0.029255912 0.031170037 -0.028638078 -0.021754004 -0.0030624557
0.03284624 -0.027249664 0.09535243 -0.032625575 -0.030742688 0.015013943 -0.17462255 0.21745399
-0.15312602 0.09400598 -0.21941756 -0.021600815 -0.10831491 0.060358755 -0.026497908 0.4177115
-0.29341376 -0.054783832 0.18526495 -0.29094523 0.24663313 0.107536696 0.122686185 0.05043345
0.067847386 -0.1996785 0.124155335 -0.27728298 0.13151251 -0.35564107 0.1111305 0.11197071
-0.5090601 -0.20506771 -0.12286519 -0.033732813 0.032883786 0.09018482 -0.11809379 0.10723983
-0.03747198 -0.15214205 0.15295817 -0.014504205 -0.007789173 -0.057058252 0.15614207 0.08712279
-0.40767783 -0.14420877 0.06577894 -0.042306915 -0.19079578 0.0013084969 0.03474754 -0.28158736
0.021854486 -0.10706527 -0.011568866 0.1738761 -0.156033 -0.18320552 0.50755584 0.7938318
-0.41721216 -0.041139092 0.1801431 0.019010825 0.04909311 -0.0842641 0.1672354 0.032800395
0.011329065 -0.09295686 -0.0007384277 -0.0035009533 0.057248514 0.012825158 0.0015064798 0.012046298
-0.08074429 0.071017824 -0.009354811 0.09841668 0.012526372 -0.034026176 -0.022637157 -0.0007061367
0.05407161 0.025455201 -0.16134743 0.20128648 -0.017672101 -0.05502821 0.13726062 0.036789272
-0.11766304 0.054694735 -0.06724012 -0.10136563 0.04114077 -0.029257448 -0.016953517 0.055973746
0.11519526 0.10693146 0.06556394 -0.097385295 -0.016852612 0.020700969 0.08839593 0.041280583
-0.075343534 0.1404974 0.078356765 -0.25425285 -0.09314625 0.06647388 -0.071032666 0.07758408
-0.15838227 -0.2550062 -0.05505554 0.1260914 -0.09980169 0.0074225566 0.07560567 0.13759737
0.17833027 0.16509072 0.051581558 0.08991055 0.015381592 0.0055166245 -0.05712172 0.080773205
-0.02676695 0.045841794 0.11507216 -0.22239603 -0.08816828 0.09341645 -0.012172007 0.043260925
0.19253638 0.051281832 -0.23279023 0.044392806 -0.08320254 0.22233129 0.025526103 -0.13955246
-0.055411533 0.0924328 -0.021263784 -0.0025565317 0.02164915 -6.565115e-05 0.02228145 0.040461447
0.038406856 0.032599676 -0.0324484 -0.02264155 0.0083355345 0.006987636 0.016532263 0.044257198
0.014621226 -0.03824833 0.009236737 0.0059836553 -0.06584775 0.027311167 -0.11984563 0.027710555
-0.2691024 0.22540572 0.06486119 -0.10111798 0.25339136 -0.12942891 0.35631916 -0.17773463
00000000: ae1f f5bd 972a 92bc cc15 0b3e c29b 4a3e
00000010: f902 e33c b35e 723b c059 92be 3e56 86bd
00000020: c5ac 33bd d859 b33c 3b53 aebd 04af d83c
00000030: 6280 f13c 1cd0 69be e7c4 e2bd ae2f 19bd
00000040: 3dfd 833d 51b4 553d 880a 58bd cbd4 c13d
00000050: f39b 483d d91d babd 7738 bdbc e10a b23d
00000060: 99f2 7b3c e360 a4bd 7f9a 5c3c 939f 30be
00000070: 72d0 2dbe 0337 fd3c f58c 92bd eefc 95bc
00000080: 94db b4bd 8864 15bd 18ed 88bd 969a 4c3e
00000090: cc3c fbbc c3d0 3bbe f048 603d 0aa5 bbbd
000000a0: 9275 58bb 9d56 74be 4dd6 95b9 798e a93c
000000b0: 8918 bb3d a556 543e 294c 50bc d43c a43c
000000c0: ba0b c63c fc04 35be b87c ccbe e7df b23e
000000d0: 8cd1 b13d a311 7f3e 7e45 1f3c cf4e 8fbe
000000e0: 0628 a13b 4c61 ba3d 6a7d ac3d 9b44 133e
000000f0: 762c 833e 2be3 34bd fa39 133d 6c83 f8bc
00000100: 85aa b33d 0d68 523d 8b53 d13c 18aa efbc
00000110: 4e58 ff3c 679a eabc 7435 b2bc 7bb3 48bb
00000120: c789 063d b03a dfbc 2348 c33d 65a2 05bd
00000130: 17d8 fbbc 0bfd 753c 41d0 32be 42ac 5e3e
00000140: 11cd 1cbe 3586 c03d ffae 60be 31f4 b0bc
00000150: 35d4 ddbd be3a 773d 2412 d9bc 48de d53e
00000160: 543a 96be 0365 60bd 18b6 3d3e c6f6 94be
00000170: 658d 7c3e 333c dc3d e542 fb3d 4e93 4e3d
00000180: 92f3 8a3d 8578 4cbe 2745 fe3d 09f8 8dbe
00000190: 37ab 063e 9616 b6be 6398 e33d e650 e53d
000001a0: c351 02bf 45fd 51be bfa0 fbbd 6b2b 0abd
000001b0: 26b1 063d d2b2 b83d 28db f1bd 8ea0 db3d
000001c0: 387c 19bd 20cb 1bbe 11a1 1c3e 0ca3 6dbc
000001d0: 523c ffbb eab5 69bd b5e3 1f3e 6f6d b23d
000001e0: 26bb d0be 77ab 13be 1cb7 863d 044a 2dbd
000001f0: f85f 43be df81 ab3a 7053 0e3d 382c 90be
00000200: 2e08 b33c 0945 dbbd 578b 3dbc 940c 323e
00000210: 1dc7 1fbe 3a9a 3bbe 2eef 013f 9038 4b3f
00000220: d59c d5be 7781 28bd 6f77 383e 97bc 9b3c
00000230: db15 493d a892 acbd c23f 2b3e b559 063d
00000240: 8b9d 393c 2b60 bebd 0b93 41ba 4070 65bb
00000250: 6b7d 6a3d 9d20 523c 1375 c53a d65d 453c
00000260: 435d a5bd cb71 913d ec44 19bc af8e c93d
00000270: 6a3b 4d3c 085f 0bbd 8f71 b9bc 081c 39ba
00000280: 317a 5d3d 6d87 d03c 4338 25be 0b1e 4e3e
00000290: 15c5 90bc 4365 61bd 0c8e 0c3e 59b0 163d
000002a0: 52f9 f0bd 9607 603d 30b5 89bd c998 cfbd
000002b0: 3983 283d 51ad efbc 1ae2 8abc ba44 653d
000002c0: 7eeb eb3d e2fe da3d 6346 863d f171 c7bd
000002d0: 7d0e 8abc 1495 a93c ed08 b53d d415 293d
000002e0: b64d 9abd 8dde 0f3e 8379 a03d 6e2d 82be
000002f0: 76c3 bebd 7523 883d 9379 91bd 67e4 9e3d
00000300: f62e 22be 2c90 82be eb81 61bd 1b1e 013e
00000310: d464 ccbd eb38 f33b 25d7 9a3d 53e6 0c3e
00000320: 369c 363e 8b0d 293e 2f47 533d 0623 b83d
00000330: 1303 7c3c cdc4 b43b 77f8 69bd 6c6c a53d
00000340: 5d46 dbbc 9bc4 3b3d f4aa eb3d c9bb 63be
00000350: 9291 b4bd 2051 bf3d 196d 47bc 5e32 313d
00000360: 4228 453e e60c 523d 9060 6ebe 3bd5 353d
00000370: 1866 aabd d0aa 633e 1e1c d13c d7e6 0ebe
00000380: 34f7 62bd 684d bd3d 6331 aebc 7c8b 27bb
00000390: 8f59 b13c 31ae 89b8 9687 b63c e7ba 253d
000003a0: 8250 1d3d 3d87 053d 9de8 04bd c67a b9bc
000003b0: c491 083c 8af8 e43b ab6e 873c 0947 353d
000003c0: de8d 6f3c 48aa 1cbd af55 173c 8a12 c43b
000003d0: 2fdb 86bd abbb df3c a071 f5bd 3f01 e33c
000003e0: cac7 89be c2d0 663e f2d5 843d f216 cfbd
000003f0: 83bc 813e 0389 04be 776f b63e 1100 36be

critic2.0.bias f4 [64]
1.6204557 -0.4307058 1.8198737 0.5508947 0.121300526 1.7538342 -0.7113638 0.46926847
-0.48650342 1.533475 0.42927402 -0.67072564 0.9543338 1.0738404 0.5864459 0.14993073
-1.0088937 -0.89487785 0.6704733 1.2443973 0.8855645 0.06460917 -0.18410428 1.0583597
2.0137746 -0.43173805 1.5342462 -0.050475623 0.09798578 0.11831713 2.0358396 1.1439084
1.040709 2.2402713 0.32595265 -0.31113872 -2.1058462 -1.5788983 1.9118122 -0.0035872154
0.05142544 0.94186366 -0.25267655 -0.019202543 1.3456331 0.7959089 -0.0130139645 0.2518377
-0.047336396 0.41343787 0.0256891 1.1876827 0.6511818 0.6535847 0.45656782 -0.02347493
1.0565987 0.8776817 -0.7030732 0.4678114 0.084534094 0.1755072 -0.0010602574 0.015324651
00000000: 186b cf3f 7885 dcbe 9ff1 e83f 6f07 0d3f
00000010: 696c f83d a47d e03f f01b 36bf f543 f03e
00000020: fa16 f9be e948 c43f cec9 db3e adb4 2bbf
00000030: 384f 743f 9a73 893f 5221 163f 7187 193e
00000040: 6e23 81bf b716 65bf 23a4 2b3f 6948 9f3f
00000050: 5bb4 623f d051 843d d585 3cbe 5578 873f
00000060: afe1 0040 c50c ddbe 2e62 c43f 87bf 4ebd
00000070: c5ac c83d 4050 f23d 324b 0240 976b 923f
00000080: f435 853f 9b60 0f40 44e3 a63e 934d 9fbe
00000090: 2fc6 06c0 5719 cabf 43b6 f43f 7d17 6bbb
000000a0: 7ba3 523d fa1d 713f d25e 81be a74e 9dbc
000000b0: b53d ac3f b0c0 4b3f 8638 55bc dff0 803e
000000c0: cfe3 41bd 21ae d33e f371 d23c fd05 983f
000000d0: dab3 263f 5451 273f 42c3 e93e 7f4e c0bc
000000e0: a03e 873f bfaf 603f 9bfc 33bf fa84 ef3e
000000f0: 3620 ad3d 29b8 333e 56f8 8aba 3f14 7b3c

critic2.2.weight f4 [64, 64]
-0.075016744 0.6765635 0.05266245 0.28139308 0.3083984 -0.05902824 -0.29769468 -0.28851086
-0.34748065 -0.054592676 -0.1764476 0.105334446 0.23835398 -0.39668307 0.060290813 -0.20986477
-0.43907443 0.37349835 0.2511818 -0.015624448 -0.43811205 -0.055262808 -0.1391256 0.55761665
-0.29450572 0.3145266 0.18011893 -0.016932627 -0.24371147 0.5570299 -0.09296888 0.34833866
0.5022825 0.16775267 0.47786638 0.5942546 -0.6036305 -0.042930346 0.41441232 0.06355433
-0.38531086 0.003574749 0.38321728 0.038309924 -0.6246321 0.018622601 -0.22731856 0.45532644
-0.19776961 0.048112668 0.15533035 0.6032303 -0.46012652 -0.17942308 -0.61351013 -0.045188062
0.37544337 0.0678719 -0.28540272 -0.119954765 -0.24360126 0.30138585 0.229282 0.16134861
-0.14360666 0.0718484 0.030282062 0.17765088 0.09761009 -0.09817502 0.268629 -0.0231942
0.7519456 -0.034655705 -0.2667482 -0.10195973 0.12397732 -0.27479684 -0.055605184 -0.16529936
-0.043878652 0.28143004 -0.021909345 0.08493251 -0.11907883 -0.0035501637 0.064678036 0.12946843
-0.533566 0.0024453427 -0.26244724 0.09870771 0.12220929 0.0869835 -0.20260762 0.039575744
0.34335682 -0.10117659 0.47723016 -0.17988159 -0.04404262 0.099911295 0.05481951 -0.044370297
-0.04322162 -0.14801508 0.24659629 0.2514937 -0.056208283 0.14765234 0.08862476 0.1424817
-0.16083962 0.063496776 0.04634158 -0.009407148 -0.19822732 0.14583667 -0.0023341551 -0.33798867
-0.4744458 0.05230276 0.1530667 -0.20493716 0.030515235 -0.04314338 0.2073795 -0.0981774
0.2501583 -0.8633303 0.064203605 -0.26004702 0.01360354 -0.58607566 0.26632887 -0.40159494
-0.3507865 0.54770726 -0.28517744 -0.34411463 -0.10500003 0.0020825397 -0.19095622 0.36166957
0.6815912 -0.20747899 -0.23924924 0.38076133 0.19157101 0.23974371 -0.6560629 -0.10315558
-0.86167616 0.5391151 -0.16410953 -0.049597777 -0.18642001 -0.19110382 -0.5641561 0.25669464
-0.32263523 0.36517107 -0.09486438 0.15113537 -0.34670198 -0.13306263 0.057311762 0.024846362
0.1401818 -0.19454923 -0.28825203 -0.15085582 -0.97303677 0.14887309 0.098365285 0.3249343
0.009578744 -0.250872 -0.26666984 -0.24417448 -0.2228207 0.70157117 0.3145274 0.22201635
-0.17514637 -0.42148316 0.5916194 0.5598186 0.2891001 0.28003514 0.2636057 0.348337
-0.00069203856 -0.21460158 0.07646897 -0.38235003 -0.42286158 0.5534133 0.5051624 0.029558046
-0.3188713 0.11021923 -0.08322445 -0.3871038 0.24991928 0.57748 -0.042563915 -0.09787736
-0.75797856 -0.038194988 -0.08797463 -0.2733396 0.28358474 0.3862156 0.030469699 0.025451852
0.37473252 -0.085991934 0.106508605 -0.53300893 -0.1240801 -0.62034434 0.3274733 0.46498135
-0.7573133 0.2248726 -0.34315112 -0.38101536 0.304294 0.13457939 -0.21739355 -0.52423215
-0.0006393303 -0.014185743 -0.3442816 -0.09976818 -0.376362 -0.36629507 0.24594946 0.30138895
0.027212914 -0.25511947 -0.79785645 -0.37439236 0.099614814 0.31996596 0.40452486 0.14241569
-0.29445285 0.061126184 -0.23071848 -0.094390035 0.37071177 0.30947745 -0.6464017 -0.22298041
00000000: 61a2 99bd 4433 2d3f 95b4 573d c112 903e
00000010: 65e6 9d3e 99c7 71bd 706b 98be b2b7 93be
00000020: fce8 b1be 929c 5fbd aeae 34be 96b9 d73d
00000030: 1113 743e 0b1a cbbe 80f3 763d cae6 56be
00000040: 5dce e0be 2d3b bf3e e79a 803e affd 7fbc
00000050: 3950 e0be 415b 62bd f176 0ebe f7bf 0e3f
00000060: 74c9 96be a109 a13e 1971 383e 4bb6 8abc
00000070: 808f 79be 8399 0e3f 7866 bebd 7259 b23e
00000080: 9695 003f 5bc7 2b3e e7aa f43e 1221 183f
00000090: 8787 1abf bbd7 2fbd da2d d43e c628 823d
000000a0: 7747 c5be 5646 6a3b 0e35 c43e deea 1c3d
000000b0: e4e7 1fbf 6d8e 983c 32c6 68be 8c20 e93e
000000c0: 1e84 4abe ca11 453d eb0e 1f3e 4d6d 1a3f
000000d0: b495 ebbe afba 37be 000f 1dbf 1e17 39bd
000000e0: 1d3a c03e 6c00 8b3d 4e20 92be d8aa f5bd
000000f0: 9c72 79be 3f4f 9a3e e7c8 6a3e 9238 253e
00000100: a00d 13be 4125 933d 1612 f83c 1dea 353e
00000110: cde7 c73d fc0f c9bd be89 893e c301 bebc
00000120: 827f 403f 24f3 0dbd 3893 88be 43d0 d0bd
00000130: d2e7 fd3d 2cb2 8cbe 43c2 63bd 3c44 29be
00000140: 1aba 33bd 9917 903e 3a7b b3bc 19f1 ad3d
00000150: 9adf f3bd dda9 68bb eb75 843d 5f93 043e
00000160: c897 08bf 0b42 203b 7c5f 86be 4527 ca3d
00000170: dd48 fa3d 6824 b23d 5f78 4fbe 2d1a 223d
00000180: 77cc af3e ac35 cfbd 8357 f43e e132 38be
00000190: 0966 34bd 4b9e cc3d 6c8a 603d a1bd 35bd
000001a0: 2709 31bd 4491 17be bd83 7c3e c8c3 803e
000001b0: a83a 66bd 2d32 173e e680 b53d b9e6 113e
000001c0: 24b3 24be 990a 823d abd0 3d3d 7020 1abc
000001d0: 1afc 4abe 3556 153e a0f8 18bb da0c adbe
000001e0: 8fea f2be 6b3b 563d 84bd 1c3e 0cdb 51be
000001f0: 16fb f93c 1db7 30bd 4b5b 543e 3c11 c9bd
00000200: c014 803e 3703 5dbf 2e7d 833d e224 85be
00000210: 62e1 5e3c 0e09 16bf 425c 883e da9d cdbe
00000220: 4a9a b3be 8b36 0c3f c702 92be cb2f b0be
00000230: 410a d7bd 387b 083b 078a 43be c12c b93e
00000240: c37c 2e3f 5f75 54be c1fd 74be 26f3 c23e
00000250: 312b 443e 607f 753e bdf3 27bf 3c43 d3bd
00000260: cf96 5cbf 7203 0a3f 540c 28be 0a27 4bbd
00000270: e3e4 3ebe b8b0 43be 896c 10bf 7b6d 833e
00000280: 7230 a5be b4f7 ba3e 4248 c2bd 3bc3 1a3e
00000290: ec82 b1be 9241 08be bdbf 6a3d 998a cb3c
000002a0: d18b 0f3e ea37 47be c595 93be f379 1abe
000002b0: f018 79bf 3072 183e bd73 c93d ca5d a63e
000002c0: 2af0 1c3c 4b72 80be f388 88be e008 7abe
000002d0: 1c2b 64be 2b9a 333f bc09 a13e 4158 633e
000002e0: 9259 33be a4cc d7be 5e74 173f 4650 0f3f
000002f0: ee04 943e c460 8f3e 54f7 863e 3a59 b23e
00000300: ec69 35ba 84c0 5bbe c39b 9c3d 62c3 c3be
00000310: 5081 d8be 7eac 0d3f 5352 013f b723 f23c
00000320: 1943 a3be 9fba e13d 9571 aabd 7832 c6be
00000330: d7ea 7f3e bbd5 133f 8057 2ebd ed73 c8bd
00000340: e20a 42bf 5972 1cbd 0b2c b4bd 2bf3 8bbe
00000350: 0532 913e 0dbe c53e 979b f93c 6780 d03c
00000360: f1dc bf3e 8a1c b0bd 2f21 da3d 4673 08bf
00000370: b51d febd e3ce 1ebf 95aa a73e 0912 ee3e
00000380: 49df 41bf 0145 663e 81b1 afbe 7214 c3be
00000390: 6ccc 9b3e 2ecf 093e 6a9c 5ebe 1434 06bf
000003a0: bb98 27ba 526b 68bc ae45 b0be 4253 ccbd
000003b0: 85b2 c0be 078b bbbe 2dda 7b3e a74f 9a3e
000003c0: 9eed de3c 059f 82be 5240 4cbf 5bb0 bfbe
000003d0: da02 cc3d 94d2 a33e e21d cf3e 6bd5 113e
000003e0: 86c2 96be 735f 7a3d 7741 6cbe 904f c1bd
000003f0: efcd bd3e d473 9e3e 957a 25bf fa54 64be

critic2.2.bias f4 [64]
0.9153811 1.2237564 0.8721345 -0.11694794 1.294665 -0.06366325 -0.1551032 1.1532816
0.8264594 0.59032315 0.40005615 0.70104265 0.22424807 -1.0568923 1.2796462 -1.1515452
0.73887867 -0.8989415 1.48089 0.16350715 0.810945 1.3645713 -0.35175896 1.628921
1.2708688 0.7229223 0.93876904 1.4529963 0.8265362 0.29995558 0.99619955 1.6069416
1.6398482 1.4926962 0.27593926 0.85920495 -1.2241668 1.2598053 0.843694 1.3353404
0.9374034 1.3006293 0.73806745 1.6907772 0.27271742 0.79295456 0.0704965 1.3938682
1.2997972 -0.49746332 1.0518091 0.553335 -0.7211293 -1.3398012 1.7075031 0.48843274
1.3078903 -0.9433127 0.56784636 0.942768 1.3254919 0.6375167 -1.0728357 0.8797632
00000000: 6a56 6a3f 0da4 9c3f 3544 5f3f 6782 efbd
00000010: 95b7 a53f e161 82bd 60d3 1ebe bb9e 933f
00000020: d892 533f 6b1f 173f 29d4 cc3e 8877 333f
00000030: 49a1 653e 3f48 87bf 72cb a33f d565 93bf
00000040: 2727 3d3f 0821 66bf ce8d bd3f 6b6e 273e
00000050: 179a 4f3f 46aa ae3f c019 b4be 7c80 d03f
00000060: d4ab a23f 7011 393f 2b53 703f c8fb b93f
00000070: e097 533f c793 993e ef06 7f3f 43b0 cd3f
00000080: 8ce6 d13f ab10 bf3f e947 8d3e dbf4 5b3f
00000090: 7fb1 9cbf 4d41 a13f 54fc 573f 6fec aa3f
000000a0: abf9 6f3f 057b a63f fdf1 3c3f 636b d83f
000000b0: 9ea1 8b3e 12ff 4a3f 7860 903d 466a b23f
000000c0: c15f a63f 83b3 febe aea1 863f 5da7 0d3f
000000d0: ee9b 38bf 9b7e abbf 768f da3f db13 fa3e
000000e0: f368 a73f f17c 71bf 615e 113f 3e59 713f
000000f0: b8a9 a93f 4b34 233f ae52 89bf 2938 613f

critic2.4.weight f4 [64, 64]
0.42892966 0.07001905 0.51850873 -0.17630793 -0.12650082 -0.12306447 -0.41810787 0.3960843
0.29087898 -0.578268 -0.07873439 0.29394126 0.14096846 -0.09618593 -0.26257604 0.120708644
-0.10172297 0.32062316 0.28448364 1.3648642 -0.011817851 -0.3965937 0.01991425 0.16712809
-0.2786699 0.100123115 0.089173205 0.19874983 -0.12621261 0.38640797 -0.34071526 0.31276044
-0.0677593 0.76075524 -0.16125575 0.46916127 -0.2837558 -0.7283083 -0.7431197 0.21795976
-0.7278665 0.17202878 0.041372336 0.34297037 -0.030813558 0.46787786 -0.26076028 0.028101638
-0.039578166 -0.71021575 0.4534552 -0.5798079 0.012160815 0.111236304 -0.14952794 -0.31411737
-0.22802904 -0.12769926 0.36082307 -0.050007526 0.03149748 0.03676749 -0.057575535 -0.37502858
-0.47092417 -0.89516264 0.18880188 -0.4437626 -0.21071133 -0.17003006 -0.49258208 0.026898393
-0.34937537 -0.085048765 -0.28268787 0.14011441 0.13326026 0.05810694 -0.30126143 -0.51562375
-1.0529033 -0.6035994 -0.014233393 0.06787332 0.68581164 0.08263995 0.37003422 0.46801376
-0.24474278 -0.23616625 0.20874773 -0.22852452 -0.030644916 0.08354059 -0.275113 -0.06367562
-0.1189193 0.5245025 -0.2737226 -0.09931842 -0.97826666 -0.11765786 -0.508899 0.39975584
0.4541121 -0.36980632 -0.29683942 -0.39375892 -0.34838533 0.8518273 0.25234547 -0.7138506
-0.3316326 -0.14469679 0.07938829 -0.76739347 -0.15157335 0.083981745 0.11549468 -0.31233034
-0.20531973 -0.36500525 -0.37239692 -0.13354258 -0.23180376 -0.0436298 -0.30501089 0.138884
-0.05823926 0.22385381 0.07054753 -0.3857763 -0.09713631 0.120815046 -0.048112288 0.1425725
0.33750945 0.4986377 0.09266339 0.30159265 0.039358024 -0.10845217 -0.09073657 -0.44798705
0.7111504 -0.42455053 0.3373565 0.5106702 0.094851315 0.18974945 0.15797223 0.39924926
0.38563883 0.028218292 -0.024222147 0.3477909 1.0088261 0.2915974 0.28777117 0.6092074
0.07309407 0.17252985 -0.12631342 -0.17057186 -0.22876549 0.41135275 0.0177309 0.22792351
0.3818039 0.21543363 0.20682172 0.17929198 0.07398503 0.3507717 -0.17186329 0.09567739
0.14124463 0.007390521 0.18107814 0.027569713 0.026593857 -0.7501024 0.31375098 0.19116017
0.2261443 0.208174 0.05080371 0.23847069 0.3351751 0.6886708 -0.10404503 0.19410233
0.16421577 0.011613302 -0.04448911 -0.057501927 0.01013712 0.1380367 -0.07590911 0.082303196
0.15049145 0.5450572 0.09164019 0.13913588 -0.18927364 0.007105855 0.026798703 -0.028354384
0.42021883 -0.21038225 0.47491565 0.7304639 0.27226484 0.28934932 0.22177236 0.52383417
-0.0059753014 0.3899494 0.24272373 0.36363247 1.0381973 0.12037562 0.28521243 0.3972699
0.40817955 0.23284233 0.19821563 -0.08596857 -0.22619687 0.017909652 -0.08337931 -0.15368767
0.23391066 0.53929985 0.15342581 0.020584652 0.10452125 0.28423095 -0.17423207 -0.09068559
0.022367848 0.14618035 -0.077898555 0.034278225 -0.36377388 -0.34777957 0.17278287 0.10251949
0.18961829 -0.208876 0.3863022 0.11107049 0.15171927 0.728775 -0.048310403 0.053384908
00000000: ab9c db3e 2666 8f3d fdbc 043f 118a 34be
00000010: 6e89 01be 3a09 fcbd 3c12 d6be 90cb ca3e
00000020: 17ee 943e 5f09 14bf 7f3f a1bd 787f 963e
00000030: 095a 103e 21fd c4bd 5e70 86be 1836 f73d
00000040: 2254 d0bd b828 a43e d7a7 913e dfb3 ae3f
00000050: a99f 41bc 540e cbbe 3623 a33c a023 2b3e
00000060: d2ad 8ebe 590d cd3d 71a0 b63d 1385 4b3e
00000070: e13d 01be 44d7 c53e 3b72 aebe 2322 a03e
00000080: 63c5 8abd dbc0 423f 3a20 25be e835 f03e
00000090: 7148 91be 6a72 3abf 183d 3ebf d830 5f3e
000000a0: 7555 3abf 5028 303e 0a76 293d d099 af3e
000000b0: b76c fcbc b08d ef3e 5f82 85be 6835 e63c
000000c0: b71c 22bd b3d0 35bf 482b e83e 4a6e 14bf
000000d0: 283e 473c dccf e33d da1d 19be fed3 a0be
000000e0: 7280 69be 98c3 02be cdbd b83e b1d4 4cbd
000000f0: 8003 013d 8299 163d 53d4 6bbd bf03 c0be
00000100: f91c f1be 6129 65bf 4855 413e da34 e3be
00000110: b6c4 57be 5c1c 2ebe b833 fcbe 055a dc3c
00000120: 54e1 b2be 0c2e aebd 77bc 90be 277a 0f3e
00000130: 6175 083e 8b01 6e3d f03e 9abe ebff 03bf
00000140: 89c5 86bf 7e85 1abf 2d33 69bc 2b01 8b3d
00000150: 5a91 2f3f 223f a93d 2075 bd3e 809f ef3e
00000160: da9d 7abe 91d5 71be f7c1 553e 5502 6abe
00000170: 0c0b fbbc 5417 ab3d 9cdb 8cbe 5d68 82bd
00000180: f68b f3bd cc45 063f 5e25 8cbe 7567 cbbd
00000190: af6f 7abf 9bf6 f0bd 3447 02bf ccac cc3e
000001a0: 6281 e83e 4157 bdbe 56fb 97be c59a c9be
000001b0: 905f b2be 5b11 5a3f 6d33 813e eabe 36bf
000001c0: c0cb a9be 652b 14be 5496 a23d e673 44bf
000001d0: 0b36 1bbe 9ffe ab3d 7a88 ec3d c3e9 9fbe
000001e0: 563f 52be f8e1 babe cfaa bebe 63bf 08be
000001f0: f75d 6dbe 29b5 32bd 632a 9cbe 9b37 0e3e
00000200: 4a8c 6ebd ef39 653e 397b 903d 7984 c5be
00000210: 67ef c6bd e16d f73d 6411 45bd 87fe 113e
00000220: 0ace ac3e 714d ff3e 4ec6 bd3d 5a6a 9a3e
00000230: e135 213d 2c1c debd 18d4 b9bd 8f5e e5be
00000240: f40d 363f b05e d9be feb9 ac3e 48bb 023f
00000250: 6841 c23d ae4d 423e 79c3 213e 666a cc3e
00000260: 7472 c53e 0c2a e73c 866d c6bc a611 b23e
00000270: 3721 813f 414c 953e be56 933e 04f5 1b3f
00000280: 58b2 953d aaab 303e 4e58 01be 64aa 2ebe
00000290: 8041 6abe d49c d23e 6440 913c c864 693e
000002a0: cd7b c33e a29a 5c3e 13c9 533e 5198 373e
000002b0: 7785 973d 5998 b33e eefc 2fbe 82f2 c33d
000002c0: 6fa2 103e 2f2c f23b 8c6c 393e e1d9 e13c
000002d0: 5cdb d93c b606 40bf f8a3 a03e 7ebf 433e
000002e0: 5f92 673e 912b 553e 8d17 503d a931 743e
000002f0: 129c ab3e bb4c 303f 9015 d5bd c3c2 463e
00000300: 2e28 283e b845 3e3c 373a 36bd 2487 6bbd
00000310: 2a16 263c 7e59 0d3e 3c76 9bbd 948e a83d
00000320: 6e1a 1a3e de88 0b3f daad bb3d a379 0e3e
00000330: f3d0 41be 3bd8 e83b f488 db3c 7447 e8bc
00000340: ec26 d73e 726e 57be 2528 f33e afff 3a3f
00000350: 4c66 8b3e 9825 943e 4b18 633e ff19 063f
00000360: 76cc c3bb 73a7 c73e 928c 783e 092e ba3e
00000370: a6e3 843f 7e87 f63d 5d07 923e f666 cb3e
00000380: e9fc d03e 386e 6e3e 0af9 4a3e 4a10 b0bd
00000390: 27a0 67be 43b7 923c c6c2 aabd 4d60 1dbe
000003a0: 4786 6f3e 8e0f 0a3f a81b 1d3e 25a1 a83c
000003b0: 3d0f d63d b886 913e e469 32be 5eb9 b9bd
000003c0: c73c b73c 4db0 153e 4789 9fbd 5367 0c3d
000003d0: 9240 babe 2a10 b2be feed 303e bdf5 d13d
000003e0: 4c2b 423e 97e3 55be 67c9 c53e ed78 e33d
000003f0: 4c5c 1b3e 0091 3a3f 21e1 45bd 22aa 5a3d

critic2.4.bias f4 [64]
-1.0082316 -0.45216435 1.2802086 1.1745847 1.2860107 -0.18965551 -0.43360615 -0.83697385
-0.62966776 1.2132713 -0.47105157 0.7556569 1.3715943 -0.3433484 -0.5358795 1.4715892
0.40268832 0.61767995 -0.88223785 1.1689351 0.81138283 1.1846703 -0.92502743 -0.15613733
-0.39478728 -0.05923721 -0.4442154 -0.8176427 1.4921424 0.04752572 1.4870911 -0.46903643
-0.45294577 -0.79969317 -0.9113693 -0.047173686 -0.50346065 1.1189123 -0.44508812 1.4954522
-0.020737195 1.5468345 1.1148483 -0.91216815 1.284923 0.375405 1.2054061 -0.9087925
-0.29071495 0.8296395 0.5680049 -0.7561138 0.074811615 -0.47526637 1.0013375 0.4254165
1.2082349 -0.58075964 0.949616 0.9485756 1.0437058 -0.9759036 -0.38830435 1.412079
00000000: bc0d 81bf 1682 e7be e0dd a33f cb58 963f
00000010: 009c a43f 0e35 42be a001 debe eb43 56bf
00000020: e831 21bf 794c 9b3f ac2d f1be bb72 413f
00000030: 6790 af3f 5dcb afbe 662f 09bf 095d bc3f
00000040: 2a2d ce3e 4620 1e3f 57da 61bf aa9f 953f
00000050: c9b6 4f3f 47a3 973f 99ce 6cbf 77e2 1fbe
00000060: 8f21 cabe b7a2 72bd 3370 e3be 0851 51bf
00000070: 86fe be3f 54aa 423d 0059 be3f 8b25 f0be
00000080: 82e8 e7be b1b8 4cbf 804f 69bf 3239 41bd
00000090: cce2 00bf 8538 8f3f 97e2 e3be fa6a bf3f
000000a0: 0de1 a9bc acfe c53f 59b3 8e3f da83 69bf
000000b0: 5b78 a43f 1635 c03e bf4a 9a3f a0a6 68bf
000000c0: 97d8 94be 4163 543f c568 113f ad90 41bf
000000d0: d536 993d 1d56 f3be d42b 803f 31d0 d93e
000000e0: 71a7 9a3f aaac 14bf 091a 733f dad5 723f
000000f0: 2798 853f d1d4 79bf d4cf c6be 01bf b43f

critic2.6.weight f4 [1, 64]
-0.5724974 -1.9797674 0.09672332 0.10563656 0.23882264 -0.8380691 -0.6798545 -0.7184203
-0.751811 0.06290072 -0.6685092 0.65466046 0.32984915 -0.66094667 -1.3112456 0.32531172
0.4799145 0.39328572 -0.8285802 0.10274303 0.59014523 0.21911822 -0.6070215 -1.1466793
-1.1156157 -0.0071533145 -0.5703711 -1.0787038 0.47754666 -0.83045363 0.16018894 -0.52252275
-0.516689 -0.39573193 -0.67510074 -0.006992192 -1.5733306 0.14945163 -1.0123733 0.3087936
-0.035085596 0.2716519 0.049811583 -0.37756675 0.12981187 0.34432143 0.17999776 -1.7937636
-0.7978655 0.4193636 1.6251866 -1.0527068 -1.5192289 -0.63359773 0.662161 0.5035333
0.012679547 -1.6785648 0.04727464 0.27257785 0.025634078 -0.60620874 -1.8915501 0.34786156
00000000: 318f 12bf 0569 fdbf e016 c63d fb57 d83d
00000010: ec8d 743e b28b 56bf f20a 2ebf 65ea 37bf
00000020: b076 40bf 18d2 803d 6b23 2bbf d497 273f
00000030: fde1 a83e cd33 29bf e5d6 a7bf 428f a63e
00000040: 5ab7 f53e bf5c c93e d51d 54bf f06a d23d
00000050: c213 173f 8760 603e c365 1bbf 63c6 92bf
00000060: 7fcc 8ebf 5a66 eabb d703 12bf f712 8abf
00000070: ff80 f43e 9c98 54bf 9208 243e 0dc4 05bf
00000080: bb45 04bf 609d cabe 67d3 2cbf c21e e5bb
00000090: e662 c9bf d909 193e 7395 81bf 321a 9e3e
000000a0: eab5 0fbd f515 8b3e 3b07 4c3d 6e50 c1be
000000b0: 67ed 043e e64a b03e 5551 383e 0c9a e5bf
000000c0: ea40 4cbf d3b6 d63e 1d06 d03f 19bf 86bf
000000d0: 1876 c2bf 7633 22bf 6283 293f 8fe7 003f
000000e0: e0bd 4f3c 36db d6bf 0ea3 413d 538f 8b3e
000000f0: 8ffe d13c 7f30 1bbf 501e f2bf e91a b23e
