maddpg_v6/model/simple_adversary/agent_2/4_actor_params.pt (torch, 23141 bytes, 6 tensors)

fc1.weight f4 [64, 10]
-0.30723214 -0.2361011 0.27822128 -0.33583477 0.15564862 -0.4189838 -0.27717143 -0.08903374
0.3300903 0.2506573 -0.24966435 0.45100623 -0.27880263 0.256993 -0.25401008 0.09176732
0.037469245 -0.07741367 -0.15623109 -0.35382333 -0.026414922 0.13268255 -0.09932306 -0.076428704
-0.02029029 -0.21336015 -0.21092026 -0.28403255 -0.47546953 0.12816787 -0.31060222 0.39850467
0.08759112 -0.11609871 0.2484283 0.3675992 -0.21360026 0.33162773 0.33737162 0.42842093
0.26124576 0.11014252 0.030638587 0.21331872 -0.34381068 -0.19886082 -0.35847333 0.39529735
-0.30396047 -0.31371224 -0.22467178 0.15000379 0.12942536 0.42896336 -0.20158614 0.44292748
-0.3088547 -0.26342085 -0.40953946 0.12937388 -0.2311698 -0.19013205 0.14641254 -0.20707645
0.27951127 0.16648908 -0.26973036 -0.46990952 -0.107427664 0.28524458 -0.22491772 -0.28013664
-0.07923191 -0.19396803 0.022873348 -0.027881134 -0.20770225 -0.09095909 0.43586904 0.027926018
-0.31106037 0.026743812 0.33439788 -0.35526258 0.18727387 -0.30083072 0.34224007 -0.14298047
-0.29057977 -0.30481222 0.21846168 -0.00831267 0.2850112 -0.23771572 0.3519119 0.26602992
-0.06543443 -0.30266914 0.21427384 -0.10487518 -0.22838964 -0.32738924 -0.021949625 -0.27715766
0.116972 0.35300457 -0.033047587 -0.39886144 0.020515349 -0.4263465 -0.19655578 0.2508309
0.3082931 0.25204492 -0.03224941 0.3366044 0.06772634 -0.13704742 -0.17775899 -0.0030937498
-0.11694053 0.49259478 -0.039091147 -0.12030606 -0.23515676 -0.3866266 -0.11745814 0.32994395
0.31739652 0.089210816 0.20115447 0.24524298 -0.19066523 0.49603337 0.18125369 -0.038281497
0.06857697 -0.13080062 0.037177283 -0.2908647 -0.44803223 0.13218857 -0.3273338 0.08295697
0.08573823 0.29475394 -0.058783192 -0.34304196 0.06698001 -0.0212813 -0.39171538 -0.23489802
0.3821413 -0.09269238 0.0050933114 0.27125055 -0.21829145 -0.33199972 -0.19448689 -0.26446843
-0.086094595 -0.19493802 0.41584298 0.17595251 0.32680047 -0.35895857 0.052963737 -0.38105816
-0.30524072 -0.13341951 -0.1464482 0.35642427 0.281487 -0.3399851 -0.11795007 0.15005182
-0.3380991 -0.21787548 0.05626351 -0.25286463 0.061004013 -0.165658 0.2790794 0.31718576
-0.17092437 0.13005035 -0.01680839 0.048907142 -0.038520858 -0.038702197 -0.1211241 0.01319789
0.4490132 0.20232807 0.39966395 -0.122031145 0.4788428 -0.19416739 0.4615332 -0.031117553
-0.18729377 -0.06490785 0.24498619 -0.23296481 0.15436663 0.3703599 0.086393185 -0.020716267
-0.33977288 -0.19188108 0.0362004 0.5393292 -0.36700243 0.20552616 -0.29924133 -0.033933867
-0.24198285 0.046589702 0.27948493 -0.33995542 0.36096457 -0.3552945 0.11354724 -0.2730184
-0.09205149 0.35047036 -0.075662434 -0.064159006 0.31025207 0.37893212 0.3934278 -0.41572675
-0.26618332 -0.2923626 0.15932356 -0.44737607 -0.23102604 0.008030807 0.1316396 -0.19910456
0.15632169 0.15837029 -0.06933061 0.52886194 -0.34562555 0.3037606 0.33782798 0.21012248
-0.25121525 0.46548662 0.0030448746 -0.06647315 -0.044633448 0.09769157 -0.24408728 -0.15494242
00000000: 884d 9dbe 7dc4 71be 0573 8e3e 89f2 abbe
00000010: 5a62 1f3e 0b85 d6be 6ae9 8dbe 5257 b6bd
00000020: 9901 a93e 2756 803e 03a8 7fbe 4aea e63e
00000030: 38bf 8ebe 9694 833e 9c0d 82be 81f0 bb3d
00000040: 5a79 193d 0f8b 9ebd 0bfb 1fbe 5528 b5be
00000050: 1b64 d8bc efdd 073e e369 cbbd a786 9cbd
00000060: d237 a6bc 157b 5abe 7bfb 57be b76c 91be
00000070: be70 f3be 703e 033e 4107 9fbe ce08 cc3e
00000080: f962 b33d 29c5 edbd fd63 7e3e f635 bc3e
00000090: 07ba 5abe 1ccb a93e f9bb ac3e fd59 db3e
000000a0: 01c2 853e 6792 e13d c6fd fa3c 3970 5a3e
000000b0: f407 b0be 2ca2 4bbe d189 b7be 6a64 ca3e
000000c0: b5a0 9bbe e49e a0be 5c10 66be 989a 193e
000000d0: 1588 043e 16a1 db3e 996c 4ebe 64c7 e23e
000000e0: 3422 9ebe 19df 86be 28af d1be 967a 043e
000000f0: c7b7 6cbe fab1 42be 2bed 153e d90b 54be
00000100: 1a1c 8f3e 1d7c 2a3e 191a 8abe fb97 f0be
00000110: 0903 dcbd 940b 923e d550 66be 126e 8fbe
00000120: 5744 a2bd 8e9f 46be e360 bb3c fa66 e4bc
00000130: e6af 54be c248 babd 3a2a df3e 1bc5 e43c
00000140: 4e43 9fbe d715 db3c 3336 ab3e fae4 b5be
00000150: b9c4 3f3e 7c06 9abe 173a af3e 7969 12be
00000160: dfc6 94be 5910 9cbe 6bb4 5f3e dd31 08bc
00000170: fdec 913e c06b 73be cc2d b43e 1335 883e
00000180: 7d02 86bd 73f7 9abe 9a6a 5b3e ccc8 d6bd
00000190: f9de 69be 909f a7be b3cf b3bc 9ce7 8dbe
000001a0: 048f ef3d 04bd b43e e85c 07bd 9137 ccbe
000001b0: ce0f a83c 174a dabe eb45 49be e86c 803e
000001c0: 98d8 9d3e 080c 813e f517 04bd 6957 ac3e
000001d0: 1bb4 8a3d 2956 0cbe 7406 36be 82c0 4abb
000001e0: 847e efbd 6235 fc3e 0a1e 20bd 0663 f6bd
000001f0: efcc 70be ecf3 c5be e58d f0bd 6aee a83e
00000200: cc81 a23e 29b4 b63d 70fb 4d3e fa20 7b3e
00000210: bf3d 43be 16f8 fd3e 919a 393e 0fcd 1cbd
00000220: 1572 8c3d 99f0 05be 3547 183d 38ec 94be
00000230: 7b64 e5be 715c 073e 4c98 a7be 58e5 a93d
00000240: 8697 af3d fde9 963e a5c6 70bd 32a3 afbe
00000250: d12c 893d 1f56 aebc eb8e c8be 1b89 70be
00000260: 06a8 c33e 81d5 bdbd cbe5 a63b 5ae1 8a3e
00000270: cb87 5fbe defb a9be 9227 47be 6868 87be
00000280: 5d52 b0bd d59d 47be 5fe9 d43e e52c 343e
00000290: 6452 a73e 6bc9 b7be 81f0 583d 0e1a c3be
000002a0: 8348 9cbe 209f 08be 84f6 15be 3e7d b63e
000002b0: 101f 903e 8712 aebe ce8f f1bd 2fa7 193e
000002c0: 531b adbe c01a 5fbe 9174 663d 7977 81be
000002d0: 58df 793d 40a2 29be 7fe3 8e3e 2c66 a23e
000002e0: cc06 2fbe eb2b 053e c0b1 89bc db52 483d
000002f0: 0cc8 1dbd 3286 1ebd ea0f f8bd f63b 583c
00000300: 0fe5 e53e 172f 4f3e c1a0 cc3e 77eb f9bd
00000310: e22a f53e d1d3 46be 144e ec3e 3dea febc
00000320: f0c9 3fbe 68ee 84bd a9dd 7a3e 548e 6ebe
00000330: 4912 1e3e d09f bd3e e9ee b03d 29b5 a9bc
00000340: b6f6 adbe 797c 44be df46 143d 7a11 0a3f
00000350: bee7 bbbe 7375 523e 2936 99be 3dfe 0abd
00000360: 5aca 77be d8d4 3e3d a618 8f3e a30e aebe
00000370: 59d0 b83e 29e9 b5be 758b e83d 11c9 8bbe
00000380: 7e85 bcbd da70 b33e e8f4 9abd cc65 83bd
00000390: 5cd9 9e3e 6403 c23e 5e6f c93e 23da d4be
000003a0: 2e49 88be 8db0 95be b725 233e 7a0e e5be
000003b0: 1792 6cbe a593 033c 88cc 063e 11e2 4bbe
000003c0: cb12 203e d22b 223e 35fd 8dbd 7f63 073f
000003d0: d5f5 b0be 8286 9b3e caf7 ac3e 592a 573e
000003e0: 499f 80be 4354 ee3e 858c 473b 1323 88bd
000003f0: 90d1 36bd 8512 c83d 04f2 79be 3aa9 1ebe

fc1.bias f4 [64]
0.35257804 0.32794666 0.25930575 -0.23295873 -0.0881811 0.057396263 0.48940176 -0.2971798
-0.025925886 0.13704857 -0.13565508 0.13498892 -0.17594941 0.20576291 -0.07968997 0.12235925
-0.059088446 -0.12033949 -0.24871707 0.225119 0.27822596 0.30103207 0.14851376 0.391058
0.18064325 0.17083488 -0.3408623 -0.16920914 0.44342437 0.031374294 -0.099726714 -0.10973137
0.07541411 0.17532285 0.464582 -0.113140345 0.41124922 -0.14965147 -0.11032312 0.25429955
-0.124108285 0.41175815 0.25062945 -0.15252621 0.36893973 -0.18426716 0.10117631 -0.12030346
-0.33001262 0.054809175 0.20377247 -0.26999274 0.38392195 0.10013095 0.2809772 -0.07220844
0.11405231 -0.118544556 0.0887259 0.059497103 -0.1849248 0.13739137 -0.045372095 0.04934808
00000000: 1c85 b43e a0e8 a73e b9c3 843e bc8c 6ebe
00000010: 4b98 b4bd 5818 6b3d de92 fa3e f327 98be
00000020: 8662 d4bc 7656 0c3e 2ae9 0abe 893a 0a3e
00000030: 152c 34be 83b3 523e 7f34 a3bd 7d97 fa3d
00000040: ba06 72bd 8d74 f6bd b0af 7ebe 9885 663e
00000050: a273 8e3e e020 9a3e fe13 183e c138 c83e
00000060: 8bfa 383e 57ef 2e3e 8185 aebe 2945 2dbe
00000070: 8508 e33e 5582 003d 853d ccbd d7ba e0bd
00000080: b772 9a3d d587 333e b1dd ed3e 20b6 e7bd
00000090: 428f d23e 3c3e 19be 17f1 e1bd 8d33 823e
000000a0: 7c2c febd f7d1 d23e 8152 803e d52f 1cbe
000000b0: abe5 bc3e 88b0 3cbe 8635 cf3d a961 f6bd
000000c0: 6af7 a8be 967f 603d bba9 503e 7d3c 8abe
000000d0: 6b91 c43e 7511 cd3d 3edc 8f3e 05e2 93bd
000000e0: 4294 e93d 7dc7 f2bd edb5 b53d 3cb3 733d
000000f0: ed5c 3dbe 53b0 0c3e 17d8 39bd 3621 4a3d

fc2.weight f4 [64, 64]
-0.01484805 0.3550791 0.20226052 0.127363 0.29345995 -0.06473988 -0.13635969 -0.20403911
0.050570942 0.01069186 0.031381562 -0.08321659 0.26415357 -0.063450016 0.25604302 0.038912915
0.11880233 -0.32626584 0.18143813 -0.14200008 0.0587857 0.16543272 0.14218359 0.3512984
0.30659986 -0.11928883 0.16275726 -0.2075619 0.08156798 0.37371644 0.3367814 0.10353451
0.19487204 0.3560069 0.0815562 0.19537252 -0.25480413 0.050353676 0.1238301 0.2588606
-0.1052502 -0.14942189 0.43435535 0.18619129 0.035453197 -0.09358949 -0.26346564 0.20770185
-0.02084727 0.010277163 0.26543218 -0.17781779 0.38036323 0.16466214 0.24543495 0.04750902
-0.09059451 -0.12107024 0.06812782 0.3726792 -0.29752445 0.06948645 -0.1436774 -0.2043325
0.16539304 0.22386722 -0.12966335 0.30543813 0.14680322 -0.06316171 0.3343135 -0.20869495
0.09709942 0.005576286 -0.0108001 -0.20651254 0.28434178 0.28450486 0.17601207 0.2445616
0.106191695 -0.034548607 -0.16362967 0.0014475164 0.07760615 0.02499226 -0.046987448 0.3579118
0.18237305 0.047165286 -0.20963101 -0.111760564 -0.05795637 -0.2209947 -0.18343112 0.26701683
0.25357392 0.0018761181 0.16194806 0.120712176 0.323532 0.16581778 0.0776984 0.25805014
-0.009320712 0.26767847 -0.16264391 0.15867065 0.18248288 -0.028283387 0.3136987 -0.08300504
-0.13960688 0.3041871 -0.059987344 0.29023796 0.39692566 -0.07391147 -0.15437885 0.11575627
-0.08861206 -0.24673824 -0.20851183 -0.16443154 -0.16141124 0.0062696147 0.24207097 -0.13707794
-0.06504182 -0.010298285 -0.32009822 -0.19204322 -0.17463773 0.10597123 0.15034829 -0.2636991
-0.13030094 -0.2812099 0.27946004 -0.04191766 -0.115720384 0.18843955 0.069968045 -0.2138396
0.1245435 0.18161567 -0.11952563 -0.05528104 0.0885322 0.09140722 -0.28076932 -0.04615745
0.02342418 -0.32868874 -0.30734262 -0.18802793 -0.30816033 -0.25271535 0.029170176 0.12757736
-0.16554403 0.15008885 -0.33897823 -0.2196621 0.20368981 -0.049213976 -0.1395355 -0.16957638
0.17351142 0.20427504 0.1667983 -0.095408976 -0.13904515 -0.10264085 -0.1799053 -0.075506225
0.048863336 0.22781277 -0.19178282 0.2176721 0.050301783 -0.20357706 0.08127742 -0.21798825
0.109446146 -0.22612429 -0.14723425 -0.11129558 0.2720319 0.15862511 -0.09753349 -0.08550739
0.15041825 0.058297765 -0.2882895 0.0034589649 0.15440415 0.02670001 0.112755574 0.068270676
-0.036367908 0.087133214 -0.2797162 0.050864704 -0.23817432 -0.20708102 0.16345757 0.2752501
-0.10960693 -0.060107745 -0.31367412 -0.07455677 -0.2666283 -0.27413273 -0.18344037 -0.010099271
-0.102365315 0.3753362 -0.32049286 -0.18849498 -0.017471164 -0.25449917 -0.15820451 -0.08208751
-0.16113786 0.2397818 -0.06511481 -0.18711802 -0.056145545 -0.12784854 0.021963436 -0.31523365
-0.048394658 0.12916778 -0.25044805 -0.19481353 -0.10038709 -0.28570288 -0.09754797 0.2020368
-0.048834693 0.23650192 0.22372329 -0.021264855 0.041629203 0.23672952 -0.053292733 0.3178231
-0.19902585 -0.15860115 0.07225502 -0.12654465 0.23487724 0.06270008 0.11220038 0.18836425
00000000: 3c45 73bc eecc b53e 621d 4f3e 726b 023e
00000010: 6240 963e 5896 84bd e0a1 0bbe a1ef 50be
00000020: 7a23 4f3d e92c 2f3c f489 003d 766d aabd
00000030: 233f 873e 15f2 81bd 1218 833e 2663 1f3d
00000040: a34e f33d 510c a7be ebca 393e 7868 11be
00000050: 46c9 703d 3267 293e 9398 113e 62dd b33e
00000060: a8fa 9c3e b44d f4bd d7a9 263e 1b8b 54be
00000070: 1d0d a73d c357 bf3e 9d6e ac3e e709 d43d
00000080: 898c 473e 8946 b63e f006 a73d bc0f 483e
00000090: b075 82be a83f 4e3d a39a fd3d 6089 843e
000000a0: 6b8d d7bd 0d02 19be d363 de3e eea8 3e3e
000000b0: 5f37 113d d9ab bfbd f8e4 86be cbaf 543e
000000c0: e5c7 aabc 8c61 283c bae6 873e de15 36be
000000d0: f8be c23e 319d 283e 4d53 7b3e d198 423d
000000e0: 9d89 b9bd adf3 f7bd 9986 8b3d cfcf be3e
000000f0: 2055 98be e94e 8e3d 2b20 13be 8a3c 51be
00000100: cb5c 293e 733d 653e 78c6 04be 6362 9c3e
00000110: 9553 163e ed5a 81bd 242b ab3e 21b4 55be
00000120: 10dc c63d 47b9 b63b e7f2 30bc 0678 53be
00000130: 3f95 913e 9faa 913e 823c 343e 5b6e 7a3e
00000140: 087b d93d d782 0dbd 898e 27be 97ba bd3a
00000150: f9ef 9e3d 91bc cc3c e975 40bd 3740 b73e
00000160: 00c0 3a3e 6330 413d 83a9 56be b9e2 e4bd
00000170: a963 6dbd 6f4c 62be 5ed5 3bbe 6eb6 883e
00000180: 71d4 813e 14e8 f53a b6d5 253e f237 f73d
00000190: fca5 a53e 23cc 293e 5720 9f3d 261f 843e
000001a0: e6b5 18bc 270d 893e 208c 26be 8f7a 223e
000001b0: cbdc 3a3e 90b2 e7bc 1e9d a03e 8cfe a9bd
000001c0: 1bf5 0ebe 69be 9b3e 4ab5 75bd 129a 943e
000001d0: d739 cb3e e65e 97bd 7d15 1ebe a011 ed3d
000001e0: 3d7a b5bd f3a8 7cbe 2084 55be be60 28be
000001f0: fd48 25be 5771 cd3b 74e1 773e 295e 0cbe
00000200: a534 85bd 23ba 28bc eae3 a3be faa6 44be
00000210: 3cd4 32be 7207 d93d e7f4 193e 9203 87be
00000220: 9c6d 05be befa 8fbe 6315 8f3e dab1 2bbd
00000230: cffe ecbd 4cf6 403e 684b 8f3d c5f8 5abe
00000240: aa10 ff3d 75f9 393e dac9 f4bd 5f6e 62bd
00000250: 5f50 b53d b533 bb3d ffc0 8fbe 980f 3dbd
00000260: 11e4 bf3c e449 a8be 035c 9dbe 658a 40be
00000270: 31c7 9dbe e863 81be 4bf6 ee3c a4a3 023e
00000280: 6084 29be e4b0 193e 8e8e adbe 1aef 60be
00000290: 1094 503e 9894 49bd 65e2 0ebe 6ea5 2dbe
000002a0: faac 313e 7a2d 513e 2ccd 2a3e c865 c3bd
000002b0: da61 0ebe 5e35 d2bd 1839 38be 02a3 9abd
000002c0: ec24 483d c047 693e b762 44be 6fe5 5e3e
000002d0: 3e09 4e3d 8176 50be c774 a63d 5038 5fbe
000002e0: 4d25 e03d 208d 67be 93c4 16be f0ee e3bd
000002f0: c447 8b3e 9f6e 223e a3bf c7bd 801e afbd
00000300: 3e07 1a3e a3c9 6e3d ae9a 93be cdaf 623b
00000310: 1f1c 1e3e fbb9 da3c 65ec e63d 7fd1 8b3d
00000320: 84f6 14bd e672 b23d f636 8fbe 8257 503d
00000330: f8e3 73be 0c0d 54be 6c61 273e 95ed 8c3e
00000340: 9979 e0bd 8a33 76bd e599 a0be 38b1 98bd
00000350: 8183 88be 205b 8cbe cbd7 3bbe 6a77 25bc
00000360: e8a4 d1bd 112c c03e a417 a4be d404 41be
00000370: b01f 8fbc b74d 82be 5d00 22be 7f1d a8bd
00000380: 5301 25be 5c89 753e ea5a 85bd de9b 3fbe
00000390: dff8 65bd baea 02be aaec b33c 4e66 a1be
000003a0: 7a39 46bd 8f44 043e ba3a 80be 337d 47be
000003b0: bf97 cdbd a647 92be 3bc7 c7bd bce2 4e3e
000003c0: e306 48bd 8f2d 723e b817 653e a233 aebc
000003d0: 6283 2a3d 3969 723e 7b49 5abd b6b9 a23e
000003e0: 6fcd 4bbe 5768 22be 71fa 933d ec94 01be
000003f0: a983 703e e668 803d 50c9 e53d 8fe2 403e

fc2.bias f4 [64]
0.10873577 0.26228747 -0.1476354 -0.023753278 -0.068157054 0.020552285 0.046118107 0.1263248
-0.011138658 0.029797882 0.031019954 -0.048755087 -0.074872635 0.119700626 0.15613921 0.23191614
0.11284648 0.016126564 0.1728795 0.07420525 0.027910447 0.064137265 0.15286732 -0.054410517
-0.21821876 -0.082212634 -0.076368906 0.18120667 0.058565974 0.23288876 0.0136050545 -0.1251
0.09120132 0.09380598 0.22969636 0.087373294 -0.046622224 0.20838337 0.029019482 0.17349236
0.2327576 0.025352238 0.12298789 0.2073463 0.10387787 0.25240546 0.14202653 0.22290349
0.13998337 0.07844787 0.06219008 -0.10112962 0.19099589 -0.055476785 -0.12358204 -0.010500805
0.03728702 0.050983503 0.038861305 0.094841495 -0.06420248 -0.1106115 0.06420163 -0.0063375393
00000000: dcb0 de3d 8b4a 863e bc2d 17be 3c96 c2bc
00000010: ed95 8bbd 445d a83c 57e6 3c3d 4a5b 013e
00000020: eb7e 36bc b01a f43c 8f1d fe3c 6ab3 47bd
00000030: d356 99bd 9a25 f53d f5e2 1f3e 6d7b 6d3e
00000040: 0e1c e73d db1b 843c 5307 313e ecf8 973d
00000050: 73a4 e43c 665a 833d 4089 1c3e 90dd 5ebd
00000060: bd74 5fbe 195f a8bd 4d67 9cbd 3e8e 393e
00000070: e0e2 6f3d 647a 6e3e bce7 5e3c 371a 00be
00000080: c2c7 ba3d 5a1d c03d 8635 6b3e c5f0 b23d
00000090: f2f6 3ebd 7362 553e 44ba ed3c fba7 313e
000000a0: 0258 6e3e 7faf cf3c 13e1 fb3d 9752 543e
000000b0: ecbd d43d 4a3b 813e 676f 113e d040 643e
000000c0: cd57 0f3e 47a9 a03d 06bb 7e3d 0c1d cfbd
000000d0: 6d94 433e a03b 63bd 9518 fdbd 920b 2cbc
000000e0: 46ba 183d 14d4 503d 082d 1f3d 423c c23d
000000f0: 977c 83bd 4888 e2bd 257c 833d 22ab cfbb

pi.weight f4 [5, 64]
0.4377898 0.5141664 -0.1881339 -0.38351616 -0.20130642 0.082922965 0.2625471 0.256847
-0.4322671 0.45019367 0.3076484 -0.31852153 -0.15518779 0.49494267 0.010914034 0.41006753
-0.34714103 0.35556945 -0.012958235 -0.30748603 0.22731304 0.090420984 0.52303416 -0.3752073
-0.1168271 -0.21060117 -0.37514654 0.24276315 -0.35439938 0.07916189 0.042183183 -0.23116452
0.41454577 0.25317696 0.57689536 -0.01606731 -0.22892848 0.5530195 0.118805945 0.15362827
0.5346511 -0.28531 0.33486748 0.44484916 0.19594271 0.27849454 0.21701299 0.41744462
0.14651784 0.28665432 0.49459696 -0.15725407 0.17657821 -0.20986274 0.036460415 0.09079586
-0.4407472 0.23367183 -0.07314143 0.25793564 -0.3825691 -0.08924338 0.0076085962 -0.27520964
0.052482475 -0.24755059 -0.4439515 0.115185454 -0.17816736 -0.28461108 0.17416711 -0.30215678
-0.21606283 0.18911472 -0.40283296 0.1602378 -0.21147019 0.04035415 -0.39022565 -0.3415429
-0.41929138 -0.24118008 -0.5153832 -0.44953242 -0.50178486 -0.3219943 -0.28291115 0.1549981
0.20456085 0.2697721 0.34489012 0.23446101 -0.41283286 -0.29615688 -0.0142758945 -0.28617802
-0.4224896 -0.46902153 -0.2687243 -0.28916413 -0.45000836 -0.32964385 -0.40630138 0.13092463
-0.09252838 -0.10649078 -0.28768864 -0.33870968 0.09253088 0.23122106 -0.04832559 0.037359983
-0.51672 -0.32071388 -0.17040953 -0.08564097 -0.4652007 -0.15973502 0.21375668 -0.35097873
-0.23696734 -0.2728153 0.051667675 -0.16404676 0.20238602 -0.055739682 -0.12694658 -0.026702598
0.32998666 -0.2942246 -0.21998431 0.022332756 0.093822956 -0.4587857 -0.0639302 -0.17476697
0.060436647 -0.34448245 0.24398157 0.09142796 0.12808833 -0.35478675 -0.4431319 -0.2064044
-0.25145543 0.17922442 -0.018528037 -0.26245844 -0.3177614 -0.191537 -0.42659935 0.3517154
0.09242114 -0.25436753 0.3690522 -0.22852089 0.17648524 -0.11130266 0.3064073 0.27263808
-0.32449126 -0.37749383 -0.4819237 -0.47925428 0.1568944 -0.08028057 0.19901656 0.13106304
0.14846678 0.17286707 0.2978251 0.29175743 -0.5388376 -0.22358494 -0.39907005 -0.48201698
-0.021062994 0.19458464 -0.29590937 -0.13254943 -0.37586895 0.11350718 0.22147535 0.18580621
-0.03484311 -0.3330265 -0.04428307 0.14878365 0.21800527 -0.45735955 -0.46395308 0.045209125
-0.26824546 0.06323416 -0.36110008 -0.2824929 -0.042148408 -0.5427707 0.039463177 -0.36504614
-0.25250486 0.02219054 -0.097229816 -0.3455612 -0.2291402 -0.21119733 -0.09159265 -0.044994507
-0.025102751 0.1711525 -0.46447694 -0.42649847 -0.30162254 -0.10031723 -0.3539815 -0.32193148
0.41812396 0.038514376 -0.14093599 -0.41297245 0.0048201378 -0.43936148 -0.48613635 -0.4702617
0.2724313 0.19601178 -0.4240147 0.22479184 -0.45756862 0.19000226 -0.22309461 -0.47935745
-0.49257714 0.10424353 -0.13248117 -0.14665478 -0.11431296 -0.4711683 0.03254485 0.07756524
-0.23520792 -0.29985794 0.11035299 -0.091868654 -0.06888537 0.32593852 -0.14420293 0.030347383
0.1978733 -0.02754178 -0.46739888 -0.4340195 -0.033229023 0.07289094 0.2298198 0.05126437
00000000: fc25 e03e 69a0 033f 2ca6 40be 3b5c c4be
00000010: 4523 4ebe 84d3 a93d 936c 863e 7381 833e
00000020: 1d52 ddbe c97f e63e 1784 9d3e 4115 a3be
00000030: 8ce9 1ebe 2069 fd3e c7d0 323c 5ff4 d13e
00000040: 78bc b1be 330d b63e c74e 54bc cf6e 9dbe
00000050: c0c4 683e a32e b93d 91e5 053f 2c1b c0be
00000060: 0c43 efbd d5a7 57be 3513 c0be e796 783e
00000070: d673 b5be a11f a23d 46c8 2c3d 64b6 6cbe
00000080: 583f d43e 69a0 813e 6aaf 133f 979f 83bc
00000090: 3a6c 6abe b092 0d3f 8850 f33d bb50 1d3e
000000a0: e5de 083f 2714 92be c073 ab3e 45c3 e33e
000000b0: 35a5 483e d696 8e3e a738 5e3e 4dbb d53e
000000c0: c608 163e 5bc4 923e d03b fd3e 3607 21be
000000d0: ebd0 343e 42e6 56be 8457 153d 2ef3 b93d
000000e0: 9ea9 e1be ab47 6f3e 2dcb 95bd 2410 843e
000000f0: 19e0 c3be 3cc5 b6bd 8851 f93b 47e8 8cbe
00000100: ddf7 563d e77d 7dbe 9c4d e3be 5ae6 eb3d
00000110: 8171 36be 8bb8 91be dd58 323e 4bb4 9abe
00000120: 933f 5dbe 4aa7 413e 1f40 cebe 6115 243e
00000130: a48b 58be 654a 253d a8cb c7be b6de aebe
00000140: 5cad d6be e9f7 76be 27f0 03bf 1d29 e6be
00000150: f974 00bf 70dc a4be bbd9 90be d2b7 1e3e
00000160: 6678 513e 921f 8a3e 7095 b03e 8c16 703e
00000170: d45e d3be e0a1 97be 71e5 69bc ed85 92be
00000180: 8f50 d8be 9723 f0be 3b96 89be 520d 94be
00000190: 7f67 e6be 14c7 a8be bc06 d0be 1b11 063e
000001a0: 857f bdbd d717 dabd ed4b 93be 5b6b adbe
000001b0: d480 bd3d 37c5 6c3e 0ef1 45bd c806 193d
000001c0: c347 04bf 9c34 a4be d67f 2ebe 8864 afbd
000001d0: c92e eebe 9491 23be 08e3 5a3e 7cb3 b3be
000001e0: 91a7 72be 72ae 8bbe 7ca1 533d e0fb 27be
000001f0: 483e 4f3e 4b4f 64bd 49fe 01be 68bf dabc
00000200: 03f4 a83e 9ba4 96be 9143 61be 2ff3 b63c
00000210: 4026 c03d f6e5 eabe d6ed 82bd 1df6 32be
00000220: 6b8c 773d 0160 b0be 4ed6 793e 953e bb3d
00000230: 9629 033e 9ca6 b5be 2fe2 e2be ad5b 53be
00000240: c4be 80be 9b86 373e 1cc8 97bc f460 86be
00000250: 9fb1 a2be 4622 44be 3b6b dabe 0a14 b43e
00000260: 4b47 bd3d 763c 82be 69f4 bc3e 6101 6abe
00000270: 8cb8 343e a6f2 e3bd 6be1 9c3e 3897 8b3e
00000280: b823 a6be df46 c1be b4be f6be d160 f5be
00000290: eda8 203e 246a a4bd ffca 4b3e 6435 063e
000002a0: ad07 183e 1104 313e 887c 983e 3b61 953e
000002b0: 43f1 09bf 73f3 64be e952 ccbe eeca f6be
000002c0: 4d8c acbc 3241 473e 6f81 97be 0abb 07be
000002d0: e571 c0be 7476 e83d 6fca 623e fc43 3e3e
000002e0: a6b7 0ebd 7382 aabe 2a62 35bd be5a 183e
000002f0: c63c 5f3e 082b eabe 428b edbe 342d 393d
00000300: 7857 89be e980 813d 1ce2 b8be e9a2 90be
00000310: cfa3 2cbd 05f3 0abf 24a4 213d 54e7 babe
00000320: 5148 81be efc8 b53c 6d20 c7bd 66ed b0be
00000330: bba3 6abe 1d44 58be ed94 bbbd 294c 38bd
00000340: 49a4 cdbc 9a42 2f3e eccf edbe 025e dabe
00000350: 456e 9abe 1f73 cdbd 103d b5be 34d4 a4be
00000360: 5814 d63e 40c1 1d3d 8651 10be 2071 d3be
00000370: 3ff2 9d3b fdf3 e0be dde6 f8be 24c6 f0be
00000380: 1e7c 8b3e 50b7 483e 7418 d9be d52f 663e
00000390: 6f46 eabe f48f 423e ea72 64be 576e f5be
000003a0: 1233 fcbe a27d d53d 25a9 07be ac2c 16be
000003b0: ea1c eabd f93c f1be c04d 053d 86da 9e3d
000003c0: 58da 70be fb86 99be c000 e23d a225 bcbd
000003d0: c613 8dbd 6ae1 a63e efa9 13be 139b f83c
000003e0: 4c9f 4a3e 4d9f e1bc e84e efbe ce37 debe
000003f0: 281b 08bd d847 953d e255 6b3e 97fa 513d

pi.bias f4 [5]
0.07726405 -0.069651105 -0.1017217 -0.07684316 -0.058274023
00000000: 9d3c 9e3d 3da5 8ebd 7753 d0bd f25f 9dbd
00000010: beb0 6ebd
